checkpoints_lenet5/baseline_scratch/lenet5/household_furniture/checkpoint-100.pth.tar (torch, 312213 bytes, 12 tensors)

features.0.weight f4 [6, 3, 5, 5]
000000 bc 62 b7 be 8b be 06 be af 56 c4 3d ca 5f 3d 3e
       -0.35817516 -0.13158624 0.09586846 0.18493572
000010 e1 9c 13 3e 3b 56 dd bd ef 87 8e 3b 89 39 5c 3e
       0.14415313 -0.10807463 0.0043497006 0.21506323
000020 2e ca be 3e 91 59 cf 3e da 88 76 3d b8 cf 76 be
       0.37263626 0.4049802 0.060189106 -0.24102676
000030 ed 78 b4 3e 9b 7d 7c 3d 15 30 46 3e f9 fb 72 bd
       0.3524851 0.061643224 0.1935428 -0.05932233
000040 e4 0b 3d bd 49 5a 34 be e4 64 2c 3e cb 61 56 3a
       -0.046153918 -0.17612566 0.16835362 0.00081780244
000050 69 29 7a 3d 0b 80 8b 3d e3 7b 00 3e 5c 09 c7 bd
       0.061074648 0.06811532 0.12547259 -0.09718582
000060 3c e1 0d be 5e 1f 37 3c 01 85 6a 3c 3d 72 38 bd
       -0.13855451 0.011176912 0.014313937 -0.04503082
000070 4f 86 b8 bc 6c 17 e4 3d 9e 50 9c be 96 32 71 be
       -0.02252498 0.1113728 -0.30530256 -0.23554453
000080 22 82 b5 3d a3 bd d6 bd 7b 4f 78 3c 8e b7 08 be
       0.088627115 -0.10485389 0.015155668 -0.1335127
000090 bd 07 87 be d7 87 cb be 8e c6 67 be 10 d3 0c bc
       -0.2637309 -0.39752075 -0.22634336 -0.008595243
0000a0 b9 98 8d bd eb c3 7e be 7a dc 5b be 15 15 90 be
       -0.06913895 -0.24879424 -0.21470824 -0.28141084
0000b0 a7 dd b4 bd 00 3a dc bd 8d ba 0d 3e c4 e3 21 3e
       -0.08831339 -0.1075325 0.13840695 0.15809542
0000c0 ed 22 0f 3c b2 a3 bb bb ef 5c 05 3c 03 ee 83 be
       0.008736354 -0.005726301 0.008139833 -0.25767526
0000d0 d1 5f 87 bd f9 18 b4 3d 6f 2c 48 3e 97 3d 83 bd
       -0.066100724 0.08793826 0.195482 -0.06408232
0000e0 92 ef b0 be 01 cd 53 be b8 dd 1e bd 69 97 72 3e
       -0.34557778 -0.20683672 -0.038785666 0.23690571
0000f0 b2 71 8f bd 19 9f 9d be 6d c5 7c be 9c 46 a4 bc
       -0.070041075 -0.30785444 -0.24684687 -0.0200532
000100 fd 03 51 be a1 ec 8b be d4 00 85 be 4b 6c b4 bd
       -0.20411678 -0.2732897 -0.25977194 -0.08809718
000110 4d a8 b4 be 02 1a 20 be 9a 92 a1 3e 48 de 91 3e
       -0.35284653 -0.15634921 0.3155716 0.284899
000120 ce 19 9b 3e e7 4a 34 3e ee d0 18 be 48 c6 06 3e
       0.30293125 0.17606698 -0.1492345 0.13161576
000130 db b6 c6 3e 1f 91 b1 3e 54 06 41 3e 45 85 d3 3d
       0.38811383 0.3468103 0.1885007 0.103281535
000140 40 ac 93 3e 5e ce 07 3f d2 fe d5 3e 04 e0 e6 3b
       0.28842354 0.53049266 0.41795975 0.0070457477
000150 6f c9 18 3c fc bf 8d 3d ce bf 43 bd 14 bc 98 3d
       0.009325369 0.06921384 -0.04779034 0.07457748
000160 a6 50 a2 3d ef 24 73 bd 8d 93 97 be a5 96 89 be
       0.07925539 -0.059361394 -0.2960476 -0.26872745
000170 30 c2 10 bf 10 7d 48 be 8d 45 12 be 24 58 77 be
       -0.56546307 -0.19578958 -0.14284344 -0.24154717
000180 a7 c4 95 be 5d 60 e2 be 0f 4f 60 be 6c 36 62 be
       -0.29251596 -0.44214144 -0.21905158 -0.22091073
000190 6e f8 9a bc 6b f1 88 3e 2f b4 df 3e 50 48 54 3d
       -0.018917289 0.26746687 0.43692157 0.051826775
0001a0 f8 9b 4c bd 4c ab cd 3e a2 90 d9 3a a9 06 cb 3e
       -0.04995343 0.40169752 0.001659889 0.3965352
0001b0 e4 c3 54 3e 17 38 3d bd 90 63 43 3d ec ff 86 3d
       0.20777851 -0.04619607 0.047702372 0.06591782
0001c0 bb 12 58 be 87 98 54 bd ac f7 a2 3e d2 03 89 bd
       -0.21100895 -0.051903274 0.31829584 -0.06690182
0001d0 a8 b8 b1 be 53 34 95 be 07 04 05 be ef 80 5d 3e
       -0.34711194 -0.29141483 -0.12989818 0.21631216
0001e0 31 26 df be c4 45 d0 be a8 20 84 be 20 d5 7f bd
       -0.43583825 -0.40678227 -0.25806165 -0.06245911
0001f0 0b 1c d8 3d 6d 64 59 bd b0 7e 03 3c 49 c3 89 3e
       0.10552224 -0.05307429 0.00802581 0.26906803
000200 62 4a 8f bd 12 03 46 bd 29 4a 16 3d 1b ad b8 3e
       -0.06996609 -0.04834277 0.03669182 0.3606957
000210 83 54 b5 3e 9d f6 3c 3c ae 51 f4 bd a9 98 98 3d
       0.3541604 0.011533407 -0.11929642 0.074509926
000220 13 ae 06 3e 5b 44 b8 3d cd 58 0c 3d e2 ce 49 3e
       0.13152342 0.08997413 0.034264375 0.19707826
000230 48 b8 d4 bd 1f 63 a6 bd 38 f3 7a be ce 2d 82 bd
       -0.10386711 -0.081243746 -0.24506843 -0.06356393
000240 bb a5 74 bd 24 7b d4 bc 44 14 ab be b5 7f 53 be
       -0.059728365 -0.025937624 -0.334139 -0.20654185
000250 83 e1 88 3e 55 97 96 bc 6a d7 14 3e c3 f0 15 3e
       0.26734552 -0.018382708 0.14535299 0.14642625
000260 fb d5 48 3e 07 9f a7 3e 11 45 b7 3d 25 48 7d 3c
       0.19612877 0.32738516 0.0894872 0.015459095
000270 ff 2d d1 3d ba 74 9b 3e 1e c3 09 3e 9a 47 05 3d
       0.10213851 0.30362493 0.13453338 0.032538988
000280 15 75 1c bd f9 f3 2e 3d bf f8 89 3c 49 3e b7 bd
       -0.038197596 0.04271314 0.016842244 -0.08947427
000290 cc 14 a9 3c 82 89 c5 3c 08 b8 8b be 7a 51 13 be
       0.0206398 0.02411342 -0.27288842 -0.1438655
0002a0 e4 6e 24 3d 00 98 42 bd a4 33 33 bc 5a 83 a7 bd
       0.040144816 -0.04750824 -0.010937605 -0.0817935
0002b0 b4 b1 7e 3c 2b 3a 31 be 0a 6d 94 3e 18 70 9a 3d
       0.015545297 -0.17307346 0.2898944 0.075409114
0002c0 5f 92 c1 3e 61 c7 4c 3e 4f d1 9e 3e c5 27 f8 bd
       0.37806985 0.19997932 0.31019065 -0.121169604
0002d0 83 4d 68 3d 40 ef 82 3d dd e8 27 3e 00 3b 5a 3e
       0.056714546 0.063932896 0.16397424 0.21311569
0002e0 f1 6a a6 3c ab f1 b0 bd 57 8d 5b bd f7 41 7d be
       0.020314666 -0.086398445 -0.05360159 -0.24732195
0002f0 71 50 68 be 96 14 ba bd b9 4c dc bd 28 85 6d be
       -0.22686936 -0.09085958 -0.10756821 -0.23195326
000300 f6 d0 a0 be e6 59 9a be 81 ab 72 be 49 83 27 be
       -0.31409425 -0.30146712 -0.23698236 -0.16358675
000310 f7 da 30 bc 44 b8 42 be 21 3d 97 be 5e b1 52 3d
       -0.010794393 -0.19015604 -0.29538825 0.05143868
000320 c7 f2 d0 3d 7f 6b 5e 3e c9 01 12 3f 83 ae b5 3e
       0.10202556 0.21720694 0.57033974 0.35484704
000330 41 fd 36 3e 9c 73 0e 3e f6 90 77 3e 36 2d c1 3e
       0.17870046 0.13911289 0.24176392 0.37729806
000340 34 34 5b 3d c6 8e bd bc da cf 18 be 71 57 a3 be
       0.05351658 -0.023139369 -0.14923039 -0.3190265
000350 8e 12 8f be dd 75 5d be 9f b6 80 be 21 c7 0f bd
       -0.27943844 -0.21626993 -0.2513933 -0.035102013
000360 03 d1 1f be 1d dd 85 be d8 d0 6a bd a8 2c 84 bd
       -0.15607075 -0.2614526 -0.057328075 -0.0645383
000370 d5 e5 77 3d 15 37 63 3e df a3 5e bd 05 dd 11 3e
       0.06052192 0.22188981 -0.0543555 0.14244469
000380 0e 7b 4a 3e a4 26 d9 bd 4f 2b e5 3c d3 bd bc bd
       0.19773504 -0.10603073 0.027974753 -0.092158936
000390 ce 8c 63 bd 95 db 94 3e 0a f1 ac bc 32 1d 28 3d
       -0.055554204 0.29073778 -0.02111103 0.041043468
0003a0 14 bc a5 3e 2c 1e 02 3e 6f 67 d9 3d a1 13 d7 3d
       0.32370055 0.12706822 0.106154315 0.10501791
0003b0 42 9f da 3d 82 6d f0 3d de bc 33 3e a3 b5 8c 3e
       0.10674907 0.11739637 0.17552516 0.27482328
0003c0 1d ea 51 3c 5e 75 52 bd 43 31 44 3d f6 6a 50 3e
       0.012812165 -0.05138146 0.047898542 0.20353302
0003d0 bb 01 e6 3e ce 36 a3 bd a0 a6 e9 bd 89 01 58 3d
       0.44923195 -0.079694375 -0.11408734 0.05273584
0003e0 3c 65 12 3e e5 e5 96 3e c0 67 35 be da fa a2 bd
       0.1429643 0.2947227 -0.17715359 -0.079580024
0003f0 9e 49 42 be 1f 31 2d 3b 24 7c b6 3d 52 15 aa bd
       -0.18973395 0.0026426984 0.08910397 -0.08304848

features.3.weight f4 [16, 6, 5, 5]
000000 53 6a a4 bd 22 fc 52 3e db 1b f0 3c c5 f5 81 bd
       -0.08028092 0.20603994 0.029310158 -0.06345705
000010 eb 84 1d 3d 76 de 05 bc 6e 63 93 3d 8a 65 98 bc
       0.03845684 -0.008170715 0.07196699 -0.018603105
000020 8d 6f 05 be ee 8f 2a 3d 3b eb 53 bd 88 ba e8 bc
       -0.13030834 0.04164117 -0.051738005 -0.028409258
000030 a9 3c d9 bd b8 b5 6e bd 0e 7b 0c 3d c6 f6 6b 3d
       -0.10607273 -0.05827877 0.03429704 0.05760839
000040 fe 96 75 bd ac 3c 31 bd 23 b8 56 3e 0c 7a bc bd
       -0.05995845 -0.04327075 0.2096868 -0.09202966
000050 6c 64 39 bc b0 06 71 3d a8 53 22 be 27 53 8f 3d
       -0.011315446 0.05884427 -0.15852225 0.06998282
000060 83 2a 2e 3e fb 39 08 3c 43 08 d4 bd 85 b1 03 be
       0.17008404 0.008314605 -0.10353138 -0.12860687
000070 5d a6 eb bd 21 2a 0a 3e 2f 01 75 3e cf ec 62 3d
       -0.11506341 0.13492633 0.23926233 0.05540162
000080 05 4e e0 bd 5c c7 49 bd 9d ad d1 3d de 20 aa 3d
       -0.10952381 -0.04926239 0.10238192 0.0830705
000090 6b 93 93 3b 79 81 b2 bd 44 32 e4 bd 12 87 1e 3e
       0.0045036576 -0.08716101 -0.111424 0.15481213
0000a0 89 6c f7 3b 4a 8c d9 3c c7 8c 9d be 30 6e fb bd
       0.00755078 0.026556153 -0.30771467 -0.12276876
0000b0 ad ce 80 3d 1b ee f7 bb 75 01 f3 3d 83 88 cd bc
       0.0628942 -0.007566226 0.11865512 -0.025089508
0000c0 01 5f 13 bd 0a 59 8b 3d 9c 14 d1 3d c1 3f f4 3c
       -0.035979275 0.06804092 0.10209009 0.029815556
0000d0 df 85 0d be 08 a7 2d be 7e 53 92 bd d2 f9 8c 3d
       -0.13820599 -0.16958249 -0.07144831 0.06883587
0000e0 dc b0 c2 3d 26 dc 30 bd 44 5f ac bd 88 33 20 bd
       0.095063895 -0.0431787 -0.08416608 -0.039111644
0000f0 6e c6 9c 3d 29 cd 95 bc 45 c8 00 be f5 e2 4d be
       0.07655035 -0.018286305 -0.12576397 -0.20106108
000100 ca c9 4d bc 45 05 c7 3d 9a 7c 15 3e 2c 88 3a be
       -0.012560317 0.09717802 0.14598313 -0.18216008
000110 c9 da 17 be 15 3e e8 3c a1 4a 10 3e 37 59 28 3e
       -0.14829554 0.028349916 0.14090969 0.16440283
000120 96 da d4 3b 55 28 9d be 1c 01 31 be 9c a3 1d bc
       0.006495784 -0.30694833 -0.1728558 -0.009621527
000130 52 fa 3b 3e 28 be 59 3d e0 2b 23 be 44 a6 6c bc
       0.18357208 0.053159863 -0.15934706 -0.014443938
000140 f6 41 ed bd 8c 01 4e 3c a4 db 3f 3c 5e 0a 81 bd
       -0.11584847 0.012573611 0.011710081 -0.063008055
000150 9b f4 fa 3d 5e c2 2b bd fb 2d dc bd 64 a9 6e be
       0.12253686 -0.04193341 -0.107509576 -0.23306805
000160 19 77 08 3c 89 e7 ce 3c ec 69 f7 bc 0b 54 4e bd
       0.008329176 0.025256889 -0.030201875 -0.05037312
000170 6f 50 18 be 99 29 9b bd c7 41 7d 3e cc 48 a1 bd
       -0.14874433 -0.075762935 0.24732123 -0.07875213
000180 ab 61 38 be c3 ea a3 be ee 75 a0 bd ef 06 c3 3e
       -0.18006007 -0.32015046 -0.07834993 0.38091227
000190 19 59 38 3e 55 04 52 3e 99 95 51 3e 11 b4 10 be
       0.18002738 0.20509465 0.20467223 -0.1413119
0001a0 f5 44 87 be c6 24 cb 3d 6b 70 1d 3e 23 c7 9d 3d
       -0.26419798 0.09919123 0.15374915 0.07703998
0001b0 11 58 c1 bd a0 b3 b6 be 1c e8 2d ba 37 27 be 3d
       -0.094406255 -0.35683918 -0.0006634013 0.092848234
0001c0 0c 4f d2 3d cb b6 5c bc f8 ba 28 be 28 de 9a bb
       0.10268983 -0.013471316 -0.16477573 -0.00472619
0001d0 9e 22 6b 3e 47 20 c3 bb 58 bd 79 bd f6 49 21 be
       0.22962424 -0.0059547755 -0.060971588 -0.1575087
0001e0 ef c8 2f 3e ff 22 17 3e ef 12 1b 3e d8 9c 29 be
       0.17166494 0.14759444 0.15143941 -0.16563737
0001f0 01 cf 2b be fc b7 59 bc 45 86 e5 bc 62 3c 19 be
       -0.16778184 -0.013288494 -0.028018126 -0.1496444
000200 95 0d 1f 3e 2c 27 b8 3d 86 5b a1 3d b5 c3 88 bc
       0.15532525 0.089918464 0.07878785 -0.016694883
000210 47 8b e2 be ec ca 26 3e a5 3b 0e 3e cd d4 3f 3e
       -0.44246885 0.16288346 0.1388994 0.18733521
000220 13 37 fa 3d d7 2c 14 bf c8 ef 31 3e d6 14 ae 3e
       0.12217536 -0.5788092 0.17376626 0.34000272
000230 5f 52 4f 3e 4b 9d 11 3e b2 04 2f bf 84 4b 43 be
       0.20246266 0.14220159 -0.6836654 -0.19071776
000240 6b 4a e6 3e 2f 31 4a 3d 59 40 0a 3e 57 c9 09 bf
       0.4497865 0.04936331 0.13501109 -0.53822845
000250 f5 a6 c2 be 5a e7 bd 3e 3c 25 29 bd 1b 57 c9 bc
       -0.38018003 0.3709057 -0.041295275 -0.024577668
000260 c6 ee c1 3d 23 e6 b1 3d 64 3a e7 39 b2 d9 29 3e
       0.094693705 0.08686473 0.00044103258 0.1658695
000270 10 10 88 bd e9 1c 8b 3c 81 33 c7 bd 52 6f 74 be
       -0.06643689 0.016981559 -0.097266205 -0.2387059
000280 2a 1f 2d 3e 92 1c 4b 3d d1 3c 30 be bf 31 f9 bd
       0.1690642 0.049587794 -0.172107 -0.121676914
000290 73 e1 49 be 59 ea c8 3e 48 b1 54 3e 6d f8 7b bd
       -0.19714908 0.39241293 0.20770752 -0.061516214
0002a0 d8 8e 85 be c7 be b6 be 40 75 27 3e c4 d7 62 3e
       -0.26085544 -0.35692427 0.16353321 0.2215262
0002b0 56 cd 91 3d 62 a1 1a be f5 04 95 be aa 6e 82 3e
       0.07119243 -0.15100625 -0.29105344 0.25475055
0002c0 64 af 37 3e f5 a0 0f be a8 1e 57 bc bf db df bd
       0.17938 -0.14026244 -0.013129868 -0.10930585
0002d0 30 a7 be 3e 51 db 5e 3c 1c 3a 44 3c 93 03 0a be
       0.3723693 0.013602094 0.011976745 -0.13477926
0002e0 c9 6e 1f be 07 d9 8b 3e c6 46 80 3e 94 a4 ee 3c
       -0.15569605 0.27314016 0.25053996 0.029131211
0002f0 e2 ca fd bd 3c fb fb bd 7c 44 d7 3d 50 70 38 3e
       -0.123922125 -0.123037785 0.10511109 0.18011594
000300 df c1 41 3e c4 24 99 bd 79 80 0a be 62 c6 95 be
       0.18921612 -0.074777156 -0.13525571 -0.29252917
000310 11 9e 0d 3d c5 3f fd 3d 61 b8 b5 3c 11 b2 5b 3d
       0.034574572 0.12365679 0.022182645 0.053636614
000320 e6 40 18 3e ec b9 98 bd 9d 4c 2b 3b 4a bd 38 bb
       0.14868507 -0.07457337 0.0026138194 -0.0028188997
000330 16 13 59 3d 3b 03 fa 3d 4f 29 2b bd 31 af 1a 3c
       0.052996717 0.122076474 -0.04178744 0.009441183
000340 22 bd ac bd 6d 7c 1d be 2e 17 50 3e fe d7 7a bd
       -0.08434512 -0.15379496 0.20321342 -0.061241142
000350 a5 5c 55 be 98 00 19 be 39 2f b0 bd 90 77 86 bd
       -0.20836122 -0.14941633 -0.08602757 -0.065657735
000360 4a 78 0f 3d 92 95 9e 3c b5 3b bb bd 3d ae 0c be
       0.035026826 0.01935843 -0.091422476 -0.13738342
000370 21 dd 37 be b0 09 8a 3c 0d b2 8b bb 31 0b 10 3e
       -0.17955448 0.016850322 -0.0042631687 0.14066769
000380 ee 4f e3 bd 45 0f d8 bd 13 46 27 3d d1 72 03 bc
       -0.1109923 -0.105497874 0.040838312 -0.00802298
000390 ec de c7 3c 85 f7 c7 bd 85 12 52 bd ed 80 cf bd
       0.02439829 -0.097640075 -0.051287193 -0.101320125
0003a0 64 67 b1 bd 18 ff 74 bc 1d 21 51 be 4c 20 7b 3e
       -0.08662298 -0.014953397 -0.20422788 0.24524039
0003b0 7f ab cf 3d 15 0e 5d be 4a 8c 52 bd 64 78 ee bd
       0.10140132 -0.21587403 -0.05140332 -0.116440564
0003c0 b7 9a af 3d e4 ed 19 3e 0d 95 6a 3d 58 47 82 bd
       0.085744314 0.15032154 0.057271052 -0.06361264
0003d0 fb d6 83 bd 5b 20 8e 3d 06 e0 bf 3d 57 7a 34 bd
       -0.06437489 0.06939765 0.09368901 -0.044061985
0003e0 f0 38 b1 3d 09 00 23 3e 64 a7 15 3e 4e fe 2e bd
       0.08653438 0.15917982 0.14614636 -0.042722993
0003f0 2e c6 95 3c b8 ad 78 bd 1d 18 8b 3d 42 dd ed 3c
       0.018282976 -0.060712546 0.067917086 0.029036168

features.7.weight f4 [120, 400]
000000 04 04 f3 bb ce dd e7 bc de c8 06 3d 0d c6 e4 bb
       -0.00741625 -0.028304007 0.032906406 -0.0069816173
000010 79 2e b6 bc f6 ba 09 bc 2f 8a 73 ba 12 02 42 3d
       -0.022238957 -0.008406391 -0.00092903053 0.047365256
000020 22 b0 98 3c d8 a8 61 bc da fc 94 bc 94 f1 e9 bc
       0.018638674 -0.013773166 -0.018186975 -0.028557576
000030 4d 26 06 bd 97 78 9b bc 41 02 94 bc 3e e5 86 bd
       -0.03275137 -0.0189784 -0.018067481 -0.06586693
000040 be da 3e bd d0 91 86 bd ba ed cd bb 85 fe d2 bc
       -0.046595328 -0.0657078 -0.0062844427 -0.02575613
000050 83 e1 ea bc 2f f3 35 bd 8d fd 9b bd e5 24 1c bd
       -0.028671985 -0.04442137 -0.0761672 -0.038121123
000060 4e 23 aa bc 49 10 78 bc cb 93 84 bc 18 7a da bc
       -0.020768788 -0.015140601 -0.016183754 -0.026669547
000070 ce e0 07 3c fc d4 a0 bc e1 7e 34 bc bd cd f5 bc
       0.008293344 -0.019632809 -0.011016578 -0.03000533
000080 6d d6 5b ba 00 6c 84 ba 5c e9 56 bc e5 dc 84 3c
       -0.0008386139 -0.0010102987 -0.013117161 0.016218612
000090 5c d8 a9 bc 4e 15 44 bd c6 86 74 bc 7d 13 6e 3c
       -0.020733051 -0.04787188 -0.014924711 0.014531014
0000a0 92 44 27 3d 98 15 10 bc 9a 19 0d bd 2e de 13 bc
       0.040836878 -0.008794211 -0.034448244 -0.00902514
0000b0 14 51 52 ba 1c 20 c7 3c 3d ac d7 37 e0 55 73 bd
       -0.0008022946 0.024307303 2.5710202e-05 -0.05940807
0000c0 3e 8a 88 bd 51 41 b1 bb 0c 32 cf bc 0c 45 8c 3b
       -0.066669926 -0.0054093977 -0.025292419 0.004280692
0000d0 aa 4e bf bc 52 9c fb bc 78 1d 5b bc cd d8 8b bc
       -0.02335294 -0.030714188 -0.013373725 -0.017071152
0000e0 e2 fd 11 3b 03 47 90 3c 81 d3 db 3c ad 5d b3 3a
       0.002227657 0.017611986 0.026834251 0.0013684534
0000f0 b6 b4 7b bc d0 2d 3f bc ce 0d f4 3c 55 3f 40 3c
       -0.015362909 -0.011668637 0.029791739 0.0117338495
000100 b3 4d 93 3b 0d f0 32 bc 5f ae 90 b9 54 eb ec 3b
       0.0044953465 -0.01092149 -0.00027595737 0.0072302017
000110 66 8e 4f ba 25 44 b8 bc 28 14 3f bc f1 3e dc 3c
       -0.00079176424 -0.022493431 -0.0116625205 0.026885482
000120 db 48 61 ba ce 2c cd bc 36 28 00 3c 0c 10 85 3d
       -0.0008593925 -0.025045779 0.007822087 0.06497201
000130 55 16 d1 3b 5d 4b 88 3c d3 7d e2 3c ca ce 89 bb
       0.006380836 0.016637499 0.027647888 -0.0042055594
000140 99 e6 94 3c 04 1a 11 3c cb 12 df bc f1 6c a7 3c
       0.018176364 0.0088563 -0.02723064 0.02043769
000150 35 d9 ec 3c 79 a9 dd bc 09 db 2f bd 24 bd 6a bc
       0.028912166 -0.02705835 -0.042933498 -0.014327321
000160 92 0f eb bc 6b 22 0b bc c4 6f 7a bd ed e6 a1 bd
       -0.028693948 -0.008492093 -0.061141744 -0.07905374
000170 ec 31 f5 b4 a5 31 97 bd 62 d8 a0 bc e8 7f 1c bd
       -4.567113e-07 -0.07382516 -0.01963443 -0.03820792
000180 dd b7 96 bd 43 e6 1a bb c6 76 89 bd 08 c3 e7 bc
       -0.07359288 -0.0023635782 -0.06712107 -0.02829124
000190 3c 75 9b bc 2f ef 03 3d e7 50 55 bc cf 41 61 bd
       -0.0189768 0.032210525 -0.013019777 -0.0549944
0001a0 c0 39 06 bc b8 c5 b0 bc db 04 12 3a 72 02 de bc
       -0.00819248 -0.021578655 0.00055701815 -0.027100775
0001b0 47 8d 80 bd 0f f0 e7 bc c2 8e 80 bd 7d 91 e1 bc
       -0.062769465 -0.028312711 -0.06277229 -0.027535195
0001c0 7f 45 56 bd c9 b8 cd bd e2 42 80 bd 16 da 8a bd
       -0.05231237 -0.100450106 -0.06262757 -0.06779878
0001d0 de 97 1e bd fc fc 41 bd ff 71 73 bd a9 da 72 bd
       -0.03871905 -0.047360405 -0.059434887 -0.05929056
0001e0 46 1d de 3c 9b 64 12 bd 0b 70 2e bd 3f ea 84 bb
       0.027113568 -0.035740476 -0.04258732 -0.0040562446
0001f0 ea 21 01 bd cd ab d6 3c 11 c3 63 3d d6 cf 5b 3d
       -0.031526484 0.026204968 0.05560595 0.053665005
000200 6e 21 2f 3d 95 a5 79 3d 00 b8 c4 3c be c0 d2 3c
       0.04275649 0.060948927 0.02401352 0.025726672
000210 9e 22 64 3c 4d 69 f5 3c 47 9e c3 3d ce f9 6e 3d
       0.013924269 0.029957438 0.095516734 0.0583437
000220 32 89 39 3d 88 ea 3a 3d 1d ac 06 3d d2 d7 27 3d
       0.045296855 0.045633823 0.032878984 0.040977307
000230 e4 58 72 3d ff 88 92 3d cf 25 de 3c 32 cf bf 3c
       0.059166804 0.07155036 0.027117638 0.023414228
000240 6b 2b e4 3c 48 b9 8b 3d 6a a5 b5 3c 57 2c fc 3c
       0.027852735 0.06822449 0.022173602 0.030782862
000250 af f7 5e 3c 6e d3 0b bc 50 75 a7 3c 25 61 90 bb
       0.013608857 -0.0085342955 0.020441681 -0.004406112
000260 75 44 49 3b 92 3f 98 3c 5d 07 aa 3c bb 25 36 3d
       0.003071097 0.018585 0.020755464 0.044469576
000270 2e f8 71 3d 42 74 dc ba 1c e0 86 3c 80 f7 0d 3c
       0.059074573 -0.0016819315 0.016464286 0.008664966
000280 b5 f0 0b 3c 34 0f 26 3c 3f fa 06 3c 3e 6f 52 bb
       0.008541276 0.010135461 0.008238374 -0.0032109763
000290 b1 85 02 bb fc c2 62 3c bf cc d0 3b 54 af 87 3c
       -0.0019916112 0.013840433 0.006372064 0.016563095
0002a0 e4 dc 37 3c 4b 66 0e 3c ec 9c 3c 3d c6 4b 21 3d
       0.011222098 0.008691381 0.04604809 0.039378904
0002b0 a7 5e 42 3b 7d e6 a9 3c c8 19 03 3d fe 94 3a bb
       0.0029658468 0.020739788 0.03200701 -0.0028470154
0002c0 1b 6e 19 3c cd bd b6 3c 3b cf 1e 3b bc ec 07 bd
       0.00936463 0.022307301 0.0024232406 -0.033184752
0002d0 21 ad f8 bb 1d f5 c1 3b b6 21 87 3c c3 da b0 bc
       -0.007588998 0.0059191124 0.016495567 -0.021588689
0002e0 fd c5 dc bc b4 2a 19 3b 55 da 81 3c ca d0 0b 3c
       -0.026949877 0.00233714 0.01585118 0.008533666
0002f0 55 e2 9d bb db 14 0f 3d e9 de e6 3c 46 40 9a 3c
       -0.0048182406 0.034932 0.028182464 0.018829476
000300 1b 59 44 bc d2 d5 86 bc 07 2a f9 3c 54 0a 5a 3d
       -0.011984135 -0.01645938 0.030415548 0.053232506
000310 25 cf 21 3d 3b 28 22 3d cb 89 15 3d a8 9c 3b 3d
       0.03950419 0.039589148 0.036508363 0.045803696
000320 a9 cb 09 3d 0d 5b c0 3c 83 e4 3a 3c 49 f9 9a 3c
       0.03364149 0.023480916 0.0114070205 0.018917697
000330 2d 1e 91 3d 6e 28 02 3d e9 23 a6 bc 19 fd 8b bd
       0.07085834 0.031776838 -0.020280795 -0.06835384
000340 71 db 0c bd 7b d5 01 3c 2a 7f 9e 3c 64 a9 dc 3c
       -0.034388963 0.007924433 0.019347746 0.02693624
000350 b9 f7 b2 3c d1 0c d6 3c a4 af a5 3c 40 6f f2 bb
       0.021846639 0.026129158 0.020225354 -0.007398516
000360 b0 1b 35 bc 2b 0a a4 3c ab 59 00 3d d4 be bf 3c
       -0.0110539645 0.02002438 0.031335514 0.023406424
000370 26 65 92 3c 30 e2 99 bb 5e 15 10 3c ba 88 fa 3c
       0.017870497 -0.004696153 0.008794157 0.030582774
000380 59 b3 35 3d 3d 56 06 3d 5d 90 40 3d e2 13 8c ba
       0.044360492 0.032797087 0.047012676 -0.0010687078
000390 f6 5e cb bb 63 88 0f bd 89 16 da bc 85 bb 7c bc
       -0.0062063886 -0.035042178 -0.026622074 -0.0154255675
0003a0 4b 87 bf 39 bc 85 60 bc 1c 97 f7 bc 29 f6 4b bd
       0.0003653116 -0.01370376 -0.030223422 -0.049795303
0003b0 4b b3 d6 bc ab 24 7f bc bc 6a 8b bc b5 9f 96 bc
       -0.02620854 -0.015572707 -0.017018668 -0.018386701
0003c0 71 05 85 bd 90 33 81 bc ac 88 59 3c 28 d1 bc bc
       -0.064951785 -0.015771657 0.013277214 -0.023048952
0003d0 a8 4d 08 3c 93 59 3a bd 31 ce da 3b ee f3 ec bb
       0.008319296 -0.04549558 0.006677412 -0.007231227
0003e0 48 f6 aa bc b2 bd 0a 3c 54 2a 63 bd 00 7d e0 bc
       -0.02086939 0.008468078 -0.05546029 -0.027403355
0003f0 06 f4 34 bb 6f 1b 98 3b ce 2d 83 bc c8 8e e5 bc
       -0.002761127 0.004641942 -0.016013052 -0.028022185

features.7.bias f4 [120]
000000 af dc bc bc 38 9e af 3e 50 fd 23 3e 75 25 39 bc
       -0.023054449 0.343004 0.160146 -0.011300434
000010 e3 da 94 bd 59 c2 ed bc cb 5f b7 ba 30 c9 ae bd
       -0.07268312 -0.029023336 -0.001399034 -0.08534467
000020 89 be c0 bb c0 03 a7 3b 69 b5 c1 bd 87 cc 9c bc
       -0.0058820886 0.0050968826 -0.09458429 -0.019140495
000030 fa ef d0 3d 20 29 c8 bc aa 5c 09 3d 76 c0 52 bd
       0.10202022 -0.024433672 0.033535637 -0.051453076
000040 e8 4a 69 3d b2 53 81 bd 83 9f d2 bc 11 c8 05 3e
       0.0569562 -0.06314792 -0.025710827 0.130646
000050 56 8c 28 3c ba c9 dd 3c 2e 5d 61 3d 5c 39 ff b9
       0.010287365 0.02707373 0.055020504 -0.00048680126
000060 c2 76 0f b8 cc 74 d8 bc 7f ed 96 bc f7 12 15 bd
       -3.420446e-05 -0.02642288 -0.018423794 -0.03639504
000070 7f 4c 96 3d 73 a9 1a 3c 35 e3 9f 3d 28 49 60 bd
       0.07338809 0.009439814 0.07807008 -0.054757267
000080 b5 e7 c8 bc fa 3e 57 3b 1e 18 b7 3d 49 17 3a bd
       -0.024524549 0.0032843933 0.08940147 -0.045432363
000090 25 13 b1 3d fe 42 8e 3c 5d 8f ca bb ba 60 2f bd
       0.0864623 0.017365929 -0.006181641 -0.042816855
0000a0 d4 ab 95 bd d5 dc 07 3c af aa 8c 3e ed a6 8d bd
       -0.07308164 0.008292397 0.2747397 -0.06916604
0000b0 c2 50 05 3d ab f7 5d bc 9e 39 73 bb 4e 17 54 3c
       0.03254772 -0.013547818 -0.00371132 0.012945009
0000c0 11 97 f5 3d 73 87 e3 3b fe 4c 9d bd 4e 46 05 3e
       0.11991704 0.006943637 -0.07680701 0.130151
0000d0 84 2e ef 38 f3 4e 82 bd a0 b1 d1 3c a1 c1 31 3d
       0.00011405072 -0.063627146 0.025597394 0.04339755
0000e0 44 fc 9a bb a5 4c 77 bd 22 1c b4 bc 06 c9 d7 3c
       -0.0047297794 -0.06037583 -0.021986071 0.026340973
0000f0 d8 96 18 3b 83 35 0d 3e 72 d7 93 bc 0d 56 85 bb
       0.002328327 0.13789944 -0.018047068 -0.004069096
000100 46 78 82 bd c8 c7 72 bd 80 59 c2 3d 74 93 07 3c
       -0.063705966 -0.059272557 0.09489727 0.008274902
000110 24 62 86 3a 5a be 0b 3b 23 23 c5 3c cb a7 4a bd
       0.0010252637 0.0021323175 0.024064606 -0.049476426
000120 eb 55 2c 3d 08 2a 52 3d 25 e8 82 bd bb 58 25 3c
       0.042074125 0.051309615 -0.06391934 0.010091956
000130 a6 e8 51 bd ca 80 ab 3d f8 38 af 3d 01 04 47 3e
       -0.05124726 0.08374174 0.08555788 0.19435121
000140 2d ca b5 bc 02 3c 6e 3d b2 7f 8a 3d 5e 86 01 3e
       -0.022191131 0.058162697 0.06762637 0.12648913
000150 35 d4 ac 3e 74 f0 bb 3c 39 f7 d2 3c df 71 9a bc
       0.3375565 0.022941805 0.02575265 -0.018853126
000160 b3 c7 b7 3c 97 ac c0 bc 57 38 8c 3d f2 88 da 3d
       0.022434091 -0.023519797 0.068466835 0.106706515
000170 d0 10 e3 b8 0f cb 69 ba 6c 5e 88 bd 3b be bc bc
       -0.00010827335 -0.0008918503 -0.066586345 -0.023039928
000180 e0 96 39 3c e3 8e 77 3b b9 ee 05 be 59 e9 88 3e
       0.011327475 0.0037774376 -0.13079347 0.2674053
000190 1b e2 4a 3b 59 f3 18 3e 57 d8 da bb d9 a4 59 bc
       0.0030957523 0.1493658 -0.0066786218 -0.013283932
0001a0 c4 e5 c0 3d a7 5f 11 3e 3a c4 0d 3e 43 d7 0b bc
       0.09418824 0.14196645 0.13844386 -0.008535209
0001b0 88 a5 1a 3e 0b 56 9e bc fc 26 ae 3c 83 1f c9 bc
       0.15102208 -0.019328138 0.021258824 -0.024551159
0001c0 48 e1 85 bd d7 d5 ca 3d dc 85 7f 3c 7e 17 e7 bd
       -0.065371096 0.09904068 0.015595879 -0.11283778
0001d0 8f 76 b0 3d 83 49 6a 3d 2e 0d c4 bc 8b ab 9e 39
       0.08616363 0.057199012 -0.023932066 0.00030263918

features.9.weight f4 [84, 120]
000000 c0 62 92 bc 7f f3 8d 3b af 28 7b 3c ed 00 27 bd
       -0.017869353 0.0043320055 0.015329524 -0.040772367
000010 b4 c8 46 bc fe 91 ac 3c aa ea 30 bc 11 ec 66 bc
       -0.012132812 0.021065708 -0.010798136 -0.014094369
000020 32 d8 e0 3c 85 d0 6b bb b0 9a 76 ba e1 77 c4 3a
       0.02744684 -0.0035982442 -0.00094072055 0.001498934
000030 39 54 96 3c 2b 50 d1 3b 50 7e c5 ba c2 5f 1f 3d
       0.018350707 0.0063877306 -0.0015067551 0.03890968
000040 a8 7a 97 39 c8 50 92 bc dd 98 ff bb 57 d9 07 3c
       0.0002889235 -0.017860785 -0.007800205 0.008291564
000050 ac dd 6a bc 9f 3e cc 3b 28 82 ed 3b 5f 75 56 bc
       -0.014335077 0.006233051 0.007248182 -0.013089507
000060 3d 81 84 3c 9c 83 5f bc cf 2b 57 3b 7a ab 47 bc
       0.016174907 -0.013642218 0.0032832508 -0.012186879
000070 2e b6 78 bb a5 03 52 3c 93 92 ba ba d3 bf 16 ba
       -0.0037950384 0.012818252 -0.0014234356 -0.000575063
000080 91 bf 4f bc dd 9c 4d 3c 18 5e c4 3c e1 f1 90 3c
       -0.01267995 0.012549606 0.023970649 0.017693462
000090 03 d1 97 bb 8e c4 d0 3c eb 0c 08 3b db 01 ec bb
       -0.0046330704 0.02548435 0.0020759653 -0.0072023696
0000a0 b8 be 4a bb f5 8e ac ba 4d dd 96 bb 2e bf f0 bb
       -0.003093643 -0.0013165163 -0.004604018 -0.007347009
0000b0 28 95 70 3c 77 d9 94 3c 81 2a eb ba 2c 14 93 3b
       0.014683999 0.018170102 -0.0017941744 0.0044884887
0000c0 93 d5 0a bc 03 f1 07 39 25 66 9d bc 79 cc 23 3c
       -0.008473772 0.00012964387 -0.019213745 0.009997481
0000d0 ff 43 4e 3b 02 1e 09 bc 7c 01 2d 3b e5 17 b9 3b
       0.0031473634 -0.008368971 0.002639859 0.0056486004
0000e0 ae 54 10 3b 8e 65 a6 bb 7b e5 9a 3c a2 22 f9 ba
       0.002202313 -0.005078024 0.018908253 -0.0019007514
0000f0 61 9a 19 3c 43 ce 88 bb 4c 1c 55 39 db c2 f4 bb
       0.009375186 -0.004174979 0.00020323804 -0.0074695176
000100 d2 a4 64 bb 62 37 04 3b 01 92 f4 b9 88 b8 4b bc
       -0.003488828 0.0020174612 -0.00046648088 -0.012434132
000110 bb 2f 42 3c 0d 6a 44 3c f9 e7 3a bc d1 26 15 bc
       0.0118522 0.011988175 -0.011407846 -0.009103493
000120 ce 8b a8 bb 75 98 8c bc e7 81 74 bc 0c 1b bd bb
       -0.005143619 -0.01716254 -0.014923549 -0.0057710465
000130 82 09 68 bc e3 13 c7 bc 5c 5b 7a bb 8a 9d f0 3b
       -0.014162423 -0.024301475 -0.0038201427 0.007342999
000140 0a ba 6f 3c 48 83 66 bb 93 b6 97 bc 63 2e 8e 3c
       0.0146317575 -0.0035173465 -0.018519675 0.017356103
000150 fa 23 d7 3c 09 82 92 bb 04 77 59 bc 31 43 26 3c
       0.026262272 -0.004471068 -0.013273004 0.010147856
000160 8f 74 12 bc 95 2e b3 bc 9d 18 18 3c 14 92 03 bc
       -0.008938923 -0.021872798 0.009283212 -0.008030433
000170 a1 53 2a bc 20 78 8a 3c 3d 4d 63 bb 22 7c 98 3b
       -0.010395915 0.016902983 -0.0034683489 0.0046534697
000180 60 58 f3 3c 44 ff 55 3b 26 42 31 3c 41 2b 98 bc
       0.029705226 0.003265337 0.010818994 -0.018575313
000190 82 fa 87 bb 99 61 d8 bc 0f 56 eb bc 89 e3 5e bc
       -0.004149736 -0.026413726 -0.02872756 -0.013604053
0001a0 24 62 c6 3b ce e2 8c 3b e7 4f c8 bb f4 5e 83 bc
       0.0060541797 0.004299498 -0.0061130407 -0.016036488
0001b0 19 98 f7 3b ae c7 1f bc 22 3b 59 bc 96 a0 e2 bb
       0.0075559733 -0.009752197 -0.013258727 -0.006916116
0001c0 b2 bc b9 bb fd 37 25 3b 0a f9 75 3c 96 0c 6a bc
       -0.005668246 0.0025210374 0.015012989 -0.014285227
0001d0 6f 51 c2 38 f3 89 a4 3c 96 08 23 3d 20 29 12 3c
       9.265809e-05 0.02008531 0.03980311 0.008920938
0001e0 ad 9f 77 3d 94 d1 94 bc b3 ee 3c bb 77 c3 48 bd
       0.060455013 -0.01816634 -0.00288288 -0.049014535
0001f0 77 e8 4e bd 70 ba 81 bc b9 58 03 bc 49 96 90 3d
       -0.050514665 -0.01583597 -0.008016759 0.070599146
000200 a2 02 3d 3c 3f 16 26 bc 1a d1 bb bc 4f ac 92 3c
       0.011536272 -0.01013714 -0.022926856 0.017904429
000210 c2 f8 b9 bc ee 2a a7 bc f6 c1 a7 bd 63 74 03 3c
       -0.022701625 -0.020406213 -0.08191292 0.008023354
000220 e0 81 e5 3c 6a 9a c6 3d 62 24 4c 3d d6 f2 34 bd
       0.02801603 0.09697421 0.049839385 -0.0441769
000230 76 f1 07 3c 57 b1 77 bd 6f d9 f7 bc 02 aa 89 3c
       0.008297315 -0.06047186 -0.030255048 0.016804699
000240 cf 34 b6 bb dd 78 83 bc 06 51 8a 3d b2 3c 22 3c
       -0.0055604945 -0.016048843 0.06753735 0.009902166
000250 a1 f6 06 3b 9d b0 a3 bb 47 58 82 3d 4c 7b 1e 3d
       0.002059378 -0.004995419 0.06364494 0.038691804
000260 a3 2e ea bc 86 70 1a bd c9 be 84 3b 2d f4 00 bd
       -0.028586691 -0.037704967 0.0040510637 -0.031482864
000270 55 8c 25 3d 21 4e 55 bd 67 e5 77 bc 06 04 26 bc
       0.040417034 -0.052076463 -0.015130377 -0.010132795
000280 a1 9c 84 3d 18 41 54 bd 61 64 9c 3c a7 d9 04 3d
       0.06475187 -0.05181989 0.019090833 0.032434132
000290 91 58 0b 3a 45 aa b4 3a cc f6 a2 39 cf 33 87 bc
       0.00053156266 0.0013783654 0.00031082926 -0.016504196
0002a0 a6 1d 70 bc 49 22 30 3d 37 47 8a bb af 71 5e bd
       -0.014655506 0.043001447 -0.0042199153 -0.054307636
0002b0 ab 2d df bb 10 7e 0e bc 08 e9 b5 bb 9e 56 14 bd
       -0.006810864 -0.008697048 -0.005551461 -0.036215417
0002c0 93 28 04 bc 95 05 4a bb 10 9c a0 3c 8a 16 d4 3c
       -0.008066314 -0.003082608 0.019605666 0.025889654
0002d0 5a 85 c4 bc de 21 83 bd 2e 8b 86 bc 04 9e 87 3b
       -0.023989368 -0.06402944 -0.016423788 0.00413871
0002e0 de af 37 3d 04 da 5c 3c 30 5c 32 bd ea ce d1 bc
       0.044845454 0.013479713 -0.043544948 -0.02561136
0002f0 8b 7d 81 bd 08 8a e9 bc be b3 94 3c c5 ce 13 bd
       -0.063227735 -0.028508201 0.018152114 -0.036085863
000300 ce 28 e7 3b 40 fd 8c bc 06 eb cc 3c ee 6a d3 bc
       0.007054425 -0.017210603 0.025014412 -0.025807824
000310 f4 dd 7c bd d0 f6 90 bc c4 6d 2f bd bb a5 cd bc
       -0.06173511 -0.017695814 -0.04282929 -0.02510344
000320 58 88 a4 3d 0d 8d 0d bd c1 c3 8d bc 55 b9 73 bd
       0.08033818 -0.034558345 -0.017305257 -0.05950292
000330 8d bc b9 3c 94 be 5c bd 37 a4 01 bc 09 52 a6 3c
       0.022672916 -0.053892687 -0.007912687 0.02030279
000340 7d 3c 20 3d e3 81 12 3d 46 ea 10 bd dd 23 85 3c
       0.039120186 0.0357684 -0.03537967 0.016252453
000350 a8 77 00 bd ae 28 b2 ba bf 44 2e 3d 67 27 a6 3b
       -0.031364113 -0.0013592446 0.04254603 0.005070615
000360 3d 72 da bc b6 0f c5 3c ba a4 ee bc 85 b8 e5 3b
       -0.026665801 0.024055343 -0.029131282 0.007010522
000370 12 89 09 3d 1f 4a 75 3b 8a 30 b9 3d 2f 23 b4 bc
       0.033577986 0.0037428213 0.09042461 -0.021989433
000380 13 45 d8 bc 8b f2 0f 3b c2 c9 43 3c 1e 36 71 3d
       -0.026400125 0.0021964635 0.011949958 0.0588895
000390 d8 b3 b6 bc 5a 1c a3 3b ce c3 07 bd 42 ef 5e 3d
       -0.022302553 0.004977745 -0.03314572 0.054427393
0003a0 fd e4 11 3d b6 e2 a8 3c c1 88 05 bd 75 87 df bd
       0.03561877 0.020615917 -0.03260112 -0.10914508
0003b0 49 bb 4c bc d9 88 6f bd 18 0d b7 3c 67 58 a8 39
       -0.012495824 -0.058480117 0.02234511 0.00032109322
0003c0 bd 8c 0d 3d 80 a2 e7 bd fe 8a 0a bc 0a 32 20 bd
       0.034558047 -0.11310291 -0.00845599 -0.03911022
0003d0 f8 16 f0 bb 5c e8 1e 3d d0 63 62 3a 1f d7 17 3e
       -0.007326957 0.038795814 0.0008636089 0.14828156
0003e0 07 a4 ec bc bf a1 80 bd ae 2e 41 3d 7d 16 25 3d
       -0.028886808 -0.062808506 0.047163658 0.04030465
0003f0 ee da c6 3b bf b3 06 3d 21 bc 0d bc a5 dc 56 3d
       0.006068579 0.032886263 -0.00865081 0.052456517

features.9.bias f4 [84]
000000 ae 9b 16 3c 27 76 82 3d cc b5 c9 bc ae 69 0f 3c
       0.00919239 0.06370192 -0.02462282 0.008753223
000010 17 3c ca 3d 02 c9 62 3d b2 2c 1b 3d 87 56 cf 3c
       0.098747425 0.055367477 0.03788442 0.025309814
000020 2d c9 e4 3a 66 83 4e bc c5 2a bf 3e 19 ca bc bb
       0.0017454975 -0.01260457 0.37337318 -0.0057613966
000030 d0 2e aa 3d a7 dc 9b 3e 3e 35 b0 3d 2d 95 1c 3e
       0.0830971 0.30441782 0.08603905 0.15291281
000040 25 dd a0 3d 02 c3 be bb d2 19 17 3e dd d4 97 3d
       0.0785468 -0.0058215866 0.14755943 0.07413647
000050 d8 ae 70 bc 03 2c 52 3e c7 ec e2 bc ba 83 37 3d
       -0.0146901235 0.20524602 -0.027700795 0.04480336
000060 08 60 53 3b 71 ed 67 bb 47 a9 78 bb bb d2 d7 3c
       0.0032253284 -0.003538933 -0.0037942694 0.026345601
000070 f6 0d 23 3c 6c 0d 79 bd df c2 8b 3c c9 08 22 3d
       0.009952059 -0.060803816 0.017060695 0.03955916
000080 4f 33 7a 3e dd 70 9c 3a 1b 89 10 3d 72 0e 5d bb
       0.24433635 0.0011935491 0.035287004 -0.0033730534
000090 5f 9a 97 3c ad c9 91 3d 61 29 5a 3d d1 e0 22 3e
       0.018506227 0.07118545 0.05326212 0.15906073
0000a0 d7 37 bb 3d 7a 00 3c 3c c6 4c 03 bc 0b 64 44 3d
       0.0914151 0.011474723 -0.00801391 0.04794697
0000b0 e1 ff bf 3e 70 52 e3 3d 49 95 b6 3d a9 a7 77 3e
       0.37499908 0.11099708 0.08915193 0.24185051
0000c0 eb 6e 8a 3d 47 80 ec bb 98 c0 b7 3b ac 46 91 b9
       0.06759437 -0.0072174403 0.0056076758 -0.0002770921
0000d0 0b 18 5c 3c d1 da b1 3d 16 06 a1 3e ef 2d ad bb
       0.013433467 0.08684314 0.31449956 -0.0052850167
0000e0 be b0 17 bc 38 9b bd bd 14 65 7b 3c 86 93 71 bb
       -0.009258447 -0.09258121 0.015343923 -0.0036861612
0000f0 1e 4e 83 3d 03 5a 30 bd 1b ef 7a 3e 6f bc c4 3c
       0.06411384 -0.043054592 0.24505274 0.024015633
000100 ef 90 c3 bb 4a f5 8d 3d 63 de cc 3d 5c c9 23 3f
       -0.005968205 0.06931551 0.100033544 0.63979125
000110 52 fe 06 3a dc 46 48 3c 5b 9e 2c 3c b7 6e 85 3e
       0.0005149591 0.012223925 0.010535802 0.2606103
000120 78 5f 81 3c c3 97 a7 b9 40 66 ff 3b bc d5 61 3e
       0.015792593 -0.00031965793 0.0077941716 0.2205419
000130 5e 69 1f 3d ec e5 53 3d 8b 07 25 3e 90 28 7a bc
       0.038918845 0.051732942 0.16116159 -0.01526846
000140 59 3d a7 3d af cd 74 3e e3 45 54 3e d5 b3 73 3e
       0.08165998 0.23906587 0.20729785 0.23799069

classifiers.0.weight f4 [5, 84]
000000 8c 77 14 bd 3a e1 44 3e a6 52 64 3e 90 81 f5 3c
       -0.03624682 0.19226542 0.22297153 0.029969007
000010 c0 3f 0d 3e 7e ac bb bd f2 b6 74 bd e0 f1 d0 bc
       0.1379385 -0.0916376 -0.059744783 -0.02550596
000020 75 0f ee bc 78 4b 19 bc be 30 c5 be 6d 64 73 be
       -0.029060105 -0.009356372 -0.3851375 -0.23768778
000030 8a 79 21 be d7 f1 ae be 81 bc 61 be 78 ff f3 bd
       -0.1576902 -0.34168884 -0.22044565 -0.11913961
000040 a9 05 3e 3d af 4b d1 3c a3 58 43 3e 3b 49 89 bd
       0.046392117 0.025548784 0.19076781 -0.06703421
000050 24 21 2f 3c ef 6d 09 be 8c 34 c4 3a b0 4a 6b 3d
       0.010689054 -0.13420843 0.0014969273 0.057444274
000060 8f 0d 2c bc f9 ab 19 3c 60 5d 81 bc 99 89 9d bd
       -0.0105012795 0.00937938 -0.015791595 -0.0769226
000070 7a 3f 52 3d 39 45 13 3e 01 37 28 bb da 7f 05 3c
       0.051330067 0.14381875 -0.002566755 0.008148158
000080 48 9f 6a bc 9d 64 65 bc 4f de 05 3e 00 a7 07 ba
       -0.014320202 -0.014001039 0.13073085 -0.0005174726
000090 bc d0 32 be 26 a7 c5 bd 30 ae 21 3e a2 96 2b be
       -0.17462438 -0.09651022 0.15789104 -0.1675668
0000a0 45 e3 23 3e 7d a3 39 be 6f b1 57 bc bf c2 39 be
       0.16004665 -0.18128772 -0.013164862 -0.18140696
0000b0 36 d1 ee 3d 41 bc 34 3e 02 7c 17 3e 04 81 a7 bb
       0.116609976 0.17649938 0.14793399 -0.0051118154
0000c0 84 7d d2 3d 18 78 23 3b 7a e5 f0 bc 6e 93 07 3c
       0.102778465 0.0024943408 -0.029406298 0.008274896
0000d0 7b 0e f5 bb a9 3d 20 3d c3 0b a4 3b 9d e0 85 b9
       -0.007478533 0.039121304 0.005006285 -0.00025535087
0000e0 28 df 0c bc c0 ed 4b 3d 34 90 83 3d 90 e5 44 bc
       -0.0085981265 0.049787283 0.06423989 -0.012017623
0000f0 52 ca 36 be a5 6d 39 3d e8 6e 37 be 31 cd 83 3c
       -0.17850617 0.04527058 -0.17913401 0.016089054
000100 8d 89 0b 3c 9a 22 62 3e d3 25 7a 3e 69 4d 0b 3e
       0.008516681 0.22083512 0.24428491 0.13603748
000110 a0 14 01 3c 68 89 4f bd c9 bc 75 3c 7a f4 42 be
       0.007878453 -0.05066815 0.014998623 -0.19038573
000120 1c 4c 05 3d 34 97 ef bc 08 85 b1 bd 20 dc bd 3d
       0.032543287 -0.029246904 -0.08667952 0.09270501
000130 64 47 4b bb 9e b9 2d be db 90 54 bd 4f f0 7c bd
       -0.0031017894 -0.16965339 -0.051895957 -0.061752614
000140 02 05 5d 3e 3f 58 84 be ff 92 03 3b 4d 20 8a bd
       0.21583942 -0.25848576 0.002007663 -0.06744442
000150 4d 38 8c 3a a7 2b db bc 48 32 4d 3e 72 c9 36 3c
       0.0010697931 -0.026754213 0.20038712 0.011156427
000160 d4 0a bc bd 15 8d a4 3d f7 1c ab bc 52 d2 f0 3d
       -0.09181753 0.08034722 -0.020887835 0.117588654
000170 d1 64 88 bc a2 7e 86 3b c9 f3 1d be c2 b2 d1 3d
       -0.016649636 0.0041044513 -0.15425028 0.102391735
000180 02 39 88 bd f5 1b ff 3d 5c 8f 85 3e d5 a4 60 3d
       -0.066514984 0.12456504 0.26085937 0.054844696
000190 f0 79 c3 3d fa 4b 52 bc 19 fd 40 be 64 85 3e 3e
       0.09544742 -0.012835497 -0.18846549 0.18605572
0001a0 96 2c 84 bb 05 a7 3c 3d e3 8d bc 3b 33 79 32 3d
       -0.0040336354 0.04605772 0.005754219 0.043572616
0001b0 07 0b 88 bc 21 d6 05 bc 9b 52 04 bc 51 80 0f 3d
       -0.01660682 -0.008168728 -0.008076335 0.03503448
0001c0 f6 ee b7 3d ba f6 2b 3e 0b 3c 00 bc a2 8e 0b bd
       0.08981125 0.16793337 -0.007826815 -0.034071572
0001d0 4b 9b 87 bc 87 4d 17 bc 72 3e 1b bd 1f 61 20 bb
       -0.016553542 -0.009234793 -0.03790135 -0.0024471951
0001e0 a5 9a 2d 3d 8f 51 f1 bd 94 2f 08 3d 87 a0 2e 3e
       0.04238381 -0.11783134 0.0332485 0.17053424
0001f0 bf 88 b8 3c a8 8a 69 3e bc 1b 2c bc ae 2f 5e bd
       0.022526143 0.228068 -0.010504659 -0.05424469
000200 03 62 7f be 2e f8 a0 3d 93 a5 f5 bd bd d2 97 bd
       -0.24939732 0.078598365 -0.119944714 -0.07413242
000210 0c 7b 33 3d e6 3d a0 3b 80 ec 14 3e 18 d1 c0 bb
       0.04381852 0.0048901914 0.14543343 -0.005884301
000220 39 ba ec 3c f8 d0 e8 bb f7 d4 00 bf b2 7a fe bb
       0.028897392 -0.007104989 -0.5032496 -0.0077660913
000230 bf 20 c6 bb 98 5b 6d 3e 51 83 67 3b 0a 6f 22 bc
       -0.006046384 0.23179471 0.0035326073 -0.009914169
000240 0e d4 de bb 33 d2 4f 3e 19 f7 80 bd fb 97 77 bc
       -0.006800181 0.20295028 -0.0629713 -0.015111919
000250 83 1b cf 3c dc 48 bb 3b b1 66 5d bd 59 71 bd be
       0.025281673 0.0057154726 -0.054053012 -0.3700054
000260 f7 3c be bb 8a 2d 72 bd f7 fd 12 bd 6c b0 98 3d
       -0.0058056074 -0.05912546 -0.03588673 0.07455525
000270 99 4d d9 3d 47 e0 c2 3d c2 d1 30 bd 0b 25 d0 be
       0.10610504 0.09515434 -0.04316879 -0.40653262
000280 38 12 23 3e 63 ea 8d 3e 8d e5 0b 3e 99 d2 ad 3c
       0.15924919 0.27717885 0.13661785 0.021218585
000290 7a 01 37 3e 58 b4 da bc 43 46 0d 3c 73 38 b8 bd
       0.17871657 -0.026697323 0.008622709 -0.08995142
0002a0 fb 5b 28 3d 89 e8 04 be 5d 8e ca bc 62 e3 68 bb
       0.041103344 -0.1297933 -0.024726087 -0.0035535921
0002b0 8a 3c 45 bb bd 58 a4 bd b1 f0 41 3e fc 8d 35 bd
       -0.0030095899 -0.08024738 0.18939473 -0.04432486
0002c0 6b 25 0d 3d f1 92 cd bc a8 18 98 3d 6c fc 9b bd
       0.034459513 -0.025094481 0.07426578 -0.07616505
0002d0 a6 7a 5d bd aa 20 8b 3d 6f 89 3f 3d 6e 57 d3 bc
       -0.054072045 0.067933396 0.046761926 -0.025798526
0002e0 38 89 c4 3c 77 36 84 bb 47 3a b9 3e ac 91 4c bd
       0.023991212 -0.004034813 0.36177275 -0.04994361
0002f0 6d b6 8c 3c 1c 01 df 3d 72 7e 05 3d 31 2f cf 3d
       0.017176831 0.108888835 0.03259129 0.10116423
000300 c5 1f fd 3c 02 13 a7 3c 71 a4 6a 3c f4 e9 21 bd
       0.030898938 0.020394806 0.014321432 -0.039529756
000310 9c c6 87 bd 95 3e 16 3d 00 06 46 bd 1e 3d df 3d
       -0.066296786 0.036680777 -0.048345566 0.10900329
000320 8b a6 8b bd f3 00 80 bd 0e 92 9e 3d 85 5a 92 3a
       -0.06818875 -0.06250181 0.077427015 0.0011165893
000330 93 25 c7 3d 98 14 98 3e 97 02 d9 bd 4b fd 23 be
       0.097239636 0.29703212 -0.10596197 -0.16014592
000340 ce 73 46 3e f2 c4 49 bd 98 dd ab 3c d9 78 45 be
       0.19380113 -0.049260087 0.020979688 -0.19284381
000350 32 32 9f 3d b0 14 e2 3d f4 ca 07 3e 75 5d 0b 3e
       0.07773246 0.11039102 0.13261014 0.1360987
000360 69 aa d6 bc 80 c2 af 3a 44 5c 05 be 7a b2 32 3b
       -0.026204305 0.0013409406 -0.13023478 0.0027267025
000370 ee 6b 7f 3a 82 d7 8c bd 5b d5 ab 3c 73 9e f3 3a
       0.0009743561 -0.06877042 0.02097576 0.001858665
000380 b6 54 85 bb 3c f5 23 3e a8 b5 ce 3c bd 01 87 bc
       -0.004068936 0.16011518 0.025233105 -0.016480321
000390 e9 d8 4c 3d f2 dd 8e 3d 8a 59 3c 3e 3c 11 04 3b
       0.05001155 0.069759265 0.18393531 0.0020151874
0003a0 8a d7 88 b8 af e0 2f be e8 db e3 bd a7 eb f5 bd
       -6.5251326e-05 -0.17175554 -0.11125928 -0.12007838
0003b0 b5 9e 21 3d 5d 0a be 3d 9e 48 8b 3c 40 57 80 3d
       0.039457995 0.092793204 0.0170024 0.062666416
0003c0 70 5d e8 bd 62 6e c2 3c 22 de 20 3e dd c9 d4 bd
       -0.11345947 0.023734275 0.15709737 -0.10390065
0003d0 1b b3 ad bc 25 13 18 bd de 2f 74 be bb 6c 00 bb
       -0.021203568 -0.037127633 -0.23846385 -0.0019596058
0003e0 d1 c3 1a 3e ea f5 3c be e0 af 6a be ad d1 cc 3d
       0.1511376 -0.18453184 -0.22918653 0.1000093
0003f0 fa 06 94 3c e7 f5 18 3c 0c 30 2e be bb 7e b9 bb
       0.018069733 0.009335971 -0.17010516 -0.0056608594

classifiers.0.bias f4 [5]
000000 64 9b 0e 3f ec 85 32 bf 54 ea 55 bc 5f c1 eb 3c
       0.5570586 -0.697356 -0.013056356 0.02877873
000010 03 20 ff 3d
       0.124572776

classifier.weight f4 [5, 84]
000000 8c 77 14 bd 3a e1 44 3e a6 52 64 3e 90 81 f5 3c
       -0.03624682 0.19226542 0.22297153 0.029969007
000010 c0 3f 0d 3e 7e ac bb bd f2 b6 74 bd e0 f1 d0 bc
       0.1379385 -0.0916376 -0.059744783 -0.02550596
000020 75 0f ee bc 78 4b 19 bc be 30 c5 be 6d 64 73 be
       -0.029060105 -0.009356372 -0.3851375 -0.23768778
000030 8a 79 21 be d7 f1 ae be 81 bc 61 be 78 ff f3 bd
       -0.1576902 -0.34168884 -0.22044565 -0.11913961
000040 a9 05 3e 3d af 4b d1 3c a3 58 43 3e 3b 49 89 bd
       0.046392117 0.025548784 0.19076781 -0.06703421
000050 24 21 2f 3c ef 6d 09 be 8c 34 c4 3a b0 4a 6b 3d
       0.010689054 -0.13420843 0.0014969273 0.057444274
000060 8f 0d 2c bc f9 ab 19 3c 60 5d 81 bc 99 89 9d bd
       -0.0105012795 0.00937938 -0.015791595 -0.0769226
000070 7a 3f 52 3d 39 45 13 3e 01 37 28 bb da 7f 05 3c
       0.051330067 0.14381875 -0.002566755 0.008148158
000080 48 9f 6a bc 9d 64 65 bc 4f de 05 3e 00 a7 07 ba
       -0.014320202 -0.014001039 0.13073085 -0.0005174726
000090 bc d0 32 be 26 a7 c5 bd 30 ae 21 3e a2 96 2b be
       -0.17462438 -0.09651022 0.15789104 -0.1675668
0000a0 45 e3 23 3e 7d a3 39 be 6f b1 57 bc bf c2 39 be
       0.16004665 -0.18128772 -0.013164862 -0.18140696
0000b0 36 d1 ee 3d 41 bc 34 3e 02 7c 17 3e 04 81 a7 bb
       0.116609976 0.17649938 0.14793399 -0.0051118154
0000c0 84 7d d2 3d 18 78 23 3b 7a e5 f0 bc 6e 93 07 3c
       0.102778465 0.0024943408 -0.029406298 0.008274896
0000d0 7b 0e f5 bb a9 3d 20 3d c3 0b a4 3b 9d e0 85 b9
       -0.007478533 0.039121304 0.005006285 -0.00025535087
0000e0 28 df 0c bc c0 ed 4b 3d 34 90 83 3d 90 e5 44 bc
       -0.0085981265 0.049787283 0.06423989 -0.012017623
0000f0 52 ca 36 be a5 6d 39 3d e8 6e 37 be 31 cd 83 3c
       -0.17850617 0.04527058 -0.17913401 0.016089054
000100 8d 89 0b 3c 9a 22 62 3e d3 25 7a 3e 69 4d 0b 3e
       0.008516681 0.22083512 0.24428491 0.13603748
000110 a0 14 01 3c 68 89 4f bd c9 bc 75 3c 7a f4 42 be
       0.007878453 -0.05066815 0.014998623 -0.19038573
000120 1c 4c 05 3d 34 97 ef bc 08 85 b1 bd 20 dc bd 3d
       0.032543287 -0.029246904 -0.08667952 0.09270501
000130 64 47 4b bb 9e b9 2d be db 90 54 bd 4f f0 7c bd
       -0.0031017894 -0.16965339 -0.051895957 -0.061752614
000140 02 05 5d 3e 3f 58 84 be ff 92 03 3b 4d 20 8a bd
       0.21583942 -0.25848576 0.002007663 -0.06744442
000150 4d 38 8c 3a a7 2b db bc 48 32 4d 3e 72 c9 36 3c
       0.0010697931 -0.026754213 0.20038712 0.011156427
000160 d4 0a bc bd 15 8d a4 3d f7 1c ab bc 52 d2 f0 3d
       -0.09181753 0.08034722 -0.020887835 0.117588654
000170 d1 64 88 bc a2 7e 86 3b c9 f3 1d be c2 b2 d1 3d
       -0.016649636 0.0041044513 -0.15425028 0.102391735
000180 02 39 88 bd f5 1b ff 3d 5c 8f 85 3e d5 a4 60 3d
       -0.066514984 0.12456504 0.26085937 0.054844696
000190 f0 79 c3 3d fa 4b 52 bc 19 fd 40 be 64 85 3e 3e
       0.09544742 -0.012835497 -0.18846549 0.18605572
0001a0 96 2c 84 bb 05 a7 3c 3d e3 8d bc 3b 33 79 32 3d
       -0.0040336354 0.04605772 0.005754219 0.043572616
0001b0 07 0b 88 bc 21 d6 05 bc 9b 52 04 bc 51 80 0f 3d
       -0.01660682 -0.008168728 -0.008076335 0.03503448
0001c0 f6 ee b7 3d ba f6 2b 3e 0b 3c 00 bc a2 8e 0b bd
       0.08981125 0.16793337 -0.007826815 -0.034071572
0001d0 4b 9b 87 bc 87 4d 17 bc 72 3e 1b bd 1f 61 20 bb
       -0.016553542 -0.009234793 -0.03790135 -0.0024471951
0001e0 a5 9a 2d 3d 8f 51 f1 bd 94 2f 08 3d 87 a0 2e 3e
       0.04238381 -0.11783134 0.0332485 0.17053424
0001f0 bf 88 b8 3c a8 8a 69 3e bc 1b 2c bc ae 2f 5e bd
       0.022526143 0.228068 -0.010504659 -0.05424469
000200 03 62 7f be 2e f8 a0 3d 93 a5 f5 bd bd d2 97 bd
       -0.24939732 0.078598365 -0.119944714 -0.07413242
000210 0c 7b 33 3d e6 3d a0 3b 80 ec 14 3e 18 d1 c0 bb
       0.04381852 0.0048901914 0.14543343 -0.005884301
000220 39 ba ec 3c f8 d0 e8 bb f7 d4 00 bf b2 7a fe bb
       0.028897392 -0.007104989 -0.5032496 -0.0077660913
000230 bf 20 c6 bb 98 5b 6d 3e 51 83 67 3b 0a 6f 22 bc
       -0.006046384 0.23179471 0.0035326073 -0.009914169
000240 0e d4 de bb 33 d2 4f 3e 19 f7 80 bd fb 97 77 bc
       -0.006800181 0.20295028 -0.0629713 -0.015111919
000250 83 1b cf 3c dc 48 bb 3b b1 66 5d bd 59 71 bd be
       0.025281673 0.0057154726 -0.054053012 -0.3700054
000260 f7 3c be bb 8a 2d 72 bd f7 fd 12 bd 6c b0 98 3d
       -0.0058056074 -0.05912546 -0.03588673 0.07455525
000270 99 4d d9 3d 47 e0 c2 3d c2 d1 30 bd 0b 25 d0 be
       0.10610504 0.09515434 -0.04316879 -0.40653262
000280 38 12 23 3e 63 ea 8d 3e 8d e5 0b 3e 99 d2 ad 3c
       0.15924919 0.27717885 0.13661785 0.021218585
000290 7a 01 37 3e 58 b4 da bc 43 46 0d 3c 73 38 b8 bd
       0.17871657 -0.026697323 0.008622709 -0.08995142
0002a0 fb 5b 28 3d 89 e8 04 be 5d 8e ca bc 62 e3 68 bb
       0.041103344 -0.1297933 -0.024726087 -0.0035535921
0002b0 8a 3c 45 bb bd 58 a4 bd b1 f0 41 3e fc 8d 35 bd
       -0.0030095899 -0.08024738 0.18939473 -0.04432486
0002c0 6b 25 0d 3d f1 92 cd bc a8 18 98 3d 6c fc 9b bd
       0.034459513 -0.025094481 0.07426578 -0.07616505
0002d0 a6 7a 5d bd aa 20 8b 3d 6f 89 3f 3d 6e 57 d3 bc
       -0.054072045 0.067933396 0.046761926 -0.025798526
0002e0 38 89 c4 3c 77 36 84 bb 47 3a b9 3e ac 91 4c bd
       0.023991212 -0.004034813 0.36177275 -0.04994361
0002f0 6d b6 8c 3c 1c 01 df 3d 72 7e 05 3d 31 2f cf 3d
       0.017176831 0.108888835 0.03259129 0.10116423
000300 c5 1f fd 3c 02 13 a7 3c 71 a4 6a 3c f4 e9 21 bd
       0.030898938 0.020394806 0.014321432 -0.039529756
000310 9c c6 87 bd 95 3e 16 3d 00 06 46 bd 1e 3d df 3d
       -0.066296786 0.036680777 -0.048345566 0.10900329
000320 8b a6 8b bd f3 00 80 bd 0e 92 9e 3d 85 5a 92 3a
       -0.06818875 -0.06250181 0.077427015 0.0011165893
000330 93 25 c7 3d 98 14 98 3e 97 02 d9 bd 4b fd 23 be
       0.097239636 0.29703212 -0.10596197 -0.16014592
000340 ce 73 46 3e f2 c4 49 bd 98 dd ab 3c d9 78 45 be
       0.19380113 -0.049260087 0.020979688 -0.19284381
000350 32 32 9f 3d b0 14 e2 3d f4 ca 07 3e 75 5d 0b 3e
       0.07773246 0.11039102 0.13261014 0.1360987
000360 69 aa d6 bc 80 c2 af 3a 44 5c 05 be 7a b2 32 3b
       -0.026204305 0.0013409406 -0.13023478 0.0027267025
000370 ee 6b 7f 3a 82 d7 8c bd 5b d5 ab 3c 73 9e f3 3a
       0.0009743561 -0.06877042 0.02097576 0.001858665
000380 b6 54 85 bb 3c f5 23 3e a8 b5 ce 3c bd 01 87 bc
       -0.004068936 0.16011518 0.025233105 -0.016480321
000390 e9 d8 4c 3d f2 dd 8e 3d 8a 59 3c 3e 3c 11 04 3b
       0.05001155 0.069759265 0.18393531 0.0020151874
0003a0 8a d7 88 b8 af e0 2f be e8 db e3 bd a7 eb f5 bd
       -6.5251326e-05 -0.17175554 -0.11125928 -0.12007838
0003b0 b5 9e 21 3d 5d 0a be 3d 9e 48 8b 3c 40 57 80 3d
       0.039457995 0.092793204 0.0170024 0.062666416
0003c0 70 5d e8 bd 62 6e c2 3c 22 de 20 3e dd c9 d4 bd
       -0.11345947 0.023734275 0.15709737 -0.10390065
0003d0 1b b3 ad bc 25 13 18 bd de 2f 74 be bb 6c 00 bb
       -0.021203568 -0.037127633 -0.23846385 -0.0019596058
0003e0 d1 c3 1a 3e ea f5 3c be e0 af 6a be ad d1 cc 3d
       0.1511376 -0.18453184 -0.22918653 0.1000093
0003f0 fa 06 94 3c e7 f5 18 3c 0c 30 2e be bb 7e b9 bb
       0.018069733 0.009335971 -0.17010516 -0.0056608594

classifier.bias f4 [5]
000000 64 9b 0e 3f ec 85 32 bf 54 ea 55 bc 5f c1 eb 3c
       0.5570586 -0.697356 -0.013056356 0.02877873
000010 03 20 ff 3d
       0.124572776
