checkpoints_lenet5/baseline_scratch/lenet5/fish/checkpoint-100.pth.tar (torch, 312219 bytes, 12 tensors)

features.0.weight f4 [6, 3, 5, 5]
0.019043598 0.20609677 0.14674422 0.1797692 0.20208913 0.0687841 0.146297 0.019026391
0.079755954 0.17705189 0.21963677 -0.09633628 0.15975258 -0.24122462 -0.03358883 0.11545263
0.1787036 -0.19448687 0.06467837 -0.053402245 0.12496224 0.22506608 0.14147136 -0.09504121
-0.07946159 0.19259797 0.15266189 -0.17877895 -0.18534628 0.01427224 -0.16589278 -0.13201234
-0.13092767 -0.3813282 -0.16669236 0.07670796 -0.054551717 -0.5054777 -0.40630373 -0.07309898
0.13219678 0.03730327 -0.13620616 -0.25088516 0.02536724 -0.15174149 0.24165517 0.16435187
0.03562323 0.10170254 0.05857017 -0.19355537 -0.22114652 -0.09009244 0.042405527 -0.120058596
-0.38564616 -0.5043899 -0.371812 -0.03151282 0.011294923 -0.15645087 -0.33735964 -0.16695696
-0.27475482 -0.077278845 0.10397565 0.13542043 -0.18151431 0.040404588 0.3633061 0.56797063
0.5411677 0.40409774 0.07730661 0.082379855 -0.03331382 0.110383585 0.16439722 0.12103656
0.18899092 0.06806419 0.17598198 -0.022709787 -0.07087727 0.116908096 -0.23510882 0.13302904
0.2368799 -0.16901538 -0.042082068 -0.11737647 -0.2173688 0.13784954 -0.23607889 0.093724154
-0.007276561 -0.055008203 0.109434195 -0.35107818 -0.31286737 -0.43407664 -0.030641722 -0.22995293
-0.356155 0.062250976 -0.7437899 -0.06768392 -0.0644883 -0.45579273 -0.13720557 -0.39853793
-0.35620984 -0.10664154 -0.11546256 -0.01275272 -0.4435242 -0.13048504 0.025965039 -0.15826945
-0.26193434 -0.33036408 -0.03876603 0.124439 -0.23465863 0.15440363 -0.07300119 0.48359612
0.29212704 0.16439687 0.23940489 0.24838589 0.5728067 0.38922963 0.004990911 0.34072432
0.14725186 0.4531013 0.48399338 0.20345701 0.23005201 0.072101 0.17969021 0.38616928
-0.15720797 0.24622808 -0.21448497 0.062343016 0.5347233 -0.28277946 -0.030399077 -0.2056993
-0.2556322 -0.047307372 -0.03707538 -0.17296752 -0.21202548 -0.06998961 -0.16519797 -0.09552571
-0.108753 -0.046827137 -0.08446472 -0.1722477 -0.036096763 0.020279998 -0.2447267 -0.122703664
0.02229499 -0.1471293 -0.09953296 -0.16694272 -0.09253341 -0.34742206 -0.0057321037 -0.095826045
0.073373854 -0.1791819 0.030156255 -0.13286477 -0.1023838 -0.16298103 -0.08165624 0.06240985
0.049639046 -0.067665696 0.011383506 -0.13822365 -0.078176245 0.077066526 -0.017819876 -0.060483217
-0.09018228 -0.08921778 -0.11106542 -0.17224324 0.016712133 -0.13241835 -0.2807044 -0.054909866
-0.041173458 -0.02082713 0.258253 0.114563674 0.15823555 0.038682185 0.1071852 0.22547816
-0.022754714 0.0465973 -0.067601025 -0.1763892 -0.09505528 -0.0019308206 -0.018946566 0.04475715
0.0022028654 -0.058129307 0.13467838 0.07387237 -0.07265551 0.11195136 -0.14134698 0.026371477
0.016232612 0.103916146 0.25323156 0.1066754 0.34650886 0.82641286 0.13290949 0.15961733
0.38685092 0.335118 0.38826627 0.24772722 0.12405128 0.012555953 0.12580724 0.22936343
0.068491146 -0.17182122 -0.21231669 -0.04428746 0.15935816 -0.17352417 -0.34475997 -0.2439713
-0.13224143 -0.064952806 -0.24615467 -0.25454023 -0.47800756 -0.048583515 0.21792124 -0.0023027994
00000000: 5201 9c3c 080b 533e 1e44 163e 6b15 383e
00000010: 74f0 4e3e aede 8c3d e1ce 153e 3cdd 9b3c
00000020: 1757 a33d 174d 353e 76e8 603e f54b c5bd
00000030: 2e96 233e 9603 77be 7194 09bd 6e72 ec3d
00000040: 14fe 363e 9127 47be 1876 843d 50bc 5abd
00000050: 34ec ff3d b977 663e dedd 103e f7a4 c2bd
00000060: c2bc a2bd 6738 453e 6653 1c3e d411 37be
00000070: 6acb 3dbe 1dd6 693c ccdf 29be 3e2e 07be
00000080: e711 06be 733d c3be 67b1 2abe 1019 9d3d
00000090: 9f71 5fbd fd66 01bf 0b07 d0be ebb4 95bd
000000a0: 985e 073e 50cb 183d a179 0bbe 0574 80be
000000b0: f5ce cf3c 1f62 1bbe 7474 773e db4b 283e
000000c0: aae9 113d 6c49 d03d 46e7 6f3d 6133 46be
000000d0: 3c74 62be 6382 b8bd 6bb1 2d3d 48e1 f5bd
000000e0: 6a73 c5be b21f 01bf 245e bebe 9613 01bd
000000f0: 570e 393c a834 20be 67ba acbe c4f6 2abe
00000100: aaac 8cbe 5f44 9ebd 30f1 d43d a7ab 0a3e
00000110: e3de 39be 487f 253d 4203 ba3e 8666 113f
00000120: f789 0a3f e6e5 ce3e ee52 9e3d c5b6 a83d
00000130: 1274 08bd ca10 e23d bf57 283e 04e2 f73d
00000140: d686 413e 3d65 8b3d 9f34 343e e009 babc
00000150: 1a28 91bd 836d ef3d 5ec0 70be c438 083e
00000160: a590 723e 5e12 2dbe 3f5e 2cbd 1363 f0bd
00000170: ed95 5ebe 6e28 0d3e aabe 71be 73f2 bf3d
00000180: 3870 eebb 4850 61bd 091f e03d 85c0 b3be
00000190: 2730 a0be 4b3f debe 5904 fbbc c878 6bbe
000001a0: f359 b6be e1fa 7e3d 0469 3ebf de9d 8abd
000001b0: 7112 84bd aa5d e9be 9e7f 0cbe 2a0d ccbe
000001c0: 2361 b6be e166 dabd a277 ecbd c9f0 50bc
000001d0: 9b15 e3be df9d 05be a2b4 d43c 6311 22be
000001e0: 421c 86be 7b25 a9be 21c9 1ebd e0d9 fe3d
000001f0: 5a4a 70be fc1b 1e3e a681 95bd e999 f73e
00000200: ad91 953e a757 283e 8e26 753e df58 7e3e
00000210: 76a3 123f 1b49 c73e cc8a a33b 6b73 ae3e
00000220: 31c9 163e e5fc e73e fbcd f73e 0957 503e
00000230: c192 6b3e b0a9 933d b600 383e fbb7 c53e
00000240: 20fb 20be 3723 7c3e f3a1 5bbe 645b 7f3d
00000250: a0e3 083f 78c8 90be 7c07 f9bc d6a2 52be
00000260: 39e2 82be 60c5 41bd 5bdc 17bd 661e 31be
00000270: 351d 59be b656 8fbd a829 29be fca2 c3bd
00000280: e5b9 debd d0cd 3fbd d7fb acbd b361 30be
00000290: 33da 13bd 3d22 a63c a399 7abe 0f4c fbbd
000002a0: fca3 b63c 10a9 16be f0d7 cbbd 08f3 2abe
000002b0: 2882 bdbd 4ee1 b1be 5fd4 bbbb 7240 c4bd
000002c0: 0845 963d 767b 37be 400a f73c b40d 08be
000002d0: 99ae d1bd 80e4 26be 633b a7bd 79a1 7f3d
000002e0: 5052 4b3d 5094 8abd e281 3a3c 808a 0dbe
000002f0: de1a a0bd 0ed5 9d3d fdfa 91bc 40bd 77bd
00000300: 7db1 b8bd d0b7 b6bd 4476 e3bd 8860 30be
00000310: e2e7 883c ad98 07be 7db8 8fbe 2be9 60bd
00000320: 80a5 28bd a89d aabc bd39 843e 5ca0 ea3d
00000330: 8008 223e 3671 1e3d ea83 db3d bfe3 663e
00000340: 1868 babc cfdc 3e3d 6872 8abd 5f9f 34be
00000350: 58ac c2bd 9713 fdba d435 9bbc 4653 373d
00000360: f35d 103b ff18 6ebd 21e9 093e 664a 973d
00000370: 69cc 94bd c146 e53d 43bd 10be ff08 d83c
00000380: 41fa 843c fdd1 d43d 91a7 813e a278 da3d
00000390: 9c69 b13e cb8f 533f 6d19 083e ba72 233e
000003a0: 5311 c63e 9694 ab3e d6ca c63e 34ac 7d3e
000003b0: 990e fe3d 7cb7 4d3c 9dd3 003e 3fde 6a3e
000003c0: 1645 8c3d e7f1 2fbe 8c69 59be c566 35bd
000003d0: c92e 233e 52b0 31be 6184 b0be 9dd3 79be
000003e0: 4c6a 07be fa05 85bd f80f 7cbe 1953 82be
000003f0: 68bd f4be 82ff 46bd bf26 5f3e 90ea 16bb

features.3.weight f4 [16, 6, 5, 5]
-0.07122931 0.15403835 0.17551716 0.11637908 0.092065096 0.14268629 0.13779116 0.16931781
0.06520826 0.15827769 0.083864726 0.049878024 0.0036586009 -0.061628483 0.02587044 0.13054594
0.030697633 0.08206932 0.07981751 -0.14951022 -0.04501147 0.009375043 -0.17862386 -0.2534128
-0.0715536 -0.14108142 -0.19860247 0.006838567 0.0819163 0.25660753 0.011724242 -0.028872417
0.02785387 0.08992608 0.13964729 -0.08743709 0.008418638 0.18936466 0.13746998 0.2238686
-0.06927555 0.022520078 -0.053041447 0.17474796 0.09306273 0.07396051 0.12156805 0.1825827
0.29702586 0.11550276 -0.011062832 -0.047204427 -0.11634943 -0.13142893 -0.20251697 -0.12855838
-0.061491694 -0.08715091 -0.11650679 -0.24558596 -0.17844613 -0.21085654 -0.13773608 -0.21567711
-0.2102853 -0.11803858 -0.03996652 -0.14211257 -0.07492035 -0.12367087 -0.046211317 -0.03668077
0.075714834 -0.120310545 -0.2522366 0.115971684 0.20671187 0.26685235 0.14918098 0.25818095
-0.0853038 -0.051358677 0.13085426 0.0644268 0.2697005 -0.027178949 -0.06940003 0.042092096
0.15884526 0.14912878 -0.04143461 -0.0017782287 0.15518603 0.02832237 0.21978198 -0.024166366
-0.107367605 -0.06904984 -0.07496061 0.083593346 0.10751352 0.11207621 0.13528469 -0.11663842
-0.24349083 0.22973052 0.19618845 0.07907892 -0.017457876 -0.294462 0.16849363 0.11823404
0.07696704 0.06581263 -0.12836003 0.1294963 0.20761958 -0.06991076 0.017337587 -0.12452654
0.07925343 -0.12102944 -0.12838419 -0.2222404 -0.20461433 -0.265081 -0.32981473 -0.17454915
-0.051848333 0.104191765 -0.1509446 -0.23745377 -0.1407327 -0.01910219 0.06596373 0.010200934
-0.0394099 -0.04314481 0.10400304 0.08946101 0.020349 -0.05524884 -0.08365777 0.013497683
0.08263327 0.05265136 0.17910905 0.16803245 0.16097976 0.14298345 0.10213127 0.019033402
0.078750424 0.16464837 0.18720601 0.16768949 -0.07413399 -0.027675333 -0.046212103 -0.061809268
-0.04296633 -0.030497484 -0.12784159 0.017303165 0.023341484 0.0507614 0.003497287 -0.055082694
-0.050040413 -0.096576184 -0.09502732 0.008838162 -0.035812706 -0.0299304 -0.05793374 0.18964902
0.23093939 -0.07473453 0.013873376 -0.14477521 0.23476443 0.083378494 0.18507311 0.0029360654
-0.10946447 0.19865905 0.26114243 0.17019928 0.062392134 0.021681609 0.23266459 0.13638294
0.14573365 -0.010885052 0.02168783 -0.051442973 0.123206444 0.11964395 -0.02137002 0.07860842
-0.099605404 -0.21240517 -0.06797871 -0.06779382 -0.054995988 -0.14022103 -0.14634697 6.6599714e-05
-0.12022652 -0.2715585 -0.052801423 -0.19051397 -0.19507013 -0.11247751 -0.13456754 -0.20513922
-0.14771667 -0.07243888 -0.08980311 -0.13681236 -0.15878017 -0.05096741 -0.077649094 0.09632629
-0.12738818 0.16753112 0.2635308 0.05038465 0.11947619 0.0032682586 0.1157934 0.027367951
-0.05454439 0.05661465 -0.10474669 0.22380805 0.040695183 -0.22364773 0.029163154 -0.020172317
0.10907175 0.08205551 0.02599412 -0.00035833078 0.0076602693 0.14358555 0.04288207 -0.16938682
-0.024716705 0.02486199 -0.07507358 -0.2468568 -0.028677303 0.124312155 0.37199846 -0.22171988
00000000: ace0 91bd 3bbc 1d3e c5ba 333e 2858 ee3d
00000010: a08c bc3d 5b1c 123e 2019 0d3e a661 2d3e
00000020: e98b 853d 8c13 223e 45c1 ab3d e64c 4c3d
00000030: 23c5 6f3b 266e 7cbd 3fee d33c d6ad 053e
00000040: 9a79 fb3c f613 a83d 5d77 a33d 3519 19be
00000050: f25d 38bd c899 193c 2ce9 36be 53bf 81be
00000060: b28a 92bd a677 10be 725e 4bbe 0f16 e03b
00000070: bcc3 a73d 1062 833e 0917 403c d985 ecbc
00000080: cd2d e43c 2a2b b83d b3ff 0e3e 3812 b3bd
00000090: 54ee 093c cfe8 413e eec4 0c3e cf3d 653e
000000a0: 57e0 8dbd 077c b83c fd41 59bd 21f1 323e
000000b0: ac97 be3d 9c78 973d abf8 f83d f6f6 3a3e
000000c0: c613 983e b68c ec3d e140 35bc 6e59 41bd
000000d0: 9c48 eebd 4e95 06be 9c60 4fbe cfa4 03be
000000e0: b7de 7bbd 2d7c b2bd 1d9b eebd e37a 7bbe
000000f0: 95ba 36be c7ea 57be b00a 0dbe 76da 5cbe
00000100: 0855 57be 36be f1bd efb3 23bd f585 11be
00000110: d76f 99bd 2747 fdbd 1448 3dbd 933e 16bd
00000120: 6110 9b3d 6065 f6bd 2825 81be 9082 ed3d
00000130: 47ac 533e dfa0 883e e6c2 183e 4b30 843e
00000140: c2b3 aebd 7a5d 52bd a9fe 053e 33f2 833d
00000150: 2f16 8a3e 63a6 debc 9a21 8ebd c368 2c3d
00000160: 55a8 223e 37b5 183e 56b7 29bd 7413 e9ba
00000170: 16e9 1e3e 5104 e83c 870e 613e 8bf8 c5bc
00000180: 8ce3 dbbd 016a 8dbd f384 99bd fd32 ab3d
00000190: 0c30 dc3d 3688 e53d 1288 0a3e 20e0 eebd
000001a0: a955 79be 7a3e 6b3e a0e5 483e 21f4 a13d
000001b0: d203 8fbc b9c3 96be 9889 2c3e b024 f23d
000001c0: e5a0 9d3d c6c8 863d d070 03be ae9a 043e
000001d0: 3a9a 543e 5f2d 8fbd 8e07 8e3c c507 ffbd
000001e0: 9f4f a23d 48de f7bd 2577 03be fd92 63be
000001f0: 6b86 51be b2b8 87be 7add a8be 03bd 32be
00000200: eb5e 54bd 7e62 d53d 3991 1abe 1527 73be
00000210: 3c1c 10be 327c 9cbc fe17 873d d121 273c
00000220: 466c 21bd 9db8 30bd 8cff d43d 5637 b73d
00000230: f2b2 a63c 9c4c 62bd c454 abbd 6325 5d3c
00000240: a23b a93d f4a8 573d 5d68 373e b310 2c3e
00000250: e1d7 243e 416a 123e 332a d13d f0eb 9b3c
00000260: e747 a13d 9599 283e efb2 3f3e cbb6 2b3e
00000270: 90d3 97bd 61b7 e2bc e748 3dbd b72b 7dbd
00000280: 76fd 2fbd dcd5 f9bc e8e8 02be 5ebf 8d3c
00000290: a436 bf3c 30eb 4f3d bd32 653b 649e 61bd
000002a0: 2df7 4cbd bcc9 c5bd af9d c2bd f0cd 103c
000002b0: 58b0 12bd 9930 f5bc ee4b 6dbd 5a33 423e
000002c0: 607b 6c3e 6b0e 99bd 284d 633c f43f 14be
000002d0: 1666 703e 58c2 aa3d ce83 3d3e 016b 403b
000002e0: e82e e0bd 476d 4b3e 76b4 853e b848 2e3e
000002f0: e58e 7f3d a19d b13c a03f 6e3e f8a7 0b3e
00000300: 343b 153e 3857 32bc adaa b13c deb5 52bd
00000310: a953 fc3d e307 f53d 2e10 afbc 74fd a03d
00000320: ebfd cbbd be80 59be 6c38 8bbd 7cd7 8abd
00000330: 7943 61bd 1a96 0fbe fbdb 15be 73ab 8b38
00000340: 5239 f6bd b709 8bbe 4e46 58bd 1816 43be
00000350: 77c0 47be 9c5a e6bd 13cc 09be 0410 52be
00000360: 0a43 17be d65a 94bd b1ea b7bd 8a18 0cbe
00000370: 4597 22be 34c3 50bd 7d06 9fbd b846 c53d
00000380: 0c72 02be 478d 2b3e 82ed 863e 2260 4e3d
00000390: efaf f43d 4830 563b 1725 ed3d c132 e03c
000003a0: f069 5fbd c3e4 673d 6f85 d6bd f02d 653e
000003b0: feaf 263d e903 65be 91e7 ee3c 6a40 a5bc
000003c0: 0261 df3d b80c a83d 9ff1 d43c 58de bbb9
000003d0: ff02 fb3b 1708 133e 1ca5 2f3d bd73 2dbe
000003e0: b07a cabc 5fab cb3c 2dc0 99bd 07c8 7cbe
000003f0: aaec eabc 5f97 fe3d 9576 be3e 890a 63be

features.7.weight f4 [120, 400]
-0.123153254 0.020260993 0.10320955 0.13697967 0.09508976 -0.10884809 -0.01684189 0.08613709
0.14631589 0.09299827 0.03435619 0.013269061 0.017018361 0.0038017402 -0.011506146 0.12479984
0.10479777 0.018296763 -0.06666733 -0.055915512 0.00072860875 0.02044198 -0.05863096 -0.08557985
-0.08280807 0.03557645 0.00013261392 -0.04884301 -0.09962027 -0.09878399 0.07621843 0.054096647
0.05005982 -0.013518036 -0.029809257 0.08306216 0.06637488 0.056113858 0.00103524 0.014814368
0.015957695 0.022786345 0.05116851 0.041907683 0.015511399 -0.02708292 -0.008564717 -0.0065825307
-0.015180445 -0.006380265 0.10645906 0.094168976 0.09886133 0.0148285655 5.7131823e-05 0.0905392
0.013367063 0.021858057 -0.011040625 -0.0020740153 0.10541239 0.026637627 0.006210134 -0.012474534
0.025162768 0.06253216 0.007877624 -0.0054736473 -0.009194285 -0.011521765 -0.00043239552 -0.019442959
-0.0053698136 -0.025257645 0.006901754 -0.029335057 0.093444906 0.13079247 0.14762267 0.12948638
0.008234118 0.05006767 0.024339905 0.027121179 0.017166167 0.07352608 0.083194226 -0.023925977
-0.09162354 -0.045300845 0.04560737 -0.011787928 -0.068463765 -0.09051156 -0.04543696 0.007889943
-0.066618614 -0.09677455 -0.11424116 -0.11864291 0.050506894 0.11240448 0.09942014 0.1058169
0.16696203 -0.04334837 -0.014378319 -0.046876863 -0.056441262 0.029460795 -0.081190124 -0.08383851
-0.13087532 -0.13982467 -0.070056945 -0.037523445 -0.072178416 -0.12290991 -0.117208384 -0.083586425
0.00092985225 -0.050222017 -0.07803127 -0.09612018 -0.11178203 -0.025965204 0.017087173 0.029200688
0.0135804415 0.013892878 -0.00803343 0.025127975 0.0007496736 -0.050247766 0.01639093 0.022112112
0.02749798 0.010052844 -0.0067530037 0.08532277 -0.005336019 0.031528145 0.03789926 0.023061858
0.011525785 0.013633443 0.021637378 0.070528135 0.016493775 -0.04086678 0.0135739185 -0.0035353953
-0.010115814 0.0015972902 0.000772439 -0.0010266653 0.023574354 -0.010879777 0.013317556 -0.013760605
-0.013183952 -0.010489302 -0.0015377299 -0.01304612 -0.0120122405 -0.020206096 -0.024419835 0.012564942
-0.0012826447 -0.014212968 -0.004368157 0.010158092 0.020278465 0.021595147 0.0262074 -0.04320442
-0.056701824 -0.05352612 -0.05735553 -0.050955847 -0.01320316 -0.045242026 -0.04700705 -0.02698219
-0.022007257 0.00039332834 0.00041428074 -0.01979611 0.03137548 0.024851289 -0.014240779 0.02230708
0.015794532 0.013039334 0.008814816 -0.028215978 -0.005644143 0.04690943 0.01615485 -0.021777116
-0.08362121 -0.120473355 -0.13022226 -0.107694395 -0.061472353 -0.0404609 -0.08231866 -0.12295621
-0.12440983 -0.04704062 -0.027072612 -0.049355898 -0.011322731 -0.039568692 0.003572581 0.014116179
0.007125793 0.038849745 0.06083763 0.025367301 -0.05512059 -0.034457125 0.0139010735 0.0016548914
-0.013878412 -0.03889348 -0.008988057 0.03861432 0.06542488 0.06451484 0.10449339 0.0033029774
-0.008543617 0.003918777 0.051058624 0.12879938 0.04474429 -0.032686193 0.026226101 0.055440657
-0.0006707621 -0.033230875 -0.09125487 -0.06304406 -0.06383151 -0.043101855 -0.064405225 -0.06526858
-0.03299173 -0.03223203 -0.043890752 -0.028894994 -0.06911227 -0.08999334 -0.070605084 -0.004943509
00000000: c637 fcbd 62fa a53c 875f d33d 6644 0c3e
00000010: 6cbe c23d bfeb debd 01f8 89bc a568 b03d
00000020: d5d3 153e e175 be3d 14b9 0c3d 7a66 593c
00000030: 176a 8b3c 9e26 793b 4684 3cbc 0f97 ff3d
00000040: 37a0 d63d 18e3 953c e288 88bd aa07 65bd
00000050: 1b00 3f3a f075 a73c 0427 70bd 7d44 afbd
00000060: 4797 a9bd 9db8 113d 470e 0b39 9c0f 48bd
00000070: b605 ccbd 434f cabd 6918 9c3d 7294 5d3d
00000080: 870b 4d3d c17a 5dbc 8b32 f4bc 7e1c aa3d
00000090: 8eef 873d a5d7 653d e4b0 873a f7b7 723c
000000a0: b6b9 823c 6eaa ba3c 1296 513d 64a7 2b3d
000000b0: 8623 7e3c 00dd ddbc 0753 0cbc 45b2 d7bb
000000c0: 67b7 78bc 8b11 d1bb 3507 da3d aadb c03d
000000d0: cf77 ca3d 83f3 723c d4a0 6f38 9e6c b93d
000000e0: 8701 5b3c ab0f b33c bde3 34bc 34ec 07bb
000000f0: 73e2 d73d 2737 da3c 617e cb3b fd61 4cbc
00000100: 2622 ce3c dc10 803d 2611 013c 485c b3bb
00000110: a0a3 16bc c9c5 3cbc 25b3 e2b9 d746 9fbc
00000120: 43f5 afbb 1fe9 cebc 1c28 e23b 1350 f0bc
00000130: 0b60 bf3d 76ee 053e 662a 173e 1498 043e
00000140: 65e8 063c c213 4d3d 7b64 c73c 3c2d de3c
00000150: 10a0 8c3c d794 963d bc61 aa3d 6900 c4bc
00000160: 1fa5 bbbd 618d 39bd cbce 3a3d 2722 41bc
00000170: bb36 8cbd 205e b9bd 1b1c 3abd d244 013c
00000180: 576f 88bd bc31 c6bd 45f7 e9bd 0efb f2bd
00000190: 51e0 4e3d 5234 e63d c99c cb3d 88b6 d83d
000001a0: 18f8 2a3e 0f8e 31bd 0a93 6bbc f401 40bd
000001b0: f42e 67bd c457 f13c 0247 a6bd 86b3 abbd
000001c0: 2e04 06be 332e 0fbe 047a 8fbd 2fb2 19bd
000001d0: 47d2 93bd 31b8 fbbd f30a f0bd 5c2f abbd
000001e0: 54c1 733a 9ab5 4dbd dcce 9fbd a8da c4bd
000001f0: faed e4bd fbb4 d4bc 66fa 8b3c 4836 ef3c
00000200: 8080 5e3c f49e 633c a69e 03bc 2fd9 cd3c
00000210: be85 443a 9ad0 4dbd 4646 863c 7624 b53c
00000220: 7243 e13c afb4 243c 4d48 ddbb b4bd ae3d
00000230: c6d9 aebb a823 013d 413c 1b3d 39ec bc3c
00000240: a5d6 3c3c ce5e 5f3c df40 b13c 0e71 903d
00000250: f41d 873c ed63 27bd 2465 5e3c 17b2 67bb
00000260: cdbc 25bc 2a5c d13a 817d 4a3a 2c91 86ba
00000270: 011f c13c 1841 32bc e131 5a3c 2974 61bc
00000280: 8101 58bc 52db 2bbc a78d c9ba 65bf 55bc
00000290: fdce 44bc 4187 a5bc 1b0c c8bc 30dd 4d3c
000002a0: 6a1e a8ba 82dd 68bc c222 8fbb 206e 263c
000002b0: 061f a63c 4ee8 b03c e7b0 d63c 1ef7 30bd
000002c0: 2c40 68bd 343e 5bbd a2ed 6abd 14b7 50bd
000002d0: 1152 58bc b44f 39bd 778a 40bd c109 ddbc
000002e0: 9048 b4bc a337 ce39 d233 d939 742b a2bc
000002f0: 9383 003d ee94 cb3c 2852 69bc 56bd b63c
00000300: 8963 813c eea2 553c 056c 103c 3225 e7bc
00000310: 81f2 b8bb 1a24 403d 2d57 843c ec65 b2bc
00000320: 9941 abbd bcba f6bd fc58 05be e18e dcbd
00000330: 6fca 7bbd 54ba 25bd b096 a8bd 77d0 fbbd
00000340: 95ca febd aaad 40bd 62c7 ddbc 6929 4abd
00000350: fa82 39bc c812 22bd f721 6a3b 8c47 673c
00000360: 7c7f e93b e920 1f3d e130 793d 16cf cf3c
00000370: 21c6 61bd ea22 0dbd 54c1 633c f1e8 d83a
00000380: 4762 63bc c54e 1fbd a542 13bc 0d2a 1e3d
00000390: 7bfd 853d 5b20 843d a100 d63d c476 583b
000003a0: 87fa 0bbc 1669 803b d922 513d fce3 033e
000003b0: ca45 373d f5e1 05bd 1fd8 d63c be15 633d
000003c0: 15d6 2fba 191d 08bd d5e3 babd 3e1d 81bd
000003d0: 18ba 82bd 928b 30bd e3e6 83bd 89ab 85bd
000003e0: 5622 07bd bc05 04bd cac6 33bd 32b5 ecbc
000003f0: bc8a 8dbd 6e4e b8bd 6699 90bd 29fd a1bb

features.7.bias f4 [120]
-0.07524509 0.008402055 0.044700116 -0.10748369 -0.0061722193 -0.013033641 0.012913865 -0.0444966
-0.01774084 -0.027867973 -0.037138287 -0.0020410235 0.0039269156 -0.015242708 0.092173114 0.005439953
0.0009789624 -0.009923509 0.009856118 0.13349873 -0.0607052 0.032803934 0.024197387 0.0014682243
0.06710363 0.02233584 -0.010215769 0.04440589 0.0039031683 0.018292619 -0.07519543 0.032448735
-0.056489374 0.092483155 0.026962284 -0.005315422 -0.022236386 0.0019785748 0.025682412 -0.051319398
0.004687586 -0.052631255 0.030131835 0.015740944 -0.015688544 -0.00394535 0.00032476624 0.0032790387
-0.030153735 0.050244533 0.014391064 0.031929545 0.017072743 -0.0216347 -0.12694237 -0.055884324
-0.019045819 0.0013711463 -0.00022450076 0.053577937 -8.305322e-05 0.022392198 0.012523361 -0.049824722
0.020641217 -0.08398904 0.08823826 0.015727412 0.023613604 0.06352923 0.008668645 0.069774054
-0.005863162 0.024516579 0.0360158 0.0020520648 -0.012967096 0.015497968 0.08092571 -0.03885635
-0.07678661 0.0027890087 -0.05399786 -0.022289831 -0.0035476352 -0.046575416 -0.08971986 0.0019474034
-0.018158192 -0.016779691 0.078044824 0.03823048 -0.0071712323 0.00041462173 0.0062010624 -0.0037997398
0.2344623 -0.02808019 0.022171669 0.030564804 -0.053697154 0.033093918 -0.00013798202 -0.027118983
-0.0035521043 0.105806194 -0.069930814 0.007946405 0.007347197 -0.033132147 0.041295324 -0.090204805
-0.00863884 -0.0019097304 0.081671745 -0.08727964 -0.029279085 0.033004317 -0.003411779 -0.018202461
00000000: 191a 9abd c6a8 093c 7817 373d 6920 dcbd
00000010: 5440 cabb 0d8b 55bc ad94 533c 1142 36bd
00000020: 3d55 91bc 604b e4bc 511e 18bd b1c2 05bb
00000030: 5bad 803b 8dbc 79bc 42c5 bc3d a241 b23b
00000040: 8750 803a 3796 22bc 8e7b 213c e4b3 083e
00000050: 04a6 78bd 6b5d 063d 9939 c63c 6f71 c03a
00000060: a16d 893d a7f9 b63c 0a60 27bc f3e2 353d
00000070: 4ccc 7f3b 67da 953c 1000 9abd f7e8 043d
00000080: 6761 67bd cf67 bd3d 02e0 dc3c fe2c aebb
00000090: 1529 b6bc faaa 013b ec63 d23c 4a34 52bd
000000a0: 529a 993b df93 57bd 0ad7 f63c 27f3 803c
000000b0: 4385 80bc ff47 81bb 6345 aa39 24e5 563b
000000c0: f704 f7bc 36cd 4d3d 7fc8 6b3c 8ec8 023d
000000d0: 23dc 8b3c 413b b1bc 2efd 01be f6e6 64bd
000000e0: fa05 9cbc 09b8 b33a f767 6bb9 8a74 5b3d
000000f0: dc2c aeb8 d86f b73c c82e 4d3c 0215 4cbd
00000100: c517 a93c 7202 acbd 43b6 b43d c6d6 803c
00000110: 5171 c13c 9d1b 823d ef06 0e3c b3e5 8e3d
00000120: c51f c0bb fed6 c83c 4e85 133d ef7b 063b
00000130: f173 54bc 30eb 7d3c 61bc a53d d627 1fbd
00000140: 4c42 9dbd cdc7 363b dc2c 5dbd 2a99 b6bc
00000150: 717f 68bb ddc5 3ebd 0cbf b7bd 0440 ff3a
00000160: 7dc0 94bc 9075 89bc f7d5 9f3d 9097 1c3d
00000170: a8fc eabb 9661 d939 4832 cb3b 0e05 79bb
00000180: e316 703e 6d08 e6bc 5ca1 b53c 0a63 fa3c
00000190: 8cf1 5bbd 7d8d 073d 44af 10b9 a128 debc
000001a0: 6cca 68bb ebb0 d83d e337 8fbd a331 023c
000001b0: c1c0 f03b 93b5 07bd 4925 293d 4cbd b8bd
000001c0: ec89 0dbc eb4f faba 8443 a73d abbf b2bd
000001d0: b1da efbc 892f 073d 2798 5fbb 541d 95bc

features.9.weight f4 [84, 120]
-0.04462008 -0.020171959 0.016559262 -0.025782496 -0.02182875 0.01943578 -0.012764355 -0.048707366
0.037668798 0.038347512 -0.031959288 -0.033754252 0.032152746 0.020414777 0.03897425 0.04817436
0.016542962 0.0018623678 0.010237501 0.0007465977 -0.011869232 0.0028809456 -0.0069870655 -0.0060819546
0.046947543 -0.012637627 0.05845297 -0.027316399 -0.011758237 0.010809731 0.041304056 0.005011532
-0.013607716 -0.01532686 0.015408965 -0.006747329 0.03659957 0.02234891 0.01053904 -0.027411083
-0.017651413 -0.0070127235 0.0079770805 0.020907944 0.0066055637 0.005284239 0.0017224983 0.019263675
-0.011243791 -0.009075908 -0.022337133 -0.002553331 -0.008911055 -0.0086541325 -0.0018324679 0.035947476
-0.010135763 0.0020575305 0.016587144 0.01809041 0.0064374995 0.004277346 -0.04682524 4.7045425e-05
0.011711921 0.018972395 0.009155266 -0.018586004 0.031356167 0.03465916 0.013471857 0.022450782
-0.0015463516 -0.02990752 0.029622016 -0.014909153 -0.0013084525 -0.046387244 -0.018705972 -0.011478723
0.018109716 -0.03377789 -0.00347748 -0.0059741857 0.022966996 -0.013861324 -0.043607987 0.039388668
-0.017374184 0.00378093 -0.025661493 0.0040071704 0.037296556 0.01637974 0.0037746825 0.01111689
0.028909307 -0.015576923 0.025142355 -0.0101223765 -0.016168568 -0.06922316 -0.025385723 -8.002822e-05
0.022650873 -0.012423505 0.018478442 -0.0059088804 -0.0042361836 9.29739e-06 0.012893752 -0.011730856
-0.014135782 0.018489707 0.0014989987 -0.01062781 -0.015106005 0.025886789 0.022162177 0.011732483
0.003352262 -0.025151873 -0.0078073335 0.013207035 0.002638069 -0.0028437958 -0.006860915 0.0077151465
0.0066134874 -0.0059070825 -0.012450232 0.0043508653 -0.005954457 -0.014377835 -0.019852275 -0.0028061413
-0.005509124 0.01827965 0.0067186686 0.016361035 -0.0015110781 -0.016912809 -0.004449337 0.017572384
0.01027226 -0.0034340338 0.005002912 -0.0019863993 0.009736406 0.00062251213 -0.008430831 0.0012733679
-0.007952853 -0.026934098 0.004040555 0.0010134801 0.016776718 -0.009672463 -0.013431943 -0.0023434863
0.011964755 -0.0029245534 -0.0056127994 -0.0074325786 0.00031728594 0.00685038 -0.020415127 0.004964039
-0.002917676 0.017415665 0.0065052346 -0.0051527135 0.0021425686 -0.011119254 -0.0067715724 0.00973745
0.0049134265 0.01080307 0.0244912 0.004146286 -0.0050080246 -0.021171644 0.009478184 -0.015052324
-0.0049863257 0.008937774 0.0018380969 -0.010570634 -0.015714085 -0.009310252 0.00729426 0.003515374
-0.005063405 -0.0026159904 0.012809648 -0.0070841666 -0.026644006 0.01835196 0.0005284767 -0.01898417
0.005818936 0.004062145 -0.0042870357 -0.0027473345 0.007570721 -0.0079411045 0.008577005 -0.0065599815
0.003521053 -0.0055482467 -0.029214911 0.018884674 -0.0016452471 -0.0017529909 0.009746468 0.013338077
-0.007513796 -0.0060622753 0.0033613094 0.010827539 0.006219881 0.00023599653 0.008870024 -0.0035259859
-0.011155998 0.013740346 0.015787393 0.004411589 -0.0012147668 -0.008252348 -0.019213142 -0.0005930206
0.015179837 -0.0067815594 -0.01723683 0.014651305 -0.0041048587 -0.004970631 0.0008932595 -0.012267025
-0.009559697 0.051082205 -0.059131254 -0.026847346 0.09804603 0.0018303572 0.040577203 -0.17137663
-0.08023352 -0.19439779 -0.0009918554 -0.10154863 -0.035538092 -0.04565935 0.111049786 0.14518192
00000000: 8cc3 36bd aa3f a5bc 4aa7 873c d035 d3bc
00000010: 35d2 b2bc c937 9f3c 9621 51bc 6081 47bd
00000020: 994a 1a3d 4812 1d3d bee7 02bd e641 0abd
00000030: 99b2 033d e43c a73c 77a3 1f3d 7a52 453d
00000040: 1b85 873c b21a f43a 31bb 273c 53b7 433a
00000050: 2b77 42bc 3fce 3c3b c1f3 e4bb 224b c7bb
00000060: 114c 403d 0d0e 4fbc 626c 6f3d a4c6 dfbc
00000070: 9fa5 40bc 4c1b 313c 712e 293d c737 a43b
00000080: e6f2 5ebc 831d 7bbc e275 7c3c b318 ddbb
00000090: 6ee9 153d 1015 b73c f0ab 2c3c 358d e0bc
000000a0: b299 90bc fdca e5bb 4db2 023c 2347 ab3c
000000b0: 7c73 d83b 6927 ad3b 74c5 e13a dbce 9d3c
000000c0: e137 38bc 1eb3 14bc 5dfc b6bc c955 27bb
000000d0: acff 11bc 10ca 0dbc 6b2f f0ba a93d 133d
000000e0: 7910 26bc a2d7 063b c3e1 873c 5732 943c
000000f0: a9f1 d23b fb28 8c3b d3cb 3fbd a452 4538
00000100: 5be3 3f3c ff6b 9b3c f8ff 153c ad41 98bc
00000110: 536f 003d c3f6 0d3d 10b9 5c3c b4ea b73c
00000120: f3ae caba 9e00 f5bc dfa9 f23c 8545 74bc
00000130: 6180 abba 8d00 3ebd 443d 99bc 4111 3cbc
00000140: d45a 943c af5a 0abd 6fe6 63bb 1ac3 c3bb
00000150: 4825 bc3c 9b1a 63bc 4a9e 32bd 0356 213d
00000160: 4e54 8ebc 7bc9 773b 0d38 d2bc 954e 833b
00000170: 46c4 183d ce2e 863c aa60 773b 9e23 363c
00000180: 36d3 ec3c 5a36 7fbc 57f7 cd3c 53d8 25bc
00000190: f273 84bc dfc4 8dbd b8f5 cfbc d3d4 a7b8
000001a0: 538e b93c f58b 4bbc 1a60 973c 489f c1bb
000001b0: afcf 8abb fcfb 1b37 5140 533c c732 40bc
000001c0: c499 67bc ba77 973c 0d7a c43a 4420 2ebc
000001d0: 2d7f 77bc 8810 d43c 748d b53c 9a39 403c
000001e0: a0b1 5b3b 4d0b cebc a9d4 ffbb 5262 583c
000001f0: 74e3 2c3b fa5e 3abb 87d1 e0bb 57cf fc3b
00000200: f4b5 d83b 3390 c1bb 0ffc 4bbc b491 8e3b
00000210: 9b1d c3bb 0391 6bbc 3da1 a2bc 3de7 37bb
00000220: e285 b4bb 34bf 953c 4728 dc3b 9407 863c
00000230: 5e0f c6ba bb8c 8abc becb 91bb f6f3 8f3c
00000240: fb4c 283c 870d 61bb 78ef a33b 402e 02bb
00000250: 7285 1f3c 1530 233a 7821 0abc 23e7 a63a
00000260: af4c 02bc e6a4 dcbc a266 843b c0d6 843a
00000270: 546f 893c 4079 1ebc a711 5cbc 2d95 19bb
00000280: d207 443c dda9 3fbb 93eb b7bb fd8c f3bb
00000290: 6659 a639 2779 e03b a03d a7bc 61a9 a23b
000002a0: 7b36 3fbb 4cab 8e3c dd29 d53b 18d8 a8bb
000002b0: 566a 0c3b 882d 36bc 11e4 ddbb d389 1f3c
000002c0: cf00 a13b 5cff 303c c5a1 c83c 91dd 873b
000002d0: 5b1a a4bb 2870 adbc 634a 1b3c 069e 76bc
000002e0: 5564 a3bb be6f 123c 4cec f03a 7430 2dbc
000002f0: d3ba 80bc 078a 18bc b004 ef3b 3062 663b
00000300: ebea a5bb 0971 2bbb 8fdf 513c 4c22 e8bb
00000310: 8844 dabc da56 963c 7989 0a3a b184 9bbc
00000320: c6ac be3b be1b 853b 437a 8cbb a00c 34bb
00000330: d013 f83b 681b 02bc 9186 0c3c 1df5 d6bb
00000340: 77c1 663b 11ce b5bb 1c54 efbc 08b4 9a3c
00000350: 55a5 d7ba 9dc4 e5ba a6af 1f3c f387 5a3c
00000360: 4a36 f6bb 0da6 c6bb 6a49 5c3b fd65 313c
00000370: 25d0 cb3b d675 7739 9453 113c 3a14 67bb
00000380: a6c7 36bc 301f 613c 9054 813c 178f 903b
00000390: cf38 9fba db34 07bc e164 9dbc f074 1bba
000003a0: dab4 783c d837 debb 4134 8dbc 070c 703c
000003b0: 0d82 86bb ade0 a2bb a129 6a3a a2fb 48bc
000003c0: 46a0 1cbc 933b 513d 9d33 72bd f7ee dbbc
000003d0: 5bcc c83d 99e8 ef3a 4834 263d 5b7d 2fbe
000003e0: 7951 a4bd 3710 47be 2501 82ba baf8 cfbd
000003f0: 6490 11bd 4c05 3bbd 126e e33d 92aa 143e

features.9.bias f4 [84]
0.073502064 0.00083431293 0.16206677 0.007779731 0.032870676 0.37628746 0.005891446 0.18006156
-0.001822241 0.19298448 -0.015253572 -0.055540785 -0.029798267 0.21053927 0.68257815 0.085386775
-0.0031691226 -0.012385485 0.48790208 -0.048093304 -0.0664994 0.10666858 0.028860223 0.19227917
0.0016204324 0.0776578 -0.0017038173 -0.0012313474 0.0020639435 0.29613736 -0.012452721 0.44861028
0.039262887 0.04353229 0.0047344198 0.10294501 0.11205603 0.047451213 -0.030049328 0.09169023
0.019072572 0.22119153 -0.007584286 -0.11250408 0.18830173 0.030610038 -0.013980259 0.13843727
0.02527596 0.20704016 -0.039237272 -0.075760335 -0.0029121223 0.16056326 0.30983642 0.21024461
0.009852182 0.09562001 -0.006688723 -0.024504678 0.018806513 0.36579335 -0.045207016 0.07524842
0.050140653 0.123672515 -0.0040678564 0.12129864 -0.021701146 0.26236814 -0.00026116025 0.1836177
-0.011419552 0.4673439 -0.014487601 0.10122034 -0.005421638 -0.07218044 0.17415762 0.23415433
0.037725482 0.106156915 -0.026969485 0.068432465
00000000: 4088 963d cbb5 5a3a d5f4 253e 1ded fe3b
00000010: 67a3 063d c0a8 c03e 080d c13b 0f62 383e
00000020: 43d8 eeba b99d 453e 1eea 79bc bc7e 63bd
00000030: 7f1b f4bc 9b97 573e 71bd 2e3f 43df ae3d
00000040: 0eb1 4fbb 7dec 4abc 4dce f93e 7cfd 44bd
00000050: d630 88bd 0e75 da3d 466c ec3c d5e4 443e
00000060: b064 d43a 0d0b 9f3d 9f52 dfba 2a65 a1ba
00000070: 3a43 073b 519f 973e 7f06 4cbc 3fb0 e53e
00000080: 1fd2 203d ea4e 323d 3123 9b3b d5d4 d23d
00000090: a27d e53d 345c 423d 022a f6bc 16c8 bb3d
000000a0: 153e 9c3c 0880 623e 9a85 f8bb 8a68 e6bd
000000b0: 2bd2 403e e7c1 fa3c 750d 65bc 80c2 0d3e
000000c0: 880f cf3c 5602 543e 43b7 20bd 3c28 9bbd
000000d0: 4ed9 3ebb b26a 243e e1a2 9e3e 5d4a 573e
000000e0: 0c6b 213c 6cd4 c33d 132d dbbb 09be c8bc
000000f0: 1e10 9a3c 4449 bb3e fe2a 39bd d81b 9a3d
00000100: 4960 4d3d 0448 fd3d a74b 85bb 6c6b f83d
00000110: 9ac6 b1bc 1e55 863e 56ec 88b9 4706 3c3e
00000120: 1319 3bbc b347 ef3e 675d 6dbc 9c4c cf3d
00000130: ffa7 b1bb 57d3 93bd 6056 323e 27c6 6f3e
00000140: 0986 1a3d cc68 d93d 1cef dcbc 5226 8c3d

classifiers.0.weight f4 [5, 84]
0.033710048 0.002447936 0.14772771 -0.009985286 0.2241827 -0.22294976 -0.011077916 -0.104593605
-0.010911 -0.13321882 -0.074445985 0.18998174 0.081299044 -0.3539769 -0.30945367 -0.008368673
-0.08351309 -0.008180241 -0.07463161 0.1267385 0.340966 -0.0861457 0.050192174 0.045301374
0.017242845 -0.036436923 -0.00442779 0.02519861 -0.010046876 0.11516444 0.014121607 -0.029577889
-0.04846594 0.036690768 0.041266024 0.0603742 -0.05645644 0.058004793 0.13395257 -0.2537256
0.012971218 0.18603857 -0.0075365207 -0.024165133 0.17223346 0.01929341 0.12040398 0.2284776
0.18347155 -0.072880276 0.0685611 -0.014713633 -0.0051492318 -0.02723273 0.13670231 -0.09280495
-0.029794201 0.06445312 0.017027218 -0.016212787 -0.01964469 -0.19866365 0.2201013 0.007967943
0.05940354 0.20189959 0.03197974 0.07071553 0.18695335 -0.106160104 0.00584961 0.08170868
0.097415246 0.020125479 -0.0033511017 -0.20858902 -0.003934536 0.055682056 0.093605064 -0.25538123
0.21459827 -0.2422671 0.1312302 0.19323319 -0.059645347 -0.0048268083 0.2447068 0.01564057
-0.08413522 0.080034226 -0.008497293 -0.23800026 -0.0018695912 -0.11459858 0.100326665 0.024492128
0.060491987 0.13874668 0.2625044 0.0047733714 0.17077485 -0.03843162 -0.23104228 0.048295494
-0.29895377 0.16851959 0.08747966 -0.25864166 -0.025611462 0.050883252 -0.002885649 0.002465655
0.032783303 0.15995112 0.0016067018 0.20675053 0.06072488 0.0256491 -0.004836383 -0.097067274
0.020353928 -0.018160587 0.089355 0.20857592 0.004605146 0.14295104 0.0034081303 -0.09905191
0.050225895 -0.001795803 -0.22814651 -0.110220924 0.04270013 -0.10101297 0.0044318275 -0.015222654
0.020798557 -0.024827333 -0.24984778 0.0030214435 0.033215635 0.21479122 -0.0011504688 -0.051741615
0.02426868 0.17195079 0.089506134 0.024238523 0.16445509 -0.08980344 -0.010006764 0.04768734
-0.10289073 -0.06254069 -0.035424523 0.1509176 -0.013784802 0.09295739 -0.012617057 -0.03339504
-0.0032358335 0.25271708 0.15059501 0.046020016 0.013986307 -0.12918557 -0.04868196 0.086123295
0.09632028 -0.034343828 0.086366706 -0.033727884 -0.24291009 0.1448685 0.026515571 0.1253592
0.008400183 0.18039852 -0.09497037 -0.063414976 -0.18069726 -0.038614307 0.24375056 -0.14736147
-0.17548622 -0.043267194 0.32141653 -0.10457917 -0.019891078 0.038957804 -0.004911096 0.23817782
-0.015110057 -0.035406586 0.011606327 0.0043491055 -0.07032698 0.12066105 -0.06732793 0.22165304
-0.06904877 -0.08683844 -0.0011478462 -0.086825006 0.088528 0.038476516 -0.10746896 -0.259273
0.013572396 0.042751975 0.003044979 -0.1597396 0.0581883 -0.18067509 0.08455295 -0.2242442
-0.13322787 0.14865942 -0.30240825 -0.16917816 0.0040024123 0.07033577 -0.2251894 0.1446648
-0.01748723 -0.17145662 0.0146483015 -0.17303309 0.034682684 0.16069023 -0.114727415 0.04877694
-0.013658725 -0.15720539 -0.030340604 -0.29548892 -0.070074424 0.17680208 0.006302284 0.06456229
-0.08173603 0.28956392 0.03494409 0.056611046 0.0012990579 -0.32555553 0.02671906 -0.19008268
0.14509131 0.0966219 -0.041485485 -0.07612479 0.0618408 0.0043178755 -0.25263572 0.024666712
00000000: 8c13 0a3d 8d6d 203b ef45 173e 5399 23bc
00000010: 2690 653e f14c 64be 2680 35bc 2c35 d6bd
00000020: 0dc4 32bc 846a 08be 2377 98bd 938a 423e
00000030: 1d80 a63d 763c b5be b670 9ebe c21c 09bc
00000040: e908 abbd 6b06 06bc 75d8 98bd bdc7 013e
00000050: 1893 ae3e 286d b0bd 4f96 4d3d ef8d 393d
00000060: de40 8d3c e23e 15bd ff16 91bb 516d ce3c
00000070: a79b 24bc 55db eb3d 505e 673c 544d f2bc
00000080: 3984 46bd 0f49 163d 9006 293d f04a 773d
00000090: de3e 67bd 6f96 6d3d dd2a 093e 52e8 81be
000000a0: 3b85 543c e580 3e3e ebf4 f6bb f5f5 c5bc
000000b0: f85d 303e 370d 9e3c 5d96 f63d 08f6 693e
000000c0: f7df 3b3e 4142 95bd c369 8c3d 7311 71bc
000000d0: e3ba a8bb 2d17 dfbc b1fb 0b3e 8610 bebd
000000e0: f812 f4bc ffff 833d aa7c 8b3c aed0 84bc
000000f0: e7ed a0bc 7c6e 4bbe 3c62 613e fa8b 023c
00000100: 2051 733d c4be 4e3e 30fd 023d 4ed3 903d
00000110: b370 3f3e 786a d9bd 16ae bf3b e156 a73d
00000120: a581 c73d 30de a43c 289e 5bbb 5c98 55be
00000130: 48ed 80bb de12 643d 03b4 bf3d 54c1 82be
00000140: a6bf 5b3e de14 78be 3661 063e ecde 453e
00000150: ae4e 74bd 342a 9ebb 6b94 7a3e a720 803c
00000160: 164f acbd fce8 a33d 3b38 0bbc 57b6 73be
00000170: 120d f5ba a9b2 eabd 1178 cd3d b7a3 c83c
00000180: 72c6 773d 9c13 0e3e fa66 863e f169 9c3b
00000190: 9adf 2e3e 796a 1dbd 5996 6cbe 7fd1 453d
000001a0: 7810 99be 6690 2c3e 8928 b33d ae6c 84be
000001b0: 21cf d1bc f56a 503d 281d 3dbb d496 213b
000001c0: c947 063d 3aca 233e f797 d23a 69b6 533e
000001d0: a7ba 783d 101e d23c 857a 9ebb 35cb c6bd
000001e0: 48bd a63c 83c5 94bc c1ff b63d ed94 553e
000001f0: c4e6 963b c261 123e f05a 5f3b badb cabd
00000200: abb9 4d3d 2661 ebba 3d9f 69be 82bb e1bd
00000210: 55e6 2e3d e3df cebd dd38 913b 7068 79bc
00000220: bc61 aa3c b162 cbbc 19d8 7fbe 6903 463b
00000230: 1e0d 083d 3bf2 5b3e 54cb 96ba 04ef 53bd
00000240: 1ccf c63c de13 303e fe4e b73d de8f c63c
00000250: ea66 283e deea b7bd 69f3 23bc cd53 433d
00000260: 60b8 d2bd 5515 80bd 4e19 11bd 258a 1a3e
00000270: a6d9 61bc 7260 be3d c6b7 4ebc 3dc9 08bd
00000280: 4710 54bb 2264 813e 9435 1a3e 7c7f 3c3d
00000290: d326 653c 3949 04be bc66 47bd 6961 b03d
000002a0: 9143 c53d 1dac 0cbd 07e1 b03d 4026 0abd
000002b0: 6cbd 78be 6858 143e 2f37 d93c 2a5e 003e
000002c0: eca0 093c 64ba 383e d37f c2bd b6df 81bd
000002d0: b408 39be 092a 1ebd bf99 793e ede5 16be
000002e0: a9b2 33be f138 31bd b590 a43e 9b2d d6bd
000002f0: 9df2 a2bc 3892 1f3d 42ed a0bb e3e4 733e
00000300: 2c90 77bc 7f06 11bd 7728 3e3c f182 8e3b
00000310: 9707 90bd 241d f73d 3ae3 89bd 04f9 623e
00000320: 7169 8dbd 5ad8 b1bd 5473 96ba 4fd1 b1bd
00000330: 2b4e b53d 8d99 1d3d b018 dcbd 6ebf 84be
00000340: c15e 5e3c b21c 2f3d 458e 473b c792 23be
00000350: db56 6e3d e402 39be 192a ad3d 46a0 65be
00000360: e36c 08be 2d3a 183e 41d5 9abe 0a3d 2dbe
00000370: ab26 833b 330c 903d 0d98 66be 0223 143e
00000380: 6141 8fbc 5392 2fbe 6eff 6f3c 962f 31be
00000390: 6e0f 0e3d fb8b 243e 35f6 eabd 54ca 473d
000003a0: d8c8 5fbc 73fa 20be dc8c f8bc 534a 97be
000003b0: 2e83 8fbd 9b0b 353e 6483 ce3b 3c39 843d
000003c0: 3865 a7bd b941 943e 8921 0f3d fce0 673d
000003d0: 2645 aa3a 37af a6be eee1 da3c 09a5 42be
000003e0: d192 143e b4e1 c53d afec 29bd 50e7 9bbd
000003f0: c74c 7d3d f77c 8d3b 7859 81be d811 ca3c

classifiers.0.bias f4 [5]
-1.3600281 -0.014668721 0.82258934 0.4341635 0.11794233
00000000: 6715 aebf 1355 70bc 3795 523f ae4a de3e
00000010: c08b f13d

classifier.weight f4 [5, 84]
0.033710048 0.002447936 0.14772771 -0.009985286 0.2241827 -0.22294976 -0.011077916 -0.104593605
-0.010911 -0.13321882 -0.074445985 0.18998174 0.081299044 -0.3539769 -0.30945367 -0.008368673
-0.08351309 -0.008180241 -0.07463161 0.1267385 0.340966 -0.0861457 0.050192174 0.045301374
0.017242845 -0.036436923 -0.00442779 0.02519861 -0.010046876 0.11516444 0.014121607 -0.029577889
-0.04846594 0.036690768 0.041266024 0.0603742 -0.05645644 0.058004793 0.13395257 -0.2537256
0.012971218 0.18603857 -0.0075365207 -0.024165133 0.17223346 0.01929341 0.12040398 0.2284776
0.18347155 -0.072880276 0.0685611 -0.014713633 -0.0051492318 -0.02723273 0.13670231 -0.09280495
-0.029794201 0.06445312 0.017027218 -0.016212787 -0.01964469 -0.19866365 0.2201013 0.007967943
0.05940354 0.20189959 0.03197974 0.07071553 0.18695335 -0.106160104 0.00584961 0.08170868
0.097415246 0.020125479 -0.0033511017 -0.20858902 -0.003934536 0.055682056 0.093605064 -0.25538123
0.21459827 -0.2422671 0.1312302 0.19323319 -0.059645347 -0.0048268083 0.2447068 0.01564057
-0.08413522 0.080034226 -0.008497293 -0.23800026 -0.0018695912 -0.11459858 0.100326665 0.024492128
0.060491987 0.13874668 0.2625044 0.0047733714 0.17077485 -0.03843162 -0.23104228 0.048295494
-0.29895377 0.16851959 0.08747966 -0.25864166 -0.025611462 0.050883252 -0.002885649 0.002465655
0.032783303 0.15995112 0.0016067018 0.20675053 0.06072488 0.0256491 -0.004836383 -0.097067274
0.020353928 -0.018160587 0.089355 0.20857592 0.004605146 0.14295104 0.0034081303 -0.09905191
0.050225895 -0.001795803 -0.22814651 -0.110220924 0.04270013 -0.10101297 0.0044318275 -0.015222654
0.020798557 -0.024827333 -0.24984778 0.0030214435 0.033215635 0.21479122 -0.0011504688 -0.051741615
0.02426868 0.17195079 0.089506134 0.024238523 0.16445509 -0.08980344 -0.010006764 0.04768734
-0.10289073 -0.06254069 -0.035424523 0.1509176 -0.013784802 0.09295739 -0.012617057 -0.03339504
-0.0032358335 0.25271708 0.15059501 0.046020016 0.013986307 -0.12918557 -0.04868196 0.086123295
0.09632028 -0.034343828 0.086366706 -0.033727884 -0.24291009 0.1448685 0.026515571 0.1253592
0.008400183 0.18039852 -0.09497037 -0.063414976 -0.18069726 -0.038614307 0.24375056 -0.14736147
-0.17548622 -0.043267194 0.32141653 -0.10457917 -0.019891078 0.038957804 -0.004911096 0.23817782
-0.015110057 -0.035406586 0.011606327 0.0043491055 -0.07032698 0.12066105 -0.06732793 0.22165304
-0.06904877 -0.08683844 -0.0011478462 -0.086825006 0.088528 0.038476516 -0.10746896 -0.259273
0.013572396 0.042751975 0.003044979 -0.1597396 0.0581883 -0.18067509 0.08455295 -0.2242442
-0.13322787 0.14865942 -0.30240825 -0.16917816 0.0040024123 0.07033577 -0.2251894 0.1446648
-0.01748723 -0.17145662 0.0146483015 -0.17303309 0.034682684 0.16069023 -0.114727415 0.04877694
-0.013658725 -0.15720539 -0.030340604 -0.29548892 -0.070074424 0.17680208 0.006302284 0.06456229
-0.08173603 0.28956392 0.03494409 0.056611046 0.0012990579 -0.32555553 0.02671906 -0.19008268
0.14509131 0.0966219 -0.041485485 -0.07612479 0.0618408 0.0043178755 -0.25263572 0.024666712
00000000: 8c13 0a3d 8d6d 203b ef45 173e 5399 23bc
00000010: 2690 653e f14c 64be 2680 35bc 2c35 d6bd
00000020: 0dc4 32bc 846a 08be 2377 98bd 938a 423e
00000030: 1d80 a63d 763c b5be b670 9ebe c21c 09bc
00000040: e908 abbd 6b06 06bc 75d8 98bd bdc7 013e
00000050: 1893 ae3e 286d b0bd 4f96 4d3d ef8d 393d
00000060: de40 8d3c e23e 15bd ff16 91bb 516d ce3c
00000070: a79b 24bc 55db eb3d 505e 673c 544d f2bc
00000080: 3984 46bd 0f49 163d 9006 293d f04a 773d
00000090: de3e 67bd 6f96 6d3d dd2a 093e 52e8 81be
000000a0: 3b85 543c e580 3e3e ebf4 f6bb f5f5 c5bc
000000b0: f85d 303e 370d 9e3c 5d96 f63d 08f6 693e
000000c0: f7df 3b3e 4142 95bd c369 8c3d 7311 71bc
000000d0: e3ba a8bb 2d17 dfbc b1fb 0b3e 8610 bebd
000000e0: f812 f4bc ffff 833d aa7c 8b3c aed0 84bc
000000f0: e7ed a0bc 7c6e 4bbe 3c62 613e fa8b 023c
00000100: 2051 733d c4be 4e3e 30fd 023d 4ed3 903d
00000110: b370 3f3e 786a d9bd 16ae bf3b e156 a73d
00000120: a581 c73d 30de a43c 289e 5bbb 5c98 55be
00000130: 48ed 80bb de12 643d 03b4 bf3d 54c1 82be
00000140: a6bf 5b3e de14 78be 3661 063e ecde 453e
00000150: ae4e 74bd 342a 9ebb 6b94 7a3e a720 803c
00000160: 164f acbd fce8 a33d 3b38 0bbc 57b6 73be
00000170: 120d f5ba a9b2 eabd 1178 cd3d b7a3 c83c
00000180: 72c6 773d 9c13 0e3e fa66 863e f169 9c3b
00000190: 9adf 2e3e 796a 1dbd 5996 6cbe 7fd1 453d
000001a0: 7810 99be 6690 2c3e 8928 b33d ae6c 84be
000001b0: 21cf d1bc f56a 503d 281d 3dbb d496 213b
000001c0: c947 063d 3aca 233e f797 d23a 69b6 533e
000001d0: a7ba 783d 101e d23c 857a 9ebb 35cb c6bd
000001e0: 48bd a63c 83c5 94bc c1ff b63d ed94 553e
000001f0: c4e6 963b c261 123e f05a 5f3b badb cabd
00000200: abb9 4d3d 2661 ebba 3d9f 69be 82bb e1bd
00000210: 55e6 2e3d e3df cebd dd38 913b 7068 79bc
00000220: bc61 aa3c b162 cbbc 19d8 7fbe 6903 463b
00000230: 1e0d 083d 3bf2 5b3e 54cb 96ba 04ef 53bd
00000240: 1ccf c63c de13 303e fe4e b73d de8f c63c
00000250: ea66 283e deea b7bd 69f3 23bc cd53 433d
00000260: 60b8 d2bd 5515 80bd 4e19 11bd 258a 1a3e
00000270: a6d9 61bc 7260 be3d c6b7 4ebc 3dc9 08bd
00000280: 4710 54bb 2264 813e 9435 1a3e 7c7f 3c3d
00000290: d326 653c 3949 04be bc66 47bd 6961 b03d
000002a0: 9143 c53d 1dac 0cbd 07e1 b03d 4026 0abd
000002b0: 6cbd 78be 6858 143e 2f37 d93c 2a5e 003e
000002c0: eca0 093c 64ba 383e d37f c2bd b6df 81bd
000002d0: b408 39be 092a 1ebd bf99 793e ede5 16be
000002e0: a9b2 33be f138 31bd b590 a43e 9b2d d6bd
000002f0: 9df2 a2bc 3892 1f3d 42ed a0bb e3e4 733e
00000300: 2c90 77bc 7f06 11bd 7728 3e3c f182 8e3b
00000310: 9707 90bd 241d f73d 3ae3 89bd 04f9 623e
00000320: 7169 8dbd 5ad8 b1bd 5473 96ba 4fd1 b1bd
00000330: 2b4e b53d 8d99 1d3d b018 dcbd 6ebf 84be
00000340: c15e 5e3c b21c 2f3d 458e 473b c792 23be
00000350: db56 6e3d e402 39be 192a ad3d 46a0 65be
00000360: e36c 08be 2d3a 183e 41d5 9abe 0a3d 2dbe
00000370: ab26 833b 330c 903d 0d98 66be 0223 143e
00000380: 6141 8fbc 5392 2fbe 6eff 6f3c 962f 31be
00000390: 6e0f 0e3d fb8b 243e 35f6 eabd 54ca 473d
000003a0: d8c8 5fbc 73fa 20be dc8c f8bc 534a 97be
000003b0: 2e83 8fbd 9b0b 353e 6483 ce3b 3c39 843d
000003c0: 3865 a7bd b941 943e 8921 0f3d fce0 673d
000003d0: 2645 aa3a 37af a6be eee1 da3c 09a5 42be
000003e0: d192 143e b4e1 c53d afec 29bd 50e7 9bbd
000003f0: c74c 7d3d f77c 8d3b 7859 81be d811 ca3c

classifier.bias f4 [5]
-1.3600281 -0.014668721 0.82258934 0.4341635 0.11794233
00000000: 6715 aebf 1355 70bc 3795 523f ae4a de3e
00000010: c08b f13d

features.7 f4 [120]
-0.07524509 0.008402055 0.044700116 -0.10748369 -0.0061722193 -0.013033641 0.012913865 -0.0444966
-0.01774084 -0.027867973 -0.037138287 -0.0020410235 0.0039269156 -0.015242708 0.092173114 0.005439953
0.0009789624 -0.009923509 0.009856118 0.13349873 -0.0607052 0.032803934 0.024197387 0.0014682243
0.06710363 0.02233584 -0.010215769 0.04440589 0.0039031683 0.018292619 -0.07519543 0.032448735
-0.056489374 0.092483155 0.026962284 -0.005315422 -0.022236386 0.0019785748 0.025682412 -0.051319398
0.004687586 -0.052631255 0.030131835 0.015740944 -0.015688544 -0.00394535 0.00032476624 0.0032790387
-0.030153735 0.050244533 0.014391064 0.031929545 0.017072743 -0.0216347 -0.12694237 -0.055884324
-0.019045819 0.0013711463 -0.00022450076 0.053577937 -8.305322e-05 0.022392198 0.012523361 -0.049824722
0.020641217 -0.08398904 0.08823826 0.015727412 0.023613604 0.06352923 0.008668645 0.069774054
-0.005863162 0.024516579 0.0360158 0.0020520648 -0.012967096 0.015497968 0.08092571 -0.03885635
-0.07678661 0.0027890087 -0.05399786 -0.022289831 -0.0035476352 -0.046575416 -0.08971986 0.0019474034
-0.018158192 -0.016779691 0.078044824 0.03823048 -0.0071712323 0.00041462173 0.0062010624 -0.0037997398
0.2344623 -0.02808019 0.022171669 0.030564804 -0.053697154 0.033093918 -0.00013798202 -0.027118983
-0.0035521043 0.105806194 -0.069930814 0.007946405 0.007347197 -0.033132147 0.041295324 -0.090204805
-0.00863884 -0.0019097304 0.081671745 -0.08727964 -0.029279085 0.033004317 -0.003411779 -0.018202461
00000000: 191a 9abd c6a8 093c 7817 373d 6920 dcbd
00000010: 5440 cabb 0d8b 55bc ad94 533c 1142 36bd
00000020: 3d55 91bc 604b e4bc 511e 18bd b1c2 05bb
00000030: 5bad 803b 8dbc 79bc 42c5 bc3d a241 b23b
00000040: 8750 803a 3796 22bc 8e7b 213c e4b3 083e
00000050: 04a6 78bd 6b5d 063d 9939 c63c 6f71 c03a
00000060: a16d 893d a7f9 b63c 0a60 27bc f3e2 353d
00000070: 4ccc 7f3b 67da 953c 1000 9abd f7e8 043d
00000080: 6761 67bd cf67 bd3d 02e0 dc3c fe2c aebb
00000090: 1529 b6bc faaa 013b ec63 d23c 4a34 52bd
000000a0: 529a 993b df93 57bd 0ad7 f63c 27f3 803c
000000b0: 4385 80bc ff47 81bb 6345 aa39 24e5 563b
000000c0: f704 f7bc 36cd 4d3d 7fc8 6b3c 8ec8 023d
000000d0: 23dc 8b3c 413b b1bc 2efd 01be f6e6 64bd
000000e0: fa05 9cbc 09b8 b33a f767 6bb9 8a74 5b3d
000000f0: dc2c aeb8 d86f b73c c82e 4d3c 0215 4cbd
00000100: c517 a93c 7202 acbd 43b6 b43d c6d6 803c
00000110: 5171 c13c 9d1b 823d ef06 0e3c b3e5 8e3d
00000120: c51f c0bb fed6 c83c 4e85 133d ef7b 063b
00000130: f173 54bc 30eb 7d3c 61bc a53d d627 1fbd
00000140: 4c42 9dbd cdc7 363b dc2c 5dbd 2a99 b6bc
00000150: 717f 68bb ddc5 3ebd 0cbf b7bd 0440 ff3a
00000160: 7dc0 94bc 9075 89bc f7d5 9f3d 9097 1c3d
00000170: a8fc eabb 9661 d939 4832 cb3b 0e05 79bb
00000180: e316 703e 6d08 e6bc 5ca1 b53c 0a63 fa3c
00000190: 8cf1 5bbd 7d8d 073d 44af 10b9 a128 debc
000001a0: 6cca 68bb ebb0 d83d e337 8fbd a331 023c
000001b0: c1c0 f03b 93b5 07bd 4925 293d 4cbd b8bd
000001c0: ec89 0dbc eb4f faba 8443 a73d abbf b2bd
000001d0: b1da efbc 892f 073d 2798 5fbb 541d 95bc

features.9 f4 [84]
0.073502064 0.00083431293 0.16206677 0.007779731 0.032870676 0.37628746 0.005891446 0.18006156
-0.001822241 0.19298448 -0.015253572 -0.055540785 -0.029798267 0.21053927 0.68257815 0.085386775
-0.0031691226 -0.012385485 0.48790208 -0.048093304 -0.0664994 0.10666858 0.028860223 0.19227917
0.0016204324 0.0776578 -0.0017038173 -0.0012313474 0.0020639435 0.29613736 -0.012452721 0.44861028
0.039262887 0.04353229 0.0047344198 0.10294501 0.11205603 0.047451213 -0.030049328 0.09169023
0.019072572 0.22119153 -0.007584286 -0.11250408 0.18830173 0.030610038 -0.013980259 0.13843727
0.02527596 0.20704016 -0.039237272 -0.075760335 -0.0029121223 0.16056326 0.30983642 0.21024461
0.009852182 0.09562001 -0.006688723 -0.024504678 0.018806513 0.36579335 -0.045207016 0.07524842
0.050140653 0.123672515 -0.0040678564 0.12129864 -0.021701146 0.26236814 -0.00026116025 0.1836177
-0.011419552 0.4673439 -0.014487601 0.10122034 -0.005421638 -0.07218044 0.17415762 0.23415433
0.037725482 0.106156915 -0.026969485 0.068432465
00000000: 4088 963d cbb5 5a3a d5f4 253e 1ded fe3b
00000010: 67a3 063d c0a8 c03e 080d c13b 0f62 383e
00000020: 43d8 eeba b99d 453e 1eea 79bc bc7e 63bd
00000030: 7f1b f4bc 9b97 573e 71bd 2e3f 43df ae3d
00000040: 0eb1 4fbb 7dec 4abc 4dce f93e 7cfd 44bd
00000050: d630 88bd 0e75 da3d 466c ec3c d5e4 443e
00000060: b064 d43a 0d0b 9f3d 9f52 dfba 2a65 a1ba
00000070: 3a43 073b 519f 973e 7f06 4cbc 3fb0 e53e
00000080: 1fd2 203d ea4e 323d 3123 9b3b d5d4 d23d
00000090: a27d e53d 345c 423d 022a f6bc 16c8 bb3d
000000a0: 153e 9c3c 0880 623e 9a85 f8bb 8a68 e6bd
000000b0: 2bd2 403e e7c1 fa3c 750d 65bc 80c2 0d3e
000000c0: 880f cf3c 5602 543e 43b7 20bd 3c28 9bbd
000000d0: 4ed9 3ebb b26a 243e e1a2 9e3e 5d4a 573e
000000e0: 0c6b 213c 6cd4 c33d 132d dbbb 09be c8bc
000000f0: 1e10 9a3c 4449 bb3e fe2a 39bd d81b 9a3d
00000100: 4960 4d3d 0448 fd3d a74b 85bb 6c6b f83d
00000110: 9ac6 b1bc 1e55 863e 56ec 88b9 4706 3c3e
00000120: 1319 3bbc b347 ef3e 675d 6dbc 9c4c cf3d
00000130: ffa7 b1bb 57d3 93bd 6056 323e 27c6 6f3e
00000140: 0986 1a3d cc68 d93d 1cef dcbc 5226 8c3d
