checkpoints_lenet5/baseline_scratch/lenet5/large_natural_outdoor_scenes/checkpoint-100.pth.tar (torch, 312221 bytes, 12 tensors)

features.0.weight f4 [6, 3, 5, 5]
00000000: 8289 62bd 2edd a9bd aa70 64bf 84ca a1be
00000010: 744b 813f 0a2b 1a3d 051b f6bd fbc3 7abf
00000020: 7ee2 62be 9229 ab3f 4638 a73e de6c 28bb
00000030: 0da1 e9be 1fce 0dbf cb7f 2c3f 8a50 823e
00000040: a03a 073f d7f0 02bf 66bc b3be 1b4c 203d
00000050: fcc6 993d c3f1 d93e 7b8a 14be ba89 08bf
00000060: af00 77be 05b0 c63e 3e70 503e 1eb7 63bf
00000070: fab5 afbe 1d69 973f 356d f03c 50e3 babd
00000080: bad2 54bf 6078 d2be 4662 a03f 106f ab3e
00000090: fd61 863e d718 68bf a559 0ebf 13ed 3e3f
000000a0: f1c7 c03e 4aa0 0a3f dcd5 9bbe 5c64 12bf
000000b0: e113 223e 19c4 4fbd 657f 1b3f 1f44 0d3d
000000c0: 1bcd 91be 5805 1c3c 8ada 0c3e 0b22 44be
000000d0: 51f7 3dbf dc8d 45be 69b7 653f 4a22 cf3d
000000e0: fef8 71be 4718 5cbf 070e 87be 776f 893f
000000f0: a6aa 6a3e f86a 2b3e a686 fcbe 42d6 57be
00000100: 4e01 8c3e 5970 1abd dcc4 ca3e 598e 4ebc
00000110: 887e 06bf 3ec6 c8bd ea25 fc3d 89f2 0b3f
00000120: 85c7 3f3e 25e6 0fbe 92bb c4be 2d08 e93d
00000130: d6d3 813d 2e81 bebd aa18 d8bc 68f1 813d
00000140: 27f1 e1bc a6b1 3ebd bf35 84be b6aa f9be
00000150: 7e93 b1be 4e37 38be 7b48 d8be 648c b9be
00000160: 9f23 a9be 20b0 f1be 2a57 0bbe 30e3 b6bd
00000170: 57c1 dfbe 03dc 3dbe 5166 87be 8ffa 003e
00000180: 8150 233e 7f2c 93bd 7b0e d8bc e890 6dbe
00000190: d2e0 323d 690c 6e3d d220 0e3e 77a7 c7bc
000001a0: 8280 103c 2ff2 953e 3a73 9fbe cc3c a93c
000001b0: c2be b7ba fd90 30be a6d1 263d c2d8 6dba
000001c0: f6af 95be f460 04be 8e68 2f3e af5e 8f3e
000001d0: 8269 913d 90f2 e33d 478f 093e e909 9a3e
000001e0: a84f 943c b22b 253e 40fc 783e 02d7 7b3e
000001f0: c863 463e 0e15 1a3e 0d61 443b 07da 4f3e
00000200: 1ebb f13c 7f27 cf3d f149 a03d 0d5d 803e
00000210: 84ad 573e 1cce d0bb 0864 00be 65a4 0b3e
00000220: 117e 1a3e c2f3 f23d ae73 853d ac13 0c3e
00000230: 908c 153e fb0f 633e 3479 893d b40d 183e
00000240: 9455 51bb 6de2 723e 2319 b43b 33da b53d
00000250: d531 d73e 0332 19bd bfb1 783e 3ba0 cc3c
00000260: cc8e 90bd 08b7 b13c ecc5 a7bd ca3a 483d
00000270: f8d4 ebbc 381d b73d 0fd6 97bd c0d4 81bd
00000280: f71e 5f3d f741 9c3d 98e2 353d 7e5b 17bd
00000290: 60e7 f93d 0aa3 e93d fd4f 2cbe 5dc5 22bc
000002a0: d87a 3c3e 23da a03d 5198 8dbd dec0 c1bd
000002b0: 79b7 3b3d 3eff 2cbe 3e15 3f3e 7426 93bd
000002c0: 9d02 1d3d 1e1f 85be 6b5e 2bbe 86b3 e7be
000002d0: f56a d0bd 3375 54be ce88 18be bc96 a2bd
000002e0: 69fa 29be add8 01be 3c61 b2bd 05c6 68be
000002f0: 6daa 31be eee1 86bc 7530 1abe 420f 56be
00000300: dd6c 4cbe 7526 27be a0ae 0ebe 58d3 b3be
00000310: 6fa9 fabd 485f 54be b9ca a5be 4104 b7bd
00000320: 8783 163e f0cd f53d efe1 c23e ee1c 233e
00000330: 4971 003e b889 643e ddc6 833e 74f7 be3e
00000340: d2d0 953d 3feb c93d c95f 9e3d f477 73bd
00000350: 42eb 243d 97a2 003e 7d39 f73d d611 1e3e
00000360: d228 cb3d ab04 9d3d b442 943e b91e 8c3e
00000370: bea1 cf3c 6083 753e e902 213d 5291 643e
00000380: 9a78 643e 8034 93be c9c6 78be df7e bfbe
00000390: 7584 8d3d 6259 3b3f f3e6 5abe 43c0 87be
000003a0: c7ed 42bc 1b2b 013e 2824 c13e cfd9 aabd
000003b0: 5802 51be 86a5 92be 50f8 39bd 3d74 3d3e
000003c0: 332c 24be f868 b6be 1fb0 a6be 03bd 31bd
000003d0: 5333 643e 2c96 7abe 49fe babe 827e 3cbe
000003e0: c2d0 d73c aaca e73d f7bd 83be c44e 9cbe
000003f0: 69cd 01bf fbd2 723d 10f4 d53e 8844 673c
-0.05530692 -0.0829414 -0.8923441 -0.3159982 1.0101151 0.0376387 -0.12016872 -0.9795529
-0.22156712 1.3372061 0.3266012 -0.0025699656 -0.45630684 -0.5539264 0.67382497 0.2545207
0.5282383 -0.5114874 -0.35104674 0.03913508 0.075086564 0.42567262 -0.14505951 -0.53335154
-0.24121355 0.38806167 0.20355317 -0.8895129 -0.34318525 1.1828953 0.029348949 -0.09125388
-0.83134043 -0.41107464 1.2529991 0.3348317 0.26246634 -0.906629 -0.55605537 0.74580497
0.37652543 0.5415083 -0.304366 -0.57184386 0.15827896 -0.050724123 0.60741264 0.034488793
-0.28476796 0.009522758 0.13755241 -0.19153611 -0.742055 -0.19292396 0.89732987 0.10113962
-0.23630139 -0.85974544 -0.2637789 1.0737141 0.2291666 0.16740024 -0.4932148 -0.21077827
0.27344745 -0.0377048 0.39603317 -0.0126071805 -0.5253682 -0.09803437 0.12311919 0.54666954
0.18728454 -0.14052637 -0.38424355 0.113785125 0.063392326 -0.09301983 -0.026378948 0.06344873
-0.02758081 -0.046556138 -0.25822255 -0.48763055 -0.3468284 -0.17989847 -0.42242798 -0.36239922
-0.3303499 -0.47204685 -0.13607469 -0.08930051 -0.43702194 -0.18540959 -0.2644525 0.1259558
0.15948679 -0.07186221 -0.026374092 -0.23199809 0.043671437 0.058117304 0.13879707 -0.024371846
0.008819701 0.29286334 -0.31142598 0.020658873 -0.0014018642 -0.17242809 0.04072728 -0.0009073132
-0.2923581 -0.1292761 0.17129728 0.28001925 0.07100202 0.111302495 0.13433562 0.30085686
0.01810439 0.1612995 0.24314976 0.24593738 0.19374001 0.15047094 0.0029965073 0.20298015
0.02950817 0.10114955 0.07826603 0.25070992 0.21062285 -0.0063722264 -0.12538159 0.1363693
0.15087153 0.11862899 0.06516205 0.13679379 0.14604402 0.22174065 0.06712571 0.14848977
-0.0031941878 0.23719187 0.0054961606 0.08879509 0.42030206 -0.03740121 0.24286555 0.024978748
-0.07058486 0.021693721 -0.081920475 0.04888419 -0.028788075 0.0894112 -0.07413875 -0.06339407
0.05447289 0.07629769 0.04440555 -0.036952488 0.122023344 0.1140805 -0.16827388 -0.00993475
0.18406236 0.07854106 -0.06913818 -0.094606146 0.04582927 -0.16894242 0.18660447 -0.07185069
0.03833257 -0.26000303 -0.16735236 -0.45254153 -0.101766504 -0.20747833 -0.14895937 -0.079389066
-0.1659943 -0.12680312 -0.08709952 -0.22731788 -0.17350169 -0.016465154 -0.15057547 -0.20904258
-0.19963403 -0.16323264 -0.13933802 -0.3512218 -0.12239348 -0.20739472 -0.32381228 -0.08936358
0.14698611 0.1200217 0.38063 0.15929005 0.12543215 0.2231816 0.25737658 0.37298167
0.0731522 0.09859323 0.07733113 -0.059440568 0.04026342 0.12562023 0.12071512 0.15436491
0.09919895 0.07666906 0.2895714 0.2736719 0.02534568 0.23975897 0.039309416 0.2232106
0.22311631 -0.28750992 -0.2429458 -0.37401482 0.0691003 0.7318326 -0.21377163 -0.26513872
-0.011897511 0.126141 0.37722898 -0.08342325 -0.2041105 -0.2864191 -0.045402825 0.18501373
-0.16032486 -0.3562696 -0.32556245 -0.043393146 0.22285204 -0.24471349 -0.3652213 -0.18407634
0.02634466 0.11317952 -0.2573087 -0.30528843 -0.50704056 0.059283238 0.41787767 0.01411546

features.3.weight f4 [16, 6, 5, 5]
00000000: 1fbb e63c 77b8 5b3e a76f 793e 89b1 aabc
00000010: 72a9 133e 0a35 0d3e 864b 233e dca6 2e3e
00000020: 01c2 b2bd e2e5 333e a98a 413d 3455 203e
00000030: 8163 f83d cb4b d2bd 2329 273e 0af3 0b3e
00000040: 4cb8 453e 71d1 953e e678 e03d 04ce 143d
00000050: 2ce7 c33d 39d6 913e c2d9 483e f2fb 84bd
00000060: 59c3 143e 08fb 5bbe 1cb8 80be 236c cdbd
00000070: d021 01be 5ee9 2bbd b317 e83c c289 0abd
00000080: 233a 29bd 58d8 a7bd 8985 08be fdfc a9bd
00000090: 8f59 3ebd 8ff4 8a3d 9f97 8bbd 8ad6 72bd
000000a0: 2552 cdbd 301e b5bd 86d0 5dbe 8c74 4bbd
000000b0: d115 1cbe 0bfd 9c3c 9076 8abc e553 0e3c
000000c0: 11cf a73d 2f88 9bbd 3cb5 f2bd e8eb 97bd
000000d0: 77e9 dfbd 8b1a d8bd a907 01be 45d3 0ebe
000000e0: c619 a5ba 2820 39bc f323 ddbc 7539 f4bd
000000f0: 3813 0dbe 6578 f2bd 814e 10bd 6bac dcbd
00000100: 79ce 96bd 49f7 8fbd ace1 923c f995 98bd
00000110: e09e aabb 4ec0 06bd 34a8 07bd 2d4a 81bd
00000120: f469 4c3d 532c f8bd 07a8 53be d776 643d
00000130: 27a1 17bc 1a0f 903d 0c95 1ebe e7eb 403d
00000140: b109 5cbd a423 0dbe 71c5 a63d cc4f 04be
00000150: 8764 183e 98f5 f0bb 106a 44be 3e56 fbbc
00000160: 712b cabd 4c9d 06bd 0c6f d9bc f268 f7bd
00000170: 1160 063e 5746 1dbe ae99 833d f4a5 65bd
00000180: bbe2 7abe ae36 9abd 9f49 1fbe b52e f63c
00000190: d90b 8a3e 0108 733e 3950 933e 0938 1d3e
000001a0: ca57 6c3e 6150 cb3d c49f 303d e0c7 7abc
000001b0: 582b 283d 678e 34bd 0698 a2bc 0c28 09bd
000001c0: 4faa 0fbc d50d d23d f9ff 233d 719d 36bd
000001d0: d32e c23d f8db 0fbe 60fc 0b3d 0578 29bc
000001e0: 87b7 433e f126 5e3d f4f2 553d 1c81 f0bc
000001f0: 2f13 f13c 5ba5 e3bb 2cde 97bd f67d b33c
00000200: 1f8f e23c 1363 04bd 3f6e 00be f5ed 64be
00000210: e771 41be 2e1a e6bd bf68 09be 3bf9 9cbd
00000220: 512b 0abe 4024 1abe 8848 fd3b e127 02bd
00000230: 5afc 17be d3d9 68be 2de4 86be 6f6f 19be
00000240: b30d b8bc d885 c7bd 8440 11bd ba62 9dbd
00000250: 3f70 8abd de81 083d f417 20bd 3bfb 043e
00000260: 70b9 b23d b702 243e 48a1 303d 2e58 35bc
00000270: 5d99 ca3d a5bf 693d a278 883b 12fd 33be
00000280: 2320 3cbe 9323 c83d b1ba 0cbc aef4 ae3d
00000290: ad58 46bd 51c4 f93a f987 083e 4a4b aa3d
000002a0: e6bd 493d 1609 03be 361f c0bc c1c1 3f3e
000002b0: 863a 9b3d a8f8 2e3d e081 a9bd 629f ba3d
000002c0: 5537 023e 25d3 41be 37de a2bd 6574 5abe
000002d0: 1e4e 2e3e b3e9 0f3d 0566 f53d 1d33 bbbc
000002e0: 223f d6bd e114 853e df19 b03e 3498 663e
000002f0: 819f 0c3e df7f cd3d 6b32 aa3e 3275 623e
00000300: 959f 413e bdb6 2c3d 6f76 8b3d 99c5 4f3d
00000310: 7246 3d3e f901 f43d 62bb 5dbc 3bc6 ae3d
00000320: 8d81 febc 4f25 41be d66b d4bd 88dd e1bd
00000330: e894 91bd 671a 02be bb3b 29be 3ab4 92bd
00000340: b453 4abe 128f 9dbe 6e4e 0ebd 1e67 5dbe
00000350: e35d 8fbe 9117 58be 7936 44be 4e04 28be
00000360: 0f55 2ebe 7f4e 28be 6e79 57be cac9 5cbe
00000370: 959c f2bd 17e9 afbd a770 49be e259 4abd
00000380: 09c9 5dbe a3c0 06bd 1cd3 7c3e 969c 8a3c
00000390: 40ae 49bc 69bf 32be 0dc1 fabd 257a 133d
000003a0: 8ebf bcbc e0f8 b7bc 893b 80be 1632 f03d
000003b0: dcf7 f83d dba0 26be 568f f5bc 794a 26be
000003c0: 57ba a33d c60f 233e 9309 fe3c c6d6 b3bd
000003d0: 780f 34be d611 8a3e 95a6 5c3e 8938 ffbd
000003e0: de38 92bd 43a9 aebd 1f9a fe3d 1005 3cbd
000003f0: c46c 463d 7397 2c3b 43a2 f83d f728 dbbb
0.028165398 0.21457087 0.24358998 -0.020836608 0.14420107 0.13789764 0.15946779 0.1705584
-0.087284096 0.17568162 0.047251377 0.15657502 0.12128354 -0.102683626 0.16324286 0.13666931
0.19308585 0.29261354 0.109605595 0.036329284 0.09565577 0.2848375 0.19614318 -0.06493367
0.14527644 -0.2148248 -0.25140464 -0.10030391 -0.12610555 -0.041970603 0.028331613 -0.033822782
-0.04131521 -0.08195561 -0.1333219 -0.08300207 -0.04647213 0.06784927 -0.06816029 -0.05928663
-0.100254335 -0.088436484 -0.21661577 -0.049671695 -0.15242697 0.019163629 -0.016902238 0.008686994
0.08193792 -0.07594334 -0.11850974 -0.074180424 -0.10933202 -0.10551938 -0.12600578 -0.1394778
-0.0012596182 -0.011299171 -0.026994681 -0.119250216 -0.13776863 -0.1183937 -0.035231117 -0.107750736
-0.073636 -0.07029588 0.017929874 -0.0745048 -0.0052069277 -0.03289824 -0.033119395 -0.06312976
0.049905732 -0.12117829 -0.20669566 0.055777397 -0.00925473 0.070341304 -0.15486544 0.047099974
-0.05372018 -0.13783127 0.08143128 -0.12921065 0.14882098 -0.007353496 -0.19181085 -0.030680772
-0.09871567 -0.032864854 -0.02654221 -0.120805636 0.13122584 -0.15358864 0.064257964 -0.05606647
-0.24500553 -0.075299606 -0.15555428 0.030051569 0.26962164 0.23733522 0.28772143 0.15353407
0.23080364 0.099274404 0.043121114 -0.015306443 0.04105696 -0.044081118 -0.019847881 -0.033485457
-0.008768632 0.102565445 0.040039036 -0.04458374 0.09481587 -0.14048755 0.03417623 -0.010343556
0.19112979 0.054236356 0.05223365 -0.02935844 0.029428093 -0.006947202 -0.07415423 0.021910649
0.027656136 -0.032321047 -0.12542056 -0.22356398 -0.18891107 -0.11235462 -0.13418864 -0.076647244
-0.13493086 -0.15052891 0.0077295937 -0.031776313 -0.14842358 -0.22739343 -0.2634596 -0.14983915
-0.02246747 -0.097423255 -0.035461918 -0.07684846 -0.067596905 0.033326976 -0.039085343 0.12986462
0.08726776 0.1601666 0.04312256 -0.011068387 0.09892533 0.057067532 0.004164771 -0.17577007
-0.18371634 0.0977241 -0.008589433 0.08542763 -0.04842441 0.0019055699 0.1333312 0.083151415
0.049253367 -0.12796435 -0.023452383 0.18726255 0.07579522 0.042717606 -0.08276725 0.09112431
0.1271642 -0.18928201 -0.0795254 -0.21333463 0.17021987 0.035134982 0.11982349 -0.022851521
-0.104612604 0.25992492 0.34394738 0.22518998 0.13732721 0.10034155 0.3324159 0.22115019
0.18908532 0.04216646 0.06809699 0.050725553 0.18483904 0.11914439 -0.013533445 0.08533903
-0.031067634 -0.18861888 -0.103721306 -0.11028582 -0.0710848 -0.12705384 -0.16526692 -0.07163282
-0.19758493 -0.30773216 -0.034742765 -0.21621367 -0.28001317 -0.2110274 -0.19161405 -0.16407892
-0.17024635 -0.16436194 -0.21042415 -0.21561351 -0.11846272 -0.0858938 -0.1967188 -0.049402125
-0.2165872 -0.032898556 0.24689907 0.01692037 -0.012309611 -0.1745583 -0.12243853 0.036005158
-0.02304056 -0.02245754 -0.25045422 0.11728303 0.121566504 -0.16272299 -0.029975574 -0.16239347
0.07994526 0.15923986 0.031010425 -0.08781199 -0.17584026 0.26966733 0.21547921 -0.12461955
-0.07139753 -0.08528378 0.1243174 -0.045903265 0.04844357 0.0026335388 0.12140324 -0.006688233

features.7.weight f4 [120, 400]
00000000: c165 6cbc 30d4 f0bc a323 f1bc b3fa 06bd
00000010: 00dd dfbb 3d20 a83c 0440 db3c dc0a 093c
00000020: ff8f 193c ea2f 243d 3a7d 033d 679e 7839
00000030: 12d3 b1bc be3e a2bc 8510 1e3c dfcd 843c
00000040: 6d91 9bbb aeea f03b 77ce f53b 15a7 a1bb
00000050: 8fdb a2bc f869 13bd e4c6 10bd 11d0 f9bc
00000060: 5c34 0ebc 20d0 6739 8de1 e7bc b605 d1bc
00000070: 6522 d4bb d692 8ebb 4fd7 25bc c05d cbbc
00000080: a824 47bc 95c7 96bc 050f 70bc a7ab d23c
00000090: baa6 04bd 56ce 19bd b7dd f8bc eda5 a6bc
000000a0: d89f 133d 38ba d5bc cfbf d9bc bb32 87bc
000000b0: 3ec3 6dbc c679 703c f6cd 16bd 65de 4cbd
000000c0: 5530 44bd a2c0 a8bc 85f5 863c 6b80 143d
000000d0: 91bd 8b3a 1398 2c3b 677a 2c3d 8d81 13bd
000000e0: 0ffe cbbc 072e b4bc 07f7 9bbc 8cf1 9fbc
000000f0: 2da0 8f3c 230a 943c ac08 1a3d a680 5b3c
00000100: ea51 4b3c 51ae 0a3d db2b 2a3d adec 283d
00000110: d4f4 043d 5f15 5b3c 5fbf 813b d0d0 ca3b
00000120: 447f a33b 89af 34ba c81e 803c f30a 7f3b
00000130: 5e56 c23b 2f23 2b3c 3d3f 033d 586b ad3b
00000140: 5bde 9d3c 37e9 e23c f0c6 323c 17ac 0a3d
00000150: 4e84 5c3d 7ee2 8b3c 44fa 003d d1a4 413c
00000160: 8db2 d53b efdf 383c f476 8cba 7f32 f0ba
00000170: c50e 2a3c 3828 f0bb 9c6f a0bb 3e3f e33a
00000180: 54e8 2fbc c30b 443c 59cd ec3a 0d6e 8c3b
00000190: 63c6 e73c a3c4 153d 6d79 303c 83c0 a13c
000001a0: 54f5 423d 741f d6bc 8993 88bc d914 9dbc
000001b0: 1379 0b3b 9aa3 96b8 63a7 02bd 4cee 83bc
000001c0: 485a 99bc f67d 95bc 5836 55bc c99f 07bc
000001d0: 9e1f adbb bfc3 babb e11a 5bbc 7c70 50bc
000001e0: 861a 803c 16bc f9bb e88c 54bc c30c 86bc
000001f0: cf71 73bc 54e3 debc 47e1 553c 1975 7c3c
00000200: 8800 aebb 8b82 ea3a 0fd4 13bd 56d7 5bbc
00000210: 87a6 0c3c 340f 96bc 344a b1bc 51cd b0bc
00000220: 75a5 28bd ef6d 8dbc afce bbbc d618 b2bc
00000230: 8e7e aebc 0411 c7bc 557d debc 0d9c f7bc
00000240: 73d9 64bc 1d71 58ba 83df 2bbd 1dee 0aba
00000250: 2048 b3bb f10f 5abc e0f8 c63c afce 39ba
00000260: 723b 43ba c3ff 5e3c c6e9 b63c 8a41 6cbc
00000270: 5edf 973c 87ee b0ba 5ca4 613c 524a e3bb
00000280: 3e5b 82bc 8b86 15bc ef6b 3f3a 03c4 b9bc
00000290: 4dc7 bcbc 2354 a3bc 0c1d 95bc 2f10 ac3c
000002a0: 3767 c5bb d94a c7bc dbf4 e7bb 9ba9 a53b
000002b0: f37a adbb f5ab e5bb 0fcd 163b d603 4cbd
000002c0: 771e 17bd 52de 56bc 2afd 0bbd 1cb4 b8bc
000002d0: cb5e 05bd 84b2 dcbb 79fb 9f3b 6acb 0dbd
000002e0: fa30 93bc f70d a1bc 7d91 aa39 d1ad 9ebc
000002f0: 564a b1bc bc52 a9bb 1b8e 0dbd b45d f0ba
00000300: 3802 563b e9d8 b1bb 05c5 b1bb 2acc 9d3b
00000310: ea5b ec3c c943 583d eb61 3a3d 88db 993c
00000320: b3f1 52bc c0bb f3bb d336 8b3b b120 153b
00000330: 0e87 5b3c af8e 66bb 53c4 9cbb 1f82 9fbc
00000340: 6737 47bc 9816 983c a0c7 72bc ed34 2ebb
00000350: 4ffa d53c f14d 18bc 70e8 9a3c a6ee caba
00000360: 9b07 58bc ec1e 4e3b 44a9 cbbc 7f95 d5bc
00000370: 348d f13b bd57 74bc f760 233c a5c2 99bb
00000380: 4490 34bc 825d 243d 758e 483d edf6 9d3b
00000390: 716d 453c 7e73 ea3c dd20 653b a3b3 27bc
000003a0: 2379 a1bc ab33 b5bc 4236 063b b419 533a
000003b0: 08b9 8ebb c8fe c7bc 1251 1fbc 954e 83bb
000003c0: 0b19 abbb e09d 3cbc 24d3 1cbc b5bb dcbb
000003d0: e8bf 9abc d779 943a 1ee5 d3bb c915 b7bc
000003e0: 67e7 0abc 6995 18bc 2701 76bc 6494 57bb
000003f0: 78d1 d6bc 3310 bcbc a5b5 1dbd 3d60 bfbc
-0.014428557 -0.029398054 -0.029435938 -0.03295393 -0.006831765 0.020523185 0.026763923 0.0083644055
0.00937271 0.040084757 0.032101847 0.00023710133 -0.021707091 -0.019805308 0.009647493 0.016211448
-0.0047475607 0.0073521947 0.007501419 -0.004933248 -0.019880084 -0.03598973 -0.035345927 -0.030494722
-0.008679476 0.0002210741 -0.028305793 -0.025515418 -0.0064738267 -0.0043510003 -0.010122134 -0.024824977
-0.012154736 -0.018405715 -0.014652018 0.025716616 -0.032385565 -0.037550293 -0.03037916 -0.020342791
0.03604111 -0.026089773 -0.02658072 -0.016503682 -0.014511881 0.014677471 -0.036817513 -0.05001678
-0.047897656 -0.020599667 0.016474495 0.03625528 0.0010661354 0.002633576 0.04210892 -0.03601222
-0.024901418 -0.021994604 -0.01903869 -0.019524358 0.017532432 0.01807124 0.037605926 0.013397371
0.012409667 0.033857647 0.04154573 0.041241337 0.03246005 0.0133717945 0.003959581 0.006189443
0.0049895365 -0.0006892612 0.015639678 0.0038916438 0.005930706 0.0104454 0.03204273 0.0052923374
0.019271066 0.027699096 0.010911688 0.033855524 0.053837113 0.017075773 0.031488672 0.01181908
0.006521529 0.011283859 -0.0010716603 -0.0018325596 0.010379498 -0.007329013 -0.0048961174 0.0017337573
-0.010736544 0.011965695 0.001806657 0.00428558 0.02829284 0.03656448 0.010771138 0.019745117
0.047597244 -0.026138045 -0.016671913 -0.01917498 0.0021281883 -7.1830305e-05 -0.031897914 -0.01610484
-0.018719807 -0.01824854 -0.013013445 -0.008277842 -0.00528331 -0.0056996043 -0.013373108 -0.012722131
0.015637647 -0.0076212985 -0.012973048 -0.016363507 -0.014858677 -0.027208008 0.013054199 0.015408778
-0.005310122 0.0017891688 -0.036090907 -0.013418039 0.008584625 -0.018317796 -0.021641828 -0.021582277
-0.041173417 -0.017264334 -0.022925703 -0.021740358 -0.02130058 -0.024300106 -0.027159372 -0.030225778
-0.01396786 -0.0008256601 -0.041961204 -0.0005299764 -0.0054712445 -0.013309465 0.024288595 -0.0007087988
-0.0007447518 0.013610783 0.022328269 -0.014419923 0.018539127 -0.0013498821 0.0137720965 -0.00693635
-0.015912648 -0.009126316 0.0007302155 -0.022676473 -0.023044253 -0.01993758 -0.018202327 0.02100381
-0.006024267 -0.024327682 -0.0070787496 0.005055619 -0.0052941977 -0.0070090243 0.0023010408 -0.049808346
-0.036894288 -0.013114529 -0.034176983 -0.02254682 -0.032561105 -0.006735148 0.004882273 -0.03461782
-0.01796769 -0.01965998 0.00032533324 -0.019369991 -0.021641891 -0.0051673334 -0.03455935 -0.0018338473
0.003265513 -0.005427469 -0.005425098 0.004815598 0.028852422 0.05279902 0.045503538 0.018781438
-0.012875008 -0.007438153 0.004248479 0.0022755081 0.013398899 -0.003518026 -0.004784146 -0.019471226
-0.012159205 0.018565461 -0.014818102 -0.002658184 0.026120333 -0.009295926 0.018909663 -0.00154825
-0.013185407 0.0031451536 -0.024860986 -0.026072262 0.007371569 -0.014913497 0.009971849 -0.004692393
-0.011020724 0.04012824 0.048963983 0.0048206956 0.012050019 0.028619524 0.0034962215 -0.0102357
-0.019711083 -0.022119364 0.0020479118 0.00080528413 -0.0043555535 -0.024413481 -0.0097239185 -0.0040071704
-0.005221491 -0.01151225 -0.009571824 -0.0067362436 -0.018890336 0.0011327815 -0.006466522 -0.022349255
-0.008478022 -0.009312966 -0.015014923 -0.0032894844 -0.02622293 -0.022956943 -0.038503308 -0.02336132

features.7.bias f4 [120]
00000000: b071 7c3d 9abe 603c 5e42 e2bd 6b50 c53d
00000010: 8992 a23d 9225 683c 7947 d73c 61cb 093e
00000020: 397f 02be 576a eebd cb45 0e3e cbb4 853c
00000030: ced2 81ba 9744 ec3c a155 36bb b319 d03d
00000040: 6973 8bbd 40f4 393e f0f8 1e3e bb5d 10be
00000050: f23b 083d 4b64 debb 91ad 883d 552a 7abb
00000060: 8729 fb3d d120 9c3d ead9 583d 6e61 3f3d
00000070: 8657 23be 75fb 4f3d 8295 913e 6cc7 07bd
00000080: 214e 54bc 6ae0 a33d 3cab 533c 3987 64be
00000090: eeb2 8d3d c25b ec3b abc5 873c bb9f c13d
000000a0: 40d5 203d 35a6 fb3c f6d7 923d dea9 4dbd
000000b0: 1d05 4e3c a36d 1bbc cdde 68ba 14c9 443c
000000c0: 050f 27bd 2649 8b3d 17ec b03c 05be 923d
000000d0: 973a 993d d7fc e8bb d396 053e 5a1b 1d3e
000000e0: c253 2cbd 20cc 473c 4b29 6c3b 53d0 243b
000000f0: 7bc6 10bb 31fd 7fbe b43d 023d d4d8 8f3d
00000100: 24aa 2c3d aa65 063e 9b5a d63d 6823 83bb
00000110: 8451 5c3d d9ef 9e3c 3c30 933d b5f8 d7bb
00000120: 5db3 383d a80d 0f3d 81fa 0abd f2f7 d2bc
00000130: cb10 943d 27d5 603d 5fb0 2d3d ea5b fa3d
00000140: 6583 ee3d 6ba2 d93d b77c d93c cb86 6c3d
00000150: c660 a7bc 44ff 19bb 3341 5f3d d682 203d
00000160: 260a cdbc 40f7 2d3d 0697 483d 0913 36bc
00000170: 27a7 c73d 51b8 523d b1bb 423d 673c 103d
00000180: d697 663c 6955 053e 10c4 9e3c e74f fabb
00000190: e119 8d3d 806f c43c 1580 4e3c ea9c 0bbd
000001a0: de3f 333c 9fd1 3d3e 8ac6 203e fa31 253d
000001b0: 7124 b03d 27f7 c6bd 6a65 b939 9eba 0e3d
000001c0: f6b5 a2bb d3f8 523e 79a2 3b3d d851 303e
000001d0: 50ac 243e 9e60 cfbc 3f40 7fbd e8dd deba
0.06163186 0.013717318 -0.11047815 0.09634479 0.079381056 0.014169114 0.026279198 0.13456489
-0.12743844 -0.116413765 0.13893811 0.01632156 -0.0009904744 0.0288413 -0.0027822035 0.10161152
-0.06809122 0.1815958 0.1552465 -0.14098255 0.033260293 -0.006786858 0.0667373 -0.0038172205
0.1226378 0.07623447 0.052942194 0.046723776 -0.15951356 0.050776917 0.28434378 -0.033149168
-0.0129580805 0.08001788 0.012919243 -0.22317208 0.06918894 0.007213087 0.016573748 0.09454294
0.03926587 0.030718902 0.071700975 -0.050210826 0.012574461 -0.009486589 -0.00088832976 0.012010831
-0.040785808 0.06801061 0.021596951 0.071651496 0.07481878 -0.007110219 0.13045816 0.15342465
-0.042072065 0.012194663 0.0036035355 0.0025148585 -0.002209096 -0.24998929 0.031797126 0.070237786
0.042154446 0.1312472 0.104665 -0.0040020235 0.053788677 0.019401478 0.07186934 -0.0065909275
0.04509293 0.034925133 -0.033930305 -0.025752995 0.072297655 0.054890778 0.04240453 0.122245625
0.11646155 0.10626682 0.026548726 0.057745736 -0.020431887 -0.0023498097 0.05450554 0.039187275
-0.025029253 0.042472124 0.048972152 -0.011112937 0.09748679 0.05144531 0.047542278 0.035213854
0.014074286 0.13020863 0.0193806 -0.0076389196 0.06889702 0.023978949 0.012603779 -0.03408519
0.01094052 0.18536995 0.15700737 0.040330864 0.08600701 -0.09715109 0.0003536151 0.03484594
-0.004965539 0.20602731 0.045809243 0.17218721 0.16081357 -0.025314625 -0.06231713 -0.0017003389

features.9.weight f4 [84, 120]
00000000: 91e7 a7bc 35f4 003b c4e5 9c3c a48c a3bc
00000010: bb6a 8ebc 81a5 a23c ee3a 46bc a051 e4bc
00000020: aa57 1c3d 884c 20bb 8d87 6cbb a592 acba
00000030: 81d1 703c ed14 7c3b 1680 b93a 67d8 a93c
00000040: 1fde 50bb 0fe8 5c3b 6d88 f33a 6b33 f63b
00000050: 4ae0 43bc 05a7 433c 6ce7 343b 22cf 57bc
00000060: 1f23 683c 4620 43bc 5b73 553c 7bf3 25bc
00000070: 5ff2 2cbc e2d8 56bb 0aad 1dbb 7de9 593b
00000080: 9304 d0bb 21d0 153c 8efe 853c 8247 c8bb
00000090: 10ab 37bb 464f 4f3c 9d08 83bb 888b 1dbc
000000a0: 6057 89b9 e445 f1b8 3c39 e6b9 ca71 3e3b
000000b0: e220 7e3c 31c1 eb3b f9f1 c63a aedb ab39
000000c0: bd9c 5fbc f304 0cbb 8f65 61bc af7e 983b
000000d0: 9121 aa3b ae02 c6bb 2c1d 8f3b caf2 293b
000000e0: e7c3 9e3b 0224 a3bb 32b4 803c a45d 593c
000000f0: 9867 f53b 9361 d6ba 3461 e7bb 1bd9 3abc
00000100: 3002 323b 8290 06bb 2b6b 043b d92c 1dbc
00000110: cb06 1abb 00e9 963b 061f 7dbc 5d65 fcbb
00000120: e327 83bb 97dc 9bbc 0423 4cbc 1cf6 dfbb
00000130: 3c37 50bb 3da6 e1bc 62c9 1fbc 7026 c03b
00000140: 7b51 203b e98f 26bc ae80 c4bc 58da 323c
00000150: efc1 9e3c 661a 91bb 1591 6dbc baad 833c
00000160: b608 bb3b 591f 94bc dde3 e13b 3622 3abc
00000170: 4b4e cebb 7d76 463c b8db d1ba 0dc0 1d3c
00000180: 921a ae3c a94a f53a 5c96 693c c532 8fbc
00000190: eb18 f0bb e7b8 afbc 95bd e8bc a8f4 d7bb
000001a0: 7f08 1a3c 322a acbb b904 ddbb f3e4 9cbc
000001b0: 16d3 af3b 96e9 bbba caca 84bc 3192 813a
000001c0: 3b7f 66bc fbb3 433b 975d 243c 76d7 cfbb
000001d0: effc 9fbc 8e03 f43b be83 c53c 6cf9 1c3c
000001e0: efbc 36bc 43ec 1dbd cc57 23bd 6301 c8bc
000001f0: a201 c1bc 51f9 afbc 39f0 ecbc daf9 003d
00000200: 5962 653d ebfa 19bd 1e90 4f3d 1265 0c3b
00000210: 5d31 43bc b252 bf3d d3c5 65bd 2563 483c
00000220: 9380 d5bb ac29 1b3d b17c 4d3c 0450 8f3d
00000230: b286 0e3c 8038 bebc dca3 a83c 8aac bc3c
00000240: 713d 3f3c daa9 803d 1448 3cbc 918d e8ba
00000250: c0e2 1cbc 93f2 a9bc a888 143b 6feb 6b3c
00000260: fc7d 87bc eeaf d03c 3ee1 47bd cd19 593d
00000270: 9b17 dabc b3fd b2bc 797f 25bc 7697 16bc
00000280: db38 553d 438d d1bc 08b9 9fbd 7161 00bd
00000290: 0c52 dcbc d599 fabb d14a 9cbc 5979 313c
000002a0: 6518 853c 570b 473d e5e0 0fbc fa5d 133b
000002b0: c55f 33bd 1cfb e7bb 5e81 48bc fee9 71bc
000002c0: 9c0c 393d 60ce 8a3d 6083 0d3d 8094 d8bb
000002d0: ee93 4fbc 12aa 71bd d281 15b9 2872 2bbd
000002e0: 96ac 30bd 8414 6cbc b6cb a037 5fb6 00bc
000002f0: c2d6 0e3d e4d6 0c3d 0ae8 8a3c d725 85bc
00000300: dc94 9c3b 5373 083d 3858 0abd 08ca a33c
00000310: c33c 88bc 1069 08bc 94bf b13c 16b5 363a
00000320: 83a6 9bbb 946d 013d 2d5d f3bc b232 8b3d
00000330: 6abc eebc b758 16bc 8779 ddbc 8358 9dbc
00000340: 494d 5dbc 4910 83bc 5d8a 0fbd 1e39 13bb
00000350: 56bb 123d 17c0 28bd 1376 fbbc a757 963c
00000360: b87c b6bb 19e3 5dbc a544 4fbc 8519 103b
00000370: 9983 8ebc 53d4 373c e49d f13b ed0b 913c
00000380: 36b3 563c 17a5 b63a e989 d4bb cc9f 21bd
00000390: 952c 8ebc a869 333d f1ae 0fbd 8d56 393d
000003a0: 11af 953c e162 ad3b c848 bbbc d22e ee3c
000003b0: f685 37bc 1059 1cbd 7e57 cdbc df74 34bc
000003c0: 7467 493d c8cb d7bc 69af 95bd 4a1a ca3d
000003d0: baa4 ca3c 2196 bc3c 1464 d03c 902b d53b
000003e0: f9b1 3e3d 29fb cdbd ae3a f23c 0359 923d
000003f0: d7d6 b1bc 38aa 71bd f4c6 a23c f8f3 5d3d
-0.020496162 0.0019676809 0.01915253 -0.019964524 -0.017384877 0.019854309 -0.012099011 -0.027870953
0.03816954 -0.0024459679 -0.0036091537 -0.0013166262 0.014698387 0.0038464621 0.0014152552 0.020733071
-0.0031870676 0.0033707654 0.0018580087 0.0075134537 -0.01195533 0.011941676 0.0027603758 -0.013171943
0.01416853 -0.01190955 0.013027991 -0.010128851 -0.010555833 -0.003278308 -0.0024059438 0.0033250742
-0.0063482015 0.00914386 0.016356733 -0.00611204 -0.0028025545 0.012653178 -0.0039988295 -0.009615786
-0.00026195776 -0.00011504794 -0.00043911661 0.0029059523 0.01551077 0.007194661 0.0015178315 0.00032779336
-0.013648209 -0.0021365255 -0.013757124 0.0046537737 0.0051919897 -0.0060428 0.004367491 0.0025932067
0.0048451307 -0.0049786577 0.015710924 0.013266955 0.007489156 -0.0016355984 -0.007061148 -0.011404301
0.0027161948 -0.002053291 0.0020205479 -0.009593212 -0.0023502584 0.0046054125 -0.015449291 -0.007702513
-0.0040025576 -0.019026084 -0.01245952 -0.0068347584 -0.0031771204 -0.027545089 -0.009752603 0.005863957
0.0024462629 -0.010166147 -0.02398714 0.010916315 0.019379584 -0.0044281958 -0.014499922 0.01607405
0.0057078255 -0.018081354 0.0068936185 -0.011360696 -0.0062959543 0.012113211 -0.0016010916 0.009628308
0.021252904 0.0018714267 0.01425704 -0.017480263 -0.007327189 -0.021450473 -0.028410712 -0.0065904446
0.00940144 -0.0052540535 -0.0067449478 -0.01915214 0.0053657396 -0.0014336582 -0.016209979 0.0009885487
-0.01406842 0.0029861915 0.010032079 -0.0063428236 -0.019529788 0.007446713 0.024110671 0.009580951
-0.011153444 -0.038555395 -0.03987865 -0.024414724 -0.023560349 -0.021481188 -0.02892314 0.031488277
0.056001995 -0.03759281 0.05067455 0.0021422547 -0.011913625 0.09341945 -0.056096863 0.012230669
-0.0065155714 0.03788154 0.012541936 0.06997684 0.008699106 -0.0232203 0.020585947 0.023031492
0.011672364 0.062823966 -0.011491794 -0.0017742385 -0.009575546 -0.020745551 0.0022664461 0.014399393
-0.016539566 0.025474515 -0.048798792 0.05300312 -0.026622584 -0.021849489 -0.010101193 -0.009191385
0.052056175 -0.025580054 -0.07798964 -0.031342927 -0.026894592 -0.0076477327 -0.019078644 0.010832154
0.016246984 0.0485948 -0.008781646 0.0022486434 -0.043792505 -0.007079495 -0.012237875 -0.014765261
0.04517804 0.06777644 0.034549117 -0.0066094995 -0.0126695465 -0.059000082 -0.00014258109 -0.041856915
-0.04313334 -0.014409188 1.9168347e-05 -0.007855981 0.034872778 0.034384623 0.016956348 -0.016253395
0.0047784876 0.033313107 -0.03377554 0.019993797 -0.016630536 -0.00832583 0.021697797 0.0006969733
-0.0047500744 0.031598642 -0.029707516 0.06796779 -0.029142577 -0.009176425 -0.027035488 -0.019207245
-0.013507196 -0.015998976 -0.035044063 -0.0022464464 0.03582319 -0.041198816 -0.03069595 0.018352343
-0.005569067 -0.013542914 -0.0126506435 0.0021987867 -0.017396735 0.011220056 0.0073735584 0.017705882
0.013104251 0.0013934699 -0.0064861667 -0.039459035 -0.017355243 0.043801934 -0.035078947 0.045248557
0.018271955 0.0052913283 -0.022861853 0.02907506 -0.011201372 -0.038170874 -0.025066134 -0.011014192
0.049170926 -0.026342288 -0.073088475 0.098682955 0.02473675 0.023020806 0.025438346 0.006505437
0.046556447 -0.100576706 0.029568996 0.07145884 -0.021708889 -0.059000224 0.019870259 0.054187745

features.9.bias f4 [84]
00000000: ddb0 0abc 0dd6 f03d b341 723e af7d 4abc
00000010: 358e b73c e160 d13e 2d41 91bd cf5c 223d
00000020: a93b f6ba bef8 863d 89d6 c43d 5a34 c93e
00000030: 2384 acbc ce1f 583d 131f ad39 ac37 3b3c
00000040: 2fc9 2bbc 218d 6a3d 1244 d83c 00d7 6a3d
00000050: 5abb 973d 971f 19bd 812a 833e dbfa 5dbe
00000060: 3da4 1ebd 836d 103f 6c1b eb3c eba1 083d
00000070: 933b 84ba 9496 8a3e 712c 8a3d 0b8a 22bd
00000080: bfbf 8f3d fe40 803c 4513 173d ec7a cc3c
00000090: 6168 2ebd d560 d1bd 8b94 e53d fec9 a93d
000000a0: c703 3c3d 943a a83e 8258 023e d928 353d
000000b0: b91c 89bd f346 aa3e 42c0 a2bb 862b 57bb
000000c0: 5e4b c33e 4c60 5d3c a536 51bd bc25 343f
000000d0: 5b7b acbb 3e8e 823e 182c 88bc 0936 4bbc
000000e0: 0eda 36bb c7aa 593e 0a33 ac3b 7512 913e
000000f0: 3314 6f3c b3bb d23c 2a48 ba3d c8ab 0ebb
00000100: a42d 863e dcdc 203e a7e6 65bb 5cdb b43d
00000110: 94ae 02be e728 933d f2f1 1abd 1b7c 783e
00000120: 1e5b c43b 6555 c23e d92b 81bc f526 813b
00000130: a925 4c3d e68c de3e cbe5 cb3d 52f4 163d
00000140: 8c33 933e fbb8 40be c238 893d cbd7 923e
-0.008465019 0.11759577 0.23657875 -0.012359067 0.022406677 0.40894225 -0.070925094 0.03963929
-0.0018786091 0.065904126 0.09611232 0.39297754 -0.021059101 0.052764706 0.00033020283 0.011426847
-0.010484978 0.057263497 0.026399646 0.057333946 0.07408781 -0.037383642 0.25618365 -0.21677725
-0.03873085 0.564171 0.0286996 0.033357542 -0.0010088555 0.27068007 0.06746758 -0.03968243
0.070189945 0.01565599 0.03688361 0.024960957 -0.042580012 -0.10223547 0.11209973 0.0829048
0.04590204 0.32857192 0.12729076 0.04422841 -0.066949315 0.33257255 -0.0049667666 -0.0032832338
0.38143438 0.0135117285 -0.051077504 0.7037008 -0.0052637286 0.25499147 -0.016622588 -0.01240302
-0.0027900967 0.21256553 0.005255108 0.28334394 0.014592218 0.025724268 0.090957955 -0.002176987
0.26206696 0.15709251 -0.0035080106 0.08830902 -0.12761909 0.07185536 -0.037828393 0.24266092
0.0059923073 0.37955776 -0.015767979 0.0039414116 0.049840603 0.43466872 0.09955939 0.036854096
0.28750265 -0.18820564 0.06700279 0.28680262

classifiers.0.weight f4 [5, 84]
00000000: 31ed 163b 6bd4 cf3d 5639 c63d daa1 513a
00000010: 96c1 453d 61a7 eabe 1481 b9be db9c a2bd
00000020: 0315 79bc bea5 8ebb 86af a8be 83b0 083e
00000030: c5ba 0fbc 0aa3 d1bd 0675 5b3c b050 3d3a
00000040: 031f 0f3c 2b52 663d 86d5 cd3c f5ae 6cbe
00000050: db0c 5b3d 84b8 b4ba 82d7 913d 689f 4abe
00000060: 421d 05bd 0ca4 4f3e 8fee bfbc fcad 66bd
00000070: e259 83bb c7e5 b33e 9ef9 6e3d bb01 85bd
00000080: ca54 953d cb36 973c 9e21 db3c 2866 a53b
00000090: 5f3b 80be 6e0e 00be e65c 25bd 0f0c da3c
000000a0: a253 633d 45ed 853e b21d b7ba 4194 01bc
000000b0: f0a3 8cbd 0413 0b3e 9267 b63b cd05 9bba
000000c0: 78f8 553e cc80 8abd 3659 04be 5096 0f3e
000000d0: fde1 5bbb fe9e 403e 3d7a 4bbe 4e3c 5a3c
000000e0: 823e 0fbd c336 003e 0e43 6b3b 2674 4c3c
000000f0: 758d 50be 1f48 38bd 9801 89be c1c6 b03b
00000100: 3df5 133e 2f26 0b3e 5d2b 693c 5ece 183d
00000110: 742b 03be acfa 043d 64ce 80bb d53f 6a3d
00000120: 9373 dfbc 9e85 3b3e 10e2 303c 90d1 173d
00000130: bf78 01be 07fc 23be a808 c3bc c953 eabd
00000140: 5050 253e 233d a0be 36bc 373d 7d74 d93d
00000150: 8eb6 303c c03a 90bd 0448 b2bd ceb1 7a3c
00000160: dc97 13bd 0117 46be 3f16 383e c5a7 a9bc
00000170: db1a e0ba 8033 a8bc f2ca 453e a266 cf3e
00000180: 4ab1 2dbd 9124 613e 945f 413b c2e8 b5bc
00000190: 2e61 74bd 6b2a e4bd 3a6b fe3c f8e8 393e
000001a0: f270 f13d 6d66 4d3d bb5b a03e 0300 6c3d
000001b0: eefd 7d3d f6e7 14bf 231c 5ebc b6f1 92bd
000001c0: 370f a4b9 04a7 abbe a3f2 7fbd 4f63 113c
000001d0: ed35 773d 753a c33a d71e 033d cdcf 29bc
000001e0: 76f6 db3d 9b6b 5b3e 3a74 06ba f0c6 803d
000001f0: 5811 ac3c d2ff 703d 3272 263e ff0e 143d
00000200: 52ad aabb d3d1 d8be e11c 59bc a4ca 14bc
00000210: 402f 523e cf13 52bc 808b 83bb 595f 0abf
00000220: e869 b33c 5566 5dbe fbc5 fd3d f77c 0e3d
00000230: 8aa7 18bc 322e 453e ac5f 443b 64db 74bb
00000240: 9135 4b3e 8a57 bcbc 3a59 103e 8d7f bebb
00000250: 0b98 843e 3baf 17be b29c cebb eb12 6a3d
00000260: 2ea0 6d3c da94 19be aef0 783d 8e96 123e
00000270: fca1 a53c 19c3 a93e 8f83 fcbc f561 20bd
00000280: bfb2 6e3e f3fa 763e d64f db3d 1549 ccbb
00000290: d358 363e 14c5 033e 4572 11bd 57d4 623e
000002a0: 09b2 dc3c 6a9b c03d c4b6 7cbe 58b1 6c3c
000002b0: 764d 183c 2b88 193e 8fbb 4b3e 9993 9fbd
000002c0: f880 f33b 9d62 cebd 3d0a 453d eaa3 88be
000002d0: f31f 4f3d 4b50 833d af62 533d 376e 10bc
000002e0: 7de0 223c 0005 1e3d 8e5d e93c 4d1d 453e
000002f0: b983 be3d 4011 943d ad85 afbd e56a 203e
00000300: e82b 443d 8dc7 a03c 9e7b 023c b89b 2f3c
00000310: 734e 5abc 9f00 2a3e 9eb6 14bd f86b 0b3d
00000320: c219 f53d b969 a7bb 5858 173d 9c5e 23bd
00000330: 1764 b83d af63 053e 1013 b8bd 2777 e3bc
00000340: b985 183e 29ff aabe ce3c c6bb a277 8cbd
00000350: 0c8e 103d 7ee6 1b3e b1b0 943a 2283 383d
00000360: 8b37 babd f19c 113d ab35 e53c 93c6 47be
00000370: 13ba 1d3b ed37 823e 2a4f 9f3d 15f0 91bc
00000380: cd0e 713c 4332 423e f5df e43c aece 863e
00000390: 446d 143e c68b ec3c 1b0f fb3d dc03 943c
000003a0: 1394 82bd 165e a8bd 5b2c 71bb c673 933e
000003b0: 6126 b33d 64cc 7e3e 5cae a63d bf09 32be
000003c0: 4736 d9bc 0741 d3bd dc8b 773d f234 023d
000003d0: a6fd 1e3e 11bf a5be 89ac f8bd 4c02 093d
000003e0: 88d3 8b3d a157 433e bde3 13be 0c9b 66be
000003f0: c4fc 6dbb 542f a5bd c08a 123e 275d beba
0.002302956 0.101479374 0.09678905 0.0007996835 0.04828032 -0.45830825 -0.3623129 -0.07940074
-0.0152027635 -0.004353254 -0.32946414 0.13348584 -0.008772557 -0.10236175 0.0133946 0.0007221801
0.008735421 0.056230705 0.02512623 -0.23113616 0.053479057 -0.00137879 0.07121183 -0.19787371
-0.032498606 0.20277423 -0.023429183 -0.05631827 -0.0040085176 0.35136244 0.058343522 -0.06494471
0.07291563 0.018458745 0.026749428 0.0050475784 -0.25045297 -0.12505504 -0.040371798 0.026617078
0.05549968 0.26157585 -0.0013970642 -0.007908882 -0.06867206 0.13581473 0.0055665458 -0.001182729
0.20895565 -0.06762847 -0.12924656 0.14022183 -0.0033551448 0.1881065 -0.19870849 0.013320042
-0.03497172 0.1252089 0.0035898122 0.012478864 -0.20366462 -0.044990655 -0.26759028 0.005394787
0.1444902 0.13588785 0.01423153 0.037306182 -0.12809545 0.03246562 -0.0039308537 0.05718978
-0.02727679 0.1831269 0.010796085 0.03706509 -0.12643717 -0.1601411 -0.023807839 -0.11441762
0.16143918 -0.31296644 0.044857226 0.106179215 0.010785712 -0.07042456 -0.08705142 0.015301181
-0.036033496 -0.19344713 0.17977236 -0.020709882 -0.0017097847 -0.02053237 0.19315699 0.4050799
-0.042405404 0.21986605 0.0029506432 -0.022205714 -0.05966299 -0.11140903 0.031056989 0.18155277
0.11789121 0.05014651 0.31319985 0.0576172 0.062009744 -0.58166444 -0.013556513 -0.07175009
-0.00031291854 -0.3352586 -0.062487256 0.008873775 0.060354162 0.0014894741 0.032011833 -0.010364485
0.10740368 0.21427767 -0.00051290134 0.06287944 0.021004364 0.05883772 0.162545 0.036147114
-0.0052086497 -0.42347583 -0.013251514 -0.009081516 0.20525837 -0.012822106 -0.0040144324 -0.5405174
0.021901086 -0.21621068 0.123912774 0.034787145 -0.009317288 0.19255903 0.0029964251 -0.0037362212
0.19844653 -0.02299096 0.14096537 -0.005813545 0.2589725 -0.14812939 -0.0063053006 0.057146948
0.014503522 -0.14998189 0.060776405 0.14315245 0.020218842 0.3315666 -0.03082445 -0.03915592
0.23310374 0.24119167 0.10708587 -0.006234298 0.17807321 0.12868148 -0.035509367 0.22151314
0.026940363 0.09404643 -0.24679095 0.014446579 0.009295812 0.1499335 0.19895767 -0.07791824
0.0074311458 -0.10077403 0.048105467 -0.26687557 0.05056758 0.06411799 0.051607784 -0.00881534
0.0099412175 0.038578987 0.028486993 0.19249459 0.09302468 0.07229853 -0.085704185 0.15665777
0.047893435 0.019626403 0.007964043 0.010718279 -0.013324368 0.166018 -0.03630697 0.034038514
0.119678035 -0.0051090387 0.036949486 -0.03988515 0.090034656 0.13026308 -0.08988011 -0.027766777
0.14894761 -0.33397797 -0.006049729 -0.06858756 0.035291716 0.15224645 0.0011344162 0.045046933
-0.09092625 0.03555006 0.027979692 -0.19509344 0.0024067208 0.25433293 0.07778771 -0.017814675
0.014713001 0.18964486 0.027938822 0.2632956 0.14494807 0.028875243 0.122587405 0.018068247
-0.06375899 -0.082210705 -0.003680012 0.28799266 0.087475546 0.24882656 0.08138725 -0.1738653
-0.02651514 -0.10315137 0.060436115 0.031788774 0.15526447 -0.32372335 -0.121422835 0.033449456
0.06827456 0.19076397 -0.14442344 -0.22520083 -0.003631399 -0.08065668 0.14310741 -0.0014523611

classifiers.0.bias f4 [5]
00000000: 7ade 4e3f 6c20 67bf b195 24bf fd7a 8cbe
00000010: 908a 813f
0.8080822 -0.90283847 -0.6429091 -0.27437583 1.0120411

classifier.weight f4 [5, 84]
00000000: 31ed 163b 6bd4 cf3d 5639 c63d daa1 513a
00000010: 96c1 453d 61a7 eabe 1481 b9be db9c a2bd
00000020: 0315 79bc bea5 8ebb 86af a8be 83b0 083e
00000030: c5ba 0fbc 0aa3 d1bd 0675 5b3c b050 3d3a
00000040: 031f 0f3c 2b52 663d 86d5 cd3c f5ae 6cbe
00000050: db0c 5b3d 84b8 b4ba 82d7 913d 689f 4abe
00000060: 421d 05bd 0ca4 4f3e 8fee bfbc fcad 66bd
00000070: e259 83bb c7e5 b33e 9ef9 6e3d bb01 85bd
00000080: ca54 953d cb36 973c 9e21 db3c 2866 a53b
00000090: 5f3b 80be 6e0e 00be e65c 25bd 0f0c da3c
000000a0: a253 633d 45ed 853e b21d b7ba 4194 01bc
000000b0: f0a3 8cbd 0413 0b3e 9267 b63b cd05 9bba
000000c0: 78f8 553e cc80 8abd 3659 04be 5096 0f3e
000000d0: fde1 5bbb fe9e 403e 3d7a 4bbe 4e3c 5a3c
000000e0: 823e 0fbd c336 003e 0e43 6b3b 2674 4c3c
000000f0: 758d 50be 1f48 38bd 9801 89be c1c6 b03b
00000100: 3df5 133e 2f26 0b3e 5d2b 693c 5ece 183d
00000110: 742b 03be acfa 043d 64ce 80bb d53f 6a3d
00000120: 9373 dfbc 9e85 3b3e 10e2 303c 90d1 173d
00000130: bf78 01be 07fc 23be a808 c3bc c953 eabd
00000140: 5050 253e 233d a0be 36bc 373d 7d74 d93d
00000150: 8eb6 303c c03a 90bd 0448 b2bd ceb1 7a3c
00000160: dc97 13bd 0117 46be 3f16 383e c5a7 a9bc
00000170: db1a e0ba 8033 a8bc f2ca 453e a266 cf3e
00000180: 4ab1 2dbd 9124 613e 945f 413b c2e8 b5bc
00000190: 2e61 74bd 6b2a e4bd 3a6b fe3c f8e8 393e
000001a0: f270 f13d 6d66 4d3d bb5b a03e 0300 6c3d
000001b0: eefd 7d3d f6e7 14bf 231c 5ebc b6f1 92bd
000001c0: 370f a4b9 04a7 abbe a3f2 7fbd 4f63 113c
000001d0: ed35 773d 753a c33a d71e 033d cdcf 29bc
000001e0: 76f6 db3d 9b6b 5b3e 3a74 06ba f0c6 803d
000001f0: 5811 ac3c d2ff 703d 3272 263e ff0e 143d
00000200: 52ad aabb d3d1 d8be e11c 59bc a4ca 14bc
00000210: 402f 523e cf13 52bc 808b 83bb 595f 0abf
00000220: e869 b33c 5566 5dbe fbc5 fd3d f77c 0e3d
00000230: 8aa7 18bc 322e 453e ac5f 443b 64db 74bb
00000240: 9135 4b3e 8a57 bcbc 3a59 103e 8d7f bebb
00000250: 0b98 843e 3baf 17be b29c cebb eb12 6a3d
00000260: 2ea0 6d3c da94 19be aef0 783d 8e96 123e
00000270: fca1 a53c 19c3 a93e 8f83 fcbc f561 20bd
00000280: bfb2 6e3e f3fa 763e d64f db3d 1549 ccbb
00000290: d358 363e 14c5 033e 4572 11bd 57d4 623e
000002a0: 09b2 dc3c 6a9b c03d c4b6 7cbe 58b1 6c3c
000002b0: 764d 183c 2b88 193e 8fbb 4b3e 9993 9fbd
000002c0: f880 f33b 9d62 cebd 3d0a 453d eaa3 88be
000002d0: f31f 4f3d 4b50 833d af62 533d 376e 10bc
000002e0: 7de0 223c 0005 1e3d 8e5d e93c 4d1d 453e
000002f0: b983 be3d 4011 943d ad85 afbd e56a 203e
00000300: e82b 443d 8dc7 a03c 9e7b 023c b89b 2f3c
00000310: 734e 5abc 9f00 2a3e 9eb6 14bd f86b 0b3d
00000320: c219 f53d b969 a7bb 5858 173d 9c5e 23bd
00000330: 1764 b83d af63 053e 1013 b8bd 2777 e3bc
00000340: b985 183e 29ff aabe ce3c c6bb a277 8cbd
00000350: 0c8e 103d 7ee6 1b3e b1b0 943a 2283 383d
00000360: 8b37 babd f19c 113d ab35 e53c 93c6 47be
00000370: 13ba 1d3b ed37 823e 2a4f 9f3d 15f0 91bc
00000380: cd0e 713c 4332 423e f5df e43c aece 863e
00000390: 446d 143e c68b ec3c 1b0f fb3d dc03 943c
000003a0: 1394 82bd 165e a8bd 5b2c 71bb c673 933e
000003b0: 6126 b33d 64cc 7e3e 5cae a63d bf09 32be
000003c0: 4736 d9bc 0741 d3bd dc8b 773d f234 023d
000003d0: a6fd 1e3e 11bf a5be 89ac f8bd 4c02 093d
000003e0: 88d3 8b3d a157 433e bde3 13be 0c9b 66be
000003f0: c4fc 6dbb 542f a5bd c08a 123e 275d beba
0.002302956 0.101479374 0.09678905 0.0007996835 0.04828032 -0.45830825 -0.3623129 -0.07940074
-0.0152027635 -0.004353254 -0.32946414 0.13348584 -0.008772557 -0.10236175 0.0133946 0.0007221801
0.008735421 0.056230705 0.02512623 -0.23113616 0.053479057 -0.00137879 0.07121183 -0.19787371
-0.032498606 0.20277423 -0.023429183 -0.05631827 -0.0040085176 0.35136244 0.058343522 -0.06494471
0.07291563 0.018458745 0.026749428 0.0050475784 -0.25045297 -0.12505504 -0.040371798 0.026617078
0.05549968 0.26157585 -0.0013970642 -0.007908882 -0.06867206 0.13581473 0.0055665458 -0.001182729
0.20895565 -0.06762847 -0.12924656 0.14022183 -0.0033551448 0.1881065 -0.19870849 0.013320042
-0.03497172 0.1252089 0.0035898122 0.012478864 -0.20366462 -0.044990655 -0.26759028 0.005394787
0.1444902 0.13588785 0.01423153 0.037306182 -0.12809545 0.03246562 -0.0039308537 0.05718978
-0.02727679 0.1831269 0.010796085 0.03706509 -0.12643717 -0.1601411 -0.023807839 -0.11441762
0.16143918 -0.31296644 0.044857226 0.106179215 0.010785712 -0.07042456 -0.08705142 0.015301181
-0.036033496 -0.19344713 0.17977236 -0.020709882 -0.0017097847 -0.02053237 0.19315699 0.4050799
-0.042405404 0.21986605 0.0029506432 -0.022205714 -0.05966299 -0.11140903 0.031056989 0.18155277
0.11789121 0.05014651 0.31319985 0.0576172 0.062009744 -0.58166444 -0.013556513 -0.07175009
-0.00031291854 -0.3352586 -0.062487256 0.008873775 0.060354162 0.0014894741 0.032011833 -0.010364485
0.10740368 0.21427767 -0.00051290134 0.06287944 0.021004364 0.05883772 0.162545 0.036147114
-0.0052086497 -0.42347583 -0.013251514 -0.009081516 0.20525837 -0.012822106 -0.0040144324 -0.5405174
0.021901086 -0.21621068 0.123912774 0.034787145 -0.009317288 0.19255903 0.0029964251 -0.0037362212
0.19844653 -0.02299096 0.14096537 -0.005813545 0.2589725 -0.14812939 -0.0063053006 0.057146948
0.014503522 -0.14998189 0.060776405 0.14315245 0.020218842 0.3315666 -0.03082445 -0.03915592
0.23310374 0.24119167 0.10708587 -0.006234298 0.17807321 0.12868148 -0.035509367 0.22151314
0.026940363 0.09404643 -0.24679095 0.014446579 0.009295812 0.1499335 0.19895767 -0.07791824
0.0074311458 -0.10077403 0.048105467 -0.26687557 0.05056758 0.06411799 0.051607784 -0.00881534
0.0099412175 0.038578987 0.028486993 0.19249459 0.09302468 0.07229853 -0.085704185 0.15665777
0.047893435 0.019626403 0.007964043 0.010718279 -0.013324368 0.166018 -0.03630697 0.034038514
0.119678035 -0.0051090387 0.036949486 -0.03988515 0.090034656 0.13026308 -0.08988011 -0.027766777
0.14894761 -0.33397797 -0.006049729 -0.06858756 0.035291716 0.15224645 0.0011344162 0.045046933
-0.09092625 0.03555006 0.027979692 -0.19509344 0.0024067208 0.25433293 0.07778771 -0.017814675
0.014713001 0.18964486 0.027938822 0.2632956 0.14494807 0.028875243 0.122587405 0.018068247
-0.06375899 -0.082210705 -0.003680012 0.28799266 0.087475546 0.24882656 0.08138725 -0.1738653
-0.02651514 -0.10315137 0.060436115 0.031788774 0.15526447 -0.32372335 -0.121422835 0.033449456
0.06827456 0.19076397 -0.14442344 -0.22520083 -0.003631399 -0.08065668 0.14310741 -0.0014523611

classifier.bias f4 [5]
00000000: 7ade 4e3f 6c20 67bf b195 24bf fd7a 8cbe
00000010: 908a 813f
0.8080822 -0.90283847 -0.6429091 -0.27437583 1.0120411

features.7 f4 [120]
00000000: b071 7c3d 9abe 603c 5e42 e2bd 6b50 c53d
00000010: 8992 a23d 9225 683c 7947 d73c 61cb 093e
00000020: 397f 02be 576a eebd cb45 0e3e cbb4 853c
00000030: ced2 81ba 9744 ec3c a155 36bb b319 d03d
00000040: 6973 8bbd 40f4 393e f0f8 1e3e bb5d 10be
00000050: f23b 083d 4b64 debb 91ad 883d 552a 7abb
00000060: 8729 fb3d d120 9c3d ead9 583d 6e61 3f3d
00000070: 8657 23be 75fb 4f3d 8295 913e 6cc7 07bd
00000080: 214e 54bc 6ae0 a33d 3cab 533c 3987 64be
00000090: eeb2 8d3d c25b ec3b abc5 873c bb9f c13d
000000a0: 40d5 203d 35a6 fb3c f6d7 923d dea9 4dbd
000000b0: 1d05 4e3c a36d 1bbc cdde 68ba 14c9 443c
000000c0: 050f 27bd 2649 8b3d 17ec b03c 05be 923d
000000d0: 973a 993d d7fc e8bb d396 053e 5a1b 1d3e
000000e0: c253 2cbd 20cc 473c 4b29 6c3b 53d0 243b
000000f0: 7bc6 10bb 31fd 7fbe b43d 023d d4d8 8f3d
00000100: 24aa 2c3d aa65 063e 9b5a d63d 6823 83bb
00000110: 8451 5c3d d9ef 9e3c 3c30 933d b5f8 d7bb
00000120: 5db3 383d a80d 0f3d 81fa 0abd f2f7 d2bc
00000130: cb10 943d 27d5 603d 5fb0 2d3d ea5b fa3d
00000140: 6583 ee3d 6ba2 d93d b77c d93c cb86 6c3d
00000150: c660 a7bc 44ff 19bb 3341 5f3d d682 203d
00000160: 260a cdbc 40f7 2d3d 0697 483d 0913 36bc
00000170: 27a7 c73d 51b8 523d b1bb 423d 673c 103d
00000180: d697 663c 6955 053e 10c4 9e3c e74f fabb
00000190: e119 8d3d 806f c43c 1580 4e3c ea9c 0bbd
000001a0: de3f 333c 9fd1 3d3e 8ac6 203e fa31 253d
000001b0: 7124 b03d 27f7 c6bd 6a65 b939 9eba 0e3d
000001c0: f6b5 a2bb d3f8 523e 79a2 3b3d d851 303e
000001d0: 50ac 243e 9e60 cfbc 3f40 7fbd e8dd deba
0.06163186 0.013717318 -0.11047815 0.09634479 0.079381056 0.014169114 0.026279198 0.13456489
-0.12743844 -0.116413765 0.13893811 0.01632156 -0.0009904744 0.0288413 -0.0027822035 0.10161152
-0.06809122 0.1815958 0.1552465 -0.14098255 0.033260293 -0.006786858 0.0667373 -0.0038172205
0.1226378 0.07623447 0.052942194 0.046723776 -0.15951356 0.050776917 0.28434378 -0.033149168
-0.0129580805 0.08001788 0.012919243 -0.22317208 0.06918894 0.007213087 0.016573748 0.09454294
0.03926587 0.030718902 0.071700975 -0.050210826 0.012574461 -0.009486589 -0.00088832976 0.012010831
-0.040785808 0.06801061 0.021596951 0.071651496 0.07481878 -0.007110219 0.13045816 0.15342465
-0.042072065 0.012194663 0.0036035355 0.0025148585 -0.002209096 -0.24998929 0.031797126 0.070237786
0.042154446 0.1312472 0.104665 -0.0040020235 0.053788677 0.019401478 0.07186934 -0.0065909275
0.04509293 0.034925133 -0.033930305 -0.025752995 0.072297655 0.054890778 0.04240453 0.122245625
0.11646155 0.10626682 0.026548726 0.057745736 -0.020431887 -0.0023498097 0.05450554 0.039187275
-0.025029253 0.042472124 0.048972152 -0.011112937 0.09748679 0.05144531 0.047542278 0.035213854
0.014074286 0.13020863 0.0193806 -0.0076389196 0.06889702 0.023978949 0.012603779 -0.03408519
0.01094052 0.18536995 0.15700737 0.040330864 0.08600701 -0.09715109 0.0003536151 0.03484594
-0.004965539 0.20602731 0.045809243 0.17218721 0.16081357 -0.025314625 -0.06231713 -0.0017003389

features.9 f4 [84]
00000000: ddb0 0abc 0dd6 f03d b341 723e af7d 4abc
00000010: 358e b73c e160 d13e 2d41 91bd cf5c 223d
00000020: a93b f6ba bef8 863d 89d6 c43d 5a34 c93e
00000030: 2384 acbc ce1f 583d 131f ad39 ac37 3b3c
00000040: 2fc9 2bbc 218d 6a3d 1244 d83c 00d7 6a3d
00000050: 5abb 973d 971f 19bd 812a 833e dbfa 5dbe
00000060: 3da4 1ebd 836d 103f 6c1b eb3c eba1 083d
00000070: 933b 84ba 9496 8a3e 712c 8a3d 0b8a 22bd
00000080: bfbf 8f3d fe40 803c 4513 173d ec7a cc3c
00000090: 6168 2ebd d560 d1bd 8b94 e53d fec9 a93d
000000a0: c703 3c3d 943a a83e 8258 023e d928 353d
000000b0: b91c 89bd f346 aa3e 42c0 a2bb 862b 57bb
000000c0: 5e4b c33e 4c60 5d3c a536 51bd bc25 343f
000000d0: 5b7b acbb 3e8e 823e 182c 88bc 0936 4bbc
000000e0: 0eda 36bb c7aa 593e 0a33 ac3b 7512 913e
000000f0: 3314 6f3c b3bb d23c 2a48 ba3d c8ab 0ebb
00000100: a42d 863e dcdc 203e a7e6 65bb 5cdb b43d
00000110: 94ae 02be e728 933d f2f1 1abd 1b7c 783e
00000120: 1e5b c43b 6555 c23e d92b 81bc f526 813b
00000130: a925 4c3d e68c de3e cbe5 cb3d 52f4 163d
00000140: 8c33 933e fbb8 40be c238 893d cbd7 923e
-0.008465019 0.11759577 0.23657875 -0.012359067 0.022406677 0.40894225 -0.070925094 0.03963929
-0.0018786091 0.065904126 0.09611232 0.39297754 -0.021059101 0.052764706 0.00033020283 0.011426847
-0.010484978 0.057263497 0.026399646 0.057333946 0.07408781 -0.037383642 0.25618365 -0.21677725
-0.03873085 0.564171 0.0286996 0.033357542 -0.0010088555 0.27068007 0.06746758 -0.03968243
0.070189945 0.01565599 0.03688361 0.024960957 -0.042580012 -0.10223547 0.11209973 0.0829048
0.04590204 0.32857192 0.12729076 0.04422841 -0.066949315 0.33257255 -0.0049667666 -0.0032832338
0.38143438 0.0135117285 -0.051077504 0.7037008 -0.0052637286 0.25499147 -0.016622588 -0.01240302
-0.0027900967 0.21256553 0.005255108 0.28334394 0.014592218 0.025724268 0.090957955 -0.002176987
0.26206696 0.15709251 -0.0035080106 0.08830902 -0.12761909 0.07185536 -0.037828393 0.24266092
0.0059923073 0.37955776 -0.015767979 0.0039414116 0.049840603 0.43466872 0.09955939 0.036854096
0.28750265 -0.18820564 0.06700279 0.28680262
