checkpoints_lenet5/baseline_scratch/lenet5/large_man-made_outdoor_things/checkpoint-100.pth.tar (torch, 312211 bytes, 12 tensors)

features.0.weight f4 [6, 3, 5, 5]
00000000: 5831 cbbe 5b9b 2abe 0b32 3bbe 6ca3 07be
00000010: 97ca 21be 1f9b 5ebe 8c42 b2bd 2fe6 17be
00000020: eb1f 7ebd a4b5 56bd 3573 163d 7653 63be
00000030: 5321 1b3e a1df 54be a51e d1bd 34fb 803d
00000040: c33a e03d 3ee9 1abe ef3e 3b3e 7857 2fbb
00000050: da82 a83d af94 e23d b8bc c13d 133b 84bd
00000060: 77f6 b7bd d9af a43e 8532 cb3e afe8 113e
00000070: 3437 df3d 24bb 2e3e 1426 673d b7af 663e
00000080: fffb ab3e 944c 843d c35a b73d 1572 903e
00000090: 04cf 893e e3d8 c2bc d60a b73d 2271 6f3e
000000a0: bcac ae3e 5778 7f3e 35e2 523e 0e99 1f3e
000000b0: bb66 a03e fb60 88bb d6a7 9b3e f4f8 963e
000000c0: 0bc9 703e 58cf 6c3e d135 6dbc ccdf a0bd
000000d0: fbd5 2bbc 29fb 143d ddcb b0bd 585b 19be
000000e0: ff11 53be c299 50be 8593 1fbe 0724 fabd
000000f0: b5e5 71be b44a 71be a79f 84be 90e3 febd
00000100: 6dc7 02bf 9a81 0cbf 69d0 aabe e8e2 34be
00000110: bc37 ebbe 7fba d3be 0d32 a0be 62ac 37be
00000120: dbac 0fbe 51d9 61be d705 25bf 31e4 17bd
00000130: 5699 83bd d1a3 36be 531e 0ebe 5f43 72bd
00000140: 2424 ce3d c637 193e 827a 413b 371a 8ebe
00000150: 4d2b 59be 842e af3d c46f c0bd a236 a03c
00000160: 34fc 733d 23c5 fbbd 360c 1ebe 53eb d2bd
00000170: f258 d9be fcf2 1bbe 0436 85be ebf6 28bd
00000180: 6f9a 7ebd c580 91be 3524 83be b73c 07bf
00000190: bd55 94bd 3143 94bd ff51 cc3c 7b6a 31be
000001a0: ca7c 0ebe 1d1c 9e3e b4b2 90be 6ff0 9d3d
000001b0: 3add 64bb 9a66 6abe aace e03d 757b 843d
000001c0: d0d1 62be 3000 60bd 1dbf 713e 6cec c13d
000001d0: d3f4 2cbe b2fc 12be e5a6 cebd fe3f 803d
000001e0: a9e9 44be 1f76 13be 10fb 9bbd 4747 adbd
000001f0: dcb6 3fbe 4edc d93d 5839 3cbd 5569 423e
00000200: 06a7 c93c c0e5 033e 73bb d43d 64ae 943e
00000210: e110 963e 73cc 853d abd8 85bd ed73 653e
00000220: a84e 6f3e 0cf1 5f3e 9575 4d3e 3704 983e
00000230: 603e da3d 5a6c 073e feab dcbc 17c4 c23d
00000240: adb6 03bd e8b6 8b3e 16c0 28bd 1a97 1e3d
00000250: 3b33 c23e faae d6bd 66b4 aa3d 12e5 683e
00000260: 0e81 ebbd 57e1 1bbe e177 513e c3f9 5ebe
00000270: 6a0c 1d3e 20d3 86bd 1753 dfbe 7e57 163e
00000280: 4024 06be 41d3 b43e 439a edbd 7269 f5be
00000290: 8889 b53e 0f7d 5d3d f339 3f3e 58b8 34be
000002a0: 3447 8abe 9102 c43e faa7 0ebb ee9c 803e
000002b0: 25d4 5bbe f1a9 33bf fa19 d23e 1c57 f73d
000002c0: 957a 033f 04d9 0ebe 27fc 85be 1818 f3bd
000002d0: 96e9 1cbc db25 5e3e cb5d 4dbe 2af3 debe
000002e0: 411d c03c 1197 913d 117f de3e e51b 96be
000002f0: c34a 1cbf 08b8 503e 2a18 453e 7a13 d33e
00000300: 7435 75be 3783 0fbf 5606 503e 2aaf f43d
00000310: 3a87 013f b9ae 95be 141d 3abf c839 773e
00000320: d6b7 1a3e a516 b53e 0a02 943e 1d06 20be
00000330: cde1 033e fabb de3d b966 cc3e 40a2 7d3d
00000340: 6d76 0bbf 638d b8bd 3ebe 213d d31f 0f3e
00000350: b15b a2be bc57 15bf 4412 47bd 47b3 813e
00000360: d2e3 ca3e 148a 77be be76 b7be b3d9 793e
00000370: f055 923e e4af 1a3f 63c1 81be 698b babe
00000380: 4266 803e 2545 f7ba 8a81 8b3d 7c9a 52be
00000390: 4a68 acbd 0515 153e eac2 263e 7e52 0a3e
000003a0: c698 8e3e 169b 483e 41ea 9a3d ec66 903e
000003b0: 74e1 223e 800b 193d 2884 573e 45cd 713e
000003c0: aa7a 853e 868a 933d 8149 403d 4384 a43e
000003d0: b98e fd3e 70dd 563e c7ee 943d e522 2a3e
000003e0: 3138 ca3e 0363 e83e 9d67 2abe f489 01be
000003f0: 16ea cabe 917e f7bd 9b98 27be 4d0d dd3d
-0.39686084 -0.16660826 -0.18280809 -0.13245934 -0.15799938 -0.21738862 -0.08704099 -0.14833902
-0.062042158 -0.05241932 0.036730964 -0.22199807 0.15149431 -0.20788433 -0.10210923 0.06297913
0.10948708 -0.15128037 0.18285726 -0.0026755016 0.08228083 0.110635154 0.09459823 -0.0645658
-0.08982556 0.3216541 0.3968698 0.14248918 0.10899201 0.17063576 0.0564328 0.22527967
0.33590695 0.064599186 0.08952858 0.28212038 0.26915753 -0.02378506 0.08937614 0.23383
0.3411616 0.2494825 0.20594104 0.1558573 0.31328377 -0.0041619516 0.30401486 0.2948681
0.23514192 0.2312597 -0.014478163 -0.07855186 -0.010488029 0.036372337 -0.08632634 -0.14976251
-0.20612334 -0.20371154 -0.15583618 -0.12213903 -0.23622783 -0.23563653 -0.25903055 -0.12445748
-0.5108555 -0.54885256 -0.3336213 -0.17664683 -0.4594096 -0.41353223 -0.31288186 -0.17936853
-0.14030783 -0.22055556 -0.64462036 -0.037082855 -0.06425731 -0.17835928 -0.13878755 -0.05914628
0.10065487 0.14962682 0.0029522483 -0.27754375 -0.21207924 0.08553794 -0.093963176 0.019557301
0.05956669 -0.1229346 -0.15434346 -0.10298791 -0.42450672 -0.1522941 -0.26017773 -0.041251104
-0.062158998 -0.28418556 -0.2561356 -0.5282702 -0.07242916 -0.07239378 0.024941443 -0.17325775
-0.13914791 0.30880824 -0.2826134 0.07711875 -0.00349219 -0.22890702 0.10976918 0.0646886
-0.2215035 -0.05468768 0.2360806 0.09468922 -0.16890268 -0.14354208 -0.10090426 0.062622055
-0.1922976 -0.14400528 -0.07616246 -0.08460861 -0.18722099 0.10637723 -0.045953125 0.18985493
0.024615776 0.12880611 0.103873156 0.290393 0.29309753 0.06533136 -0.06535467 0.22407503
0.23369849 0.21869296 0.20064385 0.29690716 0.10656428 0.13224927 -0.026937481 0.095100574
-0.032156635 0.27287984 -0.041198812 0.03871832 0.3792971 -0.10482593 0.083351895 0.22743633
-0.114992246 -0.15222679 0.20455886 -0.21774964 0.15336767 -0.06583238 -0.4361808 0.14681813
-0.13099766 0.35317424 -0.11601689 -0.4793201 0.3545649 0.054074343 0.1867445 -0.17648447
-0.2700745 0.38283208 -0.0021767602 0.25119728 -0.21467645 -0.70181185 0.41035444 0.12077162
0.5135892 -0.13949972 -0.2616894 -0.1186983 -0.009577176 0.21694128 -0.2005531 -0.43544894
0.02345145 0.07108892 0.4345632 -0.29318157 -0.6105158 0.20382702 0.19247499 0.41225797
-0.23946172 -0.5605959 0.20314917 0.119474724 0.50596964 -0.29234865 -0.7270062 0.24143136
0.1510919 0.3536884 0.28907806 -0.15627332 0.12879105 0.108756974 0.3992212 0.06192231
-0.5447758 -0.090113424 0.03948807 0.13976984 -0.3171058 -0.58337 -0.048601404 0.2533209
0.39626938 -0.24173766 -0.3583278 0.24399452 0.2858119 0.6042464 -0.25342855 -0.36434487
0.25078017 -0.0018865211 0.06811817 -0.20566744 -0.08418329 0.145588 0.16285291 0.13508031
0.27850932 0.1959041 0.07564212 0.28203523 0.15906316 0.037364483 0.21046507 0.2361346
0.26070148 0.072041556 0.0469451 0.32132158 0.4952295 0.20982909 0.07272106 0.16614874
0.39495996 0.4538804 -0.16641088 -0.12650281 -0.39631718 -0.120846875 -0.16366808 0.107935525

features.3.weight f4 [16, 6, 5, 5]
00000000: c827 d1bd d91d d23d d783 1f3e 2179 023e
00000010: 3bc7 363e d26e b9bd f5f6 e6bd fd4c 2bbd
00000020: 6db3 ecbd 53eb 7d3d 8783 02be 6a50 14be
00000030: 4720 1cbe 8d7b 6bbe 32c7 d9bd a563 283e
00000040: 9a58 bb3d d7c9 273e 2271 ee3d 79cc 1dbe
00000050: 5c32 bd3b e877 d93d e6c0 e3bc 68d8 11be
00000060: cf60 6abd 1b28 8dbe 4d43 a0be 17cf 64be
00000070: 39d6 71be 26ca 31be 7cfc 503d cb16 903b
00000080: 4cc4 91bd eb8b 09be e27b 43be 2975 213e
00000090: 5403 523e 1cc7 6b3e c22a 6c3d c94b 943d
000000a0: 332f 953d 1a97 d13d 1031 d1bd 4389 7e3d
000000b0: f548 39bd 0787 29bc 0eff 4c3b e1b0 a6bb
000000c0: 6af7 9d3d 28bc dabd 08ee 17be 38d2 4abe
000000d0: e33d 3bbe 8120 25be b622 13be f9e4 4abe
000000e0: 0277 35bd 5dca 1cbd ec02 16be ba7b 66be
000000f0: dd07 6d3b 1743 933d 3626 fc3d 35d7 7fbd
00000100: d3c7 30bd 6cea 983e de1b c13e 9af4 843e
00000110: 921f a33e 9465 773e 8611 303e 62c2 083e
00000120: 161d 7e3e 42f1 f73d eeac b3bd b876 813b
00000130: c21c 083e e99b f73d a035 9dbd 1577 30bd
00000140: 663b 993b 799c d83d cdf6 8e3e d2f7 1f3e
00000150: c4f6 893e ba04 04be 8a46 21be c931 7bbd
00000160: fbd5 29bd 796f 36be c8e3 43be 253a 1bbe
00000170: ca83 e2bc 22e4 87be 0be7 7ebe 1920 81bd
00000180: e032 2ebe f31d 35be 7799 79be f4d2 4abe
00000190: b428 0c3d 546b 0fbe 5211 3dbe d5c1 6cbe
000001a0: c14c 203c 27bf c13e ecbe 8b3e 1936 4a3e
000001b0: 24a2 8c3e 9aed 3e3e 41f5 ae3d 1270 5a3e
000001c0: 4c9f bb3e ee7a cb3e 9b56 cd3d 8103 cc3d
000001d0: 445a 033f 5b64 b03e dd60 943e ab5e b6bd
000001e0: f41b 773e 81da 503e 7002 a53d e86e 75be
000001f0: a065 c3be 6cc3 37be 28bb 66be 429e 3fbe
00000200: d1f5 13be fdb1 10be 280b 24be c3a5 76be
00000210: aa94 3fbe ce6d 02bd 6c0c 8c3c 4b4c e8bd
00000220: 6056 debd 3be2 7ebd 5b79 0d3e f9a8 d53d
00000230: e3e6 3bbd 4f17 fdbc 6418 08bc 8d38 ba3d
00000240: 10d5 1a3e 18d4 abbc 3be7 f13d cef4 ba3d
00000250: 2390 893c c730 f73c 3ec8 a03d aea1 04bc
00000260: 8dc2 1a3d bb67 c23d 6f64 b53d 2347 133e
00000270: f469 bbbd ccd5 d5bc 9140 96bd cf87 1fbe
00000280: cd04 a1bc 3d6a 2cbd be9d 0dbe b856 a7bb
00000290: 709f 40bd 71a0 2c3e f859 853d 2329 84bc
000002a0: eca4 4abd ed90 c4bd 4861 1bbb 3c27 433d
000002b0: 8bdf 02bd f120 a6bd a16b c5bd 1c16 c23d
000002c0: 61e1 633e 16f3 b0bc 647c d43d 77ad 7ebc
000002d0: 6236 8d3d d7ba 9b3c e498 3c3e 3ee8 2a3d
000002e0: 2bdc 38bd a4b3 bd3d b95d 843e a26f 6c3e
000002f0: 9b6e 303e 0898 fe3d 8c10 b93d d034 953d
00000300: 5a3b 103e a502 433d fc3c 5e3d b233 2dbe
00000310: f238 493d b8db 9d3d 7768 9c39 4fb1 563d
00000320: 1365 163d cb31 92bd 0ade f33c cf7b cf3c
00000330: 7fc6 943d a959 9bbb fd4c dc3c 7c9a 353e
00000340: ea30 953c 126f 18be 79fc f83d 8ff5 033c
00000350: 134e 083d 11e7 af3d 6f38 0c3c c153 f83c
00000360: 6925 983d bb42 3f3e a3f1 323e 258b 473d
00000370: 1328 ac3c 9eb0 663d c4e1 8b3d 4d26 893e
00000380: 7362 32bd eaff 3c3d 0c5b 053e 2e7e 50bc
00000390: 4d48 2c3d 61c9 30bd 96fd 93bd 3f4c 0bbe
000003a0: 37e5 03be 8f91 44bc 543c 34be dcbc c93d
000003b0: 2c9c 51bd d131 94be 497c 42bd 431b e0bd
000003c0: 9c84 5ebd f68d 41bd c9c5 c2bd a97e 15be
000003d0: d6d8 09be c858 403c e441 72bd 9a42 83be
000003e0: 6085 d7bd 2aa1 69bc 4fec 0c3e 3cdd 91bd
000003f0: 7b2e fdbc efdb e5bd ad4c 373d 4f1e e63d
-0.10212666 0.10259599 0.15577637 0.1274152 0.17849438 -0.090543404 -0.11277572 -0.04182147
-0.1155766 0.061992 -0.12745486 -0.144838 -0.15246688 -0.2299635 -0.106336966 0.16444261
0.09147759 0.1638559 0.11642672 -0.15410031 0.0057738256 0.106185734 -0.027801942 -0.14242709
-0.05722123 -0.2756966 -0.31301346 -0.22344624 -0.23616876 -0.1736227 0.051022038 0.0043972484
-0.07117519 -0.1343228 -0.19090226 0.1576735 0.20509082 0.23025173 0.057657965 0.07241017
0.07284393 0.102338985 -0.10214436 0.06214262 -0.045235593 -0.010347134 0.0031279954 -0.0050870036
0.07713206 -0.10680419 -0.14836895 -0.19806755 -0.18285327 -0.1612568 -0.1436871 -0.19813909
-0.044302948 -0.038278926 -0.14649552 -0.22508135 0.0036168017 0.07190531 0.12311976 -0.062461097
-0.043159317 0.2986635 0.37716573 0.25967866 0.31860024 0.24159843 0.17194185 0.13355401
0.24815783 0.12106563 -0.08773218 0.00395092 0.1329222 0.120902844 -0.07676244 -0.043082315
0.0046762703 0.1057672 0.2792267 0.1562188 0.2694608 -0.12892428 -0.15749565 -0.061326776
-0.041463833 -0.17815961 -0.1912986 -0.15158899 -0.027650733 -0.2654124 -0.24892823 -0.0630495
-0.17011595 -0.17687206 -0.24374948 -0.19807035 0.034218505 -0.14005786 -0.18463638 -0.23120816
0.009783925 0.3784115 0.272941 0.19747199 0.27467453 0.18645325 0.08542872 0.21331814
0.3664497 0.39742225 0.10026284 0.09961606 0.5130961 0.34451565 0.2898015 -0.08904775
0.24131757 0.20395853 0.080571055 -0.23968089 -0.3816347 -0.17945641 -0.22532332 -0.18712714
-0.1444924 -0.14130397 -0.16019881 -0.2408667 -0.18709055 -0.031843 0.017095767 -0.11342677
-0.108563185 -0.06222747 0.13815825 0.104326196 -0.045874488 -0.030894903 -0.008306596 0.090928175
0.1512034 -0.020975158 0.11811682 0.09128724 0.016792363 0.030174626 0.07850693 -0.008095188
0.037783194 0.09492441 0.08857047 0.14382605 -0.09151068 -0.026102923 -0.07336534 -0.1557915
-0.01965561 -0.042093504 -0.13829705 -0.005106773 -0.04702705 0.16858079 0.06511301 -0.016132897
-0.049473688 -0.09597955 -0.0023709107 0.04764484 -0.03195147 -0.08111752 -0.09639669 0.09476873
0.22253944 -0.021600287 0.10375288 -0.015544287 0.06895138 0.01900999 0.18417698 0.04172539
-0.045131844 0.09262779 0.25852755 0.2308946 0.17229693 0.124313414 0.09036359 0.07285464
0.14085141 0.047609944 0.054257378 -0.16914251 0.049126573 0.07707924 0.0002983247 0.05241519
0.036717486 -0.071384035 0.029768962 0.025327591 0.072644226 -0.004740913 0.02689218 0.17734712
0.0182118 -0.1488612 0.1215753 0.008054151 0.033277582 0.08588994 0.008558377 0.030313374
0.074290104 0.186778 0.1747499 0.048716683 0.021015203 0.05632078 0.06830171 0.26787034
-0.04355092 0.046142496 0.13023013 -0.012725396 0.04206114 -0.0431608 -0.07226102 -0.13603304
-0.12880407 -0.0119975945 -0.17601138 0.09850475 -0.051174328 -0.28944257 -0.04748181 -0.109427
-0.054325685 -0.047254525 -0.09510381 -0.14599098 -0.13461623 0.011739917 -0.05914487 -0.2563675
-0.10523486 -0.014259616 0.1376202 -0.07122275 -0.030905953 -0.1122359 0.044750858 0.1123625

features.7.weight f4 [120, 400]
00000000: f4f0 013d d6b2 4bbd f5ff 81bc 653c 8d3c
00000010: 0078 653d 52c4 48bd 4012 2fbc 4762 58bb
00000020: d43c 0a3c 2459 bb3c 5400 353d e927 d83c
00000030: 8c96 163c 4e9e 123b e1f3 ec3b 56df 9b3c
00000040: f7ca 013b 735b 103d ae4a ec3c fe9c c2bb
00000050: 1843 69bd 930b 3fbc ab58 babb d70f aabb
00000060: 7434 c03d b11c aebd 0b03 4e3b 2975 1bbc
00000070: 1b50 a13c 91b1 5bbd 1c7a 8abd b8e6 4e3c
00000080: 0dd1 43bb 2e8e c9bb 7cbc b0bd c643 a33c
00000090: 1998 353c a162 0d3c d906 b23c 975f 55bd
000000a0: 7abe 8c3d 373e 463d 878f 2c3d f294 5e3d
000000b0: e5b5 c6bb 3451 b73d 29a6 ba3d 49b6 3b3d
000000c0: a4b1 5b3d e874 133d 21d7 daba 488a 2c3d
000000d0: 76cc 443d b9c9 903d 7ccc d63d 739e 523c
000000e0: b144 313d 04d7 983d d34f 993d dbf3 9b3d
000000f0: 2f92 643d 3a3e e03c a52a 633d 7364 833d
00000100: cda7 cd3d 5f90 003c f07b b33c 1c65 f83c
00000110: 63e3 053d c722 2c3d 006b 9fbb 1b8e 673c
00000120: bd14 1a3d 43ac 0e3c 8aa3 403c 1612 63bd
00000130: aad4 9cbc 4a6a e7bc c765 00bd 9669 23bd
00000140: 5872 ccbc 6e8c f5bb 1b79 22bd 8c46 443c
00000150: a33d 143d 057e 39bc 3667 8ebc f1f6 97bc
00000160: 97ed 323c 1f06 17bd f819 31bc 0787 23bd
00000170: 1025 d3bb 7b6c 29bc f851 54bc e3b5 5fbd
00000180: f129 9fbd 34f4 bfbb fd24 8abc 6b44 8cbd
00000190: c0de 1bbe b1f4 93bd 7d12 eebc 2097 813b
000001a0: baa5 ea3c d15f d0bd 1343 58bd c489 0dbd
000001b0: 238c f63c 0aa9 823d 54c2 89bd 97c3 ffbc
000001c0: bba2 cfbc 0a63 a73c 5efe 623d 9cc6 9dbd
000001d0: d066 46bd 1449 97bc f230 783d 5928 cc3d
000001e0: 6c51 48bd f7e1 8bbd f8cf bbbc aa74 2d3d
000001f0: edbf 6a3d 7595 e5bc d374 023d 8fe9 553d
00000200: 8015 413d ae0b fc3c 58cf a5bd 063b 05bd
00000210: 6157 b83c 22d7 af3c 1754 2ebd 3865 9a3c
00000220: ff0a 0f3b a29c 2c3d 7bb8 8e3d 10e7 40bd
00000230: e269 c2bc 1af8 c33c d3d8 193d 3fb2 65ba
00000240: 60da c1bd 2b0d f7bc 19c2 17bd 13f8 253d
00000250: 456a 833c b751 c6bd 59d3 253c 0982 ab3b
00000260: d18e bd3a 1d16 8c3c 5e32 933c 65f5 773c
00000270: 7267 1a3d 977c 0d3c d474 013d 8b7c f43c
00000280: c929 503c d0c1 7f3a c095 943c 3c62 9cb8
00000290: 828c e3bb 822f 63bc 1e0c 15bc e320 4d3c
000002a0: e1d9 37bc 082d 10bd 8be6 01bd ed7e 95bb
000002b0: b2e1 50bc b0b1 1bbd 9eaa 2abd 1dc5 56bc
000002c0: d26f 483c d807 903c 0544 88bd dd1a 01bd
000002d0: eb2a 39bc eb12 223d 709f 103d 73b7 84bd
000002e0: 93e5 5e3c 5687 983b 192a 813d 3af2 a53d
000002f0: 1ffd 113d cc59 663d d8d8 8ebc f2c4 ea3c
00000300: 46f9 423d 37c8 96bb c088 48bb 9152 9abd
00000310: 3338 04bb 2221 073d dcac b4bc 70c1 3dbd
00000320: b21f f7bb 49e6 fbbc 5805 903c 9676 3e3c
00000330: 8c50 aebc 5b99 753c 5864 12bd 6ab5 b7bc
00000340: 9cee 98bc 87e5 1fbd cf67 51bd 98d3 a1bc
00000350: 91a1 fa3c 3298 4b3d 7146 8f3c f18c e6bd
00000360: 8966 63bd 7128 c8bc be89 9fbb 0ea6 39bd
00000370: 7839 46be 5df0 fcbd bbfd 2fbd eb59 80bc
00000380: 62e6 15bd 1a20 49bd 405d fc3b 525f 9fbc
00000390: 3c3f 6dbc bace b9bd 3dc1 8fbd a2cc a2bd
000003a0: 25c5 83bd 72d8 65bd b81d d4b9 f420 9dbc
000003b0: afb6 55bd 7889 4fbd 926e 053c 9439 843d
000003c0: f6f9 6e3d 8685 093d cdae a73c 1fa7 223d
000003d0: 7a2b d13d 6422 983a 3bdc 5abd 9a1a d9bd
000003e0: e941 94bd 486c 673b 58d6 27be 6a96 23bd
000003f0: 4e07 3cbd da99 c1bc e66e e1bc 3dd7 63bd
0.03172393 -0.049731098 -0.01586912 0.017240712 0.056022644 -0.04901535 -0.0106855035 -0.0033017562
0.008437354 0.022869654 0.044189766 0.026386218 0.009191167 0.002237219 0.007231221 0.019027393
0.0019804814 0.035243463 0.028844204 -0.005939125 -0.05694875 -0.011660474 -0.0056868396 -0.0051898765
0.09385005 -0.08501566 0.003143492 -0.009488382 0.019691518 -0.053636137 -0.06761572 0.01262825
-0.0029879243 -0.0061509823 -0.086297005 0.019929778 0.011083626 0.008629472 0.02173178 -0.052093115
0.06872268 0.048399176 0.042129066 0.054341264 -0.006064164 0.08951035 0.09113724 0.045828138
0.05363621 0.036000162 -0.0016696193 0.042124063 0.04804655 0.070697255 0.10488221 0.01285516
0.0432784 0.07462886 0.074859284 0.07614871 0.055803474 0.027373422 0.05546059 0.064156435
0.10041771 0.007846921 0.021909684 0.03032165 0.032687556 0.042025354 -0.0048650503 0.014133002
0.037617434 0.008708063 0.011757741 -0.05543717 -0.019144375 -0.028248925 -0.031347062 -0.039895616
-0.024956867 -0.007493547 -0.039666276 0.01197971 0.036191594 -0.011321549 -0.0173832 -0.018550368
0.010920904 -0.036871072 -0.010809414 -0.039923694 -0.006443627 -0.010340805 -0.012958996 -0.05461682
-0.077716716 -0.0058579687 -0.01686334 -0.06848987 -0.15221691 -0.072244056 -0.02906155 0.003954783
0.028643478 -0.101745255 -0.052798342 -0.03455521 0.03009612 0.06379898 -0.06726518 -0.031221194
-0.02534615 0.020432968 0.055418365 -0.07703897 -0.048437893 -0.018467464 0.060593553 0.09968633
-0.048905775 -0.06830209 -0.022926316 0.042347588 0.05731194 -0.028025368 0.031849694 0.052224692
0.047139645 0.030767288 -0.08096188 -0.032526992 0.022502603 0.021464888 -0.042560663 0.018847093
0.0021826623 0.042141564 0.069687806 -0.04709536 -0.02373213 0.023922015 0.037560295 -0.00087622175
-0.0946548 -0.030157646 -0.03705034 0.040519785 0.016041884 -0.096835546 0.01012119 0.0052340073
0.0014462118 0.017100388 0.017968353 0.01513419 0.03769631 0.008635662 0.031605557 0.029844543
0.012705275 0.00097563583 0.018137813 -7.456957e-05 -0.00694424 -0.013866307 -0.009097127 0.012520048
-0.01122138 -0.035199195 -0.031714004 -0.00456225 -0.012749122 -0.038011253 -0.04166662 -0.013108519
0.012233691 0.017581865 -0.06653599 -0.03151976 -0.011301736 0.039568823 0.0353083 -0.06480303
0.013604539 0.004654805 0.063068576 0.08102842 0.035641786 0.05623798 -0.017437384 0.028658364
0.047601007 -0.004601504 -0.0030599087 -0.075352795 -0.00201751 0.032990582 -0.022055082 -0.046327055
-0.00754162 -0.030749457 0.017580673 0.011624953 -0.021278642 0.014990176 -0.035740227 -0.022425372
-0.018668465 -0.039037254 -0.05112439 -0.019754216 0.030594619 0.04970569 0.017489644 -0.11257351
-0.055517707 -0.024433346 -0.004868715 -0.045324378 -0.1935786 -0.12350533 -0.042966586 -0.015667876
-0.036596663 -0.04910288 0.007701546 -0.019454632 -0.014480408 -0.09072633 -0.07019279 -0.07949187
-0.06434087 -0.05611462 -0.00040457933 -0.019180752 -0.052176174 -0.05066821 0.008144038 0.06456295
0.05834385 0.033574603 0.020469094 0.03971016 0.102133706 0.0011606929 -0.053432684 -0.10600777
-0.07239134 0.0035312343 -0.1639036 -0.039938368 -0.045905404 -0.023632932 -0.0275187 -0.05562519

features.7.bias f4 [120]
00000000: d322 003d ec86 0d3e 06ee 9e3d 488e 3f3e
00000010: 1020 b5ba bd28 aebb e76f c53d 1b59 733c
00000020: 9ee9 963d 5db3 70bc 95e5 8f3c 00fa 8abc
00000030: f3e9 d2bc 0bef debd 5a8a 2e3e b054 de3d
00000040: 229b 143d d9d6 e9bc 3c78 523b f172 f03d
00000050: 5950 493c f049 9f3c 3629 35bd 2481 8d3b
00000060: 09e8 383d 0131 ea3b 31a2 0a3c 26de 4b3d
00000070: 68e3 0d3c 3fc2 aa3d 3bc5 a0be f65c df3c
00000080: 0215 703d 4451 f9bc 297c 723d ddc9 973d
00000090: cdc5 ee3d 7c35 d13a 7692 c2bd 4848 363d
000000a0: 80ca daba 0835 503d 90dd 94be 86fc 033d
000000b0: aff0 1b3b e7c5 c53a acc7 2c3b c045 72bc
000000c0: bc0b c23b 6903 2f3c 62ec 003d 2093 28bc
000000d0: 2ebd c93c b901 293c dbe1 77bd 9c46 8dbd
000000e0: 3962 34bc ec1a 91bb 1927 103b 70f4 b43d
000000f0: 4a93 23b9 9f60 14bc fb7b 73bb c497 003d
00000100: d8bf b83b 4713 d9bd 612d 99bd d90b aa3d
00000110: abb9 183c e24c 0c3c 0cd5 493d 99ec f43c
00000120: 4e45 0abc 8328 993c 2811 da3d ab8d 993c
00000130: df0c ce3d 3069 eb3c 6538 253e 1168 c0bc
00000140: fc8e 523d a88f ebbd a681 1abd 74fc ad3d
00000150: e9a2 c13b a188 993c dea3 343d a5ff 133d
00000160: 7ea8 c63c 2bcd fa3c 2bac fcbd 6a6b 3b3d
00000170: 8055 a83d 9eb3 d33b 29e6 bd3a bcdc b03d
00000180: 1395 ad3d 8258 9fba 1b14 06be bb62 b33b
00000190: 35f2 e7bb 210b a43c 0b56 813b aee8 2b3d
000001a0: e3e1 62be f25f 87bd 3ebd 42bd 1e02 003d
000001b0: a49a 7e3d 81ab 8b3d ed4d 43bd b4e1 0d3e
000001c0: 5da5 de3b d211 363d 21cc 163d def9 a4bc
000001d0: 583c 89bc 4e6a 373d 08a8 593c 826c 98b9
0.03128321 0.13821 0.07760243 0.1870662 -0.001381876 -0.005314915 0.09640484 0.014852787
0.07368778 -0.014691201 0.017565528 -0.016964912 -0.025746321 -0.108854376 0.17044964 0.108559966
0.03628076 -0.02854483 0.0032115122 0.11740673 0.012287223 0.019444436 -0.044228755 0.0043183733
0.04514316 0.007146955 0.008461521 0.049772404 0.008660175 0.08337831 -0.31400475 0.027266007
0.058613785 -0.030434258 0.05920044 0.07411549 0.11658821 0.0015961374 -0.095005915 0.044502527
-0.001669243 0.050831825 -0.2907529 0.032223247 0.0023794582 0.0015088887 0.002636413 -0.0147871375
0.005921809 0.010681965 0.031475432 -0.010288984 0.02462634 0.010315352 -0.060518127 -0.06898233
-0.011009746 -0.004428258 0.002199596 0.08835685 -0.00015599761 -0.009056239 -0.0037152756 0.031394735
0.005638104 -0.1059938 -0.074793585 0.08303041 0.00932161 0.008563252 0.049275443 0.029897975
-0.008439375 0.018696075 0.106478035 0.01874431 0.10061049 0.02873668 0.16134794 -0.023487123
0.05140589 -0.1150201 -0.0377213 0.08495417 0.005909313 0.018741908 0.04410159 0.036132473
0.024250265 0.03061541 -0.12337526 0.045756735 0.08219433 0.006460621 0.0014488149 0.08635852
0.08475699 -0.0012157115 -0.13093607 0.005474416 -0.007078434 0.020024838 0.0039470247 0.041969948
-0.22156481 -0.06610097 -0.047543757 0.03125202 0.062159196 0.06819821 -0.047681738 0.1385563
0.006794615 0.04445059 0.036815766 -0.020138677 -0.016752407 0.044779114 0.013284691 -0.00029072544

features.9.weight f4 [84, 120]
00000000: 506f 91bd 3373 51bd 4077 9f3d d0d7 583d
00000010: 2e4e c639 8edf a33c 920a 28bd efaf 8ebd
00000020: f029 8a3d 58f2 bb3b 4702 d53d d7e1 e6bd
00000030: fa97 3c3d 4689 d6bc 8076 28bd 71e0 fe3c
00000040: 2e47 ddbb fc83 893c 8cb2 f2b9 ea01 e23d
00000050: a96b 91bc d22c 643c e7bb 1bbd 51d9 37bd
00000060: 1c46 fbbc 036f 323b 208d 953c f1af f23c
00000070: a148 4abb f3aa d7bc a0ed 3cbd cf99 c13d
00000080: 284e 323d 6951 fd3c e3a8 21bd 3b50 09bd
00000090: a6f9 c43c 0d9f 423d 4530 573d b067 46bd
000000a0: 0202 8f39 1c28 fabd f44e 37bd 0a49 1c3d
000000b0: c45d 1a3d 88d0 ec3b 0c95 3ebc e387 733b
000000c0: a039 82bc 7bd9 25bb 2c70 1ebd 99ab 21bb
000000d0: c1e4 aabb 6ffc f33c 20c6 c2bd 92f4 03bd
000000e0: 60ae 5abd 9d35 20bb f3a2 be3a a70e 983d
000000f0: e62e 083c f6c1 253d 1c12 cbbc 9763 86bc
00000100: e4e4 2cbd 1333 00be f4ed cabd bd0f 373e
00000110: 3d70 633d f875 9d3d cd26 35bc 6257 b63b
00000120: c468 2f3d 22a1 bbbc af9c bbbc 5349 823d
00000130: 4411 c33d 155a fa3d 0e15 6c3d ebb6 c23d
00000140: 1978 f83d f6d9 dcbd fce7 c1bd 51d6 c23d
00000150: c314 693d df09 b53c 4192 a03b 181f 373d
00000160: 8d25 b73c 9e0d ceba acfa bbbd 0cc5 22bd
00000170: 7f1a 76bd 7dbe a53c 3376 6f3d 3dcf 8cbc
00000180: bc75 a63d af62 973c 518e 8cbd d582 c8bc
00000190: 9f8f 683c 73bd 73bd 8b69 98bd 2069 a93a
000001a0: eed0 103e f1c3 87bd 57fc a5bd 2468 10bd
000001b0: d48d e93d 98d2 543d b6e4 26bd 1dfe b1bc
000001c0: a922 a9bc 7ab3 623d 1bf3 6d3d baab 87bd
000001d0: ea1a 2dbc cd08 09bc 85b8 96bd e2e5 1c3c
000001e0: b7f9 b93c edc7 b3bc 4fee a6bb 8f4e 77bb
000001f0: 7415 a0ba 7941 0dbc ae5c a9bc a34e 003d
00000200: 4746 713c 644f a83c 9af9 9cbc 7d5e 143d
00000210: 9184 a2bb 0666 83bc e07d 49bc 1358 62bc
00000220: 2d32 efba 2d96 7b3c 6943 37bc c343 e33b
00000230: 4247 edbb 34c2 aabc 5857 423b 0c75 ed3c
00000240: 3bc9 673c 8962 b6b9 a9e0 333b 8a1d 1cbc
00000250: de2f c73b 6d60 cfba 44c2 5abb fc65 d9bb
00000260: 1fd5 23bc 077f eabc 8177 8c3c 5294 da3b
00000270: cc46 a43c c979 79bc a83c 3dbd 6b7f cfbc
00000280: e013 c33b d102 b73c bdf2 20bd c07c c7bb
00000290: ee53 ceba 4a95 b33b 8830 94bc 05c6 a5bc
000002a0: dca8 64bb 8a59 a93c 8c7a 973c 3979 ee3c
000002b0: 6863 373b cf84 efbb 3162 e53c aff6 ccbb
000002c0: 6a1f 603c 920c 603c 5328 d03c 902a cdbc
000002d0: 4644 a9bb 457a 4bbc a5d6 e03c ccd7 c4bb
000002e0: e245 c0bc 00f2 c13b 6803 61bb 2741 4abc
000002f0: c370 8fbc 6377 09bc f718 513c 3550 253b
00000300: 035f 87bc 154d 13bb dd69 b73b 878a 68bc
00000310: 6544 01bd c836 1dbc d285 6fbc b68e 5cbc
00000320: 1d3e 46bb 6314 213d f417 563c 1fb9 d23c
00000330: ebe4 ff3b e5b4 93bc 39eb 49ba 2bae a6bc
00000340: 0c16 4cbb d4a5 843b f4e2 e7bc e51d 2c3d
00000350: dfad 823c bc71 afbb 95e0 ac3a a7aa c63c
00000360: 9b20 313b 5c4d 2dbc 9566 6cbd 5a9f 6f3c
00000370: c933 e13b 9dc9 ca3b bea9 a13c 07ea 04bc
00000380: 44a7 09bc a7f3 273d 5a0f 0b3c e2cb bc3c
00000390: b8a6 9ebc 90cb 5b3b ac7e d63b 185d 96bb
000003a0: a541 3d3c 47f2 e63b e6ce fabc f8df 0b3d
000003b0: b3f8 593c 9875 7ebc 0e84 163c 5e2f 3fbc
000003c0: 7fcc 843c b1d4 d93d 819a 3d3e c6e5 703d
000003d0: 0c2d 38bd 2e03 d83c 5838 e43d 1cd0 7abc
000003e0: b853 81bd 244e 853d 931c a7bc f18d 3fbd
000003f0: d852 85bd 3641 f4bc d345 2f3d 17c2 4c3d
-0.07101309 -0.051135253 0.07786417 0.05294019 0.0003782375 0.02000406 -0.041025706 -0.069671504
0.0674628 0.0057356767 0.10400825 -0.11273544 0.046043374 -0.026188504 -0.041128635 0.031112881
-0.00675287 0.016786568 -0.00046290865 0.11035521 -0.017751532 0.013926702 -0.038020995 -0.044884983
-0.03067308 0.0027226813 0.01825577 0.029624911 -0.0030866044 -0.026326632 -0.046125054 0.09453165
0.043531567 0.030922608 -0.039467704 -0.03352378 0.024044823 0.047514964 0.052536268 -0.048438728
0.0002727658 -0.122146815 -0.04475303 0.038155593 0.037687078 0.0072270073 -0.011632215 0.0037159852
-0.015896618 -0.002530663 -0.038681194 -0.002466893 -0.005215258 0.029783456 -0.095104456 -0.032215662
-0.053388953 -0.0024446019 0.0014544412 0.0742467 0.008311963 0.04046818 -0.024788909 -0.01640491
-0.042210475 -0.12519483 -0.09908667 0.17877097 0.05552696 0.076885164 -0.011056614 0.005564616
0.04282452 -0.022903983 -0.022901861 0.06361642 0.095247775 0.12224213 0.057637267 0.09507545
0.12132282 -0.1078376 -0.09468076 0.09513534 0.056904566 0.022099433 0.0049002473 0.044707388
0.022356773 -0.0015720611 -0.09178671 -0.0397387 -0.060083862 0.020232433 0.058462333 -0.017188663
0.08127925 0.018479673 -0.06863082 -0.024476448 0.014194398 -0.059506845 -0.07442006 0.0012925006
0.141422 -0.0662917 -0.08104771 -0.035255566 0.11404005 0.05195865 -0.04074546 -0.021727616
-0.02064641 0.055346943 0.05809317 -0.06624551 -0.010565499 -0.008363915 -0.07359413 0.009576293
0.022702081 -0.021945918 -0.0050943266 -0.0037736034 -0.0012213425 -0.008621567 -0.020674076 0.031324994
0.014726228 0.020545669 -0.019161988 0.036222924 -0.004959651 -0.01603986 -0.012298077 -0.013814944
-0.0018249206 0.015355629 -0.011185505 0.006935568 -0.0072411606 -0.020844556 0.0029654112 0.028986476
0.014147098 -0.0003478716 0.002744714 -0.009528527 0.0060787043 -0.0015821584 -0.0033379951 -0.006634472
-0.0099995425 -0.028625024 0.017146828 0.006670513 0.02005329 -0.01522679 -0.046200424 -0.025329312
0.005953297 0.02234021 -0.039293993 -0.0060878694 -0.0015741566 0.005480443 -0.018089548 -0.020236025
-0.0034890687 0.020672578 0.018491052 0.029110538 0.0027982835 -0.007309533 0.028000923 -0.006254993
0.013679365 0.013674872 0.025409853 -0.02504471 -0.0051656095 -0.012419288 0.0274461 -0.0060071703
-0.023470823 0.005918741 -0.0034334306 -0.012344635 -0.017509824 -0.00839028 0.0127623 0.002522481
-0.016524797 -0.0022476364 0.0055973367 -0.014193184 -0.031559367 -0.00959558 -0.014619308 -0.013461759
-0.0030249425 0.039326083 0.013067234 0.025723038 0.0078092716 -0.018030593 -0.00077025924 -0.020346722
-0.003114107 0.0040480886 -0.028306462 0.042020697 0.015952049 -0.0053541344 0.0013189489 0.024251295
0.002702749 -0.010577526 -0.057715017 0.014625395 0.0068726283 0.006188585 0.01973426 -0.008112437
-0.008401696 0.04100385 0.008487547 0.023046438 -0.019366607 0.003353808 0.006545862 -0.0045887344
0.011551295 0.0070479247 -0.030616235 0.03414914 0.013303923 -0.015530966 0.009186758 -0.011669008
0.016210793 0.10636271 0.1851597 0.05881288 -0.044964835 0.026368704 0.11143559 -0.015308406
-0.06314796 0.06509045 -0.020399367 -0.046766225 -0.06509942 -0.029816251 0.0427912 0.049989786

features.9.bias f4 [84]
00000000: cfb5 853e 94ac c63c 6a2b 823d 07c2 efbb
00000010: 75d3 02bb ceb8 6e3e d6d6 6ebd 5fe3 1a3e
00000020: 65ca 56bb 933c af3d ac58 4b3e ea7b 08bd
00000030: 1467 483e 6a28 7c3e 4c15 f93b f050 173e
00000040: a4cd 1a3e 7712 243a 86f2 9a3d 82eb f6bd
00000050: 39aa 03bd 7d83 823d ea1f 9dbd 5f79 263e
00000060: f184 8dbb ae16 b0bb 5765 a1bb b96e 8739
00000070: 3724 d63b e3e3 68bc a864 aebb 7e4b 1fbc
00000080: 0d11 173e f671 ba3b 1251 383b 38dc b23d
00000090: 8938 4cbd ce0f 463d 7fe9 bc3c 076e 1dbc
000000a0: 36c9 10bd c441 3f3d be44 0f3e 5281 833d
000000b0: 229d 75bd ce19 3cbd 4705 88bb 1a3a 17bc
000000c0: f4bd 34bc d2dc 3d3e a013 a93e 4705 ef3d
000000d0: 0fd1 363b fc49 2c3e 20ed 13bc 4838 4bbb
000000e0: 8594 1ebc 56c6 f73d 4e9b 5a3d 4640 ee3e
000000f0: 9af9 19bd 8818 9a3c 0433 9ebd faad 813c
00000100: 4b6e 633d f08e 453e 5c9e 893a 41d9 873e
00000110: 4441 423e f4c2 87bd ee55 9eba 263e 343e
00000120: 0838 d33d d6a3 453d 5f4d bdbb 5b65 133d
00000130: 5207 4ebd 6380 00bd e789 2e3d a596 393e
00000140: 3d57 c6bd bf28 a83e b68b 993d 4c21 693a
0.2611527 0.024252214 0.06355937 -0.007316831 -0.0019962464 0.23312685 -0.058310352 0.15125798
-0.0032774445 0.085564755 0.19858044 -0.0333213 0.19570571 0.24624792 0.0076014157 0.14776969
0.15117508 0.0006258855 0.07565789 -0.12056638 -0.03214476 0.06372736 -0.07672103 0.16257237
-0.0043188264 -0.0053737974 -0.0049254107 0.000258317 0.006535079 -0.014214489 -0.0053220578 -0.009722589
0.14752598 0.0056898547 0.0028124494 0.0873341 -0.049858604 0.048354916 0.023060558 -0.009608752
-0.03534814 0.04669358 0.13991067 0.0642115 -0.059964307 -0.045923047 -0.0041510197 -0.009230161
-0.0110316165 0.18541268 0.33022785 0.116709284 0.0027895605 0.16825098 -0.009028703 -0.0031008888
-0.0096789645 0.120983765 0.053370766 0.46533412 -0.037591554 0.018810526 -0.07724574 0.015830029
0.055525105 0.19292808 0.0010499465 0.2653294 0.1897021 -0.06628981 -0.0012080052 0.17601833
0.103134215 0.04825195 -0.0057770456 0.035985332 -0.05029995 -0.03137244 0.042611983 0.18123873
-0.09684608 0.32843587 0.07497351 0.0008893206

classifiers.0.weight f4 [5, 84]
00000000: d811 a0be 6ce0 5b3d 0dca f7bd 4b11 a73b
00000010: 09d5 ca3c a75a 00bd 1975 67bd 29fb d9bd
00000020: 5dc0 08bd d61a dfbd 0ee8 67be 2720 e53d
00000030: 2d40 bb3d 5119 44be 062d efbc 6b04 b1bd
00000040: 71a4 c0bc b557 a63b e8ed 883e 160c 583e
00000050: aa32 643e e206 cdbd e5cb 263d c6d7 eb3c
00000060: 4ec8 873c eb85 593e 5080 92bd 02ea 6a3c
00000070: f3e9 273c 26e8 7e3b 19c4 043b 539f 7fbc
00000080: f033 833e 15ec cfbc 2627 53bb 7bce 323d
00000090: 8be5 033e b42a 8bbd 710e 2f3c 804a daba
000000a0: 0157 663d 5f8b 703d b186 97bc c0e3 e43d
000000b0: b7ff 033e f460 0e3e fde5 cb3b b384 9e3a
000000c0: 2dc4 083e 0c15 17bd 5895 3ebd 6df1 e53d
000000d0: 25a6 c3bc e3ed a83d 8a05 073c 94be a93b
000000e0: 4d87 f1bd 2a33 a43c c076 fabc 8da5 c9bd
000000f0: c300 b13d 97d9 7fbd a9cb 3c3d 2404 803c
00000100: c49c 8fbd 946b 813d 0fe2 b53c feca 2b3e
00000110: 8725 7d3e 9dd4 763e df9c 2dbb 3cc4 343e
00000120: 48e3 d73d 07c2 1dbe 6f82 a6bc 3a3b 2f3e
00000130: 7b69 eb3d 1ded d6bd 740c f4bd 37fa 763d
00000140: 9caf 033e 63b6 823c 690a 36bd 85df 8f3c
00000150: 21bb a93d 31d9 34bb b834 813e e212 cf3c
00000160: cc16 8bbc 14fb b6bd 12c8 f53d 559f 46bc
00000170: f0e0 933b 9380 d43c 5c76 04be 9114 87bd
00000180: c757 56be 0aed 323e efde 8abc bf27 6bbd
00000190: a907 d1bd 85e9 edbb c41b 1fbe bc68 173c
000001a0: 2572 a9bc 1eea b63c bdf3 813e ef39 c43d
000001b0: 9d04 a3bb fc4a 45bd 314c b8bc cc16 fabb
000001c0: 3b70 003c f914 25bb 82b6 38bc bea1 e53b
000001d0: 31e1 c03d 8cef 97bc e1df dabb 17ae 9bbd
000001e0: 6b44 173e 8aa4 e9bd 0e3d 1c3d 48ce 803c
000001f0: 65db 0dbe 300e c0bd 80ec 363e b574 9fbd
00000200: 5f9d 90bd 89ab bebc 646f 42bc 7eac 83ba
00000210: 1a05 ccbc c6b0 5cbe 23e4 153d c105 2abe
00000220: 2235 223a 3e2c ab3d 27e1 1cbc 2980 513b
00000230: 6b74 6f3d e485 0a3e e6a8 fbba 6055 07be
00000240: aa1a e93d 92d8 ff3c 184a 713d c312 84bd
00000250: dc17 8e3e 4612 09be 20c7 553a 4493 e7bc
00000260: d5c2 87bd 0e00 2cbe 35cb a3bb 908d 1d3e
00000270: 4998 083e bfa1 753d 3bda e03b 6ac6 59be
00000280: 50ac d23d 4de7 823e a018 d33d 5a44 68be
00000290: b6bb 963d 9008 88be 5436 28bc 682c 03be
000002a0: 2f27 b23d 4bde b3bd c048 2ebc dd3d 45bc
000002b0: 518a b3bb 18e5 71be 689f 103e 8cbb c53d
000002c0: 4011 253d 45dc c6bd b3b9 e83d 823c 0a3e
000002d0: 09e1 28be 55d0 28be daa6 e83c 1546 98bd
000002e0: 7c7a f63c a5e6 f6bb c7fa 8e3b c63f 4b3e
000002f0: 10ee 3a3e fd9d c6bc 0de9 493e f437 ec3d
00000300: 6eef 753c 1b39 05be 4605 f73d 56d2 83bc
00000310: ac27 23bd b07c c93a 17f3 96bc 6362 7d3c
00000320: 3f77 3abe 3781 0b3b 5ae0 3d3d 80a5 4ebd
00000330: 08dc 033e 1f6d 303e 0a95 a2bc d2ac 803b
00000340: af2f d43d 640f 13bd 8f5d 283e 31ee eebd
00000350: a848 0a3e db8d 4f3c 2370 39bb 2266 133d
00000360: 4e33 55bd 874f e03d 8b6a 0abe db79 27bd
00000370: d7fa 943d 207e 95bd 6c24 fd3a 6f24 203c
00000380: 4439 e33d ccc1 f03d 14c1 b0bc 120d 56be
00000390: 8a05 933e 594c 9ebc 0463 263e 05f4 903d
000003a0: f1fe ce3d 43c7 d9ba 4515 7fbc 27f5 b4bd
000003b0: 58bc 32be 1a5d 663d 4e34 ddba 6d99 52be
000003c0: e750 f1bb bc21 703e a251 273d af9c c63c
000003d0: 0d92 2b3e 8e29 ff3d 6e0e 913c 11ad 7f3d
000003e0: cfd0 263e b435 44bd b2b1 583b a5ad 873e
000003f0: 3039 abbd eefc 443c 4ecd 443d e6f6 813a
-0.31263614 0.053680822 -0.12099085 0.005098497 0.024759786 -0.031336453 -0.056508157 -0.10643608
-0.033386577 -0.108937904 -0.22647116 0.11187773 0.091431 -0.19150282 -0.029196274 -0.08643421
-0.023515912 0.0050763735 0.26744008 0.2109836 0.22284952 -0.100110784 0.040721793 0.028789412
0.016575005 0.21242492 -0.0715338 0.014338018 0.010248649 0.0038895695 0.0020258485 -0.015601951
0.25625563 -0.025381127 -0.003221938 0.043653946 0.12880532 -0.06795254 0.010684595 -0.0016654283
0.056235317 0.058726665 -0.018496843 0.11176252 0.12890516 0.13904172 0.006222485 0.0012093991
0.13356085 -0.036885306 -0.046529144 0.11227689 -0.023882935 0.08248498 0.008241067 0.0051801894
-0.11793385 0.020043928 -0.030574203 -0.098460294 0.086427234 -0.06246337 0.046092663 0.015626974
-0.070123225 0.06319347 0.02220252 0.16776654 0.24721347 0.24104543 -0.0026491208 0.17652982
0.10541397 -0.15406047 -0.020325867 0.17112437 0.11494728 -0.104944445 -0.11916438 0.060297217
0.12859958 0.01595611 -0.04444352 0.017562637 0.08287645 -0.0027595276 0.25235534 0.025277559
-0.016978644 -0.08934608 0.12001051 -0.012122949 0.0045128986 0.025940215 -0.12935776 -0.065957196
-0.20931922 0.17473236 -0.016952006 -0.05741095 -0.10206539 -0.0072605037 -0.15537935 0.009241279
-0.020684311 0.022328433 0.2538127 0.095813625 -0.004974915 -0.048167214 -0.022497268 -0.007632112
0.007839258 -0.0025189503 -0.011273982 0.0070078066 0.09417952 -0.018546842 -0.0066795205 -0.076015644
0.14772193 -0.114083365 0.038144164 0.015723363 -0.13853224 -0.09377706 0.17863655 -0.07785932
-0.07061266 -0.023275154 -0.011867378 -0.0010045914 -0.024904776 -0.21551809 0.03659452 -0.16603757
0.0006187727 0.08358048 -0.009575165 0.0031967259 0.058460634 0.13527638 -0.0019200116 -0.13216162
0.11382039 0.031231198 0.058908552 -0.06448891 0.27752578 -0.13385877 0.0008154977 -0.028268464
-0.06628958 -0.16796896 -0.0049985894 0.15386033 0.13339342 0.059968706 0.0068619526 -0.21267095
0.10286772 0.25567093 0.10307431 -0.22682324 0.07360022 -0.26569033 -0.010266859 -0.12809908
0.0869888 -0.087826334 -0.010637462 -0.012038675 -0.005479135 -0.23622549 0.14123309 0.09654912
0.040299654 -0.09709982 0.11363544 0.13499644 -0.16492094 -0.16485722 0.028399874 -0.07435242
0.030087702 -0.007534819 0.004363391 0.19848546 0.18254876 -0.024245257 0.19717808 0.1153411
0.015010698 -0.13010065 0.12061553 -0.016091507 -0.039832756 0.0015372243 -0.018426461 0.015465352
-0.18209551 0.0021286735 0.046356536 -0.0504508 0.12876904 0.17229126 -0.019846458 0.003926852
0.103606574 -0.03590335 0.1644194 -0.11666525 0.13504279 0.012668098 -0.0028295598 0.035986073
-0.05205088 0.10952669 -0.13517205 -0.040887695 0.072744064 -0.07299447 0.0019313223 0.009774311
0.11094907 0.11755714 -0.021576442 -0.20903423 0.28715163 -0.019323515 0.16248709 0.07077793
0.1010722 -0.0016615171 -0.015569036 -0.088358216 -0.1745466 0.056241132 -0.001687655 -0.2056634
-0.0073643806 0.23450369 0.040849335 0.024244634 0.16754933 0.12459098 0.017707076 0.06242091
0.16290592 -0.047902778 0.00330649 0.26499668 -0.08360517 0.012023194 0.048047356 0.00099155

classifiers.0.bias f4 [5]
00000000: 63f8 91be f1f7 f9bd 9b18 1fbf 5302 a13e
00000010: 9fd2 363f
-0.28509817 -0.12205494 -0.6214692 0.31447086 0.7141513

classifier.weight f4 [5, 84]
00000000: d811 a0be 6ce0 5b3d 0dca f7bd 4b11 a73b
00000010: 09d5 ca3c a75a 00bd 1975 67bd 29fb d9bd
00000020: 5dc0 08bd d61a dfbd 0ee8 67be 2720 e53d
00000030: 2d40 bb3d 5119 44be 062d efbc 6b04 b1bd
00000040: 71a4 c0bc b557 a63b e8ed 883e 160c 583e
00000050: aa32 643e e206 cdbd e5cb 263d c6d7 eb3c
00000060: 4ec8 873c eb85 593e 5080 92bd 02ea 6a3c
00000070: f3e9 273c 26e8 7e3b 19c4 043b 539f 7fbc
00000080: f033 833e 15ec cfbc 2627 53bb 7bce 323d
00000090: 8be5 033e b42a 8bbd 710e 2f3c 804a daba
000000a0: 0157 663d 5f8b 703d b186 97bc c0e3 e43d
000000b0: b7ff 033e f460 0e3e fde5 cb3b b384 9e3a
000000c0: 2dc4 083e 0c15 17bd 5895 3ebd 6df1 e53d
000000d0: 25a6 c3bc e3ed a83d 8a05 073c 94be a93b
000000e0: 4d87 f1bd 2a33 a43c c076 fabc 8da5 c9bd
000000f0: c300 b13d 97d9 7fbd a9cb 3c3d 2404 803c
00000100: c49c 8fbd 946b 813d 0fe2 b53c feca 2b3e
00000110: 8725 7d3e 9dd4 763e df9c 2dbb 3cc4 343e
00000120: 48e3 d73d 07c2 1dbe 6f82 a6bc 3a3b 2f3e
00000130: 7b69 eb3d 1ded d6bd 740c f4bd 37fa 763d
00000140: 9caf 033e 63b6 823c 690a 36bd 85df 8f3c
00000150: 21bb a93d 31d9 34bb b834 813e e212 cf3c
00000160: cc16 8bbc 14fb b6bd 12c8 f53d 559f 46bc
00000170: f0e0 933b 9380 d43c 5c76 04be 9114 87bd
00000180: c757 56be 0aed 323e efde 8abc bf27 6bbd
00000190: a907 d1bd 85e9 edbb c41b 1fbe bc68 173c
000001a0: 2572 a9bc 1eea b63c bdf3 813e ef39 c43d
000001b0: 9d04 a3bb fc4a 45bd 314c b8bc cc16 fabb
000001c0: 3b70 003c f914 25bb 82b6 38bc bea1 e53b
000001d0: 31e1 c03d 8cef 97bc e1df dabb 17ae 9bbd
000001e0: 6b44 173e 8aa4 e9bd 0e3d 1c3d 48ce 803c
000001f0: 65db 0dbe 300e c0bd 80ec 363e b574 9fbd
00000200: 5f9d 90bd 89ab bebc 646f 42bc 7eac 83ba
00000210: 1a05 ccbc c6b0 5cbe 23e4 153d c105 2abe
00000220: 2235 223a 3e2c ab3d 27e1 1cbc 2980 513b
00000230: 6b74 6f3d e485 0a3e e6a8 fbba 6055 07be
00000240: aa1a e93d 92d8 ff3c 184a 713d c312 84bd
00000250: dc17 8e3e 4612 09be 20c7 553a 4493 e7bc
00000260: d5c2 87bd 0e00 2cbe 35cb a3bb 908d 1d3e
00000270: 4998 083e bfa1 753d 3bda e03b 6ac6 59be
00000280: 50ac d23d 4de7 823e a018 d33d 5a44 68be
00000290: b6bb 963d 9008 88be 5436 28bc 682c 03be
000002a0: 2f27 b23d 4bde b3bd c048 2ebc dd3d 45bc
000002b0: 518a b3bb 18e5 71be 689f 103e 8cbb c53d
000002c0: 4011 253d 45dc c6bd b3b9 e83d 823c 0a3e
000002d0: 09e1 28be 55d0 28be daa6 e83c 1546 98bd
000002e0: 7c7a f63c a5e6 f6bb c7fa 8e3b c63f 4b3e
000002f0: 10ee 3a3e fd9d c6bc 0de9 493e f437 ec3d
00000300: 6eef 753c 1b39 05be 4605 f73d 56d2 83bc
00000310: ac27 23bd b07c c93a 17f3 96bc 6362 7d3c
00000320: 3f77 3abe 3781 0b3b 5ae0 3d3d 80a5 4ebd
00000330: 08dc 033e 1f6d 303e 0a95 a2bc d2ac 803b
00000340: af2f d43d 640f 13bd 8f5d 283e 31ee eebd
00000350: a848 0a3e db8d 4f3c 2370 39bb 2266 133d
00000360: 4e33 55bd 874f e03d 8b6a 0abe db79 27bd
00000370: d7fa 943d 207e 95bd 6c24 fd3a 6f24 203c
00000380: 4439 e33d ccc1 f03d 14c1 b0bc 120d 56be
00000390: 8a05 933e 594c 9ebc 0463 263e 05f4 903d
000003a0: f1fe ce3d 43c7 d9ba 4515 7fbc 27f5 b4bd
000003b0: 58bc 32be 1a5d 663d 4e34 ddba 6d99 52be
000003c0: e750 f1bb bc21 703e a251 273d af9c c63c
000003d0: 0d92 2b3e 8e29 ff3d 6e0e 913c 11ad 7f3d
000003e0: cfd0 263e b435 44bd b2b1 583b a5ad 873e
000003f0: 3039 abbd eefc 443c 4ecd 443d e6f6 813a
-0.31263614 0.053680822 -0.12099085 0.005098497 0.024759786 -0.031336453 -0.056508157 -0.10643608
-0.033386577 -0.108937904 -0.22647116 0.11187773 0.091431 -0.19150282 -0.029196274 -0.08643421
-0.023515912 0.0050763735 0.26744008 0.2109836 0.22284952 -0.100110784 0.040721793 0.028789412
0.016575005 0.21242492 -0.0715338 0.014338018 0.010248649 0.0038895695 0.0020258485 -0.015601951
0.25625563 -0.025381127 -0.003221938 0.043653946 0.12880532 -0.06795254 0.010684595 -0.0016654283
0.056235317 0.058726665 -0.018496843 0.11176252 0.12890516 0.13904172 0.006222485 0.0012093991
0.13356085 -0.036885306 -0.046529144 0.11227689 -0.023882935 0.08248498 0.008241067 0.0051801894
-0.11793385 0.020043928 -0.030574203 -0.098460294 0.086427234 -0.06246337 0.046092663 0.015626974
-0.070123225 0.06319347 0.02220252 0.16776654 0.24721347 0.24104543 -0.0026491208 0.17652982
0.10541397 -0.15406047 -0.020325867 0.17112437 0.11494728 -0.104944445 -0.11916438 0.060297217
0.12859958 0.01595611 -0.04444352 0.017562637 0.08287645 -0.0027595276 0.25235534 0.025277559
-0.016978644 -0.08934608 0.12001051 -0.012122949 0.0045128986 0.025940215 -0.12935776 -0.065957196
-0.20931922 0.17473236 -0.016952006 -0.05741095 -0.10206539 -0.0072605037 -0.15537935 0.009241279
-0.020684311 0.022328433 0.2538127 0.095813625 -0.004974915 -0.048167214 -0.022497268 -0.007632112
0.007839258 -0.0025189503 -0.011273982 0.0070078066 0.09417952 -0.018546842 -0.0066795205 -0.076015644
0.14772193 -0.114083365 0.038144164 0.015723363 -0.13853224 -0.09377706 0.17863655 -0.07785932
-0.07061266 -0.023275154 -0.011867378 -0.0010045914 -0.024904776 -0.21551809 0.03659452 -0.16603757
0.0006187727 0.08358048 -0.009575165 0.0031967259 0.058460634 0.13527638 -0.0019200116 -0.13216162
0.11382039 0.031231198 0.058908552 -0.06448891 0.27752578 -0.13385877 0.0008154977 -0.028268464
-0.06628958 -0.16796896 -0.0049985894 0.15386033 0.13339342 0.059968706 0.0068619526 -0.21267095
0.10286772 0.25567093 0.10307431 -0.22682324 0.07360022 -0.26569033 -0.010266859 -0.12809908
0.0869888 -0.087826334 -0.010637462 -0.012038675 -0.005479135 -0.23622549 0.14123309 0.09654912
0.040299654 -0.09709982 0.11363544 0.13499644 -0.16492094 -0.16485722 0.028399874 -0.07435242
0.030087702 -0.007534819 0.004363391 0.19848546 0.18254876 -0.024245257 0.19717808 0.1153411
0.015010698 -0.13010065 0.12061553 -0.016091507 -0.039832756 0.0015372243 -0.018426461 0.015465352
-0.18209551 0.0021286735 0.046356536 -0.0504508 0.12876904 0.17229126 -0.019846458 0.003926852
0.103606574 -0.03590335 0.1644194 -0.11666525 0.13504279 0.012668098 -0.0028295598 0.035986073
-0.05205088 0.10952669 -0.13517205 -0.040887695 0.072744064 -0.07299447 0.0019313223 0.009774311
0.11094907 0.11755714 -0.021576442 -0.20903423 0.28715163 -0.019323515 0.16248709 0.07077793
0.1010722 -0.0016615171 -0.015569036 -0.088358216 -0.1745466 0.056241132 -0.001687655 -0.2056634
-0.0073643806 0.23450369 0.040849335 0.024244634 0.16754933 0.12459098 0.017707076 0.06242091
0.16290592 -0.047902778 0.00330649 0.26499668 -0.08360517 0.012023194 0.048047356 0.00099155

classifier.bias f4 [5]
00000000: 63f8 91be f1f7 f9bd 9b18 1fbf 5302 a13e
00000010: 9fd2 363f
-0.28509817 -0.12205494 -0.6214692 0.31447086 0.7141513

features.7 f4 [120]
00000000: d322 003d ec86 0d3e 06ee 9e3d 488e 3f3e
00000010: 1020 b5ba bd28 aebb e76f c53d 1b59 733c
00000020: 9ee9 963d 5db3 70bc 95e5 8f3c 00fa 8abc
00000030: f3e9 d2bc 0bef debd 5a8a 2e3e b054 de3d
00000040: 229b 143d d9d6 e9bc 3c78 523b f172 f03d
00000050: 5950 493c f049 9f3c 3629 35bd 2481 8d3b
00000060: 09e8 383d 0131 ea3b 31a2 0a3c 26de 4b3d
00000070: 68e3 0d3c 3fc2 aa3d 3bc5 a0be f65c df3c
00000080: 0215 703d 4451 f9bc 297c 723d ddc9 973d
00000090: cdc5 ee3d 7c35 d13a 7692 c2bd 4848 363d
000000a0: 80ca daba 0835 503d 90dd 94be 86fc 033d
000000b0: aff0 1b3b e7c5 c53a acc7 2c3b c045 72bc
000000c0: bc0b c23b 6903 2f3c 62ec 003d 2093 28bc
000000d0: 2ebd c93c b901 293c dbe1 77bd 9c46 8dbd
000000e0: 3962 34bc ec1a 91bb 1927 103b 70f4 b43d
000000f0: 4a93 23b9 9f60 14bc fb7b 73bb c497 003d
00000100: d8bf b83b 4713 d9bd 612d 99bd d90b aa3d
00000110: abb9 183c e24c 0c3c 0cd5 493d 99ec f43c
00000120: 4e45 0abc 8328 993c 2811 da3d ab8d 993c
00000130: df0c ce3d 3069 eb3c 6538 253e 1168 c0bc
00000140: fc8e 523d a88f ebbd a681 1abd 74fc ad3d
00000150: e9a2 c13b a188 993c dea3 343d a5ff 133d
00000160: 7ea8 c63c 2bcd fa3c 2bac fcbd 6a6b 3b3d
00000170: 8055 a83d 9eb3 d33b 29e6 bd3a bcdc b03d
00000180: 1395 ad3d 8258 9fba 1b14 06be bb62 b33b
00000190: 35f2 e7bb 210b a43c 0b56 813b aee8 2b3d
000001a0: e3e1 62be f25f 87bd 3ebd 42bd 1e02 003d
000001b0: a49a 7e3d 81ab 8b3d ed4d 43bd b4e1 0d3e
000001c0: 5da5 de3b d211 363d 21cc 163d def9 a4bc
000001d0: 583c 89bc 4e6a 373d 08a8 593c 826c 98b9
0.03128321 0.13821 0.07760243 0.1870662 -0.001381876 -0.005314915 0.09640484 0.014852787
0.07368778 -0.014691201 0.017565528 -0.016964912 -0.025746321 -0.108854376 0.17044964 0.108559966
0.03628076 -0.02854483 0.0032115122 0.11740673 0.012287223 0.019444436 -0.044228755 0.0043183733
0.04514316 0.007146955 0.008461521 0.049772404 0.008660175 0.08337831 -0.31400475 0.027266007
0.058613785 -0.030434258 0.05920044 0.07411549 0.11658821 0.0015961374 -0.095005915 0.044502527
-0.001669243 0.050831825 -0.2907529 0.032223247 0.0023794582 0.0015088887 0.002636413 -0.0147871375
0.005921809 0.010681965 0.031475432 -0.010288984 0.02462634 0.010315352 -0.060518127 -0.06898233
-0.011009746 -0.004428258 0.002199596 0.08835685 -0.00015599761 -0.009056239 -0.0037152756 0.031394735
0.005638104 -0.1059938 -0.074793585 0.08303041 0.00932161 0.008563252 0.049275443 0.029897975
-0.008439375 0.018696075 0.106478035 0.01874431 0.10061049 0.02873668 0.16134794 -0.023487123
0.05140589 -0.1150201 -0.0377213 0.08495417 0.005909313 0.018741908 0.04410159 0.036132473
0.024250265 0.03061541 -0.12337526 0.045756735 0.08219433 0.006460621 0.0014488149 0.08635852
0.08475699 -0.0012157115 -0.13093607 0.005474416 -0.007078434 0.020024838 0.0039470247 0.041969948
-0.22156481 -0.06610097 -0.047543757 0.03125202 0.062159196 0.06819821 -0.047681738 0.1385563
0.006794615 0.04445059 0.036815766 -0.020138677 -0.016752407 0.044779114 0.013284691 -0.00029072544

features.9 f4 [84]
00000000: cfb5 853e 94ac c63c 6a2b 823d 07c2 efbb
00000010: 75d3 02bb ceb8 6e3e d6d6 6ebd 5fe3 1a3e
00000020: 65ca 56bb 933c af3d ac58 4b3e ea7b 08bd
00000030: 1467 483e 6a28 7c3e 4c15 f93b f050 173e
00000040: a4cd 1a3e 7712 243a 86f2 9a3d 82eb f6bd
00000050: 39aa 03bd 7d83 823d ea1f 9dbd 5f79 263e
00000060: f184 8dbb ae16 b0bb 5765 a1bb b96e 8739
00000070: 3724 d63b e3e3 68bc a864 aebb 7e4b 1fbc
00000080: 0d11 173e f671 ba3b 1251 383b 38dc b23d
00000090: 8938 4cbd ce0f 463d 7fe9 bc3c 076e 1dbc
000000a0: 36c9 10bd c441 3f3d be44 0f3e 5281 833d
000000b0: 229d 75bd ce19 3cbd 4705 88bb 1a3a 17bc
000000c0: f4bd 34bc d2dc 3d3e a013 a93e 4705 ef3d
000000d0: 0fd1 363b fc49 2c3e 20ed 13bc 4838 4bbb
000000e0: 8594 1ebc 56c6 f73d 4e9b 5a3d 4640 ee3e
000000f0: 9af9 19bd 8818 9a3c 0433 9ebd faad 813c
00000100: 4b6e 633d f08e 453e 5c9e 893a 41d9 873e
00000110: 4441 423e f4c2 87bd ee55 9eba 263e 343e
00000120: 0838 d33d d6a3 453d 5f4d bdbb 5b65 133d
00000130: 5207 4ebd 6380 00bd e789 2e3d a596 393e
00000140: 3d57 c6bd bf28 a83e b68b 993d 4c21 693a
0.2611527 0.024252214 0.06355937 -0.007316831 -0.0019962464 0.23312685 -0.058310352 0.15125798
-0.0032774445 0.085564755 0.19858044 -0.0333213 0.19570571 0.24624792 0.0076014157 0.14776969
0.15117508 0.0006258855 0.07565789 -0.12056638 -0.03214476 0.06372736 -0.07672103 0.16257237
-0.0043188264 -0.0053737974 -0.0049254107 0.000258317 0.006535079 -0.014214489 -0.0053220578 -0.009722589
0.14752598 0.0056898547 0.0028124494 0.0873341 -0.049858604 0.048354916 0.023060558 -0.009608752
-0.03534814 0.04669358 0.13991067 0.0642115 -0.059964307 -0.045923047 -0.0041510197 -0.009230161
-0.0110316165 0.18541268 0.33022785 0.116709284 0.0027895605 0.16825098 -0.009028703 -0.0031008888
-0.0096789645 0.120983765 0.053370766 0.46533412 -0.037591554 0.018810526 -0.07724574 0.015830029
0.055525105 0.19292808 0.0010499465 0.2653294 0.1897021 -0.06628981 -0.0012080052 0.17601833
0.103134215 0.04825195 -0.0057770456 0.035985332 -0.05029995 -0.03137244 0.042611983 0.18123873
-0.09684608 0.32843587 0.07497351 0.0008893206
