checkpoints_lenet5/CPG_single_scratch_woexp/lenet5/food_containers/gradual_prune/0.9/checkpoint-20.pth.tar (torch, 316557 bytes, 28 tensors)

features.0.weight f4 [6, 3, 5, 5]
00000000: 0000 0000 0000 0000 0000 0000 0000 0000
00000010: 0000 0000 0000 0000 0000 0000 0000 0000
00000020: 0000 0000 0000 0000 0000 0000 0000 0000
00000030: 0000 0000 0000 0000 0000 0000 0000 0000
00000040: 0000 0000 0000 0000 0000 0000 0000 0000
00000050: 0000 0000 0000 0000 0000 0000 0000 0000
00000060: 0000 0000 0000 0000 0000 0000 0000 0000
00000070: 0000 0000 0000 0000 0000 0000 0000 0000
00000080: 0000 0000 0000 0000 0000 0000 0000 0000
00000090: 0000 0000 0000 0000 0000 0000 0000 0000
000000a0: 0000 0000 0000 0000 0000 0000 0000 0000
000000b0: 0000 0000 0000 0000 0000 0000 0000 0000
000000c0: 0000 0000 0000 0000 0000 0000 0000 0000
000000d0: cb90 0fbf 0000 0000 0000 0000 0000 0000
000000e0: 0000 0000 bca0 17bf 0000 0000 0000 0000
000000f0: e716 a6be 0000 0000 0000 0000 0000 0000
00000100: 0000 0000 0000 0000 0000 0000 0000 0000
00000110: 0000 0000 4b11 113f 0000 0000 0000 0000
00000120: 0000 0000 0000 0000 a667 3f3f 0000 0000
00000130: 0000 0000 0000 0000 0000 0000 0000 0000
00000140: 0000 0000 0000 0000 0000 0000 0000 0000
00000150: 0000 0000 0000 0000 0000 0000 0000 0000
00000160: 0000 0000 0000 0000 0000 0000 0000 0000
00000170: 0000 0000 0000 0000 0000 0000 0000 0000
00000180: 0000 0000 0000 0000 0000 0000 0000 0000
00000190: 0000 0000 0000 0000 0000 0000 0000 0000
000001a0: 0000 0000 0000 0000 0000 0000 0000 0000
000001b0: 0000 0000 0000 0000 0000 0000 0000 0000
000001c0: 0000 0000 0000 0000 0000 0000 0000 0000
000001d0: 0000 0000 0000 0000 0000 0000 0000 0000
000001e0: 0000 0000 0000 0000 0000 0000 0000 0000
000001f0: 0000 0000 0000 0000 0000 0000 0000 0000
00000200: 0000 0000 0000 0000 0000 0000 0000 0000
00000210: 0000 0000 0000 0000 0000 0000 0000 0000
00000220: 0000 0000 0000 0000 0000 0000 0000 0000
00000230: 0000 0000 0000 0000 0000 0000 0000 0000
00000240: 0000 0000 0000 0000 0000 0000 0000 0000
00000250: 0000 0000 0000 0000 0000 0000 0000 0000
00000260: 0000 0000 0000 0000 0000 0000 0000 0000
00000270: 0000 0000 0000 0000 0000 0000 0000 0000
00000280: 0000 0000 0000 0000 0000 0000 0000 0000
00000290: 0000 0000 0000 0000 0000 0000 0000 0000
000002a0: 0000 0000 0000 0000 0000 0000 0000 0000
000002b0: 7d4f 1dbf 0000 0000 0000 0000 0000 0000
000002c0: 0000 0000 0000 0000 0000 0000 0000 0000
000002d0: 0000 0000 0000 0000 0000 0000 0000 0000
000002e0: 0000 0000 0000 0000 0000 0000 0000 0000
000002f0: 0000 0000 0000 0000 0000 0000 0000 0000
00000300: 0000 0000 0000 0000 0000 0000 0000 0000
00000310: 0000 0000 0000 0000 0000 0000 0000 0000
00000320: 0000 0000 0000 0000 0000 0000 0000 0000
00000330: 0000 0000 0000 0000 0000 0000 0000 0000
00000340: 0000 0000 0000 0000 0000 0000 0000 0000
00000350: 0000 0000 0000 0000 0000 0000 0000 0000
00000360: 0000 0000 0000 0000 0000 0000 0000 0000
00000370: 0000 0000 0000 0000 0000 0000 f8c1 37bf
00000380: 0000 0000 0000 0000 0000 0000 0000 0000
00000390: 0000 0000 0000 0000 0000 0000 0000 0000
000003a0: 0000 0000 0000 0000 0000 0000 0000 0000
000003b0: 0000 0000 0000 0000 0000 0000 0000 0000
000003c0: 0000 0000 0000 0000 0000 0000 0000 0000
000003d0: 0000 0000 0000 0000 0000 0000 0000 0000
000003e0: 0000 0000 0000 0000 0000 0000 0000 0000
000003f0: 0000 0000 0000 0000 0000 0000 0000 0000
0.0 0.0 0.0 0.0 0.0 0.0 0.0 0.0
0.0 0.0 0.0 0.0 0.0 0.0 0.0 0.0
0.0 0.0 0.0 0.0 0.0 0.0 0.0 0.0
0.0 0.0 0.0 0.0 0.0 0.0 0.0 0.0
0.0 0.0 0.0 0.0 0.0 0.0 0.0 0.0
0.0 0.0 0.0 0.0 0.0 0.0 0.0 0.0
0.0 0.0 0.0 0.0 -0.5608031 0.0 0.0 0.0
0.0 -0.59229636 0.0 0.0 -0.32439348 0.0 0.0 0.0
0.0 0.0 0.0 0.0 0.0 0.5666701 0.0 0.0
0.0 0.0 0.7476753 0.0 0.0 0.0 0.0 0.0
0.0 0.0 0.0 0.0 0.0 0.0 0.0 0.0
0.0 0.0 0.0 0.0 0.0 0.0 0.0 0.0
0.0 0.0 0.0 0.0 0.0 0.0 0.0 0.0
0.0 0.0 0.0 0.0 0.0 0.0 0.0 0.0
0.0 0.0 0.0 0.0 0.0 0.0 0.0 0.0
0.0 0.0 0.0 0.0 0.0 0.0 0.0 0.0
0.0 0.0 0.0 0.0 0.0 0.0 0.0 0.0
0.0 0.0 0.0 0.0 0.0 0.0 0.0 0.0
0.0 0.0 0.0 0.0 0.0 0.0 0.0 0.0
0.0 0.0 0.0 0.0 0.0 0.0 0.0 0.0
0.0 0.0 0.0 0.0 0.0 0.0 0.0 0.0
0.0 0.0 0.0 0.0 -0.61449414 0.0 0.0 0.0
0.0 0.0 0.0 0.0 0.0 0.0 0.0 0.0
0.0 0.0 0.0 0.0 0.0 0.0 0.0 0.0
0.0 0.0 0.0 0.0 0.0 0.0 0.0 0.0
0.0 0.0 0.0 0.0 0.0 0.0 0.0 0.0
0.0 0.0 0.0 0.0 0.0 0.0 0.0 0.0
0.0 0.0 0.0 0.0 0.0 0.0 0.0 -0.7178035
0.0 0.0 0.0 0.0 0.0 0.0 0.0 0.0
0.0 0.0 0.0 0.0 0.0 0.0 0.0 0.0
0.0 0.0 0.0 0.0 0.0 0.0 0.0 0.0
0.0 0.0 0.0 0.0 0.0 0.0 0.0 0.0

features.1.weight f4 [6]
00000000: 32d6 873f aef9 103f 359c 293f bbfd a03f
00000010: 7814 c23f d11e c73f
1.0612242 0.5663098 0.6625398 1.2577432 1.5162497 1.555628

features.1.bias f4 [6]
00000000: 6608 f83c dcb1 113e 3cff 533e ba72 983d
00000010: 563f 08be 6583 a93c
0.030277442 0.14228004 0.20702833 0.07443757 -0.1330541 0.020692537

features.1.running_mean f4 [6]
00000000: feff 1fbd 0400 0080 85fd 2b3e 204e f3bb
00000010: aa10 3c3d 095f 353e
-0.039062493 -6e-45 0.16795929 -0.0074250847 0.04591433 0.17712034

features.1.running_var f4 [6]
00000000: 6859 b83f 0400 0000 49fe db3f bf9c 8d40
00000010: 4f0e 7340 eca4 aa40
1.4402285 6e-45 1.7186977 4.425384 3.7977483 5.332632

features.4.weight f4 [16, 6, 5, 5]
00000000: 1c65 aabe 0000 0000 0000 0000 0000 0000
00000010: 0000 0000 0000 0000 0000 0000 0000 0000
00000020: 0000 0000 0000 0000 0000 0000 0000 0000
00000030: 0000 0000 0000 0000 0000 0000 0000 0000
00000040: 0000 0000 0000 0000 0000 0000 0000 0000
00000050: 0000 0000 0000 0000 0000 0000 66ef 543e
00000060: 0000 0000 0000 0000 0000 0000 0000 0000
00000070: 0000 0000 0000 0000 0000 0000 0000 0000
00000080: 0000 0000 0000 0000 0000 0000 0000 0000
00000090: 0000 0000 0000 0000 0000 0000 0000 0000
000000a0: 0000 0000 0000 0000 0000 0000 0000 0000
000000b0: 0000 0000 0000 0000 0000 0000 0000 0000
000000c0: 0000 0000 0000 0000 0000 0000 0000 0000
000000d0: 0000 0000 0000 0000 0000 0000 0000 0000
000000e0: 0000 0000 0000 0000 0000 0000 dc7a 29be
000000f0: 0000 0000 0000 0000 0000 0000 0000 0000
00000100: 0000 0000 0000 0000 0000 0000 0000 0000
00000110: 0000 0000 0000 0000 0000 0000 0000 0000
00000120: 0000 0000 0000 0000 0000 0000 0000 0000
00000130: 0000 0000 0000 0000 0000 0000 0000 0000
00000140: 0000 0000 0000 0000 0000 0000 0000 0000
00000150: 0000 0000 0000 0000 0000 0000 0000 0000
00000160: 0000 0000 0000 0000 0000 0000 0000 0000
00000170: 0000 0000 0000 0000 0000 0000 0000 0000
00000180: 0000 0000 0000 0000 0000 0000 0000 0000
00000190: 0000 0000 0000 0000 0000 0000 0000 0000
000001a0: 0000 0000 0000 0000 0000 0000 0000 0000
000001b0: 0000 0000 0000 0000 0000 0000 0000 0000
000001c0: ee44 8bbe 0000 0000 0000 0000 0000 0000
000001d0: 0000 0000 0000 0000 0000 0000 0000 0000
000001e0: 0000 0000 345c ab3e 0000 0000 0000 0000
000001f0: 0000 0000 0000 0000 0000 0000 0000 0000
00000200: 0000 0000 1d77 423e 21f0 89be 0000 0000
00000210: 0000 0000 0000 0000 0000 0000 0000 0000
00000220: 0000 0000 0000 0000 0000 0000 0000 0000
00000230: 0000 0000 0000 0000 0000 0000 0000 0000
00000240: 0000 0000 0000 0000 0000 0000 0000 0000
00000250: 0000 0000 0000 0000 d5e4 183e 0000 0000
00000260: 0000 0000 7699 b3be 0000 0000 0000 0000
00000270: 0000 0000 0000 0000 0000 0000 89d1 353e
00000280: 0000 0000 0000 0000 5b88 96be 0000 0000
00000290: 20f1 de3e 8331 7bbe 0000 0000 0000 0000
000002a0: 0000 0000 0000 0000 0000 0000 0000 0000
000002b0: 0000 0000 0000 0000 0000 0000 0000 0000
000002c0: 0000 0000 0000 0000 0000 0000 0000 0000
000002d0: 0000 0000 0000 0000 0000 0000 0000 0000
000002e0: 0000 0000 0000 0000 0000 0000 0000 0000
000002f0: 0000 0000 0000 0000 0000 0000 0000 0000
00000300: 0000 0000 0000 0000 810d 813e 0000 0000
00000310: 0000 0000 0000 0000 0000 0000 7c9d 993e
00000320: 0000 0000 0000 0000 7064 61be 0000 0000
00000330: 0000 0000 0000 0000 0000 0000 0000 0000
00000340: 0000 0000 0000 0000 0000 0000 0000 0000
00000350: 0000 0000 0000 0000 97de 5cbe 0000 0000
00000360: 0000 0000 0000 0000 0000 0000 b42e 97be
00000370: 0000 0000 0000 0000 0000 0000 0000 0000
00000380: 0000 0000 0000 0000 0000 0000 0000 0000
00000390: 0000 0000 0000 0000 0000 0000 6b74 35be
000003a0: 0000 0000 0000 0000 0000 0000 0000 0000
000003b0: 0000 0000 0000 0000 0000 0000 0000 0000
000003c0: 0000 0000 0000 0000 0000 0000 0000 0000
000003d0: 0000 0000 0000 0000 0000 0000 0000 0000
000003e0: 0000 0000 0000 0000 0000 0000 0000 0000
000003f0: 0000 0000 0000 0000 0000 0000 0000 0000
-0.33280265 0.0 0.0 0.0 0.0 0.0 0.0 0.0
0.0 0.0 0.0 0.0 0.0 0.0 0.0 0.0
0.0 0.0 0.0 0.0 0.0 0.0 0.0 0.20794448
0.0 0.0 0.0 0.0 0.0 0.0 0.0 0.0
0.0 0.0 0.0 0.0 0.0 0.0 0.0 0.0
0.0 0.0 0.0 0.0 0.0 0.0 0.0 0.0
0.0 0.0 0.0 0.0 0.0 0.0 0.0 0.0
0.0 0.0 0.0 -0.16550773 0.0 0.0 0.0 0.0
0.0 0.0 0.0 0.0 0.0 0.0 0.0 0.0
0.0 0.0 0.0 0.0 0.0 0.0 0.0 0.0
0.0 0.0 0.0 0.0 0.0 0.0 0.0 0.0
0.0 0.0 0.0 0.0 0.0 0.0 0.0 0.0
0.0 0.0 0.0 0.0 0.0 0.0 0.0 0.0
0.0 0.0 0.0 0.0 0.0 0.0 0.0 0.0
-0.27201027 0.0 0.0 0.0 0.0 0.0 0.0 0.0
0.0 0.33468783 0.0 0.0 0.0 0.0 0.0 0.0
0.0 0.1899075 -0.26941016 0.0 0.0 0.0 0.0 0.0
0.0 0.0 0.0 0.0 0.0 0.0 0.0 0.0
0.0 0.0 0.0 0.0 0.0 0.0 0.14931042 0.0
0.0 -0.3507802 0.0 0.0 0.0 0.0 0.0 0.17755713
0.0 0.0 -0.29400906 0.0 0.4354334 -0.24530606 0.0 0.0
0.0 0.0 0.0 0.0 0.0 0.0 0.0 0.0
0.0 0.0 0.0 0.0 0.0 0.0 0.0 0.0
0.0 0.0 0.0 0.0 0.0 0.0 0.0 0.0
0.0 0.0 0.25205615 0.0 0.0 0.0 0.0 0.30002964
0.0 0.0 -0.2201097 0.0 0.0 0.0 0.0 0.0
0.0 0.0 0.0 0.0 0.0 0.0 -0.21569286 0.0
0.0 0.0 0.0 -0.2952782 0.0 0.0 0.0 0.0
0.0 0.0 0.0 0.0 0.0 0.0 0.0 -0.17720191
0.0 0.0 0.0 0.0 0.0 0.0 0.0 0.0
0.0 0.0 0.0 0.0 0.0 0.0 0.0 0.0
0.0 0.0 0.0 0.0 0.0 0.0 0.0 0.0

features.5.weight f4 [16]
00000000: fadf 993f 7810 d93f aa16 ee3f 574f e63f
00000010: 8c4e c13f f0bc d53f 90b4 9d3f 93ec a53f
00000020: f16e ce3f c191 b33f f29b a63f fece ca3f
00000030: f878 c53f 026d b13f c553 b63f b4b0 c23f
1.2021477 1.6958151 1.8600667 1.7992963 1.5102096 1.6698284 1.2320728 1.2962822
1.6127607 1.4028856 1.3016341 1.5844419 1.5427542 1.3861392 1.4244314 1.5210176

features.5.bias f4 [16]
00000000: f9d8 c1bd ba81 35bf 3725 1fbf 0cca 15be
00000010: 21c8 21bf 7981 ddbe 382d 4dbe f0aa 56be
00000020: aed8 cabd 73cc b9bd 4ece ca3d cbe1 ddbe
00000030: f810 b2be c36d a9be dabf b8be 1e9c ad3c
-0.094652124 -0.7090107 -0.6216616 -0.14627856 -0.63196 -0.43262842 -0.20036781 -0.20963645
-0.099046096 -0.09072199 0.09902631 -0.4333633 -0.3477857 -0.33091554 -0.3608387 0.021192607

features.5.running_mean f4 [16]
00000000: e194 f6bd 6dfe debe c761 b1be 0631 3ebf
00000010: 892c 16bd 0cc4 fabe 1cb9 2b3f 3a40 d23e
00000020: 1855 d3be 298a d0bd 1791 b3be 5bc7 adbe
00000030: caf2 cdbe 3271 883e 188c 193e c97a c7bf
-0.12040115 -0.43553486 -0.3464491 -0.74293554 -0.036663566 -0.48977697 0.6707933 0.41064626
-0.4127586 -0.10182602 -0.35071632 -0.3394116 -0.40224296 0.2664886 0.14994848 -1.5584346

features.5.running_var f4 [16]
00000000: c704 223e 9580 cd3e 8006 113f 53a9 463f
00000010: 977e 7c3d b95d 0c3f 5f19 ae3e a271 a13e
00000020: cf72 ae3e aa55 0e3e 3169 753e 8a49 a23e
00000030: fdc2 063f 6b72 823e db25 973e f6b3 8f3f
0.15822135 0.40137163 0.56650543 0.7760212 0.061644163 0.5483051 0.34003732 0.31532007
0.34071967 0.13899866 0.23965909 0.3169673 0.5264128 0.2547792 0.2952107 1.1226795

features.9.weight f4 [120, 400]
00000000: 0000 0000 815a cf3d 0000 0000 0000 0000
00000010: 0000 0000 0000 0000 0000 0000 0000 0000
00000020: 0000 0000 0000 0000 0000 0000 0000 0000
00000030: 0000 0000 0000 0000 0000 0000 fd69 b4bd
00000040: 0000 0000 0000 0000 0000 0000 0000 0000
00000050: 2df9 d1bd 0000 0000 0000 0000 d921 583d
00000060: ae03 a13d 0000 0000 323b 053e 0000 0000
00000070: 5f70 d7bd c551 c5bd 0000 0000 0000 0000
00000080: 0000 0000 0000 0000 0000 0000 0000 0000
00000090: 0000 0000 0000 0000 0000 0000 0000 0000
000000a0: 0000 0000 0000 0000 0000 0000 0000 0000
000000b0: 0000 0000 0000 0000 05e5 d1bd 0000 0000
000000c0: fe33 c33d 0000 0000 0000 0000 0000 0000
000000d0: 0000 0000 0000 0000 0000 0000 c7cf c7bd
000000e0: 0000 0000 226e e63d 0000 0000 0000 0000
000000f0: 5d94 e9bd 9173 9bbd f4f4 fa3d 0000 0000
00000100: 54d3 b9bd dffd aebd d574 9dbd 0000 0000
00000110: 0000 0000 0000 0000 0000 0000 0000 0000
00000120: 0000 0000 0000 0000 0000 0000 7eed a03d
00000130: 9684 77bd e13b f7bd 0000 0000 2479 583e
00000140: 0000 0000 0000 0000 5e0e 49bd 0000 0000
00000150: 2093 163e 0000 0000 0000 0000 0000 0000
00000160: 0000 0000 0000 0000 0000 0000 0000 0000
00000170: ae45 ea3d 0000 0000 0000 0000 0000 0000
00000180: 6f5b a53d 1e8a 003e 0000 0000 0000 0000
00000190: 0000 0000 0000 0000 0000 0000 0000 0000
000001a0: 0000 0000 0000 0000 0000 0000 0000 0000
000001b0: 0000 0000 0000 0000 0000 0000 0000 0000
000001c0: 0000 0000 0000 0000 0000 0000 0000 0000
000001d0: 0000 0000 9cdb 84bd 0000 0000 0000 0000
000001e0: 0000 0000 0000 0000 0000 0000 0000 0000
000001f0: 0000 0000 0000 0000 0000 0000 e467 df3d
00000200: 0000 0000 6a5f 03be 0000 0000 0000 0000
00000210: 0000 0000 0000 0000 dbb9 b3bd 0000 0000
00000220: 0000 0000 0000 0000 0000 0000 0000 0000
00000230: 0000 0000 0000 0000 0000 0000 0000 0000
00000240: 0000 0000 0000 0000 0000 0000 0000 0000
00000250: 0000 0000 0000 0000 0000 0000 0000 0000
00000260: 0000 0000 0000 0000 0000 0000 0000 0000
00000270: 8141 fabd 0000 0000 0000 0000 0000 0000
00000280: 0000 0000 0000 0000 0000 0000 0000 0000
00000290: 0000 0000 0000 0000 0000 0000 0000 0000
000002a0: 0000 0000 0000 0000 0000 0000 0000 0000
000002b0: 0000 0000 0000 0000 0000 0000 0000 0000
000002c0: d5c5 ab3d 0000 0000 0000 0000 1235 e9bd
000002d0: 0000 0000 0000 0000 0000 0000 0000 0000
000002e0: 0000 0000 0000 0000 0000 0000 0000 0000
000002f0: 0000 0000 0000 0000 0000 0000 0000 0000
00000300: 74b1 8dbd 0000 0000 0000 0000 0000 0000
00000310: 0000 0000 0000 0000 0000 0000 0000 0000
00000320: 0000 0000 0000 0000 0000 0000 0000 0000
00000330: 0000 0000 0000 0000 0000 0000 1539 f7bd
00000340: 0000 0000 0000 0000 302c acbd 0000 0000
00000350: 0000 0000 0000 0000 0000 0000 0000 0000
00000360: 0000 0000 0000 0000 0000 0000 0000 0000
00000370: 0000 0000 0000 0000 0000 0000 0000 0000
00000380: 0000 0000 0000 0000 7382 283e 0000 0000
00000390: 024d b4bd dc0c 96bd 0000 0000 0000 0000
000003a0: 0000 0000 0000 0000 0000 0000 0000 0000
000003b0: 0000 0000 0000 0000 0000 0000 0000 0000
000003c0: 0000 0000 0000 0000 0000 0000 0000 0000
000003d0: 0000 0000 0000 0000 0000 0000 32f6 05be
000003e0: 0000 0000 f317 793d 0000 0000 0000 0000
000003f0: 0000 0000 0000 0000 0000 0000 0000 0000
0.0 0.10124684 0.0 0.0 0.0 0.0 0.0 0.0
0.0 0.0 0.0 0.0 0.0 0.0 0.0 -0.08809278
0.0 0.0 0.0 0.0 -0.10252605 0.0 0.0 0.052766655
0.0786203 0.0 0.13010862 0.0 -0.1051948 -0.09634737 0.0 0.0
0.0 0.0 0.0 0.0 0.0 0.0 0.0 0.0
0.0 0.0 0.0 0.0 0.0 0.0 -0.1024876 0.0
0.09531401 0.0 0.0 0.0 0.0 0.0 0.0 -0.09756427
0.0 0.11251475 0.0 0.0 -0.11405251 -0.07590402 0.12253752 0.0
-0.09073511 -0.08544516 -0.076882996 0.0 0.0 0.0 0.0 0.0
0.0 0.0 0.0 0.07857798 -0.06042918 -0.12071968 0.0 0.21139961
0.0 0.0 -0.049085967 0.0 0.14704561 0.0 0.0 0.0
0.0 0.0 0.0 0.0 0.114390716 0.0 0.0 0.0
0.0807408 0.12552688 0.0 0.0 0.0 0.0 0.0 0.0
0.0 0.0 0.0 0.0 0.0 0.0 0.0 0.0
0.0 0.0 0.0 0.0 0.0 -0.064872 0.0 0.0
0.0 0.0 0.0 0.0 0.0 0.0 0.0 0.109084874
0.0 -0.12829366 0.0 0.0 0.0 0.0 -0.087756835 0.0
0.0 0.0 0.0 0.0 0.0 0.0 0.0 0.0
0.0 0.0 0.0 0.0 0.0 0.0 0.0 0.0
0.0 0.0 0.0 0.0 -0.12219525 0.0 0.0 0.0
0.0 0.0 0.0 0.0 0.0 0.0 0.0 0.0
0.0 0.0 0.0 0.0 0.0 0.0 0.0 0.0
0.08387343 0.0 0.0 -0.113870755 0.0 0.0 0.0 0.0
0.0 0.0 0.0 0.0 0.0 0.0 0.0 0.0
-0.06918612 0.0 0.0 0.0 0.0 0.0 0.0 0.0
0.0 0.0 0.0 0.0 0.0 0.0 0.0 -0.120714344
0.0 0.0 -0.084068656 0.0 0.0 0.0 0.0 0.0
0.0 0.0 0.0 0.0 0.0 0.0 0.0 0.0
0.0 0.0 0.16456012 0.0 -0.088037506 -0.073266715 0.0 0.0
0.0 0.0 0.0 0.0 0.0 0.0 0.0 0.0
0.0 0.0 0.0 0.0 0.0 0.0 0.0 -0.13082197
0.0 0.060813855 0.0 0.0 0.0 0.0 0.0 0.0

features.9.bias f4 [120]
00000000: 8512 54bd 8d44 483d 4ae4 9b3e dd7b 913e
00000010: ffc7 3cbd 33ec 2cbc 5c8d 363c 190f a83d
00000020: 68fa 6d3c fbbe 0fbd a884 f1bb 02e0 f8bd
00000030: 18a5 803c 31fb 863b 2421 1e3e 49b2 223d
00000040: 4671 013e f7ff b3bc 691c 7cbd 924a 6e3d
00000050: 3412 01bd 08cb c13d aa4e 863a 6963 05bd
00000060: 31e4 8d3d 827b 97bd 3dd6 a53d 1d06 1fbd
00000070: c761 0c3e c95a 353d 8b8b a33d 7bec 6b3c
00000080: 7ffc adbb 3355 503b 5c67 363d 388d c2bc
00000090: 9c37 d5bc c484 bebc adc8 0abb 32bc a33c
000000a0: 1936 953c cd66 26bc 722e 043d 7fe5 aebc
000000b0: fb19 de3d fbc8 523d 62b9 093d 8b25 8d3d
000000c0: 8bf2 8a3c c35e 313e 95fb 43bc 23e0 32bc
000000d0: 5099 bf3d 5845 123d 27ca 82bb 9bdc 3fbc
000000e0: 6217 e13c e7fb 4abb d834 fb3c a197 743c
000000f0: 74e8 1fbd 09bd 2dbc 4574 033d 82e8 463c
00000100: 7a23 d9bb 3cf4 603c f324 ddbc dc1d 283d
00000110: 75ba c3bd 696a 683d afe0 f23c c87b 38bd
00000120: e329 523d 2848 c6ba 3593 083c 6c0d ce3d
00000130: 5b5c d23d 14cd 533d a09b d5bb 3241 d3bc
00000140: 11ba efbc 10f0 40bb d8bf 683d 464e 07bc
00000150: 13f8 643c 6422 48bd a792 ff3d 29da d43c
00000160: 4fcd 91bd 7795 313e 9746 6fb9 0b3b 3f3d
00000170: ed2c 2ebd 714d 80bc 4021 a73d b05f 363e
00000180: 4d2e 253d 4a99 2e3e 8f7b 9e3c 5fec dc3b
00000190: 407f 133b 8ef3 9fbd d842 a9bb 9c93 733c
000001a0: 86eb c63d a6ff e93b 949b 653c 2837 4e3e
000001b0: 8a6b 2e3d f0da a23d 7845 b83c caa2 8c3d
000001c0: a47f ac3d a79f 0dbd df9c 5fbd 38ad 82bb
000001d0: 70c3 87bc d3ba b93b a053 8fbd bff4 9ebd
-0.051775474 0.0488935 0.30447608 0.28414813 -0.04608917 -0.010554361 0.011142101 0.08206005
0.0145250335 -0.035094243 -0.00737055 -0.12152101 0.015703723 0.0041193 0.1544233 0.039720807
0.12640867 -0.02197264 -0.06155053 0.058176585 -0.0315115 0.09462553 0.0010246832 -0.032565508
0.0692829 -0.07396604 0.08097503 -0.03882419 0.13709174 0.044276033 0.079856 0.014399643
-0.005309641 0.0031789064 0.044532165 -0.023748979 -0.026027493 -0.023256667 -0.002117674 0.0199872
0.018214272 -0.010156346 0.032270856 -0.021349667 0.10844799 0.0514612 0.03362406 0.068919264
0.016961357 0.17321305 -0.011961837 -0.010917696 0.09355414 0.035710663 -0.0039913836 -0.011710311
0.02747697 -0.00309729 0.030664846 0.014928729 -0.039040044 -0.0106041515 0.032093305 0.012140395
-0.0066265436 0.013730105 -0.026995158 0.0410441 -0.09557048 0.056742106 0.029648153 -0.045039922
0.051309478 -0.0015127705 0.008335878 0.10061154 0.10271522 0.05170925 -0.006518796 -0.025787923
-0.029263528 -0.0029439963 0.05682358 -0.008258408 0.013975161 -0.048860922 0.124791436 0.025982933
-0.07119238 0.17342173 -0.00022819113 0.046687167 -0.042523313 -0.015661927 0.08160639 0.1780994
0.04032736 0.17050663 0.019346027 0.006742045 0.0022506267 -0.07810126 -0.005165439 0.014866736
0.09712891 0.0071410714 0.0140141435 0.20138228 0.042583026 0.07951915 0.022494063 0.06866987
0.08422783 -0.034576084 -0.054592963 -0.0039879344 -0.016572684 0.005668023 -0.06998372 -0.07761525

features.11.weight f4 [84, 120]
00000000: 8e81 aa3d d230 013e 374d e73d fe42 3e3e
00000010: 0000 0000 0000 0000 718b dd3d 111f e9bd
00000020: 0000 0000 6908 2bbe 0000 0000 6da8 863e
00000030: dd94 4d3e 0000 0000 0000 0000 0000 0000
00000040: 6da2 c83d 0000 0000 0000 0000 9581 073e
00000050: a29e e33d 0000 0000 0000 0000 0000 0000
00000060: 90f6 55be 0000 0000 0000 0000 0000 0000
00000070: d9be 5a3e 0000 0000 0000 0000 0000 0000
00000080: 0000 0000 0000 0000 0000 0000 0000 0000
00000090: 0000 0000 0000 0000 0000 0000 0000 0000
000000a0: 0000 0000 0000 0000 0000 0000 0000 0000
000000b0: 0000 0000 0000 0000 0000 0000 b3ca 2d3e
000000c0: 3ee2 703e 0000 0000 0000 0000 bab1 fd3d
000000d0: 4e23 e5bd 0000 0000 0000 0000 0000 0000
000000e0: 0000 0000 0000 0000 0000 0000 0000 0000
000000f0: 6fd8 bb3d 0000 0000 0000 0000 0000 0000
00000100: 0000 0000 49e6 34be 8718 f63d 0000 0000
00000110: 3682 c5bd 0000 0000 0000 0000 0000 0000
00000120: 0000 0000 0000 0000 0000 0000 31a8 053e
00000130: 0000 0000 81a7 4a3e cfe5 0ebe 0000 0000
00000140: e774 2abe 0000 0000 0000 0000 e779 5e3e
00000150: 11d5 653e f5f4 08be f0e2 2f3e 8f61 d8bd
00000160: 0000 0000 0000 0000 0000 0000 3ab4 f43d
00000170: 68fd 39be 0000 0000 0000 0000 0000 0000
00000180: b520 df3d d9ff 3cbe 0000 0000 0000 0000
00000190: 0000 0000 eed1 0f3e ca56 d4bd 29e0 d2bd
000001a0: 0000 0000 0000 0000 0000 0000 0000 0000
000001b0: 0000 0000 a8d4 21be 0000 0000 1fc1 233e
000001c0: 837d 03be 5daf 163e 0000 0000 0000 0000
000001d0: 0000 0000 0000 0000 0000 0000 0000 0000
000001e0: 0000 0000 0000 0000 0000 0000 0000 0000
000001f0: 0000 0000 0000 0000 0000 0000 0000 0000
00000200: 0000 0000 0000 0000 0000 0000 0000 0000
00000210: 0000 0000 0000 0000 0000 0000 0000 0000
00000220: 0000 0000 0000 0000 0000 0000 0000 0000
00000230: 0000 0000 0000 0000 0000 0000 0000 0000
00000240: 0000 0000 0000 0000 0000 0000 0000 0000
00000250: 0000 0000 0000 0000 0000 0000 0000 0000
00000260: 0000 0000 0000 0000 0000 0000 0000 0000
00000270: 0000 0000 0000 0000 0000 0000 0000 0000
00000280: 0000 0000 0000 0000 0000 0000 0000 0000
00000290: 0000 0000 0000 0000 0000 0000 0000 0000
000002a0: 0000 0000 0000 0000 0000 0000 0000 0000
000002b0: 0000 0000 0000 0000 0000 0000 0000 0000
000002c0: 0000 0000 0000 0000 0000 0000 0000 0000
000002d0: 0000 0000 0000 0000 0000 0000 0000 0000
000002e0: 0000 0000 0000 0000 0000 0000 0000 0000
000002f0: 0000 0000 0000 0000 0000 0000 0000 0000
00000300: 0000 0000 0000 0000 0000 0000 0000 0000
00000310: 0000 0000 0000 0000 0000 0000 0000 0000
00000320: 0000 0000 0000 0000 0000 0000 0000 0000
00000330: 0000 0000 0000 0000 0000 0000 0000 0000
00000340: 0000 0000 0000 0000 0000 0000 0000 0000
00000350: 0000 0000 0000 0000 0000 0000 0000 0000
00000360: 0000 0000 0000 0000 0000 0000 0000 0000
00000370: 0000 0000 0000 0000 0000 0000 0000 0000
00000380: 0000 0000 0000 0000 0000 0000 0000 0000
00000390: 0000 0000 0000 0000 0000 0000 0000 0000
000003a0: 0000 0000 0000 0000 0000 0000 0000 0000
000003b0: 0000 0000 0000 0000 0000 0000 0000 0000
000003c0: 0000 0000 1763 693d 0000 0000 2c02 1c3e
000003d0: 0000 0000 0000 0000 0000 0000 0000 0000
000003e0: 0000 0000 0000 0000 0000 0000 0000 0000
000003f0: 0000 0000 0000 0000 9a10 0d3e 0000 0000
0.08325492 0.1261628 0.112940244 0.18580243 0.0 0.0 0.10817612 -0.113828786
0.0 -0.16702427 0.0 0.26300374 0.20076318 0.0 0.0 0.0
0.09796605 0.0 0.0 0.13233025 0.11114241 0.0 0.0 0.0
-0.20894837 0.0 0.0 0.0 0.21361865 0.0 0.0 0.0
0.0 0.0 0.0 0.0 0.0 0.0 0.0 0.0
0.0 0.0 0.0 0.0 0.0 0.0 0.0 0.16971855
0.23523805 0.0 0.0 0.12387414 -0.111883745 0.0 0.0 0.0
0.0 0.0 0.0 0.0 0.09172141 0.0 0.0 0.0
0.0 -0.17665972 0.12016397 0.0 -0.096439764 0.0 0.0 0.0
0.0 0.0 0.0 0.13052441 0.0 0.1979046 -0.13954853 0.0
-0.16646157 0.0 0.0 0.2172619 0.2244456 -0.13374694 0.17176414 -0.10565483
0.0 0.0 0.0 0.11948438 -0.18163073 0.0 0.0 0.0
0.1089491 -0.18456973 0.0 0.0 0.0 0.14044926 -0.10368116 -0.102966614
0.0 0.0 0.0 0.0 0.0 -0.15803778 0.0 0.15991639
-0.12840848 0.14715333 0.0 0.0 0.0 0.0 0.0 0.0
0.0 0.0 0.0 0.0 0.0 0.0 0.0 0.0
0.0 0.0 0.0 0.0 0.0 0.0 0.0 0.0
0.0 0.0 0.0 0.0 0.0 0.0 0.0 0.0
0.0 0.0 0.0 0.0 0.0 0.0 0.0 0.0
0.0 0.0 0.0 0.0 0.0 0.0 0.0 0.0
0.0 0.0 0.0 0.0 0.0 0.0 0.0 0.0
0.0 0.0 0.0 0.0 0.0 0.0 0.0 0.0
0.0 0.0 0.0 0.0 0.0 0.0 0.0 0.0
0.0 0.0 0.0 0.0 0.0 0.0 0.0 0.0
0.0 0.0 0.0 0.0 0.0 0.0 0.0 0.0
0.0 0.0 0.0 0.0 0.0 0.0 0.0 0.0
0.0 0.0 0.0 0.0 0.0 0.0 0.0 0.0
0.0 0.0 0.0 0.0 0.0 0.0 0.0 0.0
0.0 0.0 0.0 0.0 0.0 0.0 0.0 0.0
0.0 0.0 0.0 0.0 0.0 0.0 0.0 0.0
0.0 0.056979265 0.0 0.15235204 0.0 0.0 0.0 0.0
0.0 0.0 0.0 0.0 0.0 0.0 0.13775864 0.0

features.11.bias f4 [84]
00000000: 3afe a63e 8bd5 8d3d 78bf 4b3e 3bb3 ad3e
00000010: d6e0 8cbd 0e7f 873d 466c d83d c22b 3e3d
00000020: f827 dc3d d536 053e 5d24 623d 6cf5 8eba
00000030: eb38 783d a49a 193e 7c8e 063d 290d 633c
00000040: d767 0dbc b903 233e f636 6a3c a7d1 6c3e
00000050: bd1a e43c f37b 763d 69f0 eb3d 1cd7 0a3e
00000060: eb4c c6bb cb14 9ebc 3363 2e3e 9903 653e
00000070: 30c5 693e c5e8 433a 03c4 04bd fa02 523d
00000080: 7e31 aa3b e970 833c 77b0 a8ba 060c 81bb
00000090: 2226 df3d 8880 28bb 32bf cbb8 72a7 fa3d
000000a0: f64e b83c 1493 84bb ceaf c53d e3c2 763d
000000b0: 1731 a9bc ee5b 113e 45b7 f63d faa3 963c
000000c0: b663 913d 3290 f6bc 67ec 183b ebe2 b5bb
000000d0: 48fc 3c3e 7627 283e 34c8 a53e 5bcd 6e3e
000000e0: d92d 6a3e ec70 2b3d 4971 7a3d 2712 c83c
000000f0: ce71 4a3d 74e4 823d d962 363e 1064 823e
00000100: 9e29 983d 085c 713e e6bb af3e d69d 9a3d
00000110: a380 c33e ba28 d93a a20c a03b 0bc0 043c
00000120: 2ff2 faba a08d df3c 49b4 37bb cd95 183e
00000130: f047 ccba ac35 313d 1170 9d3d 7683 363e
00000140: 143e 39bb cce8 3d3d 1429 3c3e fa19 d53c
0.32615834 0.06925496 0.19897258 0.33925804 -0.068788216 0.06616031 0.105675265 0.04642845
0.10749811 0.13009198 0.05521046 -0.0010906882 0.060601156 0.15000397 0.032850727 0.013858118
-0.008630714 0.15919389 0.01429533 0.23126851 0.027844781 0.0601768 0.11520464 0.1355862
-0.00605165 -0.019297024 0.17030029 0.22364654 0.22829127 0.0007473345 -0.032413494 0.05127237
0.005193888 0.01604505 -0.0012869973 -0.003938201 0.10895945 -0.0025711376 -9.715407e-05 0.12238969
0.022498589 -0.0040458534 0.09652673 0.060244452 -0.02065329 0.14195225 0.12046675 0.018388737
0.070990965 -0.030098055 0.0023334266 -0.0055507324 0.18455613 0.16421303 0.32379305 0.23320524
0.22869052 0.041855738 0.061143193 0.024422718 0.04942494 0.0639123 0.17811145 0.25466967
0.07429813 0.23570263 0.34323043 0.07549636 0.3818408 0.0016567924 0.0048843184 0.008102427
-0.0019145663 0.027289212 -0.0028031042 0.14900894 -0.0015585404 0.043264076 0.076873906 0.17823586
-0.0028265761 0.04636459 0.18375045 0.026013363

classifiers.0.weight f4 [5, 84]
00000000: 8a2b 543f d2bb c3bd 6b1d e63d 5bbd 5e3e
00000010: cb22 febd 1853 3abe bfee 98be 5467 9d3e
00000020: 2d75 87be eee9 ff3e 61f0 f2bc f22e 253c
00000030: 68cb ea3d de41 eebe b4e1 ddbd 3db0 e6bc
00000040: 7e38 8c3d 2bad 173d f919 263e 5d67 18bf
00000050: 4719 84bd e19d 9ebd 8a93 f3bd 23d4 52be
00000060: 357f 01bb ac37 fbbe 2eea 03bf 3c74 4cbd
00000070: 5de0 a43e 14c5 6e3c 3fa4 923e bbb8 17be
00000080: 2b1e 52bc 4cbf 51be a55f 223e c300 753a
00000090: 5f21 76be 9127 583a 15e2 a83a 61a4 a5bc
000000a0: f906 573e d84b 8cbc b74d fdbe 93c3 a2be
000000b0: f70d d1bd 0140 eebd 6c85 c2be afad 2cbb
000000c0: 792f f73e 15d9 eebc 8b45 c8bc 57ed e5b9
000000d0: 18cf 79be 0627 6d3c 3354 983d 5233 023d
000000e0: fff9 0c3e 40ac fa3e 1b5b 2ebc b8e6 033c
000000f0: 1872 863e b3b8 033f 4403 f83c ae95 473e
00000100: 475c 333c f932 653e d3e7 2f3e 9b04 5cbe
00000110: ecd2 9bbe c46a fabb a8b6 82bc 0b3a 6e3e
00000120: 643e b43c 0b18 2a3c 8020 923a 4dca f8be
00000130: f0f6 cdbe 6d18 553e 097a b5bd 2d8e 633f
00000140: f722 6eba 8744 5ebe c760 93be f061 f03c
00000150: e663 e0be d1dd 05bd fd9b 13bf 28fe e4be
00000160: 58bf 76bc 9280 8cbc 2e9b 9fba 247f 73bd
00000170: e482 263e 922f 9d3d baa2 263e c5ab 2fbc
00000180: 7ec9 d3be 444f c63e a0e8 083e d846 d73c
00000190: b9d7 d4be b7cf c7be 44ba 7cbd 374c 363e
000001a0: 7171 29bd 057e 26bd 0731 f93e d1db 0f3f
000001b0: 789e d03a bd56 d53c 4554 dc3e a774 44be
000001c0: b4bf c1bd 25d8 733c 6556 afbe eeee a13c
000001d0: e07f a9bc 530d debe e4f6 01be 9f82 e5bc
000001e0: fec1 ce3b 1e92 42bc 06fd a53c e016 cebd
000001f0: 3264 48be cb08 abb9 e92b a5be 55ee 92bd
00000200: 0083 1abe 7409 9a3d 9ea8 323f 91ef 093d
00000210: 86c0 16be 69da d83b a505 a53c 14ed 7dbc
00000220: af74 e1bd 864d c1be 5a12 91be dfae 0dbe
00000230: ab2e 84bc 63ed b73d 2ecf 1e3e 9840 923d
00000240: ce11 75be 386c 28be 75a2 63be 1e23 07be
00000250: 8c82 43be e729 b1bd 969e adbe 3ce0 2c3e
00000260: 0ab6 043f 800c 9cbc dddc 223d 5b6a 91be
00000270: 743e 993b b770 943d 1c2b 203c 6135 573d
00000280: d881 87bc 5c29 7b3d aa01 303e 48d7 e5bc
00000290: fd6a 69bc 637d 6ebb fab1 273d d2a0 173e
000002a0: 29f3 083e 1b6b 4b3e 9680 ce3e c15a 033f
000002b0: d1db a3be d8e3 a53d 39cb 243d 846c 8ebe
000002c0: 3609 04bf d6e2 a5bc 4964 683d 2ec0 b73b
000002d0: 599b 163a e0e6 873e 98c9 16be 5d51 57bc
000002e0: ba0f 36bd 3ee9 9c3e 3f17 4bbe c59f 133e
000002f0: a71e 143d ef87 473e c723 723d b57d d4be
00000300: 3617 f0bb 6e04 e1bd ef2a ed3d ef23 cc3e
00000310: e531 8b3e bfac 1fbc 3cb2 b4be 1170 abbe
00000320: a8a0 a73c 7e69 5e3e 02d0 99be a7d8 acbb
00000330: 9957 7abe 5052 5c3b 9a3a 5bbc bb7c 8b3e
00000340: 4e0b b4bd c0c9 513b 442c 123e 504a a8be
00000350: 6b65 8fbe cf3a 053e 2cc9 04bf acb7 6b3c
00000360: 494c ea3b d254 74be 4ff0 90bc c8aa 7dbb
00000370: e690 bc3e b387 8e3e e1f2 123f 4bec f73e
00000380: 4dd7 a83e f70f 37bf 0a1b a2be fc9f f5bc
00000390: dbff 11bf 8ab8 17bf f60d b63e 057a ca3e
000003a0: 1b0c 3b3e d966 bf3e 9a0e 173f 8f60 533e
000003b0: d0d2 a63e 56dd 18bc a9f2 023d 057c 35be
000003c0: a775 c4bc bf8e ca3b 9306 613c ffa3 093e
000003d0: f566 8b3b 0c87 9ebd 9bc4 0e3e 0764 fc3c
000003e0: e754 c5bc bc2d 343e 58a3 df3e f2c2 4ebe
000003f0: 7665 bcbb 0609 6abd 0ce6 5b3b 4c8f 6fbd
0.82878935 -0.09557308 0.1123608 0.21751921 -0.1240898 -0.1819576 -0.2986965 0.30742896
-0.26456586 0.49983162 -0.029655637 0.010081993 0.11464578 -0.46534628 -0.10834065 -0.028160209
0.068467125 0.03703038 0.16220845 -0.5953272 -0.06450134 -0.07744957 -0.11893375 -0.20588736
-0.001975966 -0.49065912 -0.51529205 -0.049915537 0.32202426 0.014573354 0.28640935 -0.14816563
-0.012824575 -0.2048313 0.15856798 0.0009346122 -0.24036168 0.0008245642 0.001288476 -0.020219984
0.20998754 -0.017126009 -0.49473354 -0.31789836 -0.10207742 -0.116333015 -0.37992418 -0.002634864
0.48278406 -0.029156247 -0.024447223 -0.00043855116 -0.24395406 0.014474636 0.07437935 0.031787224
0.13767241 0.4895954 -0.010641838 0.008050613 0.26258922 0.51453704 0.030274995 0.19490692
0.010947294 0.22382726 0.17178278 -0.21486132 -0.30434358 -0.007642122 -0.015956238 0.23264329
0.022002406 0.010381709 0.0011148602 -0.48591843 -0.4022746 0.20810099 -0.08861167 0.8888882
-0.00090841897 -0.21705829 -0.28784773 0.029343575 -0.43826216 -0.032682244 -0.57659894 -0.44725156
-0.015060268 -0.01715115 -0.0012176984 -0.059447423 0.16260868 0.07675089 0.16273013 -0.010722105
-0.41364664 0.3873235 0.1336999 0.026278898 -0.41570833 -0.3902566 -0.061701074 0.17802511
-0.04136795 -0.040647525 0.48670217 0.5619479 0.0015916368 0.026042337 0.43033043 -0.19185124
-0.094603926 0.014883076 -0.342456 0.01976725 -0.020690858 -0.4336954 -0.12691838 -0.028016387
0.0063097468 -0.011875657 0.020262253 -0.10062957 -0.19569471 -0.00032622213 -0.32260063 -0.071743645
-0.15089035 0.07521334 0.6978854 0.033675734 -0.1472188 0.0066178334 0.020144293 -0.015498418
-0.11008584 -0.37754458 -0.28334314 -0.1383624 -0.016135534 0.08980825 0.1550872 0.071412265
-0.23932573 -0.16447532 -0.22229941 -0.1319699 -0.19092768 -0.0865057 -0.33910054 0.16882414
0.5184027 -0.01904893 0.039761413 -0.28401455 0.0046766344 0.07248061 0.009775903 0.05254114
-0.016541407 0.06131874 0.17188135 -0.028056756 -0.014246699 -0.0036390654 0.040941216 0.14807442
0.13374008 0.19865076 0.40332478 0.51310354 -0.32003644 0.08100098 0.04023287 -0.27817166
-0.51576555 -0.020249765 0.056736264 0.0056076264 0.00057451945 0.2654333 -0.1472534 -0.013141957
-0.04444859 0.306467 -0.19833086 0.14416416 0.036162045 0.19485448 0.05911615 -0.41502157
-0.0073269857 -0.10987173 0.115804546 0.39871165 0.27186504 -0.009745776 -0.35292232 -0.33483937
0.020462349 0.2171993 -0.3004151 -0.0052748504 -0.24447478 0.0033618398 -0.013380671 0.272436
-0.08791219 0.0032011122 0.14274698 -0.32869196 -0.28007063 0.13010715 -0.51869464 0.0143870525
0.007150207 -0.23860481 -0.017692713 -0.003870653 0.368293 0.27837905 0.57401854 0.48422465
0.3297676 -0.71508735 -0.31661254 -0.029983513 -0.5703103 -0.5926596 0.35557526 0.3954622
0.18266337 0.37383154 0.59006655 0.20642303 0.32582712 -0.009330114 0.0319697 -0.17723091
-0.023981882 0.0061815674 0.013734478 0.13441466 0.004254217 -0.07740602 0.13942187 0.030809416
-0.024088336 0.17595571 0.4367931 -0.20191553 -0.0057494 -0.05713751 0.0033553867 -0.058486268

classifiers.0.bias f4 [5]
00000000: 79aa e5be 222a 783f dd26 503f f461 61bf
00000010: 7234 e8be
-0.44856623 0.9693929 0.813093 -0.8804009 -0.45352513

classifier.weight f4 [5, 84]
00000000: 8a2b 543f d2bb c3bd 6b1d e63d 5bbd 5e3e
00000010: cb22 febd 1853 3abe bfee 98be 5467 9d3e
00000020: 2d75 87be eee9 ff3e 61f0 f2bc f22e 253c
00000030: 68cb ea3d de41 eebe b4e1 ddbd 3db0 e6bc
00000040: 7e38 8c3d 2bad 173d f919 263e 5d67 18bf
00000050: 4719 84bd e19d 9ebd 8a93 f3bd 23d4 52be
00000060: 357f 01bb ac37 fbbe 2eea 03bf 3c74 4cbd
00000070: 5de0 a43e 14c5 6e3c 3fa4 923e bbb8 17be
00000080: 2b1e 52bc 4cbf 51be a55f 223e c300 753a
00000090: 5f21 76be 9127 583a 15e2 a83a 61a4 a5bc
000000a0: f906 573e d84b 8cbc b74d fdbe 93c3 a2be
000000b0: f70d d1bd 0140 eebd 6c85 c2be afad 2cbb
000000c0: 792f f73e 15d9 eebc 8b45 c8bc 57ed e5b9
000000d0: 18cf 79be 0627 6d3c 3354 983d 5233 023d
000000e0: fff9 0c3e 40ac fa3e 1b5b 2ebc b8e6 033c
000000f0: 1872 863e b3b8 033f 4403 f83c ae95 473e
00000100: 475c 333c f932 653e d3e7 2f3e 9b04 5cbe
00000110: ecd2 9bbe c46a fabb a8b6 82bc 0b3a 6e3e
00000120: 643e b43c 0b18 2a3c 8020 923a 4dca f8be
00000130: f0f6 cdbe 6d18 553e 097a b5bd 2d8e 633f
00000140: f722 6eba 8744 5ebe c760 93be f061 f03c
00000150: e663 e0be d1dd 05bd fd9b 13bf 28fe e4be
00000160: 58bf 76bc 9280 8cbc 2e9b 9fba 247f 73bd
00000170: e482 263e 922f 9d3d baa2 263e c5ab 2fbc
00000180: 7ec9 d3be 444f c63e a0e8 083e d846 d73c
00000190: b9d7 d4be b7cf c7be 44ba 7cbd 374c 363e
000001a0: 7171 29bd 057e 26bd 0731 f93e d1db 0f3f
000001b0: 789e d03a bd56 d53c 4554 dc3e a774 44be
000001c0: b4bf c1bd 25d8 733c 6556 afbe eeee a13c
000001d0: e07f a9bc 530d debe e4f6 01be 9f82 e5bc
000001e0: fec1 ce3b 1e92 42bc 06fd a53c e016 cebd
000001f0: 3264 48be cb08 abb9 e92b a5be 55ee 92bd
00000200: 0083 1abe 7409 9a3d 9ea8 323f 91ef 093d
00000210: 86c0 16be 69da d83b a505 a53c 14ed 7dbc
00000220: af74 e1bd 864d c1be 5a12 91be dfae 0dbe
00000230: ab2e 84bc 63ed b73d 2ecf 1e3e 9840 923d
00000240: ce11 75be 386c 28be 75a2 63be 1e23 07be
00000250: 8c82 43be e729 b1bd 969e adbe 3ce0 2c3e
00000260: 0ab6 043f 800c 9cbc dddc 223d 5b6a 91be
00000270: 743e 993b b770 943d 1c2b 203c 6135 573d
00000280: d881 87bc 5c29 7b3d aa01 303e 48d7 e5bc
00000290: fd6a 69bc 637d 6ebb fab1 273d d2a0 173e
000002a0: 29f3 083e 1b6b 4b3e 9680 ce3e c15a 033f
000002b0: d1db a3be d8e3 a53d 39cb 243d 846c 8ebe
000002c0: 3609 04bf d6e2 a5bc 4964 683d 2ec0 b73b
000002d0: 599b 163a e0e6 873e 98c9 16be 5d51 57bc
000002e0: ba0f 36bd 3ee9 9c3e 3f17 4bbe c59f 133e
000002f0: a71e 143d ef87 473e c723 723d b57d d4be
00000300: 3617 f0bb 6e04 e1bd ef2a ed3d ef23 cc3e
00000310: e531 8b3e bfac 1fbc 3cb2 b4be 1170 abbe
00000320: a8a0 a73c 7e69 5e3e 02d0 99be a7d8 acbb
00000330: 9957 7abe 5052 5c3b 9a3a 5bbc bb7c 8b3e
00000340: 4e0b b4bd c0c9 513b 442c 123e 504a a8be
00000350: 6b65 8fbe cf3a 053e 2cc9 04bf acb7 6b3c
00000360: 494c ea3b d254 74be 4ff0 90bc c8aa 7dbb
00000370: e690 bc3e b387 8e3e e1f2 123f 4bec f73e
00000380: 4dd7 a83e f70f 37bf 0a1b a2be fc9f f5bc
00000390: dbff 11bf 8ab8 17bf f60d b63e 057a ca3e
000003a0: 1b0c 3b3e d966 bf3e 9a0e 173f 8f60 533e
000003b0: d0d2 a63e 56dd 18bc a9f2 023d 057c 35be
000003c0: a775 c4bc bf8e ca3b 9306 613c ffa3 093e
000003d0: f566 8b3b 0c87 9ebd 9bc4 0e3e 0764 fc3c
000003e0: e754 c5bc bc2d 343e 58a3 df3e f2c2 4ebe
000003f0: 7665 bcbb 0609 6abd 0ce6 5b3b 4c8f 6fbd
0.82878935 -0.09557308 0.1123608 0.21751921 -0.1240898 -0.1819576 -0.2986965 0.30742896
-0.26456586 0.49983162 -0.029655637 0.010081993 0.11464578 -0.46534628 -0.10834065 -0.028160209
0.068467125 0.03703038 0.16220845 -0.5953272 -0.06450134 -0.07744957 -0.11893375 -0.20588736
-0.001975966 -0.49065912 -0.51529205 -0.049915537 0.32202426 0.014573354 0.28640935 -0.14816563
-0.012824575 -0.2048313 0.15856798 0.0009346122 -0.24036168 0.0008245642 0.001288476 -0.020219984
0.20998754 -0.017126009 -0.49473354 -0.31789836 -0.10207742 -0.116333015 -0.37992418 -0.002634864
0.48278406 -0.029156247 -0.024447223 -0.00043855116 -0.24395406 0.014474636 0.07437935 0.031787224
0.13767241 0.4895954 -0.010641838 0.008050613 0.26258922 0.51453704 0.030274995 0.19490692
0.010947294 0.22382726 0.17178278 -0.21486132 -0.30434358 -0.007642122 -0.015956238 0.23264329
0.022002406 0.010381709 0.0011148602 -0.48591843 -0.4022746 0.20810099 -0.08861167 0.8888882
-0.00090841897 -0.21705829 -0.28784773 0.029343575 -0.43826216 -0.032682244 -0.57659894 -0.44725156
-0.015060268 -0.01715115 -0.0012176984 -0.059447423 0.16260868 0.07675089 0.16273013 -0.010722105
-0.41364664 0.3873235 0.1336999 0.026278898 -0.41570833 -0.3902566 -0.061701074 0.17802511
-0.04136795 -0.040647525 0.48670217 0.5619479 0.0015916368 0.026042337 0.43033043 -0.19185124
-0.094603926 0.014883076 -0.342456 0.01976725 -0.020690858 -0.4336954 -0.12691838 -0.028016387
0.0063097468 -0.011875657 0.020262253 -0.10062957 -0.19569471 -0.00032622213 -0.32260063 -0.071743645
-0.15089035 0.07521334 0.6978854 0.033675734 -0.1472188 0.0066178334 0.020144293 -0.015498418
-0.11008584 -0.37754458 -0.28334314 -0.1383624 -0.016135534 0.08980825 0.1550872 0.071412265
-0.23932573 -0.16447532 -0.22229941 -0.1319699 -0.19092768 -0.0865057 -0.33910054 0.16882414
0.5184027 -0.01904893 0.039761413 -0.28401455 0.0046766344 0.07248061 0.009775903 0.05254114
-0.016541407 0.06131874 0.17188135 -0.028056756 -0.014246699 -0.0036390654 0.040941216 0.14807442
0.13374008 0.19865076 0.40332478 0.51310354 -0.32003644 0.08100098 0.04023287 -0.27817166
-0.51576555 -0.020249765 0.056736264 0.0056076264 0.00057451945 0.2654333 -0.1472534 -0.013141957
-0.04444859 0.306467 -0.19833086 0.14416416 0.036162045 0.19485448 0.05911615 -0.41502157
-0.0073269857 -0.10987173 0.115804546 0.39871165 0.27186504 -0.009745776 -0.35292232 -0.33483937
0.020462349 0.2171993 -0.3004151 -0.0052748504 -0.24447478 0.0033618398 -0.013380671 0.272436
-0.08791219 0.0032011122 0.14274698 -0.32869196 -0.28007063 0.13010715 -0.51869464 0.0143870525
0.007150207 -0.23860481 -0.017692713 -0.003870653 0.368293 0.27837905 0.57401854 0.48422465
0.3297676 -0.71508735 -0.31661254 -0.029983513 -0.5703103 -0.5926596 0.35557526 0.3954622
0.18266337 0.37383154 0.59006655 0.20642303 0.32582712 -0.009330114 0.0319697 -0.17723091
-0.023981882 0.0061815674 0.013734478 0.13441466 0.004254217 -0.07740602 0.13942187 0.030809416
-0.024088336 0.17595571 0.4367931 -0.20191553 -0.0057494 -0.05713751 0.0033553867 -0.058486268

classifier.bias f4 [5]
00000000: 79aa e5be 222a 783f dd26 503f f461 61bf
00000010: 7234 e8be
-0.44856623 0.9693929 0.813093 -0.8804009 -0.45352513

features.9 f4 [120]
00000000: 8512 54bd 8d44 483d 4ae4 9b3e dd7b 913e
00000010: ffc7 3cbd 33ec 2cbc 5c8d 363c 190f a83d
00000020: 68fa 6d3c fbbe 0fbd a884 f1bb 02e0 f8bd
00000030: 18a5 803c 31fb 863b 2421 1e3e 49b2 223d
00000040: 4671 013e f7ff b3bc 691c 7cbd 924a 6e3d
00000050: 3412 01bd 08cb c13d aa4e 863a 6963 05bd
00000060: 31e4 8d3d 827b 97bd 3dd6 a53d 1d06 1fbd
00000070: c761 0c3e c95a 353d 8b8b a33d 7bec 6b3c
00000080: 7ffc adbb 3355 503b 5c67 363d 388d c2bc
00000090: 9c37 d5bc c484 bebc adc8 0abb 32bc a33c
000000a0: 1936 953c cd66 26bc 722e 043d 7fe5 aebc
000000b0: fb19 de3d fbc8 523d 62b9 093d 8b25 8d3d
000000c0: 8bf2 8a3c c35e 313e 95fb 43bc 23e0 32bc
000000d0: 5099 bf3d 5845 123d 27ca 82bb 9bdc 3fbc
000000e0: 6217 e13c e7fb 4abb d834 fb3c a197 743c
000000f0: 74e8 1fbd 09bd 2dbc 4574 033d 82e8 463c
00000100: 7a23 d9bb 3cf4 603c f324 ddbc dc1d 283d
00000110: 75ba c3bd 696a 683d afe0 f23c c87b 38bd
00000120: e329 523d 2848 c6ba 3593 083c 6c0d ce3d
00000130: 5b5c d23d 14cd 533d a09b d5bb 3241 d3bc
00000140: 11ba efbc 10f0 40bb d8bf 683d 464e 07bc
00000150: 13f8 643c 6422 48bd a792 ff3d 29da d43c
00000160: 4fcd 91bd 7795 313e 9746 6fb9 0b3b 3f3d
00000170: ed2c 2ebd 714d 80bc 4021 a73d b05f 363e
00000180: 4d2e 253d 4a99 2e3e 8f7b 9e3c 5fec dc3b
00000190: 407f 133b 8ef3 9fbd d842 a9bb 9c93 733c
000001a0: 86eb c63d a6ff e93b 949b 653c 2837 4e3e
000001b0: 8a6b 2e3d f0da a23d 7845 b83c caa2 8c3d
000001c0: a47f ac3d a79f 0dbd df9c 5fbd 38ad 82bb
000001d0: 70c3 87bc d3ba b93b a053 8fbd bff4 9ebd
-0.051775474 0.0488935 0.30447608 0.28414813 -0.04608917 -0.010554361 0.011142101 0.08206005
0.0145250335 -0.035094243 -0.00737055 -0.12152101 0.015703723 0.0041193 0.1544233 0.039720807
0.12640867 -0.02197264 -0.06155053 0.058176585 -0.0315115 0.09462553 0.0010246832 -0.032565508
0.0692829 -0.07396604 0.08097503 -0.03882419 0.13709174 0.044276033 0.079856 0.014399643
-0.005309641 0.0031789064 0.044532165 -0.023748979 -0.026027493 -0.023256667 -0.002117674 0.0199872
0.018214272 -0.010156346 0.032270856 -0.021349667 0.10844799 0.0514612 0.03362406 0.068919264
0.016961357 0.17321305 -0.011961837 -0.010917696 0.09355414 0.035710663 -0.0039913836 -0.011710311
0.02747697 -0.00309729 0.030664846 0.014928729 -0.039040044 -0.0106041515 0.032093305 0.012140395
-0.0066265436 0.013730105 -0.026995158 0.0410441 -0.09557048 0.056742106 0.029648153 -0.045039922
0.051309478 -0.0015127705 0.008335878 0.10061154 0.10271522 0.05170925 -0.006518796 -0.025787923
-0.029263528 -0.0029439963 0.05682358 -0.008258408 0.013975161 -0.048860922 0.124791436 0.025982933
-0.07119238 0.17342173 -0.00022819113 0.046687167 -0.042523313 -0.015661927 0.08160639 0.1780994
0.04032736 0.17050663 0.019346027 0.006742045 0.0022506267 -0.07810126 -0.005165439 0.014866736
0.09712891 0.0071410714 0.0140141435 0.20138228 0.042583026 0.07951915 0.022494063 0.06866987
0.08422783 -0.034576084 -0.054592963 -0.0039879344 -0.016572684 0.005668023 -0.06998372 -0.07761525

features.11 f4 [84]
00000000: 3afe a63e 8bd5 8d3d 78bf 4b3e 3bb3 ad3e
00000010: d6e0 8cbd 0e7f 873d 466c d83d c22b 3e3d
00000020: f827 dc3d d536 053e 5d24 623d 6cf5 8eba
00000030: eb38 783d a49a 193e 7c8e 063d 290d 633c
00000040: d767 0dbc b903 233e f636 6a3c a7d1 6c3e
00000050: bd1a e43c f37b 763d 69f0 eb3d 1cd7 0a3e
00000060: eb4c c6bb cb14 9ebc 3363 2e3e 9903 653e
00000070: 30c5 693e c5e8 433a 03c4 04bd fa02 523d
00000080: 7e31 aa3b e970 833c 77b0 a8ba 060c 81bb
00000090: 2226 df3d 8880 28bb 32bf cbb8 72a7 fa3d
000000a0: f64e b83c 1493 84bb ceaf c53d e3c2 763d
000000b0: 1731 a9bc ee5b 113e 45b7 f63d faa3 963c
000000c0: b663 913d 3290 f6bc 67ec 183b ebe2 b5bb
000000d0: 48fc 3c3e 7627 283e 34c8 a53e 5bcd 6e3e
000000e0: d92d 6a3e ec70 2b3d 4971 7a3d 2712 c83c
000000f0: ce71 4a3d 74e4 823d d962 363e 1064 823e
00000100: 9e29 983d 085c 713e e6bb af3e d69d 9a3d
00000110: a380 c33e ba28 d93a a20c a03b 0bc0 043c
00000120: 2ff2 faba a08d df3c 49b4 37bb cd95 183e
00000130: f047 ccba ac35 313d 1170 9d3d 7683 363e
00000140: 143e 39bb cce8 3d3d 1429 3c3e fa19 d53c
0.32615834 0.06925496 0.19897258 0.33925804 -0.068788216 0.06616031 0.105675265 0.04642845
0.10749811 0.13009198 0.05521046 -0.0010906882 0.060601156 0.15000397 0.032850727 0.013858118
-0.008630714 0.15919389 0.01429533 0.23126851 0.027844781 0.0601768 0.11520464 0.1355862
-0.00605165 -0.019297024 0.17030029 0.22364654 0.22829127 0.0007473345 -0.032413494 0.05127237
0.005193888 0.01604505 -0.0012869973 -0.003938201 0.10895945 -0.0025711376 -9.715407e-05 0.12238969
0.022498589 -0.0040458534 0.09652673 0.060244452 -0.02065329 0.14195225 0.12046675 0.018388737
0.070990965 -0.030098055 0.0023334266 -0.0055507324 0.18455613 0.16421303 0.32379305 0.23320524
0.22869052 0.041855738 0.061143193 0.024422718 0.04942494 0.0639123 0.17811145 0.25466967
0.07429813 0.23570263 0.34323043 0.07549636 0.3818408 0.0016567924 0.0048843184 0.008102427
-0.0019145663 0.027289212 -0.0028031042 0.14900894 -0.0015585404 0.043264076 0.076873906 0.17823586
-0.0028265761 0.04636459 0.18375045 0.026013363

features.1 f4 [6]
00000000: feff 1fbd 0400 0080 85fd 2b3e 204e f3bb
00000010: aa10 3c3d 095f 353e
-0.039062493 -6e-45 0.16795929 -0.0074250847 0.04591433 0.17712034

features.5 f4 [16]
00000000: e194 f6bd 6dfe debe c761 b1be 0631 3ebf
00000010: 892c 16bd 0cc4 fabe 1cb9 2b3f 3a40 d23e
00000020: 1855 d3be 298a d0bd 1791 b3be 5bc7 adbe
00000030: caf2 cdbe 3271 883e 188c 193e c97a c7bf
-0.12040115 -0.43553486 -0.3464491 -0.74293554 -0.036663566 -0.48977697 0.6707933 0.41064626
-0.4127586 -0.10182602 -0.35071632 -0.3394116 -0.40224296 0.2664886 0.14994848 -1.5584346

features.1 f4 [6]
00000000: 6859 b83f 0400 0000 49fe db3f bf9c 8d40
00000010: 4f0e 7340 eca4 aa40
1.4402285 6e-45 1.7186977 4.425384 3.7977483 5.332632

features.5 f4 [16]
00000000: c704 223e 9580 cd3e 8006 113f 53a9 463f
00000010: 977e 7c3d b95d 0c3f 5f19 ae3e a271 a13e
00000020: cf72 ae3e aa55 0e3e 3169 753e 8a49 a23e
00000030: fdc2 063f 6b72 823e db25 973e f6b3 8f3f
0.15822135 0.40137163 0.56650543 0.7760212 0.061644163 0.5483051 0.34003732 0.31532007
0.34071967 0.13899866 0.23965909 0.3169673 0.5264128 0.2547792 0.2952107 1.1226795

features.1 f4 [6]
00000000: 32d6 873f aef9 103f 359c 293f bbfd a03f
00000010: 7814 c23f d11e c73f
1.0612242 0.5663098 0.6625398 1.2577432 1.5162497 1.555628

features.5 f4 [16]
00000000: fadf 993f 7810 d93f aa16 ee3f 574f e63f
00000010: 8c4e c13f f0bc d53f 90b4 9d3f 93ec a53f
00000020: f16e ce3f c191 b33f f29b a63f fece ca3f
00000030: f878 c53f 026d b13f c553 b63f b4b0 c23f
1.2021477 1.6958151 1.8600667 1.7992963 1.5102096 1.6698284 1.2320728 1.2962822
1.6127607 1.4028856 1.3016341 1.5844419 1.5427542 1.3861392 1.4244314 1.5210176

features.1 f4 [6]
00000000: 6608 f83c dcb1 113e 3cff 533e ba72 983d
00000010: 563f 08be 6583 a93c
0.030277442 0.14228004 0.20702833 0.07443757 -0.1330541 0.020692537

features.5 f4 [16]
00000000: f9d8 c1bd ba81 35bf 3725 1fbf 0cca 15be
00000010: 21c8 21bf 7981 ddbe 382d 4dbe f0aa 56be
00000020: aed8 cabd 73cc b9bd 4ece ca3d cbe1 ddbe
00000030: f810 b2be c36d a9be dabf b8be 1e9c ad3c
-0.094652124 -0.7090107 -0.6216616 -0.14627856 -0.63196 -0.43262842 -0.20036781 -0.20963645
-0.099046096 -0.09072199 0.09902631 -0.4333633 -0.3477857 -0.33091554 -0.3608387 0.021192607
