checkpoints_lenet5/CPG_single_scratch_woexp/lenet5/food_containers/gradual_prune/0.1/checkpoint-20.pth.tar (torch, 316551 bytes, 28 tensors)

features.0.weight f4 [6, 3, 5, 5]
0	0x3dab7b5a	0.08373137
1	0x3e39248d	0.1808035
2	0xbe6b8c6b	-0.23002784
3	0xbeb7f708	-0.35930657
4	0xbee92d2a	-0.4554227
5	0x3e919eb1	0.28441384
6	0xbdcc1783	-0.09965422
7	0xbdcd7560	-0.10032153
8	0xbe7e370d	-0.24825688
9	0xbdcddb14	-0.100515515
10	0x00000000	0.0
11	0xbd9953cf	-0.07486688
12	0x00000000	0.0
13	0xbe10e7b1	-0.14150883
14	0xbd37f786	-0.04491379
15	0x00000000	0.0
16	0xbe3caa57	-0.18424354
17	0xbd078eff	-0.033095356
18	0x00000000	0.0
19	0x3e2c3023	0.16815238
20	0xbd5e525d	-0.054277766
21	0x00000000	0.0
22	0x3e4f5de7	0.20250665
23	0x3e98c573	0.29838142
24	0x3e914a5c	0.28377044
25	0x3e225719	0.15853538
26	0x3dd29798	0.102828205
27	0x3e8db537	0.27677318
28	0xbdc79427	-0.09745055
29	0x3d426a11	0.047464434
30	0x3de11e76	0.10992138
31	0x3e207b62	0.15672067
32	0xbe57a8ea	-0.2106053
33	0x3daf9985	0.085742034
34	0xbd51ed65	-0.051251788
35	0xbdb2f4ec	-0.087381214
36	0xbea05b85	-0.31319824
37	0xbe443505	-0.1916085
38	0xbe1b8898	-0.15188825
39	0xbda5ca45	-0.080952205
40	0x3d822af0	0.06355846
41	0xbd391746	-0.04518821
42	0xbe39052c	-0.18068379
43	0x00000000	0.0
44	0x3d709b07	0.058741596
45	0xbe638e22	-0.22222188
46	0xbe25ff74	-0.16210729
47	0x3d9d7ad9	0.07689447
48	0x3e0574b7	0.13032804
49	0x3ec4347c	0.38321292
50	0xbec0739a	-0.37588197
51	0xbda220cf	-0.07916414
52	0xbea7fa98	-0.32808375
53	0xbdbba551	-0.09162391
54	0xbe19ccef	-0.15019582
55	0xbd9e95c6	-0.07743411
56	0xbe4d8087	-0.2006856
57	0xbee0998b	-0.43867144
58	0xbe855e78	-0.26048636
59	0x00000000	0.0
60	0xbecabbd8	-0.39596438
61	0xbe1ec828	-0.15506041
62	0xbe96cd0a	-0.29453307
63	0xbd8c9c2a	-0.068657234
64	0x3e9b3df0	0.30320692
65	0xbdc93c7d	-0.0982599
66	0xbe452d81	-0.1925564
67	0x00000000	0.0
68	0x3e05f303	0.13080983
69	0x3f1a822d	0.6035488
70	0x3d427ced	0.04748242
71	0x3e84b778	0.25921226
72	0x3f0b1f77	0.54344887
73	0x3ecbc9df	0.39802453
74	0x3f2f0a37	0.6837496
75	0xbe00a683	-0.12563519
76	0xbd379dad	-0.044828106
77	0x3dde6c5d	0.108605124
78	0x3e02a9f3	0.12760143
79	0x3e80a458	0.25125384
80	0xbd346743	-0.04404379
81	0x00000000	0.0
82	0x3da1ec51	0.07906402
83	0x3e4498eb	0.19198959
84	0x3d161a5c	0.036646232
85	0xbe39ded9	-0.18151416
86	0x3d88841d	0.066658236
87	0x3de83367	0.11337929
88	0x3e91dc97	0.2848861
89	0x3d07a0b8	0.033112258
90	0x00000000	0.0
91	0x3e4c3c14	0.19944793
92	0xbd9a4459	-0.075325675
93	0x00000000	0.0
94	0xbe7ecf33	-0.24883728
95	0xbe25a0a5	-0.16174562
96	0x3db5d2b6	0.088780805
97	0x3d187604	0.037221923
98	0x00000000	0.0
99	0xbd90288c	-0.07038984
100	0x00000000	0.0
101	0xbdf0a211	-0.11749662
102	0x3dbe8ab8	0.09303802
103	0x3e798875	0.2436846
104	0x00000000	0.0
105	0xbe144b55	-0.14481862
106	0x00000000	0.0
107	0x3d5df1fc	0.054185852
108	0x3e1b1b3d	0.1514711
109	0x00000000	0.0
110	0xbcffa53b	-0.031206718
111	0x3e548af7	0.20756136
112	0x3e3052c7	0.17219077
113	0x3d4fa8e1	0.050698165
114	0x3d0ce6b5	0.034399707
115	0x3e070086	0.13183793
116	0x3e2c8303	0.16846852
117	0x3e89198c	0.26777303
118	0xbd351422	-0.044208653
119	0x00000000	0.0
120	0x3d58943f	0.052875753
121	0x00000000	0.0
122	0x3df44f44	0.11929181
123	0xbdbbf32c	-0.09177241
124	0xbe5b6fef	-0.21429418
125	0xbd379422	-0.044819005
126	0x3d1c2563	0.038121592
127	0xbdca24ee	-0.09870325
128	0x3e271257	0.1631559
129	0x3e4837f9	0.19552602
130	0xbe17456b	-0.14772575
131	0xbe3ef86d	-0.18649454
132	0x3e56282b	0.2091376
133	0x3e185c8f	0.14879058
134	0x3e512caf	0.20427202
135	0xbe47bed6	-0.19506392
136	0x00000000	0.0
137	0x3dde56a0	0.10856366
138	0x3dcd749b	0.10032006
139	0x3d96c20d	0.07361231
140	0xbdecc3c6	-0.11560778
141	0x00000000	0.0
142	0xbdd657f2	-0.10465993
143	0xbe260ffb	-0.16217034
144	0x3d9d83af	0.07691132
145	0xbea75309	-0.32680538
146	0x00000000	0.0
147	0x3e57235e	0.21009585
148	0x3e67a78f	0.22622512
149	0xbe24ac56	-0.16081366
150	0x3ec099ef	0.37617442
151	0x3e94e1a2	0.29078394
152	0x3ec5d3d4	0.38638175
153	0x3e95aad6	0.292319
154	0x3e337d77	0.1752833
155	0x3e359ed1	0.17736365
156	0x3ee7ed3c	0.45298183
157	0x3e20ddf8	0.15709674
158	0x3db52633	0.088451765
159	0xbdc24b96	-0.09487073
160	0xbd8b3253	-0.06796708
161	0x3e28a011	0.1646731
162	0x00000000	0.0
163	0xbde5cd98	-0.112208545
164	0xbdbe4cbd	-0.092919804
165	0xbe85e8e9	-0.2615426
166	0x00000000	0.0
167	0xbe9aa70e	-0.30205578
168	0xbe19e58b	-0.1502897
169	0xbd6fd4b7	-0.05855247
170	0xbd2d3143	-0.042283308
171	0xbe0236d0	-0.12716222
172	0xbed51a3c	-0.41621578
173	0xbe40d037	-0.18829428
174	0xbe12ffde	-0.14355418
175	0x3e891aaa	0.26778156
176	0x3ed57241	0.4168873
177	0x3ed28466	0.41116637
178	0x3e87e80e	0.2654423
179	0x3e2819b8	0.16416061
180	0x3e3d5c08	0.18492138
181	0x3e36d116	0.17853197
182	0x3e104113	0.14087324
183	0x3eab0e9d	0.33409587
184	0x3db8958f	0.09012901
185	0x3dd4d9a5	0.10393075
186	0x3e6e031b	0.23243372
187	0xbe15b608	-0.1462022
188	0x00000000	0.0
189	0xbe278717	-0.16360126
190	0xbe721cc3	-0.23643784
191	0x3d2829c2	0.04105545
192	0x00000000	0.0
193	0x00000000	0.0
194	0xbdbe66e9	-0.09296972
195	0xbdd03f3e	-0.101683125
196	0xbe953787	-0.29143927
197	0xbe67e7ae	-0.22646973
198	0xbe881a0f	-0.2658238
199	0xbe26dd2a	-0.16295305
200	0x3ebeec2a	0.37289554
201	0x3ee86387	0.45388433
202	0x3eba4bbe	0.36385912
203	0x3e584591	0.21120287
204	0x00000000	0.0
205	0xbd1a754a	-0.03770951
206	0xbd259a54	-0.040430382
207	0x3e93249b	0.28738865
208	0xbe0b9407	-0.13630687
209	0xbe9664b5	-0.29373708
210	0xbde5a983	-0.112139724
211	0x3daaf1c0	0.083468914
212	0xbe5f6e73	-0.21819477
213	0xbe256822	-0.16153005
214	0xbeacd8bf	-0.33759114
215	0x3d1b21dd	0.03787409
216	0xbdc1cc4d	-0.094627954
217	0xbdcccc28	-0.09999877
218	0xbea574c7	-0.32315657
219	0xbed21ff9	-0.41040018
220	0xbde9befd	-0.11413381
221	0x00000000	0.0
222	0xbe8f0cda	-0.27939492
223	0xbeeb2e23	-0.45933637
224	0xbec9f69e	-0.39445966
225	0xbe5d868f	-0.21633361
226	0xbe21d1e8	-0.15802729
227	0xbeab38f3	-0.33441886
228	0x3cf85726	0.030314993
229	0x00000000	0.0
230	0x3d845344	0.06461194
231	0xbcf1cbe6	-0.029516172
232	0xbd87106a	-0.065949276
233	0x3e88e2a8	0.26735425
234	0x3eaf62cb	0.3425506
235	0x3d4be2bf	0.04977679
236	0xbd242a8b	-0.040079635
237	0xbdf7d4af	-0.12101113
238	0x3e6b2c13	0.22966032
239	0x3ea88a2d	0.3291792
240	0xbd691821	-0.056907777
241	0xbe8398ca	-0.25702506
242	0xbeae6be5	-0.34066692
243	0xbdd34941	-0.103167064
244	0xbe02d0b8	-0.12774932
245	0x3eaecbd6	0.3413989
246	0x00000000	0.0
247	0xbe3f802e	-0.1870124
248	0x3d3e2518	0.046422094
249	0x3e84bc67	0.2592499
250	0x00000000	0.0
251	0x00000000	0.0
252	0xbdaa3feb	-0.08312973
253	0x3eab0e2b	0.33409247
254	0x3eae8b1b	0.34090504
255	0x3d841001	0.06448365

features.1.weight f4 [6]
0	0x3f827812	1.0192893
1	0x3f1f63d2	0.6226169
2	0x3f7e5719	0.9935165
3	0x3f9451cc	1.1587462
4	0x3fbb7808	1.4646006
5	0x3fbb3719	1.462619

features.1.bias f4 [6]
0	0x3c543a32	0.012953328
1	0x3e02b39f	0.12763833
2	0x3e9465cf	0.28983924
3	0x3c58e5ff	0.013238429
4	0xbd40d720	-0.04708016
5	0x3da02895	0.078202404

features.1.running_mean f4 [6]
0	0xbcb8f34b	-0.022576949
1	0xbe20b239	-0.15692987
2	0x3da86b63	0.082236074
3	0xbd2a5ba3	-0.041591298
4	0x3dc62702	0.09675409
5	0x3e8f4604	0.27983105

features.1.running_var f4 [6]
0	0x40f1906b	7.548879
1	0x40a3544a	5.104039
2	0x4196954d	18.8229
3	0x418987ae	17.19125
4	0x40dc2170	6.8790817
5	0x41366b06	11.401129

features.4.weight f4 [16, 6, 5, 5]
0	0xbe4609a6	-0.19339618
1	0xbdd5c768	-0.10438424
2	0x00000000	0.0
3	0xbdf8b0b1	-0.12143076
4	0x00000000	0.0
5	0xbe058901	-0.13040544
6	0xbe0f97d0	-0.14022756
7	0xbc893d23	-0.016752785
8	0xbd320300	-0.043459892
9	0x00000000	0.0
10	0x00000000	0.0
11	0x3d1ec760	0.038764358
12	0xbdae2c77	-0.08504575
13	0xbdc7b55b	-0.09751388
14	0x00000000	0.0
15	0x3cabf2d5	0.020989815
16	0x00000000	0.0
17	0xbd1abf23	-0.03777994
18	0x3da10cb2	0.078637496
19	0x3d2cb7a7	0.042167332
20	0x3e00ef60	0.12591314
21	0x3de6b2c9	0.11264569
22	0x3daa983b	0.08329817
23	0x3e44bf75	0.1921366
24	0x00000000	0.0
25	0xbe11cf40	-0.14239216
26	0x00000000	0.0
27	0x3dd7d05b	0.105377875
28	0x3d1f50a3	0.03889526
29	0x3d947e18	0.07250613
30	0x3d335bf3	0.04378886
31	0x3d86ae45	0.06576208
32	0x3c9d355d	0.019190485
33	0x3cbfe066	0.023422431
34	0xbd302557	-0.04300436
35	0x3e25f443	0.1620646
36	0x3dde1a85	0.10844902
37	0x3d2f3f96	0.04278525
38	0x3c8ac7fd	0.016941065
39	0x00000000	0.0
40	0x3d0e46de	0.034735553
41	0x3ccdb86e	0.025112357
42	0x3d8d1ee3	0.06890657
43	0xbda2d253	-0.079502724
44	0xbd9f727f	-0.0778551
45	0x3ce4eb86	0.027944338
46	0xbd10eea0	-0.03538382
47	0x3d7a8114	0.061158255
48	0xbd9d21af	-0.0767244
49	0x00000000	0.0
50	0xbcbacbdd	-0.022802288
51	0xbddcb1b9	-0.107760854
52	0x3d2c0934	0.042000964
53	0x3d4f7a7e	0.050653927
54	0x00000000	0.0
55	0x3e0647b1	0.13113286
56	0x00000000	0.0
57	0xbd160092	-0.036621638
58	0x3e1fff94	0.15624839
59	0xbe59eb56	-0.2128118
60	0x3dcb67d2	0.099319115
61	0x3d048651	0.032354657
62	0x3d203c27	0.039119866
63	0x3ddcc205	0.10779194
64	0xbdafcdcf	-0.08584177
65	0x3d86ee1b	0.06588384
66	0xbd409413	-0.047016215
67	0x3da5341f	0.08066582
68	0x3db44f4e	0.08804189
69	0xbe522078	-0.20520198
70	0xbe0686d0	-0.13137364
71	0x00000000	0.0
72	0x00000000	0.0
73	0x3d07ceb4	0.03315611
74	0xbdfd9ba1	-0.123831995
75	0xbe42006d	-0.18945475
76	0x3cc90de0	0.024542749
77	0x00000000	0.0
78	0xbe3afd9a	-0.18260804
79	0xbe8c8036	-0.27441567
80	0xbd834efa	-0.06411548
81	0xbe047dfe	-0.12938687
82	0xbdd175b1	-0.10227526
83	0xbe5c7d2f	-0.21532129
84	0xbe34f06d	-0.1766984
85	0xbe2565b9	-0.16152085
86	0xbdd27c6a	-0.10277636
87	0xbdb2e61e	-0.087352976
88	0x00000000	0.0
89	0xbdb2c37e	-0.087286934
90	0xbe3cab2b	-0.1842467
91	0xbe30bb46	-0.17258939
92	0xbd3862a3	-0.045015942
93	0xbca69d90	-0.020338804
94	0xbe5fa0fd	-0.21838756
95	0x3d17fca7	0.037106182
96	0x3d49e84e	0.04929381
97	0xbd087ea5	-0.033323903
98	0xbd1d1882	-0.03835345
99	0xbde88b64	-0.11354712
100	0xbdc5da06	-0.09660725
101	0xbd94d4fc	-0.07267186
102	0xbe24d847	-0.16098128
103	0xbe01e56b	-0.12685172
104	0x00000000	0.0
105	0xbd39d59c	-0.04536973
106	0xbdfed0bf	-0.12442159
107	0xbd8b0bea	-0.06789382
108	0xbdcd487c	-0.10023591
109	0xbd5b6de7	-0.053571608
110	0x00000000	0.0
111	0xbe3fd115	-0.18732102
112	0xbe71c329	-0.23609604
113	0xbdeb96d4	-0.115033776
114	0x00000000	0.0
115	0x3d9475c1	0.07249022
116	0x3d172cce	0.036907963
117	0xbdd3af0a	-0.103361204
118	0x00000000	0.0
119	0x00000000	0.0
120	0x3cda8335	0.026673893
121	0x3e75bb34	0.23997194
122	0x3e139db5	0.14415629
123	0x3d254913	0.040352892
124	0xbc9aaec8	-0.01888217
125	0xbe1268f7	-0.14297853
126	0xbd91756e	-0.07102476
127	0xbcf7b030	-0.03023538
128	0x3da69b27	0.08135062
129	0x3e85079d	0.2598237
130	0xbe1ecba8	-0.15507376
131	0xbdc270d2	-0.09494175
132	0xbd3247a2	-0.043525346
133	0x3e777870	0.24167037
134	0x3e04750d	0.12935276
135	0xbe19e041	-0.15026952
136	0x3d6817ff	0.05666351
137	0x3d00bb97	0.0314289
138	0x3d165efb	0.036711674
139	0x3df4ead1	0.1195885
140	0x3d374980	0.04474783
141	0x3e166cbd	0.14689918
142	0x3de111e3	0.1098974
143	0xbd803f79	-0.062621064
144	0xbd431187	-0.047624137
145	0x3e11cb1b	0.14237635
146	0x3dd6b642	0.10483982
147	0xbe1d28a3	-0.15347533
148	0xbdf90d14	-0.121606976
149	0xbe11db53	-0.14243822
150	0x3e477ca6	0.19481143
151	0x00000000	0.0
152	0xbdea4905	-0.114397086
153	0xbe93590e	-0.2877888
154	0x00000000	0.0
155	0xbd69e47b	-0.05710266
156	0xbe4f5c2b	-0.20250003
157	0xbe8cd616	-0.27507085
158	0xbe407884	-0.18795973
159	0x3e7b774f	0.24557231
160	0xbe41c37f	-0.18922232
161	0xbe2406ec	-0.16018265
162	0xbe90bcaa	-0.2826894
163	0x3e49e90a	0.19717804
164	0x3eacd1aa	0.3375371
165	0xbe59e497	-0.21278606
166	0xbd49c03e	-0.049255602
167	0x00000000	0.0
168	0x3e058c07	0.13041697
169	0x3e82ef66	0.25573272
170	0x00000000	0.0
171	0x3dcf2092	0.10113634
172	0x3cc5e653	0.024157679
173	0x3e1dffd0	0.15429616
174	0xbe06ec6d	-0.13176127
175	0xbdbb48d5	-0.09144751
176	0xbda7976c	-0.08183178
177	0xbd131cb6	-0.035916053
178	0x3dac85a7	0.0842393
179	0xbe0b0015	-0.1357425
180	0x3d38d2ab	0.045122784
181	0xbd20bb0f	-0.039240893
182	0xbd88bde1	-0.066768415
183	0x00000000	0.0
184	0xbd9447ba	-0.07240243
185	0xbcdb4361	-0.026765527
186	0xbce4462a	-0.027865488
187	0x00000000	0.0
188	0x3cc1060d	0.023562456
189	0xbded18ff	-0.11577033
190	0xbcb36517	-0.02189879
191	0xbd8772ef	-0.06613719
192	0x3cc5a387	0.024125827
193	0x00000000	0.0
194	0x3e7eb218	0.24872625
195	0x3e3fae56	0.18718848
196	0xbce1ffe0	-0.027587831
197	0xbd3432bd	-0.0439937
198	0x3e2d45a5	0.16921099
199	0x3ea0c31f	0.31398866
200	0x3e32982f	0.17440866
201	0xbcd08ddb	-0.025458267
202	0xbe49b9f1	-0.19699837
203	0x3de3bd85	0.11120132
204	0x3e2f9824	0.17147881
205	0x3d96086b	0.07325824
206	0xbd5960eb	-0.053070944
207	0xbde13c7d	-0.10997865
208	0x3e532aa3	0.20621733
209	0xbd583fee	-0.052795343
210	0x3dfd46cb	0.12367018
211	0xbdc0da22	-0.094166055
212	0x3e28288d	0.16421719
213	0x3e204303	0.15650563
214	0xbe9ed872	-0.3102451
215	0x3e212a72	0.15738848
216	0x3e1db869	0.15402378
217	0x3e03a600	0.12856293
218	0xbd869bb0	-0.06572664
219	0xbeaad165	-0.3336288
220	0xbd410f49	-0.047133718
221	0x3dc83258	0.09775227
222	0x3d61d543	0.055135023
223	0xbe2dd25a	-0.16974774
224	0xbe81125d	-0.25209323
225	0x3d656248	0.05600193
226	0x3e532d9e	0.2062287
227	0x3d00284f	0.03128844
228	0xbd156fe2	-0.036483653
229	0xbe097b7e	-0.13426015
230	0x3e36af93	0.17840414
231	0xbe7e91a5	-0.24860246
232	0x3d887f11	0.06664861
233	0xbe0aa068	-0.13537753
234	0xbe0c439f	-0.1369767
235	0xbc1045d1	-0.008805708
236	0x00000000	0.0
237	0xbd35a9ce	-0.04435139
238	0xbd10bf51	-0.035338704
239	0xbe08651a	-0.13319817
240	0xbc5ecd88	-0.013598807
241	0xbd06056f	-0.032720026
242	0x3d5197c5	0.05117013
243	0x3ce5f2f7	0.028069956
244	0x00000000	0.0
245	0x3ce9cbd9	0.028539585
246	0x00000000	0.0
247	0x3d7def7f	0.06199598
248	0x3d17e504	0.03708364
249	0x3cd8c6a8	0.026461914
250	0x3d3b92dc	0.045794353
251	0x00000000	0.0
252	0x3dbe4236	0.092899725
253	0x3c7cf56e	0.015439374
254	0xbe302762	-0.17202523
255	0x3ddf34cc	0.10898742

features.5.weight f4 [16]
0	0x3f7af3fa	0.9802853
1	0x3fbc8f6a	1.4731266
2	0x3fd01f71	1.6259595
3	0x3fb9daae	1.4519861
4	0x3fafb25b	1.3726305
5	0x3fabb115	1.3413416
6	0x3f8779d3	1.0584053
7	0x3f84a066	1.036145
8	0x3fa8f0bb	1.3198465
9	0x3f966943	1.1750873
10	0x3f85ada9	1.0443622
11	0x3fa806c1	1.3127061
12	0x3fa0e7e5	1.2570769
13	0x3f910224	1.1328778
14	0x3f9b4360	1.2129936
15	0x3f9f5374	1.2447343

features.5.bias f4 [16]
0	0xbe39a277	-0.18128382
1	0xbf414738	-0.75499296
2	0xbf062948	-0.5240674
3	0xbe81b68f	-0.25334594
4	0xbf050cd0	-0.51972675
5	0xbeef4188	-0.46729684
6	0xbe57f90a	-0.21091095
7	0xbe8d7198	-0.27625728
8	0xbe80b4a8	-0.2513783
9	0xbe42a98b	-0.19009988
10	0xbd2f466d	-0.042791773
11	0xbedf6c05	-0.436371
12	0xbedf4523	-0.43607435
13	0xbebb9186	-0.36634463
14	0xbec1257e	-0.37723917
15	0xbe0e0082	-0.13867381

features.5.running_mean f4 [16]
0	0xbf920b66	-1.1409729
1	0xbf3a7281	-0.7283097
2	0xbf1c9e84	-0.61179376
3	0xbfe8bd27	-1.8182725
4	0xbf44d2c4	-0.768841
5	0xbf5a4c86	-0.85273015
6	0x3fd09a60	1.6297112
7	0x3f11563d	0.56772214
8	0xbf9bf11f	-1.2182959
9	0xbda608cd	-0.08107147
10	0xbf252c46	-0.6452068
11	0xbf4e6e89	-0.80637413
12	0xbf1a7c44	-0.60345864
13	0x3faea10b	1.3642896
14	0xbeedb899	-0.464299
15	0xc009f5c2	-2.1556249

features.5.running_var f4 [16]
0	0x3f9826f6	1.188689
1	0x3f9cbf2c	1.2245841
2	0x3f91eb9b	1.1400026
3	0x40194d73	2.3953521
4	0x4014c7eb	2.324702
5	0x4005a3c7	2.0881212
6	0x3f9a7e97	1.2069882
7	0x3faeb8b2	1.3650115
8	0x3f9c5481	1.2213289
9	0x3f9f8ae7	1.2464265
10	0x3fa38c2f	1.2777156
11	0x3ffc498b	1.9709944
12	0x3f9788cb	1.1838621
13	0x3f93686b	1.1516241
14	0x3f578615	0.8418897
15	0x4003b42e	2.0578723

features.9.weight f4 [120, 400]
0	0x3d801fef	0.06256091
1	0x3dd26eb2	0.1027502
2	0xbc066f90	-0.0082053095
3	0xbd7336f3	-0.059378576
4	0x3bd58039	0.0065155295
5	0xbc5c6edc	-0.013454165
6	0x3d66f275	0.05638357
7	0x3b777693	0.0037759885
8	0xbd56da4a	-0.05245427
9	0x3c7aea40	0.015314639
10	0xbcc039e2	-0.0234651
11	0x3c8b6219	0.01701455
12	0x3cdeae18	0.027182624
13	0xbc4b44a8	-0.012406506
14	0x3c182bae	0.009287758
15	0xbd7afda6	-0.061277054
16	0x3add5676	0.0016886729
17	0x3ca3b267	0.01998253
18	0x3d40d742	0.047080286
19	0x3d334e4d	0.043775845
20	0xbd612318	-0.05496511
21	0xbc92b167	-0.017906858
22	0x3c305938	0.010763459
23	0x3da5ec2d	0.081016876
24	0x3d9da69f	0.07697796
25	0x3c89fdb2	0.016844604
26	0x3decb826	0.11558561
27	0x3d323cd2	0.043515034
28	0xbd87046e	-0.06592642
29	0xbd9e6d02	-0.07735635
30	0x00000000	0.0
31	0x3d49b36a	0.04924337
32	0x3cac757b	0.021052113
33	0xbc9691fb	-0.018380156
34	0xbd269f0d	-0.040679026
35	0x00000000	0.0
36	0xbc45a279	-0.012062662
37	0x3c3e3d7f	0.0116113415
38	0xbd0fe1d3	-0.035127472
39	0xbd308de1	-0.043104056
40	0xbc877792	-0.016536508
41	0xbd138485	-0.036015052
42	0xbc803725	-0.015651295
43	0x3cfeb7b4	0.031093456
44	0x3ccd1d17	0.025038285
45	0xbcf8316d	-0.030297006
46	0xbd97c9df	-0.07411551
47	0xbcf733eb	-0.030176124
48	0x3da5a435	0.08087961
49	0x3ca348ef	0.019932238
50	0xbd195128	-0.037430912
51	0x3d197334	0.037463382
52	0x3d34d03d	0.044143904
53	0x3c6160a9	0.013755956
54	0xbbdc7a5b	-0.006728453
55	0xbdb793fd	-0.089637734
56	0x3d0501fb	0.03247259
57	0x3db31d33	0.08745804
58	0xbbbb831b	-0.005722416
59	0xbd263a41	-0.0405829
60	0xbdaa63fd	-0.083198525
61	0xbd43ee32	-0.047834583
62	0x3d9e002f	0.07714879
63	0x3c58e9ff	0.013239383
64	0xbd8ab0af	-0.06771981
65	0xbda5ca2b	-0.08095201
66	0xbd937ec7	-0.07201915
67	0x00000000	0.0
68	0x3cd2534d	0.025674487
69	0xbd386f80	-0.04502821
70	0xbd0cf20b	-0.034410518
71	0xbd96f42b	-0.0737079
72	0xbd56b2a5	-0.052416462
73	0x3bfb842f	0.0076756696
74	0xbc6e75a9	-0.01455442
75	0x3d9864d5	0.07441107
76	0xbda25f2a	-0.07928307
77	0xbdc6d261	-0.09708095
78	0x3d7fd4ff	0.06245899
79	0x3e2b650f	0.1673777
80	0x3d5f2bf6	0.054485284
81	0xbce0b7ae	-0.027431335
82	0xbd71e378	-0.05905482
83	0x3c75a090	0.014991894
84	0x3e0d9dfe	0.138298
85	0x3d1b62bd	0.03793596
86	0x3c0d26a4	0.00861517
87	0x3cbc80a8	0.023010567
88	0xbcb68d76	-0.02228425
89	0x3d2b748b	0.04185919
90	0xbbfdb797	-0.007742833
91	0x3d07d236	0.033159457
92	0x3d545713	0.051840853
93	0x3c4d6760	0.012536854
94	0xbcb130fa	-0.0216298
95	0xbd209279	-0.039202187
96	0x3ca7f9a6	0.020504784
97	0x3d5a8b43	0.053355467
98	0xbc59a694	-0.013284344
99	0xbd2f7588	-0.042836696
100	0xbd21ccb4	-0.03950186
101	0x3c8e13ca	0.01734342
102	0x3cd80757	0.026370687
103	0x3d8b1ba9	0.06792385
104	0xbcb2869b	-0.0217927
105	0xbc576fde	-0.01314923
106	0xbd2deca3	-0.042462002
107	0xbc1c3807	-0.009534842
108	0x3ce4a66d	0.02791139
109	0x3cc42750	0.023944527
110	0x3c6b9272	0.014378177
111	0xbcd33667	-0.025782777
112	0xbc3f3f1e	-0.011672763
113	0x00000000	0.0
114	0x00000000	0.0
115	0x3c607153	0.013698894
116	0xbd4cc07c	-0.049988255
117	0xbd51077d	-0.051032532
118	0xbd6423b6	-0.05569812
119	0xbc9e3605	-0.019312868
120	0x3caafba6	0.020871948
121	0xbcb4e172	-0.022080157
122	0xbcb47801	-0.022029879
123	0xbcb3e605	-0.021960268
124	0x00000000	0.0
125	0x3c92e2ba	0.017930377
126	0x3c239505	0.0099842595
127	0x3dcd1a59	0.10014791
128	0xbc5acfba	-0.01335519
129	0xbdc88460	-0.097908735
130	0x3c10aeba	0.008830721
131	0xbbada502	-0.0052992115
132	0x3d02d05e	0.031936996
133	0x3c15ea40	0.009150088
134	0xbd78afc0	-0.060714483
135	0xbc591431	-0.013249443
136	0xbc1e4be7	-0.009661651
137	0x3c057018	0.008144401
138	0x00000000	0.0
139	0xbcbc495c	-0.0229842
140	0x3c8dde5f	0.017317949
141	0x00000000	0.0
142	0xbc666279	-0.014061564
143	0xbc9912eb	-0.018685779
144	0x3cf706e8	0.03015466
145	0x3d0c404f	0.034241017
146	0x3bc13721	0.0058964645
147	0xbcafd84b	-0.021465441
148	0xbc04e81c	-0.00811198
149	0x00000000	0.0
150	0xbd1acd6a	-0.037793554
151	0x00000000	0.0
152	0x3d0f2e1d	0.034956086
153	0xbc614aa8	-0.01375071
154	0xbd73e060	-0.059540153
155	0xbd1d9f21	-0.038481835
156	0xbce45df9	-0.02787684
157	0x3bf10225	0.007354992
158	0xbbc665c4	-0.006054612
159	0xbd1c1bcb	-0.038112443
160	0xbc9e65c6	-0.019335639
161	0xbc89ca82	-0.016820196
162	0xbb4172ca	-0.0029517883
163	0xbc37801e	-0.011199979
164	0xbc690ccd	-0.014224243
165	0xbd212c63	-0.03934897
166	0x3c58cbcb	0.013232182
167	0x3c147b77	0.009062639
168	0x00000000	0.0
169	0xbce9499b	-0.02847748
170	0xbd766db7	-0.060163226
171	0xbc40a9c0	-0.011759222
172	0x3bf626dd	0.007511957
173	0xbd5cdc9a	-0.05392132
174	0x3b7eb8a2	0.0038867374
175	0xbc84769d	-0.01616984
176	0x3d578e57	0.05262598
177	0x3c20c58f	0.009812727
178	0xbb9b2140	-0.0047341883
179	0xbdba9c26	-0.09111814
180	0xbcc3cc09	-0.023901002
181	0x3c7acc66	0.015307521
182	0xbd24f003	-0.040267956
183	0x00000000	0.0
184	0xbd65c84f	-0.056099232
185	0xbc7bcd5c	-0.015368786
186	0x00000000	0.0
187	0xbcba5763	-0.022746747
188	0x00000000	0.0
189	0xbc911baa	-0.017713387
190	0xbcca1677	-0.024668915
191	0xbcbbc82a	-0.022922594
192	0xbd06d694	-0.03291948
193	0xbc672203	-0.01410723
194	0xbc86d281	-0.016457798
195	0xbd04e662	-0.032446273
196	0xbd0eb63a	-0.034841754
197	0xbd3d22bb	-0.0461757
198	0xbcb9fe3a	-0.022704232
199	0xbc7eeef8	-0.015559904
200	0x00000000	0.0
201	0xbbe00fe5	-0.0068378323
202	0xbc3a136c	-0.01135717
203	0x3d3c40ff	0.045960423
204	0x3d8ef0ba	0.06979509
205	0xbd3184f9	-0.043339703
206	0xbc93a89a	-0.018024731
207	0xbda2f0e1	-0.079561
208	0xbc8e80b9	-0.017395364
209	0x3d58d637	0.052938666
210	0xbd8282b1	-0.06372584
211	0xbca84dd7	-0.02054493
212	0xbc5f4585	-0.013627415
213	0x00000000	0.0
214	0x00000000	0.0
215	0xbcadd2c6	-0.021218669
216	0xbcfdcbcb	-0.030980965
217	0xbc340cbc	-0.010989364
218	0xbd549547	-0.051900174
219	0xbd184028	-0.03717056
220	0x3d0f9d04	0.03506185
221	0x00000000	0.0
222	0xbce9f210	-0.028557807
223	0xbd53342b	-0.051563423
224	0xbc931070	-0.017952174
225	0x3db40c06	0.08791356
226	0x3db5e681	0.08881856
227	0x3d08db00	0.03341198
228	0xbdbf51dc	-0.09341785
229	0xbd85fd00	-0.065423965
230	0x3d82065e	0.06348871
231	0x3d4a5f39	0.049407218
232	0x3c4a2480	0.012337804
233	0xbd3886a0	-0.045050263
234	0xbd7a8f93	-0.06117208
235	0x3c6a1c27	0.014288939
236	0x3b35ea2b	0.0027757983
237	0x3a2e70e4	0.0006654395
238	0xbc8330bd	-0.016014451
239	0xbbe89457	-0.0070977616
240	0xbcb3f656	-0.021968048
241	0xbcff68dd	-0.031177932
242	0xbd2c8a5f	-0.04212415
243	0x00000000	0.0
244	0x3d2d16f9	0.042258237
245	0xbd106551	-0.035252873
246	0xbc7d3db5	-0.015456607
247	0xbd6366e6	-0.055518053
248	0xbbb24f0a	-0.005441551
249	0x3d6f8def	0.058484968
250	0xbd50d155	-0.050980885
251	0x3c306b2c	0.010767739
252	0xbcac0950	-0.021000534
253	0x3d2c3071	0.042038385
254	0x3d4eac47	0.050457265
255	0xbd053e06	-0.032529853

features.9.bias f4 [120]
0	0xbc09e091	-0.008415357
1	0xbb86dcb9	-0.0041156677
2	0x3e5ec9fe	0.21756741
3	0x3e3cbf72	0.18432406
4	0xbd0c6b16	-0.034281813
5	0xbba36f48	-0.004987631
6	0xbaaab0cf	-0.0013022664
7	0x3d7ae0ed	0.061249662
8	0x3b9e583c	0.0048322957
9	0xbabc440a	-0.0014363539
10	0xbbf96bff	-0.007611751
11	0xbdae1b4e	-0.08501302
12	0x3cac49e0	0.02103132
13	0x3c394d07	0.011309869
14	0x3daa369e	0.08311199
15	0x3c4fd155	0.012684186
16	0x3da9544e	0.08268033
17	0xbc3d4170	-0.011551246
18	0xbd757b4d	-0.059932042
19	0x3d09d86a	0.033653654
20	0x3c6ef221	0.014584095
21	0x3d8b8a16	0.06813447
22	0xbcf243a7	-0.029573275
23	0xbcfdb522	-0.03097016
24	0x3d3a55b8	0.045491904
25	0xbd097c71	-0.033565942
26	0x3d6e3e09	0.05816463
27	0xbca24a03	-0.019810682
28	0x3ddb586b	0.10710224
29	0x3cf32aff	0.029683588
30	0x3d20efe9	0.039291296
31	0x3c306c1a	0.010767961
32	0x3ba2dadb	0.0049699373
33	0xbb3b96ce	-0.0028623822
34	0x3c002ca7	0.007823146
35	0x3c251108	0.010074861
36	0xbca4af32	-0.02010307
37	0xbc7a4b6d	-0.015276772
38	0xbadc252c	-0.0016795746
39	0x3c81c1ef	0.015839545
40	0x3c5ad398	0.013356112
41	0xbb759dd7	-0.0037478113
42	0x3d0b1400	0.03395462
43	0xbc9fa61d	-0.019488389
44	0x3d95d48f	0.07315933
45	0x3d0d85bb	0.034551363
46	0x3c947ae9	0.018125014
47	0x3d53c676	0.05170294
48	0x3c7daa7c	0.015482541
49	0x3de2d139	0.11075062
50	0xba9b3f48	-0.0011844421
51	0xbc9d0d44	-0.019171365
52	0x3d9bbb0f	0.07604038
53	0x3ce029f3	0.027363753
54	0x3c03a943	0.008035961
55	0xbc49e27e	-0.012322066
56	0x3c8422bd	0.016129846
57	0x3b9532fc	0.004553197
58	0x3cf72ad3	0.030171787
59	0x3cbe9fa8	0.02326949
60	0xbcc2a232	-0.023758981
61	0xbbfe0b93	-0.0077528446
62	0x3ce734b7	0.028223379
63	0x3c3730bf	0.011181056
64	0xbbc10abf	-0.0058911736
65	0xbbaa1840	-0.005190879
66	0xbb89d639	-0.0042064455
67	0x3cbd3a05	0.023098955
68	0xbdaa0b77	-0.08302968
69	0x3d919060	0.071076155
70	0x3cb8712d	0.022514904
71	0xbd20777e	-0.039176457
72	0x3d00ea52	0.031473465
73	0xba2e7a7e	-0.0006655826
74	0x3bb5e708	0.0055512227
75	0x3db2c178	0.087283075
76	0x3d98a983	0.07454207
77	0x3cc56758	0.02409713
78	0x3c0b5d9d	0.008506206
79	0xbcfd75b4	-0.030939914
80	0xbc8b94fd	-0.017038817
81	0xbb96907c	-0.0045948606
82	0x3d80876c	0.0627583
83	0xbcba8b24	-0.022771426
84	0xbca22e95	-0.019797603
85	0xbcb83b4d	-0.022489214
86	0x3dd37bee	0.10326372
87	0x3ca22b11	0.019795926
88	0xbd8f4988	-0.06996447
89	0x3dd45ee2	0.1036966
90	0xbbef7028	-0.0073070712
91	0x3ccea224	0.025223799
92	0xbd70ff06	-0.05883696
93	0xbcb7868f	-0.02240303
94	0x3d7ff330	0.06248778
95	0x3e03e54f	0.12880443
96	0x3cd12fe5	0.025535533
97	0x3df81493	0.12113299
98	0x3c758f67	0.014987803
99	0x3baa8496	0.0052037938
100	0xbb96416f	-0.004585437
101	0xbd5bf2fb	-0.05369852
102	0x3cb1f95c	0.02172535
103	0x3c822434	0.015886404
104	0x3d992784	0.0747824
105	0x3c688cfd	0.0141937705
106	0x3c3b08d0	0.011415675
107	0x3e3499d0	0.176368
108	0x3cb0bff8	0.021575913
109	0x3d85f79d	0.06541369
110	0x3c1ee738	0.0096986815
111	0x3d04a2db	0.032381874
112	0x3d53e697	0.05173358
113	0xbcdafe49	-0.02673258
114	0xbd3fe790	-0.046851695
115	0xbb87ac89	-0.004140441
116	0xbcbf90a2	-0.023384396
117	0x3c43d158	0.011951767
118	0xbc81d1f1	-0.015847178
119	0xbd7edc9b	-0.062222105

features.11.weight f4 [84, 120]
0	0x3dce7eb8	0.100827634
1	0x3e0354d7	0.12825333
2	0x3d7f28e9	0.062294874
3	0x3dfbb18f	0.12289726
4	0x3c6890e9	0.0141947055
5	0x3cef800d	0.029235864
6	0x3da31bb3	0.079642676
7	0xbdbedcc0	-0.093194485
8	0xbc90efb2	-0.01769242
9	0xbdec98a4	-0.115525514
10	0xbd584e0e	-0.052808814
11	0x3e765f43	0.24059777
12	0x3dcd3ec5	0.10021738
13	0x3d3ddef4	0.046355203
14	0xb95828b9	-0.00020614536
15	0x3cff71af	0.031182138
16	0x3d8cdd65	0.06878165
17	0xbd3541fb	-0.044252377
18	0x3dc0d384	0.094153434
19	0x3d9087a1	0.07057119
20	0x3db28d4b	0.08718356
21	0xbd1171e2	-0.035508998
22	0x3d201a57	0.03908762
23	0x3d22a944	0.039712206
24	0xbe2bdf9f	-0.16784523
25	0xbc2b78d8	-0.010465823
26	0x3c4a4864	0.012346361
27	0xbbcffa48	-0.0063469745
28	0x3e42c4f3	0.19020443
29	0x3b5db29a	0.0033828379
30	0x3c53085c	0.012880411
31	0x3d413e48	0.047178537
32	0x00000000	0.0
33	0xbcccb725	-0.024989674
34	0x3d99856d	0.07496152
35	0x3d57fbdf	0.052730437
36	0xbcf1fd32	-0.029539678
37	0xbd0b0d8b	-0.033948462
38	0x3c162427	0.009163893
39	0xbd24b73a	-0.0402138
40	0xbbd77d1a	-0.0065761926
41	0xbcf28d91	-0.02960852
42	0x3c1ba6ce	0.009500219
43	0x3993c631	0.0002818569
44	0xbc0317ba	-0.008001262
45	0x3d2c90f0	0.04213041
46	0x3ca5804f	0.020202784
47	0x3e1418cb	0.14462583
48	0x3e399ad0	0.18125463
49	0xbdb7bd28	-0.089716256
50	0xbd4f9353	-0.05067761
51	0x3d7bd2fb	0.061480504
52	0xbd9d6ba3	-0.07686546
53	0x3ca9f889	0.020748394
54	0x3d4a4e29	0.049390946
55	0x3b50bf37	0.0031852254
56	0x3d9bfb40	0.076162815
57	0x3cf75f0d	0.030196691
58	0x3c98708b	0.018608352
59	0xbc4c6a6c	-0.012476545
60	0x3db45384	0.08804992
61	0xbb9c8c36	-0.0047774566
62	0x3d3c55cc	0.04598026
63	0x00000000	0.0
64	0x3d1322dd	0.03592192
65	0xbdfb0193	-0.1225616
66	0x3d78e946	0.060769342
67	0xbd4e9033	-0.050430488
68	0xbdcd4395	-0.10022656
69	0x3bd16116	0.0063897474
70	0xbd6e3b32	-0.05816192
71	0x3ca705e5	0.020388553
72	0x3ca4ff42	0.020141248
73	0x3b8eed1c	0.0043617617
74	0x3ca3df3a	0.020003904
75	0x3deeff97	0.11669844
76	0x00000000	0.0
77	0x3e01148a	0.12605491
78	0xbdadbe58	-0.08483571
79	0xbcaebd41	-0.021330478
80	0xbddebd46	-0.10875945
81	0x3c8fa4b6	0.017534595
82	0x3d716ecb	0.05894355
83	0x3e054017	0.1301273
84	0x3e277f84	0.16357237
85	0xbdb96085	-0.09051613
86	0x3dffd632	0.124920264
87	0xbddcf1b4	-0.10788289
88	0x3c5722b2	0.013130831
89	0xbd6f8b9a	-0.058482744
90	0x3cf85cc8	0.030317679
91	0x3d982a0a	0.07429893
92	0xbe081182	-0.13287929
93	0x3cfe7c50	0.031065136
94	0x3ce3385a	0.027736831
95	0xbc9324f9	-0.017961966
96	0x3d8d5ebb	0.06902834
97	0xbe308cc7	-0.17241202
98	0x3c69d16a	0.01427112
99	0x3d31ccc2	0.043408163
100	0x3d2980eb	0.04138271
101	0x3e2798a4	0.16366822
102	0xbdffbd61	-0.12487293
103	0xbd9bbd86	-0.07604508
104	0x3c1a80f1	0.009430156
105	0x3d61bc97	0.055111494
106	0xbcb38e4e	-0.021918442
107	0x3d479bd3	0.04873259
108	0xbcb71ada	-0.022351671
109	0xbe2e7815	-0.17037995
110	0xbd7129ed	-0.058877874
111	0x3de0bd16	0.10973565
112	0xbe0440b4	-0.12915307
113	0x3df3ba9d	0.11900828
114	0xbcc89338	-0.024484262
115	0x3c0bb8c3	0.008527937
116	0x3d1c26f4	0.038123086
117	0xbcee874f	-0.029117255
118	0xbcf35a52	-0.029706154
119	0xbdacd9c9	-0.08439977
120	0xbcaeaba1	-0.021322073
121	0xbd6c8b47	-0.057750013
122	0x3ce323a6	0.02772696
123	0x3cbef7aa	0.023311455
124	0xbd12ec2a	-0.035869755
125	0xbbe79c25	-0.0070681744
126	0xbcaa3da4	-0.020781346
127	0x3cc392c6	0.023873698
128	0x3bab4143	0.0052262857
129	0xbcb2574f	-0.021770148
130	0x3c19228b	0.009346615
131	0xbca3083f	-0.019901393
132	0x3c22d1cd	0.009937716
133	0x3b89a84e	0.0042009717
134	0x3d3e29e4	0.04642667
135	0xbd0ec6b9	-0.034857485
136	0x00000000	0.0
137	0xbc85097d	-0.016239876
138	0x3b8f13ac	0.0043663587
139	0x3bf79c64	0.007556485
140	0x3ccebd5d	0.02523678
141	0x3d88606a	0.066590145
142	0xbbe465de	-0.0069701513
143	0x00000000	0.0
144	0x3b371601	0.00279367
145	0xbcea5cd0	-0.02860871
146	0xbbd68db8	-0.006547656
147	0xbcdc0d20	-0.026861727
148	0xbd2c8b95	-0.042125303
149	0x3d021198	0.03175506
150	0x3ccb8949	0.024845736
151	0xbcb5d398	-0.022195622
152	0x3c52d451	0.012868003
153	0xbb7a7496	-0.0038216463
154	0xbce2c835	-0.027683357
155	0x3c506c3f	0.01272112
156	0xbc1460bf	-0.009056269
157	0x00000000	0.0
158	0xbbee7518	-0.0072771423
159	0x3b96915b	0.0045949644
160	0x3c9a2a54	0.018819012
161	0x3c053954	0.008131344
162	0x3c9d8df2	0.019232724
163	0xbb6149a1	-0.0034376162
164	0xbc633320	-0.01386717
165	0xbd3f36b9	-0.046683047
166	0xbc96d774	-0.018413283
167	0x3a9b4882	0.001184717
168	0x3c8137ef	0.015773742
169	0x3cac05f2	0.020998929
170	0xbc623c46	-0.013808316
171	0x00000000	0.0
172	0x3d284a13	0.041086268
173	0xbbb468d1	-0.005505659
174	0x3c64ab92	0.013956921
175	0x3c9710fa	0.018440712
176	0xbd42dbd9	-0.047572944
177	0xbbac1bd4	-0.005252341
178	0xbc67e565	-0.014153813
179	0xbced6a44	-0.028981335
180	0xbccf1631	-0.025279136
181	0x3bb05633	0.0053813695
182	0x3b595fcc	0.0033168672
183	0x3c0aba8c	0.008467328
184	0x00000000	0.0
185	0x3c7894f0	0.015172228
186	0xbc4686fc	-0.012117144
187	0x00000000	0.0
188	0xbc081e0a	-0.008307943
189	0xbcee0f01	-0.029059889
190	0x3bdb6f49	0.006696616
191	0x3c4fc325	0.012680803
192	0xbc61f886	-0.013792163
193	0x3c23765b	0.009976949
194	0x3b4c4f66	0.0031175255
195	0x3d50f9fb	0.05101965
196	0x3c3efcaf	0.011656924
197	0x00000000	0.0
198	0xbd0fa8d5	-0.03507312
199	0x00000000	0.0
200	0xbcdf937c	-0.027292006
201	0x00000000	0.0
202	0x3cbcfa46	0.023068558
203	0xbc70d3fb	-0.014698978
204	0xbcfefa95	-0.031125346
205	0xbbf24c73	-0.0073943674
206	0x3c94fb65	0.01818628
207	0x3c157140	0.009121239
208	0xbc1e5cfd	-0.009665725
209	0x3d843554	0.06455484
210	0xbba2c368	-0.004967142
211	0x00000000	0.0
212	0xbd08738d	-0.033313323
213	0xbc9bbcf7	-0.019011004
214	0x3c87fd3b	0.016600242
215	0x3d054872	0.032539792
216	0x00000000	0.0
217	0xbc6ed4ac	-0.014577072
218	0x3b8d8557	0.004318874
219	0xbc26cfcd	-0.0101813795
220	0x3b2cc8da	0.0026364834
221	0xbd21bf4d	-0.03948908
222	0xbb44f2d7	-0.003005197
223	0x3d314732	0.043280788
224	0xbc54f7b6	-0.012998512
225	0xbc0c34e3	-0.008557531
226	0xbbedafb2	-0.0072536105
227	0x3ce93935	0.028469661
228	0x3ba13c81	0.0049205427
229	0x3ba3015a	0.0049745264
230	0xbc1ed5ba	-0.009694511
231	0xbca4e3a6	-0.020128082
232	0x3afccfe4	0.001928803
233	0xbd0215cb	-0.031759065
234	0xbd41201a	-0.047149755
235	0xbc1662e3	-0.00917885
236	0xbc8d3682	-0.017237905
237	0x3c887488	0.016657129
238	0xbba5a13d	-0.0050546215
239	0x00000000	0.0
240	0x3c16ee65	0.009212111
241	0x3d8aca99	0.06776924
242	0x3ca8076f	0.020511357
243	0x3dc1b903	0.09459116
244	0xbd73c6a6	-0.059515618
245	0x3b5a0cc0	0.003327176
246	0xbd13f44c	-0.03612165
247	0xbc5fb332	-0.013653563
248	0xbb991f8a	-0.004672949
249	0xbd17e35e	-0.03708207
250	0xbd138503	-0.03601552
251	0x3d515eeb	0.05111591
252	0x3aae22a7	0.0013285474
253	0x00000000	0.0
254	0x3dad7710	0.08469975
255	0xbcf90f1e	-0.030402716

features.11.bias f4 [84]
0	0x3e7afde2	0.24510911
1	0x3d7d8f20	0.061904073
2	0x3e350624	0.17678124
3	0x3e8bd7cb	0.27313074
4	0xbddcef5b	-0.10787841
5	0x3d95748e	0.07297622
6	0x3dc9b6a3	0.09849288
7	0x3c07dfa2	0.008293064
8	0x3d386a78	0.04502341
9	0x3deed837	0.116623335
10	0x3d5d9363	0.054095637
11	0xba9c2a64	-0.0011914489
12	0x3d394219	0.04522905
13	0x3e2c9ce9	0.16856731
14	0x3c614518	0.013749383
15	0x3c3c5a56	0.011496147
16	0xbc63cc6f	-0.013903721
17	0x3e148657	0.14504372
18	0xbb1d4bca	-0.0024001473
19	0x3e4d8e74	0.20073873
20	0x3cf6d02d	0.030128563
21	0x3d7a6a72	0.06113667
22	0x3de4660d	0.11152277
23	0x3da5d7e8	0.080978215
24	0xbbd59b21	-0.006518737
25	0xbd74177a	-0.0595927
26	0x3e3b59e6	0.18296012
27	0x3e5efbe3	0.21775775
28	0x3e3ededf	0.18639706
29	0x3a1670cd	0.00057388545
30	0xbd5162b5	-0.051119525
31	0x3c8845ad	0.016634787
32	0x3bc50358	0.0060123615
33	0x3ce09263	0.027413553
34	0xbccc742c	-0.024957739
35	0xbb528d50	-0.0032127686
36	0x3db48ec9	0.088162966
37	0xbb5207ed	-0.0032048181
38	0xb9c29fd9	-0.0003712166
39	0x3ddc9519	0.107706256
40	0x3ac39f62	0.0014924819
41	0xbb881272	-0.0041525895
42	0x3dd67334	0.10471192
43	0x3d171d57	0.036893215
44	0xbd2cce12	-0.04218871
45	0x3e061fa6	0.1309801
46	0x3dadda02	0.08488847
47	0x3c81d6d0	0.0158495
48	0x3d804f01	0.06265069
49	0xbd5a697f	-0.053323265
50	0x3b2e04e9	0.002655322
51	0xbbb83160	-0.0056211203
52	0x3e34af6c	0.17645043
53	0x3e0a0770	0.134794
54	0x3e8297d4	0.2550646
55	0x3e548f87	0.20757876
56	0x3e519188	0.20465672
57	0xbc2cb4c8	-0.0105411485
58	0x3c134035	0.008987476
59	0x3c6f17f2	0.014593111
60	0xbb1f088b	-0.0024266567
61	0x3bcdf416	0.006285201
62	0x3e21ccf9	0.15800847
63	0x3e638623	0.22219138
64	0x3d88a2d6	0.066716835
65	0x3e525518	0.20540273
66	0x3e8c3fe0	0.27392483
67	0x3d975f4d	0.07391224
68	0x3e9a20f7	0.30103275
69	0x3a383df9	0.00070282776
70	0x3b55d554	0.0032628374
71	0xbc383906	-0.011244064
72	0xbb4add7e	-0.0030954774
73	0x3cc0a1f2	0.023514722
74	0xbb2de6ea	-0.002653534
75	0x3e0e8232	0.13916853
76	0xbcaf9ef4	-0.0214381
77	0x3ce49529	0.027903156
78	0x3da08093	0.078370236
79	0x3e223216	0.15839419
80	0xbb6c98e5	-0.0036101874
81	0x3d5b0c01	0.053478245
82	0x3e31d0d1	0.17364813
83	0x3c47f7ff	0.012205123

classifiers.0.weight f4 [5, 84]
0	0x3f23a7ef	0.6392812
1	0xbdaa2dc9	-0.08309514
2	0x3ded1bd4	0.115775734
3	0x3e3c3fef	0.18383764
4	0xbdf813f5	-0.121131815
5	0xbe2c1849	-0.16806139
6	0xbe8cc5a1	-0.2749453
7	0x3e737149	0.23773684
8	0xbe847499	-0.25870207
9	0x3ebed0f8	0.37268806
10	0xbca532d6	-0.020165842
11	0x3c26adae	0.010173244
12	0x3dcd1af5	0.10014907
13	0xbec7df9c	-0.39037788
14	0xbdab873e	-0.08375405
15	0xbcd966f1	-0.026538344
16	0x3d86aeaf	0.06576287
17	0x3d287ae8	0.041132838
18	0x3e027d22	0.12743047
19	0xbf064bc0	-0.52459335
20	0xbd78c172	-0.06073136
21	0xbd7d8294	-0.061892107
22	0xbdd10383	-0.10205748
23	0xbe369eca	-0.1783401
24	0xbb0058e0	-0.0019584224
25	0xbecaffbb	-0.39648232
26	0xbee571de	-0.44813436
27	0xbd12f681	-0.035879616
28	0x3e7edd6c	0.24889153
29	0x3c701339	0.014653021
30	0x3e660717	0.22463642
31	0xbdf990dc	-0.12185833
32	0xbc38bdf2	-0.011275755
33	0xbe1928f6	-0.14957032
34	0x3e0062ad	0.12537642
35	0x3a4dd303	0.00078515726
36	0xbe5e49ec	-0.21707886
37	0x3a2aaeee	0.0006511052
38	0x3aeaa7ac	0.0017902753
39	0xbc86303e	-0.016380426
40	0x3e33a12c	0.17541951
41	0xbc87c72d	-0.016574467
42	0xbec9a0fc	-0.39380634
43	0xbe8f8c0d	-0.28036538
44	0xbd9f8314	-0.07788673
45	0xbdcba9ce	-0.09944497
46	0xbea81cc2	-0.3283444
47	0xbb27bfb1	-0.0025596435
48	0x3ebd26ec	0.36943758
49	0xbcb1bff9	-0.021697985
50	0xbcccaa52	-0.024983559
51	0xb9a59c82	-0.0003158786
52	0xbe415488	-0.18879902
53	0x3c8e15f3	0.01734445
54	0x3d933e11	0.071895726
55	0x3d16d92d	0.03682821
56	0x3ddf7bbc	0.10912272
57	0x3eb43bc1	0.3520184
58	0xbae992da	-0.0017820254
59	0x3c00474a	0.007829497
60	0x3e403604	0.18770605
61	0x3ec2abf7	0.38021824
62	0x3cfd7f02	0.030944351
63	0x3e256bcd	0.16154404
64	0x3c825733	0.01591072
65	0x3e3ae4fe	0.18251416
66	0x3e192869	0.14956822
67	0xbe34e4d8	-0.17665422
68	0xbe811dbf	-0.25218007
69	0xbbf08543	-0.007340105
70	0xbc4d9869	-0.012548544
71	0x3e4421d6	0.19153532
72	0x3ca87acc	0.020566367
73	0x3c0664ed	0.0082027735
74	0x3ab1a0aa	0.001355191
75	0xbedcbbcd	-0.4311203
76	0xbea3caec	-0.31990755
77	0x3e277dab	0.16356532
78	0xbd94d549	-0.072672434
79	0x3f2b7072	0.6696845
80	0xbb0e3526	-0.002169916
81	0xbe2f906b	-0.17144935
82	0xbe61168d	-0.21981259
83	0x3cce2a28	0.025166586
84	0xbea67e63	-0.325183
85	0xbcd7f2d0	-0.0263609
86	0xbede2497	-0.4338729
87	0xbeaeac82	-0.34115988
88	0x3c6a058b	0.014283548
89	0x3be17b68	0.0068811662
90	0x3cbb880c	0.02289202
91	0xbd2d8cb4	-0.042370513
92	0x3e188af9	0.14896764
93	0x3d8298df	0.06376814
94	0x3e0002f4	0.12501127
95	0xbc297451	-0.010342673
96	0xbe96e772	-0.29473454
97	0x3e984a42	0.29744154
98	0x3de91007	0.1138001
99	0x3cb2b8cc	0.021816634
100	0xbe96328f	-0.29335448
101	0xbe95c238	-0.2924974
102	0xbd5d61b4	-0.054048255
103	0x3e3b513a	0.18292704
104	0xbd053796	-0.032523714
105	0xbcc7faaf	-0.024411527
106	0x3eb3824b	0.35060343
107	0x3ec4dad7	0.38448212
108	0x3abc062f	0.0014345105
109	0x3dbdc782	0.09266569
110	0x3ea6882b	0.32525763
111	0xbe0c0a42	-0.13675788
112	0xbd867df2	-0.06566991
113	0x3c62df52	0.013847189
114	0xbe78087c	-0.24221987
115	0x3ce4cf6a	0.027930934
116	0xbc9d66f9	-0.01921414
117	0xbe92cff2	-0.28674275
118	0xbdca9dee	-0.09893404
119	0xbcd1b706	-0.025599968
120	0x3c909bfb	0.017652502
121	0xbc1cb035	-0.009563495
122	0x3ca7e29d	0.0204938
123	0xbd9c4dd2	-0.076320305
124	0xbe1e07c3	-0.15432648
125	0xbb32e80b	-0.0027298953
126	0xbe43ea41	-0.1913233
127	0xbcde98b2	-0.02717242
128	0xbda273fe	-0.0793228
129	0x3d855e7f	0.06512164
130	0x3ef5a9cb	0.47981104
131	0x3cf4f5d9	0.029902386
132	0xbdd90ff0	-0.10598743
133	0x3c8ac423	0.016939228
134	0x3c8a8fbf	0.016914247
135	0xbc74be9f	-0.014938026
136	0xbd6904b0	-0.056889236
137	0xbe8f16c5	-0.2794706
138	0xbe533951	-0.20627333
139	0xbdb9e79c	-0.09077379
140	0xbafca428	-0.0019274997
141	0x3d2e6470	0.042576253
142	0x3e048ced	0.12944384
143	0x3d7c28be	0.061562292
144	0xbe237a32	-0.15964583
145	0xbdf75285	-0.12076286
146	0xbe3129a5	-0.17301042
147	0xbdd8a015	-0.10577408
148	0xbe1a2e71	-0.15056778
149	0xbd3e8cb1	-0.046520893
150	0xbe7fdd34	-0.24986726
151	0x3e146608	0.14492047
152	0x3ed5f432	0.4178787
153	0xbc87ba9e	-0.016568478
154	0x3d0ee4c1	0.034886125
155	0xbe5b364a	-0.21407428
156	0x3b88738e	0.004164166
157	0x3d6e7c3b	0.058223944
158	0x3c1d5ce1	0.009604664
159	0x3daa43ad	0.083136894
160	0x3d07b9b4	0.033136085
161	0x3d3a27c2	0.045448072
162	0x3e03187e	0.12802312
163	0xbbaf81a2	-0.0053560296
164	0xbc6196cd	-0.013768864
165	0x3c5fe19d	0.01366463
166	0x3d7adcc3	0.06124569
167	0x3dd77b55	0.105215706
168	0x3dd0c8d4	0.10194555
169	0x3e220b63	0.15824656
170	0x3e862bc6	0.2620527
171	0x3eb16ea3	0.34654722
172	0xbe6fac87	-0.23405658
173	0x3d7efba7	0.062251713
174	0x3d0379f2	0.032098718
175	0xbe4270fb	-0.18988411
176	0xbeb69bb8	-0.3566568
177	0xbc501b76	-0.01270186
178	0x3d26a418	0.040683836
179	0x3baf7df8	0.005355593
180	0x3b3eab56	0.0029093823
181	0x3e204018	0.1564945
182	0xbde31c80	-0.1108942
183	0xbc4afb7a	-0.012389058
184	0xbca3c66e	-0.01999208
185	0x3e593797	0.21212612
186	0xbe1e95b3	-0.15486793
187	0x3dba82f6	0.0910701
188	0x3cd9393c	0.02651655
189	0x3e02bcce	0.12767336
190	0x3cd41d7a	0.025892962
191	0xbe95a24b	-0.29225382
192	0xbbdae872	-0.0066805417
193	0xbd86d4a9	-0.065835305
194	0x3d89f877	0.06736844
195	0x3e9b9758	0.30388904
196	0x3e3e0136	0.1855515
197	0xbc245da9	-0.010032096
198	0xbe7cc0a1	-0.24682857
199	0xbe7ae49f	-0.24501275
200	0x3ca27881	0.019832851
201	0x3e12d6f8	0.14339817
202	0xbe645c27	-0.22300778
203	0xbbaf2ea2	-0.0053461352
204	0xbe2d0559	-0.16896571
205	0x3adaac50	0.0016683433
206	0xbc589759	-0.013219678
207	0x3e54690e	0.207432
208	0xbd83696c	-0.06416592
209	0x3b3c3cab	0.0028722684
210	0x3d7a7e2e	0.06115549
211	0xbe659595	-0.22420342
212	0xbe460780	-0.19338799
213	0x3ddcf557	0.10788982
214	0xbea851f2	-0.3287502
215	0x3c45550f	0.012044205
216	0xbb6c799a	-0.0036083222
217	0xbe422dbd	-0.1896276
218	0xbc875994	-0.016522206
219	0xbb952802	-0.0045518884
220	0x3e8c235a	0.2737072
221	0x3e58ce0d	0.21172352
222	0x3ecac1b7	0.39600918
223	0x3ea687bd	0.32525435
224	0x3e750abd	0.23929878
225	0xbf056b6d	-0.52117044
226	0xbe6df0d7	-0.23236404
227	0xbccc2a28	-0.024922445
228	0xbeca2e69	-0.39488533
229	0xbed3218c	-0.41236532
230	0x3e81e940	0.25373268
231	0x3e8db68e	0.2767834
232	0x3df9c816	0.121963665
233	0x3e73fc94	0.2382682
234	0x3ec80859	0.3906887
235	0x3e1748af	0.1477382
236	0x3e6bb0f1	0.23016717
237	0xbc249bc8	-0.010046907
238	0x3ccfd440	0.025369763
239	0xbe03bf0a	-0.12865844
240	0xbcb844aa	-0.02249368
241	0x3c0dd18b	0.008655916
242	0x3c5e0fd5	0.013553579
243	0x3d9c4aab	0.07631429
244	0x3bcc689e	0.0062380573
245	0xbd789492	-0.060688563
246	0x3dc0843d	0.094002225
247	0xbc75479d	-0.014970687
248	0xbcb37e44	-0.021910794
249	0x3dd310c4	0.10305932
250	0x3ea2dc89	0.3180888
251	0xbe113578	-0.14180553
252	0xbaed9268	-0.0018125298
253	0xbd1a3a3b	-0.03765319
254	0x3d038c8d	0.03211646
255	0xbcaa9c01	-0.020826342

classifiers.0.bias f4 [5]
0	0xbeee6706	-0.46562976
1	0x3f720370	0.94536495
2	0x3f53e22e	0.82767
3	0xbf5b0f61	-0.8557034
4	0xbee74561	-0.4517012

classifier.weight f4 [5, 84]
0	0x3f23a7ef	0.6392812
1	0xbdaa2dc9	-0.08309514
2	0x3ded1bd4	0.115775734
3	0x3e3c3fef	0.18383764
4	0xbdf813f5	-0.121131815
5	0xbe2c1849	-0.16806139
6	0xbe8cc5a1	-0.2749453
7	0x3e737149	0.23773684
8	0xbe847499	-0.25870207
9	0x3ebed0f8	0.37268806
10	0xbca532d6	-0.020165842
11	0x3c26adae	0.010173244
12	0x3dcd1af5	0.10014907
13	0xbec7df9c	-0.39037788
14	0xbdab873e	-0.08375405
15	0xbcd966f1	-0.026538344
16	0x3d86aeaf	0.06576287
17	0x3d287ae8	0.041132838
18	0x3e027d22	0.12743047
19	0xbf064bc0	-0.52459335
20	0xbd78c172	-0.06073136
21	0xbd7d8294	-0.061892107
22	0xbdd10383	-0.10205748
23	0xbe369eca	-0.1783401
24	0xbb0058e0	-0.0019584224
25	0xbecaffbb	-0.39648232
26	0xbee571de	-0.44813436
27	0xbd12f681	-0.035879616
28	0x3e7edd6c	0.24889153
29	0x3c701339	0.014653021
30	0x3e660717	0.22463642
31	0xbdf990dc	-0.12185833
32	0xbc38bdf2	-0.011275755
33	0xbe1928f6	-0.14957032
34	0x3e0062ad	0.12537642
35	0x3a4dd303	0.00078515726
36	0xbe5e49ec	-0.21707886
37	0x3a2aaeee	0.0006511052
38	0x3aeaa7ac	0.0017902753
39	0xbc86303e	-0.016380426
40	0x3e33a12c	0.17541951
41	0xbc87c72d	-0.016574467
42	0xbec9a0fc	-0.39380634
43	0xbe8f8c0d	-0.28036538
44	0xbd9f8314	-0.07788673
45	0xbdcba9ce	-0.09944497
46	0xbea81cc2	-0.3283444
47	0xbb27bfb1	-0.0025596435
48	0x3ebd26ec	0.36943758
49	0xbcb1bff9	-0.021697985
50	0xbcccaa52	-0.024983559
51	0xb9a59c82	-0.0003158786
52	0xbe415488	-0.18879902
53	0x3c8e15f3	0.01734445
54	0x3d933e11	0.071895726
55	0x3d16d92d	0.03682821
56	0x3ddf7bbc	0.10912272
57	0x3eb43bc1	0.3520184
58	0xbae992da	-0.0017820254
59	0x3c00474a	0.007829497
60	0x3e403604	0.18770605
61	0x3ec2abf7	0.38021824
62	0x3cfd7f02	0.030944351
63	0x3e256bcd	0.16154404
64	0x3c825733	0.01591072
65	0x3e3ae4fe	0.18251416
66	0x3e192869	0.14956822
67	0xbe34e4d8	-0.17665422
68	0xbe811dbf	-0.25218007
69	0xbbf08543	-0.007340105
70	0xbc4d9869	-0.012548544
71	0x3e4421d6	0.19153532
72	0x3ca87acc	0.020566367
73	0x3c0664ed	0.0082027735
74	0x3ab1a0aa	0.001355191
75	0xbedcbbcd	-0.4311203
76	0xbea3caec	-0.31990755
77	0x3e277dab	0.16356532
78	0xbd94d549	-0.072672434
79	0x3f2b7072	0.6696845
80	0xbb0e3526	-0.002169916
81	0xbe2f906b	-0.17144935
82	0xbe61168d	-0.21981259
83	0x3cce2a28	0.025166586
84	0xbea67e63	-0.325183
85	0xbcd7f2d0	-0.0263609
86	0xbede2497	-0.4338729
87	0xbeaeac82	-0.34115988
88	0x3c6a058b	0.014283548
89	0x3be17b68	0.0068811662
90	0x3cbb880c	0.02289202
91	0xbd2d8cb4	-0.042370513
92	0x3e188af9	0.14896764
93	0x3d8298df	0.06376814
94	0x3e0002f4	0.12501127
95	0xbc297451	-0.010342673
96	0xbe96e772	-0.29473454
97	0x3e984a42	0.29744154
98	0x3de91007	0.1138001
99	0x3cb2b8cc	0.021816634
100	0xbe96328f	-0.29335448
101	0xbe95c238	-0.2924974
102	0xbd5d61b4	-0.054048255
103	0x3e3b513a	0.18292704
104	0xbd053796	-0.032523714
105	0xbcc7faaf	-0.024411527
106	0x3eb3824b	0.35060343
107	0x3ec4dad7	0.38448212
108	0x3abc062f	0.0014345105
109	0x3dbdc782	0.09266569
110	0x3ea6882b	0.32525763
111	0xbe0c0a42	-0.13675788
112	0xbd867df2	-0.06566991
113	0x3c62df52	0.013847189
114	0xbe78087c	-0.24221987
115	0x3ce4cf6a	0.027930934
116	0xbc9d66f9	-0.01921414
117	0xbe92cff2	-0.28674275
118	0xbdca9dee	-0.09893404
119	0xbcd1b706	-0.025599968
120	0x3c909bfb	0.017652502
121	0xbc1cb035	-0.009563495
122	0x3ca7e29d	0.0204938
123	0xbd9c4dd2	-0.076320305
124	0xbe1e07c3	-0.15432648
125	0xbb32e80b	-0.0027298953
126	0xbe43ea41	-0.1913233
127	0xbcde98b2	-0.02717242
128	0xbda273fe	-0.0793228
129	0x3d855e7f	0.06512164
130	0x3ef5a9cb	0.47981104
131	0x3cf4f5d9	0.029902386
132	0xbdd90ff0	-0.10598743
133	0x3c8ac423	0.016939228
134	0x3c8a8fbf	0.016914247
135	0xbc74be9f	-0.014938026
136	0xbd6904b0	-0.056889236
137	0xbe8f16c5	-0.2794706
138	0xbe533951	-0.20627333
139	0xbdb9e79c	-0.09077379
140	0xbafca428	-0.0019274997
141	0x3d2e6470	0.042576253
142	0x3e048ced	0.12944384
143	0x3d7c28be	0.061562292
144	0xbe237a32	-0.15964583
145	0xbdf75285	-0.12076286
146	0xbe3129a5	-0.17301042
147	0xbdd8a015	-0.10577408
148	0xbe1a2e71	-0.15056778
149	0xbd3e8cb1	-0.046520893
150	0xbe7fdd34	-0.24986726
151	0x3e146608	0.14492047
152	0x3ed5f432	0.4178787
153	0xbc87ba9e	-0.016568478
154	0x3d0ee4c1	0.034886125
155	0xbe5b364a	-0.21407428
156	0x3b88738e	0.004164166
157	0x3d6e7c3b	0.058223944
158	0x3c1d5ce1	0.009604664
159	0x3daa43ad	0.083136894
160	0x3d07b9b4	0.033136085
161	0x3d3a27c2	0.045448072
162	0x3e03187e	0.12802312
163	0xbbaf81a2	-0.0053560296
164	0xbc6196cd	-0.013768864
165	0x3c5fe19d	0.01366463
166	0x3d7adcc3	0.06124569
167	0x3dd77b55	0.105215706
168	0x3dd0c8d4	0.10194555
169	0x3e220b63	0.15824656
170	0x3e862bc6	0.2620527
171	0x3eb16ea3	0.34654722
172	0xbe6fac87	-0.23405658
173	0x3d7efba7	0.062251713
174	0x3d0379f2	0.032098718
175	0xbe4270fb	-0.18988411
176	0xbeb69bb8	-0.3566568
177	0xbc501b76	-0.01270186
178	0x3d26a418	0.040683836
179	0x3baf7df8	0.005355593
180	0x3b3eab56	0.0029093823
181	0x3e204018	0.1564945
182	0xbde31c80	-0.1108942
183	0xbc4afb7a	-0.012389058
184	0xbca3c66e	-0.01999208
185	0x3e593797	0.21212612
186	0xbe1e95b3	-0.15486793
187	0x3dba82f6	0.0910701
188	0x3cd9393c	0.02651655
189	0x3e02bcce	0.12767336
190	0x3cd41d7a	0.025892962
191	0xbe95a24b	-0.29225382
192	0xbbdae872	-0.0066805417
193	0xbd86d4a9	-0.065835305
194	0x3d89f877	0.06736844
195	0x3e9b9758	0.30388904
196	0x3e3e0136	0.1855515
197	0xbc245da9	-0.010032096
198	0xbe7cc0a1	-0.24682857
199	0xbe7ae49f	-0.24501275
200	0x3ca27881	0.019832851
201	0x3e12d6f8	0.14339817
202	0xbe645c27	-0.22300778
203	0xbbaf2ea2	-0.0053461352
204	0xbe2d0559	-0.16896571
205	0x3adaac50	0.0016683433
206	0xbc589759	-0.013219678
207	0x3e54690e	0.207432
208	0xbd83696c	-0.06416592
209	0x3b3c3cab	0.0028722684
210	0x3d7a7e2e	0.06115549
211	0xbe659595	-0.22420342
212	0xbe460780	-0.19338799
213	0x3ddcf557	0.10788982
214	0xbea851f2	-0.3287502
215	0x3c45550f	0.012044205
216	0xbb6c799a	-0.0036083222
217	0xbe422dbd	-0.1896276
218	0xbc875994	-0.016522206
219	0xbb952802	-0.0045518884
220	0x3e8c235a	0.2737072
221	0x3e58ce0d	0.21172352
222	0x3ecac1b7	0.39600918
223	0x3ea687bd	0.32525435
224	0x3e750abd	0.23929878
225	0xbf056b6d	-0.52117044
226	0xbe6df0d7	-0.23236404
227	0xbccc2a28	-0.024922445
228	0xbeca2e69	-0.39488533
229	0xbed3218c	-0.41236532
230	0x3e81e940	0.25373268
231	0x3e8db68e	0.2767834
232	0x3df9c816	0.121963665
233	0x3e73fc94	0.2382682
234	0x3ec80859	0.3906887
235	0x3e1748af	0.1477382
236	0x3e6bb0f1	0.23016717
237	0xbc249bc8	-0.010046907
238	0x3ccfd440	0.025369763
239	0xbe03bf0a	-0.12865844
240	0xbcb844aa	-0.02249368
241	0x3c0dd18b	0.008655916
242	0x3c5e0fd5	0.013553579
243	0x3d9c4aab	0.07631429
244	0x3bcc689e	0.0062380573
245	0xbd789492	-0.060688563
246	0x3dc0843d	0.094002225
247	0xbc75479d	-0.014970687
248	0xbcb37e44	-0.021910794
249	0x3dd310c4	0.10305932
250	0x3ea2dc89	0.3180888
251	0xbe113578	-0.14180553
252	0xbaed9268	-0.0018125298
253	0xbd1a3a3b	-0.03765319
254	0x3d038c8d	0.03211646
255	0xbcaa9c01	-0.020826342

classifier.bias f4 [5]
0	0xbeee6706	-0.46562976
1	0x3f720370	0.94536495
2	0x3f53e22e	0.82767
3	0xbf5b0f61	-0.8557034
4	0xbee74561	-0.4517012
