checkpoints_lenet5/baseline_scratch/lenet5/trees/checkpoint-100.pth.tar (torch, 312216 bytes, 12 tensors)

features.0.weight f4 [6, 3, 5, 5]
0	0xbe83bb96	-0.25729054
1	0xbe12d7a9	-0.1434008
2	0xbe54b521	-0.2077222
3	0xbd3a48c4	-0.04547955
4	0x3df0db9b	0.117606364
5	0xbc2e6fe2	-0.010646792
6	0xbcb9eb10	-0.022695094
7	0xbe3524de	-0.17689845
8	0x3c6e4852	0.01454361
9	0x3e52df4a	0.2059299
10	0x3e2e6684	0.17031294
11	0xbe356f1b	-0.17718165
12	0x3d908805	0.07057194
13	0xbe4f13d8	-0.20222414
14	0x3d78a4ef	0.060704168
15	0x3da1d1be	0.07901333
16	0x3e2bdfc5	0.1678458
17	0xbe649710	-0.22323251
18	0x3dbb0946	0.09132628
19	0x3bf1e6d9	0.0073822555
20	0x3d8e4b20	0.06947923
21	0x3e23e50f	0.16005348
22	0x3d27d557	0.04097494
23	0xbe5adf54	-0.21374255
24	0xbe51816f	-0.20459531
25	0x3e2b1ee2	0.16711
26	0x3e721e9c	0.23644489
27	0xbba3847b	-0.004990158
28	0x3dc382c8	0.09546429
29	0x3eae4fbb	0.34045205
30	0xbbcd8e1f	-0.0062730457
31	0x3de0b23a	0.10971494
32	0x3e33c571	0.17555787
33	0x3d015687	0.03157666
34	0x3e7ca745	0.24673183
35	0x3e1e6808	0.15469372
36	0x3dfda40c	0.12384805
37	0xbe8333da	-0.25625497
38	0xbce47c53	-0.027891314
39	0x3e9a36c7	0.30119917
40	0x3d4fd423	0.05073942
41	0x3d44cbaa	0.04804579
42	0xbdb9ead6	-0.090779945
43	0xbdf25513	-0.11832633
44	0x3e46e9f9	0.19425191
45	0xbed99763	-0.4249831
46	0xbd2f8d63	-0.042859446
47	0xbe01a312	-0.12659863
48	0xbe634335	-0.22193606
49	0xbdd4b380	-0.103857994
50	0xbe165dbb	-0.14684193
51	0xbec3eac1	-0.3826504
52	0xbebd62f8	-0.3698957
53	0xbe0d791c	-0.13815731
54	0x3d88ffa8	0.066893876
55	0x3c63dbda	0.013907397
56	0xbe87845f	-0.2646818
57	0xbec00ce6	-0.3750984
58	0xbe1ae7c2	-0.15127471
59	0x3e52af90	0.20574784
60	0x3dcf8150	0.10132086
61	0xbd975cd0	-0.073907495
62	0xbe80f22b	-0.2518476
63	0x3cc9ba1d	0.024624879
64	0xbd92fbc7	-0.07176929
65	0xbe4fabad	-0.20280333
66	0xbd5c9d51	-0.053860966
67	0xbd6657f3	-0.05623622
68	0xbe999686	-0.29997653
69	0xbcaf97cb	-0.021434685
70	0xbd6010ca	-0.05470351
71	0x3b4f0c8d	0.0031593174
72	0xbdc2adad	-0.09505782
73	0xbe4246bb	-0.18972294
74	0xbed4a5da	-0.41532785
75	0xbdc33acb	-0.09532698
76	0xbe13c6e8	-0.14431345
77	0xbe5c1a57	-0.21494423
78	0xbe052802	-0.13003543
79	0x3db128c6	0.08650355
80	0x3bcb9fef	0.006214134
81	0x3ce13114	0.027489223
82	0xbd645c62	-0.055752166
83	0xbe882adc	-0.265952
84	0xbd85e8a0	-0.0653851
85	0xbbcbd0f9	-0.00621998
86	0xbe28a1f5	-0.16468032
87	0x3c8a3594	0.016871251
88	0x3d73859a	0.059453584
89	0xbd8e232c	-0.06940302
90	0xbdb0e987	-0.08638292
91	0x3d5a9d6d	0.05337279
92	0xbe4bfce9	-0.19920696
93	0x3d17813a	0.036988474
94	0xbd8fac38	-0.0701527
95	0x3d63ca17	0.05561265
96	0x3e357cb4	0.17723352
97	0x3cf2f865	0.02965946
98	0x3d2545cd	0.04034977
99	0xbe6f4c6f	-0.23369001
100	0xbc8d33fd	-0.017236704
101	0xbd75b725	-0.059989113
102	0x3cff0367	0.031129552
103	0xbe41419e	-0.18872687
104	0xbdb1319c	-0.0865204
105	0x3eb4d0df	0.35315606
106	0xbe996b61	-0.29964736
107	0x3d60f588	0.054921657
108	0xbd346163	-0.044038188
109	0xbe611917	-0.21982227
110	0x3df0a4bf	0.11750173
111	0x3d5ddd1c	0.054165944
112	0xbe6bdf9a	-0.23034516
113	0xbe16b460	-0.14717245
114	0x3de6de52	0.11272873
115	0x3e301bb4	0.17198068
116	0xbd3ddb2b	-0.046351593
117	0xbc26666a	-0.010156253
118	0xbd95fcbc	-0.07323596
119	0x3ca7db0a	0.020490188
120	0xbe423760	-0.18966436
121	0xbd2b59e8	-0.04183379
122	0x3d4941f4	0.049135163
123	0xbd0e0d93	-0.034680914
124	0xbe491a8e	-0.19639036
125	0x3ebfd58d	0.37467614
126	0x3e177d1b	0.14793818
127	0x3e97580e	0.29559368
128	0x3cc15af2	0.023602936
129	0x3e030768	0.12795794
130	0x3ea3716d	0.31922475
131	0x3ecf18f3	0.40448722
132	0x3e9cbb25	0.3061153
133	0xbd1fdaad	-0.039026905
134	0xbe45632a	-0.1927611
135	0x3eba1834	0.3634659
136	0x3e9bb59a	0.30411988
137	0x3e4d48fd	0.20047374
138	0x3c7d2517	0.015450737
139	0x3ce7813c	0.028259866
140	0x3e81cbef	0.253509
141	0x3e83cd9c	0.25742805
142	0x3cf5c31d	0.030000264
143	0xbc32b929	-0.010908403
144	0xbe72ab1b	-0.23698084
145	0x3ea25494	0.31705153
146	0x3cd8615d	0.026413614
147	0x3d85806f	0.065186374
148	0x3e985020	0.2974863
149	0xbe82dc57	-0.2555873
150	0x3e51743f	0.204545
151	0x3e319fd1	0.17346121
152	0xbcb8ba82	-0.022549871
153	0xbd85980f	-0.065231435
154	0xbe2ee850	-0.17080808
155	0x3e12d576	0.14339241
156	0x3e2b420a	0.1672441
157	0x3b9029ce	0.0043995148
158	0xbeb476cb	-0.35246882
159	0xbe6756a1	-0.2259164
160	0x3e627ff7	0.22119127
161	0x3e5e2f5a	0.2169775
162	0xbe3b51a8	-0.18292868
163	0xbed7b177	-0.42127582
164	0xbd021c90	-0.03176552
165	0x3e850b36	0.25985116
166	0xbdd2ed43	-0.1029916
167	0xbe79851a	-0.2436718
168	0xbd91148e	-0.070839986
169	0x3dc89254	0.09793535
170	0x3d325895	0.04354151
171	0xbd847ab3	-0.064687155
172	0xbda6aed3	-0.08138814
173	0xbe53f05f	-0.20697163
174	0x3ed57c64	0.41696465
175	0x3e5076f0	0.20357871
176	0x3ef41e25	0.47679248
177	0x3d5bddc4	0.05367829
178	0xbc7c0eb7	-0.015384368
179	0xbeb3896a	-0.35065776
180	0x3ea9f9f7	0.3319852
181	0x3e8d4d18	0.2759788
182	0x3c837530	0.01604709
183	0xbe00bc7a	-0.12571898
184	0xbdf614ba	-0.12015672
185	0x3eb5c77e	0.35503763
186	0x3e97fc3e	0.29684633
187	0xbe809a89	-0.251179
188	0xbeb5de78	-0.35521293
189	0x3d0977c0	0.033561468
190	0x3e7ea99e	0.24869391
191	0x3d0c3b5a	0.03423629
192	0xbe9192a2	-0.28432184
193	0xbe824d30	-0.25449514
194	0x3d79bdda	0.060972072
195	0xbd6603f5	-0.056156117
196	0x3ca60287	0.020264877
197	0xbe7d23d1	-0.24720694
198	0xbe83b1db	-0.2572163
199	0x3e893692	0.26799446
200	0x3e9556c7	0.29167768
201	0x3e7d10d8	0.24713457
202	0x3e80d81e	0.25164884
203	0xbe575cc3	-0.2103148
204	0xbeaf2e4d	-0.34215012
205	0x3ef8b8eb	0.4857858
206	0x3ec39fb9	0.38207796
207	0x3dafc399	0.08582229
208	0xbef2bb17	-0.47408363
209	0xbebfdb00	-0.3747177
210	0x3eb25932	0.34833676
211	0xbd82ddc1	-0.063899525
212	0xbedc0c09	-0.42977932
213	0xbf00ddad	-0.5033825
214	0xbe82896a	-0.25495464
215	0x3ea475a4	0.32121003
216	0xbd396e70	-0.045271337
217	0xbed9f835	-0.4257218
218	0xbe38e22b	-0.18055026
219	0x3e201fc3	0.15637116
220	0x3dcd0a49	0.10011727
221	0x3d61100a	0.054946937
222	0xbea89d3e	-0.32932466
223	0x3cb064ee	0.021532502
224	0x3ec6acc9	0.388037
225	0x3d36f923	0.04467119
226	0x3e423de5	0.18968923
227	0x3ced7690	0.028987199
228	0x3e038921	0.1284528
229	0x3eccefdd	0.4002675
230	0x3e7f477b	0.24929611
231	0x3e86255f	0.26200387
232	0x3edc3097	0.4300582
233	0x3e74f5b9	0.23921861
234	0x3e29cb7b	0.16581528
235	0x3ec8a34f	0.39187095
236	0x3eb0c19c	0.34522712
237	0x3e54ecaa	0.20793405
238	0x3e523c19	0.20530738
239	0x3e72beca	0.23705593
240	0x3e8630db	0.2620915
241	0x3e47071b	0.19436304
242	0x3e1a2edc	0.15056938
243	0x3e48d67a	0.19613066
244	0x3eb2cb24	0.3492061
245	0x3e44c5ce	0.19216082
246	0x3e49e36d	0.19715662
247	0x3e7a2144	0.24426752
248	0x3e5dcb7c	0.21659654
249	0x3e84dce8	0.25949788
250	0xbea5838e	-0.3232693
251	0xbeac06f4	-0.33599055
252	0xbf054044	-0.52051187
253	0xbe287eff	-0.16454695
254	0xbc0c16cf	-0.00855036
255	0xbdab015f	-0.08349871

features.3.weight f4 [16, 6, 5, 5]
0	0xbe0f3533	-0.13985138
1	0xbcc6b4d2	-0.024256144
2	0xbd1327eb	-0.03592674
3	0xbd3d4883	-0.04621173
4	0x3bfebb73	0.0077738105
5	0xbd6406fc	-0.055670723
6	0xbe16d294	-0.14728767
7	0xbe03a1e2	-0.12854722
8	0xbe2696af	-0.16268419
9	0x3cede25e	0.029038604
10	0xbda2afad	-0.07943664
11	0xbe1ef5e7	-0.15523492
12	0xbe3cc38b	-0.18433969
13	0xbe425908	-0.18979275
14	0xbc6eeb5e	-0.014582483
15	0x3dadfd9e	0.08495639
16	0xbd355f8d	-0.044280577
17	0x3c70cd41	0.014697374
18	0x3d484ab8	0.048899382
19	0xbdf19874	-0.11796656
20	0x3e113877	0.14181696
21	0x3e3fd6cb	0.18734281
22	0x3d3f6a7e	0.04673242
23	0xbd4a3ec6	-0.04937627
24	0x3dc3a2b6	0.09552519
25	0x3e31133d	0.17292495
26	0x3d93e79c	0.0722191
27	0x3e2b42c3	0.16724686
28	0x3decada0	0.11556554
29	0x3e1dfdd4	0.15428859
30	0x3e83216c	0.25611436
31	0x3dd91789	0.10600192
32	0x3c620ea8	0.01379744
33	0xbd60f3ea	-0.054920115
34	0xbe0a639e	-0.13514563
35	0x3d2a582d	0.041587997
36	0xbc3d0f9e	-0.011539368
37	0x3c611ca3	0.013739738
38	0xbe091f08	-0.13390744
39	0xbe117b8c	-0.14207286
40	0xba989a42	-0.0011642652
41	0xbd4d83fc	-0.0501747
42	0xbe7b4b4a	-0.24540439
43	0xbdb3669d	-0.08759806
44	0xbe54c694	-0.20778877
45	0x3e062ebd	0.13103767
46	0x3d91e5cc	0.071239084
47	0x3d4ec64e	0.050482087
48	0x3df07986	0.11741929
49	0xbd695479	-0.056965325
50	0xbde9cd9d	-0.11416171
51	0xbdd39633	-0.103313826
52	0xbdeb59e8	-0.11491758
53	0xbdd2f708	-0.10301024
54	0xbe1cc36e	-0.15308926
55	0xbda98dc1	-0.082789905
56	0x3bebd991	0.007197567
57	0xbd0b26d1	-0.033972565
58	0xbd9a1dfe	-0.07525252
59	0xbe5a698c	-0.21329325
60	0xbc99cc91	-0.018774303
61	0xbddf8bc2	-0.109153286
62	0xbdebf6b7	-0.115216665
63	0xbe5d96ec	-0.21639603
64	0xbe5e7bf1	-0.21726967
65	0x3cf38027	0.029724194
66	0xbb34bf95	-0.0027580012
67	0xbe30ca7f	-0.17264746
68	0xbe0f6ba1	-0.14005901
69	0xbe1a9e05	-0.15099342
70	0x3d89c0e8	0.06726247
71	0xbc7a018a	-0.015259156
72	0x3d1f223d	0.03885101
73	0xbe08cfcc	-0.13360518
74	0xbe11f45b	-0.1425337
75	0x3cad313c	0.02114164
76	0x3d344588	0.044011623
77	0x3c92d5b2	0.017924163
78	0xbde7365f	-0.11289667
79	0x3cb3e35c	0.021959
80	0xbd118053	-0.03552277
81	0xbd4ff83a	-0.050773837
82	0x3d7a8d1a	0.06116972
83	0xbd6139eb	-0.054986876
84	0x3e07b944	0.13254267
85	0x3d643852	0.055717774
86	0xbdacf891	-0.08445848
87	0xbd6c9409	-0.057758365
88	0xbceac358	-0.0286576
89	0xbd95f038	-0.07321209
90	0x3d90c936	0.07069628
91	0x3b5dbe5a	0.0033835382
92	0x3dc3753d	0.09543846
93	0xbdc3701f	-0.0954287
94	0x3d0fbadb	0.03509031
95	0x3d8e60b1	0.06952036
96	0xbdf2f03b	-0.118622266
97	0xbdcb3146	-0.099215075
98	0xbe0382ca	-0.12842861
99	0xbb861ca8	-0.0040927716
100	0x3e1cca13	0.1531146
101	0x3e278338	0.1635865
102	0x3e76c272	0.24097613
103	0x3db703bc	0.08936259
104	0x3dbf6f18	0.09347361
105	0x3e1524e9	0.14564861
106	0x3e115f43	0.14196496
107	0x3df263a4	0.11835411
108	0x3e04813c	0.12939924
109	0xbd029765	-0.031882662
110	0x3dbbac07	0.09163671
111	0x3db40adc	0.08791134
112	0x3e003579	0.12520398
113	0x3e493c04	0.196518
114	0x3dc3fefe	0.0957012
115	0x3db12ace	0.086507425
116	0x3e5d2b16	0.21598467
117	0xbc6cc7de	-0.014451949
118	0x3e0c4e7a	0.13701811
119	0x3d717320	0.058947682
120	0x3de216c5	0.11039499
121	0xbc2d46d9	-0.010575973
122	0x3c858804	0.016300209
123	0xbd528fc2	-0.05140663
124	0xbcc39f5f	-0.023879705
125	0x3d1c090e	0.038094573
126	0xbd3a3381	-0.045459274
127	0xbc11c793	-0.00889768
128	0xbcbea22b	-0.023270687
129	0x3d0f32ee	0.03496068
130	0xbe0a08cb	-0.13479917
131	0xbe6fbac8	-0.23411095
132	0xbe8d30bb	-0.2757624
133	0xbe777607	-0.24166118
134	0xbe36d9cc	-0.1785652
135	0xbd33a1f4	-0.043855622
136	0xbdc2c295	-0.0950977
137	0xbe50409b	-0.20337145
138	0xbdd16515	-0.10224358
139	0xbdb7c913	-0.08973899
140	0xbcec4a73	-0.028844094
141	0xbde1d6a5	-0.11027268
142	0xbe7e5a53	-0.24839143
143	0xbe39caf8	-0.18143833
144	0xbd257268	-0.04039231
145	0x3d44219f	0.047883626
146	0x3dd5fee2	0.10449006
147	0xbd63acd8	-0.05558476
148	0xbdd4a7a5	-0.10383538
149	0x3bcc71e9	0.006239165
150	0x3ea722c0	0.326437
151	0x3e55d70b	0.20882814
152	0xbe00c2c1	-0.12574293
153	0xbe6ecd87	-0.2332059
154	0xbe801c87	-0.25021765
155	0x3ed2228c	0.41041982
156	0x3e6338b2	0.22189596
157	0xbd88d43d	-0.06681106
158	0xbe9db466	-0.30801696
159	0xbecbc219	-0.39796522
160	0x3e42f9da	0.19040623
161	0x3e8e89cd	0.2783951
162	0xbdd012d1	-0.10159839
163	0xbe1449b1	-0.14481236
164	0xbe83bb9b	-0.2572907
165	0x3e87cf19	0.2652519
166	0x3e9f698f	0.31135222
167	0xbc4505f2	-0.012025343
168	0xbe51f65b	-0.20504133
169	0xbeb31b35	-0.34981695
170	0x3da3d3c3	0.07999375
171	0x3e97d3f4	0.29653895
172	0xbc903fe3	-0.017608589
173	0xbe542f53	-0.20721178
174	0xbeba34b0	-0.36368322
175	0xbd2758e5	-0.04085626
176	0x3e048918	0.12942922
177	0xbd794c37	-0.0608637
178	0x3e350bbd	0.17680259
179	0x3ca09aa2	0.019604985
180	0xbe0905d1	-0.13381125
181	0xbe3e8deb	-0.18608825
182	0x3a9b0cc9	0.0011829372
183	0xbc0b4f70	-0.008502826
184	0xbd84226f	-0.0645188
185	0xbe131e0b	-0.14366929
186	0xbc24c27e	-0.010056136
187	0xbcf41ee7	-0.029799892
188	0x3d66c523	0.056340348
189	0x3dc59881	0.096482284
190	0xbd2590d0	-0.040421307
191	0xbdadae70	-0.08480537
192	0x3b869dd2	0.004108169
193	0x3d60ad6d	0.05485289
194	0x3e3353d6	0.1751245
195	0xbe3ce85a	-0.1844801
196	0x3caedefa	0.021346558
197	0x3dbfb5d1	0.093608506
198	0x3e2c994d	0.16855355
199	0x3eb16ac8	0.3465178
200	0x3e8613ee	0.2618708
201	0xbe3aee4e	-0.18254969
202	0xbe3ca227	-0.18421231
203	0xbddd7c87	-0.10814767
204	0xbde0bf70	-0.10974014
205	0x3e67fcc0	0.2265501
206	0xbe1263bc	-0.14295858
207	0xbe024ecf	-0.12725376
208	0xbe2fe4f0	-0.17177176
209	0xbe8e7d31	-0.27829888
210	0x3ea33fac	0.31884515
211	0xbe28b585	-0.16475494
212	0xbe96c75c	-0.29448974
213	0xbe0a5cb6	-0.13511929
214	0xbddad70e	-0.1068555
215	0x3e3cea62	0.18448785
216	0xbde12b88	-0.10994631
217	0xbe1f0ecf	-0.15532993
218	0xbda55f20	-0.08074784
219	0xbe1265bb	-0.1429662
220	0x3e54e044	0.20788676
221	0xbd2f8fc4	-0.042861715
222	0xbe308bc4	-0.17240816
223	0x3da7dc96	0.0819637
224	0xbe0cebf3	-0.13761882
225	0xbdb0eeb6	-0.086392805
226	0x3e5082c2	0.2036238
227	0xbd23c472	-0.039982267
228	0x3ceab835	0.02865229
229	0xbdbb87c8	-0.091567576
230	0xbdf03b53	-0.11730065
231	0x3d32a7db	0.04361711
232	0xbdb0eb85	-0.08638672
233	0xbb02b76d	-0.0019945756
234	0xbe2f47a8	-0.17117178
235	0x3da41683	0.08012106
236	0x3e0e762f	0.13912271
237	0xbe6633f4	-0.22480756
238	0xbccc8b14	-0.024968661
239	0xbdd00396	-0.10156934
240	0xbc59e13d	-0.01329833
241	0x3e50d74c	0.20394629
242	0x3c361837	0.011114172
243	0xbd9a74ed	-0.07541833
244	0xbda04fb5	-0.07827703
245	0x3e0314ac	0.12800854
246	0x3e90c719	0.282769
247	0xbd626b13	-0.055277895
248	0x3d013f09	0.031554256
249	0x3dbaa25e	0.09113
250	0xbe65b6a8	-0.22432959
251	0xbe5b9a5e	-0.21445605
252	0x3e033941	0.1281481
253	0x3e49f063	0.19720607
254	0x3e4aca90	0.19803834
255	0xbe5fd979	-0.21860303

features.7.weight f4 [120, 400]
0	0xbc00176b	-0.007818083
1	0xbd3a2c12	-0.045452185
2	0xbd78e776	-0.060767613
3	0xbd644ee2	-0.05573929
4	0xbd25be49	-0.040464673
5	0x3b7ddab5	0.0038735096
6	0x3c3e94da	0.011632169
7	0xbc910b98	-0.017705724
8	0xbd23cc50	-0.03998977
9	0xbd49054c	-0.049077317
10	0x3cc5a615	0.024127046
11	0x3ca34265	0.01992912
12	0x3b8b3b8c	0.004249042
13	0xbcd942d8	-0.026521131
14	0xbd1c9961	-0.03823221
15	0x390115aa	0.00012310469
16	0x3ab419f5	0.0013740646
17	0x3c230937	0.009950927
18	0xbc4b7bc6	-0.012419647
19	0xbd48b041	-0.048996214
20	0xbd088f82	-0.033339985
21	0xbcba3752	-0.022731457
22	0xbce54bfd	-0.027990336
23	0xbd6c3abc	-0.0576732
24	0xbd163c1b	-0.036678415
25	0xbda33ffa	-0.07971187
26	0x3b954206	0.0045549897
27	0x3b823641	0.0039737527
28	0x3c776bd3	0.015101391
29	0x3b6d9781	0.0036253633
30	0xbd7c91f2	-0.06166262
31	0xbc23f147	-0.0100062555
32	0x3c5601b3	0.013061929
33	0xbcc08b5a	-0.023503948
34	0xbccc7b11	-0.024961026
35	0xbcabfbea	-0.020994145
36	0xbcf875d2	-0.030329619
37	0xbc573e81	-0.013137461
38	0xbcbb07ee	-0.02283093
39	0xbce60245	-0.028077254
40	0xbac66da2	-0.0015138874
41	0xbcf6967d	-0.030101055
42	0xbca15a3d	-0.01969635
43	0xbc4f45b0	-0.012650892
44	0xbc3bfa47	-0.011473245
45	0x3bcbdfe8	0.00622176
46	0x3ca2f919	0.01989417
47	0xbc8a6f24	-0.0168987
48	0xbd12b764	-0.035819426
49	0xbc8ce0be	-0.01719701
50	0x3b98eac7	0.0046666595
51	0x3cd64201	0.02615452
52	0xba5e5d5a	-0.00084825384
53	0xbbcc95b4	-0.006243432
54	0x3d0bbca3	0.034115445
55	0xbccd6fb9	-0.025077688
56	0xb945ed83	-0.00018875864
57	0x3bee08fc	0.0072642546
58	0x39aac05a	0.0003256824
59	0xb92355eb	-0.00015576898
60	0xbb38ba33	-0.0028187155
61	0x3bf8e39d	0.007595493
62	0x3c8c4d4e	0.017126705
63	0xbbda308d	-0.0066586197
64	0x3c0ce7e0	0.008600205
65	0xbb5fb900	-0.0034137368
66	0x3c4e5030	0.01259236
67	0x3c50a332	0.012734221
68	0xbb9d6bcb	-0.0048041097
69	0xbc06f4ea	-0.008237103
70	0xbc32b33f	-0.010906993
71	0xba869ff9	-0.0010271064
72	0xbc33a851	-0.010965423
73	0xbc957c64	-0.01824779
74	0x3c6db82d	0.014509243
75	0xbc7529a7	-0.014963544
76	0x3c4b5c88	0.012412198
77	0x3d6745db	0.056463104
78	0x3d6a9f6b	0.05728094
79	0xbb6689ed	-0.0035177425
80	0xbd3b9fc3	-0.045806658
81	0xbb921406	-0.0044579534
82	0x3c740d93	0.0148958145
83	0x3d60c6cd	0.05487709
84	0x3d8601cb	0.06543311
85	0xbd2b4df2	-0.04182238
86	0xbd3afd7c	-0.045651898
87	0xbc64b483	-0.013959053
88	0x3a078553	0.0005169708
89	0x3d8afae0	0.06786132
90	0xbd0df8c5	-0.034661073
91	0xbd90c09d	-0.07067988
92	0xbcbb1cfb	-0.022840967
93	0xbcf7d153	-0.03025118
94	0x3c344abf	0.011004149
95	0x3c9aee86	0.018912565
96	0xbc7001ba	-0.014648849
97	0x3bb14bf2	0.0054106647
98	0x3bdb15ec	0.006685963
99	0xb9c43d08	-0.00037429505
100	0x3d9f15b4	0.077678114
101	0x3d206ddb	0.039167266
102	0xb9bb4790	-0.00035720738
103	0xbba0b3f8	-0.0049042664
104	0xbbce71af	-0.0063001732
105	0x3cadac40	0.0212003
106	0x3cd2f9bf	0.025753854
107	0x3c04654f	0.0080807945
108	0x3c1f3bf2	0.009718882
109	0xbc57533d	-0.013142404
110	0x3beb7918	0.0071860664
111	0x3c3bcd3f	0.011462509
112	0xbc90b253	-0.017663157
113	0xbcb9cf17	-0.022681756
114	0xbcff8d56	-0.031195324
115	0xbca4c018	-0.020111129
116	0xbc55d1ee	-0.013050539
117	0xbc2d3575	-0.010571827
118	0xbd7ee1bc	-0.062226996
119	0xbd0c6d69	-0.03428403
120	0x3d3d86c0	0.046271086
121	0x3b8932d3	0.004186967
122	0xbc210804	-0.009828571
123	0xbcef7e20	-0.029234946
124	0xbc21b7e6	-0.009870505
125	0xbd0f4f68	-0.034987837
126	0xbd72a166	-0.059235953
127	0xbd46a576	-0.04849764
128	0xbd11ff09	-0.03564361
129	0x3d8fcaa6	0.07021074
130	0xbd0c1d24	-0.03420748
131	0xbd25d094	-0.04048212
132	0xbc9fd117	-0.019508881
133	0xbd6f9db3	-0.058500003
134	0x3c469457	0.012120328
135	0xbb623506	-0.0034516468
136	0xbc24276a	-0.010019163
137	0xbc0b02f7	-0.008484594
138	0xbd7296d9	-0.05922589
139	0xbc0f6b52	-0.0087536145
140	0xbc64daa4	-0.013968144
141	0xbc31cbc6	-0.010851806
142	0xbcd0b7f0	-0.025478333
143	0xbd974c0e	-0.07387553
144	0xbd2d7e85	-0.042356987
145	0x3b855264	0.0040686596
146	0xbce585f4	-0.028017975
147	0x3c9994c9	0.018747704
148	0xbd014cdf	-0.03156745
149	0xbd338902	-0.043831833
150	0xb99fdf8f	-0.00030493407
151	0xbbcce580	-0.0062529445
152	0xbc3a1e59	-0.0113597745
153	0x3bf534a8	0.0074830838
154	0x3c3fe0f5	0.011711349
155	0xbc88b7a7	-0.016689135
156	0x3c83f5bd	0.016108388
157	0xbc391374	-0.011296142
158	0x3c2d0979	0.0105613405
159	0xbb2deec0	-0.0026540011
160	0xbcbc89a5	-0.023014853
161	0xbcadda52	-0.021222267
162	0x3b85bfbd	0.004081695
163	0xbbe20a3d	-0.006898193
164	0x3c2383fa	0.009980196
165	0xbd0d8a5a	-0.03455577
166	0xbc8d673c	-0.01726114
167	0x3c977f32	0.018493269
168	0x3bd7805d	0.0065765814
169	0x3b1c3f59	0.002384147
170	0xbb42939b	-0.002969003
171	0x3c9c115c	0.019051246
172	0x3b044d55	0.0020187695
173	0x3c3d43c6	0.011551803
174	0x3cc10676	0.023562651
175	0xbd959d8d	-0.07305441
176	0x3c85e132	0.016342733
177	0x3da4fb7b	0.080557786
178	0x3d3e33ca	0.04643611
179	0xbaf50cf1	-0.0018695873
180	0xbd975544	-0.0738931
181	0x3b25f0a2	0.002532043
182	0x3d7db68f	0.06194168
183	0x3d26cb83	0.040721428
184	0xbba3e1b2	-0.00500127
185	0xbd69fe19	-0.057127092
186	0x3c73a8a2	0.014871748
187	0x3ca9015a	0.020630527
188	0x3b9fe5ad	0.0048796744
189	0xbcd09934	-0.025463678
190	0xbd1fce68	-0.039015204
191	0xbca7bbcb	-0.020475289
192	0xbbd35325	-0.0064491206
193	0xbcefa225	-0.029252121
194	0xbd0b5eb4	-0.034025863
195	0xbcd27e4a	-0.025694985
196	0xbc77793a	-0.015104586
197	0xbd0e5a7c	-0.03475426
198	0xbd6562a3	-0.05600227
199	0xbdb5dfc7	-0.08880573
200	0xbb2cc874	-0.0026364597
201	0xbd758257	-0.059938755
202	0xbcaf8eff	-0.02143049
203	0xbd62f036	-0.055404864
204	0xbd325de6	-0.04354658
205	0x3d12caba	0.035837866
206	0xbd1300ad	-0.035889316
207	0xbd4e9ab9	-0.050440524
208	0xbd8b4f8c	-0.06802282
209	0xbd17cb93	-0.037059378
210	0x3d25a725	0.040442605
211	0xbbba968f	-0.0056942175
212	0xbd0ddc3e	-0.034633867
213	0xbd81e933	-0.06343307
214	0xbd103808	-0.035209686
215	0x3d191749	0.037375722
216	0x3ac5f526	0.0015102967
217	0xbd3cfb1c	-0.046137914
218	0xbd8ae212	-0.06781401
219	0xbd74a9c5	-0.059732217
220	0x3d6e95d3	0.058248352
221	0xbc79245f	-0.015206425
222	0xbc8eb5b8	-0.017420635
223	0xbd2d6f54	-0.0423425
224	0xbd61b3f1	-0.055103246
225	0x3d9ee2e3	0.07758119
226	0x3d622687	0.055212524
227	0xbc8e9f43	-0.017409926
228	0xbd6e0586	-0.058110736
229	0xbd9c4c92	-0.07631792
230	0x3da7d686	0.08195214
231	0x3d77d80b	0.06050877
232	0x3cdd26e7	0.02699609
233	0xbd3916f6	-0.045187913
234	0xbd6bc2c3	-0.057558786
235	0x3d4acc34	0.04951115
236	0x3cdeaf6d	0.027183259
237	0x3b577a07	0.003287913
238	0xbcfe966d	-0.031077588
239	0xbd56fb4f	-0.05248576
240	0xbbb1dd4f	-0.0054279934
241	0xbc501ba6	-0.012701904
242	0xbc9bbdc1	-0.01901138
243	0xbd5ff412	-0.054676123
244	0xbd961bbd	-0.073295094
245	0xbd14f4d2	-0.03636629
246	0xbceffd54	-0.029295601
247	0xbd81ece0	-0.063440084
248	0xbd979f2b	-0.07403406
249	0xbd7b3e63	-0.061338793
250	0xbc04aa68	-0.008097269
251	0x3c2b1fb2	0.0104445685
252	0x3d343869	0.04399911
253	0x3d314b71	0.043284837
254	0xbc226d1c	-0.009913709
255	0xbd782c2d	-0.060589004

features.7.bias f4 [120]
0	0xbca71439	-0.020395385
1	0x3d968055	0.07348696
2	0xbcc1b1da	-0.023644377
3	0x3c133b8c	0.008986365
4	0xbdc4346e	-0.09580313
5	0xbba832cc	-0.0051330086
6	0x3bfd1a13	0.0077240556
7	0x3ce1a478	0.027544245
8	0xbcaf2d76	-0.021383982
9	0xbdb296a0	-0.08720136
10	0xbd209da0	-0.039212823
11	0xbd603d20	-0.054745793
12	0x3dcbed9a	0.09957428
13	0xbd372af1	-0.044718686
14	0xbd4c8bab	-0.049937885
15	0xbd70b187	-0.058763053
16	0x3caf2c25	0.021383354
17	0xbd299f9c	-0.04141198
18	0x3d8bb735	0.06822053
19	0x3be5e83e	0.007016211
20	0x3dba70cd	0.09103546
21	0x3d69cdc1	0.057080988
22	0xbd04daca	-0.032435216
23	0xbd16ef93	-0.03684957
24	0x3af1d500	0.001845032
25	0xbc84d5bf	-0.016215203
26	0x3ccef9c0	0.025265574
27	0x3d8a085e	0.06739877
28	0xbc29c8b4	-0.010362793
29	0xbc9373a1	-0.017999472
30	0xbdd8e6e5	-0.10590915
31	0xbad999e3	-0.0016601648
32	0xbbcd2800	-0.006260872
33	0xbd1867ab	-0.03720824
34	0x3d114b08	0.035471946
35	0xbc3c960d	-0.011510384
36	0x3d179fb5	0.037017543
37	0x39e2aef5	0.00043236432
38	0xbd57311c	-0.05253707
39	0x3c95866d	0.018252576
40	0xbc8740db	-0.016510418
41	0xbcc16c00	-0.023611069
42	0xbd4ba346	-0.049716257
43	0xbcce3737	-0.025172813
44	0x3d469e6e	0.048490934
45	0xbcf3def4	-0.029769398
46	0x3aa6a2c1	0.0012713299
47	0x3d62df9e	0.05538904
48	0x3bd533fb	0.0065064407
49	0xbbeb099a	-0.0071727755
50	0x3d1ec3fd	0.038761128
51	0x3c26053d	0.010133085
52	0x3b01c0a1	0.0019798654
53	0xbcac608d	-0.021042133
54	0xbd85e9d4	-0.0653874
55	0x3d4c34b4	0.04985495
56	0xbd61aa26	-0.055093907
57	0xbcef3b66	-0.029203128
58	0xba2bfb14	-0.0006560546
59	0xbce73e6a	-0.028228004
60	0xbbd00eda	-0.0063494267
61	0x3d12f156	0.035874687
62	0xbcbedb28	-0.023297861
63	0xbc7c9514	-0.015416402
64	0xbca509c4	-0.020146258
65	0xbd5b0cb5	-0.053478915
66	0x3c2aef09	0.010432967
67	0x3b8cdebd	0.0042990134
68	0x3d0b19e3	0.033960234
69	0xbb27cbde	-0.0025603692
70	0x3cc39285	0.023873577
71	0x3bb64fcb	0.0055637113
72	0x3cb83475	0.022485951
73	0x3d5839b5	0.05278941
74	0xbdc75204	-0.0973244
75	0xbc6c43b0	-0.014420435
76	0xbcb2c07e	-0.021820303
77	0x3de697f6	0.11259453
78	0x3c2a1344	0.01038057
79	0x3ddb2566	0.107004926
80	0x3d0ab7e4	0.033866778
81	0x3c2de7f4	0.010614384
82	0xbc4dcb48	-0.012560673
83	0xb9d6a699	-0.00040941386
84	0x3d9e9261	0.07742763
85	0x3912fd22	0.00014017944
86	0x3dc63542	0.09678127
87	0xba351c95	-0.0006908861
88	0x3b9b3a27	0.004737157
89	0x3b940fe4	0.004518496
90	0x3d14d9b7	0.03634044
91	0x3da73a22	0.08165385
92	0x3d185d11	0.03719813
93	0x3d20f85e	0.03929936
94	0xbc00d2d4	-0.007862765
95	0xbd26fc24	-0.040767804
96	0xbd8bdc79	-0.06829161
97	0xbd05203a	-0.032501437
98	0xbda1de97	-0.07903784
99	0x3d4d2cd1	0.05009157
100	0xbc8920a8	-0.016739205
101	0xbd3e4058	-0.04644808
102	0x3a810adc	0.0009845155
103	0x3c7ef83e	0.015562115
104	0x3e1ee27a	0.15516081
105	0x3de8343b	0.11338087
106	0x3d991393	0.074744366
107	0x3c125850	0.008932188
108	0xbd448481	-0.047977928
109	0xbca36038	-0.019943342
110	0xbd684d85	-0.056714553
111	0xbd7895e6	-0.06068983
112	0xbcd978af	-0.026546804
113	0x3c68449c	0.014176514
114	0xbc08c688	-0.008348115
115	0xbd306f7a	-0.043075062
116	0xbc81bbf1	-0.015836688
117	0xbab5a138	-0.0013857251
118	0xbcc186ef	-0.023623912
119	0x3a8ea728	0.0010883557

features.9.weight f4 [84, 120]
0	0xbc810249	-0.01574816
1	0x3c4a3ff9	0.012344354
2	0x3b18cea9	0.0023316538
3	0xbca2e715	-0.01988558
4	0xbc295dcf	-0.010337307
5	0x3c9bec1a	0.01903348
6	0xbbf26412	-0.007397183
7	0xbc1bf6c2	-0.009519281
8	0x3d3eb3e4	0.046558276
9	0x3cab1634	0.02088461
10	0x3c34f856	0.011045536
11	0xbbeeb029	-0.0072841835
12	0x3c3f23bf	0.011666237
13	0xbbc1a758	-0.0059098415
14	0x3cb5f12d	0.022209728
15	0x3d170de3	0.036878478
16	0xbbacf47d	-0.0052781687
17	0x3c422411	0.011849419
18	0xbb0567cc	-0.0020356057
19	0x3c1d1895	0.00958838
20	0xbb34a933	-0.002756667
21	0x3c48a37f	0.012246012
22	0xbb89e488	-0.0042081513
23	0xbc0f36b3	-0.008741069
24	0x3c3c76f6	0.011502972
25	0x3b8d40c1	0.004310698
26	0x3c6dae22	0.0145068485
27	0x3bcc2a65	0.0062306398
28	0xbc64a8e6	-0.013956284
29	0x3ba41389	0.0050072116
30	0xbc7b649e	-0.015343813
31	0x3c770581	0.015076996
32	0xbb98b30d	-0.0046600164
33	0x3be56519	0.007000577
34	0x3c435374	0.011921752
35	0xbb899041	-0.0041981046
36	0x3b7c1d66	0.0038469671
37	0x3c48334a	0.0122192595
38	0xbbe9eaf6	-0.007138605
39	0xbc8792b4	-0.016549446
40	0xbc267547	-0.010159797
41	0x3c681d68	0.014167167
42	0xbb26fa5a	-0.002547881
43	0x3ce98e9b	0.028510382
44	0x3cb43d56	0.022001904
45	0x3b45e691	0.0030197243
46	0x3a31d127	0.000678318
47	0x3c1fa141	0.009743036
48	0xbb4759ad	-0.0030418441
49	0x3b0adff1	0.0021190608
50	0xbcb3ebdf	-0.021963058
51	0xbb9cc1d6	-0.004783849
52	0x3b1ad9b8	0.0023628306
53	0xbc0aea95	-0.00847878
54	0x3c819a4f	0.01582065
55	0x3c1022c1	0.0087973485
56	0x3b9e1abc	0.0048249643
57	0x3b894451	0.004189052
58	0x3c84bf05	0.016204366
59	0x3d2317ef	0.039817747
60	0x3b7d11a1	0.0038615244
61	0xbca12240	-0.019669652
62	0xbbd874ae	-0.006605706
63	0xbc49ee94	-0.012324948
64	0x3ad10f11	0.0015949925
65	0xbbbb19fc	-0.0057098847
66	0x3a2d8c01	0.00066202885
67	0xbc483f9a	-0.012222195
68	0x3bcbeca2	0.006223277
69	0x3c290817	0.01031687
70	0xbc61a8db	-0.013773168
71	0x3bae0916	0.0053111417
72	0xbbff5d39	-0.0077930954
73	0xbb362a8a	-0.0027796351
74	0xbb0ea07a	-0.0021763132
75	0xbbb8074e	-0.005616105
76	0x3c087970	0.008329734
77	0xbcfd4999	-0.030918883
78	0x3a712da0	0.0009200219
79	0xbb0b12dd	-0.002122096
80	0x3c2667dc	0.010156598
81	0xbc44c767	-0.012010432
82	0xbcccb33e	-0.024987813
83	0x3cb89d4d	0.022535944
84	0x3c7c55cc	0.015401315
85	0xbc22a179	-0.009926193
86	0xbd13e2b8	-0.036104888
87	0x3ca0384b	0.019558093
88	0x3c99f65c	0.018794231
89	0x3c296fc8	0.010341592
90	0x3c8244e2	0.015901987
91	0xbc4061e0	-0.011742085
92	0xbbd99fa3	-0.0066413446
93	0x3bc76963	0.006085561
94	0x3b828492	0.003983089
95	0x3c23ac18	0.009989761
96	0x3d3ffc79	0.046871636
97	0x3c85e8ec	0.016346417
98	0x3cdccbca	0.026952643
99	0xbc0123cc	-0.00788207
100	0xbbbb8826	-0.0057230173
101	0xbca375a5	-0.019953558
102	0xbcba2e86	-0.022727262
103	0xbb52178f	-0.00320575
104	0x3bf30b6c	0.007417133
105	0x3b3dcd65	0.0028961536
106	0xbc0570eb	-0.0081445975
107	0xbc5a7319	-0.0133331055
108	0x3b5af44a	0.0033409768
109	0xba1d87d3	-0.0006009314
110	0xbc6fd7c3	-0.014638844
111	0x3c135382	0.008992078
112	0xb9dcf7b2	-0.00042146217
113	0x3c27c60b	0.010240088
114	0x3bd5e1a1	0.006527141
115	0x3bc92ce3	0.006139384
116	0xbc827417	-0.015924497
117	0x3c2c5dd1	0.010520414
118	0x3ccbeffe	0.02489471
119	0x3c1e5cad	0.00966565
120	0x3a295deb	0.0006460833
121	0xbce095c6	-0.027415168
122	0xbba37588	-0.004988376
123	0x3c3f93b1	0.011692927
124	0x3957d796	0.0002058431
125	0xbbe8a5a9	-0.0070998264
126	0xbbfb599e	-0.0076705953
127	0x3b946dbe	0.004529684
128	0x3c242f78	0.010021083
129	0xb8fcb1c8	-0.00012049411
130	0xbc95af34	-0.01827202
131	0xb9f07130	-0.00045860698
132	0xbaa626c9	-0.0012676354
133	0xbc1b0081	-0.009460569
134	0xbca4cf9a	-0.020118523
135	0xbb2d0b28	-0.0026404355
136	0x3b71d762	0.003690206
137	0x3c879e05	0.016554842
138	0x3b8499f2	0.004046672
139	0x3c587d01	0.013213397
140	0xbbdc4802	-0.006722451
141	0xbc8b6cd7	-0.017019672
142	0xba4d005a	-0.0007820182
143	0x3cb33077	0.021873696
144	0x3c1140b4	0.008865524
145	0xba2eeebe	-0.00066731486
146	0x3a019e2e	0.000494453
147	0xbbb5fc1f	-0.005553737
148	0x3c02265d	0.007943717
149	0xbba84727	-0.005135435
150	0x3bc31866	0.0059538363
151	0x3b71c22f	0.0036889424
152	0xbbdddfd9	-0.0067710695
153	0xbc8df30a	-0.017327804
154	0x3b4e032f	0.0031435003
155	0x3a840ea4	0.0010075164
156	0x3c414aa5	0.011797582
157	0xbbefefe3	-0.007322298
158	0xbc7d7e0f	-0.015471949
159	0xbb84271f	-0.004032984
160	0x3c368bf1	0.011141763
161	0xbc2fe654	-0.010736067
162	0xbc254988	-0.010088332
163	0xbc379754	-0.011205513
164	0xbafcc732	-0.0019285439
165	0x3bb7f134	0.0056134705
166	0xbca8f9a2	-0.020626847
167	0xbaf21c1d	-0.0018471513
168	0xbb4cf4ff	-0.0031273959
169	0x3c803847	0.015651835
170	0x3952cf52	0.00020104393
171	0x3b8d3ec9	0.004310463
172	0x3b99aefc	0.004690049
173	0xbc091b61	-0.008368344
174	0xbc0baf04	-0.008525614
175	0x3c10702f	0.008815809
176	0x3bfd6dbb	0.007734028
177	0x3c4c867b	0.0124832345
178	0x3cc875ca	0.024470229
179	0xbc29a91e	-0.010355262
180	0xbbb2b029	-0.005453129
181	0xbca19079	-0.01972221
182	0x3c0bceb0	0.008533165
183	0xbc16dada	-0.009207452
184	0xbb2ba783	-0.0026192374
185	0x3be0e96c	0.0068637636
186	0x3b879e83	0.004138769
187	0xbc274877	-0.010210148
188	0xbc802bf3	-0.015645957
189	0xbb6dcac3	-0.0036284185
190	0xbaa52a80	-0.0012601167
191	0x3ae31a51	0.0017326568
192	0xbbafbb89	-0.005362932
193	0xbbf43e96	-0.00745375
194	0x3c1ce673	0.009576428
195	0xbc4fe8e2	-0.012689801
196	0xbcce571c	-0.025188021
197	0x3c71fcf4	0.014769781
198	0xbb8b11f5	-0.004244084
199	0xbcb49faa	-0.02204879
200	0x3b9de816	0.0048189266
201	0x3b63a2e6	0.0034734546
202	0xbb0a9fed	-0.0021152452
203	0xb98e5dd9	-0.00027154273
204	0x3b5bdfa5	0.003355005
205	0xbc401932	-0.011724757
206	0xba768908	-0.00094045745
207	0xbbcf8266	-0.0063326834
208	0x3a87c67e	0.0010358838
209	0x3ac4ede8	0.0015024515
210	0xbcdcc6eb	-0.02695032
211	0x3c8e2ea5	0.017356226
212	0xbb69c51b	-0.0035670463
213	0xbab662b5	-0.0013914915
214	0x3c2c1bf9	0.010504716
215	0x3c6724b2	0.01410787
216	0xbc1320e6	-0.008980012
217	0xbbe64b8f	-0.0070280503
218	0x3c09207d	0.008369562
219	0x3aad55b2	0.0013224392
220	0x3c008169	0.007843354
221	0xb8d5aef5	-0.0001018922
222	0x3c0b8db3	0.00851767
223	0xbba9158f	-0.0051600407
224	0xbc87d05d	-0.016578848
225	0x3ba9ebf0	0.0051855966
226	0x3c49511c	0.012287404
227	0x3b575732	0.003285837
228	0xbba2fdd4	-0.0049741063
229	0xbba92343	-0.005161674
230	0xbc27a23a	-0.010231549
231	0x3c52e82f	0.01287274
232	0x3c15e0c8	0.00914783
233	0xbbbdd504	-0.0057932157
234	0xbc9d11d5	-0.019173542
235	0x3c544d43	0.012957874
236	0xbb89f415	-0.004210005
237	0xbbab829a	-0.005234075
238	0x3b7997ae	0.0038084793
239	0xbc3cadec	-0.011516076
240	0x3c05d139	0.008167558
241	0xbc1a6aa0	-0.009424835
242	0xbb96c419	-0.0046010134
243	0xbc115112	-0.008869426
244	0xbc2f7975	-0.01071011
245	0x3c186a31	0.009302662
246	0x391c1a9b	0.0001488723
247	0x3b167729	0.0022959209
248	0xbc37e942	-0.011225047
249	0xbcb3c594	-0.021944799
250	0x39eee69f	0.00045566724
251	0xbb007191	-0.001959894
252	0xbb5f26c3	-0.0034050203
253	0xbc3fa6ce	-0.011697484
254	0x3b8bdb78	0.004268106
255	0x3c0746d4	0.008256633

features.9.bias f4 [84]
0	0x3c8879d1	0.01665965
1	0xbc5f1fc5	-0.013618414
2	0xbc9ad126	-0.018898558
3	0xbb3f0c2d	-0.0029151544
4	0x3c3a65eb	0.011376838
5	0x3ef03eec	0.46923006
6	0xbb34fb56	-0.0027615628
7	0xbb7a2296	-0.0038167587
8	0x390cf886	0.00013444023
9	0x3e2b2459	0.16713084
10	0x3dbba8e7	0.09163075
11	0x3c844db1	0.016150327
12	0x3c110f4d	0.008853746
13	0x3e1dfb19	0.15427817
14	0x3cbe8c0b	0.023260137
15	0xbc7316ac	-0.014836948
16	0x3b8865e3	0.0041625365
17	0xba87013c	-0.001030005
18	0xbcb9314d	-0.022606516
19	0xbcaa0683	-0.020755058
20	0xbdca8d40	-0.098902225
21	0x3d4e37bf	0.050346132
22	0x3da2f9e9	0.07957823
23	0xbc2dc453	-0.010605889
24	0xbb93a4e7	-0.004505742
25	0x3e043e00	0.12914276
26	0x3c8c4451	0.01712242
27	0xbc19aad2	-0.009379106
28	0xba85a996	-0.0010197635
29	0x3c2e4951	0.010637597
30	0x3c41f10b	0.011837254
31	0x3ca0f95e	0.019650158
32	0x3e2c5494	0.16829139
33	0x3cc88fa2	0.024482552
34	0x3bf3298f	0.0074207257
35	0x3a0bb117	0.00053288176
36	0x3a9356f5	0.0011241125
37	0x3d028b2d	0.03187101
38	0x3c742581	0.01490152
39	0x3defda2d	0.117115356
40	0x3c9d606b	0.019211015
41	0xbba238bd	-0.0049506114
42	0x3e00dc2c	0.12583989
43	0xbbe08196	-0.0068513853
44	0x3c601197	0.013676069
45	0x3dda7892	0.10667528
46	0x377e66f0	1.5163547e-05
47	0xbd1de2fd	-0.03854655
48	0xbbf725b8	-0.007542338
49	0x3d870e08	0.06594473
50	0x3e9678a4	0.29388916
51	0x3e5dd8d9	0.21664752
52	0x3884e087	6.336072e-05
53	0x3e02dcfa	0.12779608
54	0x3e121cfe	0.14268872
55	0xbbd1d8d7	-0.006404023
56	0x3bac928d	0.0052664937
57	0x3d80471e	0.062635645
58	0xbb52edfc	-0.0032185307
59	0xbc576ca7	-0.013148463
60	0xbbd35425	-0.00644924
61	0x3c5f80ae	0.0136415195
62	0xbd689b85	-0.05678894
63	0x3d55929a	0.052141763
64	0x3e2b2680	0.16713905
65	0xbc3b812a	-0.011444369
66	0x3b78dd7e	0.0037973817
67	0x3dd756d4	0.10514608
68	0x3d4a4c83	0.049389374
69	0x3db268ab	0.0871137
70	0x3dfa3cc4	0.122186214
71	0x3e466d5c	0.19377655
72	0x3dcea2d7	0.10089653
73	0x3d308595	0.043096144
74	0x3abeb562	0.0014549906
75	0x3df32448	0.118721545
76	0xbbd72a05	-0.0065662884
77	0x3d7cad3e	0.061688654
78	0x3df49e87	0.11944299
79	0x3dee0161	0.11621357
80	0xbdf37826	-0.11888151
81	0x3eca6288	0.39528298
82	0x3e027f83	0.12743954
83	0x3d3d4668	0.046209723

classifiers.0.weight f4 [5, 84]
0	0xbd8aad81	-0.067713745
1	0x3cad371e	0.021144446
2	0x3ca7210b	0.020401498
3	0x3c4e745c	0.012600984
4	0x3e6a3e22	0.22875264
5	0xbe2f83d3	-0.1714013
6	0xbc30cb3b	-0.010790641
7	0xbe3dc9f4	-0.1853407
8	0x3bed6b7b	0.0072454787
9	0x3de7b063	0.1131294
10	0xbe132393	-0.14369039
11	0x3d6d3630	0.057913005
12	0x3d9355c4	0.07194093
13	0xbd27a077	-0.040924516
14	0xbdcb88a8	-0.099381745
15	0x3ca131ec	0.019677125
16	0xbae119d8	-0.001717384
17	0x3bb66e83	0.0055673732
18	0x3bb23f4f	0.005439676
19	0xbca7601b	-0.020431569
20	0x3e8729ff	0.26399228
21	0xbc801250	-0.015633732
22	0x3d904cc0	0.07045889
23	0xbc1f7159	-0.009731614
24	0x3bf8639c	0.0075802337
25	0xbc116ef4	-0.008876551
26	0xbca37d35	-0.019957164
27	0x3da1c1c9	0.0789829
28	0xbc853119	-0.016258763
29	0x3e156cbe	0.14592263
30	0x3dc73d70	0.09728515
31	0xbd2273c5	-0.039661188
32	0x3d82f2d5	0.06393973
33	0x3ce32680	0.02772832
34	0x3bc62536	0.0060469164
35	0x3cf8f9a1	0.03039247
36	0xbe751655	-0.239343
37	0xbd007e5c	-0.031370506
38	0x3cc9f0c2	0.024650935
39	0xbba882ef	-0.0051425616
40	0xbd46c597	-0.04852828
41	0x3d1f8ac7	0.038950708
42	0x3d3b5a0f	0.045740183
43	0xbc7da4f9	-0.015481227
44	0x3e0daeb1	0.1383617
45	0x3ce2bcb4	0.027677871
46	0x3c96d140	0.018410325
47	0x3e069eb1	0.13146473
48	0x3d9c42c5	0.07629923
49	0xbc4affc5	-0.012390082
50	0x3e499ef4	0.19689542
51	0x3d735163	0.05940379
52	0xbbe8078a	-0.007080977
53	0x3c6adc8d	0.01433481
54	0x3e2327d7	0.15933166
55	0x3c564fb4	0.013080526
56	0xbc90cf37	-0.017676933
57	0x3dfd34a5	0.12363557
58	0x3c19c98a	0.00938643
59	0xbc1e0805	-0.009645467
60	0xbe55028b	-0.20801751
61	0xbca4372c	-0.02004584
62	0x3e1b71c4	0.15180117
63	0xbcc257c2	-0.023723487
64	0x3e134efc	0.14385599
65	0x3ce83d01	0.028349401
66	0x3cabdedc	0.020980291
67	0x3e0577cb	0.13033979
68	0x3e55cbf7	0.20878588
69	0xbc096ede	-0.008388249
70	0x3d24df6f	0.040252145
71	0x3da44f91	0.080229886
72	0x3dcd85ba	0.10035272
73	0x3dae5158	0.08511609
74	0xbcb58e54	-0.022162594
75	0x3d07cf00	0.033156395
76	0xbe0ea63c	-0.13930601
77	0x3de52b06	0.11189847
78	0x3df9151d	0.1216223
79	0xbe85824f	-0.2607598
80	0x3e0b435c	0.13599914
81	0xbcd0684b	-0.025440356
82	0x3e4c8337	0.1997193
83	0x3e188dd8	0.14897859
84	0x3d182e4e	0.037153535
85	0xbb9cf5dd	-0.0047900514
86	0x3c80f5d6	0.015742224
87	0x3c0a4ab4	0.008440662
88	0xbd0af629	-0.033926163
89	0xbe1f0a6e	-0.15531322
90	0xbbe777ab	-0.007063826
91	0x3cbbd64a	0.02292933
92	0xbb5509a5	-0.003250697
93	0x3e2b60cb	0.16736142
94	0xbd5be0ce	-0.053681187
95	0x3dcf77a8	0.101302445
96	0x3d55a4e0	0.05215919
97	0x3e092f48	0.13396943
98	0x3e02c08f	0.12768768
99	0xbc1a220f	-0.009407534
100	0x3d0561c9	0.03256396
101	0xbbe69de3	-0.0070378645
102	0xbc5badb2	-0.013408111
103	0x3e00971d	0.12557645
104	0xbda1e226	-0.079044625
105	0x3d40d9a4	0.04708256
106	0x3e4e98cb	0.20175473
107	0x3d1fdcf3	0.039029073
108	0xbc7750c9	-0.015094944
109	0xbe946337	-0.28981945
110	0x3b1ee19e	0.0024243365
111	0xbd05c135	-0.03265496
112	0x3c96bd9f	0.018400965
113	0xbe5f9a30	-0.21836162
114	0xbcfae514	-0.030626811
115	0x3d86594d	0.065600015
116	0x3d7f3009	0.06230167
117	0xbda43d08	-0.08019453
118	0x3ce6096f	0.02808067
119	0x3d06230a	0.03274826
120	0x3da5a150	0.080874085
121	0xbe1f4c93	-0.15556554
122	0x3d7e67a2	0.06211055
123	0x3d67a847	0.056556966
124	0x3ce317f4	0.027721383
125	0xbe12b362	-0.14326242
126	0x3e230712	0.15920666
127	0xbc4161e7	-0.011803127
128	0xbe066c69	-0.13127293
129	0xbe712a23	-0.2355123
130	0xbbafe783	-0.0053681745
131	0xbd5dd152	-0.0541547
132	0x3d32e3ab	0.043674152
133	0xbd4e438a	-0.05035738
134	0x3e729f87	0.23693667
135	0xbea07bec	-0.31344545
136	0x3cbd6c82	0.02312303
137	0xbe606033	-0.21911697
138	0x3de3b22a	0.111179665
139	0xbba95217	-0.0051672566
140	0xbca2c178	-0.019867644
141	0x3e833509	0.256264
142	0x3c02523f	0.007954179
143	0xbc1a0430	-0.009400412
144	0x3de7b8f7	0.11314576
145	0xba42caef	-0.0007430752
146	0x3d6189ed	0.055063177
147	0xbd1f79cb	-0.03893451
148	0x3e666cd7	0.22502457
149	0x3aacabb0	0.0013173725
150	0x3b0390d7	0.0020075345
151	0xbe636642	-0.22206977
152	0x3cc7edd5	0.0244054
153	0xbebb4d79	-0.36582544
154	0xbe4666e9	-0.19375195
155	0x3e5f6a5e	0.2181792
156	0x3d6e0a2c	0.05811517
157	0x3dda6c5f	0.106652014
158	0xbabda260	-0.0014467947
159	0xbe85359c	-0.26017463
160	0x3defbe3f	0.117062084
161	0x3e9f68cc	0.3113464
162	0x3cf04cdf	0.02933353
163	0xbd8197a2	-0.0632775
164	0xbced5952	-0.028973255
165	0xbedbb487	-0.4291117
166	0xbe91e0a2	-0.28491694
167	0x3c44a38b	0.012001882
168	0x3c954871	0.01822302
169	0xbc507b7c	-0.0127247535
170	0xb9e905de	-0.00044445595
171	0xbb21eb14	-0.0024706768
172	0xbd898a32	-0.06715812
173	0xbea3bf8a	-0.3198207
174	0x3c3361c9	0.010948607
175	0x3e2be460	0.16786337
176	0x3c91eba8	0.017812565
177	0xbec5b06f	-0.3861117
178	0x3d67882c	0.056526348
179	0xbd4561f5	-0.048189122
180	0xbd6827ca	-0.05667857
181	0xbe871e42	-0.26390272
182	0x3d563c3c	0.052303538
183	0xba9585ef	-0.0011407713
184	0xbb71fc2e	-0.0036923992
185	0xbbcfbeb3	-0.006339872
186	0x3e65b55f	0.22432469
187	0x3dd8dd52	0.105890885
188	0x3d87bec4	0.066281825
189	0xbd2c1660	-0.042013526
190	0x3de26138	0.11053699
191	0x3d644d64	0.055737868
192	0x3c384541	0.01124698
193	0x3e93a1de	0.28834432
194	0x3c7afbce	0.015318824
195	0x3d19630e	0.03744798
196	0xbcc58ca1	-0.024114909
197	0x3e30f5b4	0.17281228
198	0xbd2b8467	-0.041874316
199	0x3d349c24	0.04409422
200	0xbe401bce	-0.18760607
201	0x3c1c308c	0.009533059
202	0x3c4031e9	0.0117306495
203	0xbd6636d6	-0.05620464
204	0x3e2a0224	0.16602379
205	0x3e46f005	0.19427498
206	0x3bcdd542	0.006281526
207	0xbddcce79	-0.10781569
208	0x3e10c88e	0.14139006
209	0x3e13c466	0.14430389
210	0xbe799c8b	-0.24376123
211	0x3c5a76cf	0.01333399
212	0x3ab1cf67	0.0013565839
213	0x3e06a77b	0.13149826
214	0xbabebd81	-0.0014552326
215	0x3d2b0f3b	0.04176257
216	0x3e446f4a	0.19183078
217	0xbc44bcb6	-0.012007883
218	0xbf15ec02	-0.58563244
219	0x3c18bc29	0.009322205
220	0x3b8769c9	0.0041324836
221	0x3d914995	0.07094113
222	0xbe950ac6	-0.29109782
223	0x3b6c5c4d	0.0036065758
224	0x3d621876	0.05519911
225	0xbe8d56ce	-0.2760529
226	0x3bb85901	0.0056258445
227	0xbca045db	-0.01956456
228	0x3e608b31	0.21928097
229	0xbc846fe1	-0.01616663
230	0xbd85dbb4	-0.06536046
231	0x3b880201	0.0041506295
232	0xbea79bf0	-0.32736158
233	0xba01bc12	-0.0004948984
234	0xbbfb5c43	-0.0076709106
235	0xbd118c34	-0.0355341
236	0xbe49bc4a	-0.19700733
237	0x3ecbf2a6	0.39833564
238	0x3d7b3216	0.061327063
239	0xbe74e194	-0.23914176
240	0xbe423e90	-0.18969178
241	0xbd019e6d	-0.031645227
242	0x3d169c8b	0.036770385
243	0x3e3093e2	0.17243913
244	0x3df6134b	0.120153986
245	0xbe9d6eed	-0.30748692
246	0xbe1e347a	-0.15449706
247	0x3e2670ae	0.16253921
248	0x3e37307c	0.17889589
249	0x3d113585	0.03545143
250	0xbd73274a	-0.05936364
251	0xbce5d933	-0.02805767
252	0x3c3c2d26	0.011485374
253	0xbc638ade	-0.013888089
254	0xbbe45348	-0.0069679357
255	0x3bbaaa05	0.0056965374

classifiers.0.bias f4 [5]
0	0xbf50610c	-0.8139808
1	0xbea71e5b	-0.32640347
2	0xbec8e3df	-0.39236352
3	0x3ec8f89c	0.39252174
4	0x3f91f302	1.1402285

classifier.weight f4 [5, 84]
0	0xbd8aad81	-0.067713745
1	0x3cad371e	0.021144446
2	0x3ca7210b	0.020401498
3	0x3c4e745c	0.012600984
4	0x3e6a3e22	0.22875264
5	0xbe2f83d3	-0.1714013
6	0xbc30cb3b	-0.010790641
7	0xbe3dc9f4	-0.1853407
8	0x3bed6b7b	0.0072454787
9	0x3de7b063	0.1131294
10	0xbe132393	-0.14369039
11	0x3d6d3630	0.057913005
12	0x3d9355c4	0.07194093
13	0xbd27a077	-0.040924516
14	0xbdcb88a8	-0.099381745
15	0x3ca131ec	0.019677125
16	0xbae119d8	-0.001717384
17	0x3bb66e83	0.0055673732
18	0x3bb23f4f	0.005439676
19	0xbca7601b	-0.020431569
20	0x3e8729ff	0.26399228
21	0xbc801250	-0.015633732
22	0x3d904cc0	0.07045889
23	0xbc1f7159	-0.009731614
24	0x3bf8639c	0.0075802337
25	0xbc116ef4	-0.008876551
26	0xbca37d35	-0.019957164
27	0x3da1c1c9	0.0789829
28	0xbc853119	-0.016258763
29	0x3e156cbe	0.14592263
30	0x3dc73d70	0.09728515
31	0xbd2273c5	-0.039661188
32	0x3d82f2d5	0.06393973
33	0x3ce32680	0.02772832
34	0x3bc62536	0.0060469164
35	0x3cf8f9a1	0.03039247
36	0xbe751655	-0.239343
37	0xbd007e5c	-0.031370506
38	0x3cc9f0c2	0.024650935
39	0xbba882ef	-0.0051425616
40	0xbd46c597	-0.04852828
41	0x3d1f8ac7	0.038950708
42	0x3d3b5a0f	0.045740183
43	0xbc7da4f9	-0.015481227
44	0x3e0daeb1	0.1383617
45	0x3ce2bcb4	0.027677871
46	0x3c96d140	0.018410325
47	0x3e069eb1	0.13146473
48	0x3d9c42c5	0.07629923
49	0xbc4affc5	-0.012390082
50	0x3e499ef4	0.19689542
51	0x3d735163	0.05940379
52	0xbbe8078a	-0.007080977
53	0x3c6adc8d	0.01433481
54	0x3e2327d7	0.15933166
55	0x3c564fb4	0.013080526
56	0xbc90cf37	-0.017676933
57	0x3dfd34a5	0.12363557
58	0x3c19c98a	0.00938643
59	0xbc1e0805	-0.009645467
60	0xbe55028b	-0.20801751
61	0xbca4372c	-0.02004584
62	0x3e1b71c4	0.15180117
63	0xbcc257c2	-0.023723487
64	0x3e134efc	0.14385599
65	0x3ce83d01	0.028349401
66	0x3cabdedc	0.020980291
67	0x3e0577cb	0.13033979
68	0x3e55cbf7	0.20878588
69	0xbc096ede	-0.008388249
70	0x3d24df6f	0.040252145
71	0x3da44f91	0.080229886
72	0x3dcd85ba	0.10035272
73	0x3dae5158	0.08511609
74	0xbcb58e54	-0.022162594
75	0x3d07cf00	0.033156395
76	0xbe0ea63c	-0.13930601
77	0x3de52b06	0.11189847
78	0x3df9151d	0.1216223
79	0xbe85824f	-0.2607598
80	0x3e0b435c	0.13599914
81	0xbcd0684b	-0.025440356
82	0x3e4c8337	0.1997193
83	0x3e188dd8	0.14897859
84	0x3d182e4e	0.037153535
85	0xbb9cf5dd	-0.0047900514
86	0x3c80f5d6	0.015742224
87	0x3c0a4ab4	0.008440662
88	0xbd0af629	-0.033926163
89	0xbe1f0a6e	-0.15531322
90	0xbbe777ab	-0.007063826
91	0x3cbbd64a	0.02292933
92	0xbb5509a5	-0.003250697
93	0x3e2b60cb	0.16736142
94	0xbd5be0ce	-0.053681187
95	0x3dcf77a8	0.101302445
96	0x3d55a4e0	0.05215919
97	0x3e092f48	0.13396943
98	0x3e02c08f	0.12768768
99	0xbc1a220f	-0.009407534
100	0x3d0561c9	0.03256396
101	0xbbe69de3	-0.0070378645
102	0xbc5badb2	-0.013408111
103	0x3e00971d	0.12557645
104	0xbda1e226	-0.079044625
105	0x3d40d9a4	0.04708256
106	0x3e4e98cb	0.20175473
107	0x3d1fdcf3	0.039029073
108	0xbc7750c9	-0.015094944
109	0xbe946337	-0.28981945
110	0x3b1ee19e	0.0024243365
111	0xbd05c135	-0.03265496
112	0x3c96bd9f	0.018400965
113	0xbe5f9a30	-0.21836162
114	0xbcfae514	-0.030626811
115	0x3d86594d	0.065600015
116	0x3d7f3009	0.06230167
117	0xbda43d08	-0.08019453
118	0x3ce6096f	0.02808067
119	0x3d06230a	0.03274826
120	0x3da5a150	0.080874085
121	0xbe1f4c93	-0.15556554
122	0x3d7e67a2	0.06211055
123	0x3d67a847	0.056556966
124	0x3ce317f4	0.027721383
125	0xbe12b362	-0.14326242
126	0x3e230712	0.15920666
127	0xbc4161e7	-0.011803127
128	0xbe066c69	-0.13127293
129	0xbe712a23	-0.2355123
130	0xbbafe783	-0.0053681745
131	0xbd5dd152	-0.0541547
132	0x3d32e3ab	0.043674152
133	0xbd4e438a	-0.05035738
134	0x3e729f87	0.23693667
135	0xbea07bec	-0.31344545
136	0x3cbd6c82	0.02312303
137	0xbe606033	-0.21911697
138	0x3de3b22a	0.111179665
139	0xbba95217	-0.0051672566
140	0xbca2c178	-0.019867644
141	0x3e833509	0.256264
142	0x3c02523f	0.007954179
143	0xbc1a0430	-0.009400412
144	0x3de7b8f7	0.11314576
145	0xba42caef	-0.0007430752
146	0x3d6189ed	0.055063177
147	0xbd1f79cb	-0.03893451
148	0x3e666cd7	0.22502457
149	0x3aacabb0	0.0013173725
150	0x3b0390d7	0.0020075345
151	0xbe636642	-0.22206977
152	0x3cc7edd5	0.0244054
153	0xbebb4d79	-0.36582544
154	0xbe4666e9	-0.19375195
155	0x3e5f6a5e	0.2181792
156	0x3d6e0a2c	0.05811517
157	0x3dda6c5f	0.106652014
158	0xbabda260	-0.0014467947
159	0xbe85359c	-0.26017463
160	0x3defbe3f	0.117062084
161	0x3e9f68cc	0.3113464
162	0x3cf04cdf	0.02933353
163	0xbd8197a2	-0.0632775
164	0xbced5952	-0.028973255
165	0xbedbb487	-0.4291117
166	0xbe91e0a2	-0.28491694
167	0x3c44a38b	0.012001882
168	0x3c954871	0.01822302
169	0xbc507b7c	-0.0127247535
170	0xb9e905de	-0.00044445595
171	0xbb21eb14	-0.0024706768
172	0xbd898a32	-0.06715812
173	0xbea3bf8a	-0.3198207
174	0x3c3361c9	0.010948607
175	0x3e2be460	0.16786337
176	0x3c91eba8	0.017812565
177	0xbec5b06f	-0.3861117
178	0x3d67882c	0.056526348
179	0xbd4561f5	-0.048189122
180	0xbd6827ca	-0.05667857
181	0xbe871e42	-0.26390272
182	0x3d563c3c	0.052303538
183	0xba9585ef	-0.0011407713
184	0xbb71fc2e	-0.0036923992
185	0xbbcfbeb3	-0.006339872
186	0x3e65b55f	0.22432469
187	0x3dd8dd52	0.105890885
188	0x3d87bec4	0.066281825
189	0xbd2c1660	-0.042013526
190	0x3de26138	0.11053699
191	0x3d644d64	0.055737868
192	0x3c384541	0.01124698
193	0x3e93a1de	0.28834432
194	0x3c7afbce	0.015318824
195	0x3d19630e	0.03744798
196	0xbcc58ca1	-0.024114909
197	0x3e30f5b4	0.17281228
198	0xbd2b8467	-0.041874316
199	0x3d349c24	0.04409422
200	0xbe401bce	-0.18760607
201	0x3c1c308c	0.009533059
202	0x3c4031e9	0.0117306495
203	0xbd6636d6	-0.05620464
204	0x3e2a0224	0.16602379
205	0x3e46f005	0.19427498
206	0x3bcdd542	0.006281526
207	0xbddcce79	-0.10781569
208	0x3e10c88e	0.14139006
209	0x3e13c466	0.14430389
210	0xbe799c8b	-0.24376123
211	0x3c5a76cf	0.01333399
212	0x3ab1cf67	0.0013565839
213	0x3e06a77b	0.13149826
214	0xbabebd81	-0.0014552326
215	0x3d2b0f3b	0.04176257
216	0x3e446f4a	0.19183078
217	0xbc44bcb6	-0.012007883
218	0xbf15ec02	-0.58563244
219	0x3c18bc29	0.009322205
220	0x3b8769c9	0.0041324836
221	0x3d914995	0.07094113
222	0xbe950ac6	-0.29109782
223	0x3b6c5c4d	0.0036065758
224	0x3d621876	0.05519911
225	0xbe8d56ce	-0.2760529
226	0x3bb85901	0.0056258445
227	0xbca045db	-0.01956456
228	0x3e608b31	0.21928097
229	0xbc846fe1	-0.01616663
230	0xbd85dbb4	-0.06536046
231	0x3b880201	0.0041506295
232	0xbea79bf0	-0.32736158
233	0xba01bc12	-0.0004948984
234	0xbbfb5c43	-0.0076709106
235	0xbd118c34	-0.0355341
236	0xbe49bc4a	-0.19700733
237	0x3ecbf2a6	0.39833564
238	0x3d7b3216	0.061327063
239	0xbe74e194	-0.23914176
240	0xbe423e90	-0.18969178
241	0xbd019e6d	-0.031645227
242	0x3d169c8b	0.036770385
243	0x3e3093e2	0.17243913
244	0x3df6134b	0.120153986
245	0xbe9d6eed	-0.30748692
246	0xbe1e347a	-0.15449706
247	0x3e2670ae	0.16253921
248	0x3e37307c	0.17889589
249	0x3d113585	0.03545143
250	0xbd73274a	-0.05936364
251	0xbce5d933	-0.02805767
252	0x3c3c2d26	0.011485374
253	0xbc638ade	-0.013888089
254	0xbbe45348	-0.0069679357
255	0x3bbaaa05	0.0056965374

classifier.bias f4 [5]
0	0xbf50610c	-0.8139808
1	0xbea71e5b	-0.32640347
2	0xbec8e3df	-0.39236352
3	0x3ec8f89c	0.39252174
4	0x3f91f302	1.1402285

features.7 f4 [120]
0	0xbca71439	-0.020395385
1	0x3d968055	0.07348696
2	0xbcc1b1da	-0.023644377
3	0x3c133b8c	0.008986365
4	0xbdc4346e	-0.09580313
5	0xbba832cc	-0.0051330086
6	0x3bfd1a13	0.0077240556
7	0x3ce1a478	0.027544245
8	0xbcaf2d76	-0.021383982
9	0xbdb296a0	-0.08720136
10	0xbd209da0	-0.039212823
11	0xbd603d20	-0.054745793
12	0x3dcbed9a	0.09957428
13	0xbd372af1	-0.044718686
14	0xbd4c8bab	-0.049937885
15	0xbd70b187	-0.058763053
16	0x3caf2c25	0.021383354
17	0xbd299f9c	-0.04141198
18	0x3d8bb735	0.06822053
19	0x3be5e83e	0.007016211
20	0x3dba70cd	0.09103546
21	0x3d69cdc1	0.057080988
22	0xbd04daca	-0.032435216
23	0xbd16ef93	-0.03684957
24	0x3af1d500	0.001845032
25	0xbc84d5bf	-0.016215203
26	0x3ccef9c0	0.025265574
27	0x3d8a085e	0.06739877
28	0xbc29c8b4	-0.010362793
29	0xbc9373a1	-0.017999472
30	0xbdd8e6e5	-0.10590915
31	0xbad999e3	-0.0016601648
32	0xbbcd2800	-0.006260872
33	0xbd1867ab	-0.03720824
34	0x3d114b08	0.035471946
35	0xbc3c960d	-0.011510384
36	0x3d179fb5	0.037017543
37	0x39e2aef5	0.00043236432
38	0xbd57311c	-0.05253707
39	0x3c95866d	0.018252576
40	0xbc8740db	-0.016510418
41	0xbcc16c00	-0.023611069
42	0xbd4ba346	-0.049716257
43	0xbcce3737	-0.025172813
44	0x3d469e6e	0.048490934
45	0xbcf3def4	-0.029769398
46	0x3aa6a2c1	0.0012713299
47	0x3d62df9e	0.05538904
48	0x3bd533fb	0.0065064407
49	0xbbeb099a	-0.0071727755
50	0x3d1ec3fd	0.038761128
51	0x3c26053d	0.010133085
52	0x3b01c0a1	0.0019798654
53	0xbcac608d	-0.021042133
54	0xbd85e9d4	-0.0653874
55	0x3d4c34b4	0.04985495
56	0xbd61aa26	-0.055093907
57	0xbcef3b66	-0.029203128
58	0xba2bfb14	-0.0006560546
59	0xbce73e6a	-0.028228004
60	0xbbd00eda	-0.0063494267
61	0x3d12f156	0.035874687
62	0xbcbedb28	-0.023297861
63	0xbc7c9514	-0.015416402
64	0xbca509c4	-0.020146258
65	0xbd5b0cb5	-0.053478915
66	0x3c2aef09	0.010432967
67	0x3b8cdebd	0.0042990134
68	0x3d0b19e3	0.033960234
69	0xbb27cbde	-0.0025603692
70	0x3cc39285	0.023873577
71	0x3bb64fcb	0.0055637113
72	0x3cb83475	0.022485951
73	0x3d5839b5	0.05278941
74	0xbdc75204	-0.0973244
75	0xbc6c43b0	-0.014420435
76	0xbcb2c07e	-0.021820303
77	0x3de697f6	0.11259453
78	0x3c2a1344	0.01038057
79	0x3ddb2566	0.107004926
80	0x3d0ab7e4	0.033866778
81	0x3c2de7f4	0.010614384
82	0xbc4dcb48	-0.012560673
83	0xb9d6a699	-0.00040941386
84	0x3d9e9261	0.07742763
85	0x3912fd22	0.00014017944
86	0x3dc63542	0.09678127
87	0xba351c95	-0.0006908861
88	0x3b9b3a27	0.004737157
89	0x3b940fe4	0.004518496
90	0x3d14d9b7	0.03634044
91	0x3da73a22	0.08165385
92	0x3d185d11	0.03719813
93	0x3d20f85e	0.03929936
94	0xbc00d2d4	-0.007862765
95	0xbd26fc24	-0.040767804
96	0xbd8bdc79	-0.06829161
97	0xbd05203a	-0.032501437
98	0xbda1de97	-0.07903784
99	0x3d4d2cd1	0.05009157
100	0xbc8920a8	-0.016739205
101	0xbd3e4058	-0.04644808
102	0x3a810adc	0.0009845155
103	0x3c7ef83e	0.015562115
104	0x3e1ee27a	0.15516081
105	0x3de8343b	0.11338087
106	0x3d991393	0.074744366
107	0x3c125850	0.008932188
108	0xbd448481	-0.047977928
109	0xbca36038	-0.019943342
110	0xbd684d85	-0.056714553
111	0xbd7895e6	-0.06068983
112	0xbcd978af	-0.026546804
113	0x3c68449c	0.014176514
114	0xbc08c688	-0.008348115
115	0xbd306f7a	-0.043075062
116	0xbc81bbf1	-0.015836688
117	0xbab5a138	-0.0013857251
118	0xbcc186ef	-0.023623912
119	0x3a8ea728	0.0010883557
