checkpoints_lenet5/baseline_scratch/lenet5/large_carnivores/checkpoint-100.pth.tar (torch, 312213 bytes, 12 tensors)

features.0.weight f4 [6, 3, 5, 5]
-0.30365857 0.06659013 0.070704706 0.15032849 0.1489686 -0.060936894 0.19056779 0.21611433
0.2592488 0.26487562 0.24079327 -0.14664195 0.2249505 -0.073025264 0.05433979 -0.090193264
-0.07722057 -0.41633335 0.05901024 -0.01357456 -0.26235768 -0.15417872 -0.18593904 -0.32617915
-0.36956546 -0.015372297 0.06280851 -0.25643003 -0.24353749 -0.047829796 -0.16921933 -0.015189025
0.10422356 -0.19907805 -0.075484164 0.26166025 0.008681919 -0.35641274 -0.18247764 0.055682283
0.17987812 -0.019000566 -0.19456711 -0.12116259 0.19390187 -0.17507455 0.16588385 0.10575991
0.045033935 0.047089607 -0.28930596 -0.36683473 -0.3562386 -0.23879649 -0.20229281 -0.15793559
-0.252238 -0.23001412 -0.17351897 -0.019071879 0.14463297 -0.0752433 -0.1358724 0.09052978
-0.19834568 -0.14738056 -0.011484207 0.065848716 -0.075629115 0.122664645 0.14808834 0.32492366
0.3557386 0.3209311 -0.08476031 0.03064163 0.16486722 0.13525146 0.10723958 0.20097934
0.07531587 0.2324226 0.14710963 -0.17817084 -0.039540127 -0.02746005 -0.12580006 -0.053323727
-0.025663016 -0.1056656 -0.13792317 0.017091528 -0.36269 -0.055303536 -0.08608194 0.034148484
0.14503366 -0.054702494 0.034163155 -0.17398176 -0.24459402 -0.087758064 0.08210324 -0.19224894
-0.12708682 0.11987804 -0.36179185 0.038007546 -0.10701207 -0.24753025 -0.1462723 -0.11363188
-0.45942247 -0.31165364 0.100117944 -0.053712465 -0.22485088 -0.26861903 -0.18128143 0.08928375
-0.31963578 -0.15158717 -0.06377571 0.0052241064 -0.0037361819 0.2117595 0.18122493 0.43101987
0.110609874 0.151742 0.22362025 0.49104387 0.4639863 0.081181556 -0.06803505 0.24323453
0.3061169 0.16624574 0.03153901 0.14747171 0.10146476 0.18947114 -0.09714781 -0.025287503
-0.13041925 0.14773217 -0.08719215 -0.04178985 0.29437718 -0.16833638 0.09398347 0.2452317
0.2829535 0.3348346 0.22460073 -0.042900506 0.20046239 0.37597066 0.113953926 0.07919817
0.0068389988 0.30523762 0.28895578 0.0050134426 0.05135539 0.06698163 0.00997958 0.1801746
0.13242309 -0.09838285 -0.16864415 -0.047646604 0.045765437 -0.3576812 -0.052701544 -0.10995594
0.2092299 -0.111006044 -0.14843622 -0.46281388 -0.07719817 -0.023683008 -0.060706686 -0.16650052
-0.31293756 -0.04037314 0.12685174 -0.1325535 -0.344739 -0.30757064 -0.029409882 0.007943684
-0.08454457 -0.34680068 -0.45821327 -0.24192148 0.03136439 -0.19913377 -0.56252843 -0.39763218
-0.12676595 0.030914541 0.2876384 -0.010280982 -0.05238669 0.015290462 0.18889925 0.2414001
-0.15068492 -0.14283876 -0.06111871 -0.07328607 -0.035548706 -0.098757796 -0.1617271 0.07928081
0.14278138 0.09359112 0.13501178 0.04968683 -0.0067082494 0.29771003 0.039997973 0.09521226
0.07462006 -0.094626606 0.35075855 -0.18373795 -0.3146834 0.41315192 -0.1900635 0.3241638
0.7463604 0.019054793 -0.011669749 0.26985875 0.4409492 0.35339075 0.12576585 0.048763074
0.32840788 -0.23430634 -0.19796075 0.20283015 0.10434797 -0.22441904 -0.76062834 -0.08361734
0.36771297 -0.21911821 -0.249283 0.05256479 -0.5115023 -0.3374923 0.3259995 -0.31431046
00000000: 2379 9bbe 6860 883d a1cd 903d b6ef 193e
00000010: 3a8b 183e f798 79bd 3424 433e 134d 5d3e
00000020: 42bc 843e c79d 873e 8392 763e 4f29 16be
00000030: 6d59 663e 458e 95bd 6693 5e3d 3fb7 b8bd
00000040: d125 9ebd a529 d5be b9b4 713d d567 5ebc
00000050: bf53 86be 07e1 1dbe ce66 3ebe f400 a7be
00000060: af37 bdbe 16dc 7bbc c0a1 803d cc4a 83be
00000070: e461 79be 2de9 43bd d547 2dbe 63db 78bc
00000080: 2973 d53d 1edb 4bbe 7197 9abd 55f8 853e
00000090: 9c3e 0e3c bb7b b6be 6bdb 3abe 1b13 643d
000000a0: f831 383e 13a7 9bbc 9a3c 47be 1824 f8bd
000000b0: 368e 463e be46 33be 75dd 293e a798 d83d
000000c0: 8175 383d 08e1 403d e91f 94be c3d1 bbbe
000000d0: e864 b6be 1187 74be d925 4fbe deb9 21be
000000e0: 5725 81be d288 6bbe f5ae 31be a13c 9cbc
000000f0: aa1a 143e 2919 9abd 2222 0bbe ad67 b93d
00000100: 211b 4bbe eeea 16be 4128 3cbc b1db 863d
00000110: 70e3 9abd 9a37 fb3d 78a4 173e 655c a63e
00000120: 5f23 b63e 1551 a43e d096 adbd 2804 fb3c
00000130: f4d2 283e 5c7f 0a3e 6da0 db3d 87cd 4d3e
00000140: 353f 9a3d 3100 6e3e e8a3 163e 6b72 36be
00000150: d4f4 21bd e6f3 e0bc bbd1 00be fb69 5abd
00000160: 3f3b d2bc 3567 d8bd bb3b 0dbe 8803 8c3c
00000170: 81b2 b9be f685 62bd ba4b b0bd 48df 0b3d
00000180: b483 143e b90f 60bd aaee 0b3d 4628 32be
00000190: db76 7abe 80ba b3bd be25 a83d e8dc 44be
000001a0: 0c23 02be 9e82 f53d c83c b9be cdad 1b3d
000001b0: 2529 dbbd 9278 7dbe 68c8 15be d5b7 e8bd
000001c0: 6c39 ebbe 1191 9fbe a30a cd3d 9a01 5cbd
000001d0: 4f3f 66be 6f88 89be d7a1 39be 66da b63d
000001e0: 4da7 a3be ab39 1bbe d79c 82bd fb2e ab3b
000001f0: bbda 74bb 7bd7 583e 0793 393e a3ae dc3e
00000200: 6e87 e23d 4162 1b3e b5fc 643e 1a6a fb3e
00000210: 9d8f ed3e 8442 a63d f655 8bbd 7912 793e
00000220: 5bbb 9c3e 533c 2a3e 0d2f 013d d302 173e
00000230: c2cc cf3d b904 423e 6ef5 c6bd bd27 cfbc
00000240: a08c 05be 1a47 173e cc91 b2bd d52b 2bbd
00000250: 9bb8 963e 5f60 2cbe 687a c03d 051e 7b3e
00000260: 48df 903e 716f ab3e bcfd 653e 71b8 2fbd
00000270: 0346 4d3e 3a7f c03e ad60 e93d a632 a23d
00000280: ae19 e03b 1b48 9c3e 03f2 933e ce47 a43b
00000290: 085a 523d aa2d 893d 6481 233c b17f 383e
000002a0: eb99 073e f37c c9bd 0db1 2cbe 1629 43bd
000002b0: 8a74 3b3d fe21 b7be 93dd 57bd 9430 e1bd
000002c0: 5d40 563e 2357 e3bd aaff 17be f1f5 ecbe
000002d0: 131a 9ebd de02 c2bc 93a7 78bd 1d7f 2abe
000002e0: 5a39 a0be 4e5e 25bd 6ce5 013e 1bbc 07be
000002f0: a181 b0be e679 9dbe feec f0bc 3a26 023c
00000300: b425 adbd dc8f b1be ee9a eabe 44ba 77be
00000310: f277 003d b9e9 4bbe dd01 10bf 7296 cbbe
00000320: efce 01be 7e40 fd3c 5745 933e 9071 28bc
00000330: 6d93 56bd d984 7a3c ce6e 413e 9631 773e
00000340: 264d 1abe 5344 12be 9d57 7abd 0217 96bd
00000350: 859b 11bd 8741 cabd ca9b 25be fa5d a23d
00000360: 4835 123e b3ac bf3d 8740 0a3e 6b84 4b3d
00000370: e0d0 dbbb 736d 983e ead4 233d a5fe c23d
00000380: 67d2 983d 98cb c1bd a096 b33e cd25 3cbe
00000390: 2f1e a1be a688 d33e 02a0 42be ccf8 a53e
000003a0: 7a11 3f3f cc18 9c3c 7a32 3fbc ed2a 8a3e
000003b0: 18c4 e13e a2ef b43e c3c8 003e cabb 473d
000003c0: 1425 a83e 00ee 6fbe 39b6 4abe b5b2 4f3e
000003d0: 63b4 d53d 1bce 65be 8ab8 42bf 913f abbd
000003e0: e044 bc3e 8660 60be 0b44 7fbe 2d4e 573d
000003f0: d1f1 02bf cacb acbe 68e9 a63e 4ded a0be

features.3.weight f4 [16, 6, 5, 5]
-0.14529072 0.058559462 0.0015425994 -0.034236703 -0.025162354 0.0028233074 0.040355787 0.0627942
-0.016131364 0.12894383 -0.03359184 0.078035995 0.10555138 0.04861819 0.12005048 -0.04973734
-0.012742677 0.11507264 0.13011265 -0.119772464 -0.22718622 -0.029745342 -0.15966201 -0.22554478
-0.054409184 0.061407983 -0.029597696 0.11198627 0.17088017 0.35177574 0.055205595 -0.06444377
-0.13014239 -0.061745003 0.086649776 -0.20932509 -0.21543169 -0.1391152 -0.16102165 -0.004062726
-0.19322358 -0.20837308 -0.30706868 -0.04739403 -0.075924374 -0.05606464 -0.05246015 0.020782042
0.1589974 0.06995083 0.14054963 0.083307765 0.06270521 -0.086516075 -0.1370271 0.029896356
0.08688669 0.07281675 -0.05645495 -0.14981893 -0.071777806 -0.12245097 -0.049847312 -0.1659666
-0.15281036 -0.066616446 -0.056571435 -0.11772351 -0.00077128573 -0.043084145 -0.033058193 -0.14101057
0.0034993666 -0.05991557 -0.14610416 -0.14336807 0.028212404 0.018781427 -0.15844102 -0.08710345
-0.10967891 0.094852455 0.31348273 0.11220114 0.19185439 -0.0009429951 0.030705897 0.1278308
0.093666025 -0.041169755 -0.022931993 0.001741625 0.16621746 -0.05652445 0.010374151 -0.013509013
-0.10255927 -0.03432232 -0.05894572 0.04148184 0.12457488 0.42952242 0.4704503 -0.16261642
-0.41076997 0.2767748 0.6469954 0.58214533 0.06445682 -0.3690998 0.039945167 0.34109378
0.38282388 0.13719782 -0.16104609 -0.17992832 0.18152288 -0.048393216 -0.021939037 -0.1619292
-0.23014627 -0.13623065 -0.10121332 -0.27007467 -0.23774341 -0.12425711 -0.05945057 0.068382755
0.021479217 -0.07661504 -0.029682284 0.03910947 0.06275617 -0.03705205 -0.15227343 0.06820822
0.074525066 0.005989325 0.0057878545 -0.073854655 -0.101944454 -0.16845977 -0.19641277 -0.1622854
-0.07694494 -0.047480505 -0.048592355 -0.07699122 -0.058779154 0.032525647 0.106264986 -0.06013531
0.07303578 0.18915462 0.09589378 0.25121832 -0.061223064 0.027138617 0.02840574 -0.15530041
0.12649743 0.051222213 -0.08471616 0.042147264 -0.101253204 0.2217562 0.12956308 -0.017050155
-0.073986895 -0.23094888 -0.004031214 0.049806625 -0.038269512 -0.09147859 -0.2153447 0.07321429
0.1666151 -0.08091494 -0.0032949748 -0.16356406 0.06171402 -0.027502447 0.094552904 -0.0599276
-0.14442886 0.09189893 0.2119029 0.15129156 0.06811993 0.027438262 0.15449657 0.13722025
0.14299145 0.01633999 0.0069188685 -0.1366774 0.055842333 0.04157037 -0.09984214 -0.09183032
0.17626883 0.11468412 0.19961 0.005606706 -0.08631053 0.12957557 0.14341776 0.21091384
-0.09596331 -0.3256459 0.22428542 0.07524799 0.023546468 -0.038132694 -0.14811987 0.047044806
0.043650083 0.0932294 -0.011506545 -0.17770998 -0.06013024 -0.04099551 -0.08182591 0.007887117
-0.3379787 -0.086578615 0.040238928 -0.10361262 -0.02240802 -0.08693966 -0.1647745 -0.17304237
-0.14503907 0.0023679957 -0.178759 0.03421947 -0.06504651 -0.28165713 -0.03289386 -0.11817013
-0.05824057 0.0013302031 -0.09247453 -0.13453208 -0.14964084 0.016215764 0.026304929 -0.18892573
-0.09237443 -0.071041204 -0.023504421 -0.17886047 -0.08347707 -0.036498092 0.12522289 -0.1257961
00000000: 17c7 14be 0cdc 6f3d 0c31 ca3a c93b 0cbd
00000010: 4821 cebc 3d07 393b 1c4c 253d 3f9a 803d
00000020: ec25 84bc da09 043e 9997 09bd 56d1 9f3d
00000030: 522b d83d de23 473d 07dd f53d 62b9 4bbd
00000040: a9c6 50bc 34ab eb3d 403c 053e 444b f5bd
00000050: 81a3 68be 81ac f3bc 707e 23be 36f5 66be
00000060: 2adc 5ebd f086 7b3d de76 f2bc 0f59 e53d
00000070: 36fb 2e3e f31b b43e 431f 623d 18fb 83bd
00000080: 0c44 05be 54e8 7cbd 7075 b13d 5159 56be
00000090: 209a 5cbe 3774 0ebe dce2 24be 9e20 85bb
000000a0: 67dc 45be c15f 55be 1b38 9dbe 3e20 42bd
000000b0: 3d7e 9bbd 09a4 65bd 74e0 56bd 1a3f aa3c
000000c0: 37d0 223e 6142 8f3d 3eec 0f3e 439d aa3d
000000d0: 976b 803d 572f b1bd d550 0cbe 34e9 f43c
000000e0: a6f1 b13d f320 953d 4e3d 67bd 226a 19be
000000f0: 3e00 93bd 93c7 fabd b22c 4cbd 26f3 29be
00000100: 527a 1cbe 346e 88bd 73b7 67bd 0619 f1bd
00000110: 1c30 4aba 0079 30bd 0768 07bd 1365 10be
00000120: a155 653b 076a 75bd 549c 15be 14cf 12be
00000130: b31d e73c 82db 993c 5d3e 22be 4b63 b2bd
00000140: 569f e0bd 0142 c23d cf80 a03e b6c9 e53d
00000150: 7a75 443e 5433 77ba ef8a fb3c 14e6 023e
00000160: f9d3 bf3d 9ea1 28bd e0db bbbc 3d47 e43a
00000170: e934 2a3e 2f86 67bd 58f8 293c e854 5dbc
00000180: 980a d2bd 9095 0cbd 1171 71bd dde8 293d
00000190: 1d21 ff3d 5dea db3e ddde f03e eb84 26be
000001a0: 7150 d2be 6db5 8d3e 7ea1 253f 7a07 153f
000001b0: f001 843d a6fa bcbe 8b9d 233d d8a3 ae3e
000001c0: 7e01 c43e 967d 0c3e 44e9 24be 213f 38be
000001d0: 22e1 393e f737 46bd 7fb9 b3bc c5d0 25be
000001e0: 77ab 6bbe 0c80 0bbe ee48 cfbd 3a47 8abe
000001f0: 0273 73be 837a febd 7182 73bd 420c 8c3d
00000200: 2ff5 af3c 59e8 9cbd 4328 f3bc 4031 203d
00000210: 4f86 803d e4c3 17bd 91ed 1bbe c0b0 8b3d
00000220: 99a0 983d 1a42 c43b 0ba8 bd3b 1c41 97bd
00000230: 41c8 d0bd b880 2cbe 6e20 49be 252e 26be
00000240: 4f95 9dbd eb7a 42bd c708 47bd 93ad 9dbd
00000250: 69c2 70bd 9d39 053d 75a1 d93d 7150 76bd
00000260: c893 953d c0b1 413e f563 c43d b09f 803e
00000270: 09c5 7abd ce51 de3c 28b3 e83c 1207 1fbe
00000280: 8b88 013e 62ce 513d ab7f adbd 9ca2 2c3d
00000290: d75d cfbd 0f14 633e 2fac 043e c4ac 8bbc
000002a0: 7186 97bd dd7d 6cbe 4618 84bb 0802 4c3d
000002b0: 7ec0 1cbd 2159 bbbd 5283 5cbe 60f1 953d
000002c0: 269d 2a3e bbb6 a5bd 81f0 57bb 567d 27be
000002d0: d7c7 7c3d d04c e1bc f4a4 c13d a576 75bd
000002e0: 29e5 13be 8235 bc3d 13fd 583e 2dec 1a3e
000002f0: 7682 8b3d 35c6 e03c 5934 1e3e 7783 0c3e
00000300: 5a6c 123e 71db 853c adb7 e23b 29f5 0bbe
00000310: eeba 643d b145 2a3d 097a ccbd 8911 bcbd
00000320: d17f 343e 82df ea3d 9066 4c3e 75b8 b73b
00000330: 93c3 b0bd 75af 043e 1bdc 123e ccf9 573e
00000340: 6988 c4bd 0fbb a6be 14ab 653e 9e1b 9a3d
00000350: 86e4 c03c 0731 1cbd bcac 17be 0eb2 403d
00000360: 6eca 323d 0eef be3d f385 3cbc 9bf9 35be
00000370: 204b 76bd e8ea 27bd 5894 a7bd f738 013c
00000380: 8b0b adbe 2150 b1bd 93d1 243d da32 d4bd
00000390: 0691 b7bc 6c0d b2bd a6ba 28be 0532 31be
000003a0: 1f85 14be 6030 1b3b 990c 37be b729 0c3d
000003b0: 1b37 85bd 5d35 90be b6bb 06bd 2e03 f2bd
000003c0: aa8d 6ebd 365a ae3a 4963 bdbd c7c2 09be
000003d0: 733b 19be ecd6 843c 6f7d d73c bf75 41be
000003e0: ce2e bdbd 0d7e 91bd 588c c0bc 3327 37be
000003f0: 07f6 aabd 067f 15bd 6e3a 003e b1d0 00be

features.7.weight f4 [120, 400]
0.024468562 0.04345612 0.0160027 0.051718898 0.09065198 0.002638972 0.04329298 0.042365693
0.03763935 0.031675816 0.003085632 0.017445076 -0.0036519344 0.02378279 0.014648332 0.05276776
0.08063649 -0.026196014 0.011385619 0.024046635 0.0045057274 0.008627777 0.0031001985 -0.015190596
-0.027638124 0.04915893 0.0020231598 -0.032236088 0.0048051453 0.036945175 0.04667615 -0.012102607
-0.009879626 0.0047999574 0.03036256 0.05918891 -0.05113972 -0.024329618 0.047315672 0.04894124
-0.0128893815 -0.08441659 -0.0025188867 0.07599271 0.05484493 -0.008909364 -0.07891491 -0.025824375
0.022879947 0.037296914 -0.021258894 -0.013157496 -0.01729967 -0.040703792 -0.039365727 0.01332212
-0.014616765 -0.021481546 -0.01970782 -0.046679817 0.024094218 -0.03037574 -0.044634562 -0.025146438
0.006223032 -0.012900915 0.004673936 -0.01983114 -0.013311297 -0.015767353 -0.06407266 -0.03265935
-0.07530302 -0.06222274 -0.045884237 0.0042088567 0.004195734 0.0574528 0.05800901 -0.08339334
0.03019228 0.01734918 0.0060947794 0.044969376 -0.0024345098 0.0256309 0.03741834 0.011413383
0.032309543 0.029390257 0.010724467 0.02548247 0.048271067 0.006704934 0.044228483 0.027803045
-0.0087459 0.046093065 0.030675326 0.07443359 0.013782938 0.013038133 0.026523048 0.013954594
0.049405567 -0.049886048 -0.054927636 -0.048213337 -0.011039426 0.00046450636 -0.037237287 -0.01668064
-0.04189853 -0.019714214 -0.019860078 -0.015083604 -0.0016422529 -0.0067507117 -0.008420645 -0.021282248
-0.019765664 -0.02953272 -0.041385274 -0.03803468 -0.043364108 0.0059259892 0.020053208 0.030503545
0.014663724 0.045007445 0.02710882 0.015992427 0.004966658 -0.0041346857 -0.0091222385 0.0441594
0.044963557 0.023713818 0.016578374 0.028851349 -0.01609073 -0.03037828 -0.04867627 -0.056832913
-0.03221706 0.011689411 -0.011498039 0.037958022 -0.0030923462 -0.052133504 0.021597322 -0.02122013
-0.0147610605 0.0013421405 -0.023128122 -0.004769036 -0.004395503 -0.0057754717 0.01067763 -0.045941666
-0.03211345 -0.017877249 0.016337717 -0.015857188 -0.029772606 -0.036478642 -0.030822288 0.009028156
-0.017189503 -0.051049363 -0.008040033 -0.025926115 -0.02345885 -0.013900683 -0.0129598575 0.024000205
0.03791803 0.04625913 -0.0021700978 0.011572004 -0.0029260484 0.02975607 0.041790664 0.020615777
0.033471514 -0.004890131 -0.011265244 0.012670384 0.029262738 0.009514076 0.006673042 0.060437545
0.04893162 0.010359011 -0.004807336 -0.0025544195 0.036571585 0.039452836 -0.006236995 -0.0695304
0.031013096 0.0072522885 0.009512783 0.0027640164 -0.020966114 0.0072222115 -0.018065918 -0.01957632
-0.019603675 -0.029489702 -0.024362622 0.006452535 0.020298481 -0.008123269 -0.009518678 -0.013271157
0.013573504 0.015445216 -0.023799347 -0.048190486 -0.013306404 -0.010092934 0.007655856 -0.0154682705
-0.044345364 -0.01489679 0.06060694 0.034246486 0.016840488 -0.034205638 0.01671341 0.015082686
0.0011770042 -0.014750988 -0.003631912 0.0739485 0.022368371 -0.039231297 -0.019907702 0.03884422
0.053825438 0.0032618472 -0.029807353 0.004930708 0.027602065 0.015144334 0.010411422 0.0006996734
0.019253142 0.0061854897 -0.012619919 0.0008735338 -0.03715981 -0.010340792 0.049356736 -0.031021174
00000000: 4b72 c83c 0bff 313d 1818 833c 32d7 533d
00000010: bfa7 b93d 9af2 2c3b fb53 313d a687 2d3d
00000020: b82b 1a3d 80be 013d 5138 4a3b fae8 8e3c
00000030: 4b55 6fbb 20d4 c23c 8fff 6f3c 0223 583d
00000040: be24 a53d 0699 d6bc bf8a 3a3c 73fd c43c
00000050: c8a4 933b 855b 0d3c b32c 4b3b fae1 78bc
00000060: 5969 e2bc e05a 493d fd96 043b fd09 04bd
00000070: 7b74 9d3b d353 173d 7e2f 3f3d 034a 46bc
00000080: 28de 21bc f648 9d3b e7ba f83c 1270 723d
00000090: e277 51bd e84e c7bc 14ce 413d 9c76 483d
000000a0: fc2d 53bc 9be2 acbd e813 25bb 11a2 9b3d
000000b0: 14a5 603d 95f8 11bc 249e a1bd a48d d3bc
000000c0: ba6e bb3c a6c4 183d 2227 aebc 8a92 57bc
000000d0: 0ab8 8dbc 05b9 26bd f53d 21bd 0545 5a3c
000000e0: 287b 6fbc 11fa afbc 4b72 a1bc 5633 3fbd
000000f0: 3d61 c53c 8bd6 f8bc bbd2 36bd e7ff cdbc
00000100: 93ea cb3b 5c5e 53bc d127 993b ea74 a2bc
00000110: a017 5abc 892a 81bc 8738 83bd d0c5 05bd
00000120: 7838 9abd 46dd 7ebd 1cf1 3bbd 73ea 893b
00000130: 5e7c 893b a153 6b3d db9a 6d3d 21ca aabd
00000140: cd55 f73c de1f 8e3c b7b6 c73b cf31 383d
00000150: 4c8c 1fbb e5f7 d13c f943 193d 33ff 3a3c
00000160: 0357 043d d6c3 f03c adb5 2f3c 9dc0 d03c
00000170: e2b7 453d 10b5 db3b ed28 353d 36c3 e33c
00000180: f74a 0fbc 15cc 3c3d d24a fb3c a370 983d
00000190: d5d1 613c e59d 553c dd46 d93c cfa1 643c
000001a0: 7e5d 4a3d 5055 4cbd cdfb 60bd 597b 45bd
000001b0: b5de 34bc fd88 f339 2086 18bd d6a5 88bc
000001c0: cb9d 2bbd b47f a1bc 9ab1 a2bc 3821 77bc
000001d0: dd40 d7ba 1335 ddbb bff6 09bc 1c58 aebc
000001e0: 9aeb a1bc 9aee f1bc 9b83 29bd 41ca 1bbd
000001f0: 909e 31bd cd2e c23b a046 a43c 92e2 f93c
00000200: 1e40 703c ba59 383d 5113 de3c 8d02 833c
00000210: 59bf a23b 427c 87bb 7175 15bc 7de0 343d
00000220: b52b 383d 7b43 c23c 5fcf 873c aa59 ec3c
00000230: b5d0 83bc dfdb f8bc c560 47bd a1c9 68bd
00000240: 09f6 03bd f184 3f3c 4562 3cbc df79 1b3d
00000250: f6a8 4abb f189 55bd deec b03c d7d5 adbc
00000260: 60d8 71bc c3ea af3a 3077 bdbc 9345 9cbb
00000270: 2708 90bb 2b40 bdbb 3af1 2e3c 542d 3cbd
00000280: 6589 03bd 4f73 92bc add6 853c efe6 81bc
00000290: aee5 f3bc a16a 15bd 067f fcbc d5ea 133c
000002a0: 00d1 8cbc 2319 51bd 58ba 03bc 0163 d4bc
000002b0: c62c c0bc b1bf 63bc 9555 54bc 149c c43c
000002c0: f04f 1b3d 377a 3d3d 3338 0ebb 8198 3d3c
000002d0: f2c2 3fbb 00c3 f33c b02c 2b3d 6be2 a83c
000002e0: 6d19 093d 643d a0bb dc91 38bc 7197 4f3c
000002f0: 69b8 ef3c ede0 1b3c 89a9 da3b 5c8d 773d
00000300: 866c 483d d7b8 293c db86 9dbb 0c68 27bb
00000310: 16cc 153d 4c99 213d b55f ccbb f465 8ebd
00000320: 2d0f fe3c 9ba4 ed3b 81db 1b3c 8024 353b
00000330: 21c1 abbc 4da8 ec3b fafe 93bc 855e a0bc
00000340: e397 a0bc 6394 f1bc 1f94 c7bc c96f d33b
00000350: 0049 a63c 7617 05bc 3bf4 1bbc 446f 59bc
00000360: 6763 5e3c ee0d 7d3c d9f6 c2bc 6363 45bd
00000370: 1b03 5abc d55c 25bc fadd fa3b a16e 7dbc
00000380: 7ca3 35bd aa11 74bc fc3e 783d 0b46 0c3d
00000390: 10f5 893c 361b 0cbd 90ea 883c 5f1d 773c
000003a0: b545 9a3a 21ae 71bc 5f05 6ebb 5072 973d
000003b0: e03d b73c ffb0 20bd 7a15 a3bc 1e1b 1f3d
000003c0: 1078 5c3d b7c4 553b 8d2e f4bc c791 a13b
000003d0: ba1d e23c f11f 783c ab94 2a3c 496a 373a
000003e0: c4b8 9d3c a6af ca3b c7c3 4ebc dcfd 643a
000003f0: e334 18bd 6d6c 29bc 4a2a 4a3d 1e20 febc

features.7.bias f4 [120]
0.030331435 0.081858955 0.1205273 0.14808898 -0.096752696 0.008991674 0.023278806 0.11488245
0.0032080684 0.052894603 0.08328134 -0.24926378 0.27442354 0.1584176 0.029429823 0.2244127
0.021883875 0.023793396 0.003673335 0.01420018 -0.0853221 -0.06446583 -0.042632863 -0.001302238
-0.04156673 0.105127655 0.025676198 0.16145797 0.003979508 0.044997938 0.04519295 0.041564796
0.03984375 0.01375274 -0.15005228 0.0126480255 -0.14003988 -0.045224432 -0.0050442875 0.20294558
0.0062156906 0.035170246 0.023844095 -0.16142504 0.00074751256 0.006568932 -0.046286434 -0.09749777
-0.049399182 -0.008575542 -0.039025404 0.0012843662 -0.013033978 -0.041792538 -0.086905055 -0.054702286
0.055330757 -0.023623977 0.018611057 0.001477938 -0.005324667 -0.045144647 0.067790546 -0.06288782
-0.06559317 -0.044600595 0.040820576 -0.024184324 0.04981613 0.0005443368 0.067352265 -0.16469799
0.026458586 0.12732649 -0.09182353 -0.0016936057 0.21239927 -0.015248271 0.08812498 0.07429535
0.086820535 -0.037335526 0.004774402 0.15378161 -0.009701439 -0.021391328 -0.014446123 -0.02046731
-0.04089764 -0.14106947 -0.006955824 -0.012399305 0.03409895 -0.0012048702 -0.046623 0.020371342
-0.044865094 -0.05200253 0.051703732 0.03697 0.0015637605 0.06398655 0.06327195 -0.00071810064
-0.12163441 0.21260415 0.11596874 0.08934034 -0.03464241 0.038959496 0.03885676 0.09614183
0.0018604083 -0.0011041376 0.03336704 0.07885301 0.07737101 -0.102782354 -0.07427777 -0.005118105
00000000: a179 f83c aba5 a73d 04d7 f63d a3a4 173e
00000010: 4726 c6bd d051 133c 32b3 be3c 7d47 eb3d
00000020: 753e 523b 03a8 583d 688f aa3d 013f 7fbe
00000030: 3e81 8c3e 3938 223e d016 f13c 71cc 653e
00000040: d045 b33c 5eea c23c 56bc 703b dfa7 683c
00000050: 5abd aebd a906 84bd cc9f 2ebd dbaf aaba
00000060: e041 2abd 2b4d d73d e456 d23c 3d55 253e
00000070: 8866 823b c24f 383d 3e1c 393d d93f 2a3d
00000080: 3333 233d 2c53 613c 4ea7 19be aa39 4f3c
00000090: 9d66 0fbe 413d 39bd 8d4a a5bb f7d0 4f3e
000000a0: feac cb3b ad0e 103d b154 c33c 9b4c 25be
000000b0: b8f4 433a 3240 d73b d896 3dbd e9ac c7bd
000000c0: cc56 4abd 6e80 0cbc 1ad9 1fbd 2e58 a83a
000000d0: 778c 55bc a72e 2bbd 47fb b1bd 810f 60bd
000000e0: 81a2 623d 1287 c1bc 3776 983c 5fb7 c13a
000000f0: 8b7a aebb 98e9 38bd c5d5 8a3d 54cb 80bd
00000100: b655 86bd 1daf 36bd 7a33 273d 341e c6bc
00000110: 000c 4c3d d3b1 0e3a fcef 893d 97a6 28be
00000120: adbf d83c e061 023e fa0d bcbd fafb ddba
00000130: 327f 593e e2d3 79bc df7a b43d 2928 983d
00000140: f7ce b13d 23ed 18bd 9672 9c3b ed78 1d3e
00000150: c9f2 1ebc de3c afbc 6eaf 6cbc 0fab a7bc
00000160: 4984 27bd 8474 10be aeed e3bb 7426 4bbc
00000170: 57ab 0b3d bcec 9dba c2f7 3ebd cde1 a63c
00000180: 76c4 37bd 9b00 55bd 4bc7 533d db6d 173d
00000190: 18f7 cc3a 610b 833d b994 813d eb3e 3cba
000001a0: 761b f9bd e7b4 593e 0581 ed3d 11f8 b63d
000001b0: 33e5 0dbd fe93 1f3d 4428 1f3d 02e6 c43d
000001c0: f2d8 f33a b6b8 90ba e1ab 083d b07d a13d
000001d0: b174 9e3d 8e7f d2bd f21e 98bd c7b5 a7bb

features.9.weight f4 [84, 120]
-0.020294165 0.001971239 0.014017456 -0.017797194 -0.015002317 0.020943386 -0.01078142 -0.021607982
0.03367681 -0.005664591 -0.000901131 0.0006438483 0.014043933 0.011282003 0.002363972 0.02647267
-0.008535327 0.007533381 0.0035663256 0.003381236 -0.014853813 0.006939834 0.004160802 -0.013263101
0.012830705 -0.0098715015 0.014812335 -0.010112157 -0.009142035 0.0021836325 -0.003978419 0.008286346
-0.0069959546 0.012264063 0.010945066 -0.0025087728 -0.004149438 0.011683025 -0.0031225355 -0.00967892
0.00213655 0.0018126166 -0.005091529 -0.0007674268 0.0153417885 0.006425327 0.0018941287 0.0022094126
-0.017130004 0.00058717787 -0.013099615 0.004655483 0.0022725866 -0.006762599 0.004568571 0.0033616663
0.00053060736 -0.00379413 0.015492651 0.0131605035 0.0064924755 -0.01026916 -0.006966917 -0.0083490675
0.0008886687 -0.0006419661 -0.0009234705 -0.008970169 0.002195523 0.00794693 -0.012349069 -0.009771602
-0.0019779878 -0.014445002 -0.0130623 -0.0036913808 -0.005029792 -0.02840189 -0.0079064425 0.006109586
0.0062136087 -0.008065145 -0.02067252 0.011508907 0.021146722 -0.0024044418 -0.018285992 0.012709945
-0.004219814 -0.016786816 0.0067184293 -0.015163438 -0.004249478 0.01678501 0.0017235 0.0079659335
0.021012858 0.00095948804 0.013466486 -0.017463164 -0.00843869 -0.021773435 -0.024519267 -0.0056056534
0.0007511306 0.0033550432 -0.009492701 -0.017807357 0.0045513185 0.0050639887 -0.017511532 0.0026823515
-0.013496143 0.0066271336 0.00952837 -0.003837375 -0.017457329 -0.00032109948 0.01657452 0.009498272
0.025634345 -0.053651698 -0.060181204 0.033877634 0.024044033 0.030354831 -0.0047499323 0.06938672
0.0020066372 0.02672846 -0.011586818 0.0024315384 0.01844527 0.0073759067 -0.043076966 -0.07542858
0.03770816 -0.013685277 -0.012292688 0.040850617 -0.025074838 -0.06399567 0.047894206 0.015466413
-0.046350077 0.009213141 -0.023813339 -0.045173433 0.12556562 0.018743087 0.050706502 0.011935011
-0.08845508 -0.020157162 -0.05660302 0.063426934 -0.05249771 -0.0579578 -0.063312925 0.02023509
0.053552333 0.02750084 0.05398855 -0.09977908 -0.007312761 0.027037844 -0.08515366 0.12505448
-0.14472543 0.008710466 -0.1320956 0.009827429 -0.016528118 0.01213652 0.024371581 0.0811948
0.038122587 -0.0031187297 0.025756976 0.0068160812 -0.01759587 -0.101026624 0.032798465 -0.002952674
-0.06629513 -0.018800085 0.014139244 -0.02185614 0.026467416 -0.008952828 -0.031302072 0.009280249
0.062860504 0.035362862 -0.004412254 0.014764939 -0.02803484 0.04211098 -0.052345764 0.0026300063
-0.020606758 -0.0012086198 0.0027197665 0.13876064 0.0047493577 -0.08172032 -0.107783936 0.072834
0.011576105 -0.047245935 0.015581293 0.14703266 0.021846628 -0.00266526 0.06343732 0.00082292024
-0.02768089 -0.08059834 0.07743388 0.10328991 0.01329658 0.018888433 0.07320213 -0.034860887
-0.020658066 0.021517387 0.16710217 -0.030888768 -0.013502788 -0.0029630114 -0.008332378 0.023523653
0.008598329 -0.0018439654 -0.030843211 0.008124489 0.020145062 0.054663695 0.037392557 -0.022054516
-0.019500086 -0.004535037 0.00026062402 -0.057942238 0.06390073 0.02437078 -0.008016361 0.057270158
-0.0077438275 -0.040475044 -0.02845012 0.06925379 -0.03794702 -0.019128332 -0.009699176 -0.090553515
00000000: f33f a6bc e72f 013b 79a9 653c 6ccb 91bc
00000010: 47cc 75bc 7791 ab3c 8ea4 30bc 3903 b1bc
00000020: b2f0 093d 099e b9bb e139 6cba eec7 283a
00000030: 8618 663c 26d8 383c deec 1a3b 36dd d83c
00000040: c2d7 0bbc 95da f63b 04b9 693b ba97 5d3b
00000050: 685d 73bc 8c67 e33b 5657 883b 7a4d 59bc
00000060: e137 523c 14bc 21bc 70af 723c 76ad 25bc
00000070: 79c8 15bc 461b 0f3b 665d 82bb 74c3 073c
00000080: 523e e5bb 35ef 483c ef52 333c 396a 24bb
00000090: 02f8 87bb 296a 3f3c 74a3 4cbb 5594 1ebc
000000a0: 5c05 0c3b 5295 ed3a d7d6 a6bb 242d 49ba
000000b0: 205c 7b3c 8d8b d23b 6a44 f83a cbcb 103b
000000c0: 3954 8cbc d7ec 193a c59f 56bc 068d 983b
000000d0: adef 143b cb98 ddbb f4b3 953b 674f 5c3b
000000e0: 7518 0b3a f0a6 78bb e3d4 7d3c 279f 573c
000000f0: d5be d43b fb3f 28bc bc4a e4bb 87ca 08bc
00000100: 8cf5 683a 9e49 28ba 0e15 72ba 9ef7 12bc
00000110: c3e2 0f3b d733 023c c053 4abc 1219 20bc
00000120: 21a1 01bb bbaa 6cbc 4203 56bc 18eb 71bb
00000130: f4d0 a4bb 15ab e8bc 068a 01bc ec32 c83b
00000140: 879b cb3b ac23 04bc 6b59 a9bc db8f 3c3c
00000150: e43b ad3c d793 1dbb 81cc 95bc 603d 503c
00000160: 5e46 8abb 8184 89bc 4526 dc3b 1270 78bc
00000170: 353f 8bbb b880 893c 10e7 e13a 8c83 023c
00000180: 2823 ac3c 2786 7b3a 89a2 5c3c e90e 8fbc
00000190: 6e42 0abc 345e b2bc a1dc c8bc a1af b7bb
000001a0: 85e7 443a 49e0 5b3b 4687 1bbc bce0 91bc
000001b0: 3a23 953b d1ef a53b 5874 8fbc 64ca 2f3b
000001c0: ed1e 5dbc 6d28 d93b e11c 1c3c 787c 7bbb
000001d0: ac02 8fbc 3e59 a8b9 4ac7 873c a49e 1b3c
000001e0: 1eff d13c e2c1 5bbd 9180 76bd 46c3 0a3d
000001f0: fef7 c43c b2aa f83c 52a5 9bbb a01a 8e3d
00000200: c981 033b a5f5 da3c a3d6 3dbc 725a 1f3b
00000210: 891a 973c 97b1 f13b 7971 30bd 4d7a 9abd
00000220: df73 1a3d 3638 60bc 4567 49bc fa52 273d
00000230: bf69 cdbc 2910 83bd b72c 443d d766 7d3c
00000240: 94d9 3dbd b7f2 163c 3114 c3bc c707 39bd
00000250: 4694 003e 1a8b 993c 9fb1 4f3d 108b 433c
00000260: f027 b5bd a220 a5bc 91d8 67bd fbe5 813d
00000270: d707 57bd 2865 6dbd 35aa 81bd 0fc4 a53c
00000280: b159 5b3d 7149 e13c 1923 5d3d f958 ccbd
00000290: e39f efbb 787e dd3c 0b65 aebd 480e 003e
000002a0: e732 14be 58b6 0e3c 1244 07be 3a03 213c
000002b0: fa65 87bc 41d8 463c e9a6 c73c 7649 a63d
000002c0: 6e26 1c3d 9a63 4cbb 4b00 d33c 6f59 df3b
000002d0: 3725 90bc 0ce7 cebd af57 063d a681 41bb
000002e0: bec5 87bd a302 9abc 4aa8 673c a60b b3bc
000002f0: 32d2 d83c e2ae 12bc 9a36 00bd 2f0c 183c
00000300: 02bd 803d a6d8 103d ab94 90bb a5e8 713c
00000310: 52a9 e5bc 907c 2c3d 8368 56bd 2f5c 2c3b
00000320: 81cf a8bc 8d6a 9eba 1c3e 323b 4517 0e3e
00000330: 80a0 9b3b fc5c a7bd d3bd dcbd fe29 953d
00000340: b4a9 3d3c f484 41bd ae48 7f3c bb8f 163e
00000350: b3f7 b23c a5ab 2ebb 6deb 813d 3eb9 573a
00000360: 09c3 e2bc be10 a5bd a795 9e3d a989 d33d
00000370: e6d9 593c eabb 9a3c 00eb 953d 4aca 0ebd
00000380: 1b3b a9bc 3b45 b03c d51c 2b3e 710a fdbc
00000390: cc3a 5dbc 152f 42bb 8784 08bc adb4 c03c
000003a0: 01e0 0c3c 36b1 f1ba e7aa fcbc 941c 053c
000003b0: 4207 a53c 0ae7 5f3d f028 193d acab b4bc
000003c0: a5be 9fbc a69a 94bb 5da4 8839 d754 6dbd
000003d0: 63de 823d 3ba5 c73c 0e57 03bc 1d94 6a3d
000003e0: efbf fdbb 29c9 25bd 3a10 e9bc eed4 8d3d
000003f0: 566e 1bbd 05b3 9cbc 4be9 1ebc 1f74 b9bd

features.9.bias f4 [84]
-0.0028064605 0.14958915 -0.055638302 -0.0026575006 -0.07088799 0.25010887 0.4016844 0.2669528
0.012605274 -0.0028372947 0.85397834 0.21908852 0.10131222 0.0001150432 -0.006353911 -0.011145523
0.0004155286 0.007295622 0.39742443 0.104747385 0.41238576 -0.0020131618 0.07468624 0.25713435
0.045017768 0.045317523 -0.00017534338 0.05583267 0.015404406 0.007861115 0.09943524 0.022675086
0.45902535 0.16158013 0.11496711 -0.002771628 0.070968315 0.3361518 -0.03055407 0.10683081
0.08090115 -0.008462264 0.1187726 0.39519915 0.085027136 -0.016803993 -0.053364776 -0.016064418
0.054565627 0.28154275 0.4814968 -0.016513586 0.012105289 0.029443353 -0.124700435 0.39574048
0.0067305295 0.25582469 0.0034544454 0.39345527 0.23202223 0.07746968 0.15423767 -0.0025562467
0.033731602 0.18209079 -0.0019228315 0.028316969 -0.037046198 -0.008749275 0.0011160251 0.28008974
-0.006220913 0.004320324 0.0012002831 0.01516676 0.3352955 0.08616345 -0.009798218 0.3728164
0.06398577 0.10061758 0.00392705 0.030496774
00000000: 98ec 37bb e62d 193e fde4 63bd 7629 2ebb
00000010: b92d 91bd 450e 803e 94a9 cd3e 0aae 883e
00000020: 5a86 4e3c e8f1 39bb 539e 5a3f be58 603e
00000030: c87c cf3d 5943 f138 7834 d0bb b69b 36bc
00000040: 4edb d939 1d10 ef3b 377b cb3e cc85 d63d
00000050: 3a24 d33e 40ef 03bb 19f5 983d 1da7 833e
00000060: 8d64 383d de9e 393d 61dc 37b9 ccb0 643d
00000070: c362 7c3c e8cb 003c b4a4 cb3d 1ac1 b93c
00000080: 5f05 eb3e 4375 253e e073 eb3d 34a4 35bb
00000090: d657 913d 171c ac3e 874c fabc 1dca da3d
000000a0: 81af a53d 4fa5 0abc 0d3f f33d 8b57 ca3e
000000b0: b522 ae3d 87a8 89bc 0695 5abd 8799 83bc
000000c0: 3580 5f3d 5f26 903e c086 f63e 8047 87bc
000000d0: 4355 463c 3033 f13c f162 ffbd 7f9e ca3e
000000e0: c68b dc3b 74fb 823e fa63 623b f872 c93e
000000f0: 3c97 6d3e 6ca8 9e3d 7bf0 1d3e b486 27bb
00000100: 262a 0a3d 0276 3a3e 8507 fcba fdf8 e73c
00000110: c1bd 17bd 1e59 0fbc 9747 923a ec67 8f3e
00000120: cdd8 cbbb 8191 8d3b d152 9d3a 017e 783c
00000130: daab ab3e 7676 b03d b488 20bc cbe1 be3e
00000140: f90a 833d 9710 ce3d 7cae 803b 5fd4 f93c

classifiers.0.weight f4 [5, 84]
-0.0056537497 0.228808 0.19005594 0.000971724 0.17299576 -0.11610596 -0.18607198 -0.25827253
0.010234839 0.005950313 -0.53412807 -0.12441433 0.09592031 -0.019229842 -0.01603352 0.06834371
-0.0043799854 0.02424979 0.03206535 0.07309127 0.04841932 -0.011079624 0.062978424 -0.10807427
0.024501834 0.020907389 -0.004453837 0.0085726585 0.023435386 -0.0027012425 0.07360786 0.014441352
0.18128654 -0.14447516 0.20604333 0.019842409 -0.03789354 -0.10035936 0.14351074 0.07978469
0.04027924 0.021659892 0.07953959 -0.43789038 0.027425116 0.14073941 0.18405034 0.15802015
0.15646578 -0.1700404 0.049528502 0.046241913 -0.011567964 0.04231039 0.38844183 -0.13540825
-0.01358857 0.2629898 0.016212674 0.14357555 -0.16511464 -0.01620758 -0.074581355 0.009221894
0.06368593 -0.04461646 0.017909853 0.21159522 0.30606177 0.008916312 -0.0051657083 0.16114445
-0.0037001665 0.012531995 -0.0071331337 0.025665687 -0.22952798 0.07693391 0.05722727 -0.39492553
0.07964633 -0.050204836 -0.002966924 0.048700277 0.0009096563 -0.08594972 -0.21461304 0.009703671
-0.042249013 0.045633636 -0.0068673533 -0.0052063456 -0.0059373467 -0.003380913 0.395092 0.18472733
0.014659796 0.018732058 -0.0081986245 -0.13932256 -0.0043622553 -0.015039656 0.1861704 -0.25685927
0.22912276 -0.005241267 0.08262527 0.04659288 -0.018406058 -0.13028133 -0.0044168276 -0.13259341
-0.0072509116 0.019039875 0.026454043 -0.05146334 0.22999898 0.104929805 0.034911975 -0.008750668
-0.07522156 0.16723281 -0.052718498 -0.06485709 0.028130589 -0.16891794 0.03377864 0.007149706
-0.20730397 -0.1434033 -0.20562492 -0.11337353 -0.14169432 0.25594422 0.43970066 -0.0978506
0.03256886 -0.147257 -0.16910587 0.3271758 -0.0010264341 0.0385354 0.0037022622 0.16426492
-0.15907615 -0.022100689 -0.06289798 -0.009439948 0.013417791 0.13950486 -0.0042316397 -0.302528
-0.11108146 -0.024144616 -0.019091476 0.06460606 0.009613322 0.011814485 -0.013591385 -0.13580556
0.06731569 0.009123665 -0.14467774 0.16566758 0.0044693984 -0.25484633 -0.033894774 0.01179197
0.001856853 0.12603621 0.043069348 0.0018790588 0.012918867 -0.51364505 0.33970612 0.21970661
0.028492562 -0.023984315 0.35765272 0.016119856 -0.33855602 0.005507654 0.02866408 -0.18981801
-0.043127857 -0.030423826 -0.04766312 0.071502164 0.26314673 0.0032679636 0.02639359 0.023241451
0.05183866 0.123216964 0.01748164 0.027877854 -0.047929667 0.011737139 -0.1243602 0.044673182
-0.29500896 -0.11962673 0.074358314 -0.012160609 0.11328614 0.24906395 0.015064536 -0.13660714
0.09528236 -0.017243678 0.02815301 0.11377259 0.2101508 -0.06266314 -0.011587677 0.12446748
0.10906749 0.0812441 -0.3708321 -0.091008276 0.00831389 -0.029446244 0.011320427 0.034999926
0.019420588 -0.28091332 0.007623801 -0.25307566 0.32800436 0.040687036 0.1829044 0.009371986
-0.027966563 -0.06610795 -0.0039990684 -0.04003996 0.20894727 0.016612021 0.0013077949 -0.18490721
0.0035074283 -0.012749591 0.030343654 0.04411303 0.32072487 -0.014448838 -0.04261363 0.018311115
0.087847136 -0.22992972 -0.027881231 0.03727776 0.006111235 -0.31582218 -0.028851964 0.0051823994
00000000: 1743 b9bb a54c 6a3e 069e 423e 4bbb 7e3a
00000010: cd25 313e f6c8 edbd a789 3ebe 4c3c 84be
00000020: 07b0 273c d8fa c23b 9ebc 08bf f1cc febd
00000030: de71 c43d e787 9dbc bb58 83bc c9f7 8b3d
00000040: fb85 8fbb 7fa7 c63c f556 033d e0b0 953d
00000050: 5653 463d 5087 35bc d5fa 803d 0b56 ddbd
00000060: 12b8 c83c f945 ab3c 7ef1 91bb 5674 0c3c
00000070: 91fb bf3c 5407 31bb b8bf 963d 6c9b 6c3c
00000080: 2ea3 393e 4cf1 13be 06fd 523e 8c8c a23c
00000090: 4236 1bbd 3589 cdbd 7bf4 123e 2866 a33d
000000a0: d8fb 243d 1670 b13c a7e5 a23d 2b33 e0be
000000b0: a3aa e03c fe1d 103e b177 3c3e 09d0 213e
000000c0: 9138 203e 121f 2ebe 66de 4a3d 2968 3d3d
000000d0: 8f87 3dbc a94d 2d3d d9e1 c63e 76a8 0abe
000000e0: 98a2 5ebc 99a6 863e 71d0 843c 7805 133e
000000f0: d013 29be c2c5 84bc 1cbe 98bd 6d17 173c
00000100: c56d 823d c0bf 36bd afb7 923c 6bac 583e
00000110: 21b4 9c3e b915 123c 1a45 a9bb 0d03 253e
00000120: 7e7e 72bb ff52 4d3c 10bd e9bb d940 d23c
00000130: 6209 6bbe 878f 9d3d 2467 6a3d ae33 cabe
00000140: 9d1d a33d 96a3 4dbd ba70 42bb f179 473d
00000150: 0076 6e3a 6806 b0bd 85c3 5bbe 25fc 1e3c
00000160: 4d0d 2dbd 56ea 3a3d 8907 e1bb fe99 aabb
00000170: 138e c2bb 4f92 5dbb 8049 ca3e 2929 3d3e
00000180: a42f 703c f973 993c 8653 06bc 93aa 0ebe
00000190: 40f1 8ebb e468 76bc 74a3 3e3e 0f83 83be
000001a0: 289f 6a3e efbe abbb 7037 a93d 2dd8 3e3d
000001b0: 4dc8 96bc 7868 05be 09bb 90bb 91c6 07be
000001c0: 0e99 edbb 83f9 9b3c 26b6 d83c 39cb 52bd
000001d0: da84 6b3e 70e5 d63d dcff 0e3d f65e 0fbc
000001e0: c30d 9abd 143f 2b3e 5aef 57bd cbd3 84bd
000001f0: 1f72 e63c d3f8 2cbe 795b 0a3d 1548 ea3b
00000200: 7e47 54be 51d8 12be 578f 52be 6230 e8bd
00000210: 5118 11be 1f0b 833e 7220 e13e e565 c8bd
00000220: ed66 053d 8aca 16be 172a 2dbe 9683 a73e
00000230: 6a89 86ba 4cd7 1d3d a7a1 723b 1035 283e
00000240: dce4 22be 810c b5bc a8d0 80bd 03aa 1abc
00000250: 4bd6 5b3c 5dda 0e3e 91a9 8abb f3e4 9abe
00000260: ad7e e3bd eeca c5bc ba65 9cbc 2f50 843d
00000270: 3281 1d3c 8b91 413c 67ae 5ebc 9d10 0bbe
00000280: cfdc 893d 6d7b 153c 6726 14be c3a4 293e
00000290: 0874 923b 387b 82be 3fd5 0abd 1b33 413c
000002a0: a661 f33a a30f 013e 7c69 303d c04a f63a
000002b0: a8a9 533c 3e7e 03bf f6ed ad3e c5fa 603e
000002c0: 3c69 e93c c17a c4bc 421e b73e ca0d 843c
000002d0: 3757 adbe 8d79 b43b efd0 ea3c a75f 42be
000002e0: d6a6 30bd 633b f9bc 673a 43bd ba6f 923d
000002f0: 2bbb 863e 552b 563b 5f37 d83c db64 be3c
00000300: c654 543d 2d59 fc3d a835 8f3c 1960 e43c
00000310: e651 44bd 214d 403c 8fb0 febd 3afb 363d
00000320: 6a0b 97be dcfe f4bd 2c49 983d 4a3d 47bc
00000330: 9002 e83d 9f0a 7f3e 3ed1 763c bee2 0bbe
00000340: 6623 c33d 9d42 8dbc 24a1 e63c 9b01 e93d
00000350: c531 573e 8855 80bd 3dda 3dbc cee8 fe3d
00000360: c75e df3d 4f63 a63d b4dd bdbe 8c62 babd
00000370: fb36 083c 4039 f1bc 5079 393c 155c 0f3d
00000380: ed17 9f3c dfd3 8fbe 14d1 f93b 2293 81be
00000390: 30f0 a73e 73a7 263d 4b4b 3b3e f58c 193c
000003a0: 221a e5bc 9b63 87bd 9e0a 83bb f100 24bd
000003b0: 46f6 553e ef15 883c 516a ab3a 5158 3dbe
000003c0: e2dc 653b a9e3 50bc 4193 f83c ddaf 343d
000003d0: 0d36 a43e d2ba 6cbc a18b 2ebd 3101 963c
000003e0: 33e9 b33d b272 6bbe 2e67 e4bc 91b0 183d
000003f0: c140 c83b 72b3 a1be f45a ecbc 1ed1 a93b

classifiers.0.bias f4 [5]
-0.95761555 0.92524654 -0.1831038 0.3612517 -0.14577718
00000000: 4b26 75bf f5dc 6c3f 907f 3bbe fcf5 b83e
00000010: 9d46 15be

classifier.weight f4 [5, 84]
-0.0056537497 0.228808 0.19005594 0.000971724 0.17299576 -0.11610596 -0.18607198 -0.25827253
0.010234839 0.005950313 -0.53412807 -0.12441433 0.09592031 -0.019229842 -0.01603352 0.06834371
-0.0043799854 0.02424979 0.03206535 0.07309127 0.04841932 -0.011079624 0.062978424 -0.10807427
0.024501834 0.020907389 -0.004453837 0.0085726585 0.023435386 -0.0027012425 0.07360786 0.014441352
0.18128654 -0.14447516 0.20604333 0.019842409 -0.03789354 -0.10035936 0.14351074 0.07978469
0.04027924 0.021659892 0.07953959 -0.43789038 0.027425116 0.14073941 0.18405034 0.15802015
0.15646578 -0.1700404 0.049528502 0.046241913 -0.011567964 0.04231039 0.38844183 -0.13540825
-0.01358857 0.2629898 0.016212674 0.14357555 -0.16511464 -0.01620758 -0.074581355 0.009221894
0.06368593 -0.04461646 0.017909853 0.21159522 0.30606177 0.008916312 -0.0051657083 0.16114445
-0.0037001665 0.012531995 -0.0071331337 0.025665687 -0.22952798 0.07693391 0.05722727 -0.39492553
0.07964633 -0.050204836 -0.002966924 0.048700277 0.0009096563 -0.08594972 -0.21461304 0.009703671
-0.042249013 0.045633636 -0.0068673533 -0.0052063456 -0.0059373467 -0.003380913 0.395092 0.18472733
0.014659796 0.018732058 -0.0081986245 -0.13932256 -0.0043622553 -0.015039656 0.1861704 -0.25685927
0.22912276 -0.005241267 0.08262527 0.04659288 -0.018406058 -0.13028133 -0.0044168276 -0.13259341
-0.0072509116 0.019039875 0.026454043 -0.05146334 0.22999898 0.104929805 0.034911975 -0.008750668
-0.07522156 0.16723281 -0.052718498 -0.06485709 0.028130589 -0.16891794 0.03377864 0.007149706
-0.20730397 -0.1434033 -0.20562492 -0.11337353 -0.14169432 0.25594422 0.43970066 -0.0978506
0.03256886 -0.147257 -0.16910587 0.3271758 -0.0010264341 0.0385354 0.0037022622 0.16426492
-0.15907615 -0.022100689 -0.06289798 -0.009439948 0.013417791 0.13950486 -0.0042316397 -0.302528
-0.11108146 -0.024144616 -0.019091476 0.06460606 0.009613322 0.011814485 -0.013591385 -0.13580556
0.06731569 0.009123665 -0.14467774 0.16566758 0.0044693984 -0.25484633 -0.033894774 0.01179197
0.001856853 0.12603621 0.043069348 0.0018790588 0.012918867 -0.51364505 0.33970612 0.21970661
0.028492562 -0.023984315 0.35765272 0.016119856 -0.33855602 0.005507654 0.02866408 -0.18981801
-0.043127857 -0.030423826 -0.04766312 0.071502164 0.26314673 0.0032679636 0.02639359 0.023241451
0.05183866 0.123216964 0.01748164 0.027877854 -0.047929667 0.011737139 -0.1243602 0.044673182
-0.29500896 -0.11962673 0.074358314 -0.012160609 0.11328614 0.24906395 0.015064536 -0.13660714
0.09528236 -0.017243678 0.02815301 0.11377259 0.2101508 -0.06266314 -0.011587677 0.12446748
0.10906749 0.0812441 -0.3708321 -0.091008276 0.00831389 -0.029446244 0.011320427 0.034999926
0.019420588 -0.28091332 0.007623801 -0.25307566 0.32800436 0.040687036 0.1829044 0.009371986
-0.027966563 -0.06610795 -0.0039990684 -0.04003996 0.20894727 0.016612021 0.0013077949 -0.18490721
0.0035074283 -0.012749591 0.030343654 0.04411303 0.32072487 -0.014448838 -0.04261363 0.018311115
0.087847136 -0.22992972 -0.027881231 0.03727776 0.006111235 -0.31582218 -0.028851964 0.0051823994
00000000: 1743 b9bb a54c 6a3e 069e 423e 4bbb 7e3a
00000010: cd25 313e f6c8 edbd a789 3ebe 4c3c 84be
00000020: 07b0 273c d8fa c23b 9ebc 08bf f1cc febd
00000030: de71 c43d e787 9dbc bb58 83bc c9f7 8b3d
00000040: fb85 8fbb 7fa7 c63c f556 033d e0b0 953d
00000050: 5653 463d 5087 35bc d5fa 803d 0b56 ddbd
00000060: 12b8 c83c f945 ab3c 7ef1 91bb 5674 0c3c
00000070: 91fb bf3c 5407 31bb b8bf 963d 6c9b 6c3c
00000080: 2ea3 393e 4cf1 13be 06fd 523e 8c8c a23c
00000090: 4236 1bbd 3589 cdbd 7bf4 123e 2866 a33d
000000a0: d8fb 243d 1670 b13c a7e5 a23d 2b33 e0be
000000b0: a3aa e03c fe1d 103e b177 3c3e 09d0 213e
000000c0: 9138 203e 121f 2ebe 66de 4a3d 2968 3d3d
000000d0: 8f87 3dbc a94d 2d3d d9e1 c63e 76a8 0abe
000000e0: 98a2 5ebc 99a6 863e 71d0 843c 7805 133e
000000f0: d013 29be c2c5 84bc 1cbe 98bd 6d17 173c
00000100: c56d 823d c0bf 36bd afb7 923c 6bac 583e
00000110: 21b4 9c3e b915 123c 1a45 a9bb 0d03 253e
00000120: 7e7e 72bb ff52 4d3c 10bd e9bb d940 d23c
00000130: 6209 6bbe 878f 9d3d 2467 6a3d ae33 cabe
00000140: 9d1d a33d 96a3 4dbd ba70 42bb f179 473d
00000150: 0076 6e3a 6806 b0bd 85c3 5bbe 25fc 1e3c
00000160: 4d0d 2dbd 56ea 3a3d 8907 e1bb fe99 aabb
00000170: 138e c2bb 4f92 5dbb 8049 ca3e 2929 3d3e
00000180: a42f 703c f973 993c 8653 06bc 93aa 0ebe
00000190: 40f1 8ebb e468 76bc 74a3 3e3e 0f83 83be
000001a0: 289f 6a3e efbe abbb 7037 a93d 2dd8 3e3d
000001b0: 4dc8 96bc 7868 05be 09bb 90bb 91c6 07be
000001c0: 0e99 edbb 83f9 9b3c 26b6 d83c 39cb 52bd
000001d0: da84 6b3e 70e5 d63d dcff 0e3d f65e 0fbc
000001e0: c30d 9abd 143f 2b3e 5aef 57bd cbd3 84bd
000001f0: 1f72 e63c d3f8 2cbe 795b 0a3d 1548 ea3b
00000200: 7e47 54be 51d8 12be 578f 52be 6230 e8bd
00000210: 5118 11be 1f0b 833e 7220 e13e e565 c8bd
00000220: ed66 053d 8aca 16be 172a 2dbe 9683 a73e
00000230: 6a89 86ba 4cd7 1d3d a7a1 723b 1035 283e
00000240: dce4 22be 810c b5bc a8d0 80bd 03aa 1abc
00000250: 4bd6 5b3c 5dda 0e3e 91a9 8abb f3e4 9abe
00000260: ad7e e3bd eeca c5bc ba65 9cbc 2f50 843d
00000270: 3281 1d3c 8b91 413c 67ae 5ebc 9d10 0bbe
00000280: cfdc 893d 6d7b 153c 6726 14be c3a4 293e
00000290: 0874 923b 387b 82be 3fd5 0abd 1b33 413c
000002a0: a661 f33a a30f 013e 7c69 303d c04a f63a
000002b0: a8a9 533c 3e7e 03bf f6ed ad3e c5fa 603e
000002c0: 3c69 e93c c17a c4bc 421e b73e ca0d 843c
000002d0: 3757 adbe 8d79 b43b efd0 ea3c a75f 42be
000002e0: d6a6 30bd 633b f9bc 673a 43bd ba6f 923d
000002f0: 2bbb 863e 552b 563b 5f37 d83c db64 be3c
00000300: c654 543d 2d59 fc3d a835 8f3c 1960 e43c
00000310: e651 44bd 214d 403c 8fb0 febd 3afb 363d
00000320: 6a0b 97be dcfe f4bd 2c49 983d 4a3d 47bc
00000330: 9002 e83d 9f0a 7f3e 3ed1 763c bee2 0bbe
00000340: 6623 c33d 9d42 8dbc 24a1 e63c 9b01 e93d
00000350: c531 573e 8855 80bd 3dda 3dbc cee8 fe3d
00000360: c75e df3d 4f63 a63d b4dd bdbe 8c62 babd
00000370: fb36 083c 4039 f1bc 5079 393c 155c 0f3d
00000380: ed17 9f3c dfd3 8fbe 14d1 f93b 2293 81be
00000390: 30f0 a73e 73a7 263d 4b4b 3b3e f58c 193c
000003a0: 221a e5bc 9b63 87bd 9e0a 83bb f100 24bd
000003b0: 46f6 553e ef15 883c 516a ab3a 5158 3dbe
000003c0: e2dc 653b a9e3 50bc 4193 f83c ddaf 343d
000003d0: 0d36 a43e d2ba 6cbc a18b 2ebd 3101 963c
000003e0: 33e9 b33d b272 6bbe 2e67 e4bc 91b0 183d
000003f0: c140 c83b 72b3 a1be f45a ecbc 1ed1 a93b

classifier.bias f4 [5]
-0.95761555 0.92524654 -0.1831038 0.3612517 -0.14577718
00000000: 4b26 75bf f5dc 6c3f 907f 3bbe fcf5 b83e
00000010: 9d46 15be

features.7 f4 [120]
0.030331435 0.081858955 0.1205273 0.14808898 -0.096752696 0.008991674 0.023278806 0.11488245
0.0032080684 0.052894603 0.08328134 -0.24926378 0.27442354 0.1584176 0.029429823 0.2244127
0.021883875 0.023793396 0.003673335 0.01420018 -0.0853221 -0.06446583 -0.042632863 -0.001302238
-0.04156673 0.105127655 0.025676198 0.16145797 0.003979508 0.044997938 0.04519295 0.041564796
0.03984375 0.01375274 -0.15005228 0.0126480255 -0.14003988 -0.045224432 -0.0050442875 0.20294558
0.0062156906 0.035170246 0.023844095 -0.16142504 0.00074751256 0.006568932 -0.046286434 -0.09749777
-0.049399182 -0.008575542 -0.039025404 0.0012843662 -0.013033978 -0.041792538 -0.086905055 -0.054702286
0.055330757 -0.023623977 0.018611057 0.001477938 -0.005324667 -0.045144647 0.067790546 -0.06288782
-0.06559317 -0.044600595 0.040820576 -0.024184324 0.04981613 0.0005443368 0.067352265 -0.16469799
0.026458586 0.12732649 -0.09182353 -0.0016936057 0.21239927 -0.015248271 0.08812498 0.07429535
0.086820535 -0.037335526 0.004774402 0.15378161 -0.009701439 -0.021391328 -0.014446123 -0.02046731
-0.04089764 -0.14106947 -0.006955824 -0.012399305 0.03409895 -0.0012048702 -0.046623 0.020371342
-0.044865094 -0.05200253 0.051703732 0.03697 0.0015637605 0.06398655 0.06327195 -0.00071810064
-0.12163441 0.21260415 0.11596874 0.08934034 -0.03464241 0.038959496 0.03885676 0.09614183
0.0018604083 -0.0011041376 0.03336704 0.07885301 0.07737101 -0.102782354 -0.07427777 -0.005118105
00000000: a179 f83c aba5 a73d 04d7 f63d a3a4 173e
00000010: 4726 c6bd d051 133c 32b3 be3c 7d47 eb3d
00000020: 753e 523b 03a8 583d 688f aa3d 013f 7fbe
00000030: 3e81 8c3e 3938 223e d016 f13c 71cc 653e
00000040: d045 b33c 5eea c23c 56bc 703b dfa7 683c
00000050: 5abd aebd a906 84bd cc9f 2ebd dbaf aaba
00000060: e041 2abd 2b4d d73d e456 d23c 3d55 253e
00000070: 8866 823b c24f 383d 3e1c 393d d93f 2a3d
00000080: 3333 233d 2c53 613c 4ea7 19be aa39 4f3c
00000090: 9d66 0fbe 413d 39bd 8d4a a5bb f7d0 4f3e
000000a0: feac cb3b ad0e 103d b154 c33c 9b4c 25be
000000b0: b8f4 433a 3240 d73b d896 3dbd e9ac c7bd
000000c0: cc56 4abd 6e80 0cbc 1ad9 1fbd 2e58 a83a
000000d0: 778c 55bc a72e 2bbd 47fb b1bd 810f 60bd
000000e0: 81a2 623d 1287 c1bc 3776 983c 5fb7 c13a
000000f0: 8b7a aebb 98e9 38bd c5d5 8a3d 54cb 80bd
00000100: b655 86bd 1daf 36bd 7a33 273d 341e c6bc
00000110: 000c 4c3d d3b1 0e3a fcef 893d 97a6 28be
00000120: adbf d83c e061 023e fa0d bcbd fafb ddba
00000130: 327f 593e e2d3 79bc df7a b43d 2928 983d
00000140: f7ce b13d 23ed 18bd 9672 9c3b ed78 1d3e
00000150: c9f2 1ebc de3c afbc 6eaf 6cbc 0fab a7bc
00000160: 4984 27bd 8474 10be aeed e3bb 7426 4bbc
00000170: 57ab 0b3d bcec 9dba c2f7 3ebd cde1 a63c
00000180: 76c4 37bd 9b00 55bd 4bc7 533d db6d 173d
00000190: 18f7 cc3a 610b 833d b994 813d eb3e 3cba
000001a0: 761b f9bd e7b4 593e 0581 ed3d 11f8 b63d
000001b0: 33e5 0dbd fe93 1f3d 4428 1f3d 02e6 c43d
000001c0: f2d8 f33a b6b8 90ba e1ab 083d b07d a13d
000001d0: b174 9e3d 8e7f d2bd f21e 98bd c7b5 a7bb

features.9 f4 [84]
-0.0028064605 0.14958915 -0.055638302 -0.0026575006 -0.07088799 0.25010887 0.4016844 0.2669528
0.012605274 -0.0028372947 0.85397834 0.21908852 0.10131222 0.0001150432 -0.006353911 -0.011145523
0.0004155286 0.007295622 0.39742443 0.104747385 0.41238576 -0.0020131618 0.07468624 0.25713435
0.045017768 0.045317523 -0.00017534338 0.05583267 0.015404406 0.007861115 0.09943524 0.022675086
0.45902535 0.16158013 0.11496711 -0.002771628 0.070968315 0.3361518 -0.03055407 0.10683081
0.08090115 -0.008462264 0.1187726 0.39519915 0.085027136 -0.016803993 -0.053364776 -0.016064418
0.054565627 0.28154275 0.4814968 -0.016513586 0.012105289 0.029443353 -0.124700435 0.39574048
0.0067305295 0.25582469 0.0034544454 0.39345527 0.23202223 0.07746968 0.15423767 -0.0025562467
0.033731602 0.18209079 -0.0019228315 0.028316969 -0.037046198 -0.008749275 0.0011160251 0.28008974
-0.006220913 0.004320324 0.0012002831 0.01516676 0.3352955 0.08616345 -0.009798218 0.3728164
0.06398577 0.10061758 0.00392705 0.030496774
00000000: 98ec 37bb e62d 193e fde4 63bd 7629 2ebb
00000010: b92d 91bd 450e 803e 94a9 cd3e 0aae 883e
00000020: 5a86 4e3c e8f1 39bb 539e 5a3f be58 603e
00000030: c87c cf3d 5943 f138 7834 d0bb b69b 36bc
00000040: 4edb d939 1d10 ef3b 377b cb3e cc85 d63d
00000050: 3a24 d33e 40ef 03bb 19f5 983d 1da7 833e
00000060: 8d64 383d de9e 393d 61dc 37b9 ccb0 643d
00000070: c362 7c3c e8cb 003c b4a4 cb3d 1ac1 b93c
00000080: 5f05 eb3e 4375 253e e073 eb3d 34a4 35bb
00000090: d657 913d 171c ac3e 874c fabc 1dca da3d
000000a0: 81af a53d 4fa5 0abc 0d3f f33d 8b57 ca3e
000000b0: b522 ae3d 87a8 89bc 0695 5abd 8799 83bc
000000c0: 3580 5f3d 5f26 903e c086 f63e 8047 87bc
000000d0: 4355 463c 3033 f13c f162 ffbd 7f9e ca3e
000000e0: c68b dc3b 74fb 823e fa63 623b f872 c93e
000000f0: 3c97 6d3e 6ca8 9e3d 7bf0 1d3e b486 27bb
00000100: 262a 0a3d 0276 3a3e 8507 fcba fdf8 e73c
00000110: c1bd 17bd 1e59 0fbc 9747 923a ec67 8f3e
00000120: cdd8 cbbb 8191 8d3b d152 9d3a 017e 783c
00000130: daab ab3e 7676 b03d b488 20bc cbe1 be3e
00000140: f90a 833d 9710 ce3d 7cae 803b 5fd4 f93c
