checkpoints_lenet5/CPG_single_scratch_woexp/lenet5/food_containers/gradual_prune/0.3/checkpoint-20.pth.tar (torch, 316631 bytes, 28 tensors)

features.0.weight f4 [6, 3, 5, 5]
00000000: 0000 0000 3101 313e b170 71be d23c bdbe
00000010: 9740 f1be 9f28 913e 6ef8 c2bd eff4 bfbd
00000020: 0380 78be e671 c5bd 0000 0000 0000 0000
00000030: 0000 0000 1f0c 11be 0000 0000 0000 0000
00000040: 8524 52be 0000 0000 0000 0000 0bca 283e
00000050: 0000 0000 0000 0000 ff0b 3b3e 5468 943e
00000060: 41d5 903e 1dde 213e 60c8 dd3d dfd0 923e
00000070: e1bf b8bd 0000 0000 f985 ed3d 825c 2e3e
00000080: 4729 46be 0000 0000 0000 0000 0000 0000
00000090: c140 9dbe 309b 3dbe dbb9 1bbe 0000 0000
000000a0: 0000 0000 0000 0000 7a10 3cbe 0000 0000
000000b0: 0000 0000 0526 70be 0a47 36be 0000 0000
000000c0: f1c0 f23d 45ea be3e 36be cfbe 0000 0000
000000d0: 80e7 b2be 6690 e6bd 4800 2abe 0000 0000
000000e0: 92fa 58be 9e44 e5be 8690 8abe 0000 0000
000000f0: 8914 cdbe 9cec 23be 05a1 99be 0000 0000
00000100: 5e70 953e 0000 0000 9a52 45be 0000 0000
00000110: 9be8 f03d 120b 173f 0000 0000 6642 833e
00000120: a7f9 093f 8bf1 c73e 46f8 2c3f 1447 02be
00000130: 0000 0000 7305 e03d eb6a 023e 37a4 743e
00000140: 0000 0000 0000 0000 0000 0000 1e6f 473e
00000150: 0000 0000 fedd 3dbe 0000 0000 1372 f53d
00000160: b9db 933e 0000 0000 0000 0000 b931 4f3e
00000170: 0000 0000 0000 0000 9ff1 7dbe 34d3 24be
00000180: 0000 0000 0000 0000 0000 0000 0000 0000
00000190: 0000 0000 079f edbd 0000 0000 6f51 733e
000001a0: 0000 0000 16af 0dbe 0000 0000 0000 0000
000001b0: 9fe0 163e 0000 0000 0000 0000 24e4 563e
000001c0: 7802 2f3e 0000 0000 0000 0000 2197 0c3e
000001d0: 8e2d 2d3e e882 873e 0000 0000 0000 0000
000001e0: 0000 0000 0000 0000 091b f23d 4540 bebd
000001f0: 953e 60be 0000 0000 0000 0000 8239 b6bd
00000200: c5eb 323e 4bc2 4f3e 74ae 13be 8abf 36be
00000210: f492 623e f9bb 253e 34c1 5b3e dbca 43be
00000220: 0000 0000 096e ed3d afbe e03d 0000 0000
00000230: 40a3 e8bd 0000 0000 9679 d0bd 5c1a 1fbe
00000240: 0000 0000 e91d a6be 0000 0000 1e66 583e
00000250: f548 6f3e 8943 16be f353 be3e a223 943e
00000260: fa62 c33e 2ac7 933e 73cd 383e 3aa5 2d3e
00000270: e567 e63e 6a44 1c3e 0000 0000 0000 0000
00000280: 0000 0000 37e3 223e 0000 0000 3e48 fabd
00000290: 7a85 c9bd 8791 8bbe 0000 0000 8667 9ebe
000002a0: 5667 27be 0000 0000 0000 0000 e6c5 03be
000002b0: 8663 d9be eee1 4ebe 976b 17be 0975 873e
000002c0: 110d d43e 2ceb ce3e 23f3 833e 8b3e 243e
000002d0: d7cd 353e cd9b 313e 9d80 083e 30a3 a53e
000002e0: dbc3 a63d 5616 c13d adb1 673e 39fc 1cbe
000002f0: 0000 0000 4a8c 32be bae4 78be 0000 0000
00000300: 0000 0000 0000 0000 0000 0000 eef4 ddbd
00000310: 4b7e 94be 4b16 6dbe 859d 8dbe a469 2fbe
00000320: 5551 c43e 28a3 ee3e 5bf8 bd3e 1317 593e
00000330: 0000 0000 0000 0000 0000 0000 48bb 953e
00000340: ccc3 0dbe 4264 99be 52b2 debd 0000 0000
00000350: b225 5abe 0883 28be d437 b1be 0000 0000
00000360: 3d7c a5bd 8203 bcbd c91f a6be f5d1 d4be
00000370: f1a0 c6bd 0000 0000 224d 88be 7714 eabe
00000380: 26a7 c9be a03e 5bbe f2d7 1dbe ac0c adbe
00000390: 0000 0000 0000 0000 0000 0000 0000 0000
000003a0: 0000 0000 0f4b 873e 6151 aa3e 0000 0000
000003b0: 0000 0000 ac14 f4bd 5aa0 653e c4ca a03e
000003c0: 0000 0000 e7b7 80be 37a1 aebe 172b e1bd
000003d0: 5dd7 15be bd07 b83e 0000 0000 d4f6 35be
000003e0: 0000 0000 c506 803e 0000 0000 0000 0000
000003f0: 0000 0000 7d67 a33e 1e6e a33e 0000 0000
0.0 0.1728561 -0.23578145 -0.36960465 -0.4711959 0.28351304 -0.095200405 -0.09372889
-0.24267583 -0.09640865 0.0 0.0 0.0 -0.1416478 0.0 0.0
-0.20521744 0.0 0.0 0.16483323 0.0 0.0 0.18266295 0.28985846
0.282877 0.15807386 0.10829234 0.2867498 -0.09020973 0.0 0.11597819 0.17027476
-0.19351684 0.0 0.0 0.0 -0.30713466 -0.1851623 -0.15207617 0.0
0.0 0.0 -0.1836566 0.0 0.0 -0.23452003 -0.17800537 0.0
0.11853207 0.37288108 -0.40574807 0.0 -0.34942245 -0.112580106 -0.1660167 0.0
-0.21189335 -0.44778913 -0.27063388 0.0 -0.4005473 -0.16008228 -0.3000566 0.0
0.29187292 0.0 -0.19269791 0.0 0.11763116 0.59001267 0.0 0.25636595
0.53896564 0.3905147 0.67566335 -0.12722427 0.0 0.10938539 0.12736098 0.23890768
0.0 0.0 0.0 0.19475982 0.0 -0.18541715 0.0 0.119846486
0.28878573 0.0 0.0 0.20233811 0.0 0.0 -0.24799202 -0.16096193
0.0 0.0 0.0 0.0 0.0 -0.11602598 0.0 0.23761533
0.0 -0.13836321 0.0 0.0 0.14734124 0.0 0.0 0.20985466
0.17090786 0.0 0.0 0.13729526 0.16911909 0.2646706 0.0 0.0
0.0 0.0 0.11821563 -0.09289602 -0.21898873 0.0 0.0 -0.088976875
0.17472751 0.2028896 -0.14422017 -0.17846504 0.2212637 0.16184987 0.2146042 -0.19120352
0.0 0.11593253 0.1097387 0.0 -0.113592625 0.0 -0.10179441 -0.15537399
0.0 -0.32444695 0.0 0.21132705 0.23367675 -0.146742 0.37173423 0.28933436
0.3816145 0.28862888 0.18047123 0.1695756 0.4500114 0.15260473 0.0 0.0
0.0 0.15906988 0.0 -0.1222081 -0.09839912 -0.27259466 0.0 -0.30938357
-0.16348013 0.0 0.0 -0.12868461 -0.42458743 -0.20203373 -0.14787136 0.26456478
0.4141622 0.40413797 0.25771436 0.16039483 0.17754303 0.1734459 0.13330312 0.32351065
0.08142825 0.09428088 0.22626372 -0.1533059 0.0 -0.17436329 -0.24306002 0.0
0.0 0.0 0.0 -0.10837732 -0.29002604 -0.23153035 -0.2765924 -0.17130142
0.383433 0.46608853 0.37103543 0.21200208 0.0 0.0 0.0 0.29244447
-0.13844222 -0.29959303 -0.10873856 0.0 -0.21303442 -0.16456234 -0.34612906 0.0
-0.08080337 -0.091803566 -0.32446125 -0.41566435 -0.09698666 0.0 -0.26621348 -0.45718738
-0.39385337 -0.21410608 -0.15414408 -0.3379873 0.0 0.0 0.0 0.0
0.0 0.26424453 0.33265212 0.0 0.0 -0.11918005 0.2242445 0.31404698
0.0 -0.25140306 -0.34107372 -0.10994547 -0.14632936 0.35943404 0.0 -0.17769939
0.0 0.25005165 0.0 0.0 0.0 0.31914893 0.3191995 0.0

features.1.weight f4 [6]
00000000: 0748 813f 777b 243f dbbb 793f 7c92 923f
00000010: b479 bc3f def3 bc3f
1.0100106 0.6425089 0.9755227 1.1450953 1.4724641 1.4761922

features.1.bias f4 [6]
00000000: 11e9 fd3c c950 193e 7cce a13e e1d7 b03c
00000010: 17cc e2bc 093f ab3d
0.030994924 0.14972223 0.31602848 0.021587314 -0.027685208 0.083616324

features.1.running_mean f4 [6]
00000000: 9e2d aabc 9683 fcbd 5cb9 963d 0b64 2ebd
00000010: 20cf cc3d fbfd 8b3e
-0.020773705 -0.123297855 0.07359573 -0.042575877 0.100004435 0.2734221

features.1.running_var f4 [6]
00000000: 2b1b de40 0ac0 7a40 c39f 9441 6ec3 8341
00000010: b6da d840 fb97 3341
6.9408164 3.9179711 18.578009 16.470425 6.776698 11.224605

features.4.weight f4 [16, 6, 5, 5]
00000000: 7f4b 4bbe fa6c d0bd 0000 0000 68ad 00be
00000010: 0000 0000 b7d4 f4bd e637 06be 0000 0000
00000020: 0000 0000 0000 0000 0000 0000 0000 0000
00000030: f810 a9bd df9c c1bd 0000 0000 0000 0000
00000040: 0000 0000 0000 0000 15e2 b83d f01e 493d
00000050: 585d f83d 9a33 f03d 1bff bc3d 6bf5 463e
00000060: 0000 0000 8d57 0fbe 0000 0000 aef3 de3d
00000070: 0000 0000 62db b03d 0000 0000 cee2 8a3d
00000080: 0000 0000 0000 0000 0000 0000 0483 2f3e
00000090: 028a ee3d 0000 0000 0000 0000 0000 0000
000000a0: 0000 0000 0000 0000 035a 8d3d a15b a4bd
000000b0: 2cfb a6bd 0000 0000 0000 0000 ca8c 7e3d
000000c0: 709d 9ebd 0000 0000 0000 0000 a81f debd
000000d0: 0000 0000 0000 0000 0000 0000 13d6 f23d
000000e0: 0000 0000 0000 0000 fc6e 1d3e 58e8 5fbe
000000f0: a87d a93d 0000 0000 0000 0000 1111 de3d
00000100: 15f2 b5bd 4288 7e3d 0000 0000 3577 ae3d
00000110: 1abb b93d 0129 53be 7335 0abe 0000 0000
00000120: 0000 0000 0000 0000 fb8f fbbd 3f0b 34be
00000130: 0000 0000 0000 0000 5709 2dbe 5f1f 85be
00000140: fc60 8fbd 278c 00be a2c0 cabd 9a4d 55be
00000150: 4046 2abe 028e 26be 67e4 d9bd 9d5b b7bd
00000160: 0000 0000 6cef a8bd 8569 34be 45d8 2fbe
00000170: 0000 0000 0000 0000 ab6d 5ebe 0000 0000
00000180: c686 6b3d 0000 0000 0000 0000 a237 e3bd
00000190: 6939 a8bd 9f82 8fbd 2770 22be cdc8 fbbd
000001a0: 0000 0000 0000 0000 4fcd edbd 5e4d 9abd
000001b0: 0bf1 c2bd 4c8b 70bd 0000 0000 c996 35be
000001c0: ab4a 73be 4066 debd 0000 0000 1370 973d
000001d0: 0000 0000 cab6 c8bd 0000 0000 0000 0000
000001e0: 0000 0000 5c4e 813e f18f 203e 215b 5d3d
000001f0: 0000 0000 8c82 08be fcc0 92bd 0000 0000
00000200: 877c d93d f449 8f3e 98ed 23be a01c b9bd
00000210: 0000 0000 caab 7c3e 277c 093e 23b6 0fbe
00000220: b8b7 983d 0000 0000 0000 0000 00a9 e63d
00000230: af97 6b3d e508 1f3e 49d1 e33d d960 7bbd
00000240: 79d4 5fbd 642c 203e 8b90 e33d f906 19be
00000250: d4ab f3bd 7f77 24be f086 5a3e 0000 0000
00000260: 7177 debd 45fd 91be 0000 0000 91c3 33bd
00000270: 5703 56be 17cb 84be a0ce 41be 521b 7b3e
00000280: 51b3 50be 2f18 32be ad8e 94be 481b 313e
00000290: f99e a83e 78e1 67be e81f 5ebd 0000 0000
000002a0: 92b6 dd3d f419 763e 0000 0000 64b6 da3d
000002b0: 0000 0000 2f95 193e 5548 0cbe 3eea c5bd
000002c0: 978b a9bd 0000 0000 67d7 a43d 45e8 1dbe
000002d0: 0000 0000 0000 0000 f559 9bbd 0000 0000
000002e0: dcf4 a8bd 0000 0000 0000 0000 0000 0000
000002f0: 0000 0000 9987 f8bd 0000 0000 4077 99bd
00000300: 0000 0000 0000 0000 77cd 7b3e 8d43 3a3e
00000310: 0000 0000 6dc7 67bd 7b7d 2b3e 4026 9b3e
00000320: 80c1 3e3e 0000 0000 60b1 46be 1b9e d93d
00000330: f9e0 1d3e dc1b 933d 2b9e 85bd c6e5 01be
00000340: a1b2 453e 9aa4 81bd 376b fa3d c93f d3bd
00000350: 51e1 183e ea7c 163e 4d4e a6be d9aa 233e
00000360: be24 1d3e d320 053e 58a6 7dbd 0bf7 adbe
00000370: 0000 0000 f812 c73d 4492 653d 2087 31be
00000380: e842 82be 195c 7b3d ffb1 623e 0000 0000
00000390: 0000 0000 e250 16be b229 463e 205e 80be
000003a0: b405 853d 9d38 11be 1fe3 14be 0000 0000
000003b0: 0000 0000 0000 0000 0000 0000 60a7 15be
000003c0: 0000 0000 0000 0000 ba71 963d 0000 0000
000003d0: 0000 0000 0000 0000 0000 0000 3e0c 963d
000003e0: 0000 0000 0000 0000 0000 0000 0000 0000
000003f0: eb28 ad3d 0000 0000 6d16 30be 5298 0d3e
-0.19853018 -0.10177036 0.0 -0.12566149 0.0 -0.11954635 -0.13107261 0.0
0.0 0.0 0.0 0.0 -0.0825519 -0.09453749 0.0 0.0
0.0 0.0 0.09027497 0.04910177 0.12127179 0.11728592 0.09228345 0.19429557
0.0 -0.13998242 0.0 0.10886322 0.0 0.08635594 0.0 0.06781541
0.0 0.0 0.0 0.17139822 0.11647417 0.0 0.0 0.0
0.0 0.0 0.06901934 -0.08025289 -0.08153376 0.0 0.0 0.062145986
-0.077448726 0.0 0.0 -0.10845882 0.0 0.0 0.0 0.11857238
0.0 0.0 0.15374368 -0.21865976 0.0827592 0.0 0.0 0.10843099
-0.08884064 0.062141664 0.0 0.08518831 0.0906889 -0.2062111 -0.13496952 0.0
0.0 0.0 -0.122833215 -0.17582415 0.0 0.0 -0.16898094 -0.26000497
-0.0700092 -0.12553464 -0.09900023 -0.20830384 -0.16628361 -0.16265109 -0.106392674 -0.08953021
0.0 -0.08248791 -0.17618378 -0.17172344 0.0 0.0 -0.21721523 0.0
0.057501577 0.0 0.0 -0.110945955 -0.08214075 -0.07007336 -0.15863095 -0.12294159
0.0 0.0 -0.11611425 -0.07534288 -0.095186315 -0.058726594 0.0 -0.17733301
-0.23758952 -0.108593464 0.0 0.07394423 0.0 -0.09800489 0.0 0.0
0.0 0.25255096 0.1567991 0.054041985 0.0 -0.1333105 -0.07165715 0.0
0.10619455 0.2798611 -0.16008604 -0.09038663 0.0 0.24674907 0.13426267 -0.14034323
0.074569166 0.0 0.0 0.11262703 0.057517704 0.15530737 0.11123902 -0.061371658
-0.05464599 0.15641934 0.11111554 -0.14944066 -0.11898008 -0.16061209 0.21340537 0.0
-0.108626254 -0.28513542 0.0 -0.04388768 -0.20899712 -0.25936195 -0.18926477 0.2452214
-0.20380904 -0.17392038 -0.29015103 0.17295563 0.32933787 -0.22644603 -0.054229647 0.0
0.10825838 0.24033338 0.0 0.106793195 0.0 0.14998315 -0.13699467 -0.09663819
-0.08278578 0.0 0.08048897 -0.15420635 0.0 0.0 -0.07585517 0.0
-0.08249828 0.0 0.0 0.0 0.0 -0.12135238 0.0 -0.07493448
0.0 0.0 0.24590097 0.18189831 0.0 -0.05658667 0.16747086 0.3030262
0.18628502 0.0 -0.194036 0.10625859 0.15417852 0.07183048 -0.06524309 -0.12685308
0.19306423 -0.063302234 0.12227481 -0.103149004 0.14929701 0.14696088 -0.32481614 0.15983142
0.15346047 0.13000803 -0.061926216 -0.3397754 0.0 0.09720415 0.056047693 -0.17336702
-0.2544167 0.061367128 0.22138213 0.0 0.0 -0.14679292 0.19351843 -0.25071812
0.064952284 -0.14181753 -0.14539765 0.0 0.0 0.0 0.0 -0.1461463
0.0 0.0 0.0734591 0.0 0.0 0.0 0.0 0.07326554
0.0 0.0 0.0 0.0 0.0845507 0.0 -0.17196055 0.13827637

features.5.weight f4 [16]
00000000: 558c 863f 33ec c33f 9166 d93f 9c72 c33f
00000010: 11ed b83f ff8f b03f a897 903f cf08 8e3f
00000020: 8233 b23f 0b42 9f3f cf09 903f 7831 af3f
00000030: fe94 a73f afdd 983f 98d8 a23f 23a5 a63f
1.0511576 1.5306457 1.6984426 1.5269351 1.4447347 1.3793944 1.1296282 1.1096438
1.3921969 1.244203 1.1252993 1.3686972 1.3092344 1.1942652 1.2722349 1.3019146

features.5.bias f4 [16]
00000000: 8b71 25be 1e80 40bf c977 fcbe f1ab 5bbe
00000010: b196 00bf 8aef f2be b52f 4abe 867a 86be
00000020: 8ab4 4ebe 4f4c 2cbe d696 063c 52ce d4be
00000030: 7198 d5be a998 b2be 07c2 bebe 31e4 e6bd
-0.16156594 -0.7519549 -0.4931014 -0.21452309 -0.50229937 -0.4744838 -0.19744761 -0.26265353
-0.20186058 -0.16825984 0.008214673 -0.4156366 -0.41717866 -0.34882095 -0.37257406 -0.11273993

features.5.running_mean f4 [16]
00000000: 92cc 8cbf 9084 38bf 99d5 14bf b4c9 e7bf
00000010: da81 5abf 4c2b 51bf 53c2 d53f 8b94 2f3f
00000020: 588e 9abf 3dbf 05bd a718 e1be fb47 56bf
00000030: 3315 04bf e210 a43f 2d2e 02bf a3fc 0bc0
-1.099993 -0.72077274 -0.58138424 -1.810843 -0.8535439 -0.8170669 1.6699928 0.68586034
-1.207469 -0.032653082 -0.4396412 -0.83703583 -0.5159485 1.2817652 -0.5085171 -2.1872947

features.5.running_var f4 [16]
00000000: 42d3 853f 8f34 913f 1233 883f c3f1 1440
00000010: ba0c 0f40 0ba8 fa3f 2bc2 993f a562 a03f
00000020: 0148 9b3f c15d 9a3f d970 963f 50f3 f33f
00000030: e306 8c3f ebf1 8b3f 764b 473f 8aa3 fe3f
1.0455096 1.1344165 1.0640585 2.327256 2.2351518 1.9582533 1.201238 1.2530104
1.2131349 1.2059861 1.1753188 1.9058628 1.0939602 1.0933203 0.7784952 1.9893658

features.9.weight f4 [120, 400]
00000000: e7a4 6b3d f187 da3d 0000 0000 4a12 83bd
00000010: 0000 0000 9da6 a9bc fb16 4b3d 0000 0000
00000020: 3bf9 4cbd 784f 603c e16c 08bd 0000 0000
00000030: 6235 cd3c 6604 41bc 181d 803c b01e 8abd
00000040: 0000 0000 7b83 423c 6027 3b3d 283b 2a3d
00000050: 2b12 80bd 511c 54bc f070 653c 660e ae3d
00000060: 007b b43d 0000 0000 683c e63d e3e9 373d
00000070: c811 8fbd dfdc a2bd 0000 0000 cca6 233d
00000080: f710 483c 0a28 b4bc 4cdb 34bd 0000 0000
00000090: efda adbc 3d5d 093c 16c8 f1bc d593 27bd
000000a0: 8d31 d1bc 4047 30bd 2272 5dbc 9fd0 343d
000000b0: eda2 be3c 55e5 11bd 02e0 aabd 6edc e1bc
000000c0: c049 c73d 020c d63c 09a4 11bd 3e05 0a3d
000000d0: 0e48 533d 177e 853c 0000 0000 9a1a d2bd
000000e0: 4c79 0c3d 914f cd3d 0000 0000 517c 27bd
000000f0: 3ac5 bcbd 659a 78bd 35d0 ad3d 7788 b13c
00000100: 9135 8dbd a20c 9dbd 98db 94bd 0000 0000
00000110: a4ed dc3c 1caa 48bd d75d 11bd 065a 93bd
00000120: fbf4 39bd 0000 0000 2862 9fbc c743 ad3d
00000130: 44e6 a9bd 892c e6bd 5e41 6b3d 121d 323e
00000140: bb7b 5b3d 34a2 08bd 4aa1 8dbd 7e71 703c
00000150: 4b44 0c3e 66d0 c13c 0000 0000 6b63 c33c
00000160: 64ec 61bc 94a1 423d 0000 0000 f889 213d
00000170: aea6 833d 92b9 bd3c 35b0 ebbb 568e 2bbd
00000180: 8f0b 123d 0a9f 913d 47e0 4bbc 32bb 16bd
00000190: 0f65 2cbd 95d0 953c 2680 cf3c 0fbb 8c3d
000001a0: 1e99 84bc 3466 8bbc 7cb1 3dbd ada9 57bc
000001b0: 16a5 c43c c72b 133d 691a 2a3c 9edf ebbc
000001c0: d121 6ebc 0000 0000 0000 0000 81af a63c
000001d0: 0072 66bd b829 4fbd 367b 55bd 7705 c8bc
000001e0: 4164 ed3c 5735 d7bc 215b dabc 00f4 9fbc
000001f0: 0000 0000 b1e1 a13c d4ae 603c e995 d93d
00000200: 9a11 46bc 9ea2 d2bd 0000 0000 0000 0000
00000210: b668 133d 9b78 803c 55da 84bd b29c b5bc
00000220: 0000 0000 0000 0000 0000 0000 f7a8 8dbc
00000230: 82e7 3a3c 0000 0000 a616 5abc 7313 5ebc
00000240: 7f7f 023d 6dd7 103d 0000 0000 7033 f9bc
00000250: 0000 0000 0000 0000 3db8 f9bc 0000 0000
00000260: 9732 263d 0000 0000 f601 85bd 9004 31bd
00000270: 1262 33bd 0000 0000 0000 0000 27da 20bd
00000280: 028f cebc 0ce4 b8bc 0000 0000 0000 0000
00000290: a615 4ebc d996 2cbd 2e05 653c 0000 0000
000002a0: 0000 0000 994d f1bc c036 81bd 2026 6cbc
000002b0: 0000 0000 e165 6cbd 0000 0000 0000 0000
000002c0: ec31 813d 0000 0000 0000 0000 f31d adbd
000002d0: ad73 57bc 644c a23c 3753 37bd 0000 0000
000002e0: 40f6 29bd 0000 0000 0000 0000 a210 cbbc
000002f0: 0000 0000 ad9f 08bc 9e45 ccbc ddb5 bdbc
00000300: 8543 0fbd 16c3 a6bc 14ee a4bc afc9 f5bc
00000310: d96e f3bc 1b9c 22bd a644 c8bc 4e4c 63bc
00000320: 0000 0000 0000 0000 06be 77bc afc7 403d
00000330: 8701 873d 6989 4abd 4269 abbc 0ebd abbd
00000340: 3b66 a9bc 3a09 4d3d 07b6 98bd 8569 9abc
00000350: 0000 0000 0000 0000 0000 0000 4e48 05bd
00000360: a1f9 fcbc 0000 0000 c7e1 38bd 1563 0ebd
00000370: f240 273d 0000 0000 2037 babc e419 46bd
00000380: bd88 03bd af9b a93d b2b4 d23d 2feb d63c
00000390: 4e24 c3bd 9bef 89bd 5bc8 653d 39e0 5a3d
000003a0: 0000 0000 4132 3bbd 941a 6ebd 0000 0000
000003b0: 0000 0000 0000 0000 76d7 7ebc 0000 0000
000003c0: 21fe d0bc 224b 10bd d2c4 3bbd 0000 0000
000003d0: e0e1 443d c75b 15bd f38a 7abc 8fe8 82bd
000003e0: 0000 0000 a00e 863d 4b63 3fbd 0000 0000
000003f0: b90b bebc 1750 413d 9916 593d aea3 efbc
0.05753031 0.1067046 0.0 -0.06399973 0.0 -0.02070933 0.049582463 0.0
-0.050042372 0.013690822 -0.03330696 0.0 0.025049869 -0.011780834 0.015638873 -0.067441344
0.0 0.011872168 0.045691848 0.041560322 -0.06253465 -0.012946204 0.014003977 0.0849884
0.08812523 0.0 0.1124199 0.044900786 -0.069858134 -0.07952284 0.0 0.03995399
0.012211076 -0.021991748 -0.04415445 0.0 -0.02122256 0.008384046 -0.029514354 -0.040912468
-0.025536323 -0.0430367 -0.013515981 0.04414427 0.023271048 -0.0356191 -0.08343507 -0.02757093
0.097308636 0.026128773 -0.035556827 0.033696406 0.05158239 0.016295476 0.0 -0.1025898
0.034295365 0.10024942 0.0 -0.04089004 -0.092173055 -0.060694117 0.08486978 0.021671517
-0.068949826 -0.07668425 -0.07268447 0.0 0.026968785 -0.048990354 -0.035489883 -0.07194905
-0.045399647 0.0 -0.019455984 0.08460193 -0.08295873 -0.11238963 0.057435386 0.17393902
0.053584795 -0.033357814 -0.06915529 0.014675496 0.13697927 0.023658942 0.0 0.023851117
-0.01378927 0.047517374 0.0 0.039438218 0.06428276 0.023159776 -0.0071926364 -0.04188379
0.035655554 0.071104124 -0.012443609 -0.036799617 -0.042088564 0.018287936 0.02532966 0.06871616
-0.016186293 -0.017016508 -0.04631184 -0.013163012 0.0240045 0.03593042 0.010382273 -0.028793152
-0.01453443 0.0 0.0 0.020347359 -0.056261063 -0.050576895 -0.052119456 -0.024416668
0.028978469 -0.026270552 -0.026654782 -0.019525528 0.0 0.019760938 0.013713557 0.10624296
-0.0120891575 -0.10284923 0.0 0.0 0.035988532 0.01568251 -0.06486956 -0.022169445
0.0 0.0 0.0 -0.017292483 0.011407735 0.0 -0.013311064 -0.013554442
0.03185987 0.035361696 0.0 -0.030420035 0.0 0.0 -0.03048336 0.0
0.04057559 0.0 -0.06494515 -0.04321724 -0.0437947 0.0 0.0 -0.039270546
-0.025214676 -0.022569679 0.0 0.0 -0.012578404 -0.042136047 0.013978286 0.0
0.0 -0.029455947 -0.06309271 -0.014413387 0.0 -0.057714347 0.0 0.0
0.0630835 0.0 0.0 -0.08452978 -0.013150138 0.019811817 -0.044757094 0.0
-0.041494608 0.0 0.0 -0.024788205 0.0 -0.008338851 -0.02493554 -0.023158008
-0.0349765 -0.020356696 -0.020133056 -0.030003397 -0.029715942 -0.039699655 -0.024446797 -0.013873173
0.0 0.0 -0.015120989 0.047065433 0.06592088 -0.04944745 -0.020924214 -0.08385669
-0.02067863 0.050057627 -0.07456594 -0.018849144 0.0 0.0 0.0 -0.03253966
-0.030880751 0.0 -0.045137193 -0.03476246 0.04083342 0.0 -0.022731364 -0.048364535
-0.032112826 0.082816474 0.10288371 0.026235191 -0.09528409 -0.06735154 0.056099277 0.05343649
0.0 -0.045702223 -0.058130816 0.0 0.0 0.0 -0.0155543 0.0
-0.025511803 -0.035227902 -0.045842 0.0 0.048066974 -0.03646448 -0.015291917 -0.06392013
0.0 0.06545758 -0.046725553 0.0 -0.02319895 0.04719552 0.053000066 -0.029252853

features.9.bias f4 [120]
00000000: 2777 70bc 1862 29bb 86d2 703e 1a30 4d3e
00000010: 58ac 26bd c419 bfbb abbf 19bb d50b 8e3d
00000020: 1a15 ea3b 80d9 b3bb ae68 0fbc edc6 c7bd
00000030: f751 9c3c 754a 173c e585 bd3d 3aaa 843c
00000040: 682f bd3d 3492 47bc b9bd 89bd 57d5 193d
00000050: 0f76 623c f4d0 993d 2332 dbbc 2326 25bd
00000060: c1c3 5d3d e139 14bd b00c 7f3d 9214 abbc
00000070: 2121 e13d 59e1 083d 22df 403d f5cb a83b
00000080: 4c23 463b c643 25bb 1c12 8b3c 898a 3a3c
00000090: eda6 c3bc 4e99 84bc 0e39 c8ba fa7f 8a3c
000000a0: ace5 853c 3588 b3bb c299 193d af9c a5bc
000000b0: 72be aa3d 5f25 133d 7b91 a33c 2a06 5b3d
000000c0: f176 8b3c d243 f93d de59 b3bb 1108 aebc
000000d0: 9b52 ad3d 3d37 003d 2d61 fa3b bff1 31bc
000000e0: 865b a33c b75d 683b b657 f43c c584 a63c
000000f0: 0249 d3bc e8d0 02bc 22a0 ff3c d32e 653c
00000100: 0549 e9bb f24b b6bb f5c6 debb e684 c83c
00000110: 093e abbd 4c7c 923d c883 b53c a919 2ebd
00000120: f3fb 1e3d 3a30 99ba 1491 da3b 7bec b93d
00000130: 0bcb a93d dbe5 e63c 2fe6 033c fa93 0abd
00000140: d784 abbc 41b9 a0bb 3535 863d 124b ecbc
00000150: 3709 adbc 9916 eabc aea4 e23d 045c b53c
00000160: 4df1 a2bd f785 ee3d 384a 0cbc 164a b93c
00000170: cc8c 83bd bee4 e7bc c5b0 8c3d 8a00 0b3e
00000180: f3d9 f93c cf1b 083e a938 8d3c 1977 ae3b
00000190: bbf3 84bb 080b 77bd 7b78 863c 17b1 a43c
000001a0: 6573 a63d 8f82 803c ddab 493c 79df 3c3e
000001b0: cd43 d73c e8d0 983d bce7 6a3c 3da6 1a3d
000001c0: 4778 823d 4062 f8bc a61a 51bd 364e 84bb
000001d0: 6beb f4bc a1a3 7b3c 339f 9dbc e171 7ebd
-0.014676846 -0.0025845822 0.23517808 0.2003788 -0.040691704 -0.005831929 -0.002346019 0.069358505
0.007143629 -0.0054885745 -0.008752985 -0.09754739 0.019082053 0.0092340605 0.09254054 0.016194452
0.09237558 -0.012180854 -0.0672564 0.037556972 0.013822093 0.07510558 -0.026757305 -0.040319573
0.054141764 -0.03618801 0.06226796 -0.020883832 0.10992647 0.033418033 0.047087796 0.0051512667
0.003023344 -0.0025217398 0.016976409 0.011385568 -0.023883307 -0.016186383 -0.0015275793 0.016906727
0.016344868 -0.0054788836 0.03750015 -0.020216314 0.08337106 0.03592431 0.019966831 0.053472675
0.01702449 0.12171139 -0.0054733595 -0.02124408 0.08463021 0.03130268 0.007640979 -0.010860859
0.019941103 0.003545625 0.02982698 0.020326981 -0.025791649 -0.007984377 0.031204287 0.013988215
-0.0071193003 -0.0055632526 -0.00679862 0.024477433 -0.08361442 0.07152614 0.022157565 -0.04250494
0.038814496 -0.0011687346 0.0066701267 0.09078308 0.082906805 0.028185776 0.0080504855 -0.033832528
-0.020937366 -0.0049048965 0.06553117 -0.02884439 -0.021122558 -0.028575229 0.110665664 0.022138603
-0.07956181 0.116466455 -0.008562617 0.022618335 -0.06423339 -0.028307315 0.068696536 0.13574424
0.030499434 0.13291858 0.017238932 0.005324256 -0.0040573752 -0.060313255 0.016414871 0.020103974
0.081274785 0.015687255 0.012309042 0.18444623 0.026277447 0.07461721 0.014337476 0.037756193
0.06370597 -0.030320287 -0.051050805 -0.004037644 -0.029897412 0.015358836 -0.019240951 -0.062120322

features.11.weight f4 [84, 120]
00000000: e0dd ce3d e9f0 033e 95b5 8a3d f5a6 133e
00000010: 49b7 e93b bccb 093d 3486 b03d 84c8 d4bd
00000020: 1b8a acbc 2566 0cbe 67bc 78bd b2b2 7d3e
00000030: bb02 013e a151 453d 0000 0000 1616 e03c
00000040: 2bc3 9c3d 4c20 34bd 4a4d b93d decb aa3d
00000050: 1c55 c83d 1b63 19bd 79df 103d 8212 3d3d
00000060: ba48 36be 66bf 7cbc 08bf 8b3c 0000 0000
00000070: d01a 423e 0000 0000 8271 d93b 248d 353d
00000080: 0000 0000 0934 01bd d899 8d3d dcce 583d
00000090: f4a1 11bd 1595 27bd 0611 1d3c 9336 34bd
000000a0: 0000 0000 32fc 14bd 6db0 413c 0000 0000
000000b0: 874e 3fbc 59a5 143d b2da d33c df16 153e
000000c0: 6877 473e ddd2 b2bd f84a 7ebd fe7f 9e3d
000000d0: 6801 b3bd 8734 8a3c a497 613d 0000 0000
000000e0: 52c6 a43d 83d5 143d 97c2 b03c 518d 2dbc
000000f0: f932 bd3d 0000 0000 a4f8 403d 0000 0000
00000100: 4843 523d 8210 08be 77f1 a03d 69ec 58bd
00000110: 455c d8bd 0000 0000 f8d1 84bd 6e7e 143c
00000120: 6cd9 e13c 0000 0000 b4e6 d53c d7f7 ed3d
00000130: 0000 0000 3f9d 0d3e 7a01 b5bd fcf2 a3bc
00000140: 72f1 e7bd baf8 a83c 2b67 7d3d eb16 1c3e
00000150: 1a82 313e dafd c5bd b211 0a3e 74f5 ecbd
00000160: 0000 0000 2ffb 89bd 7010 113d 778a 9d3d
00000170: 48d3 19be b122 0a3d 7d40 c13c 96b1 babc
00000180: fabf a93d 3a5e 37be 6fe3 413c cdb1 433d
00000190: 7f29 503d 2e21 2a3e 1cd2 09be aebd a8bd
000001a0: fc6e 2a3c 6a2a 703d e335 cebc a81e f83c
000001b0: fdc9 d5bc 8dcd 2abe f797 72bd fba2 e83d
000001c0: 7559 04be ce4b ff3d 1e43 00bd 0000 0000
000001d0: be34 2b3d d782 15bd 0b62 24bd 0087 aebd
000001e0: 7967 bdbc a55b 75bd a841 dd3c cace d33c
000001f0: 945c 1fbd 0000 0000 3925 c6bc c2bf d53c
00000200: 0000 0000 df70 c1bc 2a6d 1e3c 533c a6bc
00000210: 0000 0000 0000 0000 0dd1 3d3d 3df9 10bd
00000220: 0000 0000 f79e 97bc 0000 0000 0000 0000
00000230: 5f6b e23c 0871 8c3d 0000 0000 0000 0000
00000240: 0000 0000 eadc f7bc 0000 0000 9421 e0bc
00000250: 6ad8 22bd 9f17 0d3d 9b35 c53c fddb c9bc
00000260: 20a7 643c 0000 0000 7263 f0bc a162 4a3c
00000270: 75fc 3ebc 0000 0000 0000 0000 0000 0000
00000280: 9912 be3c 3488 223c 3d64 993c 0000 0000
00000290: 9954 5abc aae5 3fbd 0d47 a9bc 0000 0000
000002a0: da17 863c 7e37 d73c bc43 6abc 0000 0000
000002b0: 8777 433d 0000 0000 8780 713c ac3a 943c
000002c0: 2640 4dbd 0000 0000 e228 86bc ac66 d7bc
000002d0: 2c91 d4bc 0000 0000 0000 0000 0000 0000
000002e0: 0000 0000 7ff7 773c e8bd 4dbc 0000 0000
000002f0: 0000 0000 d81b 02bd 0000 0000 0699 353c
00000300: d585 6cbc 351b 283c 0000 0000 37d2 583d
00000310: 68a2 483c 0000 0000 8636 18bd 0000 0000
00000320: 594a f3bc 0000 0000 65f9 c03c 1b5b 8dbc
00000330: 1933 0dbd 0000 0000 15c1 933c 0000 0000
00000340: 024d 51bc a41c 923d 0000 0000 0000 0000
00000350: b01a 0abd 6746 b5bc 136c aa3c 5131 f83c
00000360: 0000 0000 fcb3 78bc 0000 0000 69a9 1ebc
00000370: 0000 0000 ee01 23bd 0000 0000 9ebd 393d
00000380: 4710 51bc aeff 22bc 0000 0000 90aa 053d
00000390: 0000 0000 0000 0000 9b83 3bbc b1f2 a7bc
000003a0: 0000 0000 d88a 07bd 82bf 45bd 04ef 15bc
000003b0: 9cba 66bc fe22 8c3c 0000 0000 0000 0000
000003c0: 6a7b 903c 4545 aa3d 13dc 7e3c 3749 de3d
000003d0: 27ba 84bd 0000 0000 34a4 1ebd ed15 3cbc
000003e0: 0000 0000 c8dd 17bd 5c97 29bd 4a7d 4f3d
000003f0: 0000 0000 0000 0000 b303 af3d fe52 18bd
0.10100913 0.12884869 0.06772915 0.14419158 0.007132445 0.033641562 0.08619347 -0.10389808
-0.021061948 -0.1371084 -0.06072655 0.24775198 0.12598698 0.04817355 0.0 0.027354281
0.07654413 -0.043976113 0.09047945 0.08339666 0.09781858 -0.03744803 0.03536937 0.04616023
-0.1780118 -0.015426492 0.017058864 0.0 0.1895554 0.0 0.0066358456 0.044324055
0.0 -0.031543765 0.06914109 0.05293165 -0.03555484 -0.04091366 0.009586578 -0.04399736
0.0 -0.036373325 0.011821848 0.0 -0.011676437 0.0362905 0.025861118 0.14559506
0.19479144 -0.08731625 -0.062083215 0.07739256 -0.087405026 0.01687075 0.055076256 0.0
0.08045639 0.036336433 0.021577163 -0.0105927745 0.09238238 0.0 0.047112122 0.0
0.051333696 -0.13287547 0.07858556 -0.052959833 -0.10564474 0.0 -0.06485361 0.009063346
0.027569495 0.0 0.026110984 0.11619537 0.0 0.13829516 -0.08838172 -0.020013325
-0.11325349 0.020626415 0.061865967 0.15243118 0.17334786 -0.09667559 0.13483313 -0.11570254
0.0 -0.067373626 0.035416067 0.07692426 -0.15022004 0.03372449 0.02359032 -0.022789758
0.0828857 -0.17907038 0.01183401 0.047776986 0.050820824 0.1661422 -0.13459057 -0.082393035
0.010402437 0.0586342 -0.02517218 0.030288056 -0.026097292 -0.16679974 -0.059226956 0.11359211
-0.1292475 0.124656305 -0.031314008 0.0 0.041798346 -0.03650173 -0.040132564 -0.08521843
-0.023120629 -0.059901852 0.027008846 0.02585544 -0.03890665 0.0 -0.024187671 0.026092414
0.0 -0.023613391 0.009669581 -0.020292437 0.0 0.0 0.046341944 -0.035393942
0.0 -0.018508418 0.0 0.0 0.02763909 0.068574965 0.0 0.0
0.0 -0.030256707 0.0 -0.027359761 -0.03975717 0.034446355 0.024073413 -0.024641031
0.013955861 0.0 -0.029344294 0.0123526165 -0.01165687 0.0 0.0 0.0
0.023202227 0.009920169 0.018724555 0.0 -0.013325834 -0.046849884 -0.020663762 0.0
0.016368795 0.026271578 -0.014298376 0.0 0.047721412 0.0 0.014740116 0.018094383
-0.050110005 0.0 -0.016376916 -0.026294075 -0.02594813 0.0 0.0 0.0
0.0 0.015134691 -0.012557484 0.0 0.0 -0.031764835 0.0 0.011083847
-0.014436205 0.010260393 0.0 0.05293485 0.012245752 0.0 -0.037161373 0.0
-0.029698538 0.0 0.02355642 -0.017255357 -0.03447256 0.0 0.018036405 0.0
-0.012774708 0.07134369 0.0 0.0 -0.033716857 -0.022128297 0.020803487 0.030296953
0.0 -0.01517963 0.0 -0.009683945 0.0 -0.039796762 0.0 0.04534685
-0.0127602285 -0.009948654 0.0 0.032633364 0.0 0.0 -0.011444951 -0.020501466
0.0 -0.033091396 -0.04827834 -0.009151224 -0.014082577 0.01710653 0.0 0.0
0.017636973 0.08313993 0.0155553995 0.108538084 -0.06480818 0.0 -0.038730815 -0.011479837
0.0 -0.03707674 -0.041404113 0.050656594 0.0 0.0 0.085456274 -0.037188523

features.11.bias f4 [84]
00000000: 547a 823e 1b27 8e3d 4387 393e 6b00 943e
00000010: dbb7 d8bd 34e6 9a3d a51c d13d ab8d 713c
00000020: b63b 7f3d e705 ef3d 6f7b 713d 8ad1 7aba
00000030: 7481 353d 8643 3c3e 60b9 aa3c f8a8 593c
00000040: 0b91 e7bc c97a 1b3e def9 26bb cae7 553e
00000050: 23ea f83c 21f6 833d 6ba4 013e 0f35 c53d
00000060: 91d6 cfbb 8292 56bd 5a46 493e 085c 673e
00000070: ac44 4e3e 93e6 b539 7dfc 77bd ac0e b43c
00000080: 1702 b23b 5baf 983c 9dfd c4bc e922 5fbb
00000090: 98cd c73d 9587 38bb d655 81b9 7525 ed3d
000000a0: 6285 47bb 752c 8dbb 9019 d03d 811d 2a3d
000000b0: 48b5 32bd a9c0 103e 4136 cf3d ff7d 923c
000000c0: 3daf 7d3d 6a39 59bd 5096 443b 20c5 b0bb
000000d0: 19ae 383e 3705 0d3e f9cd 8a3e 08a9 6b3e
000000e0: f943 633e 1db8 ccbb 766e 723c 5915 983c
000000f0: 0475 3db7 09fb c23b 8685 2d3e 6426 783e
00000100: 3c9a 923d 3885 653e d91f 963e f64f b03d
00000110: d9fb ac3e 91f4 943a e206 bd3b 80b2 a1bc
00000120: c870 2dbb 3ec1 dd3c 6699 29bb ecaa 163e
00000130: 3bbe b7bc 47c4 ee3c 35e3 b13d f140 273e
00000140: 4bef 49bb cfd5 653d 7994 3d3e 81bf 843c
0.25483954 0.069410525 0.18118005 0.2890657 -0.10581943 0.07563439 0.10210542 0.014743249
0.062312804 0.11671048 0.058955606 -0.0009567967 0.04431291 0.18385133 0.020840347 0.013284914
-0.028267404 0.15183558 -0.0025478522 0.20889202 0.030385083 0.0644343 0.12660377 0.09629261
-0.006342717 -0.052385814 0.19655743 0.22593701 0.20143384 0.000346948 -0.060543526 0.021979652
0.005432378 0.018638304 -0.024046713 -0.0034047908 0.09756011 -0.0028156985 -0.0002466875 0.1157941
-0.0030444493 -0.004308278 0.10161126 0.041532043 -0.043629915 0.14135994 0.1011777 0.017882345
0.0619347 -0.05303327 0.002999682 -0.005394593 0.18035163 0.1377152 0.2711027 0.23013699
0.22193898 -0.006247534 0.014796844 0.018564867 -1.1292523e-05 0.005950336 0.16945466 0.24233395
0.07158324 0.224141 0.29321173 0.08609001 0.33785895 0.001136439 0.0057686428 -0.019738436
-0.0026464928 0.027069684 -0.0025878786 0.14713639 -0.022429576 0.029146327 0.086859144 0.16333367
-0.0030812796 0.056112107 0.18513669 0.016204597

classifiers.0.weight f4 [5, 84]
00000000: 989d 303f 88c1 b4bd a2ae eb3d d31a 453e
00000010: 6b88 01be 2742 33be 3a1d 92be f1a1 833e
00000020: 8a95 89be 8ba0 ce3e f181 d2bc bab5 253c
00000030: 379c d53d b521 d6be 66db bfbd 17f8 e1bc
00000040: 1b58 873d a05f 203d 0ee8 0f3e f675 0cbf
00000050: ad3b 81bd 3cb7 8abd 64af efbd cb44 49be
00000060: 5f91 03bb 9625 debe 86f3 f3be f935 35bd
00000070: 4a8f 883e d0ce 6e3c 91d8 773e a0b9 08be
00000080: 3c1a 4dbc 4c91 2bbe bfe6 0b3e c76b 903a
00000090: 52fe 69be ee53 233a 4348 cd3a fbfe a1bc
000000a0: 107b 413e 56b0 89bc 06c4 d9be ac9b 97be
000000b0: 47e8 b7bd da27 e1bd 44e7 babe 9899 69bb
000000c0: 4b13 cd3e f584 cfbc 4cdb c9bc 07a6 8eb9
000000d0: 38d6 56be ba7e 553c 6ef5 923d 79c3 0b3d
000000e0: 699f e73d 4042 c63e a987 0cbc 8341 f03b
000000f0: c670 533e 54da d33e ed3f f93c f54f 2c3e
00000100: 39a1 5e3c e15f 433e 01ce 1f3e 9e31 45be
00000110: 8fcf 8ebe 1b63 fbbb ec3a 6ebc ad21 533e
00000120: c2d8 b23c 6e43 0f3c 77ea 9f3a a4fa e5be
00000130: db72 b6be 84b7 353e 4426 a7bd 3b2c 3a3f
00000140: 25db deba 945a 41be 1fd3 79be 623e b93c
00000150: 3615 afbe 7462 e5bc 9472 efbe 50cf b9be
00000160: 0007 033c 9e7e 9439 f4be 913c d516 2fbd
00000170: df09 203e 2554 8e3d 3ede 0d3e aada 2fbc
00000180: edd9 a7be 5e8c a63e edb7 f73d ef1a c73c
00000190: 9579 a5be 33ea a1be 27d5 67bd b502 3e3e
000001a0: 314a 15bd c179 f5bc acef c83e 224c dd3e
000001b0: 74aa f53a c3ec 983d 74d3 b53e 000d 19be
000001c0: 9e94 88bd 9e91 6d3c abe3 87be 00f0 f03c
000001d0: c8ea a5bc fc00 a4be d1ef d8bd 0f2a dcbc
000001e0: c447 6d3c 0511 31bc 419b a83c 2e33 aabd
000001f0: ea79 2dbe 0be6 abba dbcc 5fbe 6b1e 15bd
00000200: 3963 c6bd 3f54 913d 8f51 0b3f 35d5 043d
00000210: 4974 e4bd f7c0 4b3c 7538 9c3c e3ad 78bc
00000220: c697 8bbd ade5 99be e5c5 61be 16d6 c9bd
00000230: 630e 22ba d843 783d 93b9 0c3e a37a 873d
00000240: 77bc 33be 5b06 02be fb22 3ebe 430e ddbd
00000250: 3ac3 25be b7b4 4fbd bdf0 87be 1b4b 1e3e
00000260: ccfd eb3e b8e2 92bc f175 1b3d a4b2 70be
00000270: 30c8 9b3b 7636 883d b015 203c 14a3 a63d
00000280: 7524 c53c 3a4f 543d 1d7b 133e e9a1 deba
00000290: db32 65bc 9de7 213c 5e11 703d ae0d fa3d
000002a0: c206 d73d bd36 323e c1ec 983e 450c c73e
000002b0: 9e5b 81be d462 903d 2581 1c3d 6ffe 59be
000002c0: 67dd c9be fb0f 3bbc c9a0 4b3d 2ceb b73b
000002d0: 833f d13b 6a43 403e f550 fbbd e489 48bc
000002e0: c970 c1bc c31b 733e 4632 2ebe 13fd ed3d
000002f0: ef15 fb3c db39 1a3e eb2d 193d 53d9 a1be
00000300: 4c7f eabb 3721 8abd 09fe b23d bb22 aa3e
00000310: cd0d 563e 4b17 1cbc e926 8cbe b462 89be
00000320: 2f01 a73c c614 283e 8507 7dbe 8021 b7bb
00000330: 20be 3dbe f453 2a3b 5a80 58bc 2551 6c3e
00000340: 5303 93bd b7d3 3a3b f7ae b43d 7af2 7ebe
00000350: 7462 55be b20d eb3d 0d37 babe 4cfc 693c
00000360: 41c2 4d3a d056 50be 461a 8dbc e56c 89bb
00000370: 31cb 983e 26a9 6b3e faf9 e03e de14 b93e
00000380: 36eb 883e 4323 12bf 322d 80be 349a debc
00000390: f29e dfbe 4753 e9be 50f6 903e 49dc 9d3e
000003a0: 086e 0e3e 34f1 883e aa9e df3e 8399 263e
000003b0: 5995 7b3e 6570 24bc 717c ef3c cf77 13be
000003c0: f19d c4bc ef0e 043c a3f9 603c 037e c33d
000003d0: cbf2 613c cd41 85bd ba0f e23d 0206 4bbc
000003e0: 664c bbbc 21fa ff3d a449 b13e b0f9 21be
000003f0: 7c8c 75bc 3d02 37bd d7a8 ba3c 7a64 1abd
0.6899047 -0.08825976 0.11507918 0.19248514 -0.12649696 -0.17505704 -0.28537923 0.2570949
-0.26871902 0.4035686 -0.025696727 0.010114128 0.10430186 -0.4182259 -0.09368019 -0.027584119
0.06608602 0.039153695 0.14053366 -0.54867494 -0.063102104 -0.067732304 -0.11703375 -0.19655149
-0.0020075662 -0.4338805 -0.4764673 -0.044240925 0.2667182 0.014575675 0.24203707 -0.1335206
-0.012518462 -0.16754645 0.13662241 0.0011018448 -0.22850922 0.0006230463 0.0015661794 -0.019774904
0.18894601 -0.016807716 -0.42532367 -0.29610956 -0.0897985 -0.10993929 -0.36504567 -0.0035644528
0.40053782 -0.025331954 -0.024640702 -0.0002720805 -0.20980155 0.013030702 0.07175718 0.034121964
0.11309702 0.3872242 -0.008577266 0.0073320284 0.20648488 0.4137751 0.03042599 0.16827376
0.013588243 0.19079544 0.15605928 -0.19257209 -0.2789273 -0.0076717264 -0.014540415 0.20618315
0.021831874 0.008744104 0.0012200613 -0.44917786 -0.35634503 0.17745787 -0.081615955 0.7272374
-0.0017002566 -0.18882209 -0.24396943 0.022612754 -0.3419587 -0.028001048 -0.46767104 -0.3629098
0.007997274 0.00028323097 0.017791249 -0.042746384 0.15628766 0.06949643 0.1385431 -0.010733286
-0.32783452 0.32528967 0.12095628 0.024304835 -0.32319322 -0.31623992 -0.056599762 0.1855572
-0.036447708 -0.029965283 0.39245355 0.43222147 0.0018742816 0.07467034 0.35512888 -0.14946365
-0.066689715 0.01450005 -0.26540884 0.029411316 -0.020253554 -0.32032 -0.10592616 -0.026875524
0.014482442 -0.01080728 0.020581843 -0.08310543 -0.16941038 -0.0013114823 -0.2185549 -0.036405962
-0.09686894 0.07096147 0.54421324 0.032429893 -0.11154992 0.012436143 0.01906989 -0.015178177
-0.06816058 -0.3005804 -0.22048147 -0.09855287 -0.00061819534 0.060611576 0.13742666 0.06615188
-0.17552362 -0.12697737 -0.18568031 -0.10793736 -0.16187754 -0.050709452 -0.26550856 0.15458338
0.4609207 -0.017930374 0.037954275 -0.23505646 0.004754089 0.066510126 0.009770796 0.081365734
0.024065236 0.05183337 0.14402433 -0.0016985509 -0.013989176 0.009881881 0.058610313 0.122096404
0.10499336 0.17403693 0.2986813 0.38876548 -0.2526521 0.070501 0.0382091 -0.21288465
-0.3942673 -0.011417384 0.049713884 0.0056127515 0.006385745 0.18775716 -0.12271301 -0.012239907
-0.02361335 0.23741059 -0.17011365 0.11620536 0.030650107 0.15061133 0.037397306 -0.31611118
-0.0071562883 -0.067446165 0.087398596 0.33229622 0.20903702 -0.009527038 -0.27373436 -0.26833117
0.020386307 0.16414174 -0.247099 -0.0055887103 -0.18529558 0.0025989981 -0.013214195 0.23077829
-0.071783684 0.002850754 0.088224344 -0.24897185 -0.20838338 0.114772215 -0.36370125 0.014281344
0.00078490755 -0.20345616 -0.017224442 -0.0041938894 0.29842523 0.23013744 0.43940717 0.36148733
0.26741952 -0.57085055 -0.2503448 -0.02717314 -0.43675953 -0.45571348 0.28312922 0.30832127
0.13909161 0.26746523 0.4367574 0.16269498 0.2456869 -0.010036563 0.029234143 -0.14401172
-0.024001094 0.008060201 0.013731393 0.09545519 0.0137907965 -0.06506691 0.11038156 -0.012391569
-0.022863578 0.1249888 0.34626496 -0.15817904 -0.014987107 -0.04467987 0.022785587 -0.03769348

classifiers.0.bias f4 [5]
00000000: 8ff7 f3be 60a5 783f 1ea6 563f 57a1 5fbf
00000010: e15c ebbe
-0.4764981 0.9712734 0.83847225 -0.8735556 -0.45969298

classifier.weight f4 [5, 84]
00000000: 989d 303f 88c1 b4bd a2ae eb3d d31a 453e
00000010: 6b88 01be 2742 33be 3a1d 92be f1a1 833e
00000020: 8a95 89be 8ba0 ce3e f181 d2bc bab5 253c
00000030: 379c d53d b521 d6be 66db bfbd 17f8 e1bc
00000040: 1b58 873d a05f 203d 0ee8 0f3e f675 0cbf
00000050: ad3b 81bd 3cb7 8abd 64af efbd cb44 49be
00000060: 5f91 03bb 9625 debe 86f3 f3be f935 35bd
00000070: 4a8f 883e d0ce 6e3c 91d8 773e a0b9 08be
00000080: 3c1a 4dbc 4c91 2bbe bfe6 0b3e c76b 903a
00000090: 52fe 69be ee53 233a 4348 cd3a fbfe a1bc
000000a0: 107b 413e 56b0 89bc 06c4 d9be ac9b 97be
000000b0: 47e8 b7bd da27 e1bd 44e7 babe 9899 69bb
000000c0: 4b13 cd3e f584 cfbc 4cdb c9bc 07a6 8eb9
000000d0: 38d6 56be ba7e 553c 6ef5 923d 79c3 0b3d
000000e0: 699f e73d 4042 c63e a987 0cbc 8341 f03b
000000f0: c670 533e 54da d33e ed3f f93c f54f 2c3e
00000100: 39a1 5e3c e15f 433e 01ce 1f3e 9e31 45be
00000110: 8fcf 8ebe 1b63 fbbb ec3a 6ebc ad21 533e
00000120: c2d8 b23c 6e43 0f3c 77ea 9f3a a4fa e5be
00000130: db72 b6be 84b7 353e 4426 a7bd 3b2c 3a3f
00000140: 25db deba 945a 41be 1fd3 79be 623e b93c
00000150: 3615 afbe 7462 e5bc 9472 efbe 50cf b9be
00000160: 0007 033c 9e7e 9439 f4be 913c d516 2fbd
00000170: df09 203e 2554 8e3d 3ede 0d3e aada 2fbc
00000180: edd9 a7be 5e8c a63e edb7 f73d ef1a c73c
00000190: 9579 a5be 33ea a1be 27d5 67bd b502 3e3e
000001a0: 314a 15bd c179 f5bc acef c83e 224c dd3e
000001b0: 74aa f53a c3ec 983d 74d3 b53e 000d 19be
000001c0: 9e94 88bd 9e91 6d3c abe3 87be 00f0 f03c
000001d0: c8ea a5bc fc00 a4be d1ef d8bd 0f2a dcbc
000001e0: c447 6d3c 0511 31bc 419b a83c 2e33 aabd
000001f0: ea79 2dbe 0be6 abba dbcc 5fbe 6b1e 15bd
00000200: 3963 c6bd 3f54 913d 8f51 0b3f 35d5 043d
00000210: 4974 e4bd f7c0 4b3c 7538 9c3c e3ad 78bc
00000220: c697 8bbd ade5 99be e5c5 61be 16d6 c9bd
00000230: 630e 22ba d843 783d 93b9 0c3e a37a 873d
00000240: 77bc 33be 5b06 02be fb22 3ebe 430e ddbd
00000250: 3ac3 25be b7b4 4fbd bdf0 87be 1b4b 1e3e
00000260: ccfd eb3e b8e2 92bc f175 1b3d a4b2 70be
00000270: 30c8 9b3b 7636 883d b015 203c 14a3 a63d
00000280: 7524 c53c 3a4f 543d 1d7b 133e e9a1 deba
00000290: db32 65bc 9de7 213c 5e11 703d ae0d fa3d
000002a0: c206 d73d bd36 323e c1ec 983e 450c c73e
000002b0: 9e5b 81be d462 903d 2581 1c3d 6ffe 59be
000002c0: 67dd c9be fb0f 3bbc c9a0 4b3d 2ceb b73b
000002d0: 833f d13b 6a43 403e f550 fbbd e489 48bc
000002e0: c970 c1bc c31b 733e 4632 2ebe 13fd ed3d
000002f0: ef15 fb3c db39 1a3e eb2d 193d 53d9 a1be
00000300: 4c7f eabb 3721 8abd 09fe b23d bb22 aa3e
00000310: cd0d 563e 4b17 1cbc e926 8cbe b462 89be
00000320: 2f01 a73c c614 283e 8507 7dbe 8021 b7bb
00000330: 20be 3dbe f453 2a3b 5a80 58bc 2551 6c3e
00000340: 5303 93bd b7d3 3a3b f7ae b43d 7af2 7ebe
00000350: 7462 55be b20d eb3d 0d37 babe 4cfc 693c
00000360: 41c2 4d3a d056 50be 461a 8dbc e56c 89bb
00000370: 31cb 983e 26a9 6b3e faf9 e03e de14 b93e
00000380: 36eb 883e 4323 12bf 322d 80be 349a debc
00000390: f29e dfbe 4753 e9be 50f6 903e 49dc 9d3e
000003a0: 086e 0e3e 34f1 883e aa9e df3e 8399 263e
000003b0: 5995 7b3e 6570 24bc 717c ef3c cf77 13be
000003c0: f19d c4bc ef0e 043c a3f9 603c 037e c33d
000003d0: cbf2 613c cd41 85bd ba0f e23d 0206 4bbc
000003e0: 664c bbbc 21fa ff3d a449 b13e b0f9 21be
000003f0: 7c8c 75bc 3d02 37bd d7a8 ba3c 7a64 1abd
0.6899047 -0.08825976 0.11507918 0.19248514 -0.12649696 -0.17505704 -0.28537923 0.2570949
-0.26871902 0.4035686 -0.025696727 0.010114128 0.10430186 -0.4182259 -0.09368019 -0.027584119
0.06608602 0.039153695 0.14053366 -0.54867494 -0.063102104 -0.067732304 -0.11703375 -0.19655149
-0.0020075662 -0.4338805 -0.4764673 -0.044240925 0.2667182 0.014575675 0.24203707 -0.1335206
-0.012518462 -0.16754645 0.13662241 0.0011018448 -0.22850922 0.0006230463 0.0015661794 -0.019774904
0.18894601 -0.016807716 -0.42532367 -0.29610956 -0.0897985 -0.10993929 -0.36504567 -0.0035644528
0.40053782 -0.025331954 -0.024640702 -0.0002720805 -0.20980155 0.013030702 0.07175718 0.034121964
0.11309702 0.3872242 -0.008577266 0.0073320284 0.20648488 0.4137751 0.03042599 0.16827376
0.013588243 0.19079544 0.15605928 -0.19257209 -0.2789273 -0.0076717264 -0.014540415 0.20618315
0.021831874 0.008744104 0.0012200613 -0.44917786 -0.35634503 0.17745787 -0.081615955 0.7272374
-0.0017002566 -0.18882209 -0.24396943 0.022612754 -0.3419587 -0.028001048 -0.46767104 -0.3629098
0.007997274 0.00028323097 0.017791249 -0.042746384 0.15628766 0.06949643 0.1385431 -0.010733286
-0.32783452 0.32528967 0.12095628 0.024304835 -0.32319322 -0.31623992 -0.056599762 0.1855572
-0.036447708 -0.029965283 0.39245355 0.43222147 0.0018742816 0.07467034 0.35512888 -0.14946365
-0.066689715 0.01450005 -0.26540884 0.029411316 -0.020253554 -0.32032 -0.10592616 -0.026875524
0.014482442 -0.01080728 0.020581843 -0.08310543 -0.16941038 -0.0013114823 -0.2185549 -0.036405962
-0.09686894 0.07096147 0.54421324 0.032429893 -0.11154992 0.012436143 0.01906989 -0.015178177
-0.06816058 -0.3005804 -0.22048147 -0.09855287 -0.00061819534 0.060611576 0.13742666 0.06615188
-0.17552362 -0.12697737 -0.18568031 -0.10793736 -0.16187754 -0.050709452 -0.26550856 0.15458338
0.4609207 -0.017930374 0.037954275 -0.23505646 0.004754089 0.066510126 0.009770796 0.081365734
0.024065236 0.05183337 0.14402433 -0.0016985509 -0.013989176 0.009881881 0.058610313 0.122096404
0.10499336 0.17403693 0.2986813 0.38876548 -0.2526521 0.070501 0.0382091 -0.21288465
-0.3942673 -0.011417384 0.049713884 0.0056127515 0.006385745 0.18775716 -0.12271301 -0.012239907
-0.02361335 0.23741059 -0.17011365 0.11620536 0.030650107 0.15061133 0.037397306 -0.31611118
-0.0071562883 -0.067446165 0.087398596 0.33229622 0.20903702 -0.009527038 -0.27373436 -0.26833117
0.020386307 0.16414174 -0.247099 -0.0055887103 -0.18529558 0.0025989981 -0.013214195 0.23077829
-0.071783684 0.002850754 0.088224344 -0.24897185 -0.20838338 0.114772215 -0.36370125 0.014281344
0.00078490755 -0.20345616 -0.017224442 -0.0041938894 0.29842523 0.23013744 0.43940717 0.36148733
0.26741952 -0.57085055 -0.2503448 -0.02717314 -0.43675953 -0.45571348 0.28312922 0.30832127
0.13909161 0.26746523 0.4367574 0.16269498 0.2456869 -0.010036563 0.029234143 -0.14401172
-0.024001094 0.008060201 0.013731393 0.09545519 0.0137907965 -0.06506691 0.11038156 -0.012391569
-0.022863578 0.1249888 0.34626496 -0.15817904 -0.014987107 -0.04467987 0.022785587 -0.03769348

classifier.bias f4 [5]
00000000: 8ff7 f3be 60a5 783f 1ea6 563f 57a1 5fbf
00000010: e15c ebbe
-0.4764981 0.9712734 0.83847225 -0.8735556 -0.45969298

features.9 f4 [120]
00000000: 2777 70bc 1862 29bb 86d2 703e 1a30 4d3e
00000010: 58ac 26bd c419 bfbb abbf 19bb d50b 8e3d
00000020: 1a15 ea3b 80d9 b3bb ae68 0fbc edc6 c7bd
00000030: f751 9c3c 754a 173c e585 bd3d 3aaa 843c
00000040: 682f bd3d 3492 47bc b9bd 89bd 57d5 193d
00000050: 0f76 623c f4d0 993d 2332 dbbc 2326 25bd
00000060: c1c3 5d3d e139 14bd b00c 7f3d 9214 abbc
00000070: 2121 e13d 59e1 083d 22df 403d f5cb a83b
00000080: 4c23 463b c643 25bb 1c12 8b3c 898a 3a3c
00000090: eda6 c3bc 4e99 84bc 0e39 c8ba fa7f 8a3c
000000a0: ace5 853c 3588 b3bb c299 193d af9c a5bc
000000b0: 72be aa3d 5f25 133d 7b91 a33c 2a06 5b3d
000000c0: f176 8b3c d243 f93d de59 b3bb 1108 aebc
000000d0: 9b52 ad3d 3d37 003d 2d61 fa3b bff1 31bc
000000e0: 865b a33c b75d 683b b657 f43c c584 a63c
000000f0: 0249 d3bc e8d0 02bc 22a0 ff3c d32e 653c
00000100: 0549 e9bb f24b b6bb f5c6 debb e684 c83c
00000110: 093e abbd 4c7c 923d c883 b53c a919 2ebd
00000120: f3fb 1e3d 3a30 99ba 1491 da3b 7bec b93d
00000130: 0bcb a93d dbe5 e63c 2fe6 033c fa93 0abd
00000140: d784 abbc 41b9 a0bb 3535 863d 124b ecbc
00000150: 3709 adbc 9916 eabc aea4 e23d 045c b53c
00000160: 4df1 a2bd f785 ee3d 384a 0cbc 164a b93c
00000170: cc8c 83bd bee4 e7bc c5b0 8c3d 8a00 0b3e
00000180: f3d9 f93c cf1b 083e a938 8d3c 1977 ae3b
00000190: bbf3 84bb 080b 77bd 7b78 863c 17b1 a43c
000001a0: 6573 a63d 8f82 803c ddab 493c 79df 3c3e
000001b0: cd43 d73c e8d0 983d bce7 6a3c 3da6 1a3d
000001c0: 4778 823d 4062 f8bc a61a 51bd 364e 84bb
000001d0: 6beb f4bc a1a3 7b3c 339f 9dbc e171 7ebd
-0.014676846 -0.0025845822 0.23517808 0.2003788 -0.040691704 -0.005831929 -0.002346019 0.069358505
0.007143629 -0.0054885745 -0.008752985 -0.09754739 0.019082053 0.0092340605 0.09254054 0.016194452
0.09237558 -0.012180854 -0.0672564 0.037556972 0.013822093 0.07510558 -0.026757305 -0.040319573
0.054141764 -0.03618801 0.06226796 -0.020883832 0.10992647 0.033418033 0.047087796 0.0051512667
0.003023344 -0.0025217398 0.016976409 0.011385568 -0.023883307 -0.016186383 -0.0015275793 0.016906727
0.016344868 -0.0054788836 0.03750015 -0.020216314 0.08337106 0.03592431 0.019966831 0.053472675
0.01702449 0.12171139 -0.0054733595 -0.02124408 0.08463021 0.03130268 0.007640979 -0.010860859
0.019941103 0.003545625 0.02982698 0.020326981 -0.025791649 -0.007984377 0.031204287 0.013988215
-0.0071193003 -0.0055632526 -0.00679862 0.024477433 -0.08361442 0.07152614 0.022157565 -0.04250494
0.038814496 -0.0011687346 0.0066701267 0.09078308 0.082906805 0.028185776 0.0080504855 -0.033832528
-0.020937366 -0.0049048965 0.06553117 -0.02884439 -0.021122558 -0.028575229 0.110665664 0.022138603
-0.07956181 0.116466455 -0.008562617 0.022618335 -0.06423339 -0.028307315 0.068696536 0.13574424
0.030499434 0.13291858 0.017238932 0.005324256 -0.0040573752 -0.060313255 0.016414871 0.020103974
0.081274785 0.015687255 0.012309042 0.18444623 0.026277447 0.07461721 0.014337476 0.037756193
0.06370597 -0.030320287 -0.051050805 -0.004037644 -0.029897412 0.015358836 -0.019240951 -0.062120322

features.11 f4 [84]
00000000: 547a 823e 1b27 8e3d 4387 393e 6b00 943e
00000010: dbb7 d8bd 34e6 9a3d a51c d13d ab8d 713c
00000020: b63b 7f3d e705 ef3d 6f7b 713d 8ad1 7aba
00000030: 7481 353d 8643 3c3e 60b9 aa3c f8a8 593c
00000040: 0b91 e7bc c97a 1b3e def9 26bb cae7 553e
00000050: 23ea f83c 21f6 833d 6ba4 013e 0f35 c53d
00000060: 91d6 cfbb 8292 56bd 5a46 493e 085c 673e
00000070: ac44 4e3e 93e6 b539 7dfc 77bd ac0e b43c
00000080: 1702 b23b 5baf 983c 9dfd c4bc e922 5fbb
00000090: 98cd c73d 9587 38bb d655 81b9 7525 ed3d
000000a0: 6285 47bb 752c 8dbb 9019 d03d 811d 2a3d
000000b0: 48b5 32bd a9c0 103e 4136 cf3d ff7d 923c
000000c0: 3daf 7d3d 6a39 59bd 5096 443b 20c5 b0bb
000000d0: 19ae 383e 3705 0d3e f9cd 8a3e 08a9 6b3e
000000e0: f943 633e 1db8 ccbb 766e 723c 5915 983c
000000f0: 0475 3db7 09fb c23b 8685 2d3e 6426 783e
00000100: 3c9a 923d 3885 653e d91f 963e f64f b03d
00000110: d9fb ac3e 91f4 943a e206 bd3b 80b2 a1bc
00000120: c870 2dbb 3ec1 dd3c 6699 29bb ecaa 163e
00000130: 3bbe b7bc 47c4 ee3c 35e3 b13d f140 273e
00000140: 4bef 49bb cfd5 653d 7994 3d3e 81bf 843c
0.25483954 0.069410525 0.18118005 0.2890657 -0.10581943 0.07563439 0.10210542 0.014743249
0.062312804 0.11671048 0.058955606 -0.0009567967 0.04431291 0.18385133 0.020840347 0.013284914
-0.028267404 0.15183558 -0.0025478522 0.20889202 0.030385083 0.0644343 0.12660377 0.09629261
-0.006342717 -0.052385814 0.19655743 0.22593701 0.20143384 0.000346948 -0.060543526 0.021979652
0.005432378 0.018638304 -0.024046713 -0.0034047908 0.09756011 -0.0028156985 -0.0002466875 0.1157941
-0.0030444493 -0.004308278 0.10161126 0.041532043 -0.043629915 0.14135994 0.1011777 0.017882345
0.0619347 -0.05303327 0.002999682 -0.005394593 0.18035163 0.1377152 0.2711027 0.23013699
0.22193898 -0.006247534 0.014796844 0.018564867 -1.1292523e-05 0.005950336 0.16945466 0.24233395
0.07158324 0.224141 0.29321173 0.08609001 0.33785895 0.001136439 0.0057686428 -0.019738436
-0.0026464928 0.027069684 -0.0025878786 0.14713639 -0.022429576 0.029146327 0.086859144 0.16333367
-0.0030812796 0.056112107 0.18513669 0.016204597

features.1 f4 [6]
00000000: 9e2d aabc 9683 fcbd 5cb9 963d 0b64 2ebd
00000010: 20cf cc3d fbfd 8b3e
-0.020773705 -0.123297855 0.07359573 -0.042575877 0.100004435 0.2734221

features.5 f4 [16]
00000000: 92cc 8cbf 9084 38bf 99d5 14bf b4c9 e7bf
00000010: da81 5abf 4c2b 51bf 53c2 d53f 8b94 2f3f
00000020: 588e 9abf 3dbf 05bd a718 e1be fb47 56bf
00000030: 3315 04bf e210 a43f 2d2e 02bf a3fc 0bc0
-1.099993 -0.72077274 -0.58138424 -1.810843 -0.8535439 -0.8170669 1.6699928 0.68586034
-1.207469 -0.032653082 -0.4396412 -0.83703583 -0.5159485 1.2817652 -0.5085171 -2.1872947

features.1 f4 [6]
00000000: 2b1b de40 0ac0 7a40 c39f 9441 6ec3 8341
00000010: b6da d840 fb97 3341
6.9408164 3.9179711 18.578009 16.470425 6.776698 11.224605

features.5 f4 [16]
00000000: 42d3 853f 8f34 913f 1233 883f c3f1 1440
00000010: ba0c 0f40 0ba8 fa3f 2bc2 993f a562 a03f
00000020: 0148 9b3f c15d 9a3f d970 963f 50f3 f33f
00000030: e306 8c3f ebf1 8b3f 764b 473f 8aa3 fe3f
1.0455096 1.1344165 1.0640585 2.327256 2.2351518 1.9582533 1.201238 1.2530104
1.2131349 1.2059861 1.1753188 1.9058628 1.0939602 1.0933203 0.7784952 1.9893658

features.1 f4 [6]
00000000: 0748 813f 777b 243f dbbb 793f 7c92 923f
00000010: b479 bc3f def3 bc3f
1.0100106 0.6425089 0.9755227 1.1450953 1.4724641 1.4761922

features.5 f4 [16]
00000000: 558c 863f 33ec c33f 9166 d93f 9c72 c33f
00000010: 11ed b83f ff8f b03f a897 903f cf08 8e3f
00000020: 8233 b23f 0b42 9f3f cf09 903f 7831 af3f
00000030: fe94 a73f afdd 983f 98d8 a23f 23a5 a63f
1.0511576 1.5306457 1.6984426 1.5269351 1.4447347 1.3793944 1.1296282 1.1096438
1.3921969 1.244203 1.1252993 1.3686972 1.3092344 1.1942652 1.2722349 1.3019146

features.1 f4 [6]
00000000: 11e9 fd3c c950 193e 7cce a13e e1d7 b03c
00000010: 17cc e2bc 093f ab3d
0.030994924 0.14972223 0.31602848 0.021587314 -0.027685208 0.083616324

features.5 f4 [16]
00000000: 8b71 25be 1e80 40bf c977 fcbe f1ab 5bbe
00000010: b196 00bf 8aef f2be b52f 4abe 867a 86be
00000020: 8ab4 4ebe 4f4c 2cbe d696 063c 52ce d4be
00000030: 7198 d5be a998 b2be 07c2 bebe 31e4 e6bd
-0.16156594 -0.7519549 -0.4931014 -0.21452309 -0.50229937 -0.4744838 -0.19744761 -0.26265353
-0.20186058 -0.16825984 0.008214673 -0.4156366 -0.41717866 -0.34882095 -0.37257406 -0.11273993
