checkpoints_lenet5/baseline_scratch/lenet5/insects/checkpoint-100.pth.tar (torch, 312213 bytes, 12 tensors)

features.0.weight f4 [6, 3, 5, 5]
-0.31497967 -0.008332373 0.18260713 0.48064244 0.56321144 -0.36205897 -0.2727712 -0.1947967
0.19777668 0.50292957 -0.10474339 -0.50380355 -0.14915068 -0.24574816 0.20419657 0.0086285
-0.02166773 -0.44305232 -0.0518837 0.027115809 0.18561557 0.2559887 0.12050651 -0.119764805
-0.064630866 0.20889999 0.25436223 0.101693235 0.25754952 0.4777563 -0.22915037 -0.24174413
-0.1241651 -0.15418352 0.22315104 0.093764365 -0.21719854 -0.6895345 -0.40705138 0.12013721
0.31865102 0.0085602505 -0.3606257 -0.4794321 -0.05250044 0.14330634 0.38246363 0.1268364
-0.13242432 -0.08154845 -0.021815939 -0.09723188 0.03232825 0.25155917 0.39286768 -0.1323011
-0.32145664 -0.35257047 -0.12710859 0.29509723 0.041525766 -0.1723085 -0.36990255 -0.13705419
-0.15824333 -0.037354074 0.034986556 -0.08593554 -0.45241794 -0.1613527 0.38813317 0.48976535
0.32423595 0.072886184 -0.2835242 -0.0366137 0.013179843 -0.050712362 -0.01973402 0.049230423
0.051791817 0.22320104 0.15719624 -0.08265009 -0.013859175 0.08533936 0.06596013 0.27196026
0.24570689 -0.015267519 0.0020750149 0.21539403 -0.012139628 0.17874615 -0.0027037621 0.19066964
0.31227797 0.1756797 0.20171595 -0.06702503 -0.0063578035 0.006056421 0.1151705 -0.081522755
-0.0030848528 0.26555294 -0.2668928 0.12889445 0.09290193 -0.07597216 0.04740234 0.10366947
-0.13230197 -0.028719073 0.23544243 0.12325104 -0.04063328 0.035632186 0.003698958 0.15053101
-0.16778056 -0.048135698 0.05951713 0.061742686 0.025441991 0.13336085 -0.104163304 0.104834706
-0.010519158 0.26120558 -0.13754849 -0.0341437 -0.05890035 -0.19528507 -0.12379192 -0.17497508
-0.24329905 -0.28878665 -0.29268804 -0.044820987 -0.24724862 -0.30953932 -0.500355 -0.37830868
-0.36219555 -0.043857463 -0.45393524 -0.4082088 -0.016679749 -0.32524854 -0.007951524 0.05925512
0.12703234 0.28809345 0.15157685 0.03062319 0.1557465 0.27335444 0.052426513 -0.023733726
0.10916921 0.23637104 0.09026514 -0.10826393 -0.048678007 0.17671941 -0.019423604 0.06986921
0.16050385 -0.038292646 0.015387019 0.08484982 0.21836407 -0.011323409 0.28529206 -0.09188439
0.13286276 -0.14028478 -0.04538466 -0.34773982 0.10148185 -0.008363134 -0.12754917 -0.18630373
-0.31393847 0.094746105 0.0028974044 -0.4477849 -0.56572634 -0.41791394 0.032647807 -0.17129074
-0.4027392 -0.48674214 -0.4332415 -0.13379958 -0.009035855 -0.22040315 -0.3203936 -0.0075628357
0.027601343 0.18554163 0.52911353 0.35466808 0.33430862 0.25995812 0.36136824 0.37768766
0.0027307787 0.027311074 0.0812843 -0.103744484 -0.2318673 -0.27377206 -0.26300424 0.09323255
-0.035898082 -0.24286793 -0.12925382 -0.11780692 -0.043956812 0.1132583 -0.18778326 -0.0010221169
0.054028213 0.06803922 -0.22061089 -0.5705187 -0.09882672 0.5249478 -0.003871961 -0.3435828
-0.16611183 0.123809025 0.35808322 0.004909875 -0.306173 -0.29732192 0.1992035 0.44804847
-0.056870833 -0.3470161 -0.17161101 0.36698118 0.60025585 -0.0050473744 -0.13676375 0.17207317
0.51755035 0.46286675 0.08712721 -0.2466454 -0.6100835 -0.025260527 0.25309008 0.15508507
00000000: 0445 a1be 8184 08bc 5dfd 3a3e c416 f63e
00000010: a02e 103f cb5f b9be aba8 8bbe c978 47be
00000020: f885 4a3e febf 003f b483 d6bd 45f9 00bf
00000030: f5ba 18be 68a5 7bbe e818 513e 8d5e 0d3c
00000040: 8680 b1bc c1d7 e2be 0184 54bd f921 de3c
00000050: 0212 3e3e f310 833e 1ecc f63d 4047 f5bd
00000060: 305d 84bd e1e9 553e c43b 823e 8b44 d03d
00000070: 88dd 833e 799c f43e 65a6 6abe c68b 77be
00000080: 464a febd 49e2 1dbe b581 643e 8807 c03d
00000090: 4b69 5ebe 5585 30bf 0a69 d0be 7f0a f63d
000000a0: 3a26 a33e 4b40 0c3c efa3 b8be 2078 f5be
000000b0: b40a 57bd e6be 123e 46d2 c33e 67e1 013e
000000c0: 3e9a 07be e002 a7bd 57b7 b2bc 8221 c7bd
000000d0: a16a 043d 5dcc 803e f425 c93e f179 07be
000000e0: f795 a4be 1e84 b4be c128 02be fc16 973e
000000f0: ec16 2a3d a471 30be de63 bdbe ef57 0cbe
00000100: 8a0a 22be 9600 19bd 104e 0f3d f9fe afbd
00000110: 53a3 e7be a439 25be 64b9 c63e 86c2 fa3e
00000120: 4102 a63e 5a45 953d 152a 91be 3ff8 15bd
00000130: 45f0 573c c4b7 4fbd 3da9 a1bc d7a5 493d
00000140: a823 543d d08e 643e 0df8 203e 7344 a9bd
00000150: 9811 63bc 67c6 ae3d 1b16 873d 603e 8b3e
00000160: 969a 7b3e 9e24 7abc f9fc 073b 4190 5c3e
00000170: 4ae5 46bc 3b09 373e 9a31 31bb e73e 433e
00000180: e6e2 9f3e 61e5 333e a08e 4e3e 6b44 89bd
00000190: 1f55 d0bb f174 c63b 83de eb3d 67f5 a6bd
000001a0: 3e2b 4abb 8ef6 873e 2ca6 88be e8fc 033e
000001b0: 5e43 be3d 4b97 9bbd f528 423d a950 d43d
000001c0: 2b7a 07be 4344 ebbc d217 713e 0b6b fc3d
000001d0: 156f 26bd 0ef3 113d 386a 723b cd24 1a3e
000001e0: abce 2bbe f029 45bd 3cc8 733d e6e5 7c3d
000001f0: b96b d03c bf8f 083e 9253 d5bd 94b3 d63d
00000200: 8c58 2cbc bdbc 853e 83d9 0cbe 44da 0bbd
00000210: 7e41 71bd cff8 47be 9e86 fdbd ab2c 33be
00000220: 6323 79be d8db 93be 35db 95be 3696 37bd
00000230: be2e 7dbe f07b 9ebe 4417 00bf adb1 c1be
00000240: b271 b9be e2a3 33bd 336a e8be be00 d1be
00000250: f8a3 88bc fa86 a6be 1c47 02bc 7fb5 723d
00000260: c414 023e fc80 933e f636 1b3e 7cdd fa3c
00000270: 037c 1f3e 1df5 8b3e 2fbd 563d 3b6d c2bc
00000280: 1b94 df3d 400b 723e eedc b83d 7bb9 ddbd
00000290: 9762 47bd eff5 343e 401e 9fbc 9717 8f3d
000002a0: 1f5b 243e c0d8 1cbd d619 7c3c bec5 ad3d
000002b0: d59a 5f3e d285 39bc cd11 923e e22d bcbd
000002c0: 2d0d 083e d0a6 0fbe 44e5 39bd f40a b2be
000002d0: b7d5 cf3d 8705 09bc 409c 02be 68c6 3ebe
000002e0: 8bbc a0be 3f0a c23d 61e2 3d3b 1044 e5be
000002f0: 71d3 10bf d1f8 d5be b5b9 053d d766 2fbe
00000300: d533 cebe 4436 f9be d4d1 ddbe c202 09be
00000310: 1f0b 14bc 5db1 61be a10a a4be aad1 f7bb
00000320: 361c e23c a0fe 3d3e fc73 073f 0e97 b53e
00000330: 802a ab3e 3b19 853e 4205 b93e 4760 c13e
00000340: ddf6 323b 79bb df3c 6278 a63d fd77 d4bd
00000350: 9f6e 6dbe da2b 8cbe 7ea8 86be b5f0 be3d
00000360: de09 13bd 5fb2 78be 1d5b 04be c144 f1bd
00000370: 0f0c 34bd f8f3 e73d 414a 40be 8df8 85ba
00000380: b04c 5d3d 2658 8b3d d2e7 61be 830d 12bf
00000390: aa65 cabd fb62 063f bac0 7dbb 16ea afbe
000003a0: 3819 2abe 968f fd3d af56 b73e 04e3 a03b
000003b0: b5c2 9cbe 943a 98be 01fc 4b3e 9c66 e53e
000003c0: 64f1 68bd 18ac b1be ccba 2fbe f5e4 bb3e
000003d0: 5eaa 193f 7264 a5bb cc0b 0cbe f333 303e
000003e0: 2e7e 043f dffc ec3e c06f b23d 9d90 7cbe
000003f0: 6f2e 1cbf 2aef cebc 0695 813e 9fce 1e3e

features.3.weight f4 [16, 6, 5, 5]
-0.19631651 -0.035688266 -0.03886102 -0.033734884 0.122714154 -0.12531304 -0.12975217 -0.13842452
-0.1814764 0.10388616 -0.16833097 -0.12137584 -0.19437774 -0.21291848 0.059074268 -0.046972487
-0.067320175 -0.026867481 -0.058412522 -0.13075 -0.10819238 0.022762291 -0.15398489 -0.27899584
-0.045166135 -0.093404874 -0.116760194 0.06377665 0.097529516 0.16200131 0.07229443 0.030136792
0.051497888 0.0867538 0.045988586 -0.08775802 -0.023436463 0.11462358 0.043533042 0.08702441
-0.16135275 -0.11976777 -0.2213995 0.0035535812 -0.08017181 -0.07240216 -0.069647774 -0.009609694
0.11309944 -0.050466046 -0.18907379 -0.12778814 -0.081704676 -0.065517396 -0.08361453 -0.27705818
-0.14386562 -0.085271545 -0.05310289 -0.13837357 -0.26179287 -0.2548267 -0.11584124 -0.06735134
0.00049600244 -0.16003011 -0.10206689 -0.14214775 0.0963758 0.15168457 -0.024323193 -0.09649452
0.1091819 0.15562573 0.15753087 -0.06790593 0.09748778 -0.038957316 -0.26323444 -0.086890236
-0.080906205 0.06253587 0.101947285 -0.16652578 0.0033908759 0.07338572 0.08824211 0.07702076
-0.07518188 -0.1595993 0.0995209 0.17807755 0.25062272 -0.1322464 -0.03409826 0.06617819
0.02099221 0.0017779163 -0.16971922 -0.03353095 -0.111121476 -0.089342766 0.062978975 -0.10080268
-0.16421016 -0.057487953 -0.079619184 -0.031472567 0.025531683 -0.23044777 -0.11622478 -0.12051646
-0.036992908 0.12494706 -0.048083536 -0.13018681 -0.0014003513 -0.22631386 0.027450373 -0.082730606
-0.0028660605 -0.1499544 -0.12497447 -0.09832948 -0.095186144 -0.16001257 -0.20729277 -0.16945633
-0.09892671 -0.021716436 -0.088138215 -0.18089643 -0.26168603 -0.19259106 -0.14119776 0.13758531
0.07691456 -0.09470343 -0.020953234 -0.08408451 0.26844966 0.19633324 0.013800408 -0.0047364486
-0.0043475293 0.29621908 0.39708552 0.18870836 0.041614287 -0.0013550753 -0.013766459 -0.21234198
-0.1528526 0.030688867 0.022578564 0.31416103 -0.098181896 -0.13676701 -0.0422357 -0.03870145
0.25379857 0.16340199 -0.1746072 0.0182216 0.070082955 0.37666473 0.26072615 -0.0035281612
0.00918609 -0.01778496 0.0905394 0.23976332 -0.008666535 -0.060733393 0.007107071 -0.13797764
0.030381832 -0.29612604 -0.22625217 -0.3298334 -0.083547525 -0.06115174 0.0019019387 -0.22783667
-0.2831543 0.01794407 0.3391652 0.23641479 0.05257537 -0.0009416897 0.11315095 0.3326632
0.41203207 0.22014312 0.18149476 -0.2626622 0.21509327 0.32320863 0.22315982 0.25771168
-0.09880652 -0.17164856 0.06854433 0.011221315 0.018703384 -0.06723862 -0.14070822 0.09694319
-0.04096795 -0.15612501 0.05365568 -0.15526782 -0.083872125 -0.037964877 -0.010829218 -0.112924054
-0.12528224 -0.02683977 -0.0359766 -0.0016924863 -0.14108974 -0.14636254 -0.18127051 0.05489403
-0.042282548 -0.21213092 -0.05173025 -0.17646722 0.024666762 0.0033861778 -0.058777675 -0.116735116
-0.1838128 0.04493395 0.016299803 0.20109731 0.057634294 -0.3593129 -0.011237915 0.105116524
-0.030492652 0.086841285 -0.072602674 -0.06543104 0.056834027 -0.11790545 -0.0056003574 -0.1946204
-0.075612694 0.030629909 -0.08267756 -0.16206202 0.11575335 0.098581605 0.10804701 -0.19368742
00000000: 3207 49be dc2d 12bd bc2c 1fbd 972d 0abd
00000010: 8f51 fb3d 1052 00be c1dd 04be 28bf 0dbe
00000020: f3d4 39be 44c2 d43d f45e 2cbe e593 f8bd
00000030: f50a 47be 4d07 5abe dcf7 713d 3966 40bd
00000040: 29df 89bd 3119 dcbc f841 6fbd 54e3 05be
00000050: f793 ddbd fc77 ba3c 37ae 1dbe 8bd8 8ebe
00000060: 2000 39bd 0e4b bfbd f81f efbd 559d 823d
00000070: 8ebd c73d ace3 253e 1a0f 943d 6fe1 f63c
00000080: 73ef 523d faab b13d 875e 3c3d 7aba b3bd
00000090: d3fd bfbc c4bf ea3d b44f 323d db39 b23d
000000a0: a839 25be ce48 f5bd 8db6 62be 33e3 683b
000000b0: 1e31 a4bd 9547 94bd 7ea3 8ebd fa71 1dbc
000000c0: aea0 e73d 7cb5 4ebd 8f9c 41be e5da 02be
000000d0: c854 a7bd fc2d 86bd 183e abbd 92da 8dbe
000000e0: 8251 13be d9a2 aebd 6a82 59bd cdb1 0dbe
000000f0: b709 86be a578 82be 2c3e edbd 80ef 89bd
00000100: 2906 023a efde 23be 7208 d1bd 2e8f 11be
00000110: ad60 c53d 3353 1b3e 6f41 c7bc eb9e c5bd
00000120: c39a df3d 5a5c 1f3e c64f 213e 4412 8bbd
00000130: aca7 c73d b591 1fbd aac6 86be 82f3 b1bd
00000140: 27b2 a5bd ce12 803d bdc9 d03d bc85 2abe
00000150: 7539 5e3b 414b 963d 48b8 b43d 0fbd 9d3d
00000160: f5f8 99bd 006e 23be 9dd1 cb3d f659 363e
00000170: 9f51 803e 9a6b 07be 9eaa 0bbd 6e88 873d
00000180: dbf7 ab3c f908 e93a e0ca 2dbe c057 09bd
00000190: a893 e3bd 57f9 b6bd 1ffb 803d a371 cebd
000001a0: b526 28be 7d78 6bbd 620f a3bd 61e9 00bd
000001b0: d227 d13c 80fa 6bbe 4207 eebd 55d1 f6bd
000001c0: e085 17bd 3fe4 ff3d 3ef3 44bd b14f 05be
000001d0: fe8b b7ba d2be 67be 9bdf e03c aa6e a9bd
000001e0: 84d4 3bbb a58d 19be 9df2 ffbd f760 c9bd
000001f0: f4f0 c2bd 56da 23be 8e44 54be f685 2dbe
00000200: 169a cabd abe6 b1bc cf81 b4bd ea3c 39be
00000210: b6fb 85be 9736 45be 2596 10be 2ae3 0c3e
00000220: 6185 9d3d dff3 c1bd 1ea6 abbc 8034 acbd
00000230: 3c72 893e 950b 493e 1b1b 623c 3634 9bbb
00000240: b875 8ebb 07aa 973e cb4e cb3e c43c 413e
00000250: be73 2a3d c89c b1ba b78c 61bc 2d70 59be
00000260: 6485 1cbe 3867 fb3c aef6 b83c b7d9 a03e
00000270: 9713 c9bd a70c 0cbe 57ff 2cbd 6985 1ebd
00000280: e3f1 813e da52 273e 3bcc 32be 7745 953c
00000290: a787 8f3d 33da c03e e67d 853e b938 67bb
000002a0: 4181 163c c4b1 91bc b96c b93d 8484 753e
000002b0: 15fe 0dbc 94c3 78bd 6fe2 e83b 034a 0dbe
000002c0: 52e3 f83c d59d 97be a6ae 67be ecdf a8be
000002d0: f71a abbd 3f7a 7abd 794a f93a 044e 69be
000002e0: 9af9 90be 71ff 923c 10a7 ad3e b816 723e
000002f0: 4559 573d badb 76ba afbb e73d d552 aa3e
00000300: def5 d23e 336d 613e c3d9 393e a97b 86be
00000310: 6941 5c3e 9a7b a53e 0284 643e c9f2 833e
00000320: 135b cabd a4c4 2fbe f860 8c3d 9bd9 373c
00000330: d737 993c 67b4 89bd d115 10be 278a c63d
00000340: 02ce 27bd 3cdf 1fbe 0fc6 5b3d 87fe 1ebe
00000350: 26c5 abbd 0f81 1bbd 086d 31bc ba44 e7bd
00000360: fd49 00be 14df dbbc 335c 13bd 6bd6 ddba
00000370: d479 10be 10e0 15be fa9e 39be 90d8 603d
00000380: 7730 2dbd d938 59be 19e3 53bd d3b3 34be
00000390: f311 ca3c a3ea 5d3b dcc0 70bd d212 efbd
000003a0: 6c39 3cbe a90c 383d 2a87 853c 74ec 4d3e
000003b0: f011 6c3d dcf7 b7be 3b1f 38bc 5547 d73d
000003c0: bacb f9bc d8d9 b13d b6b0 94bd b600 86bd
000003d0: ccca 683d 6a78 f1bd 3483 b7bb 924a 47be
000003e0: d4da 9abd 93eb fa3c da52 a9bd 96f3 25be
000003f0: 1810 ed3d 27e5 c93d c047 dd3d ff55 46be

features.7.weight f4 [120, 400]
0.040918037 -0.02098187 0.002223512 0.012332604 0.032904573 0.052496925 0.023079451 0.024789464
0.015183975 0.02971799 -0.0013147747 -0.028529566 -0.04027255 -0.006864099 -0.004948064 -0.047004215
-0.034962554 -0.029194927 -0.016360004 -0.04934778 -0.033641033 -0.029998837 -0.01789279 -0.025079284
-0.020913076 -0.058045104 -0.0036172145 -0.06095002 -0.058072668 -0.09346964 -0.0026676124 0.027117426
0.016991451 0.013973317 -0.056394964 0.01229977 0.014337012 0.029590953 0.08329772 0.024147991
0.042890526 0.027073601 0.034610383 0.031641435 0.0040827845 0.04526547 0.046987493 0.011150313
0.00614755 -0.029306278 -0.063849546 -0.009890544 -0.033663344 -0.008791592 0.03765538 -0.062630795
-0.028635733 -0.024112688 -0.014637518 -0.0070674834 -0.021189826 -0.02205237 -0.036888592 -0.041309733
-0.014018305 -0.009598856 -0.013469992 -0.022907678 -0.01730729 -0.0048924987 0.0020777253 -0.025116075
-0.0074519687 0.01083233 0.051225558 -0.0030976187 0.02952777 0.05322331 0.031118179 -0.055374507
-0.013991656 0.055443928 0.046492927 0.047993775 0.0029044242 0.043875832 0.05962524 0.033458173
0.011752214 -0.0005166184 0.019950774 -0.060573194 -0.04967581 -0.025055446 -0.013638873 0.013855927
-0.037137575 -0.03719748 0.0016612811 -0.022341391 -0.016380101 0.02987517 0.019518074 0.052676633
0.011708422 -0.02792673 -0.016081901 0.025246743 0.037885733 -0.02263285 -0.0263564 -0.010527009
0.0050858934 -0.0007793356 -0.03507694 -0.007915017 -0.040619813 -0.015346715 -0.016524505 -0.030603603
0.024502879 0.005624257 0.011253685 -0.0069743083 0.011352061 -0.036873095 -0.014330528 0.01315399
0.008392214 -0.01882685 -0.027620604 -0.056227986 -0.03829362 -0.051284373 -0.029287439 0.006567212
-0.037782356 -0.030380953 -0.043846145 -0.035051104 -0.018230129 -0.04121166 -0.060680307 -0.08381726
-0.07145987 -0.061828792 -0.09881422 -0.054741148 -0.06967107 -0.08707632 -0.019129567 -0.011654173
-0.004923503 0.0034529374 0.004729361 -0.040163156 0.026402144 -0.003893357 0.028631287 0.03681523
-0.02218713 -0.036957968 0.021854134 0.009267898 0.00940174 -0.021361085 -0.036007036 -0.0015002126
-0.009850509 -0.01414405 0.0009833502 -0.0052865213 -0.012141948 -0.015722102 0.021007944 -0.01693012
-0.026117992 -0.011472251 -0.10495228 -0.09970467 0.025547773 0.002176453 0.069686495 -0.032884914
-0.041763056 -0.0025738885 0.009275366 0.014137486 0.026529813 0.07348058 0.0016153068 -0.030878363
-0.07973238 -0.06425244 0.04244337 -0.011717929 -0.016774137 -0.029361513 -0.050276723 -0.055894174
-0.0074656405 -0.018918011 -0.019760167 0.02150114 0.012489964 0.026427064 -0.0056906384 0.0034943921
0.028772138 0.021018745 0.01943752 -0.006881744 -0.0035210296 0.017731423 0.013327613 0.0049047237
0.0065344675 0.00603309 0.036829833 0.01189657 -0.0060036085 -0.0053203185 0.07140946 0.079771794
0.029798586 0.02298139 0.039287012 -0.06531241 -0.089274764 -0.021656122 -0.015990725 -0.040298514
-0.06379916 -0.047682583 -0.02857947 -0.086559586 -0.048878793 -0.048337582 -0.04736286 -0.039128896
-0.043843802 -0.061599284 -0.06521822 -0.041131746 0.007980276 0.054183654 -0.015312512 -0.0607117
0.0025430138 0.053578634 -0.0650194 -0.0062591876 -0.055270642 -0.013306525 -0.011382234 -0.031876598
00000000: ac99 273d 2ce2 abbc 57b8 113b b10e 4a3c
00000010: f2c6 063d 0407 573d 1e11 bd3c 4613 cb3c
00000020: 35c6 783c 2473 f33c 8554 acba d6b6 e9bc
00000030: d4f4 24bd 3cec e0bb 5f23 a2bb 7e87 40bd
00000040: e534 0fbd 332a efbc 6a05 86bc e620 4abd
00000050: 2ecb 09bd 1fc0 f5bc e693 92bc 1273 cdbc
00000060: e651 abbc b4c0 6dbd ca0e 6dbb baa6 79bd
00000070: 9bdd 6dbd 036d bfbd 1cd3 2ebb 5d25 de3c
00000080: a831 8b3c 57f0 643c 68fe 66bd f984 493c
00000090: c9e5 6a3c ba68 f23c ff97 aa3d 02d2 c53c
000000a0: faad 2f3d 75c9 dd3c 9ec3 0d3d 739a 013d
000000b0: e1c8 853b 4968 393d f575 403d cdaf 363c
000000c0: 6371 c93b b813 f0bc 8dc3 82bd f30b 22bc
000000d0: 93e2 09bd 9c0a 10bc 873c 1a3d 9344 80bd
000000e0: 7c95 eabc f987 c5bc 33d2 6fbc 5996 e7bb
000000f0: 4996 adbc 2ca7 b4bc 7e18 17bd 6534 29bd
00000100: 08ad 65bc 8544 1dbc 3eb1 5cbc e2a8 bbbc
00000110: 05c8 8dbc 4151 a0bb 722a 083b 3ac0 cdbc
00000120: a52f f4bb 167a 313c e4d1 513d 6b01 4bbb
00000130: 39e4 f13c af00 5a3d 8deb fe3c 61d0 62bd
00000140: 423d 65bc 2c19 633d 5e6f 3e3d 1f95 443d
00000150: 2758 3e3b 25b7 333d 9839 743d 700b 093d
00000160: 5c8c 403c ad6d 07ba ce6f a33c 991b 78bd
00000170: dd78 4bbd 1441 cdbc 9475 5fbc f803 633c
00000180: 921d 18bd 635c 18bd 58bf d93a 4b05 b7bc
00000190: 902f 86bc c6bc f43c 5ee4 9f3c 74c3 573d
000001a0: aed4 3f3c 99c6 e4bc 31be 83bc 42d2 ce3c
000001b0: 122e 1b3d 8768 b9bc 61e9 d7bc 7a79 2cbc
000001c0: 91a7 a63b 544c 4cba d6ac 0fbd fdad 01bc
000001d0: f660 26bd ca70 7bbc 665e 87bc 68b4 fabc
000001e0: 43ba c83c b04b b83b 6061 383c bd88 e4bb
000001f0: fffd 393c 3e08 17bd 97ca 6abc d583 573c
00000200: 7f7f 093c c43a 9abc 9b44 e2bc 514f 66bd
00000210: c5d9 1cbd 900f 52bd 36ec efbc c431 d73b
00000220: acc1 1abd 7ae1 f8bc 0498 33bd bf91 0fbd
00000230: 5a57 95bc 8fcd 28bd ea8b 78bd 62a8 abbd
00000240: 8d59 92bd 3040 7dbd 1c5f cabd 4138 60bd
00000250: b5af 8ebd 1255 b2bd 9cb5 9cbc 25f1 3ebc
00000260: 5655 a1bb ad4a 623b c1f8 9a3b 1f82 24bd
00000270: 4f49 d83c b127 7fbb 298c ea3c 91cb 163d
00000280: c9c1 b5bc 3d61 17bd 7107 b33c 62d8 173c
00000290: c109 1a3c 71fd aebc 1d7c 13bd c8a2 c4ba
000002a0: 0864 21bc 72bc 67bc c2e3 803a 8e3a adbb
000002b0: 05ef 46bc a3cb 80bc da18 ac3c 09b1 8abc
000002c0: 66f5 d5bc 1cf6 3bbc 39f1 d6bd f631 ccbd
000002d0: 9049 d13c d2a2 0e3b cbb7 8e3d 55b2 06bd
000002e0: bd0f 2bbd afae 28bb b4f7 173c eaa0 673c
000002f0: 0d55 d93c fc7c 963d b4b8 d33a 9ff4 fcbc
00000300: bb4a a3bd c996 83bd 19d9 2d3d 8efc 3fbc
00000310: ea69 89bc 8e87 f0bc f7ee 4dbd 4af1 64bd
00000320: 55a2 f4bb f2f9 9abc 13e0 a1bc 2923 b03c
00000330: b5a2 4c3c 927d d83c 8978 babb 2c02 653b
00000340: 8cb3 eb3c 812f ac3c 6f3b 9f3c 4180 e1bb
00000350: 13c1 66bb 7d41 913c 0f5c 5a3c ceb7 a03b
00000360: 161f d63b 3ab1 c53b e1da 163d d5e9 423c
00000370: ebb9 c4bb 1156 aebb 1f3f 923d 655f a33d
00000380: 2a1c f43c 7843 bc3c 6beb 203d 83c2 85bd
00000390: b0d5 b6bd 2e68 b1bc fbfe 82bc 0e10 25bd
000003a0: 22a9 82bd d04e 43bd 7e1f eabc 2746 b1bd
000003b0: 2135 48bd a1fd 45bd 8fff 41bd 9f45 20bd
000003c0: 8f95 33bd 884f 7cbd 2191 85bd c379 28bd
000003d0: b4bf 023c aeef 5d3d 55e1 7abc d5ac 78bd
000003e0: b1a8 263b 4575 5b3d e428 85bd df19 cdbb
000003f0: 7863 62bd 9c03 5abc 8d7c 3abc 0991 02bd

features.7.bias f4 [120]
-0.012576018 0.017690796 0.057899468 0.089751095 -0.00768984 -0.005419097 0.010630896 0.08301046
0.004380843 -0.014415299 0.0045785094 0.087461576 -0.12868288 0.14691025 0.0031798151 -0.034235064
0.008227008 -0.04353597 -0.14979868 0.01658406 0.1667818 0.0073370067 -0.13799426 0.0009201976
0.021510221 -0.0064890967 0.029358316 0.057495274 0.068519644 0.052499555 -0.005516287 0.0036631091
-0.015850572 -0.06711475 0.16118702 -0.030092856 -0.07748147 0.009950623 0.006204538 0.18735038
-0.003929322 0.026860975 -0.0037539168 -0.05170787 0.017279962 0.0072882096 0.0012521016 -0.089552715
-0.06845083 0.020039964 0.023262614 0.050197233 0.0037832062 -0.0046194918 -0.06320507 -0.041555
-0.04131579 0.0136639755 0.011934529 -0.017749028 -0.00034929602 0.026932973 -0.071480624 -0.038841393
0.0012610622 0.065972015 -0.010699893 0.009226814 0.038237117 -0.031109294 -0.03425714 0.0093811
-0.042414006 0.05088022 0.2251723 -0.07270021 -0.0042670877 -0.1786796 -0.045779515 0.03136089
0.013693487 0.08214936 -0.026179858 -0.05724157 -0.08529056 0.14593925 0.04861715 -0.009215213
0.074020356 -0.11457326 -0.10478227 0.14737342 -0.037603825 -0.0023663165 -0.014406115 -0.003706457
0.03693433 -0.060001023 -0.0039909384 0.09891392 -0.02478471 0.064615004 -0.0022408187 0.061382875
-0.121220686 -0.049892254 0.017287467 0.0004534816 -0.0055070193 -0.09318752 0.004798463 0.08076003
0.007082101 -0.21464741 0.013444486 -0.018186899 -0.07860854 -0.015990991 0.036597397 -0.0008674361
00000000: a50b 4ebc 4aec 903c fe27 6d3d 6ccf b73d
00000010: 0efb fbbb ae92 b1bb 362d 2e3c 6301 aa3d
00000020: 2d8d 8f3b 252e 6cbc 5207 963b 0e1f b33d
00000030: 72c5 03be a46f 163e 7264 503b 113a 0cbd
00000040: 93ca 063c c652 32bd d364 19be 4bdb 873c
00000050: d9c8 2a3e 466b f03b 5e4e 0dbe 6a39 713a
00000060: 3436 b03c 7da2 d4bb da80 f03c 2a80 6b3d
00000070: 0754 8c3d c609 573d f8c1 b4bb c610 703b
00000080: 0fd9 81bc 7573 89bd 360e 253e 4b85 f6bc
00000090: 9bae 9ebd f007 233c 704f cb3b c7d8 3f3e
000000a0: 8bc1 80bb 8c0b dc3c 4604 76bb a2cb 53bd
000000b0: b58e 8d3c efd1 ee3b 8f1d a43a 6a67 b7bd
000000c0: f32f 8cbd da2a a43c 3d91 be3c 9d9b 4d3d
000000d0: abef 773b 1b5f 97bb a971 81bd 9335 2abd
000000e0: bf3a 29bd dede 5f3c 0b89 433c 6966 91bc
000000f0: b821 b7b9 8aa2 dc3c 6f64 92bd 2718 1fbd
00000100: 3a4a a53a 561c 873d 9b4e 2fbc 102c 173c
00000110: 869e 1c3d ebd8 febc 3751 0cbd 2fb3 193c
00000120: 4fba 2dbd c767 503d 9193 663e d9e3 94bd
00000130: edd2 8bbb c9f7 36be 4d83 3bbd 4774 003d
00000140: a65a 603c ec3d a83d 2477 d6bc 2376 6abd
00000150: d1ac aebd 1971 153e c722 473d 68fb 16bc
00000160: fc97 973d 63a5 eabd 1698 d6bd 0fe9 163e
00000170: 7806 1abd 3414 1bbb a007 6cbc 08e8 72bb
00000180: 7448 173d a2c3 75bd 6bc6 82bb 6293 ca3d
00000190: 4e09 cbbc df54 843d b3da 12bb 9c6c 7b3d
000001a0: 8d42 f8bd d25b 4cbd 729e 8d3c 45c1 ed39
000001b0: 3a74 b4bb 19d9 bebd 6d3c 9d3b 8465 a53d
000001c0: f810 e83b 88cc 5bbe 4346 5c3c b1fc 94bc
000001d0: 84fd a0bd 8aff 82bc 27e7 153d a764 63ba

features.9.weight f4 [84, 120]
-0.022460675 0.0035127285 0.013748944 -0.019237269 -0.013759385 0.021166593 -0.009497717 -0.021536266
0.033013128 -0.0065893503 -0.0017406937 -1.2465844e-05 0.009566873 0.01049302 0.0019079272 0.02124053
-0.009572773 0.011485097 -0.0011246637 0.0059662783 -0.015172427 0.007527987 0.0041206917 -0.012779143
0.010889993 -0.011049643 0.01603705 -0.010407411 -0.007204686 0.00041250698 -0.0055847946 0.00708292
-0.008625442 0.0074238214 0.012118794 -0.0026877294 -0.005202616 0.017081466 -0.0029220053 -0.0121093355
0.0034097384 0.003072763 -0.008098321 -0.0004796507 0.015675917 0.007080421 0.0018495534 -0.0017017658
-0.017835412 0.00058888615 -0.0127174035 0.0051777908 0.0025591198 -0.006119171 0.0016086148 0.00063605985
0.0003269404 -0.0033907844 0.017779835 0.021335337 0.005699852 -0.00989168 -0.007527046 -0.0080700405
0.00044425137 -0.0013766821 -0.004172544 -0.009319966 0.0031133192 0.010703771 -0.010565652 -0.009278993
-0.004087595 -0.009783044 -0.011448511 -0.0048133098 -0.008230672 -0.028415369 -0.010284145 0.0027467136
0.0077634784 -0.0071797743 -0.022105424 0.009435904 0.02462146 -0.0035005708 -0.017491102 0.0136215035
-0.0032792194 -0.01627482 0.006438154 -0.012553493 -0.005553724 0.01671252 0.0007746562 0.00799128
0.02122599 -0.0023923775 0.009565084 -0.015183834 -0.008404288 -0.022120422 -0.025207939 -0.0032568693
0.00068643864 -0.0007433836 -0.010472011 -0.01794876 0.0032576676 0.005846257 -0.0177306 0.00081149186
-0.013654554 0.0016204825 0.008469467 -0.0047242786 -0.02145994 0.0013471365 0.01842005 0.008790851
-0.0116626285 -0.022911873 -0.010029827 0.009003159 0.0009595356 -0.0051153623 -0.012806682 0.0070412094
0.01045172 0.0019013375 -0.022553766 0.0027907996 0.00021689257 -0.012721592 -0.018595712 -0.0027253313
0.006065611 0.026624773 0.014509881 0.015655397 -0.011359661 -0.018233744 0.0049238773 0.019260809
0.014812189 -0.0011918237 0.004166197 -0.0077446243 0.006577391 0.0007399018 0.0033121705 0.0038098851
-0.00896225 -0.014381328 -0.00046359136 -0.0031307817 0.027098697 -0.004048894 -0.010042026 -0.0033842037
0.008136397 -0.007391148 -0.00918917 -0.012103135 0.0016937065 0.007464127 -0.020657351 0.0037187503
0.0059225536 0.014952749 -0.0029724413 0.0041454765 0.0058233505 -0.012153559 -0.008880843 0.012453668
-0.0056255613 0.0143941585 0.026459884 -0.0068795863 -0.0055958317 -0.021432027 0.0023252221 -0.004781199
-0.0032987536 -0.0033096091 0.0009014354 -0.011610338 -0.013607506 -0.00984293 -0.0035385115 0.00024415128
-0.0039499314 -0.005548081 0.0018757503 -0.009550349 -0.027834693 0.02211606 -0.0014303183 -0.012311583
0.0068319608 -0.0010335894 -0.007927579 -0.007678611 0.017098047 -0.012285141 0.004052521 -0.005657277
-0.0016938081 0.005999171 -0.02853345 0.013466499 0.0004157073 -0.0021651685 0.012998289 0.016254375
-0.008907023 -0.00070247566 0.0061320215 0.0207738 0.007778213 -0.0012121138 0.011728723 -0.009196893
-0.01081527 0.00019105388 0.020205064 0.004388949 -0.0030531676 -0.008536565 -0.010980452 -7.10242e-05
0.008572962 0.006957546 -0.019258782 0.015591612 -0.0008662841 -0.005411632 0.01477142 -0.005606356
-0.001396644 -0.0034935467 -0.010887262 -0.009305203 -0.008677221 0.0077248607 -0.0004444468 0.0033781102
0.00032797092 -0.016504645 0.00454017 0.010099633 -0.009150678 -0.003649712 0.0068782205 0.009853868
00000000: 73ff b7bc ce35 663b 4043 613c 7a97 9dbc
00000010: 0b6f 61bc 9065 ad3c 509c 1bbc d36c b0bc
00000020: c638 073d 7aeb d7bb fd27 e4ba 6424 51b7
00000030: 60be 1c3c eaea 2b3c 6a13 fa3a 9f00 ae3c
00000040: 1fd7 1cbc fd2b 3c3c 7469 93ba c580 c33b
00000050: c595 78bc 55ad f63b de06 873b 9c5f 51bc
00000060: f16b 323c 9009 35bc 2260 833c d883 2abc
00000070: 4915 ecbb c045 d839 a700 b7bb d717 e83b
00000080: ba51 0dbc 8743 f33b e88d 463c 9e24 30bb
00000090: b57a aabb 6eee 8b3c 1d7f 3fbb 3c66 46bc
000000a0: eb75 5f3b 6960 493b d2ae 04bc a179 fbb9
000000b0: c86a 803c e002 e83b b76c f23a c90d dfba
000000c0: 921b 92bc 7b5f 1a3a a85c 50bc 75aa a93b
000000d0: e8b6 273b 5483 c8bb 28d8 d23a 41bd 263a
000000e0: 3369 ab39 ec37 5ebb 04a7 913c 72c7 ae3c
000000f0: d3c5 ba3b b710 22bc 70a5 f6bb 3438 04bc
00000100: 69ea e839 c971 b4ba d6b9 88bb c5b2 18bc
00000110: d408 4c3b df5e 2f3c 8e1b 2dbc eb06 18bc
00000120: 3bf1 85bb 1049 20bc 8992 3bbc f8b8 9dbb
00000130: f1d9 06bc 59c7 e8bc d57e 28bc 3502 343b
00000140: c764 fe3b 5044 ebbb 6f16 b5bc 0d99 1a3c
00000150: f2b2 c93c d569 65bb 8049 8fbc ba2c 5f3c
00000160: 2ce8 56bb c552 85bc 26f7 d23b 2aad 4dbc
00000170: 03fc b5bb b2e8 883c 4c12 4b3a dced 023c
00000180: 21e2 ad3c 6fc9 1cbb dfb6 1c3c 9ec5 78bc
00000190: 24b2 09bc e335 b5bc e180 cebc 3371 55bb
000001a0: 1ef2 333a a1df 42ba cc92 2bbc 4709 93bc
000001b0: 987e 553b f591 bf3b c33f 91bc 4cba 543a
000001c0: 5ab7 5fbc 5f66 d43a 85c3 0a3c 1fce 9abb
000001d0: c2cc afbc 6692 b03a a5e5 963c 8007 103c
000001e0: 9c14 3fbc aeb1 bbbc 2554 24bc fc81 133c
000001f0: 5889 7b3a c59e a7bb 1ed3 51bc f2b9 e63b
00000200: b13d 2b3c 4d36 f93a adc2 b8bc d9e5 363b
00000210: a86d 6339 396e 50bc 0956 98bc 799b 32bb
00000220: 08c2 c63b 321c da3c daba 6d3c bf3f 803c
00000230: df1d 3abc ef5e 95bc 7a58 a13b d8c8 9d3c
00000240: d3ae 723c f836 9cba 9884 883b 9ec6 fdbb
00000250: 2887 d73b f8f5 413a 0011 593b 44af 793b
00000260: 67d6 12bc a99f 6bbc 2e0e f3b9 cd2d 4dbb
00000270: 16fe dd3c 96ac 84bb 4f87 24bc 84c9 5dbb
00000280: 864e 053c 7131 f2bb 2c8e 16bc 3a4c 46bc
00000290: 5cff dd3a a395 f43b 9b39 a9bc 47b6 733b
000002a0: fb11 c23b 60fc 743c 4acd 42bb c7d6 873b
000002b0: ced1 be3b b91f 47bc f580 11bc 780a 4c3c
000002c0: a156 b8bb 7ad5 6b3c 66c2 d83c 276e e1bb
000002d0: 3d5d b7bb 3892 afbc c162 183b 9bab 9cbb
000002e0: e72f 58bb 07e6 58bb 4e4e 6c3a 4a39 3ebc
000002f0: 04f2 5ebc 3e44 21bc 5fe6 67bb 6e01 8039
00000300: 6d6e 81bb adcc b5bb bcdb f53a 1179 1cbc
00000310: 9505 e4bc bd2c b53c 8579 bbba 86b6 49bc
00000320: a4de df3b 8179 87ba ade2 01bc dc9c fbbb
00000330: 3411 8c3c 9e47 49bc 03cb 843b ae60 b9bb
00000340: c502 deba b294 c43b fbbe e9bc 97a2 5c3c
00000350: 4af3 d939 80e5 0dbb c7f6 543c e527 853c
00000360: c3ee 11bc 5826 38ba 20ef c83b d12d aa3c
00000370: 61e0 fe3b cadf 9eba d429 403c 91ae 16bc
00000380: 8832 31bc a355 4839 1785 a53c 2cd1 8f3b
00000390: a717 48bb f3dc 0bbc 5be7 33bc d4f2 94b8
000003a0: 9c75 0c3c 20fc e33b 98c4 9dbc f673 7f3c
000003b0: 5817 63ba 0f54 b1bb d303 723c 86b5 b7bb
000003c0: 990f b7ba fdf3 64bb 7d60 32bc da74 18bc
000003d0: e72a 0ebc d420 fd3b a404 e9b9 4963 5d3b
000003e0: 83f3 ab39 c034 87bc b5c5 943b ee78 253c
000003f0: baec 15bc 0230 6fbb b262 e13b 1e72 213c

features.9.bias f4 [84]
0.0023372162 -0.009946835 -0.0017892228 0.004329949 0.20215912 0.40972006 -0.0072009857 0.082584545
-0.0022887818 0.30029675 -0.0070934114 0.16256197 0.24773702 0.10805882 -0.06777419 0.11732909
-0.008396446 0.0034199115 0.7296893 0.21158132 0.5317861 -0.002243065 0.26310816 0.32550693
-0.0018734549 -0.00618409 0.0013933877 -0.010606604 0.010510159 -0.0100936005 0.052929927 0.0052698827
-0.079301104 0.03516853 0.21690929 0.058413386 0.057695672 0.05869511 -0.001751957 -0.217775
-0.0049754772 -0.021481575 -0.0037177736 -0.0108416155 0.05456381 0.0039161495 0.0021776892 0.13067308
0.12751055 0.11390755 0.29103452 0.13488191 -0.010291938 -0.044690873 0.16987316 -0.0044643143
0.0024144666 -0.094635695 -0.00030905835 0.046574026 0.088763095 -0.1099521 0.16160457 -0.00030789853
-0.009940916 0.3279458 0.0072141667 -0.10702179 0.3207467 -0.005127455 -0.0003025549 -0.1340379
0.20208965 -0.054731134 0.21618287 0.08671766 0.21035443 -0.07871698 0.06677301 0.117756754
0.1975925 0.3580102 0.17234854 0.10319828
00000000: fb2b 193b 0df8 22bc 5b84 eaba 3fe2 8d3b
00000010: cd02 4f3e d4c6 d13e 3ff6 ebbb 1622 a93d
00000020: 63ff 15bb 7fc0 993e d96f e8bb a576 263e
00000030: c6ae 7d3e f14d dd3d 32cd 8abd 3c4a f03d
00000040: 3f91 09bc 9820 603b ebcc 3a3f c6a8 583e
00000050: 2223 083f 6300 13bb 1db6 863e d8a8 a63e
00000060: b78e f5ba e8a3 cabb 55a2 b63a 52c7 2dbc
00000070: cd32 2c3c a15f 25bc 0dcd 583d fbae ac3b
00000080: 9e68 a2bd e00c 103d 781d 5e3e e042 6f3d
00000090: 4c52 6c3d 496a 703d eca1 e5ba 6900 5fbe
000000a0: 5409 a3bb 21fa afbc e4a5 73bb 08a1 31bc
000000b0: 4d7e 5f3d 0b53 803b 90b7 0e3b 2acf 053e
000000c0: 2092 023e 5d48 e93d 7a02 953e 7c1e 0a3e
000000d0: 849f 28bc c70d 37bd 3bf3 2d3e 6249 92bb
000000e0: 073c 1e3b 5cd0 c1bd 1c09 a2b9 68c4 3e3d
000000f0: 6dc9 b53d 912e e1bd ab7b 253e 716d a1b9
00000100: 39df 22bc 83e8 a73e d164 ec3b 3e2e dbbd
00000110: e938 a43e 3604 a8bb 3ba0 9eb9 3b41 09be
00000120: 97f0 4e3e c12d 60bd 0b5f 5d3e 0799 b13d
00000130: 2767 573e 5e36 a1bd 4ac0 883d 742a f13d
00000140: b055 4a3e 1d4d b73e 237c 303e 9f59 d33d

classifiers.0.weight f4 [5, 84]
-0.004624585 -0.0012705937 0.0015419393 0.009191771 0.15144005 -0.12725826 -0.053919867 -0.04880084
-0.0052604787 -0.15541695 -0.20162097 -0.104839586 0.2287506 -0.15010278 -0.09552379 -0.051211808
-0.011377235 0.0019466389 -0.017184474 0.10297031 0.09913647 -0.0046960358 0.24299736 -0.27554557
-0.001669749 0.0060552815 -0.00029116252 0.008316572 0.0055144844 0.0068739792 0.05357079 0.015740251
0.06900182 -0.054109167 0.2536536 0.05663865 0.0011213152 0.20302416 0.033047754 -0.22242771
0.0034870822 0.09684848 0.0055581788 -0.017661244 0.18248832 0.09931569 0.013047781 0.21849038
0.17627187 -0.07451025 -0.14320196 -0.0040145596 -0.00073315925 0.01275099 -0.113401085 -0.024625132
-0.022919433 0.02665896 0.0142853595 0.12109444 0.1600077 -0.1889363 0.20262894 0.006980184
0.001112442 -0.18701836 0.012780958 0.110985585 -0.046373032 0.0034219779 -0.0014809157 0.006387046
-0.021642137 0.055151768 0.18764809 -0.04737855 -0.04529055 -0.11563375 0.046208017 -0.07225656
0.13958025 -0.07540574 -0.08771387 0.18280847 0.0019676497 0.026706137 0.01597889 0.025256027
-0.007231142 0.3080512 -0.027028648 0.20972328 -0.0067765284 0.222614 -0.037638884 0.05769308
-0.08147009 0.14164637 0.044273425 0.098656714 0.0037730145 -0.008964215 -0.54237586 -0.01376835
-0.25167394 -0.0049555274 0.035574745 0.14569348 -0.01298317 -0.010050344 -0.011657681 -0.0062278653
0.024239253 0.009679694 0.08573472 0.06513421 0.14785807 0.033905324 0.021328392 0.11131165
-0.043668617 -0.05919472 0.08658912 0.21067369 -0.009166173 0.017530806 -0.050509576 0.001522953
-0.01850842 -0.048480097 -0.0232145 0.042706195 0.16794318 -0.014103172 0.13249573 0.15112706
0.028043874 0.057189755 0.013861823 0.03589584 -0.022839867 -0.1194793 0.005591756 -0.13077545
-0.016812924 0.01756911 -0.026709042 -0.0057056355 0.06820049 0.29643878 0.0023722155 0.0039221817
0.2629603 -0.025948798 -0.016645268 0.24457802 0.27782342 0.100498654 -0.13434643 -0.06275116
-0.1118457 0.10226378 0.113203466 -0.16617449 -0.036147587 0.44624603 0.112361774 -0.017554473
-0.0094590625 -0.03015401 -0.009623548 -0.018110039 0.08588262 -0.3756056 0.027296519 0.056855265
0.010999077 -0.23007235 0.12450286 0.03012215 -0.44944248 -0.16129564 0.105532475 -0.14443164
-0.028359696 -0.010449175 0.32154182 0.18377233 0.3174263 0.008916547 0.14545597 0.29760748
0.010194514 0.02193401 0.018621208 0.008555671 -0.040320218 -0.0020704274 -0.0809391 0.030533267
-0.013708872 -0.047714446 0.09219926 -0.08484114 0.13988487 -0.06321519 0.021981392 0.1557725
0.0052779224 -0.027756954 0.14255705 -0.0050668838 -0.03601088 0.0014020043 -0.004026929 0.0026877213
-0.029897211 -0.005125589 -0.3139551 -0.15641679 0.0035042928 0.05621455 0.18564983 0.06606889
-0.006091605 0.098964445 -0.011663716 -0.20664552 0.03083164 0.1735166 0.045894504 0.012298652
-0.012563264 -0.02332239 -0.018863015 -0.005224768 -0.09206504 0.0061865444 -0.0035122589 0.07575591
-0.12355564 0.16876596 0.15813057 0.02488707 0.1758447 0.16981977 -0.07150716 -0.122542195
0.11914979 -0.2824767 -0.10913636 0.038749076 0.021540478 0.0017124541 0.003247514 0.0033419125
00000000: d589 97bb 0d8a a6ba e61a ca3a 1599 163c
00000010: 1a13 1b3e fd4f 02be 14db 5cbd 64e3 47bd
00000020: 1860 acbb 9f25 1fbe ba75 4ebe 23b6 d6bd
00000030: 993d 6a3e 8bb4 19be faa1 c3bd 79c3 51bd
00000040: 9567 3abc 5d26 ff3a 74c6 8cbc 19e2 d23d
00000050: 1008 cb3d 34e1 99bb 4dd4 783e 4f14 8dbe
00000060: 7bdb daba 626b c63b 2ca7 98b9 3b42 083c
00000070: d9b2 b43b 1e3f e13b 0b6d 5b3d b3f1 803c
00000080: d450 8d3d 93a1 5dbd e2de 813e eefd 673d
00000090: 18f9 923a 91e5 4f3e 155d 073d 17c4 63be
000000a0: 8887 643b 7f58 c63d 6221 b63b 50ae 90bc
000000b0: 38de 3a3e 0666 cb3d 5cc6 553c f1bb 5f3e
000000c0: 9d80 343e d498 98bd 89a3 12be 918c 83bb
000000d0: 7c31 40ba 87e9 503c d43e e8bd a5ba c9bc
000000e0: 89c1 bbbc e463 da3c 240d 6a3c 5d00 f83d
000000f0: 0fd9 233e 8478 41be f67d 4f3e 07ba e43b
00000100: 5ccf 913a be81 3fbe 3967 513c 694c e33d
00000110: a6f1 3dbd 4343 603b 491b c2ba 6d4a d13b
00000120: da4a b1bc d2e6 613d d226 403e 0310 42bd
00000130: 9582 39bd 63d1 ecbd 9e44 3d3d 3ffb 93bd
00000140: 20ee 0e3e 536e 9abd 54a3 b3bd 2532 3b3e
00000150: aff3 003b d4c6 da3c 29e6 823c bae5 ce3c
00000160: 37f3 ecbb e3b8 9d3e 2f6b ddbc b3c1 563e
00000170: a40d debb edf4 633e 3b2b 1abd 944f 6c3d
00000180: cad9 a6bd bf0b 113e 0d58 353d 880c ca3d
00000190: ae44 773b a5de 12bc 25d9 0abf a594 61bc
000001a0: 68db 80be fa61 a2bb d3b6 113d ac30 153e
000001b0: 5db7 54bc 33aa 24bc dcff 3ebc 1f13 ccbb
000001c0: 6691 c63c 9497 1e3c af95 af3d 1665 853d
000001d0: 1b68 173e 4fe0 0a3d e1b8 ae3c 5df7 e33d
000001e0: dddd 32bd 2a76 72bd a355 b13d d8ba 573e
000001f0: b72d 16bc c49c 8f3c 21e3 4ebd d39d c73a
00000200: f89e 97bc 1193 46bd 562c bebc b1ec 2e3d
00000210: 4cf9 2b3e fe10 67bc f6ac 073e 0dc1 1a3e
00000220: 44bc e53c ce3f 6a3d b31c 633c 8407 133d
00000230: ac1a bbbc 90b1 f4bd 0d3b b73b 00ea 05be
00000240: 42bb 89bc 18ed 8f3c eccc dabc 57f6 babb
00000250: b3ac 8b3d d3c6 973e 2c77 1b3b a585 803b
00000260: bca2 863e 9392 d4bc a85b 88bc a972 7a3e
00000270: df3e 8e3e 3dd2 cd3d 1c92 09be ae83 80bd
00000280: 5c0f e5bd ac6f d13d 38d7 e73d a529 2abe
00000290: 7e0f 14bd 5c7a e43e ee1d e63d 66ce 8fbc
000002a0: 2ffa 1abc 8b05 f7bc 16ac 1dbc 815b 94bc
000002b0: 3ae3 af3d 614f c0be f39c df3c 11e1 683d
000002c0: 7935 343c 1698 6bbe 5bfb fe3d bac2 f63c
000002d0: 531d e6be af2a 25be 6921 d83d e3e5 13be
000002e0: 9852 e8bc 0433 2bbc 21a1 a43e d02e 3c3e
000002f0: b385 a23e b516 123c 69f2 143e 0260 983e
00000300: e406 273c f4ae b33c 818b 983c 162d 0c3c
00000310: d026 25bd 02b0 07bb 66c3 a5bd e720 fa3c
00000320: 2d9b 60bc 3970 43bd f7d2 bc3d 31c1 adbd
00000330: fb3d 0f3e f776 81bd 5212 b43c d482 1f3e
00000340: 6cf2 ac3b 8d62 e3bc 7afa 113e 1a08 a6bb
00000350: 2580 13bd 75c3 b73a 54f4 83bb 7b24 303b
00000360: ffea f4bc 8ff4 a7bb b9be a0be b92b 20be
00000370: 47a8 653b 3a41 663d fd1a 3e3e 204f 873d
00000380: 169c c7bb dfad ca3d 2c19 3fbc e29a 53be
00000390: a392 fc3c 56ae 313e e0fb 3b3d 4980 493c
000003a0: 26d6 4dbc 990e bfbc 9c86 9abc 8834 abbb
000003b0: 988c bcbd 7fb8 ca3b ed2d 66bb ea25 9b3d
000003c0: bd0a fdbd fcd0 2c3e fbec 213e f8df cb3c
000003d0: a210 343e 3ce5 2d3e 5972 92bd 67f7 fabd
000003e0: ce04 f43d c9a0 90be e282 dfbd 5ab7 1e3d
000003f0: a875 b03c 6d74 e03a 3ed4 543b fd03 5b3b

classifiers.0.bias f4 [5]
0.1975125 -0.2977505 -0.5434396 1.5010326 -0.8573563
00000000: b840 4a3e c172 98be dc1e 0bbf d621 c03f
00000010: b47b 5bbf

classifier.weight f4 [5, 84]
-0.004624585 -0.0012705937 0.0015419393 0.009191771 0.15144005 -0.12725826 -0.053919867 -0.04880084
-0.0052604787 -0.15541695 -0.20162097 -0.104839586 0.2287506 -0.15010278 -0.09552379 -0.051211808
-0.011377235 0.0019466389 -0.017184474 0.10297031 0.09913647 -0.0046960358 0.24299736 -0.27554557
-0.001669749 0.0060552815 -0.00029116252 0.008316572 0.0055144844 0.0068739792 0.05357079 0.015740251
0.06900182 -0.054109167 0.2536536 0.05663865 0.0011213152 0.20302416 0.033047754 -0.22242771
0.0034870822 0.09684848 0.0055581788 -0.017661244 0.18248832 0.09931569 0.013047781 0.21849038
0.17627187 -0.07451025 -0.14320196 -0.0040145596 -0.00073315925 0.01275099 -0.113401085 -0.024625132
-0.022919433 0.02665896 0.0142853595 0.12109444 0.1600077 -0.1889363 0.20262894 0.006980184
0.001112442 -0.18701836 0.012780958 0.110985585 -0.046373032 0.0034219779 -0.0014809157 0.006387046
-0.021642137 0.055151768 0.18764809 -0.04737855 -0.04529055 -0.11563375 0.046208017 -0.07225656
0.13958025 -0.07540574 -0.08771387 0.18280847 0.0019676497 0.026706137 0.01597889 0.025256027
-0.007231142 0.3080512 -0.027028648 0.20972328 -0.0067765284 0.222614 -0.037638884 0.05769308
-0.08147009 0.14164637 0.044273425 0.098656714 0.0037730145 -0.008964215 -0.54237586 -0.01376835
-0.25167394 -0.0049555274 0.035574745 0.14569348 -0.01298317 -0.010050344 -0.011657681 -0.0062278653
0.024239253 0.009679694 0.08573472 0.06513421 0.14785807 0.033905324 0.021328392 0.11131165
-0.043668617 -0.05919472 0.08658912 0.21067369 -0.009166173 0.017530806 -0.050509576 0.001522953
-0.01850842 -0.048480097 -0.0232145 0.042706195 0.16794318 -0.014103172 0.13249573 0.15112706
0.028043874 0.057189755 0.013861823 0.03589584 -0.022839867 -0.1194793 0.005591756 -0.13077545
-0.016812924 0.01756911 -0.026709042 -0.0057056355 0.06820049 0.29643878 0.0023722155 0.0039221817
0.2629603 -0.025948798 -0.016645268 0.24457802 0.27782342 0.100498654 -0.13434643 -0.06275116
-0.1118457 0.10226378 0.113203466 -0.16617449 -0.036147587 0.44624603 0.112361774 -0.017554473
-0.0094590625 -0.03015401 -0.009623548 -0.018110039 0.08588262 -0.3756056 0.027296519 0.056855265
0.010999077 -0.23007235 0.12450286 0.03012215 -0.44944248 -0.16129564 0.105532475 -0.14443164
-0.028359696 -0.010449175 0.32154182 0.18377233 0.3174263 0.008916547 0.14545597 0.29760748
0.010194514 0.02193401 0.018621208 0.008555671 -0.040320218 -0.0020704274 -0.0809391 0.030533267
-0.013708872 -0.047714446 0.09219926 -0.08484114 0.13988487 -0.06321519 0.021981392 0.1557725
0.0052779224 -0.027756954 0.14255705 -0.0050668838 -0.03601088 0.0014020043 -0.004026929 0.0026877213
-0.029897211 -0.005125589 -0.3139551 -0.15641679 0.0035042928 0.05621455 0.18564983 0.06606889
-0.006091605 0.098964445 -0.011663716 -0.20664552 0.03083164 0.1735166 0.045894504 0.012298652
-0.012563264 -0.02332239 -0.018863015 -0.005224768 -0.09206504 0.0061865444 -0.0035122589 0.07575591
-0.12355564 0.16876596 0.15813057 0.02488707 0.1758447 0.16981977 -0.07150716 -0.122542195
0.11914979 -0.2824767 -0.10913636 0.038749076 0.021540478 0.0017124541 0.003247514 0.0033419125
00000000: d589 97bb 0d8a a6ba e61a ca3a 1599 163c
00000010: 1a13 1b3e fd4f 02be 14db 5cbd 64e3 47bd
00000020: 1860 acbb 9f25 1fbe ba75 4ebe 23b6 d6bd
00000030: 993d 6a3e 8bb4 19be faa1 c3bd 79c3 51bd
00000040: 9567 3abc 5d26 ff3a 74c6 8cbc 19e2 d23d
00000050: 1008 cb3d 34e1 99bb 4dd4 783e 4f14 8dbe
00000060: 7bdb daba 626b c63b 2ca7 98b9 3b42 083c
00000070: d9b2 b43b 1e3f e13b 0b6d 5b3d b3f1 803c
00000080: d450 8d3d 93a1 5dbd e2de 813e eefd 673d
00000090: 18f9 923a 91e5 4f3e 155d 073d 17c4 63be
000000a0: 8887 643b 7f58 c63d 6221 b63b 50ae 90bc
000000b0: 38de 3a3e 0666 cb3d 5cc6 553c f1bb 5f3e
000000c0: 9d80 343e d498 98bd 89a3 12be 918c 83bb
000000d0: 7c31 40ba 87e9 503c d43e e8bd a5ba c9bc
000000e0: 89c1 bbbc e463 da3c 240d 6a3c 5d00 f83d
000000f0: 0fd9 233e 8478 41be f67d 4f3e 07ba e43b
00000100: 5ccf 913a be81 3fbe 3967 513c 694c e33d
00000110: a6f1 3dbd 4343 603b 491b c2ba 6d4a d13b
00000120: da4a b1bc d2e6 613d d226 403e 0310 42bd
00000130: 9582 39bd 63d1 ecbd 9e44 3d3d 3ffb 93bd
00000140: 20ee 0e3e 536e 9abd 54a3 b3bd 2532 3b3e
00000150: aff3 003b d4c6 da3c 29e6 823c bae5 ce3c
00000160: 37f3 ecbb e3b8 9d3e 2f6b ddbc b3c1 563e
00000170: a40d debb edf4 633e 3b2b 1abd 944f 6c3d
00000180: cad9 a6bd bf0b 113e 0d58 353d 880c ca3d
00000190: ae44 773b a5de 12bc 25d9 0abf a594 61bc
000001a0: 68db 80be fa61 a2bb d3b6 113d ac30 153e
000001b0: 5db7 54bc 33aa 24bc dcff 3ebc 1f13 ccbb
000001c0: 6691 c63c 9497 1e3c af95 af3d 1665 853d
000001d0: 1b68 173e 4fe0 0a3d e1b8 ae3c 5df7 e33d
000001e0: dddd 32bd 2a76 72bd a355 b13d d8ba 573e
000001f0: b72d 16bc c49c 8f3c 21e3 4ebd d39d c73a
00000200: f89e 97bc 1193 46bd 562c bebc b1ec 2e3d
00000210: 4cf9 2b3e fe10 67bc f6ac 073e 0dc1 1a3e
00000220: 44bc e53c ce3f 6a3d b31c 633c 8407 133d
00000230: ac1a bbbc 90b1 f4bd 0d3b b73b 00ea 05be
00000240: 42bb 89bc 18ed 8f3c eccc dabc 57f6 babb
00000250: b3ac 8b3d d3c6 973e 2c77 1b3b a585 803b
00000260: bca2 863e 9392 d4bc a85b 88bc a972 7a3e
00000270: df3e 8e3e 3dd2 cd3d 1c92 09be ae83 80bd
00000280: 5c0f e5bd ac6f d13d 38d7 e73d a529 2abe
00000290: 7e0f 14bd 5c7a e43e ee1d e63d 66ce 8fbc
000002a0: 2ffa 1abc 8b05 f7bc 16ac 1dbc 815b 94bc
000002b0: 3ae3 af3d 614f c0be f39c df3c 11e1 683d
000002c0: 7935 343c 1698 6bbe 5bfb fe3d bac2 f63c
000002d0: 531d e6be af2a 25be 6921 d83d e3e5 13be
000002e0: 9852 e8bc 0433 2bbc 21a1 a43e d02e 3c3e
000002f0: b385 a23e b516 123c 69f2 143e 0260 983e
00000300: e406 273c f4ae b33c 818b 983c 162d 0c3c
00000310: d026 25bd 02b0 07bb 66c3 a5bd e720 fa3c
00000320: 2d9b 60bc 3970 43bd f7d2 bc3d 31c1 adbd
00000330: fb3d 0f3e f776 81bd 5212 b43c d482 1f3e
00000340: 6cf2 ac3b 8d62 e3bc 7afa 113e 1a08 a6bb
00000350: 2580 13bd 75c3 b73a 54f4 83bb 7b24 303b
00000360: ffea f4bc 8ff4 a7bb b9be a0be b92b 20be
00000370: 47a8 653b 3a41 663d fd1a 3e3e 204f 873d
00000380: 169c c7bb dfad ca3d 2c19 3fbc e29a 53be
00000390: a392 fc3c 56ae 313e e0fb 3b3d 4980 493c
000003a0: 26d6 4dbc 990e bfbc 9c86 9abc 8834 abbb
000003b0: 988c bcbd 7fb8 ca3b ed2d 66bb ea25 9b3d
000003c0: bd0a fdbd fcd0 2c3e fbec 213e f8df cb3c
000003d0: a210 343e 3ce5 2d3e 5972 92bd 67f7 fabd
000003e0: ce04 f43d c9a0 90be e282 dfbd 5ab7 1e3d
000003f0: a875 b03c 6d74 e03a 3ed4 543b fd03 5b3b

classifier.bias f4 [5]
0.1975125 -0.2977505 -0.5434396 1.5010326 -0.8573563
00000000: b840 4a3e c172 98be dc1e 0bbf d621 c03f
00000010: b47b 5bbf

features.7 f4 [120]
-0.012576018 0.017690796 0.057899468 0.089751095 -0.00768984 -0.005419097 0.010630896 0.08301046
0.004380843 -0.014415299 0.0045785094 0.087461576 -0.12868288 0.14691025 0.0031798151 -0.034235064
0.008227008 -0.04353597 -0.14979868 0.01658406 0.1667818 0.0073370067 -0.13799426 0.0009201976
0.021510221 -0.0064890967 0.029358316 0.057495274 0.068519644 0.052499555 -0.005516287 0.0036631091
-0.015850572 -0.06711475 0.16118702 -0.030092856 -0.07748147 0.009950623 0.006204538 0.18735038
-0.003929322 0.026860975 -0.0037539168 -0.05170787 0.017279962 0.0072882096 0.0012521016 -0.089552715
-0.06845083 0.020039964 0.023262614 0.050197233 0.0037832062 -0.0046194918 -0.06320507 -0.041555
-0.04131579 0.0136639755 0.011934529 -0.017749028 -0.00034929602 0.026932973 -0.071480624 -0.038841393
0.0012610622 0.065972015 -0.010699893 0.009226814 0.038237117 -0.031109294 -0.03425714 0.0093811
-0.042414006 0.05088022 0.2251723 -0.07270021 -0.0042670877 -0.1786796 -0.045779515 0.03136089
0.013693487 0.08214936 -0.026179858 -0.05724157 -0.08529056 0.14593925 0.04861715 -0.009215213
0.074020356 -0.11457326 -0.10478227 0.14737342 -0.037603825 -0.0023663165 -0.014406115 -0.003706457
0.03693433 -0.060001023 -0.0039909384 0.09891392 -0.02478471 0.064615004 -0.0022408187 0.061382875
-0.121220686 -0.049892254 0.017287467 0.0004534816 -0.0055070193 -0.09318752 0.004798463 0.08076003
0.007082101 -0.21464741 0.013444486 -0.018186899 -0.07860854 -0.015990991 0.036597397 -0.0008674361
00000000: a50b 4ebc 4aec 903c fe27 6d3d 6ccf b73d
00000010: 0efb fbbb ae92 b1bb 362d 2e3c 6301 aa3d
00000020: 2d8d 8f3b 252e 6cbc 5207 963b 0e1f b33d
00000030: 72c5 03be a46f 163e 7264 503b 113a 0cbd
00000040: 93ca 063c c652 32bd d364 19be 4bdb 873c
00000050: d9c8 2a3e 466b f03b 5e4e 0dbe 6a39 713a
00000060: 3436 b03c 7da2 d4bb da80 f03c 2a80 6b3d
00000070: 0754 8c3d c609 573d f8c1 b4bb c610 703b
00000080: 0fd9 81bc 7573 89bd 360e 253e 4b85 f6bc
00000090: 9bae 9ebd f007 233c 704f cb3b c7d8 3f3e
000000a0: 8bc1 80bb 8c0b dc3c 4604 76bb a2cb 53bd
000000b0: b58e 8d3c efd1 ee3b 8f1d a43a 6a67 b7bd
000000c0: f32f 8cbd da2a a43c 3d91 be3c 9d9b 4d3d
000000d0: abef 773b 1b5f 97bb a971 81bd 9335 2abd
000000e0: bf3a 29bd dede 5f3c 0b89 433c 6966 91bc
000000f0: b821 b7b9 8aa2 dc3c 6f64 92bd 2718 1fbd
00000100: 3a4a a53a 561c 873d 9b4e 2fbc 102c 173c
00000110: 869e 1c3d ebd8 febc 3751 0cbd 2fb3 193c
00000120: 4fba 2dbd c767 503d 9193 663e d9e3 94bd
00000130: edd2 8bbb c9f7 36be 4d83 3bbd 4774 003d
00000140: a65a 603c ec3d a83d 2477 d6bc 2376 6abd
00000150: d1ac aebd 1971 153e c722 473d 68fb 16bc
00000160: fc97 973d 63a5 eabd 1698 d6bd 0fe9 163e
00000170: 7806 1abd 3414 1bbb a007 6cbc 08e8 72bb
00000180: 7448 173d a2c3 75bd 6bc6 82bb 6293 ca3d
00000190: 4e09 cbbc df54 843d b3da 12bb 9c6c 7b3d
000001a0: 8d42 f8bd d25b 4cbd 729e 8d3c 45c1 ed39
000001b0: 3a74 b4bb 19d9 bebd 6d3c 9d3b 8465 a53d
000001c0: f810 e83b 88cc 5bbe 4346 5c3c b1fc 94bc
000001d0: 84fd a0bd 8aff 82bc 27e7 153d a764 63ba

features.9 f4 [84]
0.0023372162 -0.009946835 -0.0017892228 0.004329949 0.20215912 0.40972006 -0.0072009857 0.082584545
-0.0022887818 0.30029675 -0.0070934114 0.16256197 0.24773702 0.10805882 -0.06777419 0.11732909
-0.008396446 0.0034199115 0.7296893 0.21158132 0.5317861 -0.002243065 0.26310816 0.32550693
-0.0018734549 -0.00618409 0.0013933877 -0.010606604 0.010510159 -0.0100936005 0.052929927 0.0052698827
-0.079301104 0.03516853 0.21690929 0.058413386 0.057695672 0.05869511 -0.001751957 -0.217775
-0.0049754772 -0.021481575 -0.0037177736 -0.0108416155 0.05456381 0.0039161495 0.0021776892 0.13067308
0.12751055 0.11390755 0.29103452 0.13488191 -0.010291938 -0.044690873 0.16987316 -0.0044643143
0.0024144666 -0.094635695 -0.00030905835 0.046574026 0.088763095 -0.1099521 0.16160457 -0.00030789853
-0.009940916 0.3279458 0.0072141667 -0.10702179 0.3207467 -0.005127455 -0.0003025549 -0.1340379
0.20208965 -0.054731134 0.21618287 0.08671766 0.21035443 -0.07871698 0.06677301 0.117756754
0.1975925 0.3580102 0.17234854 0.10319828
00000000: fb2b 193b 0df8 22bc 5b84 eaba 3fe2 8d3b
00000010: cd02 4f3e d4c6 d13e 3ff6 ebbb 1622 a93d
00000020: 63ff 15bb 7fc0 993e d96f e8bb a576 263e
00000030: c6ae 7d3e f14d dd3d 32cd 8abd 3c4a f03d
00000040: 3f91 09bc 9820 603b ebcc 3a3f c6a8 583e
00000050: 2223 083f 6300 13bb 1db6 863e d8a8 a63e
00000060: b78e f5ba e8a3 cabb 55a2 b63a 52c7 2dbc
00000070: cd32 2c3c a15f 25bc 0dcd 583d fbae ac3b
00000080: 9e68 a2bd e00c 103d 781d 5e3e e042 6f3d
00000090: 4c52 6c3d 496a 703d eca1 e5ba 6900 5fbe
000000a0: 5409 a3bb 21fa afbc e4a5 73bb 08a1 31bc
000000b0: 4d7e 5f3d 0b53 803b 90b7 0e3b 2acf 053e
000000c0: 2092 023e 5d48 e93d 7a02 953e 7c1e 0a3e
000000d0: 849f 28bc c70d 37bd 3bf3 2d3e 6249 92bb
000000e0: 073c 1e3b 5cd0 c1bd 1c09 a2b9 68c4 3e3d
000000f0: 6dc9 b53d 912e e1bd ab7b 253e 716d a1b9
00000100: 39df 22bc 83e8 a73e d164 ec3b 3e2e dbbd
00000110: e938 a43e 3604 a8bb 3ba0 9eb9 3b41 09be
00000120: 97f0 4e3e c12d 60bd 0b5f 5d3e 0799 b13d
00000130: 2767 573e 5e36 a1bd 4ac0 883d 742a f13d
00000140: b055 4a3e 1d4d b73e 237c 303e 9f59 d33d
