checkpoints_lenet5/baseline_scratch/lenet5/vehicles_1/checkpoint-100.pth.tar (torch, 312213 bytes, 12 tensors)

features.0.weight f4 [6, 3, 5, 5]
0	0x3e0d46d9	0.13796557
1	0x3ec96fae	0.39343017
2	0x3ef7807e	0.4834022
3	0x3f0eb928	0.55751276
4	0x3ec22105	0.37915817
5	0x3e950ec5	0.2911283
6	0x3ec8cd4c	0.3921913
7	0x3ebef99f	0.3729982
8	0x3ee7d1b4	0.45277178
9	0x3eb89677	0.36052296
10	0x3e9445f5	0.28959623
11	0xbd1da1fe	-0.038484566
12	0x3ea3385e	0.31878942
13	0xbcf358bf	-0.029705403
14	0x3cd4eb57	0.025991125
15	0xbd488ef2	-0.04896445
16	0xbd99a1ad	-0.0750154
17	0xbeb6eb37	-0.3572633
18	0x3c1e255e	0.009652464
19	0xbe32647c	-0.17421144
20	0xbdb645b9	-0.08900017
21	0xbe3deb73	-0.18546848
22	0xbe7bc2d2	-0.24586037
23	0xbec93434	-0.3929764
24	0xbed8fee9	-0.4238198
25	0xbd9440d0	-0.072389245
26	0x3bc8e25f	0.006130501
27	0xbe1af7fc	-0.15133661
28	0xbdf42e66	-0.11922912
29	0xbdc9316c	-0.098238796
30	0xbe8ab7d8	-0.27093387
31	0xbe2cbb92	-0.16868427
32	0xbd080b95	-0.03321417
33	0xbe8b073e	-0.27153963
34	0xbe5ff6aa	-0.21871439
35	0xbd9b73ea	-0.07590468
36	0xbe170c36	-0.14750752
37	0xbee68dc2	-0.45030028
38	0xbe9b3720	-0.30315495
39	0xbdf59563	-0.11991384
40	0xbdd075bf	-0.10178708
41	0xbe3ff05e	-0.18744037
42	0xbe4fd709	-0.20296873
43	0xbe518ca4	-0.20463806
44	0xbc91c090	-0.017792016
45	0xbe6eca4e	-0.2331936
46	0x3d4588e3	0.04822625
47	0x3d882732	0.06648101
48	0x3d255e19	0.04037294
49	0x3ce9cd5f	0.028540311
50	0xbd7a4864	-0.061104193
51	0xbe53122c	-0.20612401
52	0xbdccff16	-0.10009591
53	0x3d049abd	0.032374132
54	0xbc6e67a1	-0.014551074
55	0xbd4f1370	-0.050555646
56	0xbe78b09e	-0.24286124
57	0xbe839eea	-0.2570718
58	0xbe12ea39	-0.14347161
59	0x3c9675e6	0.018366765
60	0x3d243194	0.040086344
61	0xbd1263e9	-0.035739813
62	0xbdaf5cee	-0.08562647
63	0x3dbfde88	0.09368616
64	0xbe444dbc	-0.19170278
65	0xbe74a9ea	-0.23892942
66	0x3bd525fd	0.0065047727
67	0x3e449cd1	0.19200446
68	0xbd78b573	-0.06071992
69	0x3d3bc453	0.045841526
70	0x3e30f477	0.17280756
71	0x3e9f21cf	0.3108048
72	0x3ec2915f	0.38001534
73	0x3ea29ef3	0.31761894
74	0xbdaff1d2	-0.085910454
75	0xbf3a6c83	-0.72821826
76	0x3e29d300	0.16584396
77	0x3f67a784	0.90489984
78	0xbd79965d	-0.060934413
79	0xbea2f7dd	-0.3182973
80	0xbed5615a	-0.41675836
81	0x3eaa2f9b	0.33239445
82	0x3f5aaa2f	0.8541593
83	0xbe661654	-0.22469455
84	0xbed56c1e	-0.4168405
85	0x3f09f700	0.5389252
86	0xbe861f56	-0.26195782
87	0xbf3d788c	-0.74012065
88	0x3e209987	0.15683566
89	0x3ed224ec	0.41043794
90	0x3f167cbd	0.58784086
91	0xbe249faa	-0.16076532
92	0xbfaa2865	-1.3293577
93	0x3e97632d	0.29567853
94	0x3ef63f3c	0.4809512
95	0x3dab5cbc	0.08367297
96	0x3d7816d3	0.060568642
97	0xbe76fb0f	-0.24119209
98	0x3e49d5cb	0.19710462
99	0xbe860846	-0.26178187
100	0xbf116932	-0.5680114
101	0x3e68542e	0.22688362
102	0x3f87d003	1.0610355
103	0xbe4a3562	-0.19746926
104	0xbee2b8e8	-0.44281697
105	0xbd1b3a27	-0.037897255
106	0xbe6e649b	-0.23280565
107	0x3f24269f	0.6412143
108	0xbe1d80cc	-0.15381163
109	0xbedde51d	-0.43338862
110	0x3f386c9f	0.7204074
111	0xbe3defe2	-0.1854854
112	0xbfa2384d	-1.2673432
113	0xbe152b95	-0.14567406
114	0x3f4ebf62	0.80760777
115	0x3f62e7e9	0.88635117
116	0xbe6e7942	-0.23288444
117	0xbf956ecd	-1.1674439
118	0x3e85c176	0.2612416
119	0x3f4185b0	0.75594616
120	0xbdfcf30b	-0.12351044
121	0xbd20bc7b	-0.03924225
122	0xbd1cff58	-0.038329452
123	0x3eb8b6a2	0.36076838
124	0xbcb11f3b	-0.021621337
125	0xbf06bc1a	-0.5263077
126	0xbcde423b	-0.02713119
127	0x3f4d3653	0.8016102
128	0xbe5d1bdd	-0.2159266
129	0xbe802e51	-0.25035337
130	0xbeb81085	-0.35950103
131	0x3e84084e	0.25787586
132	0x3f359a57	0.7093863
133	0xbe6af325	-0.22944315
134	0xbed2c07d	-0.41162482
135	0x3f280042	0.65625393
136	0xbc9dcce5	-0.01926274
137	0xbf423873	-0.75867385
138	0xbd28c9b5	-0.041207988
139	0x3f1b9a1c	0.6078203
140	0x3f284870	0.6573553
141	0xbd813cb7	-0.063104086
142	0xbf8c9fd4	-1.0986276
143	0x3e5bca27	0.21463834
144	0x3eacc23e	0.33741945
145	0x3daa425b	0.083134376
146	0xbe470373	-0.1943491
147	0xbe287ae9	-0.16453137
148	0x3f0c0639	0.54696995
149	0xbe84d9ee	-0.25947517
150	0x3dc3c1c4	0.09558442
151	0x3d222709	0.039588008
152	0x3daddfa3	0.08489921
153	0x3e7a36cb	0.24434964
154	0x3dbaf35d	0.09128449
155	0xbceb9af6	-0.028760415
156	0x3c633322	0.0138671715
157	0x3e40732d	0.18793936
158	0x3db4ceef	0.08828532
159	0x3d08d34e	0.03340464
160	0xbe18d1e2	-0.14923814
161	0xbc600c02	-0.013674738
162	0xbd51135b	-0.05104385
163	0xbe2abad8	-0.16672838
164	0xbe0f2587	-0.1397916
165	0xbdc087e4	-0.09400919
166	0xbe9d4b5e	-0.30721563
167	0xbe212dfc	-0.15740198
168	0xbd1efafe	-0.038813584
169	0xbea2bdde	-0.31785482
170	0xbe980433	-0.29690704
171	0xbee9f2c7	-0.45693037
172	0xbeb65cf8	-0.35617805
173	0xbf0f52bd	-0.55985624
174	0xbeacdaf1	-0.3376079
175	0x3e0d653c	0.13808149
176	0x3ed708ed	0.41998997
177	0x3e85ace0	0.26108456
178	0x3ee2b98f	0.44282195
179	0x3de730fd	0.11288641
180	0x3dfc7346	0.12326674
181	0x3dd90183	0.105959915
182	0x3e4a08fd	0.19729991
183	0x3eb39d37	0.35080883
184	0x3e76cc6d	0.2410142
185	0xbd9df23e	-0.0771222
186	0xba5aa894	-0.000834116
187	0xbe422964	-0.18961102
188	0xbe19818c	-0.14990824
189	0xbd475d04	-0.04867269
190	0xbc85a8a7	-0.016315771
191	0xbdbd640f	-0.092476
192	0xbe0bbd34	-0.13646394
193	0xbe1cef2c	-0.15325612
194	0xbe5e5163	-0.21710734
195	0xbd954e85	-0.07290367
196	0xbd39fd7e	-0.045407765
197	0xbe593a5e	-0.21213672
198	0xbe9c3b8f	-0.3051419
199	0xbe150e62	-0.14556268
200	0x3da5c148	0.08093506
201	0x3d940d55	0.072291054
202	0x3ebc2f18	0.3675468
203	0x3e666eb2	0.22503164
204	0x3e6d014b	0.23145024
205	0x3dfcb1fa	0.12338634
206	0x3da8451a	0.08216305
207	0x3e11820c	0.14209765
208	0xbd651db7	-0.05593654
209	0x3d55a1f5	0.052156407
210	0xbdf07c2d	-0.11742435
211	0xbebb24f1	-0.36551622
212	0xbec02451	-0.37527707
213	0xbe8473fd	-0.25869742
214	0xbe522f70	-0.20525908
215	0x3e3b6524	0.18300301
216	0xba52b654	-0.0008038033
217	0xbe00bcc3	-0.12572007
218	0x3da91388	0.082556784
219	0x3dc78a41	0.09743167
220	0x3eabddb4	0.33567584
221	0x3e8ea5bf	0.2786083
222	0xbd1ff58f	-0.039052542
223	0x3e599612	0.21248654
224	0x3e7f5ed5	0.2493852
225	0xbe1dfa7d	-0.15427585
226	0xbcfa7d02	-0.030577186
227	0xbe140ad0	-0.1445725
228	0x3cb173ea	0.021661717
229	0x3eab4167	0.33448336
230	0x3ccf54fc	0.025309078
231	0x3cc0379b	0.023464015
232	0x3e6967ef	0.22793554
233	0x3d3089fd	0.043100346
234	0xbbf29080	-0.0074024796
235	0x3e623c4f	0.22093318
236	0x3e2db4cc	0.169635
237	0x3b7fd8a3	0.0039039038
238	0xbd9a3c10	-0.07530987
239	0xbdaaf62d	-0.083477356
240	0x3d4dbb6a	0.05022756
241	0xbca2bcc6	-0.019865405
242	0x3c83f88e	0.016109731
243	0x3dd07ed4	0.101804405
244	0x3e1a0ae0	0.15043211
245	0xbe5206fd	-0.20510478
246	0xbe39c84f	-0.18142818
247	0x3e0aea53	0.1356595
248	0x3ea09b6b	0.31368575
249	0x3e81078c	0.2520107
250	0xbece9132	-0.4034515
251	0xbeb3269c	-0.34990394
252	0xbee8a8f7	-0.4544141
253	0xbd80a7ee	-0.0628203
254	0x3d66395f	0.056207057
255	0xbcf0500a	-0.02933504

features.3.weight f4 [16, 6, 5, 5]
0	0xbe32a555	-0.17445882
1	0x3c410d5e	0.011782972
2	0x3bb82324	0.0056194235
3	0xbc9a5490	-0.01883915
4	0x3bf89361	0.0075859283
5	0x3bf56240	0.007488519
6	0xbd33ec31	-0.04392642
7	0xbc8ab575	-0.016932229
8	0xbd87d51e	-0.06632446
9	0x3dbe9eaf	0.0930761
10	0x39bbe780	0.000358399
11	0xbd1f2dfa	-0.038862206
12	0xbd1cc72a	-0.038275875
13	0xbdb67573	-0.089091204
14	0x3d16f2d3	0.03685267
15	0x3dfff24c	0.12497386
16	0x3d8d7c42	0.06908466
17	0x3e15848a	0.14601341
18	0x3d9bfba7	0.07616358
19	0xbe62177a	-0.22079268
20	0x3dc4168d	0.09574614
21	0x3e8314bc	0.25601757
22	0x3d963a96	0.07335393
23	0xbdfa1db6	-0.12212698
24	0xbdc0cfb1	-0.09414614
25	0x3d4ba891	0.049721304
26	0xbdb3327b	-0.08749863
27	0x3dbc004c	0.09179744
28	0x3da5618f	0.080752485
29	0x3e4201ab	0.18945949
30	0x3e3d88d3	0.18509226
31	0x3d1cb87f	0.038261887
32	0x3dcbfff4	0.099609286
33	0x3c312c2b	0.010813753
34	0x3d9aa86c	0.07551655
35	0xbc808753	-0.015689528
36	0xbca2f1c5	-0.019890675
37	0x3dc2cf8c	0.09512243
38	0xbd3329f8	-0.043741196
39	0x3d6c066e	0.05762332
40	0x3d8049c4	0.0626407
41	0x3de2ada5	0.11068276
42	0xbe15fbdb	-0.14646856
43	0x3df64792	0.1202537
44	0xbba0ea72	-0.0049107606
45	0x3e81c6d5	0.2534701
46	0x3e66a564	0.22524029
47	0x3e24ddff	0.1610031
48	0x3e96ec48	0.29477143
49	0x3e31ad07	0.17351161
50	0xbd413059	-0.04716525
51	0xbd3be32c	-0.045870945
52	0xbdd7c11d	-0.1053488
53	0xbdecdc30	-0.11565435
54	0xbe0d0edc	-0.137752
55	0xbd3163fe	-0.04330825
56	0x3d36a2fa	0.04458902
57	0x3cb97d8b	0.022642871
58	0xbc790e73	-0.015201199
59	0xbdc8e7b1	-0.09809817
60	0xbde82f80	-0.11337185
61	0xbdf122f1	-0.11774243
62	0x3afadaa4	0.0019138646
63	0xbd6dc4a0	-0.058048844
64	0xbd15fd2d	-0.0366184
65	0xbda36080	-0.0797739
66	0xbd168d8d	-0.036756087
67	0xbe0417e0	-0.12899733
68	0xbd110bd2	-0.035411663
69	0xbda2b230	-0.07944143
70	0xbd99e188	-0.0751372
71	0xbe0543cf	-0.13014148
72	0xbc945839	-0.018108474
73	0xbe2e0efe	-0.16997907
74	0xbe8f4341	-0.27980998
75	0x3c932619	0.017962502
76	0x3d5ccc6a	0.053905882
77	0x3c9e0e0b	0.019293806
78	0xbdc2fd8a	-0.09521015
79	0x3c971425	0.018442223
80	0xbde5ed39	-0.11226887
81	0xbe08b0f1	-0.13348748
82	0xbd119214	-0.0355397
83	0xbe19528e	-0.14972898
84	0x3d71d123	0.05903734
85	0xbd905a53	-0.07048478
86	0xbe5d7967	-0.21628343
87	0xbe537d66	-0.20653304
88	0xbe3bfcee	-0.18358204
89	0xbe2f9f6d	-0.1715066
90	0xbd24ba44	-0.0402167
91	0xbe07ba25	-0.13254602
92	0xbca1d18c	-0.01975324
93	0xbe639dba	-0.22228137
94	0xbd2ac624	-0.041692868
95	0x3d5986a5	0.053106923
96	0xbe1a231f	-0.1505246
97	0xbe0b51c5	-0.13605411
98	0xbe0ccf6b	-0.13750999
99	0x3be8e355	0.007107178
100	0x3c1ee8d7	0.009699068
101	0x3c90731d	0.017633015
102	0x3db8f6f0	0.090314746
103	0xbda4edba	-0.08053155
104	0xbd76e916	-0.06028088
105	0x3d90ecd8	0.07076424
106	0x3d8558a6	0.06511049
107	0xbc3b0243	-0.011414113
108	0xbd6ccbac	-0.057811424
109	0xbe729bda	-0.23692265
110	0x3e6089ad	0.21927519
111	0x3e89e2fd	0.2693099
112	0x3e6ecec1	0.23321058
113	0x3e4ff1a3	0.20307021
114	0x3d2fe31d	0.0429412
115	0x3e0082f0	0.12549949
116	0x3e87315f	0.26404855
117	0xbc37a542	-0.011208834
118	0x3dbebdff	0.09313583
119	0x3d24dc22	0.040248998
120	0x3dc09e8e	0.09405242
121	0xbc6da9d4	-0.014505822
122	0x3cf1a949	0.029499667
123	0xbd63cc1a	-0.05561457
124	0x3c89e891	0.01683453
125	0x3cacee56	0.021109741
126	0xbbecc48c	-0.0072255787
127	0x3df77c08	0.12084204
128	0x3df2b8fc	0.11851689
129	0x3d81d665	0.06339721
130	0xbe0ada87	-0.13559924
131	0xbe5d9abe	-0.2164106
132	0xbe1741fb	-0.14771263
133	0xbd496ce3	-0.049176108
134	0xbd98feb7	-0.07470458
135	0xbdf1d0d3	-0.11807408
136	0xbe2c0056	-0.16797003
137	0xbe421b6f	-0.18955778
138	0x3bf433df	0.0074524726
139	0xbd25cd30	-0.040478885
140	0xbc141d82	-0.009040238
141	0xbe09a117	-0.13440357
142	0xbe7616af	-0.2403209
143	0xbe0ceaa8	-0.1376139
144	0x3d01dec2	0.03170658
145	0x3d62d501	0.055378918
146	0x3d36a789	0.044593368
147	0xbd05b345	-0.032641668
148	0xbd5c9ccc	-0.05386047
149	0x3da08c2e	0.07839237
150	0xbe26d3b1	-0.16291691
151	0x3d25ab04	0.040446296
152	0x3e8e27ea	0.27764827
153	0x3e834610	0.2563939
154	0xbd6d6191	-0.057954375
155	0xbd8aba47	-0.06773811
156	0xbcd95c4d	-0.02653327
157	0x3e7d9db0	0.24767184
158	0x3d95daab	0.07317098
159	0xbead5a6d	-0.33858052
160	0xbd0cc393	-0.0343662
161	0x3db8f3ee	0.09030901
162	0xbcca9ae9	-0.02473207
163	0x3dfde75e	0.123976454
164	0xba98c7bb	-0.0011656204
165	0x3dd3f8ca	0.10350187
166	0x3d472653	0.048620533
167	0xbd2cb3e0	-0.04216373
168	0xbd9515c6	-0.072795436
169	0xbe09c3be	-0.13453576
170	0xbd76e322	-0.060275204
171	0x3ccf45a9	0.025301771
172	0xbdd6a3cc	-0.104804605
173	0xbe5f03dc	-0.21778816
174	0xbe924892	-0.28570992
175	0xbd35ad74	-0.04435487
176	0x3e417908	0.18893826
177	0xbde9a7cf	-0.1140896
178	0x3e960753	0.29302463
179	0x3d957a5f	0.07298731
180	0x3e612c06	0.2198945
181	0xbd3e034e	-0.04638987
182	0x3ef03ab4	0.46919787
183	0x3e27d137	0.16388403
184	0x3daa848e	0.08326064
185	0x3e2f8416	0.1714023
186	0x3f05ecf7	0.52314705
187	0x3e5e5749	0.21712984
188	0x3e70caf9	0.23514928
189	0x3ea1a1b9	0.31568697
190	0x3ec683ff	0.3877258
191	0x3dc45294	0.09586063
192	0x3e834460	0.25638103
193	0x3e6e3399	0.2326187
194	0x3e2286e1	0.15871765
195	0xbdd55cee	-0.104181156
196	0x3e78299b	0.24234621
197	0x3e3976ab	0.18111674
198	0x3e9c91ed	0.30580083
199	0x3ec26d78	0.37974143
200	0xbd8e262c	-0.069408745
201	0x3c15ee90	0.009151116
202	0x3e810057	0.25195572
203	0x3dc0e981	0.09419537
204	0xbe03dbad	-0.12876768
205	0xbddbddef	-0.1073569
206	0x3dc183ae	0.09448944
207	0x3e7b44ef	0.24538015
208	0xba831f60	-0.0010003857
209	0xbe374286	-0.1789647
210	0x3d4c6747	0.04990318
211	0xbe37354d	-0.17891426
212	0xbeb78d5b	-0.35850033
213	0xbe48cc2a	-0.19609132
214	0x3d8803d3	0.066413544
215	0xbe0e8c7d	-0.1392078
216	0xbe588f99	-0.21148528
217	0xbe19b4fd	-0.15010448
218	0xbd4764b4	-0.048680022
219	0x3d27d3a5	0.040973324
220	0xbe9819ae	-0.29707092
221	0xbcd0a379	-0.025468575
222	0xbda21e5e	-0.07915948
223	0x3c81ad5d	0.015829736
224	0xbead35c6	-0.33830088
225	0x3d5eba84	0.054377094
226	0x3e681d5c	0.2266745
227	0x3dc73485	0.09726814
228	0x3e29d5b8	0.16585433
229	0xbd621bbe	-0.05520224
230	0xbc8cda72	-0.017194007
231	0x3d109a24	0.03530325
232	0x3e15634d	0.14588661
233	0x3e4b514b	0.1985523
234	0xbd2d7496	-0.042347513
235	0x3e227952	0.15866593
236	0x3d93ee9c	0.072232455
237	0xbe03f8fa	-0.12887946
238	0x3e7267ec	0.23672456
239	0x3d9640ef	0.07336604
240	0xbe37c998	-0.17947996
241	0xbd3149f6	-0.043283425
242	0xbcb6db0b	-0.022321245
243	0xbdce0199	-0.100588985
244	0xbd74a75d	-0.059729923
245	0xbe10dc5a	-0.14146557
246	0xbdc297d7	-0.095016174
247	0xbe796cde	-0.24357936
248	0xbe0929d1	-0.13394858
249	0xbd9f13ea	-0.0776747
250	0x3e4897e9	0.19589199
251	0x3d4e1176	0.05030962
252	0x3bb00716	0.0053719385
253	0xbcfc22f9	-0.030778395
254	0x3e11af72	0.14227083
255	0x3df98e0f	0.12185299

features.7.weight f4 [120, 400]
0	0x3d076423	0.033054482
1	0x3ada98d1	0.0016677623
2	0x3d132c27	0.03593078
3	0x3d0a6dd3	0.033796143
4	0x3caec8f2	0.021336053
5	0xbb9240bd	-0.004463284
6	0x3c0994c3	0.008397284
7	0x3c701ecd	0.014655781
8	0x3c57b320	0.013165265
9	0xbba55d42	-0.0050465176
10	0xbb8abba0	-0.0042337924
11	0xbca74d69	-0.020422654
12	0xb9dde223	-0.0004232089
13	0xbc11994f	-0.008886649
14	0xbd2f74a6	-0.042835854
15	0xbcdc5fe1	-0.026901187
16	0xbc96b631	-0.018397423
17	0x3d106455	0.035251934
18	0x3c967b21	0.01836926
19	0xbd1576a3	-0.036490094
20	0xbc114a1e	-0.008867769
21	0x3c1e9c37	0.009680799
22	0x3c554675	0.013017287
23	0x3c1fcc2b	0.009753267
24	0x3a860982	0.0010226222
25	0xbc4ffddc	-0.012694802
26	0x3c6ae70f	0.014337315
27	0xbbeeeac1	-0.0072911684
28	0x3b7ee47f	0.0038893519
29	0x3b79ba2a	0.0038105347
30	0xbc5b87bf	-0.013399064
31	0x3c61935c	0.013768043
32	0x3cf2c5cb	0.02963533
33	0x3cc5d41c	0.024148993
34	0xbc1efda8	-0.009704031
35	0x3c7ec12a	0.015548984
36	0x3b1af244	0.0023642937
37	0x3cc84f28	0.024451807
38	0x3d18ee7e	0.03733682
39	0x3cf96fcf	0.030448822
40	0x3c938887	0.018009437
41	0xbc23cdc9	-0.0099977935
42	0x3c892429	0.016740875
43	0x3d39629c	0.045260057
44	0x3d32d530	0.043660343
45	0x3c4b440c	0.01240636
46	0xbd2ede9c	-0.042692766
47	0xbd2cb914	-0.04216869
48	0xbce5b6cd	-0.028041268
49	0x3d28d93a	0.04122279
50	0xbd03704d	-0.03208952
51	0xbb356ad3	-0.002768208
52	0xbd0c85be	-0.034307234
53	0xbd10fa76	-0.03539511
54	0x3bdffcdc	0.006835563
55	0xbd423144	-0.047410265
56	0xbc2525b4	-0.01007979
57	0xbc9f40b7	-0.019440038
58	0xbcaa41bd	-0.0207833
59	0xbc633fac	-0.013870161
60	0xbd0e278b	-0.03470568
61	0x3baae9e8	0.005215872
62	0x3c6fb313	0.014630097
63	0xbb1d065c	-0.002396009
64	0xbc421980	-0.0118469
65	0xbc156914	-0.009119291
66	0x3cff89ca	0.031193633
67	0x3cb89854	0.022533573
68	0x3c67fa13	0.014158743
69	0xbcbbb01d	-0.022911126
70	0xbaa75cbf	-0.0012768729
71	0x3bc7ffac	0.0061034765
72	0x3c4c9802	0.012487413
73	0x3c258755	0.010103066
74	0x3ce60a76	0.02808116
75	0x3c2f1030	0.010685012
76	0x3c2f863e	0.010713158
77	0x3c534039	0.01289373
78	0x3cb60675	0.022219876
79	0xbcad1c94	-0.021131791
80	0xbc27fa81	-0.010252596
81	0xbc000d46	-0.007815665
82	0xbd03a227	-0.032137062
83	0x3c102ea9	0.008800187
84	0x3bf030cf	0.007330037
85	0xbbb028b2	-0.005375945
86	0x3ba9c5e1	0.0051810597
87	0xbb2aa794	-0.0026039826
88	0xbb4c2e80	-0.0031155646
89	0xbcd13a0f	-0.02554038
90	0xbc57115f	-0.0131267
91	0x3bed286f	0.007237486
92	0x3d0d823b	0.034548026
93	0x3be79620	0.007067457
94	0xbc9e4503	-0.019320017
95	0xbb9216dc	-0.0044582915
96	0xbbbfcf76	-0.0058535887
97	0x3cd3ccb5	0.025854448
98	0x3c7fb771	0.015607701
99	0xbc8f1fe8	-0.017471269
100	0xbb486852	-0.0030579758
101	0x3c43f199	0.011959457
102	0xbb623a38	-0.0034519564
103	0xbbd7ee5c	-0.006589694
104	0x3b1f246a	0.002428318
105	0x3c0c47c3	0.008562031
106	0x3bff5036	0.0077915443
107	0x3a26c19d	0.0006361248
108	0x3cdef6aa	0.027217228
109	0xbb8c2eff	-0.0042780633
110	0xbd14e7b0	-0.036353767
111	0xbc80b4f6	-0.015711289
112	0xbccc901d	-0.024971062
113	0xbb4eb6da	-0.0031542093
114	0xbcd23a10	-0.025662452
115	0x3c18fd4f	0.009337737
116	0x3cad4aa4	0.021153755
117	0x3d190f3b	0.03736804
118	0x3d128e13	0.035780024
119	0x3d0ea9ac	0.03482978
120	0x3d26119e	0.040544145
121	0x3cc96757	0.02458541
122	0x3d075d74	0.03304811
123	0x3d40b575	0.04704805
124	0x3ca1dc1d	0.019758279
125	0xbd571569	-0.052510653
126	0xbcb25032	-0.021766756
127	0xbbd29bba	-0.0064272555
128	0xbc4b58a9	-0.012411275
129	0xbce5379f	-0.027980624
130	0xbd489ae1	-0.04897583
131	0xbd1ea593	-0.038732123
132	0xbcdfb7d8	-0.027309343
133	0xbcf1b000	-0.029502869
134	0xbcf80d46	-0.030279767
135	0x3c248180	0.010040641
136	0xbc5289f7	-0.012850276
137	0x3c20037b	0.009766455
138	0x3c269063	0.01016626
139	0xbac68d7b	-0.0015148366
140	0xbc1191b9	-0.008884841
141	0xbcca5435	-0.024698356
142	0xbc9540d5	-0.01821939
143	0xbc70ae9d	-0.014690069
144	0xbbadf106	-0.0053082732
145	0x3b924d7c	0.0044648033
146	0xbd132881	-0.0359273
147	0xbc03e38c	-0.008049857
148	0xbb534507	-0.0032237188
149	0x3b44f3a0	0.0030052438
150	0x3c2edc1b	0.010672594
151	0x3b95f973	0.004576856
152	0xb9ae27a8	-0.00033217412
153	0x3ac81b7a	0.0015266978
154	0xbc0d8c06	-0.008639341
155	0x3a2a7b7e	0.0006503387
156	0x3d1b6564	0.03793849
157	0x3cceb12b	0.025230965
158	0x3d0c6ac0	0.034281492
159	0xbb1f5dfd	-0.0024317496
160	0xbacd18ab	-0.001564761
161	0x3c1368b1	0.008997128
162	0x3cd0ffcd	0.0255126
163	0x3c678bf8	0.014132492
164	0x3c4b5629	0.012410679
165	0xbc6e93b5	-0.014561583
166	0xbbc3b895	-0.0059729316
167	0x3d0b5d11	0.034024302
168	0x3c0cc045	0.0085907625
169	0xbc993410	-0.018701583
170	0xbbc45103	-0.0059911027
171	0x3b99f2bc	0.0046981256
172	0xbbda6e81	-0.006666005
173	0xba003365	-0.0004890471
174	0xbc85e730	-0.01634559
175	0xbcd17d3e	-0.025572415
176	0xbca2e5c2	-0.019884948
177	0x3c4e72fb	0.012600656
178	0xbbe18b65	-0.006883072
179	0x3befecf3	0.0073219477
180	0xbc9e2b23	-0.019307679
181	0x3ab0a748	0.0013477588
182	0x3c79f4dc	0.015256133
183	0xbd185f04	-0.03719999
184	0xbbbb2f10	-0.0057123974
185	0xbcb084f6	-0.021547776
186	0xbb8e98ca	-0.00435171
187	0xbc35d6a6	-0.011098539
188	0xbce8d205	-0.028420458
189	0xbb687659	-0.0035470931
190	0xbd2ce88f	-0.042213973
191	0xbcaf84cd	-0.021425629
192	0xbc2036f1	-0.009778724
193	0xbcf48390	-0.02984789
194	0xbd01439c	-0.031558618
195	0xbcd468aa	-0.025928814
196	0x3bb4022e	0.005493424
197	0x3cf18877	0.029484017
198	0xbc38d744	-0.011281792
199	0xbd17ebda	-0.03709016
200	0xbca29e9b	-0.01985102
201	0x3c49eabd	0.012324032
202	0x3ce7e302	0.028306488
203	0x3b81eecc	0.0039652344
204	0xbcc72796	-0.024310868
205	0x3ccc5ad2	0.02494565
206	0x3c4c90fa	0.012485737
207	0x3c9f2bec	0.019430123
208	0x3ca0ccf9	0.019628989
209	0xbbd16f23	-0.0063914224
210	0x3b971cc2	0.0046115825
211	0x3bc90078	0.006134089
212	0x3d1946c9	0.03742102
213	0x3c26f91b	0.010191227
214	0xba9e6670	-0.0012084972
215	0x3cb21e01	0.021742823
216	0x3c4e6ae4	0.012598727
217	0x3c2a5c36	0.010397961
218	0x3b9af607	0.004729036
219	0xba74bdd8	-0.000933615
220	0x3c9db097	0.019249244
221	0x3b680aea	0.0035406896
222	0xbbd05db3	-0.006358826
223	0x3b84bc07	0.004050735
224	0x3c568bb6	0.013094833
225	0xbca0a469	-0.019609647
226	0xba5fbbd3	-0.0008534763
227	0xbc57a3d7	-0.013161621
228	0xbc7c926b	-0.015415768
229	0xbc6838e0	-0.014173716
230	0x3bec8da4	0.0072190333
231	0x3c421500	0.011845827
232	0x3c29a621	0.01035455
233	0xbb8949ca	-0.0041897045
234	0xba068447	-0.0005131405
235	0xbc573578	-0.013135307
236	0xbc382bb8	-0.011240892
237	0xbcda6a11	-0.026661905
238	0x3bae2189	0.0053140563
239	0x3b981d4c	0.0046421643
240	0xba5a27d1	-0.0008321973
241	0x3b9077cc	0.004408812
242	0xbc0f530f	-0.00874783
243	0x3c112468	0.008858778
244	0xbb718237	-0.0036851296
245	0xbc96f6e1	-0.018428268
246	0xbb0b5ba6	-0.0021264344
247	0xbc1dce97	-0.009631774
248	0xbaef1b5d	-0.0018242408
249	0xbc95beb3	-0.018279409
250	0xbd795b54	-0.060878113
251	0x3cb9b8ac	0.022671066
252	0xbba11447	-0.0049157473
253	0xbc681e43	-0.014167371
254	0xbd1904b8	-0.037358016
255	0xbd2a8fc9	-0.04164103

features.7.bias f4 [120]
0	0xbd67d599	-0.056600187
1	0x3d6b2032	0.05740375
2	0xbea0394b	-0.3129371
3	0xbd04b5f0	-0.03240007
4	0x3e3431ed	0.1759717
5	0x3c83e429	0.016100006
6	0xbd5d5110	-0.054032385
7	0x3e104dc3	0.14092164
8	0x3d763225	0.060106415
9	0xbe47700a	-0.19476333
10	0x3e6bfafe	0.23044965
11	0x3e476470	0.19471908
12	0xbd8ece84	-0.069729835
13	0xbc1d2b0a	-0.009592781
14	0x3d19af9e	0.037520997
15	0x3c504f5b	0.012714232
16	0xbcbb4b62	-0.022863094
17	0xbd340d4b	-0.04395799
18	0xbda38c7d	-0.079857804
19	0x3b3a77c7	0.002845274
20	0xbd5f4994	-0.05451353
21	0x3ce9e619	0.028552102
22	0xbc709d31	-0.014685915
23	0x3b115009	0.0022172949
24	0x3e1b227e	0.15149876
25	0x3dae1573	0.08500185
26	0xbc85893c	-0.01630079
27	0x3cfb9863	0.030712312
28	0xbd60b33b	-0.054858427
29	0x3c8574d2	0.016291056
30	0xbe379d57	-0.17931114
31	0xbc8c67db	-0.017139366
32	0xb9a1e996	-0.00030882348
33	0x3dfedd39	0.124445386
34	0x3c8628ad	0.016376818
35	0x3b2aec06	0.0026080622
36	0xbe097c69	-0.13426365
37	0x3a7815a5	0.00094636745
38	0xbd43ed03	-0.047833454
39	0xbde8c4be	-0.113656506
40	0xbb8ec1ed	-0.004356614
41	0xbd4574fa	-0.04820726
42	0xbec43190	-0.38319063
43	0xbb8043fd	-0.003914355
44	0xbbb5a928	-0.0055438466
45	0xbc62fa9a	-0.013853693
46	0xbbb5217a	-0.0055276724
47	0xbd940661	-0.07227779
48	0xbbce2e12	-0.006292113
49	0x3dba241f	0.09088921
50	0x3c9ebda5	0.019377539
51	0x3e1ad981	0.15122034
52	0xbc7f7b09	-0.015593299
53	0xbcaaa1b5	-0.020829061
54	0xbd0bab2a	-0.03409878
55	0xbec72db5	-0.3890206
56	0xbc74a440	-0.014931738
57	0x3d1ee341	0.038790945
58	0x3ceb91d6	0.028756063
59	0x3d0c6f3c	0.03428577
60	0xbac3736c	-0.0014911718
61	0xbe102b6b	-0.14079063
62	0xbc4a6503	-0.012353185
63	0x3c41431b	0.011795784
64	0x3cfa9709	0.030589597
65	0xbd19546b	-0.037434023
66	0xbe2476da	-0.16060963
67	0xbca530cd	-0.020164872
68	0x3c63feeb	0.013915758
69	0x3c09f24f	0.008419587
70	0xbd637cfb	-0.055539113
71	0x3d6115ed	0.05495255
72	0xbbf554ab	-0.0074869
73	0xbd33f044	-0.043930307
74	0xbcb74178	-0.022370085
75	0x3c0359a2	0.008016976
76	0x3e23a825	0.15982111
77	0xbe82d58b	-0.25553545
78	0xbe3c76fe	-0.18404767
79	0xbd16da0a	-0.036829032
80	0x3e0e480b	0.1389467
81	0x3e10dcc3	0.14146714
82	0xbc8d6301	-0.017259123
83	0xbe39dad4	-0.18149883
84	0x3d0b1585	0.03395607
85	0xbb3f143d	-0.002915635
86	0x3df6d087	0.12051492
87	0x3da4a78b	0.08039769
88	0x3dbc04f6	0.09180634
89	0x3d5219ce	0.05129414
90	0xbe03d948	-0.12875855
91	0xbb51bec0	-0.0032004565
92	0xbe07fe09	-0.132805
93	0xbb5486c4	-0.003242896
94	0xbd2bfb86	-0.04198792
95	0x3d13d9d4	0.03609641
96	0xbd865b5e	-0.06560396
97	0xbd9f0999	-0.077655025
98	0xbcf40622	-0.02978808
99	0x3d827ff5	0.06372062
100	0xbc032ea9	-0.00800673
101	0x3da740c6	0.081666514
102	0xbd7da234	-0.061922267
103	0xbc9f04db	-0.019411495
104	0xbdd661e6	-0.104678914
105	0x3cd2c82f	0.02573022
106	0xbef8b416	-0.48574895
107	0x3d2ab8be	0.04168009
108	0xbc985db3	-0.018599367
109	0xbdf07ef2	-0.11742963
110	0xbe14a876	-0.14517388
111	0x3e20bb9f	0.15696572
112	0x3c754167	0.014969206
113	0xbe2a1a8e	-0.16611692
114	0x3d7b3dd0	0.061338246
115	0x3d3ff336	0.046862803
116	0xbe868f96	-0.26281422
117	0x3d914225	0.07092694
118	0x3ce384e7	0.027773334
119	0xb894967e	-7.085221e-05

features.9.weight f4 [84, 120]
0	0xbcaa49e0	-0.02078718
1	0x3bd7d59a	0.0065867426
2	0x3c784dc6	0.015155261
3	0xbc8c97e5	-0.017162273
4	0xbc7589d5	-0.014986475
5	0x3cba832a	0.022767622
6	0xbc251867	-0.010076619
7	0xbcb24d94	-0.021765508
8	0x3d07ffa6	0.03320279
9	0xbbd69b87	-0.006549302
10	0xba918946	-0.0011103533
11	0x3adf225f	0.0017023793
12	0x3c6191b0	0.013767645
13	0x3c3979ef	0.011320575
14	0x3b5ca839	0.0033669604
15	0x3cd532e2	0.02602524
16	0xbc12c962	-0.008959146
17	0x3ba73b92	0.005103537
18	0x3b59c56c	0.0033229245
19	0x3b573de5	0.0032843288
20	0xbc64c9e4	-0.01396415
21	0x3c103485	0.008801584
22	0x3bb89460	0.005632922
23	0xbc572505	-0.013131385
24	0x3c63a40b	0.013894091
25	0xbc17da45	-0.009268348
26	0x3c7ab21f	0.015301256
27	0xbc2e9aca	-0.010657022
28	0xbbe481f4	-0.0069734994
29	0x3b1a879d	0.0023579367
30	0xbb3a3ae3	-0.0028416447
31	0x3bef17e5	0.0072965496
32	0xbbf45109	-0.007455949
33	0x3c42876e	0.011873109
34	0x3c433bcc	0.011916112
35	0xba82c3f4	-0.0009976611
36	0xbb190def	-0.0023354252
37	0x3c3af604	0.011411194
38	0xbb6aaa9c	-0.0035807258
39	0xbc1e9bd7	-0.00968071
40	0x3b357749	0.0027689508
41	0x3afef54e	0.0019451769
42	0xbbd5f6b7	-0.006529655
43	0x39cb4580	0.0003877096
44	0x3c7c7347	0.015408344
45	0x3be09dc2	0.0068547437
46	0x3a5a2bb5	0.0008322553
47	0x3aa1c724	0.0012342674
48	0xbc8a2755	-0.016864458
49	0x3a779642	0.00094446924
50	0xbc7e37d8	-0.015516244
51	0x3b81b6c6	0.003958556
52	0x3b1b3b19	0.0023686348
53	0xbbd4d79a	-0.0064954283
54	0x3b98517d	0.004648386
55	0x3b767cc4	0.0037610987
56	0x39da1928	0.00041598943
57	0xbb731a7a	-0.0037094639
58	0x3c8316fc	0.01600217
59	0x3c5bd331	0.013417051
60	0x3be06038	0.0068474077
61	0xbc1b2d97	-0.009471319
62	0xbbf2da76	-0.0074112965
63	0xbbe1a071	-0.006885581
64	0x3b216ca2	0.00246314
65	0xb90d36d0	-0.00013467227
66	0xba0981ba	-0.0005245466
67	0xbc27b402	-0.010235788
68	0x3af6b43b	0.0018822023
69	0x3be26a53	0.0069096475
70	0xbc46de7d	-0.012138006
71	0xbc207bb1	-0.009795115
72	0xbb09da49	-0.002103465
73	0xbc58d234	-0.01323371
74	0xbc4f8fbb	-0.012668545
75	0xbb9a0476	-0.004700239
76	0xbb879b89	-0.0041384143
77	0xbce61fe9	-0.028091388
78	0xbc0451c0	-0.008076131
79	0x3bd7d20a	0.006586318
80	0x3bcb0229	0.006195326
81	0xbbdfd56c	-0.006830862
82	0xbcaef595	-0.021357337
83	0x3c41cec4	0.011829082
84	0x3cb93982	0.02261043
85	0xbb8d1ebd	-0.004306643
86	0xbc8d29b2	-0.017231796
87	0x3c5ec611	0.013597027
88	0xbae9f73f	-0.0017850174
89	0xbc833644	-0.016017087
90	0x3bc49bc7	0.0060000154
91	0xbc66798c	-0.014067065
92	0xbb881bd6	-0.004153709
93	0x3c8f6196	0.017502587
94	0x3a451130	0.0007517515
95	0x3c029bf6	0.007971754
96	0x3ca9fd03	0.020750528
97	0xba661ae2	-0.00087778096
98	0x3c6c0112	0.014404552
99	0xbc84ae44	-0.016196378
100	0xbc04680d	-0.008081448
101	0xbca827f4	-0.020526864
102	0xbcd48b22	-0.02594525
103	0xbb9bc594	-0.0047537778
104	0x3b69e012	0.0035686535
105	0x3b428062	0.0029678573
106	0xbc225039	-0.009906822
107	0xbc8e0667	-0.017337037
108	0x3bbb4491	0.005714961
109	0x3be90301	0.007110954
110	0xbc8269b5	-0.015919546
111	0x3b1f9cef	0.0024355014
112	0xbc5b2fd9	-0.013378107
113	0x3b8c3747	0.0042790505
114	0x3c18583c	0.00929838
115	0xbb832c35	-0.0040030726
116	0xbc8d6aca	-0.017262835
117	0x3b2c91a3	0.0026331923
118	0x3c90a8fc	0.017658703
119	0x3c1bfdaa	0.009520927
120	0xbacea177	-0.0015764673
121	0xbce276c5	-0.027644524
122	0xb9dc407f	-0.00042009723
123	0x3bfb6b98	0.0076727383
124	0xba376e0c	-0.0006997294
125	0xbbcdfb99	-0.0062860963
126	0xbbf6d320	-0.0075324923
127	0x3c74c12c	0.014938634
128	0x3c15cafd	0.009142634
129	0x3b8911b3	0.004183018
130	0xbca63c1b	-0.020292332
131	0x3a0dafc7	0.0005404916
132	0xbb5441f7	-0.003238795
133	0xbbb79ae9	-0.0056031835
134	0xbc800a5e	-0.015629943
135	0xbba5d175	-0.0050603696
136	0x3b552a96	0.0032526604
137	0x3c9f5285	0.019448528
138	0x3bbf9123	0.005846159
139	0x3c65995e	0.014013616
140	0xbbef22fc	-0.0072978716
141	0xbc8a23d2	-0.016862784
142	0x39ad781b	0.00033086617
143	0x3c95c60c	0.018282913
144	0x3c51076b	0.012758116
145	0x39071ad0	0.00012884592
146	0x38bb54ff	8.9326866e-05
147	0xbbdb1eb8	-0.0066870116
148	0x3c02acf4	0.007975806
149	0x3a5f9aaa	0.00085298216
150	0xb98ee760	-0.00027256738
151	0x3bd40a8e	0.006470985
152	0xbb87ef47	-0.004148397
153	0xbc8c228b	-0.017106315
154	0x3b34481d	0.0027508803
155	0x3a1f363a	0.0006073449
156	0x3c363c8c	0.011122834
157	0xbbe4ceb1	-0.0069826473
158	0xbc4bb2bc	-0.01243275
159	0xbb3d4b5c	-0.002888403
160	0x3c0d6eb0	0.008632347
161	0xbc134df9	-0.008990758
162	0xbc11a660	-0.008889765
163	0xbbf93b30	-0.0076059327
164	0x3a85a657	0.0010196668
165	0x3bc86fbb	0.006116835
166	0xbca27f31	-0.01983604
167	0x3a2a2f16	0.00064920017
168	0xbb76c7a7	-0.0037655623
169	0x3c7967cd	0.015222502
170	0x3b936438	0.004498031
171	0x3b8a5ed6	0.004222731
172	0x3b6d937a	0.0036251233
173	0xbbfe4132	-0.0077592367
174	0xbc19e9b2	-0.009394096
175	0x3c2dff44	0.010619942
176	0x3b9c002f	0.004760764
177	0x3c4caeec	0.0124928765
178	0x3cdd6dbc	0.027029864
179	0xbadb16af	-0.0016715134
180	0xbbaf603a	-0.0053520473
181	0xbcc0dcb6	-0.023542743
182	0x3b9a8025	0.004714983
183	0xbc163da7	-0.0091699725
184	0xbba081fe	-0.004898309
185	0x3c180975	0.0092795985
186	0xbb05ab72	-0.0020396379
187	0xbbbb59ee	-0.0057175076
188	0xbc321047	-0.010868139
189	0xbb4aa1f9	-0.0030919297
190	0xba1a0a45	-0.0005876164
191	0x3b214298	0.0024606343
192	0xbb921c65	-0.0044589513
193	0xbbbcba24	-0.0057594944
194	0x3b4468c4	0.0029969672
195	0xbc558443	-0.013032022
196	0xbcbdbeb3	-0.023162222
197	0x3c729e3e	0.014808236
198	0xbbe62314	-0.0070232246
199	0xbcbff534	-0.023432352
200	0x3bbdb1c7	0.005789015
201	0x3b36524d	0.0027820051
202	0xbbeca447	-0.007221732
203	0x3b8d7272	0.0043166215
204	0x3bdef112	0.00680364
205	0xbc31f5ec	-0.010861855
206	0x3bca5b80	0.0061754584
207	0xbb285ef5	-0.0025691364
208	0xb90746a2	-0.00012900916
209	0x3ad0440c	0.001588942
210	0xbcd40728	-0.025882319
211	0x3c60f17b	0.013729448
212	0xb9a11c7a	-0.0003072953
213	0xbaa9655c	-0.0012923884
214	0x3c3f1eb7	0.011665038
215	0x3c8636a0	0.01638347
216	0xbb5c590b	-0.003362241
217	0xbbecbba0	-0.007224515
218	0x3c1ee4d2	0.00969811
219	0x3bee885c	0.007279439
220	0x3ba7c8a6	0.0051203547
221	0xba6ee6c5	-0.0009113367
222	0x3c01a5aa	0.007913033
223	0xbbaa9e2a	-0.005206843
224	0xbc63413b	-0.013870533
225	0x3c027105	0.007961516
226	0x3c90876c	0.0176427
227	0x3b8dc67f	0.004326641
228	0xbbee6ef5	-0.0072764107
229	0xbb92e132	-0.004482412
230	0xbc55b528	-0.013043679
231	0x3b835cee	0.004008881
232	0x3c215be8	0.009848572
233	0xbbb118b6	-0.005404557
234	0xbc9c555b	-0.01908367
235	0x3c784c4f	0.015154912
236	0xbacf5a13	-0.0015819691
237	0xbb573f20	-0.0032844022
238	0x3b239009	0.0024957678
239	0xbc388a9f	-0.011263519
240	0x3c1457ad	0.009054107
241	0xbd3bf73d	-0.04589008
242	0xbe0e737c	-0.13911241
243	0xbd2efa0d	-0.042718936
244	0x3cd862e5	0.026414344
245	0x3cc0d1c6	0.023537528
246	0xbc2ef3e7	-0.010678268
247	0x3e6a7956	0.22897848
248	0x3c0f60f3	0.008751142
249	0xbc0d8a22	-0.00863889
250	0x3dbbd398	0.09171218
251	0x3daa09ed	0.083026744
252	0xbc91c09e	-0.017792042
253	0x3c114c3d	0.008868274
254	0xbd046bcc	-0.032329366
255	0x3d51322a	0.05107323

features.9.bias f4 [84]
0	0xbad70239	-0.0016403861
1	0x3b64754c	0.0034859953
2	0x3eefc131	0.4682708
3	0xb807a8ae	-3.2343603e-05
4	0x3c715280	0.014729142
5	0x3c2856b7	0.010274581
6	0xbe891411	-0.26773122
7	0xbc48676d	-0.01223169
8	0xbb41f136	-0.0029593236
9	0x3eb64150	0.35596704
10	0xbecb7220	-0.39735508
11	0xbd1671f9	-0.036729787
12	0x3d0666dd	0.03281294
13	0xbdce6890	-0.100785375
14	0xbb513ed0	-0.0031928308
15	0x3c836fdc	0.01604455
16	0x3e0a57e6	0.13510093
17	0x3e49d33c	0.19709486
18	0xbdd85087	-0.10562234
19	0xbe147f2e	-0.1450164
20	0x3de7d647	0.11320167
21	0xbda59768	-0.08085519
22	0x3cefed6f	0.029288022
23	0x3dc50eff	0.09622001
24	0xbb2012a7	-0.002442518
25	0x3ea9988e	0.33124202
26	0x39505655	0.00019868587
27	0x3d80ba63	0.062855504
28	0x3a942c14	0.001130464
29	0x3f435a03	0.7630922
30	0xbaeb4c55	-0.0017951826
31	0xbdc8352a	-0.09775765
32	0x3dcfb0ef	0.10141169
33	0x3ced6355	0.02897803
34	0xbaeab8f1	-0.00179079
35	0xbb37eb4c	-0.0028063832
36	0xbea66b70	-0.32503843
37	0xbe731281	-0.23737527
38	0x3cf28e30	0.029608816
39	0x3ca92008	0.020645157
40	0x3e6c4c93	0.23076086
41	0x3f0b7541	0.5447579
42	0x3e04d1d6	0.12970671
43	0xbc112642	-0.008859219
44	0xbe06a025	-0.13147028
45	0x3ef7c98f	0.48395965
46	0x3e2c5f80	0.16833305
47	0xbd50dde0	-0.050992846
48	0x3eb92f45	0.36168876
49	0xbba95bb5	-0.005168403
50	0x3e358fa3	0.17730574
51	0x3e71252d	0.23549338
52	0x3a87bdc1	0.0010356234
53	0x3c785864	0.015157793
54	0xbd849709	-0.0647412
55	0xbbb43672	-0.0054996544
56	0xbac1f2f0	-0.0014797132
57	0x3d96ddbb	0.073665105
58	0x3c54b659	0.012982928
59	0x3e04b6cc	0.12960356
60	0xbe93b5d0	-0.2884965
61	0x3cdadee6	0.026717614
62	0xbe835019	-0.25647047
63	0x3adfc2ad	0.0017071568
64	0xbc0b06c0	-0.008485496
65	0x3e7cd5a4	0.24690872
66	0x3aba8f47	0.0014233374
67	0x3d317fdd	0.04333483
68	0x3caaf85f	0.020870386
69	0xbdd2f924	-0.10301426
70	0xb970f0b4	-0.00022977852
71	0x3c096e19	0.008388066
72	0xbc046da1	-0.008082778
73	0xbca06dd6	-0.019583624
74	0xbc3db91f	-0.011579781
75	0x3cb07e29	0.021544533
76	0xbe792cc2	-0.2433348
77	0xbdcfbdfd	-0.10143659
78	0xbd4503e0	-0.0480994
79	0xbdd97a5f	-0.106190436
80	0x3ec83824	0.39105332
81	0xbe2402e2	-0.16016725
82	0x3d81916d	0.06326566
83	0xbd9df64e	-0.077129945

classifiers.0.weight f4 [5, 84]
0	0xbb9da90c	-0.0048114117
1	0x3c4d6b94	0.012537856
2	0x3ec00c4d	0.37509385
3	0x3b755aef	0.0037438234
4	0x3b9a3e43	0.004707129
5	0xbc4f5415	-0.012654324
6	0xbe58ca84	-0.21171004
7	0xbd0896cc	-0.033346936
8	0xbc9bffbe	-0.019042846
9	0xbe6a13f1	-0.2285917
10	0xbebd683f	-0.36993596
11	0xbd3a6237	-0.04550382
12	0xbd32c510	-0.043644965
13	0xbf195c02	-0.5990602
14	0xbc005d7f	-0.007834791
15	0xbd1a33fa	-0.037647225
16	0x3dd1417e	0.1021757
17	0x3e085e0b	0.13317125
18	0x3db841a2	0.089968935
19	0x3c379561	0.011205048
20	0x3e5916e3	0.21200137
21	0xbe1d159c	-0.15340275
22	0x3debb2ee	0.115087375
23	0x3dd6631a	0.10468121
24	0x3b26110c	0.002533975
25	0x3e90ec9e	0.28305525
26	0xbb3fd1e1	-0.0029269385
27	0x3d658fe7	0.05604544
28	0x3b15b23d	0.0022841834
29	0x3f1f7fe3	0.62304515
30	0x3bb852a9	0.0056250882
31	0xbc31fba3	-0.0108632175
32	0x3d896f3f	0.06710672
33	0x3c9c3694	0.019068994
34	0x3c0d5ac3	0.008627596
35	0x3b613c19	0.0034368096
36	0xbe345a49	-0.17612566
37	0xbe0d5183	-0.13800626
38	0x3d05bef7	0.03265282
39	0xbe8f34cc	-0.27969968
40	0x3deb609f	0.114930384
41	0x3ee6db80	0.4508934
42	0xbe3f8ff8	-0.18707263
43	0xbcd42344	-0.025895722
44	0xbdf24c14	-0.11830917
45	0x3ec95a12	0.3932653
46	0x3d9d978e	0.076949224
47	0xbcd458ce	-0.025921252
48	0x3eaf2999	0.34211424
49	0x3a13d944	0.000563998
50	0xbec07fd8	-0.37597537
51	0x3e23ccdd	0.15996118
52	0xbb877744	-0.0041340906
53	0x3c68d96b	0.014211993
54	0xbe9b2c07	-0.30307028
55	0x3b453a72	0.003009465
56	0xbc6ee659	-0.014581286
57	0x3cd39f5f	0.02583283
58	0x3c9cdcc7	0.019148244
59	0xbc9a2f37	-0.018821342
60	0xbe3d3e71	-0.18480851
61	0xbcf26c8e	-0.029592779
62	0xbe533bd6	-0.20628294
63	0x3c57a111	0.01316096
64	0x3bca3565	0.006170916
65	0x3e6d1eff	0.23156355
66	0x3c9745e5	0.018465945
67	0xbe410adc	-0.18851799
68	0xba5623e4	-0.00081688
69	0x3d53790a	0.051629104
70	0xbb98a2c0	-0.004658073
71	0xbe335aac	-0.17515057
72	0xb87ebb9b	-6.073304e-05
73	0xbd6ba6aa	-0.05753199
74	0xbc3199c9	-0.010839888
75	0x3c379e53	0.011207181
76	0xbdd2fbb7	-0.10301917
77	0xbe311226	-0.1729208
78	0xbd82bfbc	-0.06384227
79	0xbd8b2da4	-0.06795815
80	0x3eb12314	0.34597075
81	0xbe8f8b03	-0.28035745
82	0x3d6f2890	0.058388293
83	0xbd12fd3d	-0.035886038
84	0xbada1f67	-0.0016641439
85	0x3a514d83	0.00079842674
86	0xbe3df581	-0.18550684
87	0x3c52b2a5	0.012859975
88	0xbcef045d	-0.029176885
89	0xbcfbcd78	-0.030737624
90	0xbe0624c7	-0.13099967
91	0x3e3aad7a	0.18230239
92	0xbb2b5a81	-0.0026146474
93	0x3e2b084a	0.16702381
94	0x3e09085d	0.13382097
95	0x3e9c83b8	0.30569243
96	0x3de33420	0.110939264
97	0x3eb906ba	0.36137944
98	0x3cfb43cd	0.030671978
99	0x3c9f0ae5	0.019414375
100	0xbd5fefa9	-0.054671917
101	0xbdf06ca7	-0.11739474
102	0xbe08d884	-0.13363844
103	0x3d345645	0.044027586
104	0xbe784af2	-0.2424734
105	0x3d58074c	0.052741334
106	0x3cd5a753	0.026080763
107	0xbdc7d603	-0.09757616
108	0xbc2ee387	-0.010674364
109	0xbe854edf	-0.26036736
110	0xbb3ff58a	-0.002929064
111	0xbd3d23f6	-0.046176873
112	0xb9c45b10	-0.0003745188
113	0xbe8c2a06	-0.2737581
114	0xbc5a07a6	-0.013307488
115	0xbd3bd73c	-0.04585956
116	0xbde4916c	-0.111605495
117	0xbc1ef05a	-0.009700859
118	0x3b954a5e	0.0045559844
119	0xbad98412	-0.0016595146
120	0xbd8b2895	-0.0679485
121	0xbe109af4	-0.1412161
122	0x3cf9f9e4	0.030514665
123	0x3d35c3cc	0.04437618
124	0xbd54ba61	-0.051935557
125	0xbe327f13	-0.17431287
126	0x3e786af8	0.24259555
127	0x3de5b483	0.112160705
128	0xbd59f64b	-0.0532134
129	0xbe288d97	-0.16460262
130	0xbddf8071	-0.1091317
131	0xbdd333e5	-0.103126325
132	0xbe244976	-0.16043648
133	0x3a98af42	0.0011648911
134	0x3e9f6171	0.3112903
135	0xbe41bdf8	-0.18920124
136	0x3cdbcf04	0.026832111
137	0xbca9ac40	-0.020712018
138	0x3c4b95ca	0.012425849
139	0xbbc15017	-0.00589944
140	0xbbca8a56	-0.0061810417
141	0x3c9ec19b	0.019379428
142	0xbc97f0a9	-0.018547373
143	0x3d912015	0.07086197
144	0x3e46b2cf	0.19404148
145	0x3d1f0dee	0.038831644
146	0x3c128d42	0.008944811
147	0xbbfe9545	-0.007769259
148	0x3cd5994f	0.02607408
149	0xbdc97b53	-0.09837975
150	0xbba8b000	-0.005147934
151	0xbe174558	-0.14772546
152	0xbdbb38b6	-0.09141676
153	0xbe4d140f	-0.20027183
154	0xbc4ce85c	-0.012506571
155	0x3e2de51f	0.16981934
156	0x3bed38a1	0.0072394167
157	0x3e472ddf	0.19451092
158	0x3c086f51	0.008327321
159	0x3d449278	0.047991246
160	0x3d83650d	0.06415758
161	0x3e982da8	0.29722333
162	0x3d11f9d2	0.035638638
163	0x3c00be89	0.007857927
164	0xbe1d9eef	-0.1539266
165	0xbdde115b	-0.10843154
166	0xbc96843e	-0.018373605
167	0x3c7f1764	0.015569542
168	0x3aebf073	0.0018000737
169	0xbc9243a2	-0.017854515
170	0xbdd01133	-0.101595305
171	0xbb1eb5b5	-0.0024217193
172	0xbc6e0d71	-0.014529572
173	0xbce028d0	-0.02736321
174	0x3e37d6c9	0.17953028
175	0xbe3519f5	-0.17685683
176	0x3cb099c7	0.021557702
177	0xbf0c4e93	-0.54807395
178	0x3e6bfe16	0.23046145
179	0xbccbf5bd	-0.02489745
180	0xbe31dca9	-0.17369331
181	0xbdee5cc6	-0.11638789
182	0x3c2149e7	0.00984428
183	0xbd9307ab	-0.07179197
184	0xbd49c008	-0.0492554
185	0xbd6837ea	-0.05669395
186	0x3e9e1a35	0.3087937
187	0x3e05b955	0.1305898
188	0x3e4dd71c	0.20101589
189	0x3d5b7cbb	0.05358575
190	0x3e7b0256	0.2451261
191	0xbc588620	-0.013215572
192	0x3bcc8bbd	0.006242244
193	0x3dde7129	0.10861427
194	0x3c39f5d0	0.01135011
195	0xbcc5cac7	-0.024144543
196	0xbcd36665	-0.025805661
197	0x3dc95a25	0.09831647
198	0xbccdb4ba	-0.025110591
199	0x3e428502	0.18996051
200	0xbe5165f2	-0.20449045
201	0xbd3cdefd	-0.046111096
202	0x3c7eec73	0.015559304
203	0xbc2f1923	-0.010687145
204	0x3e3c0e4d	0.1836483
205	0x3e8547b1	0.2603126
206	0xbd0c6b58	-0.03428206
207	0xbd90aeb1	-0.0706457
208	0x3e1a4110	0.15063882
209	0xbd06731c	-0.03282462
210	0xbe2960b7	-0.165408
211	0xbdb04c01	-0.086082466
212	0x3dbdbf58	0.092650115
213	0x3ba63d9d	0.005073263
214	0x3d7f59de	0.062341563
215	0x3d985dc7	0.074397616
216	0x3e38b16c	0.18036431
217	0x3af9d799	0.0019061445
218	0xbec300cc	-0.38086545
219	0xbe11d9d3	-0.1424325
220	0x3b93443f	0.0044942196
221	0xbc27e0c9	-0.010246464
222	0xbd3c3409	-0.045948062
223	0x3c1257d5	0.008932074
224	0x3c15eea1	0.009151132
225	0x3d6c4a7f	0.057688233
226	0x3b10145e	0.0021984796
227	0xbe8e5c40	-0.27804756
228	0x3e0228ad	0.12710829
229	0x3d2e0148	0.04248169
230	0x3dbab105	0.09115795
231	0x3c3b0f9a	0.011417294
232	0x3b70995a	0.0036712498
233	0xbe26239e	-0.16224524
234	0xbc036d73	-0.0080217
235	0xbe03fc64	-0.12889248
236	0xbd710d52	-0.058850594
237	0x3e7ef764	0.2489906
238	0xba15053e	-0.000568468
239	0xbce4bd88	-0.027922407
240	0xba1b1e68	-0.00059173116
241	0x3c165331	0.009175108
242	0x3ccd7224	0.02507884
243	0xbda6946b	-0.08133777
244	0x3e03d5dc	0.1287455
245	0xbd4c40d3	-0.04986651
246	0x3c7ad3d7	0.015309296
247	0x3d2587a2	0.040412553
248	0x3e2948c0	0.16531658
249	0xbc11602c	-0.008873027
250	0xbd587769	-0.052848253
251	0x3d8f446f	0.069954745
252	0x3bc1dbf9	0.0059161154
253	0xbc0bbd39	-0.008529001
254	0x3dc990da	0.09842081
255	0x3b1b1adf	0.002366714

classifiers.0.bias f4 [5]
0	0x3fcc34be	1.5953596
1	0xbdff8520	-0.124765635
2	0xbf63551b	-0.88801736
3	0xbf39da6a	-0.725989
4	0x3e12dbe0	0.14341688

classifier.weight f4 [5, 84]
0	0xbb9da90c	-0.0048114117
1	0x3c4d6b94	0.012537856
2	0x3ec00c4d	0.37509385
3	0x3b755aef	0.0037438234
4	0x3b9a3e43	0.004707129
5	0xbc4f5415	-0.012654324
6	0xbe58ca84	-0.21171004
7	0xbd0896cc	-0.033346936
8	0xbc9bffbe	-0.019042846
9	0xbe6a13f1	-0.2285917
10	0xbebd683f	-0.36993596
11	0xbd3a6237	-0.04550382
12	0xbd32c510	-0.043644965
13	0xbf195c02	-0.5990602
14	0xbc005d7f	-0.007834791
15	0xbd1a33fa	-0.037647225
16	0x3dd1417e	0.1021757
17	0x3e085e0b	0.13317125
18	0x3db841a2	0.089968935
19	0x3c379561	0.011205048
20	0x3e5916e3	0.21200137
21	0xbe1d159c	-0.15340275
22	0x3debb2ee	0.115087375
23	0x3dd6631a	0.10468121
24	0x3b26110c	0.002533975
25	0x3e90ec9e	0.28305525
26	0xbb3fd1e1	-0.0029269385
27	0x3d658fe7	0.05604544
28	0x3b15b23d	0.0022841834
29	0x3f1f7fe3	0.62304515
30	0x3bb852a9	0.0056250882
31	0xbc31fba3	-0.0108632175
32	0x3d896f3f	0.06710672
33	0x3c9c3694	0.019068994
34	0x3c0d5ac3	0.008627596
35	0x3b613c19	0.0034368096
36	0xbe345a49	-0.17612566
37	0xbe0d5183	-0.13800626
38	0x3d05bef7	0.03265282
39	0xbe8f34cc	-0.27969968
40	0x3deb609f	0.114930384
41	0x3ee6db80	0.4508934
42	0xbe3f8ff8	-0.18707263
43	0xbcd42344	-0.025895722
44	0xbdf24c14	-0.11830917
45	0x3ec95a12	0.3932653
46	0x3d9d978e	0.076949224
47	0xbcd458ce	-0.025921252
48	0x3eaf2999	0.34211424
49	0x3a13d944	0.000563998
50	0xbec07fd8	-0.37597537
51	0x3e23ccdd	0.15996118
52	0xbb877744	-0.0041340906
53	0x3c68d96b	0.014211993
54	0xbe9b2c07	-0.30307028
55	0x3b453a72	0.003009465
56	0xbc6ee659	-0.014581286
57	0x3cd39f5f	0.02583283
58	0x3c9cdcc7	0.019148244
59	0xbc9a2f37	-0.018821342
60	0xbe3d3e71	-0.18480851
61	0xbcf26c8e	-0.029592779
62	0xbe533bd6	-0.20628294
63	0x3c57a111	0.01316096
64	0x3bca3565	0.006170916
65	0x3e6d1eff	0.23156355
66	0x3c9745e5	0.018465945
67	0xbe410adc	-0.18851799
68	0xba5623e4	-0.00081688
69	0x3d53790a	0.051629104
70	0xbb98a2c0	-0.004658073
71	0xbe335aac	-0.17515057
72	0xb87ebb9b	-6.073304e-05
73	0xbd6ba6aa	-0.05753199
74	0xbc3199c9	-0.010839888
75	0x3c379e53	0.011207181
76	0xbdd2fbb7	-0.10301917
77	0xbe311226	-0.1729208
78	0xbd82bfbc	-0.06384227
79	0xbd8b2da4	-0.06795815
80	0x3eb12314	0.34597075
81	0xbe8f8b03	-0.28035745
82	0x3d6f2890	0.058388293
83	0xbd12fd3d	-0.035886038
84	0xbada1f67	-0.0016641439
85	0x3a514d83	0.00079842674
86	0xbe3df581	-0.18550684
87	0x3c52b2a5	0.012859975
88	0xbcef045d	-0.029176885
89	0xbcfbcd78	-0.030737624
90	0xbe0624c7	-0.13099967
91	0x3e3aad7a	0.18230239
92	0xbb2b5a81	-0.0026146474
93	0x3e2b084a	0.16702381
94	0x3e09085d	0.13382097
95	0x3e9c83b8	0.30569243
96	0x3de33420	0.110939264
97	0x3eb906ba	0.36137944
98	0x3cfb43cd	0.030671978
99	0x3c9f0ae5	0.019414375
100	0xbd5fefa9	-0.054671917
101	0xbdf06ca7	-0.11739474
102	0xbe08d884	-0.13363844
103	0x3d345645	0.044027586
104	0xbe784af2	-0.2424734
105	0x3d58074c	0.052741334
106	0x3cd5a753	0.026080763
107	0xbdc7d603	-0.09757616
108	0xbc2ee387	-0.010674364
109	0xbe854edf	-0.26036736
110	0xbb3ff58a	-0.002929064
111	0xbd3d23f6	-0.046176873
112	0xb9c45b10	-0.0003745188
113	0xbe8c2a06	-0.2737581
114	0xbc5a07a6	-0.013307488
115	0xbd3bd73c	-0.04585956
116	0xbde4916c	-0.111605495
117	0xbc1ef05a	-0.009700859
118	0x3b954a5e	0.0045559844
119	0xbad98412	-0.0016595146
120	0xbd8b2895	-0.0679485
121	0xbe109af4	-0.1412161
122	0x3cf9f9e4	0.030514665
123	0x3d35c3cc	0.04437618
124	0xbd54ba61	-0.051935557
125	0xbe327f13	-0.17431287
126	0x3e786af8	0.24259555
127	0x3de5b483	0.112160705
128	0xbd59f64b	-0.0532134
129	0xbe288d97	-0.16460262
130	0xbddf8071	-0.1091317
131	0xbdd333e5	-0.103126325
132	0xbe244976	-0.16043648
133	0x3a98af42	0.0011648911
134	0x3e9f6171	0.3112903
135	0xbe41bdf8	-0.18920124
136	0x3cdbcf04	0.026832111
137	0xbca9ac40	-0.020712018
138	0x3c4b95ca	0.012425849
139	0xbbc15017	-0.00589944
140	0xbbca8a56	-0.0061810417
141	0x3c9ec19b	0.019379428
142	0xbc97f0a9	-0.018547373
143	0x3d912015	0.07086197
144	0x3e46b2cf	0.19404148
145	0x3d1f0dee	0.038831644
146	0x3c128d42	0.008944811
147	0xbbfe9545	-0.007769259
148	0x3cd5994f	0.02607408
149	0xbdc97b53	-0.09837975
150	0xbba8b000	-0.005147934
151	0xbe174558	-0.14772546
152	0xbdbb38b6	-0.09141676
153	0xbe4d140f	-0.20027183
154	0xbc4ce85c	-0.012506571
155	0x3e2de51f	0.16981934
156	0x3bed38a1	0.0072394167
157	0x3e472ddf	0.19451092
158	0x3c086f51	0.008327321
159	0x3d449278	0.047991246
160	0x3d83650d	0.06415758
161	0x3e982da8	0.29722333
162	0x3d11f9d2	0.035638638
163	0x3c00be89	0.007857927
164	0xbe1d9eef	-0.1539266
165	0xbdde115b	-0.10843154
166	0xbc96843e	-0.018373605
167	0x3c7f1764	0.015569542
168	0x3aebf073	0.0018000737
169	0xbc9243a2	-0.017854515
170	0xbdd01133	-0.101595305
171	0xbb1eb5b5	-0.0024217193
172	0xbc6e0d71	-0.014529572
173	0xbce028d0	-0.02736321
174	0x3e37d6c9	0.17953028
175	0xbe3519f5	-0.17685683
176	0x3cb099c7	0.021557702
177	0xbf0c4e93	-0.54807395
178	0x3e6bfe16	0.23046145
179	0xbccbf5bd	-0.02489745
180	0xbe31dca9	-0.17369331
181	0xbdee5cc6	-0.11638789
182	0x3c2149e7	0.00984428
183	0xbd9307ab	-0.07179197
184	0xbd49c008	-0.0492554
185	0xbd6837ea	-0.05669395
186	0x3e9e1a35	0.3087937
187	0x3e05b955	0.1305898
188	0x3e4dd71c	0.20101589
189	0x3d5b7cbb	0.05358575
190	0x3e7b0256	0.2451261
191	0xbc588620	-0.013215572
192	0x3bcc8bbd	0.006242244
193	0x3dde7129	0.10861427
194	0x3c39f5d0	0.01135011
195	0xbcc5cac7	-0.024144543
196	0xbcd36665	-0.025805661
197	0x3dc95a25	0.09831647
198	0xbccdb4ba	-0.025110591
199	0x3e428502	0.18996051
200	0xbe5165f2	-0.20449045
201	0xbd3cdefd	-0.046111096
202	0x3c7eec73	0.015559304
203	0xbc2f1923	-0.010687145
204	0x3e3c0e4d	0.1836483
205	0x3e8547b1	0.2603126
206	0xbd0c6b58	-0.03428206
207	0xbd90aeb1	-0.0706457
208	0x3e1a4110	0.15063882
209	0xbd06731c	-0.03282462
210	0xbe2960b7	-0.165408
211	0xbdb04c01	-0.086082466
212	0x3dbdbf58	0.092650115
213	0x3ba63d9d	0.005073263
214	0x3d7f59de	0.062341563
215	0x3d985dc7	0.074397616
216	0x3e38b16c	0.18036431
217	0x3af9d799	0.0019061445
218	0xbec300cc	-0.38086545
219	0xbe11d9d3	-0.1424325
220	0x3b93443f	0.0044942196
221	0xbc27e0c9	-0.010246464
222	0xbd3c3409	-0.045948062
223	0x3c1257d5	0.008932074
224	0x3c15eea1	0.009151132
225	0x3d6c4a7f	0.057688233
226	0x3b10145e	0.0021984796
227	0xbe8e5c40	-0.27804756
228	0x3e0228ad	0.12710829
229	0x3d2e0148	0.04248169
230	0x3dbab105	0.09115795
231	0x3c3b0f9a	0.011417294
232	0x3b70995a	0.0036712498
233	0xbe26239e	-0.16224524
234	0xbc036d73	-0.0080217
235	0xbe03fc64	-0.12889248
236	0xbd710d52	-0.058850594
237	0x3e7ef764	0.2489906
238	0xba15053e	-0.000568468
239	0xbce4bd88	-0.027922407
240	0xba1b1e68	-0.00059173116
241	0x3c165331	0.009175108
242	0x3ccd7224	0.02507884
243	0xbda6946b	-0.08133777
244	0x3e03d5dc	0.1287455
245	0xbd4c40d3	-0.04986651
246	0x3c7ad3d7	0.015309296
247	0x3d2587a2	0.040412553
248	0x3e2948c0	0.16531658
249	0xbc11602c	-0.008873027
250	0xbd587769	-0.052848253
251	0x3d8f446f	0.069954745
252	0x3bc1dbf9	0.0059161154
253	0xbc0bbd39	-0.008529001
254	0x3dc990da	0.09842081
255	0x3b1b1adf	0.002366714

classifier.bias f4 [5]
0	0x3fcc34be	1.5953596
1	0xbdff8520	-0.124765635
2	0xbf63551b	-0.88801736
3	0xbf39da6a	-0.725989
4	0x3e12dbe0	0.14341688

features.7 f4 [120]
0	0xbd67d599	-0.056600187
1	0x3d6b2032	0.05740375
2	0xbea0394b	-0.3129371
3	0xbd04b5f0	-0.03240007
4	0x3e3431ed	0.1759717
5	0x3c83e429	0.016100006
6	0xbd5d5110	-0.054032385
7	0x3e104dc3	0.14092164
8	0x3d763225	0.060106415
9	0xbe47700a	-0.19476333
10	0x3e6bfafe	0.23044965
11	0x3e476470	0.19471908
12	0xbd8ece84	-0.069729835
13	0xbc1d2b0a	-0.009592781
14	0x3d19af9e	0.037520997
15	0x3c504f5b	0.012714232
16	0xbcbb4b62	-0.022863094
17	0xbd340d4b	-0.04395799
18	0xbda38c7d	-0.079857804
19	0x3b3a77c7	0.002845274
20	0xbd5f4994	-0.05451353
21	0x3ce9e619	0.028552102
22	0xbc709d31	-0.014685915
23	0x3b115009	0.0022172949
24	0x3e1b227e	0.15149876
25	0x3dae1573	0.08500185
26	0xbc85893c	-0.01630079
27	0x3cfb9863	0.030712312
28	0xbd60b33b	-0.054858427
29	0x3c8574d2	0.016291056
30	0xbe379d57	-0.17931114
31	0xbc8c67db	-0.017139366
32	0xb9a1e996	-0.00030882348
33	0x3dfedd39	0.124445386
34	0x3c8628ad	0.016376818
35	0x3b2aec06	0.0026080622
36	0xbe097c69	-0.13426365
37	0x3a7815a5	0.00094636745
38	0xbd43ed03	-0.047833454
39	0xbde8c4be	-0.113656506
40	0xbb8ec1ed	-0.004356614
41	0xbd4574fa	-0.04820726
42	0xbec43190	-0.38319063
43	0xbb8043fd	-0.003914355
44	0xbbb5a928	-0.0055438466
45	0xbc62fa9a	-0.013853693
46	0xbbb5217a	-0.0055276724
47	0xbd940661	-0.07227779
48	0xbbce2e12	-0.006292113
49	0x3dba241f	0.09088921
50	0x3c9ebda5	0.019377539
51	0x3e1ad981	0.15122034
52	0xbc7f7b09	-0.015593299
53	0xbcaaa1b5	-0.020829061
54	0xbd0bab2a	-0.03409878
55	0xbec72db5	-0.3890206
56	0xbc74a440	-0.014931738
57	0x3d1ee341	0.038790945
58	0x3ceb91d6	0.028756063
59	0x3d0c6f3c	0.03428577
60	0xbac3736c	-0.0014911718
61	0xbe102b6b	-0.14079063
62	0xbc4a6503	-0.012353185
63	0x3c41431b	0.011795784
64	0x3cfa9709	0.030589597
65	0xbd19546b	-0.037434023
66	0xbe2476da	-0.16060963
67	0xbca530cd	-0.020164872
68	0x3c63feeb	0.013915758
69	0x3c09f24f	0.008419587
70	0xbd637cfb	-0.055539113
71	0x3d6115ed	0.05495255
72	0xbbf554ab	-0.0074869
73	0xbd33f044	-0.043930307
74	0xbcb74178	-0.022370085
75	0x3c0359a2	0.008016976
76	0x3e23a825	0.15982111
77	0xbe82d58b	-0.25553545
78	0xbe3c76fe	-0.18404767
79	0xbd16da0a	-0.036829032
80	0x3e0e480b	0.1389467
81	0x3e10dcc3	0.14146714
82	0xbc8d6301	-0.017259123
83	0xbe39dad4	-0.18149883
84	0x3d0b1585	0.03395607
85	0xbb3f143d	-0.002915635
86	0x3df6d087	0.12051492
87	0x3da4a78b	0.08039769
88	0x3dbc04f6	0.09180634
89	0x3d5219ce	0.05129414
90	0xbe03d948	-0.12875855
91	0xbb51bec0	-0.0032004565
92	0xbe07fe09	-0.132805
93	0xbb5486c4	-0.003242896
94	0xbd2bfb86	-0.04198792
95	0x3d13d9d4	0.03609641
96	0xbd865b5e	-0.06560396
97	0xbd9f0999	-0.077655025
98	0xbcf40622	-0.02978808
99	0x3d827ff5	0.06372062
100	0xbc032ea9	-0.00800673
101	0x3da740c6	0.081666514
102	0xbd7da234	-0.061922267
103	0xbc9f04db	-0.019411495
104	0xbdd661e6	-0.104678914
105	0x3cd2c82f	0.02573022
106	0xbef8b416	-0.48574895
107	0x3d2ab8be	0.04168009
108	0xbc985db3	-0.018599367
109	0xbdf07ef2	-0.11742963
110	0xbe14a876	-0.14517388
111	0x3e20bb9f	0.15696572
112	0x3c754167	0.014969206
113	0xbe2a1a8e	-0.16611692
114	0x3d7b3dd0	0.061338246
115	0x3d3ff336	0.046862803
116	0xbe868f96	-0.26281422
117	0x3d914225	0.07092694
118	0x3ce384e7	0.027773334
119	0xb894967e	-7.085221e-05
