checkpoints_lenet5/baseline_scratch/lenet5/small_mammals/checkpoint-100.pth.tar (torch, 312216 bytes, 12 tensors)

features.0.weight f4 [6, 3, 5, 5]
0	0xbe120bf4	-0.14262372
1	0x3d50add0	0.05094701
2	0x3b2ee915	0.002668922
3	0x3d8471f8	0.0646705
4	0x3dc8c8bd	0.09803913
5	0xbd7d0313	-0.06177051
6	0x3d1cd65c	0.038290367
7	0xbce2bf74	-0.027679183
8	0x3d9e7575	0.07737247
9	0x3e27d29a	0.16388932
10	0x3da29bad	0.07939849
11	0xbe56ecc0	-0.2098875
12	0x3e1bf181	0.15228845
13	0xbe417bdd	-0.18894906
14	0xbbae823f	-0.005325585
15	0xbd07b292	-0.033129282
16	0x3d112d2f	0.03544348
17	0xbe7f7b15	-0.24949296
18	0x3d7ac3cd	0.061221886
19	0xbd697b82	-0.05700255
20	0x3e0174e2	0.12642244
21	0x3e4aa37e	0.1978893
22	0x3e2a0c34	0.16606218
23	0xbcde4acc	-0.027135275
24	0xbcac88eb	-0.021061381
25	0x3df0a9da	0.117511466
26	0x3e16a39a	0.14710847
27	0xbe10f531	-0.14156033
28	0xbe1eba23	-0.15500693
29	0xbb0d7f24	-0.0021590674
30	0xbe5c66c4	-0.21523577
31	0xbda6d193	-0.08145442
32	0x3cbdff4b	0.023193022
33	0xbe6cadf5	-0.23113234
34	0xbdde722b	-0.108616196
35	0xbd3a3dea	-0.045469202
36	0xbda15aa1	-0.07878614
37	0xbec1fd0e	-0.37888378
38	0xbe8662f6	-0.26247376
39	0xbd18ad0e	-0.037274413
40	0xbdd5842b	-0.104256
41	0xbe1bcae5	-0.15214117
42	0xbe543818	-0.20724523
43	0xbe9a3885	-0.30121246
44	0xbdb0e258	-0.08636922
45	0xbeaa1f8b	-0.3322719
46	0x3d22540f	0.039630946
47	0x3ce65e9e	0.028121289
48	0xbda7a75b	-0.081862174
49	0xbd8336f1	-0.064069636
50	0xbccb65a1	-0.024828734
51	0xbde49d65	-0.11162833
52	0xbd833b75	-0.06407825
53	0x3c964a84	0.018346079
54	0x3b91ea02	0.0044529447
55	0xbd81caad	-0.063374855
56	0xbe0f1ff5	-0.13977034
57	0xbe06dfec	-0.13171357
58	0xbd436c55	-0.047710735
59	0x3dc87d66	0.09789543
60	0xbce8de0a	-0.028426189
61	0xbd07cbd4	-0.03315337
62	0xbd423c24	-0.047420636
63	0x3decc21a	0.115604594
64	0xbe347364	-0.17622143
65	0xbeae049d	-0.33987895
66	0xbd9118f3	-0.07084837
67	0x3dc5e420	0.09662652
68	0xbe48b1f1	-0.1959913
69	0xbd9fbf06	-0.07800107
70	0x3be335a4	0.0069338847
71	0x3e56c019	0.20971717
72	0x3e8b2b6f	0.27181575
73	0x3e394a67	0.18094788
74	0xbe4dadae	-0.20085785
75	0x3dcac7ba	0.09901376
76	0x3e571c22	0.21006826
77	0x3e2ab967	0.16672288
78	0x3e826132	0.2546478
79	0x3e996e90	0.29967165
80	0x3e517e18	0.20458257
81	0x3ec35224	0.38148606
82	0x3ea2c01a	0.31787187
83	0x3e03305d	0.12811418
84	0x3e5c2a15	0.21500428
85	0x3e3ba8b0	0.18326068
86	0x3e0c6028	0.13708556
87	0x3eacad90	0.33726168
88	0x3ec69a9b	0.3878983
89	0x3e2bdef9	0.16784276
90	0x3dee37c6	0.11631732
91	0x3e9ecbcc	0.3101486
92	0x3d97ba49	0.07408578
93	0x3eaba7fc	0.335266
94	0x3e28f785	0.16500671
95	0x3ea37b36	0.3192994
96	0x3ee77eee	0.45214027
97	0x3e9647bd	0.29351607
98	0x3eaa2ed9	0.33238867
99	0x3d41bf7a	0.047301747
100	0xbe9d51cf	-0.30726478
101	0xbe6206bf	-0.22072886
102	0xbda6187a	-0.08110137
103	0xbe6c3969	-0.23068775
104	0xbe462665	-0.19350584
105	0x3c1265cb	0.008935402
106	0xbefe97b8	-0.49725127
107	0xbda5a780	-0.08088589
108	0xbd995146	-0.07486205
109	0xbe7ab8fc	-0.24484628
110	0xbe5fa559	-0.21840419
111	0xbe2b13e2	-0.16706803
112	0xbec4cd2d	-0.38437787
113	0xbe509229	-0.20368256
114	0x3da9eca5	0.082970895
115	0xbd7ced6d	-0.061749864
116	0xbe601ae7	-0.21885262
117	0xbdffa37d	-0.12482355
118	0xbda93466	-0.08261947
119	0x3d5a70eb	0.053330343
120	0xbe79e567	-0.24403916
121	0xbda2e8e4	-0.079545766
122	0x3cec569a	0.028849889
123	0x3d18b026	0.037277363
124	0xbd47aa6b	-0.048746508
125	0x3cbf7d25	0.023375103
126	0xbe3868ef	-0.18008779
127	0xbaa6c2ab	-0.001272281
128	0xbe201396	-0.15632471
129	0xbb74769c	-0.0037302142
130	0xbdf1903d	-0.117950894
131	0x3c4a078d	0.012330902
132	0xbd064811	-0.03278357
133	0xbe5822ba	-0.21106997
134	0xbe72962a	-0.23690096
135	0xbda73f09	-0.0816632
136	0xbde61507	-0.112344794
137	0xbe22167b	-0.15828888
138	0xbe3ac906	-0.18240747
139	0xbcef75b2	-0.029230926
140	0xbdb7dad1	-0.08977283
141	0xbdada555	-0.084788
142	0xbe881b98	-0.26583552
143	0xbe2150a4	-0.15753418
144	0xbe816825	-0.25274768
145	0x3e12733d	0.14301772
146	0xbe2d9e86	-0.16955003
147	0xbe021454	-0.12703067
148	0x3e59e5c3	0.21279053
149	0xbe574ecd	-0.21026154
150	0x3c072a23	0.008249792
151	0xbdeae991	-0.114703305
152	0xbe12ce88	-0.14336598
153	0x3c5df222	0.0135464985
154	0xbda74e66	-0.0816925
155	0xbe2dfd77	-0.1699122
156	0xbe152b62	-0.1456733
157	0x3c2651ff	0.010151385
158	0xbdf0bbc3	-0.11754563
159	0xbe1f0c53	-0.15532045
160	0xbe00d923	-0.12582831
161	0x3cebd069	0.028785901
162	0x3c61190e	0.013738884
163	0xbdec1d46	-0.11529021
164	0xbdacc107	-0.084352545
165	0xbbf35107	-0.0074254307
166	0xbe28fd05	-0.1650277
167	0xbb332fa8	-0.0027341638
168	0x3ddbfd4e	0.107416734
169	0xbe1ef407	-0.15522777
170	0xbe261bd8	-0.16221559
171	0xbe0d1c4f	-0.1378033
172	0x3b17857a	0.002312033
173	0xbe836e88	-0.25670266
174	0xbd4306d4	-0.047613934
175	0xbd920748	-0.07130295
176	0x3dfad01f	0.12246727
177	0xbdfded68	-0.12398797
178	0x3d007f20	0.031371236
179	0xbe78f354	-0.24311572
180	0xbe0d43cf	-0.13795398
181	0xbe28a9d6	-0.16471037
182	0xbdb39e4a	-0.087704256
183	0x3cc6f26e	0.024285521
184	0xbdbce1e8	-0.09222776
185	0xbe32aa54	-0.17447788
186	0xbce7d889	-0.028301494
187	0xbe30d629	-0.17269196
188	0xbe1f10cb	-0.1553375
189	0xbdc6d758	-0.09709042
190	0xbe1a36a5	-0.15059908
191	0xbdd7c4d1	-0.105355866
192	0xbde26857	-0.110550575
193	0xbe189f50	-0.14904523
194	0xbe84596b	-0.2584947
195	0xbea89262	-0.3292418
196	0xbd83ca68	-0.0643509
197	0xbe29439a	-0.16529694
198	0xbea3ff8c	-0.32030904
199	0xbe6175b3	-0.22017555
200	0x3e492d8d	0.19646282
201	0x3e9e9dee	0.30979866
202	0x3f256484	0.646065
203	0x3ee8d240	0.45472908
204	0x3ebfd108	0.37464166
205	0x3e4fa159	0.20276393
206	0x3eba10ce	0.36340946
207	0x3f06c589	0.52645165
208	0x3e7f998b	0.24960916
209	0x3e53a906	0.20669946
210	0x3bdeb2ec	0.0067962315
211	0x3ae3caa5	0.0017379118
212	0x3dfbff15	0.123045124
213	0x3e37dde6	0.17955741
214	0x3d87e909	0.06636245
215	0x3dff09c3	0.12453034
216	0x3e43cf28	0.19121993
217	0x3e3402f0	0.17579246
218	0x3eaa216c	0.33228624
219	0x3e3f6bdd	0.1869349
220	0x3d47eb16	0.04880818
221	0x3ea84839	0.32867602
222	0x3e064fa2	0.13116315
223	0x3e921374	0.28530467
224	0x3e1ab2a9	0.15107216
225	0xbe0ffb20	-0.1406064
226	0x3c21c63f	0.009873926
227	0xbe37d5cb	-0.1795265
228	0xbdfddbd0	-0.123954415
229	0x3e3e63ad	0.18592711
230	0xbdec7f05	-0.115476646
231	0xbd9a3175	-0.075289644
232	0x3e0bcbf2	0.13652018
233	0xbd9082d0	-0.070562005
234	0xbe157052	-0.14593628
235	0x3d16830b	0.036746066
236	0xbcb4a3ba	-0.022050727
237	0xbdc68d2f	-0.096948974
238	0xbd8bb36a	-0.0682133
239	0xbd8ff3f7	-0.070289545
240	0x3dcef559	0.1010539
241	0xbc8e63f3	-0.017381644
242	0x3c938b08	0.018010631
243	0x3e0fe576	0.14052376
244	0x3e55a37a	0.20863143
245	0x3e136662	0.14394525
246	0x3de647fa	0.11244197
247	0x3e9a580f	0.30145308
248	0x3ec67026	0.38757437
249	0x3e98fb6e	0.29879326
250	0xbeb119fd	-0.3459014
251	0xbe881ed1	-0.2658601
252	0xbeef8a81	-0.46785358
253	0xbe6fc75e	-0.23415896
254	0xbe24bc34	-0.16087419
255	0xbe425b1d	-0.1898007

features.3.weight f4 [16, 6, 5, 5]
0	0xbd0b77d6	-0.03404983
1	0x3dabdc5a	0.08391638
2	0x3d985a75	0.07439128
3	0x3d496ef4	0.04917808
4	0x3e1686d8	0.14699876
5	0x3dc5fed0	0.09667742
6	0x3c24c902	0.01005769
7	0x3d085027	0.033279564
8	0xbcc1a324	-0.023637362
9	0x3e4d7b53	0.20066576
10	0x3db89ca0	0.09014249
11	0x3d04d0a5	0.03242554
12	0x3bc33b2a	0.0059579806
13	0xbce92d87	-0.028464092
14	0x3e2b12a0	0.16706324
15	0x3e6319bd	0.22177787
16	0x3dd5355f	0.1041057
17	0x3e22559b	0.15852968
18	0x3e17df58	0.14831293
19	0xbca1490d	-0.019688154
20	0x3e2b9789	0.16757025
21	0x3e5dcbee	0.21659824
22	0x3d4463f7	0.047946896
23	0xbd928e9f	-0.07156109
24	0x3db58c7f	0.08864688
25	0x3c9e9d78	0.019362196
26	0xbda7aee1	-0.081876524
27	0x3d25f556	0.040517174
28	0x3dbe99bd	0.09306667
29	0x3e82738d	0.25478783
30	0x3e2493e1	0.16072036
31	0x3d451799	0.048118208
32	0x3c4274be	0.011868654
33	0x3d0725ba	0.032994963
34	0x3d6e749e	0.058216684
35	0x3d014bc3	0.031566393
36	0x3cf48e68	0.02985306
37	0x3de11741	0.109907635
38	0x3c1f5a1d	0.0097260745
39	0x3d9eede1	0.077602156
40	0x3c92dc5f	0.017927347
41	0x3b5171f2	0.0031958786
42	0xbe1688bf	-0.14700602
43	0x3d1d8aae	0.038462333
44	0xbd4bde54	-0.049772575
45	0x3e0342c9	0.12818445
46	0x3db1f12f	0.0868858
47	0x3dd854b8	0.10563034
48	0x3e47d5a9	0.19515099
49	0x3c742d95	0.014903446
50	0x3c80a2d2	0.015702639
51	0x3c508957	0.012728057
52	0xbd7cf30f	-0.061755236
53	0xbda8bd41	-0.08239222
54	0xbde7a4c2	-0.11310722
55	0xbdd5570a	-0.10416992
56	0xbc6cbee9	-0.014449813
57	0xbd77f73a	-0.060538508
58	0xbdd6911b	-0.104768954
59	0xbe477bd0	-0.19480824
60	0xbe047e05	-0.12938698
61	0xbe2706ee	-0.16311237
62	0xbdeec063	-0.116577886
63	0xbe5bc8f7	-0.21463381
64	0xbe27e39b	-0.16395418
65	0xbd8ab6eb	-0.0677317
66	0xbceaa412	-0.028642688
67	0xbe17a721	-0.14809848
68	0xbdc6f657	-0.09714954
69	0xbdc717f9	-0.09721369
70	0xbcc522f6	-0.024064522
71	0xbdb6380c	-0.08897409
72	0x3c99fa05	0.018795976
73	0xbe1ad549	-0.15120424
74	0xbe55a568	-0.20863879
75	0x3c233456	0.009961208
76	0x3d500767	0.05078831
77	0x3ce0d78f	0.027446536
78	0xbded7e7c	-0.115963906
79	0x3ab0770c	0.0013463213
80	0xbdf8fb3d	-0.12157295
81	0xbdf0760d	-0.117412664
82	0x3c07da32	0.008291768
83	0xbe080b8b	-0.13285653
84	0x3c9ea364	0.01936502
85	0xbd9c1be5	-0.07622508
86	0xbe31abe9	-0.17350735
87	0xbdd84fe9	-0.10562117
88	0xbdb79c0e	-0.08965312
89	0xbe3d2e61	-0.18474723
90	0xbdceb278	-0.10092634
91	0xbdf7d71a	-0.12101574
92	0x3c85cabb	0.016332021
93	0xbe3948cc	-0.18094176
94	0xbdb02f3a	-0.08602758
95	0xbcd71de7	-0.026259376
96	0xbe4e369b	-0.20138018
97	0xbe310f6e	-0.17291042
98	0xbe421e51	-0.18956877
99	0xbd8fa8ee	-0.07014643
100	0x3d3f55be	0.04671263
101	0x3d826e7f	0.06368732
102	0x3e2bf5d4	0.16792995
103	0x3d4ccb97	0.049998846
104	0x3d67a3d7	0.056552734
105	0x3d8ae2ff	0.06781577
106	0x3d5759d4	0.0525759
107	0x3d1e61e3	0.03866757
108	0x3db7ed8e	0.08980857
109	0xbd83e2ab	-0.06439718
110	0x3bbba42f	0.0057263593
111	0x3c95bdd1	0.018278988
112	0x3d8f21cf	0.0698887
113	0x3e2b7aca	0.16746059
114	0x3d7a711d	0.06114303
115	0x3caf58a8	0.02140458
116	0x3e2436f7	0.16036592
117	0xbd8fde6a	-0.07024844
118	0x3d951297	0.07278936
119	0xbcbdd627	-0.023173405
120	0x3e08f229	0.13373627
121	0x3c345e1b	0.011008765
122	0x3c561f60	0.013069004
123	0xbdd50517	-0.104013614
124	0xbdf518db	-0.119676314
125	0xbe0de60a	-0.13857284
126	0xbe13c13a	-0.14429179
127	0xbd72fb05	-0.059321422
128	0xbd6a34fa	-0.05717943
129	0xbd8640f3	-0.06555357
130	0xbdc26f34	-0.094938666
131	0xbe172e78	-0.1476382
132	0xbe11dd71	-0.1424463
133	0xbdd9f601	-0.10642625
134	0xbdfad560	-0.12247729
135	0xbca9a370	-0.020707816
136	0xbcfe6293	-0.031052863
137	0xbdba847a	-0.09107299
138	0x3bfbdec6	0.007686469
139	0xbd4e46cb	-0.050360482
140	0xbd814bed	-0.0631331
141	0xbdef6e62	-0.11690976
142	0xbe53690a	-0.20645538
143	0xbe1b82b6	-0.15186581
144	0xbd6ff2e2	-0.05858124
145	0xbddea72e	-0.10871731
146	0xbd02595c	-0.0318235
147	0xbe037f95	-0.12841637
148	0xbe32f132	-0.17474821
149	0xbdf99f06	-0.121885344
150	0x3de13ec7	0.10998302
151	0xbc3a13dd	-0.011357275
152	0x3c909bec	0.017652474
153	0x3d77ecaa	0.060528435
154	0x3d46c303	0.04852582
155	0x3e4c08e4	0.19925267
156	0xbd4fe9d3	-0.0507601
157	0xbbe921bf	-0.0071146186
158	0xbd8821eb	-0.06647094
159	0xbe1f2572	-0.15541628
160	0x3cf5a076	0.02998374
161	0x3c202d2d	0.009776396
162	0xbdd965f1	-0.10615147
163	0x3c8fb5d0	0.01754275
164	0xbcb730a3	-0.022362059
165	0x3e2d9362	0.16950753
166	0x3db69162	0.08914448
167	0xbb425e45	-0.002965824
168	0xbd692b7d	-0.05692624
169	0xbdee556f	-0.11637389
170	0x3c1c9584	0.009557132
171	0x3d9fb711	0.07798589
172	0xbc392b32	-0.0113018025
173	0xbda1e3c7	-0.07904773
174	0xbdebd6c1	-0.115155704
175	0x3c59c18c	0.013290774
176	0x3db3df03	0.087827705
177	0xbdb626ae	-0.08894096
178	0x3e2f17d3	0.17098932
179	0x3e140dda	0.14458409
180	0xbba6986a	-0.005084087
181	0xbde2605b	-0.110535346
182	0x3ddf5590	0.109049916
183	0x3dde256d	0.10846982
184	0x3e0d0e74	0.13775045
185	0xbd05dca9	-0.03268114
186	0x3d9d021e	0.076664194
187	0x3dc19dd8	0.094539344
188	0x3e1c9329	0.15290512
189	0x3e5b9844	0.21444803
190	0x3cbf27ff	0.023334501
191	0xbcffe03c	-0.031234853
192	0x3d8c5b33	0.06853332
193	0x3d5eff3a	0.05444262
194	0x3e192a97	0.14957653
195	0xbe2a8b90	-0.16654801
196	0x3ce3e321	0.027818264
197	0x3d9562ae	0.07294212
198	0x3d2b11ea	0.04176513
199	0x3e34cfdb	0.17657416
200	0x3e5d4cc9	0.21611322
201	0xbd2e391d	-0.042534936
202	0xbd0be219	-0.03415117
203	0xbda2776b	-0.079329334
204	0xbd270595	-0.040776808
205	0x3e00a1c5	0.1256171
206	0xbcb843f3	-0.022493338
207	0xbbc0eaa3	-0.005887346
208	0xbe222cef	-0.15837453
209	0xbe8028cb	-0.25031123
210	0x3e684697	0.22683178
211	0xbd7b1228	-0.061296612
212	0xbe416e92	-0.18889835
213	0xbe052f6e	-0.13006374
214	0xbd9b3ff2	-0.07580556
215	0x3dbd4fb5	0.092437185
216	0xbbb620fc	-0.0055581313
217	0xbd6f7747	-0.05846336
218	0xbdb77d83	-0.08959486
219	0xbd30b809	-0.04314426
220	0x3dc6c797	0.097060375
221	0x3d500114	0.05078228
222	0xbdd226d3	-0.102613114
223	0x3d8f963d	0.070110776
224	0xbd555259	-0.052080486
225	0xbcb0ad8a	-0.021567125
226	0x3d81d2d5	0.06339041
227	0xbe1435f5	-0.14473708
228	0xbdab7be1	-0.083732374
229	0xbe42c20d	-0.19019337
230	0xbda83ac7	-0.08214336
231	0xbdffcd6b	-0.12490352
232	0xbe360a4d	-0.17777367
233	0xbd9de329	-0.07709343
234	0xbe876593	-0.26444682
235	0x3de58fcd	0.112090684
236	0xbcc47cbb	-0.023985257
237	0xbe97b893	-0.29633006
238	0xbd98986a	-0.07450946
239	0xbe16d880	-0.14731026
240	0x3af8bf7d	0.0018977966
241	0x3cc1e184	0.023667105
242	0xbd43a7ee	-0.047767572
243	0xbdf3c851	-0.11903442
244	0xbdf8372f	-0.121199004
245	0x3e10709c	0.14105457
246	0x3db51cf6	0.088434145
247	0xbddb0aca	-0.10695417
248	0x3bf23dce	0.0073926216
249	0x3d5a472b	0.053290527
250	0xbdf82eed	-0.121183254
251	0xbe0bbd12	-0.13646343
252	0x3dd4e8a0	0.10395932
253	0x3df532bb	0.11972567
254	0x3e748ef9	0.23882665
255	0xbe62a150	-0.22131848

features.7.weight f4 [120, 400]
0	0xbd6575ae	-0.05602043
1	0xbc927197	-0.01787643
2	0xbc21981d	-0.009862927
3	0xbccc3135	-0.024925807
4	0xbd838bfb	-0.064231835
5	0x3c29cddc	0.010364022
6	0x3d49c603	0.049261104
7	0x3d28089a	0.041023828
8	0x3bc96e23	0.0061471625
9	0xbc195fc7	-0.009361214
10	0x3d4b5ce5	0.049649138
11	0x3d348dac	0.04408042
12	0x3d537664	0.051626578
13	0x3d0fa0a4	0.03506531
14	0x3bec0ec0	0.007203907
15	0x3cd7a390	0.02632311
16	0x3ccff42b	0.025384983
17	0x3d0d23c4	0.034457937
18	0x3d1f731a	0.03892813
19	0x3c07c4b3	0.008286643
20	0xbd1c4ab3	-0.038157176
21	0xbd029641	-0.031881575
22	0xbcfd7f22	-0.03094441
23	0xbca8759c	-0.020563893
24	0xbc4ef315	-0.012631197
25	0x3d3909f2	0.0451755
26	0x3cf36962	0.029713336
27	0xbbdbd378	-0.0067085586
28	0x3c71fdd2	0.014769988
29	0xbb84bcdf	-0.0040508355
30	0x3c94f7a2	0.018184487
31	0xbaf2332b	-0.0018478384
32	0xbb9fe243	-0.0048792674
33	0x3bd36d49	0.006452237
34	0x3c1793b4	0.009251524
35	0xbb4b2e95	-0.0031003107
36	0xbd4a066f	-0.04932254
37	0xbd139c84	-0.036037937
38	0x3b65035d	0.0034944632
39	0x3d08f276	0.033434354
40	0xbd117c0c	-0.03551869
41	0xbd7e6806	-0.062110923
42	0xbce60913	-0.028080499
43	0x3c9c445c	0.019075565
44	0x3d1ec84f	0.038765248
45	0xbd39e00e	-0.04537969
46	0xbdb01311	-0.08597387
47	0xbd995b36	-0.074881
48	0xbd3769e3	-0.044778716
49	0x3a2d2eb3	0.0006606385
50	0xbd087849	-0.033317838
51	0xbc7c204e	-0.015388561
52	0xbd15f558	-0.03661093
53	0xbd18cc32	-0.03730411
54	0xbb5e5118	-0.0033922847
55	0xbd1b8188	-0.037965328
56	0xbcff7258	-0.031182453
57	0xbcd7dc8e	-0.026350286
58	0xbcadebdb	-0.021230629
59	0xbcc9fd78	-0.024656996
60	0xbcd8c8b1	-0.026462885
61	0xbd01327f	-0.031542297
62	0xbc1ab311	-0.009442107
63	0xbce79c47	-0.028272761
64	0xbca4f7e2	-0.020137731
65	0xbc32afbd	-0.010906157
66	0x3b1b5740	0.0023703128
67	0x3c618713	0.013765114
68	0xbaa5116f	-0.0012593697
69	0xbcb2a4e8	-0.021807149
70	0xbca273a5	-0.019830534
71	0xbb3b74de	-0.0028603594
72	0x3cc5b4ea	0.024134118
73	0x3c096fb0	0.008388445
74	0x3b11d33a	0.0022251145
75	0xbc9657a3	-0.018352335
76	0xbd385275	-0.045000512
77	0xbc03320c	-0.008007538
78	0x3d3c6509	0.045994792
79	0x3d5ec9c9	0.054391656
80	0xbd158ab2	-0.036509223
81	0xbd21f747	-0.039542463
82	0xbd240a42	-0.040048845
83	0x3d1a3c44	0.03765513
84	0x3d5233fc	0.051319107
85	0xbd64f2f5	-0.055895764
86	0xbd9e5aec	-0.07732186
87	0xbd8b2993	-0.06795039
88	0xbd1e37c9	-0.03862742
89	0xbcafc9dc	-0.021458559
90	0xbd729e55	-0.05923303
91	0xbdc78962	-0.097430006
92	0xbd83b854	-0.06431642
93	0xbd9c54e9	-0.07633383
94	0xbd745c57	-0.059658375
95	0xbd3f73c7	-0.046741273
96	0xbd63455a	-0.05548606
97	0xbcf9f638	-0.030512914
98	0xbda93e63	-0.082638524
99	0xbdd50824	-0.10401943
100	0xbcb7f889	-0.022457378
101	0xb97bbfd8	-0.00024008693
102	0xba02dd23	-0.00049920584
103	0x3d81b7dd	0.06333897
104	0x3dd5b02d	0.104339935
105	0xbd0163aa	-0.031589188
106	0xbceebf47	-0.029143943
107	0xbc745aec	-0.014914256
108	0x3cf324f0	0.0296807
109	0x3c8cfca0	0.017210305
110	0xbd61b291	-0.055101935
111	0xbd20d96b	-0.039269846
112	0xbd54d154	-0.051957443
113	0xbcdd2ccc	-0.0269989
114	0xbce2ad19	-0.02767043
115	0xbca3875c	-0.019962005
116	0xbd43a439	-0.047764037
117	0xbd63ca59	-0.055612896
118	0xbd070e7a	-0.03297279
119	0xbcb0a630	-0.02156362
120	0x3d2fd13c	0.04292415
121	0xbcced111	-0.025246175
122	0xbc5858d7	-0.013204775
123	0x3c4c79e9	0.0124802375
124	0xbb882f5c	-0.0041560363
125	0xbdb32472	-0.08747186
126	0xbb7ae029	-0.0038280583
127	0x3cac29b0	0.021015972
128	0x3c19ddf7	0.009391299
129	0x3cd30d39	0.025763141
130	0xbc12e7fb	-0.008966441
131	0x3ca722ce	0.020402338
132	0x3d10e766	0.03537693
133	0x3c7f1038	0.015567832
134	0x3d1cb354	0.038256958
135	0x3caa3530	0.020777315
136	0x3b838c01	0.0040144925
137	0x3bd6d9d4	0.006556729
138	0x3bf20350	0.007385649
139	0x3c005800	0.007833481
140	0x3cea7b64	0.02862329
141	0xbc08d1bd	-0.008350787
142	0xbd3c8843	-0.046028387
143	0xbd483b17	-0.048884477
144	0xba9ca435	-0.0011950793
145	0x3daa8094	0.083253056
146	0xbd02404f	-0.03179961
147	0xbd1ffcdf	-0.039059516
148	0xbd30749e	-0.043079965
149	0xbbb9d4a1	-0.0056710993
150	0x3c03eaa7	0.008051551
151	0xb92429aa	-0.0001565578
152	0xbc4874ae	-0.01223485
153	0x3bab9132	0.0052358145
154	0x3b75fc6a	0.0037534484
155	0xbc15208e	-0.009102
156	0x3ccd0f8a	0.025031824
157	0xbc3dbd63	-0.011580798
158	0x3c29b6f4	0.010358561
159	0xbbaa6a90	-0.0052006915
160	0xbc8cf870	-0.017208308
161	0xbc13c06a	-0.009018043
162	0x39cff795	0.0003966658
163	0x3b687934	0.0035472633
164	0x3c4544de	0.012040345
165	0xbc6746db	-0.014116014
166	0xbc3bb27d	-0.011456129
167	0x3d063e01	0.032773975
168	0x3cb5fd5f	0.022215543
169	0x3b1d28cf	0.0023980623
170	0x39ebaeca	0.0004495292
171	0x3c47812e	0.012176795
172	0x3c3b7928	0.01144246
173	0x3cad2d47	0.021139754
174	0x3c7f56a5	0.0155846225
175	0x3c4c3b8f	0.012465372
176	0x3c83d626	0.016093325
177	0x3c8c33d9	0.017114567
178	0x3b829ea0	0.0039861947
179	0x3c1e7267	0.00967083
180	0xbc42b70e	-0.011884464
181	0xba6de288	-0.00090745883
182	0x3c2ea695	0.010659833
183	0xbc8ce893	-0.017200744
184	0xbc084a8f	-0.008318557
185	0x3c80a0f4	0.015701748
186	0x3c8e83ef	0.017396895
187	0xba28d793	-0.00064408145
188	0x3baded90	0.0053078607
189	0x3cdf2e9b	0.027243903
190	0x3cd17702	0.025569443
191	0x3d0d747f	0.034534927
192	0x3cad0c53	0.02112404
193	0x3d0ebb31	0.03484649
194	0x3d5f0b2d	0.054454017
195	0x3d0ab1d2	0.03386099
196	0x3d41929d	0.047258962
197	0x3db50d97	0.08840483
198	0x3dbeddd4	0.09319654
199	0x3dbb1b82	0.09136106
200	0xbd4c1931	-0.049828712
201	0xbd2331e9	-0.03984252
202	0xbcb0ffc0	-0.021606326
203	0x3cb204ea	0.021730859
204	0xbbadbf5e	-0.0053023538
205	0x3c143ec1	0.009048165
206	0xbc20f8bd	-0.009824929
207	0xbd6e15aa	-0.05812613
208	0xbc3770d8	-0.011196338
209	0x3c21d44a	0.009877274
210	0x3d0e59fe	0.034753792
211	0x3d1d72ee	0.038439684
212	0x3cb25e48	0.021773472
213	0xbc23a142	-0.009987177
214	0x3c8bb049	0.017051833
215	0x3d370e99	0.044691656
216	0x3d1ab998	0.037774652
217	0x3d1f2d09	0.03886131
218	0x3be7cbab	0.0070738397
219	0xbcda4dd2	-0.026648436
220	0x3d2ebbe6	0.042659663
221	0xbcc09439	-0.023508178
222	0xbb6bf83e	-0.0036006118
223	0x3c081021	0.008304627
224	0xbcd2c03a	-0.025726426
225	0xbc6a4801	-0.014299394
226	0x3c5574af	0.013028308
227	0xbc061972	-0.008184778
228	0x3c94677f	0.018115757
229	0x3ca383b3	0.01996026
230	0xbc7a9b1f	-0.015295773
231	0xbbdcd81b	-0.006739629
232	0xbbacc5d3	-0.005272606
233	0xba8083b1	-0.0009804872
234	0xb96a08a3	-0.00022319196
235	0x3b364938	0.0027814638
236	0xbca96e7c	-0.020682566
237	0xbcd87e9a	-0.026427556
238	0x3c876b3d	0.016530627
239	0x3c6c0218	0.014404796
240	0x3a8e5d01	0.0010861458
241	0xbc5d9917	-0.013525269
242	0xbc72d3fb	-0.014821048
243	0xbbc0b4f8	-0.005880948
244	0xbc9c93d2	-0.019113455
245	0x3a87ac69	0.0010351065
246	0x3cc44595	0.02395896
247	0x3c7a5987	0.015280134
248	0x3b949336	0.0045341505
249	0xbcbb22f8	-0.022843823
250	0x3cb94b91	0.02261904
251	0x3ad1024d	0.001594612
252	0xbd2b72ef	-0.041857656
253	0xbd47f943	-0.0488217
254	0xbc8ceca6	-0.017202687
255	0xbc2cbf14	-0.010543603

features.7.bias f4 [120]
0	0xbcb64237	-0.02224837
1	0x3d65e16b	0.05612318
2	0x3e02b78f	0.12765335
3	0xbcdbbf68	-0.026824668
4	0xbd851ae3	-0.06499269
5	0xbc345c89	-0.01100839
6	0x3cab6b03	0.02092505
7	0x3c11ca2b	0.008898298
8	0x3db860f1	0.09002865
9	0x3de4ce22	0.11172129
10	0xbd25c37d	-0.040469635
11	0xbda62ad3	-0.08113637
12	0x3d1e0ea8	0.038588196
13	0xbc682de0	-0.014171094
14	0xbd7876cb	-0.060660165
15	0x3d6069dd	0.05478846
16	0x3c64f87e	0.013975261
17	0xbcb7ebf5	-0.02245138
18	0x3ae97e9a	0.001781422
19	0x3a9c4cca	0.001192474
20	0xbcb1bf38	-0.021697626
21	0xbcae66b6	-0.02128921
22	0xba43cf1c	-0.00074695214
23	0x3a9dcd2f	0.0012039299
24	0x3c802cef	0.015646426
25	0xbd029102	-0.03187657
26	0xbbedc003	-0.0072555556
27	0x3c1e1c11	0.009650246
28	0x3d420ee3	0.04737748
29	0x3bf47d5c	0.007461233
30	0x3ce5eefa	0.028068054
31	0x3c0b499e	0.008501438
32	0xbc13d6b8	-0.009023361
33	0xbcee1624	-0.029063292
34	0x3c9a3b57	0.018827124
35	0x3d747181	0.05967856
36	0x3dca8e6f	0.09890448
37	0xbb0031ea	-0.0019561
38	0x3c03c24c	0.008041929
39	0x3d875d40	0.06609583
40	0x3be93732	0.0071171755
41	0xbda0f381	-0.07858945
42	0x3df5f67f	0.12009906
43	0x3ce1039e	0.027467545
44	0x3c09d771	0.008413182
45	0x3c0010c0	0.0078164935
46	0x3affa85b	0.001950513
47	0x3d96b91f	0.07359528
48	0x3d84c687	0.064831786
49	0xbc7c650c	-0.015404951
50	0xbb30bf7c	-0.0026969602
51	0xbcd3ec3c	-0.025869481
52	0x3b84372b	0.004034897
53	0xbd66e55b	-0.056371074
54	0x3aafeda0	0.0013422258
55	0x3dc988bc	0.09840533
56	0x3d1b9b0c	0.03798966
57	0xbca5288e	-0.02016094
58	0xba1d5742	-0.0006002077
59	0x3b068e0a	0.002053144
60	0xbc3a3aef	-0.01136659
61	0x3d94cc8d	0.072655775
62	0xbb65bb09	-0.0035054109
63	0xbcd88e09	-0.026434915
64	0xbcf787a5	-0.030216048
65	0xbc852719	-0.016253995
66	0x3c8a2bab	0.016866526
67	0xbcf82afe	-0.030293938
68	0x3aaa56fe	0.0012995896
69	0xbbe74623	-0.0070579215
70	0x3c8f250b	0.017473718
71	0xbc6c7c71	-0.014433966
72	0x3bbcf37d	0.0057663308
73	0xbd254e1a	-0.040357687
74	0xbd68199a	-0.05666504
75	0xbccbb633	-0.024867153
76	0xbd5b92a2	-0.053606637
77	0x3cbedf4d	0.023299837
78	0x3cd2658f	0.025683193
79	0x3bd7b91d	0.0065833465
80	0xbd2018ec	-0.039086267
81	0xbcbdd5a0	-0.023173153
82	0x3d093a68	0.033502966
83	0x3c9ce4ac	0.019152008
84	0x3d70bbf7	0.058773007
85	0xbc2ade2b	-0.0104289455
86	0x3d0d4381	0.034488205
87	0xbccd89f6	-0.025090199
88	0xbd0ec463	-0.034855258
89	0xbc616462	-0.013756843
90	0xbb388d5f	-0.0028160436
91	0x3d9c9629	0.07645828
92	0xbc9bb416	-0.01900677
93	0x3d0606fc	0.032721505
94	0x3a928cd8	0.0011180891
95	0xbbb3eae9	-0.00549065
96	0x3ce69904	0.028149135
97	0xbcc08cc4	-0.023504622
98	0xbc17d17d	-0.0092662545
99	0xbce6cebd	-0.028174752
100	0xbbf99a3f	-0.0076172645
101	0xbba2e10c	-0.0049706753
102	0x3ccc1e57	0.02491681
103	0x3cc0213f	0.023453353
104	0x3d0b159f	0.033956166
105	0x3b7e357f	0.003878921
106	0x3dfb995e	0.12285112
107	0x3960da61	0.00021443657
108	0xbc055b30	-0.008139417
109	0x3cc04740	0.023471475
110	0x3d9865d6	0.07441299
111	0xbc965949	-0.018353121
112	0x3cdcca82	0.026952032
113	0x3bd5ef6f	0.006528787
114	0xb9df5836	-0.00042599597
115	0xbcc9cf72	-0.02463505
116	0x3cde9f6f	0.027175633
117	0xbb810238	-0.003937032
118	0xbce2568e	-0.027629163
119	0x3ae04230	0.0017109569

features.9.weight f4 [84, 120]
0	0xbcc14215	-0.02359108
1	0x3b9e1e4c	0.004825389
2	0x3caa33ee	0.020776715
3	0xbca26b36	-0.019826513
4	0xbc6e1eec	-0.01453374
5	0x3cb0ef93	0.021598613
6	0xbc812018	-0.015762374
7	0xbca4caea	-0.020116288
8	0x3d0c00d4	0.034180477
9	0xb9a7e119	-0.00032020433
10	0xbb767ab3	-0.0037609756
11	0xba2f90df	-0.00066973077
12	0x3cb61b6a	0.022229869
13	0xb9eff4b2	-0.00045767945
14	0xba0659f8	-0.0005125101
15	0x3c9bdb2e	0.019025411
16	0xbc31d7df	-0.01085469
17	0x3b40889f	0.0029378308
18	0x3b9877db	0.0046529598
19	0x3bafabae	0.005361042
20	0xbc70301a	-0.014659906
21	0x3bd89483	0.006609501
22	0x3bb9d9c5	0.005671712
23	0xbc403d09	-0.011733302
24	0x3c827156	0.015923183
25	0xbc1461f9	-0.009056562
26	0x3c65abf9	0.014018052
27	0xbc11f57e	-0.008908628
28	0xbbb80a1c	-0.0056164395
29	0xbaac85a5	-0.0013162388
30	0xba27aa28	-0.00063958997
31	0x3c2bdb54	0.010489304
32	0xbc0bf56d	-0.008542401
33	0x3c2a9697	0.01041188
34	0x3c61c4dd	0.013779846
35	0xbb9df60a	-0.00482059
36	0xbb706c1e	-0.0036685537
37	0x3c243ce0	0.010024279
38	0xbb51ba36	-0.003200186
39	0xbbda92e8	-0.0066703446
40	0x3a64000f	0.00086975185
41	0x3ab668ff	0.0013916789
42	0xbbdd9d4b	-0.0067631355
43	0xbb50951d	-0.003182716
44	0x3c6797c8	0.014135309
45	0x3bdd94ef	0.006762139
46	0x3b55b519	0.0032609163
47	0x3bbc6e5e	0.0057504615
48	0xbc5aac0b	-0.013346682
49	0xbabbfa7a	-0.0014341616
50	0xbc69a28f	-0.014259948
51	0x3badaa77	0.005299862
52	0x3b3ca169	0.0028782731
53	0xba16e222	-0.00057557423
54	0x3bc93897	0.0061407792
55	0x3ab2cf86	0.0013642169
56	0xbb461627	-0.0030225606
57	0xbb91977a	-0.0044431062
58	0x3c819aac	0.015820824
59	0x3c3f2cfe	0.011668442
60	0x3bec7d92	0.0072171176
61	0xbb7dd2bd	-0.0038730346
62	0xbbe6a311	-0.007038482
63	0xbc239827	-0.009985006
64	0x3965b932	0.00021908132
65	0xb9d404e1	-0.00040439426
66	0xbbb60157	-0.005554359
67	0xbc022de1	-0.007945509
68	0x3b818806	0.003952983
69	0x3ba658c6	0.0050765006
70	0xbc50d6f4	-0.012746561
71	0xbc2ec247	-0.0106664365
72	0x3a4b00ae	0.0007743937
73	0xbc70f783	-0.014707449
74	0xbc89b2e1	-0.016808929
75	0xbbd1b1be	-0.0063993623
76	0xbbef5794	-0.0073041413
77	0xbcdfede7	-0.02733512
78	0xbc0e10ee	-0.008671029
79	0x3c0ac4f6	0.008469811
80	0xb95eb06f	-0.00021237296
81	0xbc01f512	-0.0079319645
82	0xbc9d9b4b	-0.019239089
83	0x3c57c059	0.013168418
84	0x3cd92ead	0.026511515
85	0xbb933de6	-0.004493463
86	0xbc9e8ad1	-0.019353302
87	0x3c67451a	0.014115596
88	0xbbe87cbb	-0.007094947
89	0xbc9589da	-0.01825421
90	0x3bd1ea15	0.0064060786
91	0xbbec93e1	-0.007219777
92	0xbbadc395	-0.005302856
93	0x3c8ada1a	0.016949702
94	0x3b9806ed	0.0046394975
95	0x3bcff55c	0.006346388
96	0x3c94c045	0.018158088
97	0xb99277f0	-0.0002793665
98	0x3c72f82b	0.014829676
99	0xbc8501ab	-0.016236147
100	0xbc0cdf90	-0.008598223
101	0xbcb8fa23	-0.022580212
102	0xbcd63475	-0.02614806
103	0xbb5eca2b	-0.0033995013
104	0x3c0ded75	0.008662571
105	0x3ac4030d	0.0014954522
106	0xbc670fe1	-0.014102907
107	0xbc90d56d	-0.017679894
108	0x3bff6466	0.007793951
109	0x3bf91a2f	0.0076019983
110	0xbc9eeb85	-0.019399414
111	0x3b0fb19e	0.0021925936
112	0xbc1dd91c	-0.009634282
113	0x3b9ea88e	0.0048418706
114	0x3c7f7030	0.015590712
115	0xbb34890e	-0.0027547511
116	0xbc9dac8b	-0.019247314
117	0x3a9cde1e	0.0011968052
118	0x3c7b8de5	0.0153536545
119	0x3c2c0fb6	0.010501793
120	0xbada9c42	-0.0016678649
121	0xbce0fcfd	-0.027464384
122	0xbbb84da6	-0.005624491
123	0x3c2878ef	0.010282739
124	0xbb211e7e	-0.0024584825
125	0xbbec9c81	-0.007220805
126	0xbb08b27b	-0.0020858336
127	0x3c8af232	0.01696119
128	0x3c8e6d45	0.017386088
129	0x3bb4af07	0.005514029
130	0xbc80b6b5	-0.015712122
131	0x3bf09bba	0.007342783
132	0xbb2b50bc	-0.002614065
133	0xbbdf340e	-0.0068116253
134	0xbc17b2e8	-0.009258963
135	0xbb916864	-0.004437493
136	0x3c39754c	0.01131947
137	0x3cea0e19	0.028571175
138	0x3b91081e	0.0044260165
139	0x3c2665e2	0.010156127
140	0xbb8bd76e	-0.0042676246
141	0xbc6b2c46	-0.014353817
142	0xbb20b13c	-0.0024519702
143	0x3c9bb9a1	0.019009413
144	0x3bb44893	0.0055018156
145	0xbb39f5ff	-0.0028375385
146	0xb9dc7e25	-0.00042055655
147	0xba283663	-0.00064167957
148	0x3c28771d	0.010282305
149	0x3af76c7c	0.0018876935
150	0x3a74833b	0.0009327416
151	0x3a2d9714	0.00066219387
152	0xbb50a88d	-0.0031838745
153	0xbc97a915	-0.018513242
154	0xb9f671a4	-0.00047005445
155	0x3b18b4c6	0.0023301109
156	0x3c9ee6a7	0.019397093
157	0xbb9fd488	-0.0048776306
158	0xbc3e5919	-0.011617922
159	0xbc0d341e	-0.008618383
160	0x3c23d6ab	0.009999911
161	0xbc339834	-0.010961581
162	0xbc7934af	-0.015210315
163	0x3b8350c7	0.004007432
164	0x3c5c1793	0.013433355
165	0x3bb30314	0.0054630134
166	0xbcb0c8ef	-0.021580188
167	0xba763d5f	-0.00093933
168	0xbaf6cf61	-0.0018830114
169	0x3c70fae6	0.014708256
170	0x3c0ab5d5	0.008466204
171	0xb99e6c8e	-0.00030216988
172	0x3bba3264	0.0056822766
173	0xbc2bb988	-0.010481246
174	0xbc0bad34	-0.008525182
175	0x3c73b36c	0.0148743205
176	0x3b28b602	0.002574325
177	0x3c257024	0.010097537
178	0x3cc721a6	0.024308037
179	0x3c3a6b4e	0.0113781225
180	0xbb7c8ef1	-0.0038537348
181	0xbcb02ac1	-0.021504762
182	0x3b89b9b9	0.004203048
183	0xbc2022dd	-0.009773937
184	0xbbd8cd24	-0.0066162515
185	0x3c0f6a12	0.0087533165
186	0x3c165b30	0.009177014
187	0xbc32af0c	-0.010905992
188	0xbc82e0a0	-0.01597625
189	0xbb80570b	-0.0039166263
190	0x3c11a97a	0.008890504
191	0x3b9a564f	0.004709996
192	0xbb7c3e9a	-0.0038489462
193	0xbc2a5b6c	-0.010397773
194	0x3c06982e	0.008214993
195	0xbc66ae91	-0.014079706
196	0xbca8f555	-0.020624796
197	0x3c931242	0.017953042
198	0xbb382916	-0.002810066
199	0xbcb43b80	-0.022001028
200	0x3ca65eea	0.02030893
201	0xbc088316	-0.008332035
202	0xbc1723ca	-0.009224841
203	0x3bbe4d22	0.005807535
204	0x3b8e6479	0.0043454734
205	0xbc26300b	-0.01014329
206	0x3c9683c1	0.018373372
207	0xbb1aff0c	-0.0023650555
208	0x3ba4a4d4	0.005024532
209	0x3c02ff07	0.007995374
210	0xbcb090e7	-0.02155347
211	0x3c189f8d	0.009315384
212	0xbc3575c2	-0.011075439
213	0xba472f82	-0.0007598327
214	0x3c3557e4	0.011068318
215	0x3cccc8ac	0.024998032
216	0x39cdedd7	0.00039277851
217	0xbc00e8c9	-0.007868
218	0x3c397428	0.011319198
219	0x3a436113	0.0007453125
220	0x3bc37bb9	0.0059656766
221	0x3b6b38a1	0.0035891908
222	0x3c2e1b30	0.010626599
223	0xbac01388	-0.0014654258
224	0xbc611784	-0.013738517
225	0x3bc0e268	0.0058863647
226	0x3ca6ef09	0.020377653
227	0x3af944a0	0.0019017644
228	0xbc8bab9c	-0.017049603
229	0xbc0f8964	-0.008760784
230	0xbb00cfc5	-0.001965509
231	0x3b94065e	0.0045173606
232	0x3c38a60a	0.011270056
233	0xba3f4ee2	-0.0007297826
234	0xbca54c96	-0.02017812
235	0x3c5cc5d1	0.0134748975
236	0xbb2924d5	-0.0025809307
237	0xbb9429bb	-0.004521576
238	0x3bf97f35	0.007614041
239	0xbc5ef323	-0.013607773
240	0x3d85a266	0.06525116
241	0xbc3075fc	-0.010770317
242	0xbd64676c	-0.055762693
243	0x3c8a5198	0.01688461
244	0xbd518594	-0.05115278
245	0xba897985	-0.0010488486
246	0xbd8a60d6	-0.06756751
247	0x3d42eb41	0.047587637
248	0xbb276583	-0.0025542683
249	0xbe292f65	-0.16521986
250	0x3d67eeab	0.056624096
251	0x3d09fa81	0.033686165
252	0xbcd33e08	-0.025786415
253	0x3c815401	0.015787126
254	0x3d1159fe	0.035486214
255	0x3cb09cc6	0.02155913

features.9.bias f4 [84]
0	0x3c04954c	0.008092236
1	0xbc12b88c	-0.008955132
2	0x3dbc006e	0.091797695
3	0x394d3414	0.00019569724
4	0xb9c629ac	-0.0003779655
5	0xbc8f1810	-0.017467529
6	0x3ebea52d	0.37235394
7	0x3da4252c	0.080149025
8	0x3d4563e2	0.04819096
9	0x3e0e8467	0.13917695
10	0x3f1dfe9c	0.6171663
11	0xbb1c38ee	-0.0023837644
12	0x3ded1af4	0.115774065
13	0x3f0f0b4c	0.5587661
14	0xbd24a694	-0.040197924
15	0x3bb319d2	0.0054657245
16	0x3cebec22	0.02879912
17	0x3b115cdd	0.0022180595
18	0x3cda75d4	0.026667513
19	0x3d96810f	0.07348835
20	0xbc0793f4	-0.008275021
21	0x3e928e8d	0.28624383
22	0xbcdc6e50	-0.02690807
23	0xbc360be4	-0.011111233
24	0xbb8e8cc3	-0.004350276
25	0x3dbae671	0.091259845
26	0x3cbf847d	0.023378605
27	0xbd0bb0c0	-0.03410411
28	0x3d1281fd	0.035768498
29	0xbde16c2e	-0.11006962
30	0x3d758dd8	0.059949726
31	0xbcc0077a	-0.023441065
32	0x3c79a519	0.015237116
33	0x3b31c5a5	0.0027125862
34	0x3c193676	0.009351363
35	0x3d6a0062	0.05712927
36	0x3d8c6c0e	0.06856547
37	0x3d20a16e	0.03921645
38	0xbc4cd56e	-0.0125020575
39	0x3e7f5bd4	0.24937373
40	0x3db9c347	0.09070449
41	0x3d7c376e	0.0615763
42	0xbbb2da09	-0.0054581207
43	0xbc8318b9	-0.016003
44	0x3c7c5d2e	0.015403075
45	0x3de50d33	0.11184158
46	0xbbb9f14c	-0.005674517
47	0x38de069d	0.00010587017
48	0x3d13d59f	0.036092397
49	0x3d0e8ea6	0.03480401
50	0x3e12aea9	0.1432444
51	0x3c2fcf50	0.0107305795
52	0xbb95928f	-0.0045645903
53	0x3e19fc0d	0.15037556
54	0x3eb37936	0.35053414
55	0xbbd6fd7a	-0.0065609785
56	0x3b69ffd6	0.0035705469
57	0xbd5cb7c2	-0.053886183
58	0x3cd002f8	0.02539204
59	0x399f384e	0.00030368794
60	0x3e2f46c0	0.17116833
61	0xbbadc084	-0.0053024907
62	0x3cdb892b	0.026798805
63	0x3a7e71d4	0.0009706293
64	0xbc2b3080	-0.010448575
65	0x3bcba12a	0.0062142806
66	0xbac12006	-0.0014734275
67	0x3e1ebd48	0.15501893
68	0x3ddeb478	0.108742654
69	0x3cfdb2ea	0.030969102
70	0x3d63e474	0.05563779
71	0x3c17e8f6	0.009271851
72	0x3e028be1	0.12748672
73	0xbcc76066	-0.024337959
74	0xbce445d8	-0.027865335
75	0x3d5cbdef	0.053892072
76	0x3bedc131	0.007255696
77	0x3e0fafc7	0.14031897
78	0x3d31ed22	0.043439038
79	0x3d0d53c0	0.0345037
80	0xbcbfe133	-0.023422813
81	0x3e8fb395	0.28066698
82	0x3cc25f59	0.023727106
83	0x3c446e64	0.01198921

classifiers.0.weight f4 [5, 84]
0	0xba6d7add	-0.00090591406
1	0xbb8c566c	-0.004282763
2	0x3e84b600	0.25920105
3	0x3b07744c	0.0020668684
4	0xbd200131	-0.039063636
5	0xbc44c206	-0.012009149
6	0xbea46b22	-0.32112986
7	0xbcb930ec	-0.022606336
8	0xba75ad8f	-0.00093718705
9	0xbe418dc7	-0.1890174
10	0xbf1b9720	-0.60777473
11	0xbdc443fa	-0.09583278
12	0x3c317549	0.010831186
13	0xbf0ae68f	-0.54258054
14	0xbdaf9d48	-0.08574921
15	0xbcc83751	-0.02444044
16	0x3d98ba72	0.074574366
17	0x3c52f45d	0.012875644
18	0xbb46767b	-0.0030283022
19	0x3d417276	0.0472283
20	0x3d8f296d	0.06990323
21	0xbe64dcb9	-0.22349824
22	0x3d79b9f2	0.060968347
23	0x3cc0b766	0.023524951
24	0x3b99702e	0.0046825623
25	0x3e220fc6	0.1582633
26	0x3bb486b8	0.005509224
27	0xbd13803b	-0.036010962
28	0x3d607407	0.054798152
29	0x3e809e7c	0.25120914
30	0x3d82274a	0.0635515
31	0xbd487d98	-0.0489479
32	0x3d8b9d46	0.06817107
33	0xbb1a8a92	-0.002358113
34	0x3c13b77a	0.009015912
35	0x3ca04c55	0.019567648
36	0xbdc9a3e7	-0.09845715
37	0x3a61b54f	0.0008610086
38	0x3c4d8e31	0.012546108
39	0xbdc7182e	-0.09721409
40	0x3e27585c	0.163423
41	0x3e239293	0.15973882
42	0xbc3208bf	-0.010866343
43	0xbc7d2912	-0.015451686
44	0x3c9393fa	0.018014897
45	0x3e5e5725	0.2171293
46	0x3cbea73d	0.023273105
47	0xba0c052c	-0.0005341347
48	0x3e2acff5	0.16680892
49	0x3c76a4f8	0.01505398
50	0x3cba9e09	0.022780435
51	0x3e701e15	0.23448975
52	0xbc14edbc	-0.009089883
53	0x3dc5d744	0.09660199
54	0xbee02cf4	-0.43784297
55	0xbb1cc826	-0.0023923009
56	0xbbcfcfa2	-0.0063418904
57	0x3e0733f7	0.13203417
58	0x3d223346	0.03959968
59	0xbbb263f8	-0.005444046
60	0xbe43b65c	-0.19112533
61	0xbcf4114c	-0.029793404
62	0xbe1ef533	-0.15523224
63	0x3d13f388	0.03612092
64	0x3c4c17ce	0.012456847
65	0x3def29c8	0.11677891
66	0x3c8098f3	0.015697932
67	0x3e20536f	0.15656827
68	0x3d986751	0.07441581
69	0xbcc61504	-0.024179943
70	0x3cab0079	0.020874249
71	0xbc899d1a	-0.016798545
72	0x3d8b818a	0.06811817
73	0xbc3ad02d	-0.011402172
74	0xbd202094	-0.03909357
75	0xbdd0e639	-0.102001615
76	0x3cf607b9	0.03003298
77	0x3cb48ccd	0.022039795
78	0x3c1c433d	0.009537515
79	0xbd8b7f0a	-0.0681134
80	0x3e643c93	0.22288732
81	0xbe8388e3	-0.25690374
82	0x3dd7ed1f	0.10543274
83	0xbdae7c3a	-0.08519788
84	0x3bd716ce	0.006563998
85	0x3a11da4c	0.000556384
86	0xbc46e562	-0.01213965
87	0x3c9c1dc2	0.019057158
88	0xbbfd8f15	-0.007738004
89	0xbc0290f3	-0.007969129
90	0xbe364742	-0.1780062
91	0x3d8f5085	0.0699778
92	0xbd2d47e9	-0.042304907
93	0x3d8ab514	0.06772819
94	0xbe336b23	-0.17521338
95	0x3e60dd98	0.21959531
96	0x3d6f2231	0.058382217
97	0xbdfbefae	-0.12301575
98	0x3e566821	0.2093816
99	0x3d3c0f7c	0.045913205
100	0xbd037497	-0.03209361
101	0xbc53ea73	-0.012934315
102	0x3d8eb15c	0.06967422
103	0x3e1577d4	0.14596492
104	0x3a98c78b	0.0011656148
105	0xbdfd5faf	-0.12371766
106	0x3d94471e	0.07240127
107	0x3bfc2777	0.0076951343
108	0xbc91c7a5	-0.017795393
109	0xbe179aea	-0.14805189
110	0xbc2581f2	-0.010101782
111	0x3e14620c	0.14490527
112	0xbd5f2ebb	-0.054487925
113	0x3ce202c2	0.027589206
114	0xbd5b7fbb	-0.05358861
115	0x3cb26d1d	0.021780545
116	0xbc9a2786	-0.018817674
117	0x3cf56421	0.029954972
118	0x3d3aedad	0.04563682
119	0x3b641d18	0.003480738
120	0x3ddc5a71	0.10759438
121	0xbd41abb5	-0.047282893
122	0x3d835e5b	0.06414481
123	0x3cc5413c	0.024078958
124	0xbdfa19dd	-0.12211964
125	0x3e65254b	0.22377507
126	0x3bf8b2db	0.0075896806
127	0xbbe4e60d	-0.006985432
128	0x3d02ebc7	0.031963136
129	0x3dd58281	0.10425282
130	0xbcb86401	-0.022508623
131	0x3cec7cdb	0.02886813
132	0x3d9be38d	0.07611761
133	0xbcc6c386	-0.024263155
134	0x3df79073	0.120880984
135	0xbe835a25	-0.25654712
136	0x3c81d0ff	0.015846727
137	0xbe0e0679	-0.13869657
138	0xbb0702e3	-0.0020601086
139	0xbb60a47f	-0.0034277735
140	0xbc0acc04	-0.008471493
141	0x3e12b0b1	0.14325215
142	0xbcec3002	-0.028831486
143	0xbca9ca69	-0.0207264
144	0x3e36e97a	0.17862502
145	0x3cb8c21f	0.022553502
146	0x3d6429eb	0.05570404
147	0xbd1b7a4e	-0.037958436
148	0x3cb77c30	0.022398084
149	0xbdf2180e	-0.11820994
150	0xbbc91c32	-0.0061373943
151	0xbdf494b7	-0.119424276
152	0x3db08412	0.086189404
153	0xbd470d41	-0.048596624
154	0xbd9298b9	-0.07158036
155	0x3d5dc4c0	0.054142714
156	0x3da88c0d	0.082298376
157	0x3db19c6e	0.08672415
158	0xbcb1b32d	-0.021691883
159	0xbd817e28	-0.063228905
160	0x3e193656	0.14962134
161	0x3e14e819	0.14541663
162	0x3d81fbd8	0.063468635
163	0xbd8602d1	-0.06543506
164	0x3dedde6a	0.11614688
165	0x3dbacf16	0.0912153
166	0xbe032a01	-0.12808992
167	0x3d67e8ee	0.056618623
168	0xbccfb448	-0.02535452
169	0x3d0bbb0e	0.034113936
170	0xbe0fc619	-0.14040412
171	0xbc71148d	-0.014714372
172	0x3dcfb1b8	0.10141319
173	0xbc7730f9	-0.01508736
174	0x3e1c847d	0.15284915
175	0xbcf034a7	-0.029321982
176	0x3d3c2043	0.045929205
177	0x3d54d10c	0.051957175
178	0x3e36a612	0.17836788
179	0xbdb733a2	-0.08945395
180	0xbd7b7ee1	-0.061400298
181	0x3e136d82	0.14397243
182	0xbc9c6e35	-0.01909552
183	0xbd16ea80	-0.03684473
184	0xbcfac38c	-0.030610822
185	0xbbf5ad81	-0.00749749
186	0x3dca974e	0.0989214
187	0x3bb4b13d	0.0055142925
188	0x3d30dec2	0.04318119
189	0x3d801a8b	0.06255063
190	0x3df7ee37	0.12105983
191	0x3e01b101	0.12665178
192	0x3c040896	0.008058688
193	0x3e3de3f9	0.18543996
194	0xbc043b01	-0.008070708
195	0xbd15f5c2	-0.036611326
196	0xbd847959	-0.06468458
197	0x3e118448	0.14210618
198	0xbdcbd3b9	-0.09952492
199	0x3d8f74b1	0.07004679
200	0xbd883b7b	-0.0665197
201	0xbcc289cb	-0.023747345
202	0x3d080e5f	0.03321683
203	0xbde88d1b	-0.11355039
204	0x3e45ba2c	0.193093
205	0x3e5f5875	0.21811087
206	0x3be17ebe	0.006881564
207	0xbd2fcdc2	-0.042920835
208	0x3e81a6c1	0.25322536
209	0xbe4a984a	-0.19784656
210	0x3c1c0d0a	0.009524593
211	0xbbdc6ce8	-0.00672685
212	0x3e17ede2	0.14836839
213	0x3dfb4b16	0.12270181
214	0x3af59c4a	0.0018738594
215	0x3d02dabc	0.031946883
216	0xbdd3cc52	-0.103417054
217	0xbd8eb5bf	-0.06968259
218	0xbdf71ccd	-0.1206604
219	0xbbc54451	-0.006020107
220	0x3d4ad022	0.049514897
221	0x3e1fb171	0.15595032
222	0x3d867900	0.06566048
223	0x3c7b5b1a	0.0153415445
224	0x3d3a5a7c	0.04549645
225	0x3c5132f7	0.012768499
226	0x3ba44d9c	0.0050141346
227	0xbc796d55	-0.015223821
228	0xbc30b249	-0.010784694
229	0x3dbad784	0.091231376
230	0x3e14cd3a	0.14531413
231	0xbb790b5e	-0.003800116
232	0xbc072b40	-0.008250058
233	0xbcb2877c	-0.02179312
234	0x3b86e64e	0.00411681
235	0xbc34317a	-0.010998124
236	0xbe12f67d	-0.1435184
237	0x3e970b0c	0.29500616
238	0x3e2342fe	0.15943524
239	0xbd09b30f	-0.03361803
240	0xbe2800c8	-0.16406548
241	0x3b9db451	0.004812755
242	0x3e027c0f	0.12742637
243	0x3de38542	0.11109401
244	0x3d093ca8	0.033505112
245	0xbe21153d	-0.15730758
246	0xbdc8a286	-0.09796624
247	0x3e1b511a	0.15167657
248	0xbde3a204	-0.111148864
249	0xbdd2e5ec	-0.1029776
250	0xbd75cc18	-0.060009092
251	0x3e81f49e	0.2538194
252	0x3c6be14f	0.0143969795
253	0xbc98db09	-0.018659132
254	0x3da53fef	0.08068835
255	0x3c0fbdf4	0.008773316

classifiers.0.bias f4 [5]
0	0xbf822398	-1.0167112
1	0x3dc486fb	0.09596058
2	0xbe546ef9	-0.20745458
3	0xbe72e330	-0.23719478
4	0x3faec53f	1.3653945

classifier.weight f4 [5, 84]
0	0xba6d7add	-0.00090591406
1	0xbb8c566c	-0.004282763
2	0x3e84b600	0.25920105
3	0x3b07744c	0.0020668684
4	0xbd200131	-0.039063636
5	0xbc44c206	-0.012009149
6	0xbea46b22	-0.32112986
7	0xbcb930ec	-0.022606336
8	0xba75ad8f	-0.00093718705
9	0xbe418dc7	-0.1890174
10	0xbf1b9720	-0.60777473
11	0xbdc443fa	-0.09583278
12	0x3c317549	0.010831186
13	0xbf0ae68f	-0.54258054
14	0xbdaf9d48	-0.08574921
15	0xbcc83751	-0.02444044
16	0x3d98ba72	0.074574366
17	0x3c52f45d	0.012875644
18	0xbb46767b	-0.0030283022
19	0x3d417276	0.0472283
20	0x3d8f296d	0.06990323
21	0xbe64dcb9	-0.22349824
22	0x3d79b9f2	0.060968347
23	0x3cc0b766	0.023524951
24	0x3b99702e	0.0046825623
25	0x3e220fc6	0.1582633
26	0x3bb486b8	0.005509224
27	0xbd13803b	-0.036010962
28	0x3d607407	0.054798152
29	0x3e809e7c	0.25120914
30	0x3d82274a	0.0635515
31	0xbd487d98	-0.0489479
32	0x3d8b9d46	0.06817107
33	0xbb1a8a92	-0.002358113
34	0x3c13b77a	0.009015912
35	0x3ca04c55	0.019567648
36	0xbdc9a3e7	-0.09845715
37	0x3a61b54f	0.0008610086
38	0x3c4d8e31	0.012546108
39	0xbdc7182e	-0.09721409
40	0x3e27585c	0.163423
41	0x3e239293	0.15973882
42	0xbc3208bf	-0.010866343
43	0xbc7d2912	-0.015451686
44	0x3c9393fa	0.018014897
45	0x3e5e5725	0.2171293
46	0x3cbea73d	0.023273105
47	0xba0c052c	-0.0005341347
48	0x3e2acff5	0.16680892
49	0x3c76a4f8	0.01505398
50	0x3cba9e09	0.022780435
51	0x3e701e15	0.23448975
52	0xbc14edbc	-0.009089883
53	0x3dc5d744	0.09660199
54	0xbee02cf4	-0.43784297
55	0xbb1cc826	-0.0023923009
56	0xbbcfcfa2	-0.0063418904
57	0x3e0733f7	0.13203417
58	0x3d223346	0.03959968
59	0xbbb263f8	-0.005444046
60	0xbe43b65c	-0.19112533
61	0xbcf4114c	-0.029793404
62	0xbe1ef533	-0.15523224
63	0x3d13f388	0.03612092
64	0x3c4c17ce	0.012456847
65	0x3def29c8	0.11677891
66	0x3c8098f3	0.015697932
67	0x3e20536f	0.15656827
68	0x3d986751	0.07441581
69	0xbcc61504	-0.024179943
70	0x3cab0079	0.020874249
71	0xbc899d1a	-0.016798545
72	0x3d8b818a	0.06811817
73	0xbc3ad02d	-0.011402172
74	0xbd202094	-0.03909357
75	0xbdd0e639	-0.102001615
76	0x3cf607b9	0.03003298
77	0x3cb48ccd	0.022039795
78	0x3c1c433d	0.009537515
79	0xbd8b7f0a	-0.0681134
80	0x3e643c93	0.22288732
81	0xbe8388e3	-0.25690374
82	0x3dd7ed1f	0.10543274
83	0xbdae7c3a	-0.08519788
84	0x3bd716ce	0.006563998
85	0x3a11da4c	0.000556384
86	0xbc46e562	-0.01213965
87	0x3c9c1dc2	0.019057158
88	0xbbfd8f15	-0.007738004
89	0xbc0290f3	-0.007969129
90	0xbe364742	-0.1780062
91	0x3d8f5085	0.0699778
92	0xbd2d47e9	-0.042304907
93	0x3d8ab514	0.06772819
94	0xbe336b23	-0.17521338
95	0x3e60dd98	0.21959531
96	0x3d6f2231	0.058382217
97	0xbdfbefae	-0.12301575
98	0x3e566821	0.2093816
99	0x3d3c0f7c	0.045913205
100	0xbd037497	-0.03209361
101	0xbc53ea73	-0.012934315
102	0x3d8eb15c	0.06967422
103	0x3e1577d4	0.14596492
104	0x3a98c78b	0.0011656148
105	0xbdfd5faf	-0.12371766
106	0x3d94471e	0.07240127
107	0x3bfc2777	0.0076951343
108	0xbc91c7a5	-0.017795393
109	0xbe179aea	-0.14805189
110	0xbc2581f2	-0.010101782
111	0x3e14620c	0.14490527
112	0xbd5f2ebb	-0.054487925
113	0x3ce202c2	0.027589206
114	0xbd5b7fbb	-0.05358861
115	0x3cb26d1d	0.021780545
116	0xbc9a2786	-0.018817674
117	0x3cf56421	0.029954972
118	0x3d3aedad	0.04563682
119	0x3b641d18	0.003480738
120	0x3ddc5a71	0.10759438
121	0xbd41abb5	-0.047282893
122	0x3d835e5b	0.06414481
123	0x3cc5413c	0.024078958
124	0xbdfa19dd	-0.12211964
125	0x3e65254b	0.22377507
126	0x3bf8b2db	0.0075896806
127	0xbbe4e60d	-0.006985432
128	0x3d02ebc7	0.031963136
129	0x3dd58281	0.10425282
130	0xbcb86401	-0.022508623
131	0x3cec7cdb	0.02886813
132	0x3d9be38d	0.07611761
133	0xbcc6c386	-0.024263155
134	0x3df79073	0.120880984
135	0xbe835a25	-0.25654712
136	0x3c81d0ff	0.015846727
137	0xbe0e0679	-0.13869657
138	0xbb0702e3	-0.0020601086
139	0xbb60a47f	-0.0034277735
140	0xbc0acc04	-0.008471493
141	0x3e12b0b1	0.14325215
142	0xbcec3002	-0.028831486
143	0xbca9ca69	-0.0207264
144	0x3e36e97a	0.17862502
145	0x3cb8c21f	0.022553502
146	0x3d6429eb	0.05570404
147	0xbd1b7a4e	-0.037958436
148	0x3cb77c30	0.022398084
149	0xbdf2180e	-0.11820994
150	0xbbc91c32	-0.0061373943
151	0xbdf494b7	-0.119424276
152	0x3db08412	0.086189404
153	0xbd470d41	-0.048596624
154	0xbd9298b9	-0.07158036
155	0x3d5dc4c0	0.054142714
156	0x3da88c0d	0.082298376
157	0x3db19c6e	0.08672415
158	0xbcb1b32d	-0.021691883
159	0xbd817e28	-0.063228905
160	0x3e193656	0.14962134
161	0x3e14e819	0.14541663
162	0x3d81fbd8	0.063468635
163	0xbd8602d1	-0.06543506
164	0x3dedde6a	0.11614688
165	0x3dbacf16	0.0912153
166	0xbe032a01	-0.12808992
167	0x3d67e8ee	0.056618623
168	0xbccfb448	-0.02535452
169	0x3d0bbb0e	0.034113936
170	0xbe0fc619	-0.14040412
171	0xbc71148d	-0.014714372
172	0x3dcfb1b8	0.10141319
173	0xbc7730f9	-0.01508736
174	0x3e1c847d	0.15284915
175	0xbcf034a7	-0.029321982
176	0x3d3c2043	0.045929205
177	0x3d54d10c	0.051957175
178	0x3e36a612	0.17836788
179	0xbdb733a2	-0.08945395
180	0xbd7b7ee1	-0.061400298
181	0x3e136d82	0.14397243
182	0xbc9c6e35	-0.01909552
183	0xbd16ea80	-0.03684473
184	0xbcfac38c	-0.030610822
185	0xbbf5ad81	-0.00749749
186	0x3dca974e	0.0989214
187	0x3bb4b13d	0.0055142925
188	0x3d30dec2	0.04318119
189	0x3d801a8b	0.06255063
190	0x3df7ee37	0.12105983
191	0x3e01b101	0.12665178
192	0x3c040896	0.008058688
193	0x3e3de3f9	0.18543996
194	0xbc043b01	-0.008070708
195	0xbd15f5c2	-0.036611326
196	0xbd847959	-0.06468458
197	0x3e118448	0.14210618
198	0xbdcbd3b9	-0.09952492
199	0x3d8f74b1	0.07004679
200	0xbd883b7b	-0.0665197
201	0xbcc289cb	-0.023747345
202	0x3d080e5f	0.03321683
203	0xbde88d1b	-0.11355039
204	0x3e45ba2c	0.193093
205	0x3e5f5875	0.21811087
206	0x3be17ebe	0.006881564
207	0xbd2fcdc2	-0.042920835
208	0x3e81a6c1	0.25322536
209	0xbe4a984a	-0.19784656
210	0x3c1c0d0a	0.009524593
211	0xbbdc6ce8	-0.00672685
212	0x3e17ede2	0.14836839
213	0x3dfb4b16	0.12270181
214	0x3af59c4a	0.0018738594
215	0x3d02dabc	0.031946883
216	0xbdd3cc52	-0.103417054
217	0xbd8eb5bf	-0.06968259
218	0xbdf71ccd	-0.1206604
219	0xbbc54451	-0.006020107
220	0x3d4ad022	0.049514897
221	0x3e1fb171	0.15595032
222	0x3d867900	0.06566048
223	0x3c7b5b1a	0.0153415445
224	0x3d3a5a7c	0.04549645
225	0x3c5132f7	0.012768499
226	0x3ba44d9c	0.0050141346
227	0xbc796d55	-0.015223821
228	0xbc30b249	-0.010784694
229	0x3dbad784	0.091231376
230	0x3e14cd3a	0.14531413
231	0xbb790b5e	-0.003800116
232	0xbc072b40	-0.008250058
233	0xbcb2877c	-0.02179312
234	0x3b86e64e	0.00411681
235	0xbc34317a	-0.010998124
236	0xbe12f67d	-0.1435184
237	0x3e970b0c	0.29500616
238	0x3e2342fe	0.15943524
239	0xbd09b30f	-0.03361803
240	0xbe2800c8	-0.16406548
241	0x3b9db451	0.004812755
242	0x3e027c0f	0.12742637
243	0x3de38542	0.11109401
244	0x3d093ca8	0.033505112
245	0xbe21153d	-0.15730758
246	0xbdc8a286	-0.09796624
247	0x3e1b511a	0.15167657
248	0xbde3a204	-0.111148864
249	0xbdd2e5ec	-0.1029776
250	0xbd75cc18	-0.060009092
251	0x3e81f49e	0.2538194
252	0x3c6be14f	0.0143969795
253	0xbc98db09	-0.018659132
254	0x3da53fef	0.08068835
255	0x3c0fbdf4	0.008773316

classifier.bias f4 [5]
0	0xbf822398	-1.0167112
1	0x3dc486fb	0.09596058
2	0xbe546ef9	-0.20745458
3	0xbe72e330	-0.23719478
4	0x3faec53f	1.3653945

features.7 f4 [120]
0	0xbcb64237	-0.02224837
1	0x3d65e16b	0.05612318
2	0x3e02b78f	0.12765335
3	0xbcdbbf68	-0.026824668
4	0xbd851ae3	-0.06499269
5	0xbc345c89	-0.01100839
6	0x3cab6b03	0.02092505
7	0x3c11ca2b	0.008898298
8	0x3db860f1	0.09002865
9	0x3de4ce22	0.11172129
10	0xbd25c37d	-0.040469635
11	0xbda62ad3	-0.08113637
12	0x3d1e0ea8	0.038588196
13	0xbc682de0	-0.014171094
14	0xbd7876cb	-0.060660165
15	0x3d6069dd	0.05478846
16	0x3c64f87e	0.013975261
17	0xbcb7ebf5	-0.02245138
18	0x3ae97e9a	0.001781422
19	0x3a9c4cca	0.001192474
20	0xbcb1bf38	-0.021697626
21	0xbcae66b6	-0.02128921
22	0xba43cf1c	-0.00074695214
23	0x3a9dcd2f	0.0012039299
24	0x3c802cef	0.015646426
25	0xbd029102	-0.03187657
26	0xbbedc003	-0.0072555556
27	0x3c1e1c11	0.009650246
28	0x3d420ee3	0.04737748
29	0x3bf47d5c	0.007461233
30	0x3ce5eefa	0.028068054
31	0x3c0b499e	0.008501438
32	0xbc13d6b8	-0.009023361
33	0xbcee1624	-0.029063292
34	0x3c9a3b57	0.018827124
35	0x3d747181	0.05967856
36	0x3dca8e6f	0.09890448
37	0xbb0031ea	-0.0019561
38	0x3c03c24c	0.008041929
39	0x3d875d40	0.06609583
40	0x3be93732	0.0071171755
41	0xbda0f381	-0.07858945
42	0x3df5f67f	0.12009906
43	0x3ce1039e	0.027467545
44	0x3c09d771	0.008413182
45	0x3c0010c0	0.0078164935
46	0x3affa85b	0.001950513
47	0x3d96b91f	0.07359528
48	0x3d84c687	0.064831786
49	0xbc7c650c	-0.015404951
50	0xbb30bf7c	-0.0026969602
51	0xbcd3ec3c	-0.025869481
52	0x3b84372b	0.004034897
53	0xbd66e55b	-0.056371074
54	0x3aafeda0	0.0013422258
55	0x3dc988bc	0.09840533
56	0x3d1b9b0c	0.03798966
57	0xbca5288e	-0.02016094
58	0xba1d5742	-0.0006002077
59	0x3b068e0a	0.002053144
60	0xbc3a3aef	-0.01136659
61	0x3d94cc8d	0.072655775
62	0xbb65bb09	-0.0035054109
63	0xbcd88e09	-0.026434915
64	0xbcf787a5	-0.030216048
65	0xbc852719	-0.016253995
66	0x3c8a2bab	0.016866526
67	0xbcf82afe	-0.030293938
68	0x3aaa56fe	0.0012995896
69	0xbbe74623	-0.0070579215
70	0x3c8f250b	0.017473718
71	0xbc6c7c71	-0.014433966
72	0x3bbcf37d	0.0057663308
73	0xbd254e1a	-0.040357687
74	0xbd68199a	-0.05666504
75	0xbccbb633	-0.024867153
76	0xbd5b92a2	-0.053606637
77	0x3cbedf4d	0.023299837
78	0x3cd2658f	0.025683193
79	0x3bd7b91d	0.0065833465
80	0xbd2018ec	-0.039086267
81	0xbcbdd5a0	-0.023173153
82	0x3d093a68	0.033502966
83	0x3c9ce4ac	0.019152008
84	0x3d70bbf7	0.058773007
85	0xbc2ade2b	-0.0104289455
86	0x3d0d4381	0.034488205
87	0xbccd89f6	-0.025090199
88	0xbd0ec463	-0.034855258
89	0xbc616462	-0.013756843
90	0xbb388d5f	-0.0028160436
91	0x3d9c9629	0.07645828
92	0xbc9bb416	-0.01900677
93	0x3d0606fc	0.032721505
94	0x3a928cd8	0.0011180891
95	0xbbb3eae9	-0.00549065
96	0x3ce69904	0.028149135
97	0xbcc08cc4	-0.023504622
98	0xbc17d17d	-0.0092662545
99	0xbce6cebd	-0.028174752
100	0xbbf99a3f	-0.0076172645
101	0xbba2e10c	-0.0049706753
102	0x3ccc1e57	0.02491681
103	0x3cc0213f	0.023453353
104	0x3d0b159f	0.033956166
105	0x3b7e357f	0.003878921
106	0x3dfb995e	0.12285112
107	0x3960da61	0.00021443657
108	0xbc055b30	-0.008139417
109	0x3cc04740	0.023471475
110	0x3d9865d6	0.07441299
111	0xbc965949	-0.018353121
112	0x3cdcca82	0.026952032
113	0x3bd5ef6f	0.006528787
114	0xb9df5836	-0.00042599597
115	0xbcc9cf72	-0.02463505
116	0x3cde9f6f	0.027175633
117	0xbb810238	-0.003937032
118	0xbce2568e	-0.027629163
119	0x3ae04230	0.0017109569
