checkpoints_lenet5/baseline_scratch/lenet5/reptiles/checkpoint-100.pth.tar (torch, 312219 bytes, 12 tensors)

features.0.weight f4 [6, 3, 5, 5]
0	0xbdc985ac	-0.09839949
1	0x3df504b6	0.11963789
2	0x3db3aa11	0.08772672
3	0x3e404c83	0.18779187
4	0x3e7cd866	0.24691924
5	0xbc8eff33	-0.017455673
6	0x3decfe16	0.115719005
7	0x3bd94d2c	0.006631514
8	0x3dcbe40d	0.099556066
9	0x3e642625	0.22280176
10	0x3d69061b	0.05689059
11	0xbe2baf42	-0.16766074
12	0x3e0ad33a	0.13557139
13	0xbe80a42a	-0.25125247
14	0xbc84ba5f	-0.01620215
15	0xbd9b7453	-0.075905465
16	0x3ca38a0f	0.019963292
17	0xbea61941	-0.32441142
18	0xbd7edda8	-0.062223107
19	0xbe013a96	-0.12620005
20	0xbe1f32b6	-0.15546688
21	0xbda27bb6	-0.07933752
22	0xbe19d671	-0.15023209
23	0xbebfc0b3	-0.37451705
24	0xbe94e792	-0.29082924
25	0x3d8d010e	0.06884967
26	0x3deb786b	0.11497577
27	0xbe2d4ab4	-0.16923028
28	0xbe0245af	-0.12721895
29	0x3d9f9df0	0.07793796
30	0xbe0a0ea4	-0.13482147
31	0x3cdfa943	0.02730239
32	0x3d911c4a	0.07085474
33	0xbe3a32fa	-0.18183509
34	0x3c1d12f8	0.009587042
35	0x3db2adc2	0.08724548
36	0x3e0a88ac	0.13528699
37	0xbe6ede5a	-0.23327008
38	0xbe1f1738	-0.15536201
39	0x3e1823f5	0.14857467
40	0x3e007221	0.12543537
41	0x3e139d16	0.14415392
42	0x3d2e87fc	0.042610154
43	0xbdbf328d	-0.09335814
44	0x3e44dc3e	0.1922464
45	0xbe7c8b4f	-0.24662517
46	0x3e397b0e	0.18113348
47	0x3e271c9d	0.16319509
48	0x3d12e918	0.035866827
49	0x3e0c71fa	0.13715354
50	0xbe8191ae	-0.25306457
51	0xbeaff25b	-0.3436459
52	0xbe94395e	-0.28950018
53	0xbe18793a	-0.14889994
54	0xbdaffbdd	-0.08592961
55	0xbe2ac518	-0.16676748
56	0xbe6dc4d3	-0.23219614
57	0xbe8f5200	-0.2799225
58	0xbe48580a	-0.19564834
59	0x3d144c32	0.036205478
60	0xbd754795	-0.05988272
61	0x3bd8fe4f	0.006622113
62	0xbd9fb5c7	-0.07798343
63	0x3c9895ae	0.01862606
64	0xbe4bae5a	-0.19890729
65	0xbe892687	-0.26787207
66	0x3d91aab3	0.071126364
67	0x3e37a95f	0.17935704
68	0xbe584809	-0.21121229
69	0xbd4cc163	-0.049989115
70	0xbd1d6e9c	-0.038435563
71	0x3e672736	0.22573552
72	0x3e83a21e	0.25709623
73	0x3daa15e1	0.08304954
74	0xbe84552f	-0.2584624
75	0xbe69199c	-0.22763675
76	0xbd3d5038	-0.04621908
77	0x3d52d99e	0.051477067
78	0x3ce2b426	0.027673792
79	0x3de539be	0.11192654
80	0x3e537b6d	0.20652552
81	0x3ebcc77f	0.36870953
82	0x3e800342	0.25002486
83	0xbe5c7d69	-0.21532215
84	0xbe127773	-0.14303379
85	0x3e2fb04d	0.17157097
86	0xbd22e433	-0.03976841
87	0xbd7c4156	-0.061585747
88	0xbc90420c	-0.017609619
89	0xbcd7818e	-0.026306894
90	0xbdb41dfd	-0.08794782
91	0xbbe6cb0f	-0.0070432494
92	0xbebfafd3	-0.3743883
93	0x3d219582	0.039449222
94	0x3d959919	0.07304592
95	0x3d9a13b7	0.075232916
96	0x3e8027bf	0.25030324
97	0x3e4f9648	0.20272171
98	0x3ea73fee	0.32665962
99	0x3bd7fe7f	0.0065916176
100	0xbeb2e2e9	-0.34938744
101	0xbddaf162	-0.10690571
102	0x3e4b3a1a	0.19846383
103	0xbde7e759	-0.11323423
104	0xbdd84d9d	-0.105616786
105	0x3e9669e0	0.2937765
106	0xbe474e49	-0.19463457
107	0x3e133966	0.14377365
108	0xbe27c250	-0.16382718
109	0xbebffe4c	-0.374987
110	0xbacd422b	-0.0015659978
111	0xbe038978	-0.12845409
112	0xbf1cceac	-0.61252856
113	0xbeda9e44	-0.42698872
114	0x3dcccc74	0.09999934
115	0xbdce5349	-0.10074479
116	0xbec59d06	-0.38596362
117	0xbee112b3	-0.4395958
118	0xbe48560e	-0.19564077
119	0x3e3cd8a7	0.18442021
120	0xbeb59add	-0.35469714
121	0xbe15ba4e	-0.14621851
122	0x3dbb84d6	0.09156196
123	0x3e6c96fd	0.23104472
124	0x3e00cae2	0.12577394
125	0x3e209978	0.15683544
126	0x3e39be25	0.1813894
127	0x3ef3784d	0.4755272
128	0x3d869f57	0.065733604
129	0x3d8cbd95	0.068720974
130	0x3ee23659	0.4418209
131	0x3f24fda4	0.64449525
132	0x3ee8edbe	0.45493883
133	0xbe10b1e2	-0.14130357
134	0xbeaaf8c0	-0.33392906
135	0x3ee06543	0.43827257
136	0x3e867c7e	0.26266855
137	0xbde12b38	-0.109945714
138	0xbe813c64	-0.25241387
139	0x3bf5ce20	0.0075013787
140	0x3e302c41	0.17204382
141	0x3d62a727	0.05533519
142	0xbea89b0d	-0.32930794
143	0xbe0340d9	-0.12817706
144	0xbda3a8b6	-0.079911634
145	0x3ea0dd8c	0.31419027
146	0x3cf4e6c5	0.029895196
147	0x3e17c55e	0.14821383
148	0x3f102153	0.5630085
149	0x3d8a9b00	0.06767845
150	0x3d270c68	0.040783316
151	0xbe3924dd	-0.18080468
152	0xbe80caf0	-0.2515483
153	0xbdc4f7d0	-0.09617579
154	0xbdb13f2a	-0.08654626
155	0xbe0ef153	-0.13959245
156	0xbe6e7860	-0.23288107
157	0xbdebf53a	-0.11521383
158	0xbe80c2fe	-0.25148767
159	0xbe30d2a0	-0.17267847
160	0xbdcc89c9	-0.09987218
161	0xbdda8259	-0.10669393
162	0xbe2a14fb	-0.16609566
163	0xbe8f56c6	-0.2799589
164	0xbdfb04ad	-0.12256751
165	0x3d28163b	0.041036826
166	0xbe97185c	-0.29510772
167	0xbe4086b0	-0.18801379
168	0xbd7c2a5f	-0.061563846
169	0xbe4ec8e7	-0.20193826
170	0xbd3c382a	-0.045952
171	0xbe2696b2	-0.16268423
172	0xbdeaeb46	-0.11470656
173	0xbecf5ba5	-0.40499607
174	0xbd3485a7	-0.044072773
175	0x3d860933	0.06544723
176	0x3e085498	0.1331352
177	0xbe335867	-0.17514192
178	0xbd28416d	-0.04107802
179	0xbe650cbd	-0.2236814
180	0x3cca4fa9	0.024696188
181	0xbe13cea6	-0.14434299
182	0xbe092fd9	-0.13397159
183	0xbd761cde	-0.060086124
184	0xbda04df9	-0.07827372
185	0x3d04636a	0.03232137
186	0x389249ee	6.975593e-05
187	0xbe5c2728	-0.21499312
188	0xbe57bb82	-0.21067622
189	0xbd47fa01	-0.048822407
190	0x3db7f3a2	0.08982016
191	0xbd692b89	-0.056926284
192	0xbe0547da	-0.1301569
193	0xbe2d6ad1	-0.16935278
194	0xbe36faca	-0.17869106
195	0xbc2daedf	-0.010600775
196	0x3dd3e5fe	0.10346602
197	0xbdc45950	-0.095873475
198	0xbe9683fd	-0.29397574
199	0xbd6b8698	-0.057501405
200	0x3e88f05b	0.26745877
201	0x3e54c381	0.20777704
202	0x3eec67ba	0.46172887
203	0x3e8ef46c	0.27920854
204	0x3eb56e2b	0.35435614
205	0x3e819c2c	0.25314462
206	0x3e7359c3	0.2376471
207	0x3ea25fa1	0.31713584
208	0x3d0f0020	0.03491223
209	0x3e1c0e6c	0.15239877
210	0x3d93c824	0.07215908
211	0xbdf36322	-0.118841425
212	0xbd8fd312	-0.0702268
213	0x3b9926e7	0.004673827
214	0x3d44ad92	0.048017092
215	0x3e4a63b5	0.19764598
216	0x3dadec77	0.08492368
217	0x3c8cd257	0.017190142
218	0x3e523e33	0.2053154
219	0x3e5131b9	0.20429124
220	0x3e2059c8	0.15659249
221	0x3e9c54c1	0.30533412
222	0x3d2a1f74	0.041533902
223	0x3e48a47c	0.19593996
224	0x3e70c5a2	0.23512891
225	0x3edf6a5a	0.43635827
226	0x3e9314d0	0.28726816
227	0xbed65b31	-0.4186645
228	0x3dbc755c	0.09202072
229	0x3f1a3508	0.6023717
230	0x3f01c265	0.5068725
231	0x3dc7d072	0.09756555
232	0xbe761bb9	-0.24034013
233	0x3e382de3	0.17986254
234	0x3ecc5de4	0.39915383
235	0x3edee38f	0.43532988
236	0xbe41c9b9	-0.18924607
237	0xbf297743	-0.66197604
238	0x3d8cf6dc	0.06883022
239	0x3eb6ef56	0.35729474
240	0x3e2e7a0e	0.17038748
241	0xbf0aab03	-0.54167193
242	0xbf482ea6	-0.7819618
243	0x3c744541	0.01490909
244	0x3ed14abe	0.40877336
245	0x3e02cfeb	0.12774627
246	0xbed8d108	-0.42346978
247	0xbee6fbcf	-0.4511399
248	0x3d9721a6	0.07379465
249	0x3eadfad9	0.33980444
250	0x3e31d64e	0.17366907
251	0xbdf21f45	-0.118223704
252	0xbf639601	-0.8890076
253	0xbd5ecdb2	-0.054395385
254	0x3eb305f0	0.34965467
255	0x3ed20c9f	0.41025254

features.3.weight f4 [16, 6, 5, 5]
0	0xbe81e262	-0.2536803
1	0xbccdbe14	-0.02511505
2	0xbcd09d50	-0.025465637
3	0xbd7f1793	-0.06227834
4	0xbd741da1	-0.05959857
5	0xbd48be13	-0.049009394
6	0xbd74aa12	-0.059732504
7	0x3caa45c4	0.02078522
8	0xbd5312b8	-0.051531523
9	0x3ddbb912	0.10728659
10	0x3b97b65d	0.0046298937
11	0xbd44cb1a	-0.048045255
12	0xbb5a8372	-0.0033342508
13	0xbcadb398	-0.021203801
14	0x3de92b11	0.113851674
15	0x3da8d454	0.082436234
16	0xbbb6ab82	-0.0055746445
17	0x3db554a0	0.088540316
18	0x3e076ac8	0.13224328
19	0xbdc29fd7	-0.09503143
20	0xbe1a44c2	-0.15065292
21	0xbd207aef	-0.03917974
22	0xbe27c9d6	-0.16385588
23	0xbe66f624	-0.22554833
24	0xbda98d2e	-0.08278881
25	0x3d6134e7	0.054982092
26	0xbd545a28	-0.051843792
27	0x3cff9bda	0.031202246
28	0x3d4b5456	0.049640976
29	0x3e1c9d71	0.15294434
30	0x3e4136e9	0.18868603
31	0x3de0bd1c	0.1097357
32	0x3d006ef9	0.03135583
33	0xbd10c029	-0.03533951
34	0xbd3040ea	-0.043030657
35	0x3c2d4995	0.010576625
36	0x3ce1eb03	0.027577883
37	0x3dac1d2e	0.08404003
38	0xbd36b925	-0.04461016
39	0xbcb866fb	-0.022510042
40	0xbda9bb42	-0.0828767
41	0xbdec9bb1	-0.11553133
42	0xbe671904	-0.22568136
43	0x3bde54fc	0.0067850333
44	0xbdf1359b	-0.117778026
45	0xbc7aea0b	-0.015314589
46	0xbd0c3784	-0.03423263
47	0x3d50a659	0.05093989
48	0x3e48dfdd	0.19616647
49	0x3bdd7ccc	0.0067592617
50	0xbd83e24c	-0.06439647
51	0xbd8cf381	-0.06882382
52	0xbde2c2ff	-0.11072349
53	0xbd90d24e	-0.070713624
54	0xbdd89b73	-0.105765246
55	0xbdf2a7ee	-0.11848436
56	0xbd1409a3	-0.036142003
57	0xbd633168	-0.05546704
58	0xbd834e51	-0.06411422
59	0xbe4a87d6	-0.1977838
60	0xbdfb4556	-0.12269084
61	0xbe25c4f4	-0.16188413
62	0xbde4772c	-0.11155543
63	0xbe2d8a79	-0.16947354
64	0xbe2cc89d	-0.16873403
65	0xbd9bf115	-0.07614342
66	0xbcdc6965	-0.026905725
67	0xbe132480	-0.14369392
68	0xbd4d6168	-0.050141722
69	0xbdd9a65b	-0.10627433
70	0xbdb18664	-0.08668211
71	0xbe1ca5dc	-0.15297645
72	0xbd3e38c0	-0.04644084
73	0xbe4a4d51	-0.19756056
74	0xbea3b879	-0.3197668
75	0x3e221103	0.15826802
76	0x3ecf3288	0.4046824
77	0x3e9ae40e	0.30252117
78	0x3d8e2a4d	0.06941662
79	0x3dc52438	0.09626049
80	0x3d4eea1c	0.050516233
81	0x3e322958	0.17398584
82	0x3ecec777	0.40386555
83	0x3e580726	0.21096477
84	0x3e80cdb8	0.2515695
85	0x3e0d9beb	0.13829009
86	0xbbc0d31f	-0.0058845426
87	0x3dad8fd8	0.08474702
88	0x3e5e6a6f	0.21720289
89	0x3ddf6362	0.10907628
90	0x3dc0d341	0.094152935
91	0x3d007949	0.031365667
92	0x3d4d97b2	0.050193496
93	0x3c816e0c	0.015799545
94	0x3e28c41e	0.16481063
95	0x3d30f038	0.04319784
96	0xbdae6c62	-0.08516766
97	0xbdf32d19	-0.11873836
98	0xbdb55d9a	-0.08855744
99	0x3dce48fb	0.10072514
100	0x3daa604a	0.08319147
101	0x3d47d077	0.048782792
102	0x3cadaa90	0.021199495
103	0xbe33e6e1	-0.17568542
104	0xbe032236	-0.12806019
105	0x3d701b23	0.05861963
106	0x3df7053d	0.12061546
107	0x3d533361	0.05156267
108	0xbc258df8	-0.010104649
109	0xbe5bbab4	-0.2145794
110	0xbb22f64b	-0.002486604
111	0x3d87108a	0.065949515
112	0x3df946f9	0.1217174
113	0x3e0316f3	0.12801723
114	0xbd13cff3	-0.036086988
115	0x3d4da109	0.050202403
116	0x3e158622	0.14601949
117	0xbda41549	-0.08011872
118	0x3dd18d79	0.10232062
119	0x3cb693bd	0.022287244
120	0x3e14cb43	0.14530663
121	0xbc9b5523	-0.018961495
122	0x3bcc1063	0.0062275394
123	0xbd3173fb	-0.0433235
124	0x3c53a349	0.012917348
125	0xbdda0f12	-0.10647406
126	0xbe7be30e	-0.24598333
127	0x3c7dc57e	0.01548898
128	0x3e548c7e	0.20756719
129	0x3e3d3ead	0.1848094
130	0xbe0da72b	-0.13833301
131	0xbea27761	-0.31731704
132	0xbe92ac60	-0.28647137
133	0xbd706c1f	-0.058696862
134	0x3d1d5691	0.038412634
135	0xbdf2f4d4	-0.118631035
136	0xbdbcb037	-0.09213298
137	0xbe47204f	-0.19445919
138	0xbda6767b	-0.08128067
139	0xbc72c3ea	-0.014817217
140	0xbe2310e5	-0.15924414
141	0xbdb77126	-0.08957128
142	0xbe3d814f	-0.18506359
143	0xbe50b851	-0.20382811
144	0xbd76d50e	-0.06026178
145	0xbe060008	-0.1308595
146	0x3d421f0d	0.047392894
147	0xbcf6ad84	-0.030112036
148	0xbde9793c	-0.11400077
149	0xbd001177	-0.031266656
150	0x3b23f2bc	0.0025016507
151	0x3c973db1	0.018462034
152	0x3e085c8c	0.13316554
153	0x3ded3f67	0.11584359
154	0x3dad7084	0.08468726
155	0x3e012964	0.12613446
156	0xbe1aef77	-0.15130411
157	0xbcb92c2f	-0.022604076
158	0xbcc38e51	-0.023871573
159	0xbe117841	-0.1420603
160	0x3d2d144b	0.04225568
161	0xbd3ab626	-0.045583867
162	0xbe5a7f8f	-0.21337722
163	0xbc2c3dfe	-0.010512827
164	0xbd3a5c6d	-0.0454983
165	0x3e1db192	0.15399769
166	0x3de61172	0.11233796
167	0xbd0c012a	-0.034180798
168	0xbde7b75e	-0.113142714
169	0xbe1ae614	-0.1512683
170	0xbe0de48d	-0.13856716
171	0x3c0f7c45	0.0087576555
172	0xbc90374a	-0.017604489
173	0xbdd8fc4c	-0.10594997
174	0xbe015935	-0.12631686
175	0x3e154b7d	0.14579578
176	0x3e95c4f7	0.29251835
177	0x3cba1579	0.022715317
178	0x3e3d72ba	0.18500796
179	0x3dd6d223	0.10489299
180	0x3d9e4e08	0.07729727
181	0x3d022621	0.031774644
182	0x3e755f85	0.23962219
183	0x3dcdf8bd	0.10057209
184	0x3d2e7d8f	0.04260021
185	0x3d7eb0aa	0.0621802
186	0x3e6947f1	0.2278135
187	0x3e50afee	0.20379612
188	0x3e1d3629	0.15352692
189	0x3e617397	0.2201675
190	0x3e31a788	0.17349064
191	0x3e2c35aa	0.16817346
192	0x3e41e71f	0.18935822
193	0x3de5d5f5	0.1122245
194	0x3e6e21c4	0.23255068
195	0xbd7a3a54	-0.061090782
196	0x3e485926	0.19565257
197	0x3e3e840f	0.18605064
198	0x3de1390b	0.10997208
199	0x3e86970e	0.2628712
200	0x3dd1b0c8	0.102387965
201	0xbd263719	-0.04057989
202	0x3d983900	0.07432747
203	0x3d17e994	0.03708799
204	0x3ce380e4	0.02777142
205	0xbbf96ed8	-0.0076120906
206	0xbdb5fc21	-0.088859804
207	0x3c9725f2	0.01845071
208	0xbdf0d704	-0.11759761
209	0xbe7e6b71	-0.24845673
210	0x3e456ef5	0.19280608
211	0xbcc4a876	-0.02400611
212	0xbdeed4fe	-0.11661719
213	0xbd8c8065	-0.06860427
214	0xbc669248	-0.014072962
215	0x3d3883c5	0.04504754
216	0x3d932968	0.07185632
217	0x3ddb3593	0.10703578
218	0x3d8ba618	0.06818789
219	0x3d9acbcf	0.07558405
220	0xbd9af2b4	-0.07565823
221	0xbbb4f57a	-0.005522427
222	0xbc9bb2c2	-0.019006137
223	0x3e39cc51	0.18144347
224	0xbbf1112f	-0.007356785
225	0xbd0f071e	-0.034918897
226	0x3e54e3bc	0.20789999
227	0x3e2e6c24	0.1703344
228	0x3df4aaf5	0.1194667
229	0x3d7b95bd	0.0614221
230	0xbd918cb1	-0.07106913
231	0xbe53f2d7	-0.20698105
232	0xbd740fd3	-0.059585404
233	0x3dc4c843	0.096085094
234	0xbdf9e515	-0.12201897
235	0x3e753f0c	0.23949832
236	0xbc3c7bfd	-0.0115041705
237	0xbe9a8ee5	-0.30187145
238	0xbdb853b3	-0.09000339
239	0xbdd3f068	-0.10348588
240	0x3d7c4bce	0.06159573
241	0x3e249f28	0.16076338
242	0x3d5143dd	0.05109011
243	0xbe47995d	-0.19492097
244	0xbdb420c8	-0.08795315
245	0xbbf65221	-0.0075171147
246	0xbca54283	-0.020173317
247	0xbe2883db	-0.16456549
248	0xbdcef804	-0.10105899
249	0xbd12d000	-0.035842896
250	0x3e3588fd	0.17728038
251	0x3e004f16	0.12530169
252	0x3e40739a	0.18794098
253	0x3e060ef9	0.13091649
254	0x3e80ed8e	0.2518124
255	0xbdc389fe	-0.09547804

features.7.weight f4 [120, 400]
0	0x3cd2bc9a	0.025724698
1	0x3cbf1a46	0.023327958
2	0x3ce4eba6	0.027944397
3	0x3d0126c0	0.031531096
4	0x3d856c19	0.065147586
5	0x3d15ac9c	0.036541566
6	0x3d397d49	0.045285497
7	0x3d6babb3	0.057536792
8	0x3d8d8441	0.06909991
9	0x3d9eb7a6	0.07749872
10	0x3d78c176	0.060731374
11	0x3d686213	0.056734156
12	0x3d472cd3	0.048626732
13	0x3d520267	0.051271822
14	0x3da5feca	0.08105238
15	0xba11e35f	-0.0005565192
16	0xbc8f7748	-0.017512932
17	0x3d75adcf	0.05998021
18	0x3d072f6b	0.033004206
19	0x3c59abce	0.01328559
20	0xbc85d070	-0.016334742
21	0xbc7ea6f8	-0.015542738
22	0x3c1dd955	0.0096343355
23	0x3c9d590a	0.019207496
24	0x3c2b8097	0.01046767
25	0xbd9f7fc4	-0.07788041
26	0xbd32b7ee	-0.04363244
27	0xbd212fae	-0.03935211
28	0xbcd4b1ed	-0.025963748
29	0xbcff21af	-0.031143991
30	0xbd1e7f4c	-0.03869562
31	0x3b1c99b2	0.002389532
32	0x3cd38ccc	0.025823973
33	0xbc24b733	-0.010053444
34	0xbd25ac75	-0.04044767
35	0xbc1943eb	-0.009354572
36	0x3c99d54e	0.01877847
37	0x3d1f8c79	0.038952325
38	0x3d27b6d7	0.040945854
39	0xbc3fc154	-0.011703808
40	0x3cd47b6a	0.025937755
41	0xbc8c52df	-0.01712936
42	0x3cd5f70d	0.02611878
43	0x3d545323	0.051837098
44	0x3cd5be20	0.026091635
45	0x3c23c855	0.009996493
46	0xbcd638d9	-0.026150154
47	0xbc4b0144	-0.0123904385
48	0xbca3a09b	-0.019974044
49	0xbcb199b5	-0.021679739
50	0x3c0c3b6e	0.008559091
51	0xbb975b11	-0.0046190103
52	0xbcec640e	-0.028856304
53	0xbd235e02	-0.039884575
54	0xb9b08b81	-0.00033673274
55	0xbd069a79	-0.03286216
56	0xbd0ebe56	-0.034849487
57	0xbc2f37b2	-0.010694431
58	0xbc1d7482	-0.009610297
59	0xbd0de8ca	-0.034645833
60	0xbd33f65e	-0.043936126
61	0xbd3060df	-0.043061133
62	0x3ae89134	0.0017743469
63	0xbd31a744	-0.043372408
64	0xbd01f476	-0.031727277
65	0xbcbccd87	-0.023047222
66	0x3c4b3385	0.01240242
67	0xbc17c5fe	-0.009263514
68	0xbdab1977	-0.083544664
69	0xbd5256c8	-0.051352292
70	0xbc0af27f	-0.008480667
71	0xbc36d4b2	-0.011159109
72	0xbd2cd6b5	-0.042196948
73	0xbdc5b25a	-0.096531585
74	0xbceb6567	-0.028734876
75	0x3bccfc99	0.006255698
76	0xbcb1637c	-0.021653883
77	0xbd02954e	-0.03188067
78	0xbd1e73e0	-0.038684726
79	0xbd3dda86	-0.04635098
80	0xbb7346eb	-0.0037121128
81	0xbc37b339	-0.011212164
82	0xbd125a5c	-0.035730705
83	0xbd0a2558	-0.03372702
84	0x3bad62fd	0.0052913413
85	0xbba1831e	-0.0049289605
86	0xbc96a048	-0.018386975
87	0xbca1b8c5	-0.019741425
88	0xbd1fb884	-0.038994327
89	0xbc370c30	-0.011172339
90	0xbc8c80a2	-0.01715118
91	0xbd2d7e1d	-0.0423566
92	0xbc82d7ad	-0.015971983
93	0xbd610896	-0.05493983
94	0xbd29dd2d	-0.041470695
95	0xbd180660	-0.037115455
96	0xbd719051	-0.05897552
97	0xbc2fb95a	-0.010725344
98	0xbcb77e69	-0.022399144
99	0xbd80db2c	-0.06291804
100	0x3c6bead8	0.014399253
101	0xba8c4185	-0.0010700679
102	0xbbfd82c6	-0.0077365367
103	0x3c465e3a	0.012107426
104	0x3cf7ac2b	0.030233463
105	0xbc312bc1	-0.010813654
106	0xbc4841c5	-0.012222712
107	0xbc753888	-0.014967091
108	0x3d3df053	0.04637177
109	0x3cb123bd	0.021623487
110	0xbc5071eb	-0.012722473
111	0x3cc7a193	0.024369037
112	0x3c1012e1	0.008793564
113	0xbc083c7f	-0.008315205
114	0xbd14cac9	-0.036326203
115	0xbc777942	-0.015104594
116	0x3be6cfdc	0.0070438217
117	0xbc0a70f7	-0.0084497845
118	0xbd84442a	-0.06458314
119	0xbd5efaf2	-0.05443854
120	0xbcce9623	-0.025218075
121	0xbcf981c3	-0.030457383
122	0xbd08a927	-0.03336444
123	0xbd9505f6	-0.072765276
124	0xbd98f416	-0.07468431
125	0xbc3f5a50	-0.011679247
126	0xbc45c315	-0.012070437
127	0xbd11c62b	-0.03558938
128	0xbd0d8d41	-0.03455854
129	0x3ccfb506	0.025354873
130	0x3bd3981f	0.006457343
131	0xbba391b1	-0.004991733
132	0xbd06f76c	-0.032950804
133	0xbd4b578d	-0.04964404
134	0xbc4dc9ee	-0.012560351
135	0x3c27f8a4	0.010252152
136	0xbca423b2	-0.020036552
137	0xbcb8dac7	-0.022565259
138	0xbd159d40	-0.03652692
139	0xbc9b6820	-0.01897055
140	0x3b3e6535	0.0029052023
141	0xbb44c2b2	-0.0030023274
142	0xbcb8c3b1	-0.02255425
143	0xbca04c00	-0.01956749
144	0xbc39abab	-0.011332433
145	0x3d1424e1	0.036167983
146	0xbcbd5054	-0.023109592
147	0x3c14c2e6	0.0090796705
148	0x3c08bd64	0.0083459355
149	0x3b71b7d6	0.0036883256
150	0x3ca01963	0.019543355
151	0x3a84d32e	0.0010133737
152	0x3a7226cb	0.0009237348
153	0x3c22468b	0.009904514
154	0x3b1ddb42	0.0024086987
155	0xbc5622d0	-0.013069823
156	0x3c91b9e0	0.017788827
157	0xbc268eb9	-0.010165864
158	0x3c41a393	0.011818784
159	0xbc8011b4	-0.015633442
160	0xbcaac298	-0.020844743
161	0xbc32e98b	-0.010919939
162	0x38f4f049	0.00011679583
163	0xbb622c98	-0.0034511443
164	0xbc17e3bf	-0.0092706075
165	0xbca10ad8	-0.019658491
166	0xbc5bf040	-0.013423979
167	0x3c9fdb8c	0.019513868
168	0x3adf8908	0.0017054388
169	0xbca24446	-0.019807946
170	0xbaa96066	-0.0012922406
171	0x3c2be113	0.010490674
172	0x3bbc2d68	0.0057427175
173	0xb9ba8237	-0.00035573702
174	0x3b44f6b4	0.0030054273
175	0x3d60c040	0.054870844
176	0x3cea8bd3	0.028631127
177	0x3d58ab46	0.052897714
178	0x3cccd361	0.025003137
179	0x3d755d29	0.059903298
180	0x3c09a6d7	0.008401594
181	0x3ca8bf1b	0.020598939
182	0x3c8d9ea1	0.017287554
183	0x3ab81645	0.0014044723
184	0x3c98736f	0.01860973
185	0x3bf25c07	0.0073962244
186	0xbc089d7e	-0.00833833
187	0xbc82dfe3	-0.015975898
188	0x3b8a8e22	0.0042283693
189	0xbb6c2b27	-0.0036036463
190	0x3b3380f5	0.0027390097
191	0x37692e18	1.3898614e-05
192	0x3b2630eb	0.0025358747
193	0x3c342946	0.0109961685
194	0x3c3f33d9	0.011670076
195	0x3ca45dba	0.020064224
196	0x3d511a20	0.051050305
197	0x3d52c457	0.051456776
198	0x3d563b45	0.052302618
199	0x3bd4b895	0.0064917305
200	0x3d3acb43	0.045604
201	0x3c05347c	0.008130189
202	0xbcf79fec	-0.030227624
203	0xbaa30cb6	-0.0012439701
204	0x3b9d16e5	0.004793989
205	0x3d4b7d44	0.04968001
206	0x3c01eea5	0.007930432
207	0xbd19b60c	-0.03752713
208	0x3bff6ff9	0.0077953306
209	0x3cb65db6	0.022261482
210	0x3a3cdf7a	0.00072049315
211	0x3cdd8940	0.027042985
212	0x3b72ea32	0.003706586
213	0x3c20135b	0.00977024
214	0x3d01dfd7	0.03170761
215	0x3ca391d0	0.01996699
216	0x3d58662a	0.052831806
217	0x3a83e7f8	0.0010063639
218	0x3c7f298a	0.0155738685
219	0xbc2d31e0	-0.010570973
220	0x3ca08a2c	0.019597135
221	0x3c281384	0.010258559
222	0xbd0b855c	-0.03406273
223	0x3d17ebb9	0.037090037
224	0xbc571dc3	-0.013129654
225	0xbc702e8f	-0.014659538
226	0x3d0ff722	0.035147794
227	0xba2f9f01	-0.00066994136
228	0xbc1650f1	-0.009174571
229	0xbb8cfa25	-0.0043022805
230	0x3c93ab45	0.018026004
231	0x3cee9d53	0.029127752
232	0x3c141afb	0.009039636
233	0x3c214cdf	0.009844988
234	0x3d6b83f7	0.0574989
235	0xbcf31c31	-0.029676529
236	0x3bba4ff3	0.0056858
237	0xbb281e14	-0.0025652694
238	0x3c82545a	0.015909363
239	0x3d0e6e63	0.03477324
240	0xbd459b50	-0.04824382
241	0xbd436433	-0.04770298
242	0xbcfcb432	-0.030847643
243	0xbd02884b	-0.03186826
244	0xbd2939eb	-0.041315
245	0xbd0113f3	-0.031513166
246	0xbc967f80	-0.018371344
247	0xbd33aed4	-0.0438679
248	0xbc9c937e	-0.019113299
249	0xbd32ffdc	-0.043701038
250	0x3c404eb5	0.011737515
251	0x3b38f148	0.0028219987
252	0xbd1bf4dc	-0.038075313
253	0xbd29a987	-0.04142144
254	0xbd84c723	-0.06483295
255	0xbb2014a2	-0.002442636

features.7.bias f4 [120]
0	0xbc23fcd7	-0.010009012
1	0xbcff95f7	-0.031199438
2	0xbdea8bed	-0.1145247
3	0xbdc1da53	-0.0946547
4	0xbd220962	-0.03955973
5	0xbbb7eaa6	-0.005612689
6	0x3b430076	0.0029754913
7	0x3b46da08	0.003034236
8	0x3d01a314	0.031649664
9	0x3c6f0d9d	0.014590648
10	0xbc031651	-0.008000926
11	0x3da15e7f	0.07879352
12	0xbd0a6546	-0.033787988
13	0xbc983fca	-0.018585104
14	0xba9facf7	-0.0012182285
15	0xbadc1c15	-0.0016793037
16	0x3d006358	0.03134474
17	0x3d899203	0.06717303
18	0xbd830900	-0.06398201
19	0xbd0ca425	-0.034336228
20	0x3d302348	0.043002397
21	0xbd9a32f3	-0.07529249
22	0x3d24b755	0.0402139
23	0x3c7b2dc6	0.015330737
24	0xbc7e8487	-0.015534527
25	0x3d81c53b	0.06336447
26	0xbd4bfa09	-0.049799
27	0x3d22ed59	0.039777134
28	0xbddfc3f0	-0.10926044
29	0x3d8e3bb2	0.0694498
30	0x3e016866	0.12637481
31	0x3be11bd0	0.0068697706
32	0xbd814ece	-0.06313859
33	0x3d287c52	0.041134186
34	0xbe4a32df	-0.19745968
35	0x3dbdb2d7	0.092626266
36	0xbe4eaffb	-0.20184319
37	0x3b85da77	0.004084881
38	0x3d86e862	0.06587292
39	0x3d4ca677	0.04996344
40	0xbd5a8fa9	-0.05335966
41	0xbddffe9c	-0.10937235
42	0xbd5a0378	-0.053225964
43	0x3d96c455	0.07361666
44	0x3d92db7b	0.07170769
45	0xbc0d4fb8	-0.008624963
46	0xb26c93cd	-1.3770614e-08
47	0xb9f6d076	-0.00047076092
48	0x3c435c84	0.011923913
49	0x3cca8721	0.024722638
50	0xbde8b222	-0.11362101
51	0xbcad5864	-0.021160312
52	0xbc950cd2	-0.01819459
53	0xbdff9e5e	-0.12481378
54	0xbd8b825d	-0.06811974
55	0xbe1701e4	-0.14746815
56	0x3c99b04d	0.018760825
57	0xbc0adf89	-0.0084761465
58	0xbae629e4	-0.0017560092
59	0xbd33828b	-0.043825667
60	0x3c366c55	0.011134227
61	0xbc2d507a	-0.010578269
62	0xbccb6439	-0.024828063
63	0xbc13e1e5	-0.009026025
64	0x3c9eb579	0.019373642
65	0xbdc7b05c	-0.09750435
66	0xbe0da005	-0.13830574
67	0xbd4bdcd7	-0.049771156
68	0x3d982e2c	0.074306816
69	0xbbe7c155	-0.0070726075
70	0x3ae861e0	0.0017729364
71	0xbcf2717a	-0.029595125
72	0xbc131910	-0.008978143
73	0x3d1a29e3	0.037637603
74	0xbe36b292	-0.17841557
75	0xbc180b1e	-0.009279994
76	0xbdafe2b1	-0.0858816
77	0xbc146c3c	-0.009059008
78	0xbd189f12	-0.037261076
79	0xbdec05f9	-0.11524577
80	0x3d1fb175	0.038987596
81	0x3d93c5de	0.072154745
82	0x3bbe1777	0.005801137
83	0xbd392a0f	-0.045206126
84	0x3b082cdc	0.0020778691
85	0xbd11d130	-0.035599887
86	0x3c1da77d	0.009622452
87	0xbca028d3	-0.019550717
88	0xbd8af0b1	-0.067841895
89	0x3c807b07	0.015683664
90	0x3d54566f	0.051840242
91	0xbd16d5d7	-0.036825027
92	0xbdc772dc	-0.097387046
93	0x3b175a5f	0.0023094637
94	0xbdbf195e	-0.0933101
95	0x3c195a7f	0.009359955
96	0xbb8e645e	-0.004345461
97	0xbe0070b2	-0.1254299
98	0x3d45fd67	0.048337366
99	0xbcc15711	-0.023601087
100	0xbd3a2757	-0.045447674
101	0x3d55b298	0.052172273
102	0xb8809a9c	-6.132314e-05
103	0xbde6fb10	-0.11278355
104	0xbdb7b565	-0.08970145
105	0x3d7efc34	0.06225224
106	0xbe5bc8cb	-0.21463315
107	0xbb04867b	-0.0020221758
108	0x3cbe0fa0	0.02320081
109	0xbcde1d53	-0.027113592
110	0xbda7d4eb	-0.08194908
111	0x3d4bba4d	0.049738217
112	0xbe06f3bb	-0.13178913
113	0xbd6cdb9e	-0.05782663
114	0xbd8ba6e0	-0.06818938
115	0x3d08ed54	0.03342946
116	0xbc583765	-0.013196801
117	0xba8be559	-0.0010673209
118	0x3b512994	0.0031915652
119	0x39f96735	0.00047569876

features.9.weight f4 [84, 120]
0	0xbd1729c7	-0.036905076
1	0x3c54fd40	0.012999833
2	0x3d660c66	0.056164168
3	0xbd9ccb4b	-0.076559626
4	0xbd86cd10	-0.06582081
5	0x3cbb4c91	0.022863658
6	0xbc90a031	-0.01765451
7	0x3baa5b0f	0.0051988433
8	0x3d85e915	0.065385975
9	0x3cbd69f8	0.023121819
10	0xbcf5ce9d	-0.030005747
11	0xbce53cbe	-0.027983066
12	0x3d81c3d7	0.063361816
13	0x3cf8aa11	0.030354531
14	0xbc9f301e	-0.019432124
15	0x3c3b3e11	0.011428372
16	0xbc0a8ae4	-0.008455966
17	0xbb120ea5	-0.002228656
18	0x3ca9e32c	0.020738207
19	0x3d5e48c8	0.05426863
20	0xbc4c7a2e	-0.012480302
21	0xba0b91cc	-0.00053241546
22	0xbb95a4b1	-0.004566752
23	0xbbcf8365	-0.006332802
24	0x3c8eb62a	0.017420847
25	0xbc80f0b7	-0.015739782
26	0x3c8c6eef	0.017142741
27	0xbcf2f086	-0.029655706
28	0x3cd7eeab	0.026358923
29	0xbbac330c	-0.0052551087
30	0xbca1d326	-0.019754004
31	0x3d90d62e	0.070721015
32	0x3d231862	0.039818175
33	0x3c4396cd	0.011937809
34	0x3cf8f3a1	0.030389609
35	0x3d0196fb	0.031638127
36	0x3c663c48	0.014052458
37	0x3be39b45	0.006946
38	0xbc89c72b	-0.016818604
39	0x3bb63131	0.0055600633
40	0x3b67a339	0.003534509
41	0xbdfeb38b	-0.12436589
42	0xbd266729	-0.040625725
43	0x3b120ee7	0.0022286715
44	0x3c9c7b45	0.019101748
45	0x3cad3aa6	0.02114613
46	0xb97c17f1	-0.00024041512
47	0xbb4cd104	-0.0031252513
48	0xbd4515f7	-0.04811665
49	0xbab1235c	-0.0013514566
50	0xbc1bcab1	-0.009508775
51	0xbd1148b4	-0.035469726
52	0x3c356ba7	0.01107303
53	0xba5974e9	-0.0008295314
54	0xbd16a6ba	-0.036780097
55	0x3cc89829	0.024486618
56	0xbc8afa44	-0.01696504
57	0x3af0fd22	0.0018385986
58	0x3cddf428	0.027093962
59	0x3dc5570f	0.09635746
60	0xbca3d1c7	-0.01999749
61	0x3d027d25	0.03185763
62	0x3d28b98c	0.041192576
63	0x3cc24652	0.023715172
64	0x3c3a39af	0.011366292
65	0xbd5046ea	-0.05084888
66	0x3b4db1df	0.0031386537
67	0x3d91ee48	0.07125527
68	0xb8bccbb1	-9.002479e-05
69	0x3bc2b69c	0.005942179
70	0x3ca87291	0.020562442
71	0x3b0bb5e2	0.0021318127
72	0xbcb3ccce	-0.021948244
73	0xbc66c811	-0.0140857855
74	0xbc6b5267	-0.014362908
75	0xbc2790ac	-0.010227364
76	0x3d299a7c	0.041407093
77	0xbd6ba44f	-0.057529744
78	0xbc95461e	-0.018221911
79	0x3d499761	0.04921663
80	0x3b40ada9	0.0029400385
81	0xbd95e294	-0.07318607
82	0xbd6b1711	-0.057395045
83	0x3dbbf593	0.09177699
84	0x3cb1bec5	0.021697411
85	0x3bfad5db	0.007654888
86	0xbca2a779	-0.019855248
87	0x3d609d80	0.054837704
88	0xbd682412	-0.056675024
89	0xbcc07922	-0.02349526
90	0xbbd0024f	-0.0063479315
91	0x3d476674	0.04868169
92	0xbb76b0bd	-0.0037641965
93	0x3c89a891	0.016804012
94	0xbd39110b	-0.04518227
95	0x37d3472b	2.51863e-05
96	0x3d8afd99	0.06786651
97	0x3c7ec140	0.015549004
98	0x3bd25e7b	0.0064199544
99	0xbcefb145	-0.029259333
100	0xbc8cd3e9	-0.01719089
101	0xbd1b1608	-0.037862808
102	0xbcc084ae	-0.023500767
103	0xbc29545f	-0.010335057
104	0xbc9736b7	-0.018458707
105	0xbcaef517	-0.021357102
106	0xbd49cfe9	-0.049270544
107	0xbc8b7363	-0.017022794
108	0xbc986e52	-0.018607292
109	0x3c8321c7	0.016007317
110	0xbd8486c6	-0.064710185
111	0xbb110556	-0.0022128425
112	0x3c1ceec1	0.009578408
113	0xbd4a2688	-0.049353153
114	0x3d35bf59	0.044371936
115	0xbd225c0c	-0.039638564
116	0xbd1009ca	-0.035165586
117	0x3d40df45	0.047087926
118	0x3c8bd3b2	0.017068718
119	0x3c5996d2	0.013280587
120	0xbb941fc0	-0.0045203865
121	0xbcb717df	-0.02235025
122	0xbba52e42	-0.0050409148
123	0x3c105096	0.008808276
124	0x3b8d8211	0.0043184836
125	0xbbc5044f	-0.0060124765
126	0xbbf9f484	-0.0076280255
127	0x3bdaaa99	0.006673169
128	0x3c88e908	0.01671268
129	0x3b515b5b	0.0031945321
130	0xbca6de65	-0.020369718
131	0x3b1a3b42	0.0023533856
132	0xbb969bee	-0.004596225
133	0xbbd3fddc	-0.0064694714
134	0xbc9ab608	-0.018885627
135	0x3ba01659	0.0048854765
136	0x39ffe1f8	0.0004880575
137	0x3cb8aab3	0.022542333
138	0x3bc74b84	0.006082
139	0x3c6637d8	0.0140514
140	0xbbdc72ce	-0.006727553
141	0xbc848183	-0.016175037
142	0xba9e3341	-0.0012069718
143	0x3c83ea53	0.016102945
144	0x3c28ec9f	0.010310321
145	0x3ac499d5	0.0014999459
146	0x3bf737cd	0.007544494
147	0x3b296356	0.0025846562
148	0x3c226bf9	0.009913438
149	0x3c0df09f	0.008663326
150	0xb9734994	-0.00023201696
151	0x3bb5e59b	0.0055510527
152	0x3b0ab736	0.002116633
153	0xbc8cac6b	-0.017172059
154	0x3b9b6bbd	0.004743068
155	0x3bcc997e	0.0062438836
156	0x3c5c926c	0.013462644
157	0xbbcc3443	-0.006231816
158	0xbc48dd54	-0.0122598
159	0xbb640385	-0.0034792137
160	0x3c0e9896	0.0087033715
161	0xbb74e99e	-0.0037370692
162	0xbc5c7cfd	-0.013457534
163	0x3914f7ad	0.00014206646
164	0x3c2f0f5c	0.010684814
165	0x3bb2ad02	0.005452753
166	0xbca109a3	-0.019657915
167	0x3a50e8cd	0.00079692603
168	0xbaffa18a	-0.0019503098
169	0x3c80a71a	0.01570468
170	0x3c1c0d32	0.00952463
171	0x3b047ea0	0.0020217076
172	0x3b6177be	0.0034403647
173	0xbc0754fc	-0.008260008
174	0xbbd21e0e	-0.006412274
175	0x3c28cd08	0.0103027895
176	0x3b13a888	0.0022530872
177	0x3c37fe66	0.011230087
178	0x3cca7a5e	0.024716552
179	0x3bdd4e5c	0.006753726
180	0xbb9ee085	-0.004848542
181	0xbc83c995	-0.016087333
182	0x3c28bd78	0.010299079
183	0xbc1b1995	-0.009466548
184	0xbb999f43	-0.004688175
185	0x3c04be70	0.008102044
186	0x3ba5585c	0.0050459336
187	0xbc0ed527	-0.008717812
188	0xbc050e27	-0.00812105
189	0xbb2be17c	-0.0026226928
190	0x3b16b1f4	0.0022994252
191	0x3bfdc3a4	0.0077442694
192	0xbb8350ff	-0.004007458
193	0xbb780e83	-0.0037850447
194	0x3bacff41	0.005279452
195	0xbc6d3d79	-0.014479988
196	0xbc961356	-0.018319767
197	0x3c9b8da2	0.018988434
198	0xbb9752f3	-0.0046180426
199	0xbca652b8	-0.020303115
200	0x3c096bfb	0.008387561
201	0x3b8d8ce5	0.0043197745
202	0xbb783ce7	-0.0037878098
203	0x3c032a47	0.008005685
204	0x3bf40174	0.0074464623
205	0xbc9f5c06	-0.01945306
206	0x3c758ea8	0.014987625
207	0xbb5163b6	-0.0031950301
208	0x3be3f30e	0.0069564646
209	0x3c275c0a	0.010214815
210	0xbcd29d0a	-0.025709648
211	0x3c766061	0.015037627
212	0xbb298ee1	-0.0025872516
213	0xbab886e6	-0.0014078289
214	0x3c5ea8b4	0.013590027
215	0x3c859c1e	0.016309794
216	0xbb22de94	-0.0024851905
217	0xbb2f665f	-0.0026763899
218	0x3bf80c1a	0.007569802
219	0x3c263c5b	0.010146226
220	0x3c190436	0.009339383
221	0xbb857508	-0.004072789
222	0x3c16588f	0.009176387
223	0xbbb3ba95	-0.005484889
224	0xbc35f7fa	-0.0111064855
225	0x3c6c4137	0.014419845
226	0x3c82cf68	0.01596804
227	0x3bc5af6d	0.0060328753
228	0xbb9c7ffa	-0.004775998
229	0x3ab8eb2d	0.0014108174
230	0xbc7a06af	-0.015260383
231	0x3ba05176	0.0048925234
232	0x3cac320c	0.021019958
233	0xba43942e	-0.000746074
234	0xbc85ba70	-0.016324252
235	0x3c48a58c	0.012246501
236	0xbb9b5617	-0.0047404873
237	0xbafeaf76	-0.0019430954
238	0x3b18bd21	0.002330609
239	0xbc3e82e9	-0.011627891
240	0x3b91e584	0.004452409
241	0xbb807c3e	-0.003921061
242	0x3a93165d	0.0011221875
243	0xbaf9e03c	-0.001906402
244	0x3d6f4102	0.058411606
245	0x3c37b084	0.011211518
246	0x3b83e7b6	0.004025425
247	0xbc99de08	-0.01878263
248	0x395e4eb7	0.00021200893
249	0xbd467d89	-0.048459563
250	0x3d08f470	0.03343624
251	0x3bbe8ca3	0.005815105
252	0xbcb2b5a5	-0.02181513
253	0xbd133ea9	-0.03594843
254	0x3cb109e5	0.021611163
255	0x3d4513a9	0.048114453

features.9.bias f4 [84]
0	0xbb553fcd	-0.003253925
1	0x3c7a61f2	0.015282141
2	0xbe062106	-0.13098535
3	0xbb5ac77c	-0.0033383062
4	0x3ef3b18c	0.47596395
5	0xbd91f9f5	-0.07127754
6	0x3d9a020b	0.07519921
7	0xbd4c38d7	-0.049858894
8	0xbc11584d	-0.00887115
9	0xbcc0df3c	-0.023543946
10	0x3ce17d9d	0.027525717
11	0xbdb683ac	-0.08911833
12	0xbddc2454	-0.107491165
13	0xbe4e7611	-0.20162226
14	0x3db9407e	0.09045504
15	0x3ced3a6c	0.028958522
16	0x3c6315a9	0.013860145
17	0x3ce40159	0.027832674
18	0x3a77d938	0.00094546704
19	0xbe6eaa9e	-0.23307273
20	0x3ed76652	0.42070252
21	0xbc23062e	-0.009950204
22	0x3de59668	0.11210328
23	0x3e42138a	0.18952766
24	0xbb380a5b	-0.0028082344
25	0x3ecdde0f	0.4020848
26	0x38f7f1b2	0.00011822897
27	0xbbe05c5c	-0.0068469476
28	0x3c1444a6	0.00904957
29	0x3e8eb7d2	0.2787462
30	0x3b019770	0.0019774102
31	0xbc853029	-0.016258316
32	0x3e6bc3d8	0.23023927
33	0xbb2a9251	-0.0026027153
34	0x3b03bbb4	0.0020100893
35	0xbaa20674	-0.0012361542
36	0x3c9accfc	0.018896572
37	0x3cbb0368	0.022828773
38	0xbd046f64	-0.032332793
39	0xbe1536d2	-0.14571694
40	0x3e076572	0.13222292
41	0xbdfa6ae3	-0.12227418
42	0x3df27721	0.11839128
43	0x3d7f26cc	0.06229286
44	0x3d4d5717	0.050131883
45	0x3e214e7b	0.15752594
46	0x3cbd137a	0.023080576
47	0x3a94ad1b	0.0011343093
48	0x3d163949	0.036675725
49	0x3c13823d	0.009003219
50	0xbeaedf8e	-0.34154934
51	0xbbc3078a	-0.0059518265
52	0xba805c8a	-0.0009793204
53	0x3e8a0cd3	0.2696291
54	0x3d9ed75a	0.07755919
55	0x3d05399c	0.032525644
56	0xba73033c	-0.00092701963
57	0xbe6f5ba0	-0.23374796
58	0x3e9418c3	0.28925142
59	0x3e856949	0.2605689
60	0xbd1598c1	-0.03652263
61	0xbe08c6f2	-0.13357142
62	0xbced521f	-0.028969822
63	0xbb6018f7	-0.0034194568
64	0x3c130105	0.008972411
65	0x3b894e0c	0.004190212
66	0x3d1cbf52	0.038268395
67	0x3e98916c	0.29798448
68	0xbcabe9c4	-0.020985492
69	0x3e526e8e	0.20549986
70	0x3ac458cb	0.0014980076
71	0xbdc369c9	-0.09541661
72	0xbd7b57e2	-0.06136311
73	0xbe191caf	-0.14952348
74	0xbc5bafdf	-0.01340863
75	0x3e263a54	0.16233188
76	0xbe0715be	-0.13191888
77	0xbea60554	-0.3242594
78	0xbda27a81	-0.07933522
79	0xbc204f44	-0.009784523
80	0xbc9eead2	-0.01939908
81	0xbe142c6c	-0.1447007
82	0xbb9075c9	-0.0044085723
83	0x3dd182c5	0.102300204

classifiers.0.weight f4 [5, 84]
0	0xbc7aeb16	-0.015314838
1	0x3cb61039	0.022224532
2	0x3d95bafa	0.073110536
3	0xb922c2bb	-0.00015522067
4	0x3eee3223	0.46522626
5	0xbdeaa2d4	-0.11456838
6	0xbda6de96	-0.08147924
7	0xbe3e7559	-0.18599452
8	0xbc00b861	-0.007856459
9	0xbc2f78fa	-0.010709995
10	0xbe129f6d	-0.14318629
11	0xbd68929d	-0.056780446
12	0x3d1af777	0.037833657
13	0xbea39275	-0.31947675
14	0xbe0c8adc	-0.13724846
15	0xbdfd47b8	-0.12367195
16	0x3d9c9ea4	0.07647446
17	0x3d010637	0.031500068
18	0xbc98b111	-0.01863912
19	0xbe58f33c	-0.21186537
20	0xbea25b4f	-0.31710288
21	0xbcd42f80	-0.025901556
22	0xbcbecfd2	-0.023292456
23	0xbd4a736a	-0.049426474
24	0x3b137b8e	0.0022504064
25	0x3d4a8ed8	0.049452633
26	0xb93afa6b	-0.0001783163
27	0x3c84ea34	0.016224958
28	0x3c49a220	0.01230672
29	0x3bdf5e67	0.0068166736
30	0xba24f367	-0.00062923733
31	0xbc9ea893	-0.019367492
32	0x3e08114b	0.13287847
33	0xbb762378	-0.0037557762
34	0x3c758f4a	0.014987776
35	0xbbcd027f	-0.006256401
36	0xbe65680f	-0.22402976
37	0xbe122279	-0.14270963
38	0xbca0a0a7	-0.019607855
39	0xbe4d4800	-0.20046997
40	0xbdce87a4	-0.10084465
41	0xbce237ba	-0.027614463
42	0x3cafc171	0.021454545
43	0xbe5ad7f9	-0.2137145
44	0xbe288019	-0.16455115
45	0x3de24465	0.110482015
46	0xbbfd69c1	-0.007733554
47	0x3c31191a	0.010809207
48	0xbcc572ad	-0.024102533
49	0x3cb9d984	0.022686727
50	0x3d79121d	0.06080829
51	0xb8b7a8b1	-8.757541e-05
52	0xbbde3a40	-0.0067818463
53	0x3e7bb5ba	0.24581042
54	0xbc6a3f22	-0.014297279
55	0xbd1e010f	-0.03857523
56	0xbd0e2dbe	-0.034711592
57	0xbcea7269	-0.028619008
58	0x3e8fa4e6	0.28055495
59	0x3dcdb6a8	0.100446045
60	0xbe76b82b	-0.24093692
61	0xbd8ce1bd	-0.06878994
62	0xbdf7bd42	-0.12096645
63	0x3c078779	0.008272045
64	0x3d80ff38	0.06298679
65	0x3d049bd9	0.03237519
66	0x3d84eda2	0.06490637
67	0x3e16828c	0.14698237
68	0xbdbb98c4	-0.09159997
69	0xbe08900b	-0.13336198
70	0xbb6a768d	-0.0035776228
71	0xbde1439f	-0.10999226
72	0xbd78c4b5	-0.06073447
73	0xbe1b3c69	-0.15159763
74	0xbc02874d	-0.0079668285
75	0x3e1bf132	0.15228727
76	0xbe7142f9	-0.23560704
77	0xbe5b113e	-0.21393296
78	0xbd5193e4	-0.05116643
79	0xbda81dd1	-0.08208812
80	0xbdd45631	-0.10368002
81	0xbe347c29	-0.17625488
82	0x3b7dec18	0.003874546
83	0x3cc84687	0.024447693
84	0xbe5efa83	-0.2177525
85	0x3b6ffb32	0.003661823
86	0x3e2cd268	0.16877139
87	0x3c4f360f	0.012647166
88	0xbe7995eb	-0.24373595
89	0x3d8b3378	0.06796926
90	0xbcc2f2c3	-0.023797398
91	0x3d9a389e	0.0753033
92	0xbb7975d7	-0.0038064623
93	0xbe138951	-0.14407851
94	0xbbeff007	-0.0073223147
95	0x3de6ea7d	0.11275194
96	0x3e0e9cbf	0.13926981
97	0x3e0e6f3f	0.13909625
98	0xb935ff65	-0.00017356647
99	0x3c2b0156	0.01043733
100	0x3df35a58	0.11882466
101	0xbcb7f5cc	-0.022456072
102	0x3bc1a24b	0.0059092394
103	0x3e3e3413	0.18574552
104	0xbe699592	-0.22810963
105	0xbde70211	-0.11279691
106	0x3dac9999	0.08427734
107	0x3d0f5d2b	0.03500096
108	0xbc3a525b	-0.011372174
109	0xbe8a4c4b	-0.27011332
110	0xbb9ba7f0	-0.0047502443
111	0x3b5fdbaf	0.0034158041
112	0x3d4a745a	0.049427368
113	0x3da7b3e1	0.08188606
114	0xbb7b30d8	-0.0038328674
115	0xbc39c065	-0.011337374
116	0xbd18deac	-0.03732173
117	0xbc3c15eb	-0.011479835
118	0x3abfc451	0.001463065
119	0xbc81c625	-0.015841553
120	0x3dc86c21	0.09786249
121	0x3cc7846e	0.02435514
122	0x3d9f72a0	0.07785535
123	0x3e28f2e6	0.16498908
124	0x3c9aea3c	0.01891052
125	0x3e3bb0a2	0.18329099
126	0xbc3fb6da	-0.01170131
127	0x3a9af6cf	0.0011822822
128	0x3cecafda	0.028892446
129	0xbb64f8c5	-0.0034938317
130	0xbcbe26b6	-0.023211818
131	0xbbe7b201	-0.0070707803
132	0x3d322044	0.043487802
133	0x3a26216a	0.00063373765
134	0x3ea02d63	0.31284627
135	0xbac238d9	-0.0014817967
136	0x3cb4d24f	0.02207294
137	0xbe38bcd5	-0.18040784
138	0xbd8da263	-0.069157384
139	0xbc0076d2	-0.007840829
140	0xbc12b627	-0.008954561
141	0x3e884fc7	0.26623365
142	0xbd92fc64	-0.07177046
143	0xbe610501	-0.21974565
144	0x3d7054ea	0.05867473
145	0x3e1c8586	0.1528531
146	0x3dd83be7	0.105583005
147	0xbccf9ef0	-0.025344342
148	0x3d07ef1a	0.03318701
149	0x3c95cea9	0.01828702
150	0x3c79ead7	0.015253744
151	0xbe897276	-0.2684514
152	0x3da11917	0.07866114
153	0xbd12ffc9	-0.035888467
154	0xbc26f829	-0.010191002
155	0x3dcac592	0.09900965
156	0x3de684ad	0.11255775
157	0x3e0c7792	0.13717487
158	0xbc169f91	-0.009193317
159	0xbe4d89a0	-0.20072031
160	0x3e1a730f	0.15082954
161	0x3e9584c4	0.29202855
162	0x3d88e911	0.06685079
163	0x3c11f437	0.008908323
164	0x3e51e175	0.20496161
165	0x3e187088	0.14886677
166	0x3b859f01	0.0040777926
167	0x3cd49b85	0.025953064
168	0x3c2e34fa	0.010632748
169	0xbc77485d	-0.015092936
170	0xbddd8da9	-0.10818035
171	0x3af59aed	0.0018738188
172	0x3d31029a	0.04321537
173	0xbc7ad028	-0.015308417
174	0x3c91e8a2	0.017811123
175	0x3d6b96f5	0.05751701
176	0x3bcbba06	0.006217244
177	0xbd595c1f	-0.05306637
178	0x3d88cdc1	0.066798694
179	0xbc26f6a5	-0.010190641
180	0xbdd7ca00	-0.10536575
181	0xbd17d275	-0.03706594
182	0x3e145fa9	0.14489616
183	0x3d3d1c95	0.046169836
184	0xbe76450b	-0.24049775
185	0xbdfd244b	-0.12360438
186	0x3cafb4a7	0.021448446
187	0xb9a61f5c	-0.00031685352
188	0x3db54e98	0.08852881
189	0xbc04511d	-0.00807598
190	0x3dc1cd28	0.094629586
191	0x3e1c6092	0.15271214
192	0x3c025641	0.007955135
193	0x3eaf7600	0.34269714
194	0x3c36cd49	0.011157342
195	0xbc08364f	-0.008313729
196	0xbdb5debd	-0.088803746
197	0x3ea5abb4	0.32357562
198	0xbcb6e3f1	-0.022325488
199	0x3c19cc5a	0.0093871
200	0x3d417667	0.047232058
201	0xbcf53250	-0.029931217
202	0x3c9c2a65	0.019063184
203	0x3aae7453	0.0013309814
204	0x3e1ed226	0.15509853
205	0x3dd88929	0.10573036
206	0xbca78fe7	-0.02045436
207	0xbd075fab	-0.03305022
208	0x3e4d7a17	0.20066105
209	0xbcfdbaa6	-0.03097279
210	0x3d30b97c	0.04314564
211	0x3dfb5694	0.12272373
212	0x3df12ba4	0.11775902
213	0x3dadc271	0.084843524
214	0xbca9ed18	-0.020742938
215	0x3ba51e82	0.005039037
216	0x3d1cf52c	0.03831975
217	0xbd5d302c	-0.05400102
218	0xbeb00c7f	-0.34384534
219	0x3adb2b50	0.0016721282
220	0x3be53c79	0.0069957343
221	0x3dafe786	0.085890815
222	0xbe81fc12	-0.25387627
223	0x3d0fb669	0.03508607
224	0xbc886b9b	-0.016652873
225	0xbd9c6f6a	-0.07638438
226	0xbdf86d0d	-0.12130175
227	0xbdba918a	-0.091097906
228	0x3cd2c5a9	0.025729017
229	0xbc755b69	-0.014975407
230	0x3d3be412	0.0458718
231	0x3bcb724e	0.0062086945
232	0xbcea2c79	-0.02858566
233	0xbd05e4c4	-0.03268887
234	0xbdb47277	-0.08810895
235	0x3e252ac8	0.16129601
236	0xbd697c06	-0.057003044
237	0x3e864706	0.26226062
238	0x3b08ab9e	0.0020854245
239	0xbd9620a8	-0.073304474
240	0xbe16812b	-0.14697711
241	0xbc9747bb	-0.018466821
242	0x3cbead55	0.02327601
243	0xbdfb1ad8	-0.122609794
244	0x3dadcecd	0.0848671
245	0xbcf41995	-0.029797355
246	0xbcb306b4	-0.021853782
247	0x3d116a5c	0.035501823
248	0x3e102757	0.14077507
249	0xbe0d69e9	-0.13809933
250	0xbcb530c7	-0.022117985
251	0x3dd75ec1	0.1051612
252	0x3dcc7426	0.09983091
253	0xbc6e6c32	-0.014552163
254	0xbcd2e203	-0.025742536
255	0xb94e5ef8	-0.0001968107

classifiers.0.bias f4 [5]
0	0x3fd68b2c	1.6761222
1	0xbfce779c	-1.6130252
2	0x3ec073bf	0.37588307
3	0xbee4e428	-0.4470532
4	0x3c043e30	0.008071467

classifier.weight f4 [5, 84]
0	0xbc7aeb16	-0.015314838
1	0x3cb61039	0.022224532
2	0x3d95bafa	0.073110536
3	0xb922c2bb	-0.00015522067
4	0x3eee3223	0.46522626
5	0xbdeaa2d4	-0.11456838
6	0xbda6de96	-0.08147924
7	0xbe3e7559	-0.18599452
8	0xbc00b861	-0.007856459
9	0xbc2f78fa	-0.010709995
10	0xbe129f6d	-0.14318629
11	0xbd68929d	-0.056780446
12	0x3d1af777	0.037833657
13	0xbea39275	-0.31947675
14	0xbe0c8adc	-0.13724846
15	0xbdfd47b8	-0.12367195
16	0x3d9c9ea4	0.07647446
17	0x3d010637	0.031500068
18	0xbc98b111	-0.01863912
19	0xbe58f33c	-0.21186537
20	0xbea25b4f	-0.31710288
21	0xbcd42f80	-0.025901556
22	0xbcbecfd2	-0.023292456
23	0xbd4a736a	-0.049426474
24	0x3b137b8e	0.0022504064
25	0x3d4a8ed8	0.049452633
26	0xb93afa6b	-0.0001783163
27	0x3c84ea34	0.016224958
28	0x3c49a220	0.01230672
29	0x3bdf5e67	0.0068166736
30	0xba24f367	-0.00062923733
31	0xbc9ea893	-0.019367492
32	0x3e08114b	0.13287847
33	0xbb762378	-0.0037557762
34	0x3c758f4a	0.014987776
35	0xbbcd027f	-0.006256401
36	0xbe65680f	-0.22402976
37	0xbe122279	-0.14270963
38	0xbca0a0a7	-0.019607855
39	0xbe4d4800	-0.20046997
40	0xbdce87a4	-0.10084465
41	0xbce237ba	-0.027614463
42	0x3cafc171	0.021454545
43	0xbe5ad7f9	-0.2137145
44	0xbe288019	-0.16455115
45	0x3de24465	0.110482015
46	0xbbfd69c1	-0.007733554
47	0x3c31191a	0.010809207
48	0xbcc572ad	-0.024102533
49	0x3cb9d984	0.022686727
50	0x3d79121d	0.06080829
51	0xb8b7a8b1	-8.757541e-05
52	0xbbde3a40	-0.0067818463
53	0x3e7bb5ba	0.24581042
54	0xbc6a3f22	-0.014297279
55	0xbd1e010f	-0.03857523
56	0xbd0e2dbe	-0.034711592
57	0xbcea7269	-0.028619008
58	0x3e8fa4e6	0.28055495
59	0x3dcdb6a8	0.100446045
60	0xbe76b82b	-0.24093692
61	0xbd8ce1bd	-0.06878994
62	0xbdf7bd42	-0.12096645
63	0x3c078779	0.008272045
64	0x3d80ff38	0.06298679
65	0x3d049bd9	0.03237519
66	0x3d84eda2	0.06490637
67	0x3e16828c	0.14698237
68	0xbdbb98c4	-0.09159997
69	0xbe08900b	-0.13336198
70	0xbb6a768d	-0.0035776228
71	0xbde1439f	-0.10999226
72	0xbd78c4b5	-0.06073447
73	0xbe1b3c69	-0.15159763
74	0xbc02874d	-0.0079668285
75	0x3e1bf132	0.15228727
76	0xbe7142f9	-0.23560704
77	0xbe5b113e	-0.21393296
78	0xbd5193e4	-0.05116643
79	0xbda81dd1	-0.08208812
80	0xbdd45631	-0.10368002
81	0xbe347c29	-0.17625488
82	0x3b7dec18	0.003874546
83	0x3cc84687	0.024447693
84	0xbe5efa83	-0.2177525
85	0x3b6ffb32	0.003661823
86	0x3e2cd268	0.16877139
87	0x3c4f360f	0.012647166
88	0xbe7995eb	-0.24373595
89	0x3d8b3378	0.06796926
90	0xbcc2f2c3	-0.023797398
91	0x3d9a389e	0.0753033
92	0xbb7975d7	-0.0038064623
93	0xbe138951	-0.14407851
94	0xbbeff007	-0.0073223147
95	0x3de6ea7d	0.11275194
96	0x3e0e9cbf	0.13926981
97	0x3e0e6f3f	0.13909625
98	0xb935ff65	-0.00017356647
99	0x3c2b0156	0.01043733
100	0x3df35a58	0.11882466
101	0xbcb7f5cc	-0.022456072
102	0x3bc1a24b	0.0059092394
103	0x3e3e3413	0.18574552
104	0xbe699592	-0.22810963
105	0xbde70211	-0.11279691
106	0x3dac9999	0.08427734
107	0x3d0f5d2b	0.03500096
108	0xbc3a525b	-0.011372174
109	0xbe8a4c4b	-0.27011332
110	0xbb9ba7f0	-0.0047502443
111	0x3b5fdbaf	0.0034158041
112	0x3d4a745a	0.049427368
113	0x3da7b3e1	0.08188606
114	0xbb7b30d8	-0.0038328674
115	0xbc39c065	-0.011337374
116	0xbd18deac	-0.03732173
117	0xbc3c15eb	-0.011479835
118	0x3abfc451	0.001463065
119	0xbc81c625	-0.015841553
120	0x3dc86c21	0.09786249
121	0x3cc7846e	0.02435514
122	0x3d9f72a0	0.07785535
123	0x3e28f2e6	0.16498908
124	0x3c9aea3c	0.01891052
125	0x3e3bb0a2	0.18329099
126	0xbc3fb6da	-0.01170131
127	0x3a9af6cf	0.0011822822
128	0x3cecafda	0.028892446
129	0xbb64f8c5	-0.0034938317
130	0xbcbe26b6	-0.023211818
131	0xbbe7b201	-0.0070707803
132	0x3d322044	0.043487802
133	0x3a26216a	0.00063373765
134	0x3ea02d63	0.31284627
135	0xbac238d9	-0.0014817967
136	0x3cb4d24f	0.02207294
137	0xbe38bcd5	-0.18040784
138	0xbd8da263	-0.069157384
139	0xbc0076d2	-0.007840829
140	0xbc12b627	-0.008954561
141	0x3e884fc7	0.26623365
142	0xbd92fc64	-0.07177046
143	0xbe610501	-0.21974565
144	0x3d7054ea	0.05867473
145	0x3e1c8586	0.1528531
146	0x3dd83be7	0.105583005
147	0xbccf9ef0	-0.025344342
148	0x3d07ef1a	0.03318701
149	0x3c95cea9	0.01828702
150	0x3c79ead7	0.015253744
151	0xbe897276	-0.2684514
152	0x3da11917	0.07866114
153	0xbd12ffc9	-0.035888467
154	0xbc26f829	-0.010191002
155	0x3dcac592	0.09900965
156	0x3de684ad	0.11255775
157	0x3e0c7792	0.13717487
158	0xbc169f91	-0.009193317
159	0xbe4d89a0	-0.20072031
160	0x3e1a730f	0.15082954
161	0x3e9584c4	0.29202855
162	0x3d88e911	0.06685079
163	0x3c11f437	0.008908323
164	0x3e51e175	0.20496161
165	0x3e187088	0.14886677
166	0x3b859f01	0.0040777926
167	0x3cd49b85	0.025953064
168	0x3c2e34fa	0.010632748
169	0xbc77485d	-0.015092936
170	0xbddd8da9	-0.10818035
171	0x3af59aed	0.0018738188
172	0x3d31029a	0.04321537
173	0xbc7ad028	-0.015308417
174	0x3c91e8a2	0.017811123
175	0x3d6b96f5	0.05751701
176	0x3bcbba06	0.006217244
177	0xbd595c1f	-0.05306637
178	0x3d88cdc1	0.066798694
179	0xbc26f6a5	-0.010190641
180	0xbdd7ca00	-0.10536575
181	0xbd17d275	-0.03706594
182	0x3e145fa9	0.14489616
183	0x3d3d1c95	0.046169836
184	0xbe76450b	-0.24049775
185	0xbdfd244b	-0.12360438
186	0x3cafb4a7	0.021448446
187	0xb9a61f5c	-0.00031685352
188	0x3db54e98	0.08852881
189	0xbc04511d	-0.00807598
190	0x3dc1cd28	0.094629586
191	0x3e1c6092	0.15271214
192	0x3c025641	0.007955135
193	0x3eaf7600	0.34269714
194	0x3c36cd49	0.011157342
195	0xbc08364f	-0.008313729
196	0xbdb5debd	-0.088803746
197	0x3ea5abb4	0.32357562
198	0xbcb6e3f1	-0.022325488
199	0x3c19cc5a	0.0093871
200	0x3d417667	0.047232058
201	0xbcf53250	-0.029931217
202	0x3c9c2a65	0.019063184
203	0x3aae7453	0.0013309814
204	0x3e1ed226	0.15509853
205	0x3dd88929	0.10573036
206	0xbca78fe7	-0.02045436
207	0xbd075fab	-0.03305022
208	0x3e4d7a17	0.20066105
209	0xbcfdbaa6	-0.03097279
210	0x3d30b97c	0.04314564
211	0x3dfb5694	0.12272373
212	0x3df12ba4	0.11775902
213	0x3dadc271	0.084843524
214	0xbca9ed18	-0.020742938
215	0x3ba51e82	0.005039037
216	0x3d1cf52c	0.03831975
217	0xbd5d302c	-0.05400102
218	0xbeb00c7f	-0.34384534
219	0x3adb2b50	0.0016721282
220	0x3be53c79	0.0069957343
221	0x3dafe786	0.085890815
222	0xbe81fc12	-0.25387627
223	0x3d0fb669	0.03508607
224	0xbc886b9b	-0.016652873
225	0xbd9c6f6a	-0.07638438
226	0xbdf86d0d	-0.12130175
227	0xbdba918a	-0.091097906
228	0x3cd2c5a9	0.025729017
229	0xbc755b69	-0.014975407
230	0x3d3be412	0.0458718
231	0x3bcb724e	0.0062086945
232	0xbcea2c79	-0.02858566
233	0xbd05e4c4	-0.03268887
234	0xbdb47277	-0.08810895
235	0x3e252ac8	0.16129601
236	0xbd697c06	-0.057003044
237	0x3e864706	0.26226062
238	0x3b08ab9e	0.0020854245
239	0xbd9620a8	-0.073304474
240	0xbe16812b	-0.14697711
241	0xbc9747bb	-0.018466821
242	0x3cbead55	0.02327601
243	0xbdfb1ad8	-0.122609794
244	0x3dadcecd	0.0848671
245	0xbcf41995	-0.029797355
246	0xbcb306b4	-0.021853782
247	0x3d116a5c	0.035501823
248	0x3e102757	0.14077507
249	0xbe0d69e9	-0.13809933
250	0xbcb530c7	-0.022117985
251	0x3dd75ec1	0.1051612
252	0x3dcc7426	0.09983091
253	0xbc6e6c32	-0.014552163
254	0xbcd2e203	-0.025742536
255	0xb94e5ef8	-0.0001968107

classifier.bias f4 [5]
0	0x3fd68b2c	1.6761222
1	0xbfce779c	-1.6130252
2	0x3ec073bf	0.37588307
3	0xbee4e428	-0.4470532
4	0x3c043e30	0.008071467

features.7 f4 [120]
0	0xbc23fcd7	-0.010009012
1	0xbcff95f7	-0.031199438
2	0xbdea8bed	-0.1145247
3	0xbdc1da53	-0.0946547
4	0xbd220962	-0.03955973
5	0xbbb7eaa6	-0.005612689
6	0x3b430076	0.0029754913
7	0x3b46da08	0.003034236
8	0x3d01a314	0.031649664
9	0x3c6f0d9d	0.014590648
10	0xbc031651	-0.008000926
11	0x3da15e7f	0.07879352
12	0xbd0a6546	-0.033787988
13	0xbc983fca	-0.018585104
14	0xba9facf7	-0.0012182285
15	0xbadc1c15	-0.0016793037
16	0x3d006358	0.03134474
17	0x3d899203	0.06717303
18	0xbd830900	-0.06398201
19	0xbd0ca425	-0.034336228
20	0x3d302348	0.043002397
21	0xbd9a32f3	-0.07529249
22	0x3d24b755	0.0402139
23	0x3c7b2dc6	0.015330737
24	0xbc7e8487	-0.015534527
25	0x3d81c53b	0.06336447
26	0xbd4bfa09	-0.049799
27	0x3d22ed59	0.039777134
28	0xbddfc3f0	-0.10926044
29	0x3d8e3bb2	0.0694498
30	0x3e016866	0.12637481
31	0x3be11bd0	0.0068697706
32	0xbd814ece	-0.06313859
33	0x3d287c52	0.041134186
34	0xbe4a32df	-0.19745968
35	0x3dbdb2d7	0.092626266
36	0xbe4eaffb	-0.20184319
37	0x3b85da77	0.004084881
38	0x3d86e862	0.06587292
39	0x3d4ca677	0.04996344
40	0xbd5a8fa9	-0.05335966
41	0xbddffe9c	-0.10937235
42	0xbd5a0378	-0.053225964
43	0x3d96c455	0.07361666
44	0x3d92db7b	0.07170769
45	0xbc0d4fb8	-0.008624963
46	0xb26c93cd	-1.3770614e-08
47	0xb9f6d076	-0.00047076092
48	0x3c435c84	0.011923913
49	0x3cca8721	0.024722638
50	0xbde8b222	-0.11362101
51	0xbcad5864	-0.021160312
52	0xbc950cd2	-0.01819459
53	0xbdff9e5e	-0.12481378
54	0xbd8b825d	-0.06811974
55	0xbe1701e4	-0.14746815
56	0x3c99b04d	0.018760825
57	0xbc0adf89	-0.0084761465
58	0xbae629e4	-0.0017560092
59	0xbd33828b	-0.043825667
60	0x3c366c55	0.011134227
61	0xbc2d507a	-0.010578269
62	0xbccb6439	-0.024828063
63	0xbc13e1e5	-0.009026025
64	0x3c9eb579	0.019373642
65	0xbdc7b05c	-0.09750435
66	0xbe0da005	-0.13830574
67	0xbd4bdcd7	-0.049771156
68	0x3d982e2c	0.074306816
69	0xbbe7c155	-0.0070726075
70	0x3ae861e0	0.0017729364
71	0xbcf2717a	-0.029595125
72	0xbc131910	-0.008978143
73	0x3d1a29e3	0.037637603
74	0xbe36b292	-0.17841557
75	0xbc180b1e	-0.009279994
76	0xbdafe2b1	-0.0858816
77	0xbc146c3c	-0.009059008
78	0xbd189f12	-0.037261076
79	0xbdec05f9	-0.11524577
80	0x3d1fb175	0.038987596
81	0x3d93c5de	0.072154745
82	0x3bbe1777	0.005801137
83	0xbd392a0f	-0.045206126
84	0x3b082cdc	0.0020778691
85	0xbd11d130	-0.035599887
86	0x3c1da77d	0.009622452
87	0xbca028d3	-0.019550717
88	0xbd8af0b1	-0.067841895
89	0x3c807b07	0.015683664
90	0x3d54566f	0.051840242
91	0xbd16d5d7	-0.036825027
92	0xbdc772dc	-0.097387046
93	0x3b175a5f	0.0023094637
94	0xbdbf195e	-0.0933101
95	0x3c195a7f	0.009359955
96	0xbb8e645e	-0.004345461
97	0xbe0070b2	-0.1254299
98	0x3d45fd67	0.048337366
99	0xbcc15711	-0.023601087
100	0xbd3a2757	-0.045447674
101	0x3d55b298	0.052172273
102	0xb8809a9c	-6.132314e-05
103	0xbde6fb10	-0.11278355
104	0xbdb7b565	-0.08970145
105	0x3d7efc34	0.06225224
106	0xbe5bc8cb	-0.21463315
107	0xbb04867b	-0.0020221758
108	0x3cbe0fa0	0.02320081
109	0xbcde1d53	-0.027113592
110	0xbda7d4eb	-0.08194908
111	0x3d4bba4d	0.049738217
112	0xbe06f3bb	-0.13178913
113	0xbd6cdb9e	-0.05782663
114	0xbd8ba6e0	-0.06818938
115	0x3d08ed54	0.03342946
116	0xbc583765	-0.013196801
117	0xba8be559	-0.0010673209
118	0x3b512994	0.0031915652
119	0x39f96735	0.00047569876
