checkpoints_lenet5/baseline_scratch/lenet5/aquatic_mammals/checkpoint-100.pth.tar (torch, 312213 bytes, 12 tensors)

features.0.weight f4 [6, 3, 5, 5]
00000000: 7eea 2dbe 33f0 aa3d 764d 913c 752e eb3c
00000010: 0603 8e3d 8da5 0c3b fcc5 363e e889 d73d
00000020: 445a 123e ff06 5d3e 1ab7 323e 537c e0bc
00000030: e779 a63e f85c 77bd 6c76 f33d fa99 aa3d
00000040: 11b8 4d3e 5a87 e1bd 1993 4b3e 66e4 023e
00000050: 4162 033e 7a21 483e 41b5 033e b203 5ebd
00000060: 017d 713d 7955 7f3e a24f a63e 1fe2 793a
00000070: 34d5 5fbd e640 023e d765 b2bd dcf4 c03d
00000080: ecdd 283e 6948 12be b57d 913b 81c6 833d
00000090: 843f a83d 9f14 85be a45f 32be 2d8e bc3d
000000a0: 0f7a 953d 0acc 2a3d 60ee 90bd 7fe2 21be
000000b0: 1594 133e 9205 3bbe e3b1 233e 04ce b13d
000000c0: 62b0 16bc c716 133e 49df 05be 913a 81be
000000d0: 5d8a 92be 3429 80be 1fc9 52be 8e78 6cbe
000000e0: ffb4 b0be 0bf9 d5be f58b c5be 278c 2dbe
000000f0: bba5 5ebe f3c2 7ebe 4ff7 b2be 2332 66be
00000100: 152b debe ad05 ddbe 8c7c 4bbe b73a 01be
00000110: 063b dfbe a80a 55be f81d 0cbd 7490 ec3d
00000120: a276 ad3d 4acd c1bc 9c07 8bbe 3116 193e
00000130: 341c 883e e696 823e 9a58 983e b088 b33e
00000140: 1634 373e a115 9d3e 4358 623e 9dc1 fcbc
00000150: 34dc a13d 86e1 863d 9d57 6abd cef8 ca3d
00000160: b44e d23d a43f 8fbd 3a95 cfbd d990 a43c
00000170: 5311 7ebe bb3f 91bc c9ab 04be e9ac 72bd
00000180: 82f6 08bc cf7b 42be 5f32 18be f4a3 b7be
00000190: 5edc 4abe 2231 f8bc ec2b 403e 4564 313c
000001a0: 428d 213d acf5 143e 7ac6 b0be 8de5 b03d
000001b0: 0e0e 4f3d a529 d7bd d196 d8bd 0712 88bd
000001c0: c8e3 94be 2450 15be ef3e 333e a2b3 0ebc
000001d0: 32bd 32be b3f6 9abd a5b2 75bd 45eb f43d
000001e0: f728 b5be 2d8d 5dbe 0ce2 cbbd 51e0 b0bd
000001f0: ec23 ddbd f2ff 2c3e 32fd d73d fe92 cd3e
00000200: c03e 643e 07ef a43e 6891 a43d e92b 923e
00000210: 49b5 973e eff4 9d3d 88fb 9b3c 4d07 fe3d
00000220: 16a4 0d3e ce46 fb3d 1b58 653d 837d 423e
00000230: e600 943d bbbb ec3d 5ab2 0fbd 7ce3 f13c
00000240: e684 9dbd 6d2f 073e 8039 2ebe 8ef1 d5bd
00000250: f2be 5d3e 358e 4abe d4a1 463e 173e 273d
00000260: c601 e23b 6d32 393e 9437 b13d 59a2 9ebd
00000270: 7c17 f3bd e593 a93c 4dec b3bd 3b55 cabd
00000280: 34fb eabd 514a 9dbd 1fe4 ddbd 9883 58be
00000290: 016d 00be b611 3dbd 158e adbe fcd7 4bbe
000002a0: 1021 57bd cdc6 77be fbe1 0dbe eef5 6cbe
000002b0: 6889 ffbd a98e b6be 2d4d 8dbd 32c7 7a3d
000002c0: 23b5 653e 0742 f1bc 55c7 0d3e 3ebd 19be
000002d0: 48b3 503d 0b6a 04bd 5b99 dc3c 3637 143e
000002e0: f7e4 cd3c 28e3 403d 989c cc3d 919b 54bd
000002f0: 7f5f dfbc 4f08 263d 0f77 783d 6084 3dbb
00000300: 3d9b 7cbc 06dd 06bd 13a5 e7bd 2f8f 99bd
00000310: 02e3 b13d e5a1 0cbd 6ef5 2abe b056 76bc
00000320: 416c 9e3c 18fa a63c fe75 9d3e 4590 113e
00000330: 94ef e03d 0def 523d 0f60 a83d 85b0 3d3e
00000340: 68d7 9abd f6f5 85bd e2d6 d8bd a281 82be
00000350: bb9e 34be 7368 e1bd 7667 32be 9e80 a03b
00000360: 3264 97bd 8d4c fcbd 3fa0 5e3d d2a0 04bd
00000370: 1a02 74bd 97b6 b53d 9a7c 11be d58a 1e3d
00000380: e73d 9bbc a6c0 d03d ec76 573e 7753 3c3d
00000390: aa3f 0c3e 3375 dd3e 5f1e 5d3e 60df 663e
000003a0: b971 ed3e ea6e 953e d0d1 4f3e b3c0 bf3e
000003b0: 4975 9a3e 2753 7c3e aa0b 993e 4a5f 9a3e
000003c0: a88f 913e be7d 0b3e 405d 1e3e 435e 8f3e
000003d0: e33a cc3e 9fef 003e 5fa0 d93c 8241 1d3e
000003e0: b681 643e 93dc 623e 6762 90be 65b2 7dbe
000003f0: 9879 dbbe 60ba 1fbe 3ace c9bd bee0 e9bd
-0.16983983 0.083465956 0.017737132 0.028708676 0.069341704 0.002146098 0.17848963 0.105243504
0.14292246 0.215847 0.1745266 -0.027403032 0.3251488 -0.060391396 0.118878216 0.0833015
0.20089747 -0.110121444 0.19880332 0.1278244 0.1283045 0.1954402 0.12862112 -0.054202743
0.058957104 0.24934949 0.3248263 0.0009532291 -0.054646686 0.1272007 -0.08710831 0.09421703
0.16490906 -0.14285435 0.0044400343 0.06434346 0.0821524 -0.25992295 -0.17419297 0.092068054
0.072986715 0.041698493 -0.070767164 -0.15809058 0.14411958 -0.18263844 0.15985827 0.086818725
-0.009197326 0.14364158 -0.13073458 -0.25239995 -0.28621188 -0.25031435 -0.20584534 -0.23092863
-0.3451309 -0.41791567 -0.3858334 -0.16947995 -0.21742909 -0.24879055 -0.34954306 -0.22480063
-0.43392244 -0.43168393 -0.1987173 -0.12620054 -0.4359972 -0.20804846 -0.034208268 0.1155099
0.08469893 -0.02365746 -0.27154243 0.14949872 0.26584017 0.2550575 0.29755098 0.35065222
0.17890963 0.30680564 0.22103982 -0.03085404 0.079033285 0.06585984 -0.05721246 0.09910737
0.10268918 -0.0699456 -0.101358846 0.0200886 -0.24811296 -0.017730584 -0.12956156 -0.05924693
-0.008359553 -0.18992542 -0.14862965 -0.35867274 -0.19810626 -0.030296866 0.18766755 0.010827129
0.039441355 0.14546841 -0.34526426 0.08637533 0.050550513 -0.1050599 -0.10575641 -0.066440634
-0.29080033 -0.14581352 0.17504476 -0.00870982 -0.17454985 -0.075665854 -0.05998482 0.119589366
-0.35382816 -0.21635886 -0.099552244 -0.08636535 -0.10797867 0.1689451 0.1054634 0.4015121
0.22289562 0.32213613 0.080355465 0.28549126 0.29630497 0.07712733 0.019040838 0.12403736
0.13832125 0.12269364 0.055992227 0.18993191 0.07226734 0.11559244 -0.0350822 0.029527418
-0.07691364 0.13201685 -0.17014122 -0.104464635 0.21654871 -0.1978081 0.1939767 0.040830698
0.006897184 0.18085642 0.08653179 -0.07745809 -0.11869714 0.020700404 -0.08785305 -0.09879538
-0.114736944 -0.0768019 -0.10834526 -0.21143949 -0.12541582 -0.04615947 -0.33897462 -0.1990661
-0.052521765 -0.2419693 -0.13855736 -0.2314069 -0.1247738 -0.35655716 -0.06899486 0.061225124
0.2243238 -0.02945043 0.1384557 -0.15013596 0.050952226 -0.032327693 0.026928594 0.14474186
0.025133593 0.047091633 0.099908054 -0.051906172 -0.027267216 0.040535267 0.060660418 -0.0028918013
-0.015417871 -0.032925628 -0.11310782 -0.07498013 0.086858764 -0.034334082 -0.16695186 -0.015035316
0.019338729 0.020382926 0.30754083 0.1421519 0.10983196 0.051497508 0.08221447 0.18524368
-0.07560617 -0.06541054 -0.10587861 -0.25489527 -0.17638676 -0.1100625 -0.1742228 0.004898145
-0.073921576 -0.123192884 0.05435204 -0.032379933 -0.059572317 0.08872717 -0.14207688 0.03870662
-0.018950416 0.10192995 0.21041459 0.045978036 0.13696161 0.43253478 0.21593617 0.22546148
0.46375826 0.29186183 0.20294881 0.37451705 0.30167606 0.24641095 0.2989171 0.30150825
0.28429914 0.13622186 0.1546526 0.28001603 0.39888677 0.12591408 0.026565729 0.1535702
0.22315106 0.22154455 -0.28200075 -0.24775083 -0.42866206 -0.1559844 -0.09853788 -0.11419819

features.3.weight f4 [16, 6, 5, 5]
00000000: 47c4 f43b ff2f 533e 5841 2a3e 062e c93d
00000010: 571a f53d 4d3b 7b3d 93bc 793d b4af 8d3d
00000020: 6022 3cbc 2e43 093e 9069 db3c 26fc 0d3d
00000030: 7373 51bc 8bd8 82bd 0e21 813d 5bf5 5e3e
00000040: 2fb8 253e ace3 403e 1d34 163e c23c bfbd
00000050: 0ce7 213e 7c94 823e 309d 613d 372b c3bd
00000060: 4fb9 8dba 5ba2 ebbd a837 1dbe f2f3 19bc
00000070: bd20 9ebc ab09 2c3d 83cf 013e 5b1d 443d
00000080: df81 7d3b 6996 96bc eefc 4abd 3ff7 b5bb
00000090: d642 a83c 5828 b33d f9cd 66bd cf41 babc
000000a0: cbea 97bd d69d 83bd 8eb4 49be c1ca 2cbc
000000b0: 0abc d2bd a258 143e 475a 0c3e c4e6 543e
000000c0: 8be2 a93e b9e2 363e 3df8 f1bc d808 55bd
000000d0: 12d0 f3bd 4368 07be dd2b 22be 44f1 a5bd
000000e0: f8db 29bc e7a6 6dbd b826 a1bd 8d89 0bbe
000000f0: e8f9 8ebd fdd2 e3bd 8ce8 a6bd e46b 34be
00000100: 15ad bebd be54 0cbd 0605 133c f47f f5bd
00000110: f3c3 84bd 5379 6cbd 7086 113d 1926 29bd
00000120: 3139 743d 572c c0bd 8d08 13be 5884 cabd
00000130: 25cd c6bd 8168 02be 1376 9abe eee8 2dbe
00000140: df88 22be fb6d 57be a58e bebd 77c2 79be
00000150: 9905 73bd 6e7f 13bd d857 5dbe a3b3 50be
00000160: b87b 53be a962 82be 4dda 99bb a1c3 02be
00000170: cf5c 2fbd ed7f 80be f107 fbbd 48a0 b43d
00000180: c6dd 17be 815a f4bd 6bfb 07be 50cf e23b
00000190: d702 283d dece 743d 1fe1 023e 0286 643b
000001a0: 3598 843d 21f4 dc3d d93a df3d 0003 413d
000001b0: 28e0 e73d 6748 183d 7ee8 533d cd5e a43d
000001c0: 0702 b23d 7d89 413e ccac 1e3e c23a a13b
000001d0: 7a24 263e 7f93 c7bd 0507 743d fad6 113d
000001e0: 12f5 0b3e f0b1 b53b 5d44 2fbb 8eef 98bd
000001f0: c2a9 783b 3f35 29bc d305 e4bd 0917 7ebd
00000200: ddbd 97bc 90a2 2d3c 8130 edbc 9cbd cebd
00000210: ca59 07be e63f fabd 7c19 f9bd 8782 31bc
00000220: 614a 293d 302c 2d3a dd4d 8e3d 1f13 e2bb
00000230: bcdb a2bc 21be 0ebd 8ca8 f8bd 6c1f 90bd
00000240: 305c 663d db0e c43d 9b69 f23d 3246 edbc
00000250: 859d 1ebd 779e d23d d0da 5dbd 3af6 10be
00000260: 4931 a1bd 9f73 13bd 72aa fdbc 5bc6 a83d
00000270: f02e 2ebe 092d d8bd fed9 1bbe fd0e 59be
00000280: e379 22bd bcee 92bd d3ff 44be 5311 6abd
00000290: 394f 54bd 64ea 0f3e a0e6 183d 5c88 82bd
000002a0: 4b1c d7bd 01f2 f3bd a9a0 cfbb 82ab 6a3d
000002b0: c141 6fbc a881 87bd 25db 9abd 8bd1 b93d
000002c0: 7e5e 0d3e 835d 01be bb7e b73d 5ea0 cc3d
000002d0: cdd3 e03d e666 4ebd c06d 443d 3dce fabc
000002e0: f5da 0e3c 7e69 a93d 2ccf 303e d466 aa3d
000002f0: 856b 383d 9733 793d fe13 3a3c 1682 a5bc
00000300: a980 823d 822c 36bb 6328 a93c 9fe1 4ebe
00000310: e17f 0c3d d9cc af3d a436 333d 1541 f63d
00000320: b4b0 9f3d 7e7e dfbd ca5c dfbc 06a5 a4bc
00000330: fc6c 523d 3cd6 513d 8968 41bd b5b4 beb6
00000340: 036c d3bd 8880 f9bd 7ea3 5f3e 5186 fcbc
00000350: de92 16be 6a26 9fbd afe7 de3c db4f 713d
00000360: 4971 cc3c 5e16 c93c 136e 0dbc c7fb 253d
00000370: 1e1d 183d 47a1 803d dce3 bfbb 6f9e 363e
00000380: a646 463d bd0b 183c 3d9a 153e cc52 6abc
00000390: 2eb2 6b3d 7639 70bd 2e3e d0bc 5d16 0dbd
000003a0: 574e 2abd e306 9d3d efa3 e8bd 3f4f 253e
000003b0: f74b 923d 78d0 2bbe a2ef 623d 4d2b 2ebd
000003c0: fe6f 3abd 0f65 333d b687 8f3c 7e12 8ebd
000003d0: c4b2 f6bd cd61 f53b 7d0a 9a3c 1a84 05be
000003e0: 32cf 9bbc 086d c2bc 7bb4 d63d 199a 433d
000003f0: eda0 3a3e 31e8 073e ced3 5b3e 7493 1c3d
0.007469687 0.20623778 0.16626489 0.098232314 0.119679146 0.06133585 0.060970854 0.06918278
-0.011482805 0.13404533 0.026783735 0.034664296 -0.012783873 -0.063889585 0.06305133 0.21773283
0.16183542 0.1883685 0.14668317 -0.093377605 0.15810794 0.2550391 0.055081546 -0.09529727
-0.0010812673 -0.11505576 -0.15353262 -0.00939654 -0.01930272 0.042001408 0.12676816 0.047879558
0.0038682146 -0.018382268 -0.04955762 -0.0055531557 0.020539682 0.08747929 -0.056348775 -0.022736458
-0.0741783 -0.06426589 -0.19697782 -0.010546387 -0.10289772 0.14486936 0.13706313 0.20791155
0.3318065 0.17859925 -0.029537315 -0.052010387 -0.11904921 -0.13223366 -0.15837045 -0.081026584
-0.010367386 -0.0580205 -0.07868713 -0.1362669 -0.069812596 -0.11124227 -0.081498235 -0.17619282
-0.093103565 -0.034260504 0.008973366 -0.11987296 -0.06482687 -0.05773289 0.0355286 -0.0412961
0.059624854 -0.09383457 -0.1435873 -0.09888524 -0.09707097 -0.12735178 -0.30168208 -0.16983387
-0.15872525 -0.21038048 -0.09304551 -0.24390589 -0.05933151 -0.0360102 -0.21615541 -0.20381026
-0.20652664 -0.25465897 -0.004695213 -0.12769939 -0.04281312 -0.250976 -0.12257374 0.08819634
-0.14830694 -0.11931325 -0.13279502 0.006921686 0.041018333 0.059767596 0.1278119 0.0034869914
0.06474344 0.107887514 0.10899896 0.047122 0.11322051 0.037178423 0.051735394 0.08025894
0.08691793 0.18900104 0.15495604 0.0049203346 0.16224852 -0.097449295 0.059577007 0.03560541
0.13667706 0.0055448934 -0.0026743629 -0.074675664 0.003794298 -0.010327636 -0.111339234 -0.062033687
-0.018523151 0.01059784 -0.028953793 -0.10094759 -0.13217846 -0.12219219 -0.12163064 -0.010834343
0.0413307 0.0006606011 0.06948445 -0.006899252 -0.019880168 -0.03484929 -0.12141523 -0.07037243
0.05624026 0.09573146 0.11836549 -0.028964136 -0.03872444 0.10284131 -0.054163754 -0.14156428
-0.078707285 -0.035998937 -0.030965064 0.08240958 -0.17010093 -0.10555465 -0.15219876 -0.21197124
-0.03966702 -0.07174441 -0.19238214 -0.057145428 -0.051833365 0.14054257 0.037329316 -0.06373665
-0.10503443 -0.11911393 -0.006336291 0.05729247 -0.014603079 -0.06616527 -0.0756133 0.0907317
0.13805577 -0.12633328 0.08959719 0.09991525 0.10977898 -0.0503911 0.04795623 -0.03061592
0.008719196 0.08272074 0.1726653 0.08320394 0.045024414 0.060840216 0.011357306 -0.020203631
0.06372196 -0.0027797525 0.02064914 -0.20203255 0.034301642 0.085839935 0.04375328 0.12024132
0.07797375 -0.10912798 -0.027265925 -0.02009822 0.051373467 0.0512297 -0.047218833 -5.6834783e-06
-0.10323336 -0.121827185 0.21839711 -0.030825766 -0.14704463 -0.07770999 0.027210085 0.058914047
0.024956362 0.024546798 -0.008632201 0.040523317 0.037137143 0.06280761 -0.0058560204 0.17833875
0.04840722 0.009280142 0.14609618 -0.014301967 0.057542972 -0.05864855 -0.025420275 -0.034445155
-0.041578617 0.07667329 -0.11359393 0.16143511 0.071433954 -0.16778743 0.055404313 -0.042521764
-0.04551696 0.04379755 0.017520767 -0.06937121 -0.120458156 0.0074884654 0.01880383 -0.13038674
-0.019019697 -0.02373363 0.10483643 0.04775438 0.18225451 0.13272168 0.21467516 0.03822656

features.7.weight f4 [120, 400]
00000000: a73f 243d 47e4 e2bc e0a1 37bd e68e cebc
00000010: 2582 1f3d c868 ee3c b807 b3bb ff3d e8bb
00000020: 89cb 603c c9d0 d73c 84db b63d 0c04 ca3c
00000030: 7900 753c 964e e73c 6e34 893d 090a 783d
00000040: 26cd c23b fb87 94bb 285e 0c3c 4692 483d
00000050: ce8f 283d 66b4 99bc 8e0d 51bd b9d5 68bd
00000060: 042f c13c 4915 6dbd c100 43bd 8a9e 7abd
00000070: 228f 58bd d319 f3bc c43c 85bd 9b55 a0bd
00000080: df07 99bd 6c8d 4cbd bedf 34bd e490 83bc
00000090: 2b86 59bd 0a30 0cbd 071b a3bc c7f3 0dbd
000000a0: 39ba efbb 5e60 77bd f0be b0bc f93b d03b
000000b0: b9a6 96bb 073e 2dbc 983d 62bd 0056 55bd
000000c0: 6ef9 c0bc 67b9 3c3c d062 46bd 78ae 46bc
000000d0: ae05 c6bc c35c c9bc ec14 893c 8c50 5bbd
000000e0: 1b28 1bbd e475 b9bb b78b b93c 30f4 4a3c
000000f0: 58fd 09bc 4953 243c 6a2f f63c 8fd9 ba3c
00000100: a604 663c 3cee 293d 6aaa 6d3d f293 163d
00000110: b69b af3a 5a77 f9bc 71fa ff3c a198 183d
00000120: 1f3a 093d 2ca3 e93c 7636 bd3c 0b13 97bb
00000130: 0a98 3abc e354 983c 307b c7bb a29c 24bd
00000140: 3733 433d 4aff f43c 33a1 543c ae79 273d
00000150: bf86 c93c 37f0 683d 5c2c 483d a61b c93c
00000160: 0528 e63c 1407 203c 7c26 ed3c d2aa 933c
00000170: 12b3 333d 6bcb 193d eb5c 7ebc 2fa8 1f3d
00000180: 0f24 273c 5d25 553d bad6 463d dc69 963c
00000190: 469b 91bb 404f bebc 562b e9bc 22d2 78bc
000001a0: 67c3 0c3d a361 2fbc a6d9 9fbc d9ce 01bb
000001b0: bbc7 f03b 2fa9 3c3c 2132 1abc da77 adbb
000001c0: 02d0 433c fc16 e13b 5158 3fbc 83da c8bc
000001d0: 353c 40bc 2000 1cbc 8281 28bc d284 b1bc
000001e0: 93e4 233d 5543 a03c ddb0 933b f95b b93c
000001f0: 8166 893c 8b39 1bbd 02b9 2cbc f462 6e3c
00000200: 58d9 1ebc 8c37 6abc 6932 1bbd ce3b bdbc
00000210: 6a2f 1f3c e642 a7bc 12cf 56bc 0ae5 10bd
00000220: 0666 b3bc d3dc 473c 16da 94bc 25c8 79bc
00000230: b308 15bd 6bfa 1bbd 9499 dabc f090 12bd
00000240: 3a1c 31bd 069d 85bc a5d5 8dbd 0b60 0abd
00000250: eaad 2cbd 1560 49bd a999 323c ab71 1bbc
00000260: 5865 26bc 929f 043c 4dcb 203c 1ebe cebc
00000270: 3b8a a83b b0cc 94bc b409 753b dbdd 3dbc
00000280: 5f92 02bd ac1b b0bc 81c1 d93a 2714 73bb
00000290: c9a1 9cbb 9bda ddbc e302 a6bc ea9e a33c
000002a0: c019 453b 8237 72bc 6f8f c53b 9f95 f73c
000002b0: 085c cc3c 401e 783c 6143 4e3c deb4 0fbd
000002c0: ad38 17bd 7ad3 19bc 565a 3abd 4c56 99bc
000002d0: 86b0 cdbc c0eb 8cbc 0222 f8bb a87d 13bd
000002e0: 0366 49bc 45db 77bb 2ef2 b23c bfca 6a3c
000002f0: 535b 1ebc 22eb 2dbc c6d1 33bc abb2 ab3c
00000300: 0661 a13c d4b2 3d3c 0e5f 4bbc b1f8 c2bb
00000310: b7f4 e13c 69c1 843d a1a4 143d 6542 84bc
00000320: df0f 83bc 5e3e b2bc e018 ee3c f0ad 503d
00000330: 8fd8 833c 3064 81bc 9b3f 01bc 4c0e 293c
00000340: 4bd4 083d d72d c83c 3168 22bd 50c2 b9bc
00000350: 6ea8 303d c183 3e3c b212 e6bb 3bde ddbc
00000360: 5146 92bc 5644 6a3b 96fb 2dbc 9964 35bd
00000370: 1c41 50bd 0206 56bd d194 42bc 9657 b6bc
00000380: 943d 3fbd 464a 593c df5d 2e3d 1ffc c93c
00000390: 9e0f 0ebb fd46 82bc 783b 74ba 22ca 843c
000003a0: 7014 bf3c d2f5 dd3b 2e02 443d 1323 fdb8
000003b0: ff97 6b3c ef38 f03c b565 363d 0468 913c
000003c0: e31c a6bb 0a6c e23b 40e0 1a3d 4168 333c
000003d0: 9933 a0bc 4256 fcbb 8131 5bbb c37a 7fbb
000003e0: a5e1 2a3c 1788 86bc b4a1 e0bc 94ae e4bb
000003f0: e188 4fbd 7615 92bd b53d 87bd 950d 4abd
0.040099766 -0.027696742 -0.04483211 -0.025214624 0.038942475 0.029102698 -0.0054635666 -0.0070874686
0.013720402 0.026344674 0.08928588 0.024660133 0.014953726 0.028235715 0.06699453 0.060556445
0.0059448658 -0.0045328117 0.0085673705 0.048967622 0.041152768 -0.018762778 -0.051038317 -0.056844447
0.02358199 -0.057881627 -0.04760814 -0.06118635 -0.052870877 -0.0296754 -0.06505731 -0.07828828
-0.074722044 -0.049939558 -0.04415869 -0.0160603 -0.05310647 -0.0342255 -0.019910349 -0.034656312
-0.0073159006 -0.060394637 -0.021575421 0.0063548055 -0.0045975116 -0.0105738705 -0.05523452 -0.05208397
-0.023556437 0.011518813 -0.04843408 -0.0121265575 -0.02417263 -0.024580365 0.01673361 -0.053543612
-0.037880044 -0.0056598056 0.022649629 0.01238732 -0.008422218 0.010029622 0.030051906 0.022808818
0.014039194 0.041486964 0.058023848 0.036762185 0.0013397846 -0.03045242 0.03124735 0.037254933
0.033502694 0.02852019 0.023097258 -0.0046104244 -0.011388788 0.018595165 -0.006087683 -0.04018844
0.047656264 0.029906888 0.012977886 0.040887527 0.024600385 0.05686971 0.04887043 0.024549317
0.028095255 0.009767313 0.028949015 0.01802579 0.043871947 0.03754751 -0.015525083 0.03897875
0.010201468 0.052037586 0.048544623 0.018361025 -0.004443559 -0.023231149 -0.028463047 -0.015186818
0.034366038 -0.010704431 -0.019512963 -0.0019807129 0.0073480285 0.011514946 -0.009411366 -0.0052938284
0.011951448 0.006869195 -0.011678771 -0.024518257 -0.0117331045 -0.009521514 -0.010284783 -0.021669779
0.040012907 0.019563356 0.0045071677 0.022626864 0.01677251 -0.037896674 -0.010542156 0.014549959
-0.0096953735 -0.01429547 -0.03788987 -0.023099806 0.009715894 -0.020417642 -0.013110893 -0.03537468
-0.021899235 0.012198645 -0.018170398 -0.015245472 -0.03638525 -0.038080614 -0.02668456 -0.035782754
-0.04323981 -0.016310226 -0.06925515 -0.033783 -0.042158045 -0.049163897 0.010900893 -0.00948755
-0.010155998 0.008094685 0.009814096 -0.02523714 0.0051434315 -0.018164009 0.0037389817 -0.011588539
-0.03187787 -0.02149757 0.0016613455 -0.003709087 -0.0047800285 -0.027081778 -0.020265048 0.019973237
0.0030075163 -0.014783742 0.0060290615 0.030222712 0.024946228 0.015143931 0.012589307 -0.035084598
-0.036919285 -0.009388799 -0.045496307 -0.018717907 -0.025108587 -0.017202258 -0.0075724134 -0.036008507
-0.012292388 -0.0037819904 0.021843996 0.014330565 -0.009665328 -0.010615142 -0.010975307 0.020959219
0.019699585 0.0115782805 -0.0124127995 -0.0059500565 0.02758251 0.064822026 0.036289815 -0.01614494
-0.015998779 -0.021758255 0.029064596 0.05094713 0.016094474 -0.015794843 -0.0078887 0.01031835
0.033405583 0.02443592 -0.039650146 -0.022675663 0.043129377 0.011628092 -0.0070212716 -0.027083507
-0.017855795 0.0035746298 -0.010619065 -0.04428539 -0.050843343 -0.052251823 -0.011876301 -0.022258561
-0.046689585 0.013262337 0.04256999 0.024656354 -0.002167679 -0.01590299 -0.0009316723 0.016209666
0.023325175 0.006773689 0.04785364 -0.00012070513 0.0143795 0.029324023 0.04453059 0.017749794
-0.0050693615 0.006909852 0.037811518 0.010950149 -0.019555854 -0.0077007124 -0.0033446255 -0.0038983084
0.010429774 -0.016422315 -0.027420856 -0.006978819 -0.050667647 -0.071329996 -0.066035666 -0.04932936

features.7.bias f4 [120]
00000000: 77fd 7c3c a974 a6bc 9686 6fbd 3c77 b8bc
00000010: 726c cdbb 902b 56bc 1b88 223d 4de2 c3bc
00000020: e3bf 1fbd d036 a03c b3d1 90bb 5629 16bc
00000030: d8c6 21bd b799 b5bb d2ff c4bb 814e 3a3d
00000040: 6489 93bc a16e 9a3d 3de8 3a3d ab61 343d
00000050: bd4f 4dbd c909 1fba 2059 b2ba 3be7 0f3b
00000060: 4aca cb3c 467d bdbb 1540 303b 4f7d 1ebc
00000070: f340 48bd 680c d938 4484 763d 204e 97bc
00000080: fb1d 3e3d e7cc 3fb9 47ea 8cbd 60dd 73bb
00000090: b31b 06bd 87aa 62ba 20b6 db3c 3127 19bc
000000a0: b596 903c e77d 76bc 0902 cfbc 2022 303d
000000b0: b7b2 d33b 7a8b 433a df8f 40bc a1fd 40bd
000000c0: 2e88 3abc 3cab cd39 1da4 dfbd 45be 45bc
000000d0: 18f4 0939 2ef5 1b3d c2d3 243d 30c6 613b
000000e0: fba6 fdbc 4c69 e5bc 0c76 113b 22a3 1d3d
000000f0: 0dd1 71bc 951a 20bd 259b f33d 911a d23c
00000100: 87f2 dfbb 3fbe 733c 0233 693d ac0e 9f3d
00000110: 8c3f d83d cb29 9bbc efeb b0bc b9cf 9fbc
00000120: 1694 2c3b 6ac0 38bc 88ec 8ebd b953 cd3d
00000130: 132e 96bd 7eca 80ba f33a 5fbd 31be 923c
00000140: 2c7f 923c f27e 5c3c c54b 223d 60ec 643d
00000150: 061d e5bb d17b 6fbd 587f 14bd 8bc5 60bc
00000160: 6e9c 83bc 961e 0f3c 7784 05bc c425 88bc
00000170: 7eb1 1ebd c7b3 a739 c33d ae3a 4fee 4b3a
00000180: f8a2 a03c 2baa f73c 6dc9 9f3c bcac 18bc
00000190: 6950 c9bc e725 203c a43b 3a39 b32f a73c
000001a0: 129b bc3b 4854 82bd 1a06 ec3c d5e4 afbb
000001b0: d6b9 adbc fc52 d2bc 702e 0abd 7cdc d6bc
000001c0: 134c 96bb 07cb 08bd 89df b23c 1860 163c
000001d0: fc0a 163d 3549 3cbb 3152 58ba 5f21 103a
0.01544129 -0.0203193 -0.05847796 -0.022517793 -0.006269031 -0.01307191 0.03968058 -0.02391162
-0.039001357 0.019557387 -0.0044195293 -0.009165129 -0.039496273 -0.005542006 -0.0060119415 0.045485023
-0.018009849 0.07540632 0.045631636 0.044038456 -0.050124872 -0.0006066827 -0.0013606884 0.0021957892
0.024876732 -0.005782756 0.0026893665 -0.009673431 -0.048890065 0.00010349677 0.060184732 -0.01846987
0.04641531 -0.00018291512 -0.06880622 -0.0037210807 -0.03274126 -0.00086466264 0.026820242 -0.009347723
0.017649988 -0.015044666 -0.025269525 0.043001294 0.0064605135 0.00074594433 -0.011753052 -0.04711688
-0.011385007 0.00039228227 -0.10919974 -0.01206929 0.0001315627 0.03807562 0.04024101 0.0034450404
-0.030963412 -0.028004311 0.0022195606 0.038485654 -0.014759314 -0.03908785 0.11894826 0.025647433
-0.0068343314 0.014876901 0.05693341 0.0776647 0.105589956 -0.018940827 -0.021596877 -0.01950823
0.0026333383 -0.011276344 -0.069787085 0.100257345 -0.07333007 -0.0009825972 -0.054499578 0.017912956
0.017882906 0.0134580005 0.03962304 0.055889487 -0.0069919853 -0.05846769 -0.036254257 -0.013718973
-0.016065802 0.00873532 -0.008149258 -0.01661957 -0.03874349 0.00031986667 0.0013293553 0.0007779346
0.01960896 0.03023251 0.019505227 -0.009318527 -0.024574475 0.009774662 0.0001776056 0.020408487
0.0057557905 -0.063637316 0.028811503 -0.005367855 -0.021206778 -0.025674336 -0.033735693 -0.026228182
-0.0045867055 -0.033396747 0.021835105 0.009178184 0.03663157 -0.0028730158 -0.00082519936 0.0005498137

features.9.weight f4 [84, 120]
00000000: 96ed 14bd bda5 71bc 2bb5 0e3d 5f07 94bc
00000010: 2a47 8cbc 818e 2d3c 3ae7 bcba d8b6 febb
00000020: 3d59 3b3d f687 3c3c 0362 05ba 317e 8cbc
00000030: 3310 063d bf0d 7e3b 454b d73b 9196 4b3c
00000040: 7ac6 b3bc 123f 123d f427 d33c 7157 133d
00000050: 0346 20bd d12f 543a a371 c5ba 5e86 87bc
00000060: 9887 a33c b39a c0bc b50f 473c ad28 30bb
00000070: 9af4 a9bc e3a6 333a e54f 8fbc a58e 8a3c
00000080: 1f76 803c 0909 3c3c a904 e53c f2a3 e0bb
00000090: 1139 453b 165b f83b a5dd 86bb ee7f 0cbd
000000a0: 3833 383c 5793 6fbc 9f7b 28bc f8c7 4a3c
000000b0: 0858 6a3c 910d bf3b ec26 2cbc 78ac 94bc
000000c0: 473d 9fbc d242 163b ba38 f3bc bf2c 0db8
000000d0: 1dcf 4cba 726b 993c 6aca 9abc bef2 d9b8
000000e0: abaa 00bb eb40 09bb 1da2 883c 19e5 eb3c
000000f0: 2bf2 b63b d1b4 f6bc 4881 113d 52cd 31bc
00000100: 2b33 89bb bb71 b13c 9fc5 883c 5d51 183c
00000110: 08fc 253d 7f98 883c 0457 f2bc bcb7 643a
00000120: 50c0 c5bb e2cb 6e3b 6689 ddbc 243c 823b
00000130: e2b9 fe3c 88ce dbbc c8b4 90bc ad01 f5bb
00000140: ca2d b13c 43cb 98bb d729 01bd 0ddc bc3d
00000150: 736b a83c 31af d538 f78c fdbc e854 4e3c
00000160: f803 34bb 4cb4 e3bc 61a2 38bb 5b13 08bd
00000170: cd73 c63c 57d0 623c 4bc9 6d3b f097 4ab9
00000180: 1f89 c63d 5ba9 cfbc 1205 1abb 5ea4 0fbd
00000190: 1b03 95bb c1e0 5fbc 3f12 c2bc ddf6 8e3c
000001a0: e046 04bd a73b b9ba 643e ffbc 9e92 95bc
000001b0: 3bc8 58bc 7c98 fdba a2e0 503a a14c d5bc
000001c0: f7db c2bc 4aae 4fbc b047 ca3c 81dc a53b
000001d0: b399 bcbc d067 1bb9 6e57 da3b 1f44 ac3b
000001e0: bf7e 08bb 5981 cdbc 8fc3 80bb c53a 303c
000001f0: 6481 59ba 3578 c9bb e7df 00bc c775 073c
00000200: f6e4 473c f5b8 0a3b 4b71 98bc 69d3 24b8
00000210: f58e 2ebb 9e79 e3bb 45b6 a3bc 8300 ad3a
00000220: 01a8 2b3c a2c3 963c 6626 283b c5cc 133c
00000230: dfb9 15bc 1c27 78bc b110 2bbb c84a 903c
00000240: 1869 f23b 1d29 a1ba 0f34 ab3a 1cce afbb
00000250: d359 3b3c fd6a 7c3b 953a 56bb 6a7b be3b
00000260: c6b3 a8bb a3ee 8cbc 0757 e33b d7cc a23a
00000270: 1b38 623c 0e98 e5bb 68d2 30bc ee01 43bb
00000280: 5dde 143c b4a6 76bb e311 20bc 86cd 12bc
00000290: 97ac b13a 1022 c73b ae82 92bc d82e 77b9
000002a0: 7b16 b5ba 785c 6e3c 107a 683a a8c1 293b
000002b0: 3b92 0d3b 49fe ebbb 7d97 95ba a812 393c
000002c0: fafb ad3b 691c 413c dbcb cb3c 5959 56bb
000002d0: c52b 5bbb 4a56 79bc c89c 253b 5cc0 13bc
000002e0: 0485 02bc ea4c c13b ffd9 38bb 71db 3abc
000002f0: e181 7abc 6348 5fbb 8c13 933b ed5a fa39
00000300: 8e2d 4fbb b2fd abbb 56fd a23b 2c81 5fbc
00000310: 02bf cbbc cf02 733c 3d30 f0b9 509e a8bc
00000320: 98c9 ce3b 4c01 803b e525 53bb a031 693b
00000330: a187 b03b de8b 32bc c97e 273c 0973 cdbb
00000340: f8ba 0cbb 102c 243a ef0f d2bc a33d 7c3c
00000350: bcc8 fcba 9151 f8ba 912d 0c3c 61c5 523c
00000360: b7e6 5ebb 5e13 95bb db26 393c 6237 b83c
00000370: 5ba8 953b 7509 41bb 0146 173c e65f aabb
00000380: 6b0f e6bb 11c1 843c 6c98 823c 4ddd 243c
00000390: 23a6 9cbb dabe 19bb ac54 03bc dc20 cb3b
000003a0: a68f 353c a0c4 01bc b241 afbc 3668 7e3c
000003b0: 139d e5b9 082e 9abb f750 003b a250 3ebc
000003c0: 8fd1 1d3d 039c 26bd f3cc b8bb 0451 ebbb
000003d0: 704c c9bb 2632 873c b1d5 8c3c 9942 11bc
000003e0: 9846 b2bc 7ca9 c4bc 5f9b f0b9 4d99 cdbc
000003f0: d1da 98bc 0c0a df3b 9726 233c 6f03 ed3c
-0.036359392 -0.014748988 0.034840744 -0.018069921 -0.017123777 0.010593058 -0.0014412173 -0.0077732615
0.0457394 0.011507025 -0.0005088152 -0.017150017 0.032730293 0.0038765518 0.006570252 0.012426035
-0.021945227 0.03570468 0.025775887 0.035972062 -0.03912927 0.00080942834 -0.0015063774 -0.016543563
0.019962117 -0.023511266 0.012149741 -0.0026879713 -0.020746518 0.0006853176 -0.017494151 0.016913721
0.015681325 0.0114767635 0.027956324 -0.0068554813 0.0030093829 0.0075792177 -0.0041157776 -0.03430169
0.01124268 -0.014622531 -0.01028338 0.012376778 0.014303215 0.0058304747 -0.010507327 -0.018148646
-0.019438399 0.0022928012 -0.029690135 -3.3658693e-05 -0.00078128447 0.018727992 -0.018895347 -0.000103925806
-0.0019632976 -0.0020943235 0.016678864 0.028795766 0.005583068 -0.030115517 0.035523683 -0.010852175
-0.004187008 0.021660676 0.016695796 0.009296742 0.04052356 0.016674278 -0.029582508 0.00087248883
-0.0060348883 0.0036437442 -0.027043056 0.0039744545 0.031094495 -0.02683188 -0.017664328 -0.0074770064
0.02162828 -0.0046629026 -0.031534042 0.09221659 0.020559048 0.000101892634 -0.030951006 0.012593485
-0.0027468186 -0.027795933 -0.0028172957 -0.033221584 0.02422514 0.013843617 0.003628331 -0.00019320822
0.096941225 -0.02534931 -0.0023501557 -0.035068862 -0.0045474893 -0.013664425 -0.023690341 0.017451698
-0.032294154 -0.0014132158 -0.03115768 -0.01825839 -0.013231332 -0.0019347812 0.0007968043 -0.026037516
-0.023786528 -0.012675831 0.024692386 0.0050616865 -0.023022508 -0.00014820625 0.0066632545 0.005257144
-0.00208275 -0.025086092 -0.0039295624 0.010756199 -0.0008297174 -0.006148363 -0.0078658825 0.008267826
0.012200585 0.0021167372 -0.01860871 -3.9297538e-05 -0.0026635502 -0.006941988 -0.019984374 0.0013199005
0.010477067 0.018403832 0.0025657653 0.009020989 -0.009138553 -0.015146043 -0.0026102478 0.017613783
0.007397782 -0.0012295578 0.0013061779 -0.0053651463 0.01143499 0.0038515918 -0.0032688726 0.005813052
-0.005148384 -0.017203635 0.0069378647 0.0012420666 0.013807322 -0.0070066517 -0.010792352 -0.002975579
0.009086219 -0.0037635984 -0.0097698895 -0.008960133 0.0013555464 0.0060770586 -0.017884579 -0.00023573206
-0.0013815904 0.014548413 0.00088682864 0.0025902782 0.0021602053 -0.007201944 -0.0011412945 0.011295952
0.005309579 0.011786559 0.02487748 -0.0032707064 -0.0033442837 -0.015218327 0.002527045 -0.00901803
-0.007966284 0.0058990614 -0.0028206108 -0.011404858 -0.015289755 -0.0034070245 0.004488414 0.0004775146
-0.0031612846 -0.0052487487 0.0049740477 -0.013641637 -0.024871353 0.014832213 -0.00045812308 -0.020583302
0.006310653 0.0039064046 -0.0032218632 0.0035582557 0.005387262 -0.010897605 0.010223099 -0.006269817
-0.0021473747 0.00062626693 -0.025642363 0.015395555 -0.0019285898 -0.0018945207 0.008555786 0.012864442
-0.0034012028 -0.004549428 0.011300768 0.022487346 0.0045671887 -0.00294551 0.009232999 -0.0051994203
-0.007020881 0.016205342 0.015941821 0.010062528 -0.004780547 -0.0023459704 -0.008015793 0.0061989855
0.011081612 -0.007920414 -0.02139363 0.0155277755 -0.00043795313 -0.0047051944 0.0019579509 -0.011615904
0.03852993 -0.040676128 -0.005639666 -0.0071812887 -0.0061431453 0.016503405 0.01719174 -0.008865976
-0.021762177 -0.024006598 -0.00045892128 -0.025097514 -0.018659027 0.0068066176 0.009957931 0.028932301

features.9.bias f4 [84]
00000000: ce29 103e 3774 04bc 2b74 983d 8959 86bb
00000010: 74d5 bb3d d702 a43e 8b25 373c 899d 0d3e
00000020: 9fb3 bd3a 2773 c63e e10f 563d 9c83 aa3d
00000030: 5d55 89bd 324c bf3e aaac e63d 3217 8fbb
00000040: 219a b73d 77b5 de38 aa7c 9f3d aa67 493e
00000050: f899 3b3e d627 8d3d 406c 433e f466 263e
00000060: 484a 6ebb 0041 f8ba d940 e4ba 77e8 7dbd
00000070: 3b94 2eba 25ed 23ba 616c 26bb 0960 263d
00000080: 79aa de3d 57a6 8b3c 218e a13d f978 7f3c
00000090: ffbf ab3d cd10 c73c 0f34 723d 3f0c d53d
000000a0: 0fe4 d9bb 2b54 1d3e 2b29 4f3e a7f1 cebb
000000b0: 600e 863d 6c31 bcbb c099 e63c ac18 e93c
000000c0: 14d6 643e 53d9 033d 2418 86bd 9ebe 55bd
000000d0: 5ec0 be3b ff7b 9e3d 0fbe e93d 1777 083c
000000e0: 283c 5c3b 10c3 813e 2c8d 753a 58a7 343e
000000f0: f9ab 8b3c becd 2b3e 1c13 183e effd babb
00000100: 5b0e 2e3c 8787 5b3d e3ba d5ba 995b 30be
00000110: 7332 be3d 4581 283c 881d beba 39a0 8c3e
00000120: 96b2 093b 6f01 403e 7a24 933d a942 5b3d
00000130: 49c7 333e 5d7e 093d 4337 aabb 2688 f0bc
00000140: c6f0 ad3c deb2 34be a69b 20bc 27d3 a33d
0.14078447 -0.008084348 0.07444032 -0.004100029 0.09171572 0.32033417 0.011178385 0.13829626
0.0014473087 0.3875973 0.052261237 0.08325884 -0.06705735 0.3736282 0.11263402 -0.004366779
0.08964945 0.000106195854 0.0778745 0.19668451 0.18320453 0.06892364 0.19084263 0.16250211
-0.0036360193 -0.001894027 -0.0017414346 -0.061989274 -0.00066596613 -0.0006253294 -0.0025394189 0.04061893
0.10872359 0.01704709 0.07888437 0.015592807 0.0838623 0.024300003 0.05913168 0.104027264
-0.006649501 0.15364139 0.20230548 -0.0063154283 0.065457106 -0.0057431962 0.028149486 0.028454147
0.2234729 0.03218968 -0.06547573 -0.05218374 0.005821272 0.07738494 0.11413204 0.0083291745
0.0033605192 0.25344133 0.00093670445 0.17641962 0.017049776 0.16777703 0.1485104 -0.005706541
0.01062354 0.053596046 -0.0016306307 -0.17222442 0.09286966 0.0102847265 -0.0014504651 0.2746599
0.0021010987 0.18750547 0.07184692 0.05353037 0.1755649 0.033567775 -0.005194576 -0.029361796
0.021232974 -0.17646357 -0.0098027345 0.079992585

classifiers.0.weight f4 [5, 84]
00000000: 7671 bfbd 51ba 783b 2a8e c93d 0604 543b
00000010: 6cf3 6a3e e9de 0dbf 81e0 2bbc b296 48be
00000020: 92fb 05bc 1d99 b3be 75d3 19bd 9089 103e
00000030: b277 953d faf5 8bbe 31b1 69bd b1dd bb3b
00000040: 0db2 be3c e9b0 bc3b 9672 1b3d 27b2 3a3e
00000050: a332 bf3e f2ac 05bd 7a50 dd3d 5ed6 563d
00000060: 075c d13b 564f d53c 5b68 7b3b e024 373d
00000070: 2eee 503b 2d15 2a3c 89e5 ecba 0c21 ba3d
00000080: 485d 5fbd 3e74 3f3c df58 093e 86d5 813b
00000090: 4453 b8bd ceb0 0b3e 20b6 103e c966 8dbe
000000a0: 0c17 81bc f3c9 3e3e 845c 84bd 4340 b4bc
000000b0: 6d16 263e 639c e6bb dbbc b23d 3a46 783e
000000c0: 14f8 873e df7e 08bd 809a c0be b49f 8d3d
000000d0: bf50 13bc 1de9 41bc 995a 883d 62a1 933d
000000e0: aaf9 52bc 352a 83bd 9640 733c b03c 1cbe
000000f0: ef7b af3d 7c49 93bd 3a5b 8d3e 0842 1c3c
00000100: ad98 853c 29c9 023e d7c6 5f3c f2c5 1d3e
00000110: 88f0 343e 6aa1 9eb9 45ab 8ebb b9ce acbd
00000120: 9bcd 893c 897a 2abb b590 fe3d d0d6 113e
00000130: 4d97 fd3c 0a77 95bc 0d11 d33b 9f74 32be
00000140: fd4a 3b3e 0957 56be 1c6a e7bb f8b0 243e
00000150: bf7d 373e 8049 f1bb 7da6 ac3c 9f11 323c
00000160: 4cee 1abe a675 403e d8ee 7b3a c569 f5bd
00000170: 6692 a6bb 43e2 4a3e 4bb6 a03d b94e ddbc
00000180: 3b30 f1bd 65ed 023f ed80 ff3d ee92 09bc
00000190: 6b23 be3d c681 76bc 0aaa 14bc 859e 28be
000001a0: 54f0 95be c578 7a3d 92c8 c43d 613c 4cbe
000001b0: 1b44 63b9 98e3 67bc 8771 93bb 8a90 02be
000001c0: 3354 c73a 9200 9f3a 77c2 0cbb 9860 53bd
000001d0: 487a 2b3e b777 37bc 22d1 edbc 7db4 1abb
000001e0: 6a52 31bd c33d 41be dbdd 8bbd e5f8 923e
000001f0: 875b 32bb 5838 023d 1aed 813e 8d95 72bb
00000200: ea43 d2be 7d92 003d 25f7 b8bd 83b7 96be
00000210: 007b 633d 63b8 45bd f81f c0bc 4523 f2bd
00000220: e804 c93c 56de b63d 79e3 d1be 89be a1be
00000230: 77e4 29bb 09ef a43e a6db 8e3b f62a 533e
00000240: 703c 96bd 80d0 463e 1bc4 c3be 3128 afbb
00000250: e75f 7a3c e3c7 4cbd 662c 1bbc 41c7 3abe
00000260: 9737 0abf fa98 16bd e668 4fbc 4d1e bb3e
00000270: 567b 4d3c d7a5 5a3e e4e1 d5bc 2c3d 09bd
00000280: 9eb1 c43b 5dcc ec3c e70d b03b 2261 ee3c
00000290: 66e5 f0bd c532 3bbe cffa 01bc a2d2 89bd
000002a0: 65ba 1bbe 09b9 103c 3586 b13d 4b73 53bb
000002b0: 9359 543d 70fa a1bd 2c60 883d fa0d 1fbd
000002c0: 2ae9 773c 5f37 93be 4bec 003c 6afb 17bc
000002d0: 5984 f0bc e350 b9be f92d 02be 2ffb c6bc
000002e0: b708 f6bc 259e 46bc 0268 0a3e 4df1 763e
000002f0: 4dbe b13e cc96 76bd a24a f63d 18f3 023d
00000300: f43e 683d 522b b93c fe17 b23b c4e4 23bc
00000310: a7cc cbbc 2985 e13b 59d3 9ebc 0f0f bfbc
00000320: 73c5 0cbe edff 45bd dcaa ccbc 00b0 64bd
00000330: 199b 683e 49ad 4f3d e239 0e3d 648f 0d3d
00000340: f7f8 a33c cde1 c23d a914 27be c0c7 953b
00000350: c377 f33d ebfe 8c3d 3873 1e3e 363a 1abd
00000360: 4023 77bc 9e56 1abc b4ee 98bd 25fe 743c
00000370: b787 4f3c bbe2 82bd ece1 b53e cffc 833d
00000380: 06da 0e3c 9852 1bbe 44a6 ef3b 6dce adbe
00000390: 72a7 99bc a060 b6bd 0457 193e 2876 713c
000003a0: 978e 88b9 f60e 583c 2493 44bc ecda 0bbd
000003b0: 88f7 7f3e 9166 393d b227 993a a80f 5fbe
000003c0: 9f9c 84bb 2258 c4bd 61e3 e9bc 03c4 363d
000003d0: 6ed0 373e 1143 8bbd 7772 2d3c c9e0 c03d
000003e0: 8e07 573e 152c 153e 2bcf adbc 5eb7 7b3d
000003f0: a1dc 83bc f149 89bc 7cc1 abbc c462 eb3a
-0.09347813 0.003795285 0.09841569 0.003235103 0.2294442 -0.5541826 -0.010490538 -0.19588736
-0.008177655 -0.35077754 -0.037555177 0.14114976 0.07298221 -0.27336103 -0.05705375 0.005733215
0.02327826 0.005758394 0.037951075 0.18232022 0.3734332 -0.032635637 0.10806365 0.05245053
0.0063891443 0.026038807 0.0038361761 0.0447129 0.0031880247 0.010381025 -0.0018073778 0.090883344
-0.05453232 0.011685429 0.13412808 0.0039622216 -0.09000257 0.13641664 0.14131975 -0.2761748
-0.01575806 0.18631725 -0.064629585 -0.022003299 0.16219492 -0.0070376857 0.087274276 0.2424554
0.26556456 -0.03332412 -0.37617874 0.069152266 -0.008991419 -0.011835364 0.06657905 0.07208516
-0.012876907 -0.06404535 0.014846941 -0.15257525 0.0856856 -0.071917504 0.27608663 0.009537227
0.016308153 0.12772049 0.013658247 0.15407541 0.1766988 -0.0003025637 -0.004353913 -0.08437867
0.016821673 -0.0026012978 0.124299444 0.142421 0.030955935 -0.018245239 0.0064412416 -0.174273
0.18290325 -0.20931639 -0.00706221 0.16083133 0.17919062 -0.007363498 0.021075482 0.010868459
-0.15129966 0.1879488 0.00096104806 -0.119830646 -0.00508337 0.19812874 0.078472696 -0.027015077
-0.11776777 0.51143485 0.124757625 -0.008396847 0.09284099 -0.015045589 -0.009073744 -0.1646672
-0.29284918 0.06115033 0.09608568 -0.19944908 -0.00021673778 -0.014153384 -0.0044996175 -0.1275045
0.0015207588 0.0012130907 -0.0021478215 -0.05160579 0.16745865 -0.011197976 -0.029030386 -0.0023606115
-0.043291487 -0.18871216 -0.06829425 0.28705516 -0.00272152 0.031792015 0.25376207 -0.0037015409
-0.4106744 0.031389702 -0.09031514 -0.29436883 0.055537224 -0.048271548 -0.023452744 -0.118231334
0.024538472 0.08929126 -0.4099386 -0.3159068 -0.002592353 0.3221362 0.00435968 0.20621857
-0.07335746 0.19415474 -0.38235554 -0.0053453674 0.015281654 -0.049995314 -0.009471035 -0.18240072
-0.53991073 -0.036766984 -0.012659287 0.36546555 0.012541613 0.21352325 -0.02610869 -0.033505604
0.006002619 0.028906042 0.005372751 0.02909905 -0.11762504 -0.18281086 -0.007933333 -0.06729628
-0.15207823 0.008833178 0.08668176 -0.0032264765 0.051843237 -0.07909095 0.06658968 -0.03883169
0.015131274 -0.28753182 0.007868837 -0.00927625 -0.029359983 -0.36194524 -0.1271285 -0.024289696
-0.030033452 -0.0121226655 0.13516238 0.24115486 0.347155 -0.060202405 0.12025954 0.031970114
0.05670066 0.022603665 0.005434989 -0.010003272 -0.02487786 0.006882329 -0.019387888 -0.02332261
-0.13747196 -0.048339773 -0.024983816 -0.05583191 0.22715415 0.050702367 0.03472317 0.034560576
0.020016177 0.09515724 -0.16316475 0.004570931 0.11888077 0.06884559 0.1547364 -0.03765317
-0.015084088 -0.009420065 -0.07467404 0.014953171 0.012666634 -0.06390902 0.35523927 0.06444704
0.008718973 -0.15168226 0.0073135216 -0.33946553 -0.018756602 -0.089051485 0.149746 0.014737643
-0.0002604618 0.013187161 -0.011997972 -0.034144327 0.2499677 0.04526383 0.0011684804 -0.21783316
-0.004046991 -0.095871225 -0.028550806 0.044620525 0.17950603 -0.06799901 0.010586373 0.09417874
0.20998976 0.14567597 -0.02121695 0.06145417 -0.016096415 -0.01675889 -0.020966284 0.0017958512

classifiers.0.bias f4 [5]
00000000: 5d7f 3fbf 0c6c 943f 50bd 99bc 8c12 2b3e
00000010: a84f 0fbf
-0.74803716 1.1595473 -0.018767029 0.16706294 -0.5598092

classifier.weight f4 [5, 84]
00000000: 7671 bfbd 51ba 783b 2a8e c93d 0604 543b
00000010: 6cf3 6a3e e9de 0dbf 81e0 2bbc b296 48be
00000020: 92fb 05bc 1d99 b3be 75d3 19bd 9089 103e
00000030: b277 953d faf5 8bbe 31b1 69bd b1dd bb3b
00000040: 0db2 be3c e9b0 bc3b 9672 1b3d 27b2 3a3e
00000050: a332 bf3e f2ac 05bd 7a50 dd3d 5ed6 563d
00000060: 075c d13b 564f d53c 5b68 7b3b e024 373d
00000070: 2eee 503b 2d15 2a3c 89e5 ecba 0c21 ba3d
00000080: 485d 5fbd 3e74 3f3c df58 093e 86d5 813b
00000090: 4453 b8bd ceb0 0b3e 20b6 103e c966 8dbe
000000a0: 0c17 81bc f3c9 3e3e 845c 84bd 4340 b4bc
000000b0: 6d16 263e 639c e6bb dbbc b23d 3a46 783e
000000c0: 14f8 873e df7e 08bd 809a c0be b49f 8d3d
000000d0: bf50 13bc 1de9 41bc 995a 883d 62a1 933d
000000e0: aaf9 52bc 352a 83bd 9640 733c b03c 1cbe
000000f0: ef7b af3d 7c49 93bd 3a5b 8d3e 0842 1c3c
00000100: ad98 853c 29c9 023e d7c6 5f3c f2c5 1d3e
00000110: 88f0 343e 6aa1 9eb9 45ab 8ebb b9ce acbd
00000120: 9bcd 893c 897a 2abb b590 fe3d d0d6 113e
00000130: 4d97 fd3c 0a77 95bc 0d11 d33b 9f74 32be
00000140: fd4a 3b3e 0957 56be 1c6a e7bb f8b0 243e
00000150: bf7d 373e 8049 f1bb 7da6 ac3c 9f11 323c
00000160: 4cee 1abe a675 403e d8ee 7b3a c569 f5bd
00000170: 6692 a6bb 43e2 4a3e 4bb6 a03d b94e ddbc
00000180: 3b30 f1bd 65ed 023f ed80 ff3d ee92 09bc
00000190: 6b23 be3d c681 76bc 0aaa 14bc 859e 28be
000001a0: 54f0 95be c578 7a3d 92c8 c43d 613c 4cbe
000001b0: 1b44 63b9 98e3 67bc 8771 93bb 8a90 02be
000001c0: 3354 c73a 9200 9f3a 77c2 0cbb 9860 53bd
000001d0: 487a 2b3e b777 37bc 22d1 edbc 7db4 1abb
000001e0: 6a52 31bd c33d 41be dbdd 8bbd e5f8 923e
000001f0: 875b 32bb 5838 023d 1aed 813e 8d95 72bb
00000200: ea43 d2be 7d92 003d 25f7 b8bd 83b7 96be
00000210: 007b 633d 63b8 45bd f81f c0bc 4523 f2bd
00000220: e804 c93c 56de b63d 79e3 d1be 89be a1be
00000230: 77e4 29bb 09ef a43e a6db 8e3b f62a 533e
00000240: 703c 96bd 80d0 463e 1bc4 c3be 3128 afbb
00000250: e75f 7a3c e3c7 4cbd 662c 1bbc 41c7 3abe
00000260: 9737 0abf fa98 16bd e668 4fbc 4d1e bb3e
00000270: 567b 4d3c d7a5 5a3e e4e1 d5bc 2c3d 09bd
00000280: 9eb1 c43b 5dcc ec3c e70d b03b 2261 ee3c
00000290: 66e5 f0bd c532 3bbe cffa 01bc a2d2 89bd
000002a0: 65ba 1bbe 09b9 103c 3586 b13d 4b73 53bb
000002b0: 9359 543d 70fa a1bd 2c60 883d fa0d 1fbd
000002c0: 2ae9 773c 5f37 93be 4bec 003c 6afb 17bc
000002d0: 5984 f0bc e350 b9be f92d 02be 2ffb c6bc
000002e0: b708 f6bc 259e 46bc 0268 0a3e 4df1 763e
000002f0: 4dbe b13e cc96 76bd a24a f63d 18f3 023d
00000300: f43e 683d 522b b93c fe17 b23b c4e4 23bc
00000310: a7cc cbbc 2985 e13b 59d3 9ebc 0f0f bfbc
00000320: 73c5 0cbe edff 45bd dcaa ccbc 00b0 64bd
00000330: 199b 683e 49ad 4f3d e239 0e3d 648f 0d3d
00000340: f7f8 a33c cde1 c23d a914 27be c0c7 953b
00000350: c377 f33d ebfe 8c3d 3873 1e3e 363a 1abd
00000360: 4023 77bc 9e56 1abc b4ee 98bd 25fe 743c
00000370: b787 4f3c bbe2 82bd ece1 b53e cffc 833d
00000380: 06da 0e3c 9852 1bbe 44a6 ef3b 6dce adbe
00000390: 72a7 99bc a060 b6bd 0457 193e 2876 713c
000003a0: 978e 88b9 f60e 583c 2493 44bc ecda 0bbd
000003b0: 88f7 7f3e 9166 393d b227 993a a80f 5fbe
000003c0: 9f9c 84bb 2258 c4bd 61e3 e9bc 03c4 363d
000003d0: 6ed0 373e 1143 8bbd 7772 2d3c c9e0 c03d
000003e0: 8e07 573e 152c 153e 2bcf adbc 5eb7 7b3d
000003f0: a1dc 83bc f149 89bc 7cc1 abbc c462 eb3a
-0.09347813 0.003795285 0.09841569 0.003235103 0.2294442 -0.5541826 -0.010490538 -0.19588736
-0.008177655 -0.35077754 -0.037555177 0.14114976 0.07298221 -0.27336103 -0.05705375 0.005733215
0.02327826 0.005758394 0.037951075 0.18232022 0.3734332 -0.032635637 0.10806365 0.05245053
0.0063891443 0.026038807 0.0038361761 0.0447129 0.0031880247 0.010381025 -0.0018073778 0.090883344
-0.05453232 0.011685429 0.13412808 0.0039622216 -0.09000257 0.13641664 0.14131975 -0.2761748
-0.01575806 0.18631725 -0.064629585 -0.022003299 0.16219492 -0.0070376857 0.087274276 0.2424554
0.26556456 -0.03332412 -0.37617874 0.069152266 -0.008991419 -0.011835364 0.06657905 0.07208516
-0.012876907 -0.06404535 0.014846941 -0.15257525 0.0856856 -0.071917504 0.27608663 0.009537227
0.016308153 0.12772049 0.013658247 0.15407541 0.1766988 -0.0003025637 -0.004353913 -0.08437867
0.016821673 -0.0026012978 0.124299444 0.142421 0.030955935 -0.018245239 0.0064412416 -0.174273
0.18290325 -0.20931639 -0.00706221 0.16083133 0.17919062 -0.007363498 0.021075482 0.010868459
-0.15129966 0.1879488 0.00096104806 -0.119830646 -0.00508337 0.19812874 0.078472696 -0.027015077
-0.11776777 0.51143485 0.124757625 -0.008396847 0.09284099 -0.015045589 -0.009073744 -0.1646672
-0.29284918 0.06115033 0.09608568 -0.19944908 -0.00021673778 -0.014153384 -0.0044996175 -0.1275045
0.0015207588 0.0012130907 -0.0021478215 -0.05160579 0.16745865 -0.011197976 -0.029030386 -0.0023606115
-0.043291487 -0.18871216 -0.06829425 0.28705516 -0.00272152 0.031792015 0.25376207 -0.0037015409
-0.4106744 0.031389702 -0.09031514 -0.29436883 0.055537224 -0.048271548 -0.023452744 -0.118231334
0.024538472 0.08929126 -0.4099386 -0.3159068 -0.002592353 0.3221362 0.00435968 0.20621857
-0.07335746 0.19415474 -0.38235554 -0.0053453674 0.015281654 -0.049995314 -0.009471035 -0.18240072
-0.53991073 -0.036766984 -0.012659287 0.36546555 0.012541613 0.21352325 -0.02610869 -0.033505604
0.006002619 0.028906042 0.005372751 0.02909905 -0.11762504 -0.18281086 -0.007933333 -0.06729628
-0.15207823 0.008833178 0.08668176 -0.0032264765 0.051843237 -0.07909095 0.06658968 -0.03883169
0.015131274 -0.28753182 0.007868837 -0.00927625 -0.029359983 -0.36194524 -0.1271285 -0.024289696
-0.030033452 -0.0121226655 0.13516238 0.24115486 0.347155 -0.060202405 0.12025954 0.031970114
0.05670066 0.022603665 0.005434989 -0.010003272 -0.02487786 0.006882329 -0.019387888 -0.02332261
-0.13747196 -0.048339773 -0.024983816 -0.05583191 0.22715415 0.050702367 0.03472317 0.034560576
0.020016177 0.09515724 -0.16316475 0.004570931 0.11888077 0.06884559 0.1547364 -0.03765317
-0.015084088 -0.009420065 -0.07467404 0.014953171 0.012666634 -0.06390902 0.35523927 0.06444704
0.008718973 -0.15168226 0.0073135216 -0.33946553 -0.018756602 -0.089051485 0.149746 0.014737643
-0.0002604618 0.013187161 -0.011997972 -0.034144327 0.2499677 0.04526383 0.0011684804 -0.21783316
-0.004046991 -0.095871225 -0.028550806 0.044620525 0.17950603 -0.06799901 0.010586373 0.09417874
0.20998976 0.14567597 -0.02121695 0.06145417 -0.016096415 -0.01675889 -0.020966284 0.0017958512

classifier.bias f4 [5]
00000000: 5d7f 3fbf 0c6c 943f 50bd 99bc 8c12 2b3e
00000010: a84f 0fbf
-0.74803716 1.1595473 -0.018767029 0.16706294 -0.5598092

features.7 f4 [120]
00000000: 77fd 7c3c a974 a6bc 9686 6fbd 3c77 b8bc
00000010: 726c cdbb 902b 56bc 1b88 223d 4de2 c3bc
00000020: e3bf 1fbd d036 a03c b3d1 90bb 5629 16bc
00000030: d8c6 21bd b799 b5bb d2ff c4bb 814e 3a3d
00000040: 6489 93bc a16e 9a3d 3de8 3a3d ab61 343d
00000050: bd4f 4dbd c909 1fba 2059 b2ba 3be7 0f3b
00000060: 4aca cb3c 467d bdbb 1540 303b 4f7d 1ebc
00000070: f340 48bd 680c d938 4484 763d 204e 97bc
00000080: fb1d 3e3d e7cc 3fb9 47ea 8cbd 60dd 73bb
00000090: b31b 06bd 87aa 62ba 20b6 db3c 3127 19bc
000000a0: b596 903c e77d 76bc 0902 cfbc 2022 303d
000000b0: b7b2 d33b 7a8b 433a df8f 40bc a1fd 40bd
000000c0: 2e88 3abc 3cab cd39 1da4 dfbd 45be 45bc
000000d0: 18f4 0939 2ef5 1b3d c2d3 243d 30c6 613b
000000e0: fba6 fdbc 4c69 e5bc 0c76 113b 22a3 1d3d
000000f0: 0dd1 71bc 951a 20bd 259b f33d 911a d23c
00000100: 87f2 dfbb 3fbe 733c 0233 693d ac0e 9f3d
00000110: 8c3f d83d cb29 9bbc efeb b0bc b9cf 9fbc
00000120: 1694 2c3b 6ac0 38bc 88ec 8ebd b953 cd3d
00000130: 132e 96bd 7eca 80ba f33a 5fbd 31be 923c
00000140: 2c7f 923c f27e 5c3c c54b 223d 60ec 643d
00000150: 061d e5bb d17b 6fbd 587f 14bd 8bc5 60bc
00000160: 6e9c 83bc 961e 0f3c 7784 05bc c425 88bc
00000170: 7eb1 1ebd c7b3 a739 c33d ae3a 4fee 4b3a
00000180: f8a2 a03c 2baa f73c 6dc9 9f3c bcac 18bc
00000190: 6950 c9bc e725 203c a43b 3a39 b32f a73c
000001a0: 129b bc3b 4854 82bd 1a06 ec3c d5e4 afbb
000001b0: d6b9 adbc fc52 d2bc 702e 0abd 7cdc d6bc
000001c0: 134c 96bb 07cb 08bd 89df b23c 1860 163c
000001d0: fc0a 163d 3549 3cbb 3152 58ba 5f21 103a
0.01544129 -0.0203193 -0.05847796 -0.022517793 -0.006269031 -0.01307191 0.03968058 -0.02391162
-0.039001357 0.019557387 -0.0044195293 -0.009165129 -0.039496273 -0.005542006 -0.0060119415 0.045485023
-0.018009849 0.07540632 0.045631636 0.044038456 -0.050124872 -0.0006066827 -0.0013606884 0.0021957892
0.024876732 -0.005782756 0.0026893665 -0.009673431 -0.048890065 0.00010349677 0.060184732 -0.01846987
0.04641531 -0.00018291512 -0.06880622 -0.0037210807 -0.03274126 -0.00086466264 0.026820242 -0.009347723
0.017649988 -0.015044666 -0.025269525 0.043001294 0.0064605135 0.00074594433 -0.011753052 -0.04711688
-0.011385007 0.00039228227 -0.10919974 -0.01206929 0.0001315627 0.03807562 0.04024101 0.0034450404
-0.030963412 -0.028004311 0.0022195606 0.038485654 -0.014759314 -0.03908785 0.11894826 0.025647433
-0.0068343314 0.014876901 0.05693341 0.0776647 0.105589956 -0.018940827 -0.021596877 -0.01950823
0.0026333383 -0.011276344 -0.069787085 0.100257345 -0.07333007 -0.0009825972 -0.054499578 0.017912956
0.017882906 0.0134580005 0.03962304 0.055889487 -0.0069919853 -0.05846769 -0.036254257 -0.013718973
-0.016065802 0.00873532 -0.008149258 -0.01661957 -0.03874349 0.00031986667 0.0013293553 0.0007779346
0.01960896 0.03023251 0.019505227 -0.009318527 -0.024574475 0.009774662 0.0001776056 0.020408487
0.0057557905 -0.063637316 0.028811503 -0.005367855 -0.021206778 -0.025674336 -0.033735693 -0.026228182
-0.0045867055 -0.033396747 0.021835105 0.009178184 0.03663157 -0.0028730158 -0.00082519936 0.0005498137

features.9 f4 [84]
00000000: ce29 103e 3774 04bc 2b74 983d 8959 86bb
00000010: 74d5 bb3d d702 a43e 8b25 373c 899d 0d3e
00000020: 9fb3 bd3a 2773 c63e e10f 563d 9c83 aa3d
00000030: 5d55 89bd 324c bf3e aaac e63d 3217 8fbb
00000040: 219a b73d 77b5 de38 aa7c 9f3d aa67 493e
00000050: f899 3b3e d627 8d3d 406c 433e f466 263e
00000060: 484a 6ebb 0041 f8ba d940 e4ba 77e8 7dbd
00000070: 3b94 2eba 25ed 23ba 616c 26bb 0960 263d
00000080: 79aa de3d 57a6 8b3c 218e a13d f978 7f3c
00000090: ffbf ab3d cd10 c73c 0f34 723d 3f0c d53d
000000a0: 0fe4 d9bb 2b54 1d3e 2b29 4f3e a7f1 cebb
000000b0: 600e 863d 6c31 bcbb c099 e63c ac18 e93c
000000c0: 14d6 643e 53d9 033d 2418 86bd 9ebe 55bd
000000d0: 5ec0 be3b ff7b 9e3d 0fbe e93d 1777 083c
000000e0: 283c 5c3b 10c3 813e 2c8d 753a 58a7 343e
000000f0: f9ab 8b3c becd 2b3e 1c13 183e effd babb
00000100: 5b0e 2e3c 8787 5b3d e3ba d5ba 995b 30be
00000110: 7332 be3d 4581 283c 881d beba 39a0 8c3e
00000120: 96b2 093b 6f01 403e 7a24 933d a942 5b3d
00000130: 49c7 333e 5d7e 093d 4337 aabb 2688 f0bc
00000140: c6f0 ad3c deb2 34be a69b 20bc 27d3 a33d
0.14078447 -0.008084348 0.07444032 -0.004100029 0.09171572 0.32033417 0.011178385 0.13829626
0.0014473087 0.3875973 0.052261237 0.08325884 -0.06705735 0.3736282 0.11263402 -0.004366779
0.08964945 0.000106195854 0.0778745 0.19668451 0.18320453 0.06892364 0.19084263 0.16250211
-0.0036360193 -0.001894027 -0.0017414346 -0.061989274 -0.00066596613 -0.0006253294 -0.0025394189 0.04061893
0.10872359 0.01704709 0.07888437 0.015592807 0.0838623 0.024300003 0.05913168 0.104027264
-0.006649501 0.15364139 0.20230548 -0.0063154283 0.065457106 -0.0057431962 0.028149486 0.028454147
0.2234729 0.03218968 -0.06547573 -0.05218374 0.005821272 0.07738494 0.11413204 0.0083291745
0.0033605192 0.25344133 0.00093670445 0.17641962 0.017049776 0.16777703 0.1485104 -0.005706541
0.01062354 0.053596046 -0.0016306307 -0.17222442 0.09286966 0.0102847265 -0.0014504651 0.2746599
0.0021010987 0.18750547 0.07184692 0.05353037 0.1755649 0.033567775 -0.005194576 -0.029361796
0.021232974 -0.17646357 -0.0098027345 0.079992585
