checkpoints_lenet5/CPG_single_scratch_woexp/lenet5/food_containers/gradual_prune/0.7/checkpoint-20.pth.tar (torch, 316557 bytes, 28 tensors)

features.0.weight f4 [6, 3, 5, 5]
000000 00 00 00 00 00 00 00 00 00 00 00 00 c3 17 e5 be
       0.0 0.0 0.0 -0.4474469
000010 cf eb 0b bf c9 21 81 3e 00 00 00 00 00 00 00 00
       -0.5465669 0.2522109 0.0 0.0
000020 92 a7 a1 be 00 00 00 00 00 00 00 00 00 00 00 00
       -0.31573159 0.0 0.0 0.0
000030 00 00 00 00 00 00 00 00 00 00 00 00 00 00 00 00
       0.0 0.0 0.0 0.0
000040 00 00 00 00 00 00 00 00 00 00 00 00 00 00 00 00
       0.0 0.0 0.0 0.0
000050 00 00 00 00 00 00 00 00 00 00 00 00 5d 24 7b 3e
       0.0 0.0 0.0 0.2452559
000060 ce 37 8a 3e 00 00 00 00 00 00 00 00 e2 0b 57 3e
       0.269957 0.0 0.0 0.21000627
000070 00 00 00 00 00 00 00 00 00 00 00 00 00 00 00 00
       0.0 0.0 0.0 0.0
000080 00 00 00 00 00 00 00 00 00 00 00 00 00 00 00 00
       0.0 0.0 0.0 0.0
000090 fe 09 d0 be 00 00 00 00 00 00 00 00 00 00 00 00
       -0.40632623 0.0 0.0 0.0
0000a0 00 00 00 00 00 00 00 00 00 00 00 00 00 00 00 00
       0.0 0.0 0.0 0.0
0000b0 00 00 00 00 00 00 00 00 00 00 00 00 00 00 00 00
       0.0 0.0 0.0 0.0
0000c0 00 00 00 00 82 83 7c 3e 74 f2 c7 be 00 00 00 00
       0.0 0.24659541 -0.39052165 0.0
0000d0 91 a1 ca be 00 00 00 00 00 00 00 00 00 00 00 00
       -0.3957639 0.0 0.0 0.0
0000e0 00 00 00 00 1b a5 fb be 30 74 a4 be 00 00 00 00
       0.0 -0.49149403 -0.32119894 0.0
0000f0 31 ee d0 be 00 00 00 00 48 80 ac be 00 00 00 00
       -0.40806726 0.0 -0.3369162 0.0
000100 00 00 00 00 00 00 00 00 00 00 00 00 00 00 00 00
       0.0 0.0 0.0 0.0
000110 00 00 00 00 75 ec 0d 3f 00 00 00 00 00 00 00 00
       0.0 0.5543893 0.0 0.0
000120 95 22 02 3f 63 f6 bb 3e a5 f0 26 3f 00 00 00 00
       0.5083402 0.36711416 0.65210944 0.0
000130 00 00 00 00 00 00 00 00 00 00 00 00 00 00 00 00
       0.0 0.0 0.0 0.0
000140 00 00 00 00 00 00 00 00 00 00 00 00 00 00 00 00
       0.0 0.0 0.0 0.0
000150 00 00 00 00 00 00 00 00 00 00 00 00 00 00 00 00
       0.0 0.0 0.0 0.0
000160 9c 12 d8 3e 00 00 00 00 00 00 00 00 00 00 00 00
       0.42201698 0.0 0.0 0.0
000170 00 00 00 00 00 00 00 00 00 00 00 00 00 00 00 00
       0.0 0.0 0.0 0.0
000180 00 00 00 00 00 00 00 00 00 00 00 00 00 00 00 00
       0.0 0.0 0.0 0.0
000190 00 00 00 00 00 00 00 00 00 00 00 00 00 00 00 00
       0.0 0.0 0.0 0.0
0001a0 00 00 00 00 00 00 00 00 00 00 00 00 00 00 00 00
       0.0 0.0 0.0 0.0
0001b0 00 00 00 00 00 00 00 00 00 00 00 00 00 00 00 00
       0.0 0.0 0.0 0.0
0001c0 00 00 00 00 00 00 00 00 00 00 00 00 00 00 00 00
       0.0 0.0 0.0 0.0
0001d0 00 00 00 00 90 11 c2 3e 00 00 00 00 00 00 00 00
       0.0 0.37904024 0.0 0.0
0001e0 00 00 00 00 00 00 00 00 00 00 00 00 00 00 00 00
       0.0 0.0 0.0 0.0
0001f0 00 00 00 00 00 00 00 00 00 00 00 00 00 00 00 00
       0.0 0.0 0.0 0.0
000200 00 00 00 00 00 00 00 00 00 00 00 00 00 00 00 00
       0.0 0.0 0.0 0.0
000210 00 00 00 00 00 00 00 00 00 00 00 00 00 00 00 00
       0.0 0.0 0.0 0.0
000220 00 00 00 00 00 00 00 00 00 00 00 00 00 00 00 00
       0.0 0.0 0.0 0.0
000230 00 00 00 00 00 00 00 00 00 00 00 00 00 00 00 00
       0.0 0.0 0.0 0.0
000240 00 00 00 00 00 00 00 00 00 00 00 00 00 00 00 00
       0.0 0.0 0.0 0.0
000250 00 00 00 00 00 00 00 00 46 02 dd 3e 00 00 00 00
       0.0 0.0 0.43165797 0.0
000260 01 54 e4 3e 00 00 00 00 00 00 00 00 00 00 00 00
       0.4459534 0.0 0.0 0.0
000270 bb 21 00 3f 00 00 00 00 00 00 00 00 00 00 00 00
       0.5005147 0.0 0.0 0.0
000280 00 00 00 00 00 00 00 00 00 00 00 00 00 00 00 00
       0.0 0.0 0.0 0.0
000290 00 00 00 00 73 4e 9b be 00 00 00 00 fe 1f b0 be
       0.0 -0.3033329 0.0 -0.34399408
0002a0 00 00 00 00 00 00 00 00 00 00 00 00 00 00 00 00
       0.0 0.0 0.0 0.0
0002b0 21 f9 f7 be 00 00 00 00 00 00 00 00 00 00 00 00
       -0.48432258 0.0 0.0 0.0
0002c0 6e e8 d0 3e b3 d8 d1 3e 00 00 00 00 00 00 00 00
       0.4080233 0.4098564 0.0 0.0
0002d0 00 00 00 00 00 00 00 00 00 00 00 00 ab eb a0 3e
       0.0 0.0 0.0 0.314298
0002e0 00 00 00 00 00 00 00 00 00 00 00 00 00 00 00 00
       0.0 0.0 0.0 0.0
0002f0 00 00 00 00 00 00 00 00 00 00 00 00 00 00 00 00
       0.0 0.0 0.0 0.0
000300 00 00 00 00 00 00 00 00 00 00 00 00 00 00 00 00
       0.0 0.0 0.0 0.0
000310 00 00 00 00 00 00 00 00 7b 4b b0 be 00 00 00 00
       0.0 0.0 -0.34432587 0.0
000320 42 61 88 3e 22 83 c8 3e 90 67 a9 3e 00 00 00 00
       0.26636702 0.39162546 0.33086824 0.0
000330 00 00 00 00 00 00 00 00 00 00 00 00 2f d1 72 3e
       0.0 0.0 0.0 0.2371261
000340 00 00 00 00 a3 ca 97 be 00 00 00 00 00 00 00 00
       0.0 -0.29646787 0.0 0.0
000350 00 00 00 00 00 00 00 00 c3 08 b5 be 00 00 00 00
       0.0 0.0 -0.35358247 0.0
000360 00 00 00 00 00 00 00 00 25 b3 bb be 4e 83 d3 be
       0.0 0.0 -0.36660114 -0.41311115
000370 00 00 00 00 00 00 00 00 00 00 00 00 90 e4 fa be
       0.0 0.0 0.0 -0.49002504
000380 9b 43 c0 be 00 00 00 00 00 00 00 00 ad 95 ce be
       -0.3755158 0.0 0.0 -0.4034857
000390 00 00 00 00 00 00 00 00 00 00 00 00 00 00 00 00
       0.0 0.0 0.0 0.0
0003a0 00 00 00 00 00 00 00 00 18 eb 99 3e 00 00 00 00
       0.0 0.0 0.30062175 0.0
0003b0 00 00 00 00 00 00 00 00 00 00 00 00 83 35 8b 3e
       0.0 0.0 0.0 0.27189264
0003c0 00 00 00 00 00 00 00 00 1c 22 d0 be 00 00 00 00
       0.0 0.0 -0.40651023 0.0
0003d0 00 00 00 00 0b a7 87 3e 00 00 00 00 00 00 00 00
       0.0 0.2649463 0.0 0.0
0003e0 00 00 00 00 00 00 00 00 00 00 00 00 00 00 00 00
       0.0 0.0 0.0 0.0
0003f0 00 00 00 00 00 00 00 00 00 00 00 00 00 00 00 00
       0.0 0.0 0.0 0.0

features.1.weight f4 [6]
000000 36 06 84 3f 91 4b 0d 3f 24 11 81 3f 91 84 96 3f
       1.0314395 0.5519343 1.0083356 1.1759206
000010 5c b0 bb 3f a1 b1 bb 3f
       1.4663196 1.4663583

features.1.bias f4 [6]
000000 bb 7b c7 3c 3a 03 18 3e 45 96 bd 3e 1e ff 9a 3c
       0.024350991 0.14844981 0.3702871 0.018920477
000010 b0 3c 09 bd b4 ae 88 3d
       -0.03350514 0.06673947

features.1.running_mean f4 [6]
000000 a8 a3 af ba 65 4c 91 bd 1c 63 6f 3d 5a 86 f1 bc
       -0.0013400214 -0.07094649 0.058444127 -0.02948301
000010 12 aa c9 3d b0 1a 6e 3e
       0.098468915 0.23252368

features.1.running_var f4 [6]
000000 e4 db 9f 40 20 f4 1c 3f e8 42 f1 40 c7 aa 12 41
       4.995592 0.61310005 7.5394173 9.166694
000010 ac 80 b0 40 7b b6 0f 41
       5.515707 8.982051

features.4.weight f4 [16, 6, 5, 5]
000000 3c cf 77 be 00 00 00 00 00 00 00 00 1e 44 15 be
       -0.24200147 0.0 0.0 -0.14576766
000010 00 00 00 00 00 00 00 00 00 00 00 00 00 00 00 00
       0.0 0.0 0.0 0.0
000020 00 00 00 00 00 00 00 00 00 00 00 00 00 00 00 00
       0.0 0.0 0.0 0.0
000030 00 00 00 00 00 00 00 00 00 00 00 00 00 00 00 00
       0.0 0.0 0.0 0.0
000040 00 00 00 00 00 00 00 00 00 00 00 00 00 00 00 00
       0.0 0.0 0.0 0.0
000050 00 00 00 00 00 00 00 00 00 00 00 00 96 8d 85 3e
       0.0 0.0 0.0 0.26084584
000060 00 00 00 00 62 ce de bd 00 00 00 00 00 00 00 00
       0.0 -0.10879208 0.0 0.0
000070 00 00 00 00 00 00 00 00 00 00 00 00 00 00 00 00
       0.0 0.0 0.0 0.0
000080 00 00 00 00 00 00 00 00 00 00 00 00 93 5a 50 3e
       0.0 0.0 0.0 0.20347051
000090 00 00 00 00 00 00 00 00 00 00 00 00 00 00 00 00
       0.0 0.0 0.0 0.0
0000a0 00 00 00 00 00 00 00 00 00 00 00 00 00 00 00 00
       0.0 0.0 0.0 0.0
0000b0 00 00 00 00 00 00 00 00 00 00 00 00 00 00 00 00
       0.0 0.0 0.0 0.0
0000c0 00 00 00 00 00 00 00 00 00 00 00 00 00 00 00 00
       0.0 0.0 0.0 0.0
0000d0 00 00 00 00 00 00 00 00 00 00 00 00 00 00 00 00
       0.0 0.0 0.0 0.0
0000e0 00 00 00 00 00 00 00 00 e1 07 48 3e 87 e6 32 be
       0.0 0.0 0.19534256 -0.17470752
0000f0 00 00 00 00 00 00 00 00 00 00 00 00 00 00 00 00
       0.0 0.0 0.0 0.0
000100 00 00 00 00 00 00 00 00 00 00 00 00 00 00 00 00
       0.0 0.0 0.0 0.0
000110 00 00 00 00 5e 3d 21 be 00 00 00 00 00 00 00 00
       0.0 -0.15746066 0.0 0.0
000120 00 00 00 00 00 00 00 00 00 00 00 00 2c 82 0f be
       0.0 0.0 0.0 -0.140145
000130 00 00 00 00 00 00 00 00 5a 3a 03 be 24 58 5a be
       0.0 0.0 -0.12815228 -0.21322685
000140 00 00 00 00 00 00 00 00 00 00 00 00 18 69 3f be
       0.0 0.0 0.0 -0.18692434
000150 7b 99 09 be 69 13 1d be 00 00 00 00 00 00 00 00
       -0.13437454 -0.15339436 0.0 0.0
000160 00 00 00 00 00 00 00 00 a7 67 10 be de fc 17 be
       0.0 0.0 -0.1410204 -0.14842555
000170 00 00 00 00 00 00 00 00 65 66 4b be 00 00 00 00
       0.0 0.0 -0.19863279 0.0
000180 00 00 00 00 00 00 00 00 00 00 00 00 00 00 00 00
       0.0 0.0 0.0 0.0
000190 00 00 00 00 00 00 00 00 9e d1 41 be 70 3d fb bd
       0.0 0.0 -0.18927619 -0.12267578
0001a0 00 00 00 00 00 00 00 00 00 00 00 00 00 00 00 00
       0.0 0.0 0.0 0.0
0001b0 00 00 00 00 00 00 00 00 00 00 00 00 5f 72 4e be
       0.0 0.0 0.0 -0.20160817
0001c0 ec 8d 86 be 00 00 00 00 00 00 00 00 00 00 00 00
       -0.26280153 0.0 0.0 0.0
0001d0 00 00 00 00 00 00 00 00 00 00 00 00 00 00 00 00
       0.0 0.0 0.0 0.0
0001e0 00 00 00 00 0a 44 86 3e 87 82 29 3e 00 00 00 00
       0.0 0.26223785 0.16553698 0.0
0001f0 00 00 00 00 00 00 00 00 00 00 00 00 00 00 00 00
       0.0 0.0 0.0 0.0
000200 00 00 00 00 cb 5f ae 3e 70 e8 51 be 00 00 00 00
       0.0 0.3405746 -0.20498824 0.0
000210 00 00 00 00 26 d1 7a 3e 00 00 00 00 00 00 00 00
       0.0 0.24493846 0.0 0.0
000220 00 00 00 00 00 00 00 00 00 00 00 00 00 00 00 00
       0.0 0.0 0.0 0.0
000230 00 00 00 00 f6 1d 1f 3e 00 00 00 00 00 00 00 00
       0.0 0.15538773 0.0 0.0
000240 00 00 00 00 50 dc 24 3e 00 00 00 00 6c e9 11 be
       0.0 0.16099668 0.0 -0.142492
000250 e5 5e de bd c4 52 3e be 1c 98 83 3e 00 00 00 00
       -0.108579434 -0.1858626 0.25701988 0.0
000260 00 00 00 00 0b ab 8b be 00 00 00 00 00 00 00 00
       0.0 -0.27278933 0.0 0.0
000270 14 4b 4c be ca 41 5b be 5f e4 3f be 77 ce 83 3e
       -0.19950515 -0.21411815 -0.1873946 0.25743458
000280 20 15 55 be 70 54 3f be 03 d3 9b be 3f 5d 06 3e
       -0.2080884 -0.18684554 -0.30434427 0.13121508
000290 3c b3 a7 3e db 8d 6b be 00 00 00 00 00 00 00 00
       0.32753932 -0.23003332 0.0 0.0
0002a0 00 00 00 00 bf 61 64 3e 00 00 00 00 00 00 00 00
       0.0 0.22302912 0.0 0.0
0002b0 00 00 00 00 20 40 37 3e fc 62 1c be 00 00 00 00
       0.0 0.17895555 -0.15272135 0.0
0002c0 00 00 00 00 00 00 00 00 00 00 00 00 e6 df 2a be
       0.0 0.0 0.0 -0.16686973
0002d0 00 00 00 00 00 00 00 00 00 00 00 00 00 00 00 00
       0.0 0.0 0.0 0.0
0002e0 00 00 00 00 00 00 00 00 00 00 00 00 00 00 00 00
       0.0 0.0 0.0 0.0
0002f0 00 00 00 00 86 39 d4 bd 00 00 00 00 00 00 00 00
       0.0 -0.10362534 0.0 0.0
000300 00 00 00 00 00 00 00 00 2f 3d 87 3e 00 00 00 00
       0.0 0.0 0.26413867 0.0
000310 00 00 00 00 00 00 00 00 00 00 00 00 df 03 9b 3e
       0.0 0.0 0.0 0.3027639
000320 41 a8 6e 3e 00 00 00 00 85 6a 40 be 00 00 00 00
       0.23306371 0.0 -0.18790634 0.0
000330 73 06 f2 3d 00 00 00 00 00 00 00 00 2c 80 21 be
       0.11817636 0.0 0.0 -0.1577155
000340 f2 7c 26 3e 00 00 00 00 00 00 00 00 00 00 00 00
       0.162586 0.0 0.0 0.0
000350 00 00 00 00 7b 2c 20 3e 83 8a b0 be 1c 2b 3d 3e
       0.0 0.15641968 -0.34480676 0.18473476
000360 9a ef 2e 3e 89 d2 13 3e 00 00 00 00 f9 1f ae be
       0.17083588 0.14435782 0.0 -0.34008768
000370 00 00 00 00 d1 44 17 3e 00 00 00 00 05 c3 19 be
       0.0 0.14772345 0.0 -0.150158
000380 f5 aa 65 be 00 00 00 00 69 a9 8c 3e 00 00 00 00
       -0.22428496 0.0 0.27473 0.0
000390 00 00 00 00 d9 bc 26 be c8 92 86 3e 3b 61 54 be
       0.0 -0.16282977 0.2628386 -0.20740215
0003a0 00 00 00 00 4f 77 0c be aa ef 16 be 00 00 00 00
       0.0 -0.13717388 -0.14739862 0.0
0003b0 00 00 00 00 00 00 00 00 00 00 00 00 c0 a6 09 be
       0.0 0.0 0.0 -0.13442516
0003c0 00 00 00 00 00 00 00 00 00 00 00 00 00 00 00 00
       0.0 0.0 0.0 0.0
0003d0 00 00 00 00 00 00 00 00 00 00 00 00 00 00 00 00
       0.0 0.0 0.0 0.0
0003e0 00 00 00 00 00 00 00 00 00 00 00 00 00 00 00 00
       0.0 0.0 0.0 0.0
0003f0 00 00 00 00 00 00 00 00 44 2d 35 be 00 00 00 00
       0.0 0.0 -0.17693049 0.0

features.5.weight f4 [16]
000000 1a a6 97 3f 8e f2 d4 3f c8 a9 ea 3f b1 54 d7 3f
       1.1847565 1.6636522 1.8333063 1.6822721
000010 2e 37 ce 3f 59 34 c1 3f 0c 91 a1 3f 10 75 a2 3f
       1.611059 1.50941 1.262239 1.2691975
000020 68 97 c5 3f 6a 30 ae 3f 08 cd a3 3f a0 12 c3 3f
       1.543683 1.3608525 1.2796946 1.5240059
000030 4e cd b7 3f ba 68 ab 3f 84 e1 b4 3f 48 7b b7 3f
       1.4359529 1.3391335 1.4131322 1.4334497

features.5.bias f4 [16]
000000 2c fb 0c be 32 a6 3e bf 38 0e fa be e1 a5 36 be
       -0.1376769 -0.74472344 -0.48838973 -0.17836715
000010 96 21 f4 be fa ed f3 be 03 ea 25 be 0b 88 7c be
       -0.47681874 -0.476425 -0.1620255 -0.24661271
000020 87 84 15 be 70 59 09 be cd 62 a4 3d e7 ce d6 be
       -0.14601336 -0.13413024 0.08026657 -0.4195473
000030 75 92 d1 be cb 45 aa be 69 dc a9 be e3 26 99 bd
       -0.4093205 -0.33256373 -0.33175972 -0.0747812

features.5.running_mean f4 [16]
000000 a9 49 2a bf be c9 2d bf 48 b8 d5 be 82 4c c9 bf
       -0.66518646 -0.6788596 -0.41742158 -1.5726473
000010 93 fa fb be f9 15 3e bf 98 17 a9 3f 48 e7 30 3f
       -0.4921461 -0.7425228 1.3210325 0.6910291
000020 e8 fd 67 bf 94 59 c3 bb 2b 36 6d be e5 84 3e bf
       -0.90621805 -0.0059616063 -0.23165195 -0.7442153
000030 0c df 1c bf 2d 72 71 3f 9b b8 d0 be de 1f d6 bf
       -0.6127784 0.94314843 -0.40765843 -1.6728475

features.5.running_var f4 [16]
000000 6a b6 02 3f 72 14 56 3f 1e 77 64 3f 4f 80 d2 3f
       0.5105959 0.8362495 0.8924426 1.6445407
000010 b5 3e a5 3f e9 2d b0 3f 63 10 42 3f 6b 45 85 3f
       1.2909762 1.3764011 0.75806254 1.041181
000020 90 a4 3b 3f a4 d1 29 3f 92 79 20 3f d2 f9 9b 3f
       0.7329798 0.6633551 0.626855 1.2185614
000030 95 be 56 3f 29 75 3f 3f cf c0 18 3f c1 a1 a8 3f
       0.83884555 0.7478815 0.596692 1.3174363

features.9.weight f4 [120, 400]
000000 69 2a 57 3d d4 a4 db 3d 00 00 00 00 01 55 89 bd
       0.05253068 0.10724798 0.0 -0.06705666
000010 00 00 00 00 00 00 00 00 6f e2 61 3d 00 00 00 00
       0.0 0.0 0.055147585 0.0
000020 52 27 0d bd 00 00 00 00 28 b1 11 bd 00 00 00 00
       -0.034461327 0.0 -0.03556934 0.0
000030 00 00 00 00 00 00 00 00 00 00 00 00 e5 17 aa bd
       0.0 0.0 0.0 -0.08305339
000040 00 00 00 00 00 00 00 00 9c 76 28 3d 17 d1 2b 3d
       0.0 0.0 0.04112874 0.04194745
000050 d0 02 a3 bd 00 00 00 00 00 00 00 00 9b 7c 8c 3d
       -0.07959521 0.0 0.0 0.06859704
000060 e0 aa d7 3d 00 00 00 00 2b dd cc 3d 3a 6d 3a 3d
       0.10530639 0.0 0.10003122 0.045514323
000070 00 a5 a2 bd 67 e2 a7 bd 00 00 00 00 00 00 00 00
       -0.079416275 -0.0819748 0.0 0.0
000080 00 00 00 00 00 00 00 00 b5 d7 2c bd 00 00 00 00
       0.0 0.0 -0.0421979 0.0
000090 00 00 00 00 00 00 00 00 00 00 00 00 aa bb 26 bd
       0.0 0.0 0.0 -0.040706314
0000a0 8b 7a 45 bd 59 49 6e bd 00 00 00 00 93 41 6d 3d
       -0.04821257 -0.05817542 0.0 0.057923865
0000b0 00 00 00 00 a2 dd 17 bd 30 da cb bd 00 00 00 00
       0.0 -0.0370766 -0.09953725 0.0
0000c0 e1 ed e5 3d f9 6e 31 3d 00 00 00 00 00 00 00 00
       0.112270124 0.043318722 0.0 0.0
0000d0 b1 67 5e 3d 00 00 00 00 00 00 00 00 8e 5b d9 bd
       0.054298107 0.0 0.0 -0.10613166
0000e0 00 00 00 00 19 c6 d3 3d 00 00 00 00 17 bb 35 bd
       0.0 0.103405185 0.0 -0.044367876
0000f0 a0 1c d6 bd 01 c0 ae bd 4c 21 c5 3d 00 00 00 00
       -0.104546785 -0.085327156 0.096254915 0.0
000100 03 ae 9c bd 75 08 9e bd 2e b5 a4 bd 00 00 00 00
       -0.076503776 -0.07716457 -0.0804237 0.0
000110 00 00 00 00 38 7d 80 bd 00 00 00 00 e7 58 8a bd
       0.0 -0.062738836 0.0 -0.06755238
000120 00 00 00 00 00 00 00 00 00 00 00 00 9e 18 c9 3d
       0.0 0.0 0.0 0.098191485
000130 e5 3a af bd 9c 18 13 be 3d 07 66 3d e2 02 42 3e
       -0.08556155 -0.14364856 0.056159247 0.18946412
000140 72 f7 3e 3d 90 db 2e bd 0a ed b3 bd 00 00 00 00
       0.0466227 -0.04268986 -0.08785446 0.0
000150 3f d8 0a 3e 00 00 00 00 00 00 00 00 00 00 00 00
       0.13559054 0.0 0.0 0.0
000160 00 00 00 00 94 f0 4b 3d 00 00 00 00 93 0e 73 3d
       0.0 0.04978998 0.0 0.05934007
000170 c3 1a 95 3d 00 00 00 00 00 00 00 00 8b 83 81 bd
       0.07280495 0.0 0.0 -0.06323918
000180 fe 65 91 3d 11 02 ca 3d 00 00 00 00 00 00 00 00
       0.070995316 0.098636754 0.0 0.0
000190 91 f6 25 bd 00 00 00 00 00 00 00 00 c5 05 92 3d
       -0.040518347 0.0 0.0 0.07130007
0001a0 00 00 00 00 00 00 00 00 c3 2f 5b bd 00 00 00 00
       0.0 0.0 -0.053512346 0.0
0001b0 00 00 00 00 d4 07 34 3d 00 00 00 00 00 00 00 00
       0.0 0.043952778 0.0 0.0
0001c0 00 00 00 00 00 00 00 00 00 00 00 00 00 00 00 00
       0.0 0.0 0.0 0.0
0001d0 21 43 8c bd 33 be 84 bd e4 7c 46 bd c3 0e 2b bd
       -0.06848741 -0.0648159 -0.04845895 -0.041762125
0001e0 77 1b 46 3d 00 00 00 00 00 00 00 00 00 00 00 00
       0.048366036 0.0 0.0 0.0
0001f0 00 00 00 00 00 00 00 00 00 00 00 00 4b 21 e9 3d
       0.0 0.0 0.0 0.11383303
000200 00 00 00 00 7f 8e eb bd 00 00 00 00 00 00 00 00
       0.0 -0.11501788 0.0 0.0
000210 00 00 00 00 00 00 00 00 76 90 98 bd 4b ba 28 bd
       0.0 0.0 -0.07449429 -0.041193288
000220 00 00 00 00 00 00 00 00 00 00 00 00 00 00 00 00
       0.0 0.0 0.0 0.0
000230 00 00 00 00 00 00 00 00 00 00 00 00 00 00 00 00
       0.0 0.0 0.0 0.0
000240 00 00 00 00 00 00 00 00 00 00 00 00 d5 0c 67 bd
       0.0 0.0 0.0 -0.056408722
000250 00 00 00 00 00 00 00 00 00 00 00 00 00 00 00 00
       0.0 0.0 0.0 0.0
000260 67 bf 3e 3d 00 00 00 00 80 54 95 bd 7a b9 42 bd
       0.046569254 0.0 -0.07291508 -0.047540165
000270 2f 63 a1 bd 00 00 00 00 00 00 00 00 fa 77 28 bd
       -0.07880246 0.0 0.0 -0.041130044
000280 00 00 00 00 fa 83 30 bd 00 00 00 00 00 00 00 00
       0.0 -0.043094613 0.0 0.0
000290 00 00 00 00 c9 c5 4c bd 00 00 00 00 00 00 00 00
       0.0 -0.04999331 0.0 0.0
0002a0 00 00 00 00 00 00 00 00 31 06 8d bd 00 00 00 00
       0.0 0.0 -0.068859465 0.0
0002b0 00 00 00 00 b9 ec 74 bd 00 00 00 00 00 00 00 00
       0.0 -0.05979607 0.0 0.0
0002c0 91 69 9a 3d 00 00 00 00 00 00 00 00 98 5b ac bd
       0.075396664 0.0 0.0 -0.084159076
0002d0 00 00 00 00 00 00 00 00 54 6b 18 bd 00 00 00 00
       0.0 0.0 -0.03721173 0.0
0002e0 00 00 00 00 00 00 00 00 00 00 00 00 00 00 00 00
       0.0 0.0 0.0 0.0
0002f0 00 00 00 00 00 00 00 00 00 00 00 00 00 00 00 00
       0.0 0.0 0.0 0.0
000300 22 c1 6b bd c2 e6 2b bd 00 00 00 00 00 00 00 00
       -0.057557233 -0.041968115 0.0 0.0
000310 00 00 00 00 00 00 00 00 00 00 00 00 00 00 00 00
       0.0 0.0 0.0 0.0
000320 00 00 00 00 00 00 00 00 00 00 00 00 d9 40 24 3d
       0.0 0.0 0.0 0.040100906
000330 8f 36 53 3d 40 ce 74 bd 00 00 00 00 d1 6f bc bd
       0.051565703 -0.059767008 0.0 -0.09201015
000340 00 00 00 00 4b 2f 0d 3d 05 bd b9 bd 00 00 00 00
       0.0 0.03446893 -0.09069256 0.0
000350 00 00 00 00 00 00 00 00 00 00 00 00 dc dc 82 bd
       0.0 0.0 0.0 -0.06389782
000360 00 00 00 00 00 00 00 00 00 00 00 00 00 00 00 00
       0.0 0.0 0.0 0.0
000370 d8 8f 38 3d 00 00 00 00 00 00 00 00 40 a9 2f bd
       0.045059055 0.0 0.0 -0.04288602
000380 1e 62 82 bd f4 ae 68 3d 35 b5 0f 3e 00 00 00 00
       -0.063663706 0.056807473 0.14033969 0.0
000390 47 38 c3 bd 60 db 9c bd 11 10 29 3d 27 b6 90 3d
       -0.095322184 -0.0765903 0.041275088 0.07065993
0003a0 00 00 00 00 53 d6 1a bd 8a 04 69 bd 00 00 00 00
       0.0 -0.03780205 -0.056889094 0.0
0003b0 00 00 00 00 00 00 00 00 00 00 00 00 00 00 00 00
       0.0 0.0 0.0 0.0
0003c0 00 00 00 00 1f 23 28 bd 28 46 49 bd 00 00 00 00
       0.0 -0.04104912 -0.04913917 0.0
0003d0 85 ef 88 3d 6c 55 2b bd 00 00 00 00 94 80 ac bd
       0.0668631 -0.04182951 0.0 -0.08422962
0003e0 00 00 00 00 18 da ac 3d 00 00 00 00 00 00 00 00
       0.0 0.084400356 0.0 0.0
0003f0 00 00 00 00 bf 5b 7a 3d 03 22 7c 3d 00 00 00 00
       0.0 0.061122652 0.061555874 0.0

features.9.bias f4 [120]
000000 94 e7 be bc 02 75 a7 3b 34 82 8c 3e 7b a0 71 3e
       -0.023303784 0.005110384 0.27443087 0.23596375
000010 4b 3c 32 bd 33 ec 2c bc ad ba 4c bc 99 01 90 3d
       -0.04351453 -0.010554361 -0.012495679 0.07031555
000020 7b d4 5d 3c 90 25 ed bb bd 8e e5 bb 76 d9 eb bd
       0.013539429 -0.007237144 -0.007005541 -0.11516087
000030 cd e6 72 3c b2 a7 a3 3b 8c 7d d9 3d d1 a3 ed 3c
       0.014825535 0.004994356 0.10619649 0.029008778
000040 f6 08 ef 3d 34 9a 82 bc f7 14 a7 bd f4 3c 4f 3d
       0.11671631 -0.01594267 -0.081582956 0.05059524
000050 d7 01 9a bb 70 88 aa 3d a1 57 02 bd 6d 20 4a bd
       -0.0046999264 0.08326805 -0.03182185 -0.04934733
000060 36 c6 9a 3d f2 a6 24 bd 22 d9 84 3d cb 51 00 bd
       0.07557337 -0.040198274 0.06486727 -0.031328004
000070 07 54 f9 3d 13 dd 26 3d 78 00 6c 3d d3 e3 6a bb
       0.1217423 0.040738177 0.057617635 -0.003584136
000080 a4 10 a3 bb f2 7f d8 3a c8 f4 d1 3c 62 cb a8 3a
       -0.004976349 0.0016517623 0.025629416 0.0012877996
000090 c0 74 db bc 2b 8a 56 bc ad c8 0a bb 62 d4 51 3c
       -0.02678907 -0.013094465 -0.002117674 0.012806984
0000a0 ef c9 44 3c 34 3f 2c bc e6 0a 14 3d 93 cb b8 bc
       0.012011035 -0.010513116 0.036143206 -0.02255801
0000b0 a1 b2 c8 3d 47 55 0e 3d 57 60 c3 3c 64 7e 5a 3d
       0.09799696 0.034749296 0.02384965 0.05334319
0000c0 6f c9 fb 3c a7 74 11 3e f2 36 8d bb 5c 42 9b bc
       0.0307357 0.14204656 -0.0043095285 -0.018952541
0000d0 a0 6a ce 3d c5 b0 1d 3d 4e ce b0 3a c5 32 4b bc
       0.10078931 0.03849866 0.0013489218 -0.012402241
0000e0 79 b8 f3 3c 13 d3 1a ba 98 41 10 3d 71 ff f7 3b
       0.02975105 -0.00059060863 0.035218805 0.007568293
0000f0 90 86 08 bd 41 a8 31 bc ff f8 0e 3d ef 99 0c 3c
       -0.033331454 -0.0108433375 0.03490543 0.0085816225
000100 28 8b 0b bb 27 a6 9d bb b9 bc 3c bc 8d cb ca 3c
       -0.002129266 -0.0048110667 -0.011519604 0.024755264
000110 e9 46 af bd 64 83 87 3d c3 0f bd 3c d3 86 3e bd
       -0.08558447 0.06616858 0.023078805 -0.046515297
000120 c6 4f 51 3d 28 48 c6 ba a3 ea 04 3c 9a 01 c1 3d
       0.05110147 -0.0015127705 0.008112582 0.094241336
000130 50 f3 ca 3d 23 9d 3b 3d c2 08 e2 3b 53 6d 0e bd
       0.099096894 0.045804154 0.0068980167 -0.03477223
000140 ae 99 b9 bc 80 42 23 bb 48 39 85 3d e3 da de bc
       -0.022656288 -0.0024911463 0.06505066 -0.027203983
000150 83 d4 5f bc 1f 76 20 bd 96 2a fe 3d eb 1b a2 3c
       -0.013661507 -0.03917515 0.124104664 0.019788703
000160 f2 5c c8 bd aa ce 14 3e 3a df fc b9 bf a5 8d 3c
       -0.09783353 0.14531961 -0.00048231502 0.017290948
000170 3c 0a 8a bd c3 92 ce bc a3 ff 9e 3d 3f 5d 1a 3e
       -0.06740233 -0.025216466 0.077636026 0.15074633
000180 6c 06 10 3d 5e 82 18 3e e5 1d 9c 3c f6 8f d6 3b
       0.035162374 0.14893481 0.019057224 0.006547923
000190 c8 c4 00 3b e7 64 98 bd 3d ee b7 3b 4d 55 9e 3c
       0.001964854 -0.074411206 0.005613117 0.019327784
0001a0 68 1d c0 3d 9e 36 80 3c 94 9b 65 3c 3c ef 43 3e
       0.09380609 0.015651044 0.0140141435 0.1913423
0001b0 5d bd 2b 3d 8e 0d ac 3d 5f 9c 85 3c 48 3a 51 3d
       0.041928638 0.08401023 0.016309915 0.051080972
0001c0 4b 49 b1 3d c5 c0 14 bd 4e 55 6b bd 38 ad 82 bb
       0.08656558 -0.03631665 -0.0574544 -0.0039879344
0001d0 be 9c 4e bd fd 8b 17 3c dd 6c 08 bd c5 d0 81 bd
       -0.05044245 0.009249684 -0.033306945 -0.06338648

features.11.weight f4 [84, 120]
000000 89 5b d2 3d e8 8d 12 3e e6 a8 b9 3d 77 4b 37 3e
       0.10271365 0.14311945 0.09065418 0.17899881
000010 00 00 00 00 00 00 00 00 86 b5 d1 3d 9a 55 f8 bd
       0.0 0.0 0.10239701 -0.12125702
000020 00 00 00 00 c5 1d 36 be 28 66 92 bd 08 18 86 3e
       0.0 -0.17784794 -0.07148391 0.2619021
000030 64 51 33 3e 46 d3 43 3d 00 00 00 00 00 00 00 00
       0.17511517 0.047808908 0.0 0.0
000040 ad 03 c8 3d a5 e8 5d bd 16 52 97 3d f9 22 dc 3d
       0.09766326 -0.054176945 0.073887035 0.10748858
000050 e2 dc ed 3d 00 00 00 00 00 00 00 00 08 f4 56 3d
       0.11614396 0.0 0.0 0.05247882
000060 c3 39 53 be 00 00 00 00 00 00 00 00 00 00 00 00
       -0.20627503 0.0 0.0 0.0
000070 2b 20 4a 3e 00 00 00 00 00 00 00 00 00 00 00 00
       0.19738834 0.0 0.0 0.0
000080 00 00 00 00 00 00 00 00 3e f6 ad 3d 20 7b 5c 3d
       0.0 0.0 0.084942326 0.05382836
000090 00 00 00 00 c6 70 5d bd 00 00 00 00 d7 64 4f bd
       0.0 -0.054062627 0.0 -0.050633278
0000a0 00 00 00 00 7e 93 2c bd 00 00 00 00 00 00 00 00
       0.0 -0.042132847 0.0 0.0
0000b0 00 00 00 00 00 00 00 00 00 00 00 00 80 e0 1a 3e
       0.0 0.0 0.0 0.15124702
0000c0 e1 b3 64 3e 9b 11 8d bd 46 0a b2 bd 23 f0 d3 3d
       0.22334243 -0.068881236 -0.08693366 0.10348537
0000d0 2b 2b d6 bd 00 00 00 00 1b ec 79 3d 00 00 00 00
       -0.104574524 0.0 0.061016183 0.0
0000e0 0e 45 aa 3d 0f 5b 36 3d 00 00 00 00 00 00 00 00
       0.083139524 0.044520434 0.0 0.0
0000f0 bb 56 ca 3d 00 00 00 00 5c 7c 53 3d 00 00 00 00
       0.09879824 0.0 0.05163227 0.0
000100 8c bc 9c 3d 3a 81 1e be 03 4e e3 3d 5c 77 54 bd
       0.0765315 -0.15478984 0.11098864 -0.051871642
000110 6d 1e f9 bd 00 00 00 00 b2 e0 98 bd 00 00 00 00
       -0.121640064 0.0 -0.07464732 0.0
000120 00 00 00 00 00 00 00 00 00 00 00 00 8d ab e1 3d
       0.0 0.0 0.0 0.11019049
000130 00 00 00 00 df 99 32 3e d7 83 d7 bd 00 00 00 00
       0.0 0.1744151 -0.10523193 0.0
000140 e6 31 05 be 00 00 00 00 dc 69 91 3d 4d 23 3a 3e
       -0.13007316 0.0 0.07100269 0.18177529
000150 84 be 40 3e f0 dd e1 bd b1 a2 28 3e 1c 13 02 be
       0.18822676 -0.11028659 0.16468312 -0.12702602
000160 00 00 00 00 50 10 a5 bd 00 00 00 00 f7 7c af 3d
       0.0 -0.08059752 0.0 0.08568757
000170 f1 92 3c be 00 00 00 00 00 00 00 00 00 00 00 00
       -0.18415429 0.0 0.0 0.0
000180 f8 e9 d9 3d 20 f2 3b be 00 00 00 00 81 fb 54 3d
       0.10640329 -0.18354082 0.0 0.051997665
000190 e6 d0 7f 3d b4 fd 26 3e 88 28 16 be 5f 3c cd bd
       0.06245508 0.16307718 -0.14663899 -0.100212805
0001a0 00 00 00 00 b2 79 80 3d 00 00 00 00 00 00 00 00
       0.0 0.062732115 0.0 0.0
0001b0 00 00 00 00 69 6d 2d be 31 51 77 bd ef 24 02 3e
       0.0 -0.16936268 -0.060380165 0.12709402
0001c0 21 b4 06 be 66 9c 0c 3e 00 00 00 00 00 00 00 00
       -0.13154651 0.13731536 0.0 0.0
0001d0 3b 18 3c 3d 00 00 00 00 10 8a 7b bd f5 6d ba bd
       0.045921545 0.0 -0.061410964 -0.09103004
0001e0 00 00 00 00 89 98 82 bd 00 00 00 00 00 00 00 00
       0.0 -0.0637675 0.0 0.0
0001f0 d1 5e 35 bd 00 00 00 00 00 00 00 00 00 00 00 00
       -0.044279877 0.0 0.0 0.0
000200 00 00 00 00 00 00 00 00 00 00 00 00 00 00 00 00
       0.0 0.0 0.0 0.0
000210 00 00 00 00 00 00 00 00 20 f8 5a 3d 00 00 00 00
       0.0 0.0 0.053459287 0.0
000220 00 00 00 00 00 00 00 00 00 00 00 00 00 00 00 00
       0.0 0.0 0.0 0.0
000230 00 00 00 00 83 79 90 3d 00 00 00 00 00 00 00 00
       0.0 0.070544265 0.0 0.0
000240 00 00 00 00 00 00 00 00 00 00 00 00 00 00 00 00
       0.0 0.0 0.0 0.0
000250 00 00 00 00 10 97 34 3d 00 00 00 00 00 00 00 00
       0.0 0.044089377 0.0 0.0
000260 00 00 00 00 00 00 00 00 00 00 00 00 00 00 00 00
       0.0 0.0 0.0 0.0
000270 00 00 00 00 00 00 00 00 00 00 00 00 00 00 00 00
       0.0 0.0 0.0 0.0
000280 00 00 00 00 00 00 00 00 00 00 00 00 00 00 00 00
       0.0 0.0 0.0 0.0
000290 00 00 00 00 8e 7e 3c bd 00 00 00 00 00 00 00 00
       0.0 -0.04601913 0.0 0.0
0002a0 00 00 00 00 00 00 00 00 00 00 00 00 00 00 00 00
       0.0 0.0 0.0 0.0
0002b0 ab 63 78 3d 00 00 00 00 00 00 00 00 00 00 00 00
       0.060641926 0.0 0.0 0.0
0002c0 c7 18 57 bd 00 00 00 00 00 00 00 00 00 00 00 00
       -0.052513864 0.0 0.0 0.0
0002d0 00 00 00 00 00 00 00 00 00 00 00 00 00 00 00 00
       0.0 0.0 0.0 0.0
0002e0 00 00 00 00 00 00 00 00 00 00 00 00 00 00 00 00
       0.0 0.0 0.0 0.0
0002f0 00 00 00 00 00 00 00 00 00 00 00 00 00 00 00 00
       0.0 0.0 0.0 0.0
000300 00 00 00 00 00 00 00 00 00 00 00 00 67 78 64 3d
       0.0 0.0 0.0 0.055778887
000310 00 00 00 00 00 00 00 00 00 00 00 00 00 00 00 00
       0.0 0.0 0.0 0.0
000320 00 00 00 00 00 00 00 00 00 00 00 00 00 00 00 00
       0.0 0.0 0.0 0.0
000330 00 00 00 00 00 00 00 00 00 00 00 00 00 00 00 00
       0.0 0.0 0.0 0.0
000340 00 00 00 00 dd 84 a2 3d 00 00 00 00 00 00 00 00
       0.0 0.07935498 0.0 0.0
000350 00 00 00 00 00 00 00 00 00 00 00 00 00 00 00 00
       0.0 0.0 0.0 0.0
000360 00 00 00 00 00 00 00 00 00 00 00 00 00 00 00 00
       0.0 0.0 0.0 0.0
000370 00 00 00 00 00 00 00 00 00 00 00 00 c2 dd 51 3d
       0.0 0.0 0.0 0.051236875
000380 00 00 00 00 00 00 00 00 00 00 00 00 00 00 00 00
       0.0 0.0 0.0 0.0
000390 00 00 00 00 00 00 00 00 00 00 00 00 00 00 00 00
       0.0 0.0 0.0 0.0
0003a0 00 00 00 00 00 00 00 00 6b 2c 56 bd 00 00 00 00
       0.0 0.0 -0.052288454 0.0
0003b0 00 00 00 00 00 00 00 00 00 00 00 00 00 00 00 00
       0.0 0.0 0.0 0.0
0003c0 00 00 00 00 ec 79 d0 3d 00 00 00 00 13 6a 11 3e
       0.0 0.10179505 0.0 0.1420062
0003d0 b6 04 9d bd 00 00 00 00 ee a2 58 bd 00 00 00 00
       -0.07666914 0.0 -0.052889757 0.0
0003e0 00 00 00 00 00 00 00 00 45 8f 51 bd 41 0c 4a 3d
       0.0 0.0 -0.051162023 0.049328092
0003f0 00 00 00 00 00 00 00 00 33 ed ce 3d e0 d0 5e bd
       0.0 0.0 0.10103836 -0.054398417

features.11.bias f4 [84]
000000 53 7e 8e 3e d4 80 9f 3d 9f 0d 40 3e 46 c3 a3 3e
       0.27830753 0.07788244 0.18755196 0.3198492
000010 3e 41 c1 bd 4a 96 99 3d 81 68 e3 3d 0d e5 c3 3c
       -0.09436272 0.074993685 0.11103917 0.02391293
000020 9a db c0 3d d1 bd 01 3e 83 91 86 3d 6c f5 8e ba
       0.09416886 0.12670065 0.06570723 -0.0010906882
000030 39 21 51 3d 6e a7 50 3e fb fa e8 3c 6d 45 7c 3c
       0.051057074 0.2037637 0.02843999 0.015397412
000040 0d d1 30 bd 32 f1 18 3e df f9 5c 3b 8e d0 6e 3e
       -0.043168116 0.14935759 0.003371827 0.23321745
000050 7f ed e9 3c e8 2c 8c 3d 0c be 15 3e 6d 73 03 3e
       0.02855563 0.06844503 0.14623278 0.12837
000060 eb 4c c6 bb 81 1e 64 bd 47 18 5d 3e 09 ff 66 3e
       -0.00605165 -0.055693153 0.21591292 0.22558226
000070 35 5e 63 3e f1 84 f2 39 10 52 8f bd 04 c6 fd 3c
       0.22203906 0.00046256886 -0.06998074 0.03097821
000080 25 79 ae 3b 78 3f 66 3a e0 8b 82 bc 06 0c 81 bb
       0.0053245 0.00087832613 -0.015935838 -0.003938201
000090 51 59 cf 3d 88 80 28 bb 32 bf cb b8 c2 23 ff 3d
       0.10124458 -0.0025711376 -9.715407e-05 0.12457992
0000a0 a6 d3 eb 3a 14 93 84 bb e7 7c c4 3d 66 39 47 3d
       0.0017992153 -0.0040458534 0.09594136 0.048638724
0000b0 95 f2 4a bd 46 37 1c 3e 72 4d fc 3d 3f 8e ac 3c
       -0.04954775 0.1525546 0.12319459 0.021063922
0000c0 1f 2c 84 3d 9b f4 24 bd f5 97 77 3b eb e2 b5 bb
       0.06453728 -0.040272336 0.0037779782 -0.0055507324
0000d0 c3 97 34 3e 5f 00 18 3e 21 7b 95 3e be 47 82 3e
       0.17636018 0.14843892 0.29195502 0.2544536
0000e0 b2 98 70 3e bb 2a 68 3c 94 6c 08 3d 89 6c da 3c
       0.23495749 0.014170344 0.033306673 0.026663082
0000f0 fc 9e 16 3c 6b 21 c2 3c 33 58 33 3e 63 50 87 3e
       0.009193178 0.023697576 0.17514114 0.26428518
000100 f5 7c 96 3d ed 87 82 3e ff c7 a5 3e 47 68 c2 3d
       0.073480524 0.25494328 0.32379147 0.094925456
000110 0a 48 cc 3e 4b e0 0f 3a a9 73 09 3c 80 4a 9e bc
       0.3989871 0.00054884393 0.008389392 -0.019322634
000120 2f f2 fa ba bf cf fe 3c 49 b4 37 bb 82 c3 23 3e
       -0.0019145663 0.03110492 -0.0028031042 0.15992549
000130 6b 05 06 bd 01 9e 1e 3d 3a f7 c0 3d 93 0d 37 3e
       -0.03272001 0.038724903 0.09422155 0.17876272
000140 14 3e 39 bb ca 5f 66 3d 33 fd 45 3e 8c 62 be 3c
       -0.0028265761 0.056243695 0.19334869 0.02324035

classifiers.0.weight f4 [5, 84]
000000 77 9c 4c 3f 6e 69 c6 bd 51 3c ec 3d a7 d0 58 3e
       0.79926246 -0.09688078 0.11534942 0.21173345
000010 0c 8c 08 be cd 0a 3c be 00 8f 99 be 8d bc 98 3e
       -0.13334674 -0.18363495 -0.29991913 0.29831353
000020 ca 40 91 be d8 85 f2 3e 1c cb fd bc f2 2e 25 3c
       -0.28369743 0.4736774 -0.03098064 0.010081993
000030 82 91 e6 3d 3c 04 ed be 36 15 de bd 59 41 ea bc
       0.11258222 -0.46292293 -0.108438894 -0.028595613
000040 75 0d 82 3d a7 0c 0d 3d c0 30 25 3e b4 ed 15 bf
       0.06350223 0.034435894 0.16131878 -0.5856583
000050 93 b5 85 bd 2b 06 9e bd a4 fd 06 be fb a6 5f be
       -0.06528773 -0.0771602 -0.13182694 -0.21841042
000060 35 7f 01 bb 0e 35 00 bf 67 bc 04 bf 3c 0a 73 bd
       -0.001975966 -0.50080955 -0.5184998 -0.059335932
000070 b2 e9 9c 3e ca 78 6e 3c bf b9 8c 3e 68 cc 1e be
       0.30647045 0.014555166 0.27485463 -0.15507662
000080 88 7e 54 bc 67 dc 53 be e4 e3 1e 3e c3 00 75 3a
       -0.0129696205 -0.20689546 0.15516621 0.0009346122
000090 b2 e3 79 be 91 27 58 3a 15 e2 a8 3a 2b ab c0 bc
       -0.24403265 0.0008245642 0.001288476 -0.02351912
0000a0 65 45 57 3e d8 4b 8c bc af 29 f9 be 3e 7e a6 be
       0.21022566 -0.017126009 -0.48664615 -0.3251819
0000b0 df 0e e9 bd 46 7d 00 be f7 4b d5 be b1 1b 52 bb
       -0.113797896 -0.12547788 -0.4165952 -0.0032059962
0000c0 ef f0 ee 3e f7 c0 06 bd 39 2a c9 bc 57 ed e5 b9
       0.46668193 -0.03289887 -0.024556266 -0.00043855116
0000d0 c9 ea 80 be 91 c4 db 3b 67 e4 91 3d b0 b8 f4 3c
       -0.25179127 0.006706782 0.071236424 0.029873222
0000e0 21 2f 01 3e fa f1 ee 3e bd ed 65 bc 68 41 ef 3b
       0.12615635 0.46668988 -0.014033732 0.007301498
0000f0 3a df 7a 3e 54 fa f9 3e 9d a3 f5 3c f1 83 3c 3e
       0.24499217 0.48823798 0.029985243 0.18409707
000100 c6 ee 2a 3c 0e 12 5a 3e 73 89 2e 3e 9b bb 5d be
       0.010432905 0.2129595 0.1704462 -0.21653597
000110 5e 67 a3 be 58 57 fb bb 5e 6c 84 bc 52 03 6c 3e
       -0.319148 -0.0076703243 -0.016164955 0.23048142
000120 64 3e b4 3c ed 3f 1c 3c 80 20 92 3a 5b 9c f5 be
       0.022002406 0.0095367255 0.0011148602 -0.47970852
000130 6b 04 d6 be fb d3 51 3e 1a ed bf bd ed a8 5b 3f
       -0.41800246 0.2049102 -0.093713954 0.85804635
000140 f7 22 6e ba 92 e8 5d be a4 0e 93 be 01 6b d5 3c
       -0.00090841897 -0.2167075 -0.28722107 0.026052
000150 b8 5a c7 be 4b 5c f9 bc 59 94 0b bf 3d 7c d7 be
       -0.389364 -0.030439517 -0.54523236 -0.42086974
000160 d4 e3 e2 bb 0c 00 5e bc e2 2f fc 3b 6c 5f 2c bd
       -0.006924132 -0.013549816 0.0076961378 -0.04208319
000170 19 78 2d 3e 9b b8 a8 3d a3 9c 28 3e c5 ab 2f bc
       0.16940345 0.08238336 0.16466002 -0.010722105
000180 18 19 c7 be b9 3a c6 3e f5 02 09 3e 18 0d dc 3c
       -0.38886333 0.38716677 0.13380034 0.026861712
000190 73 43 c7 be 90 f0 bd be 0e 7f 76 bd d7 ad 47 3e
       -0.38918647 -0.37097597 -0.060179763 0.19499908
0001a0 6c 5a 25 bd 57 e1 18 bd b6 c4 f9 3e 1b dd 09 3f
       -0.040369436 -0.037324276 0.4878289 0.53853005
0001b0 78 9e d0 3a af 0f 32 3d 54 11 d9 3e 44 2e 37 be
       0.0015916368 0.04347199 0.42396033 -0.17888743
0001c0 86 42 9d bd 3d 88 74 3c 9d cb a2 be 16 a2 cb 3c
       -0.07678704 0.01492506 -0.3179597 0.024857562
0001d0 0e 13 a8 bc bc 21 cc be 06 f7 f7 bd 9f 82 e5 bc
       -0.020516898 -0.39869487 -0.12107663 -0.028016387
0001e0 6e 09 11 3c 1e 92 42 bc 06 fd a5 3c da be c5 bd
       0.008852346 -0.011875657 0.020262253 -0.09655543
0001f0 2c c3 46 be cb 08 ab b9 09 db 90 be 42 80 7d bd
       -0.1941039 -0.00032622213 -0.2829211 -0.061889894
000200 25 0e 0a be ad d2 a5 3d 5a ed 2d 3f de 15 0d 3d
       -0.13481958 0.08096824 0.67940295 0.034444682
000210 fc 4b 03 be 62 39 cd 3b 8f 2d a6 3c 14 ed 7d bc
       -0.12821954 0.006262944 0.020285396 -0.015498418
000220 fd 99 bb bd e9 5c b2 be 58 1c 85 be 5c 1c ec bd
       -0.0916023 -0.3483651 -0.25998187 -0.115288466
000230 39 15 34 bb 35 b2 bc 3d 1d a1 1c 3e ff 66 94 3d
       -0.002747847 0.09213678 0.15295835 0.072462074
000240 49 d3 56 be f2 7d 0e be 6d a6 5b be be a5 f6 bd
       -0.20979036 -0.13915232 -0.21450205 -0.120433316
000250 67 e3 3c be 20 56 74 bd 13 f9 9d be fd 29 31 3e
       -0.18446122 -0.059652448 -0.3085409 0.17301174
000260 dd d5 09 3f 8b bc 9b bc e8 e4 23 3d 12 cc 8d be
       0.53841954 -0.019010803 0.040013224 -0.27694756
000270 74 3e 99 3b 5f d1 96 3d 1c 2b 20 3c f9 13 97 3d
       0.0046766344 0.07364153 0.009775903 0.07376856
000280 c4 09 97 3b a9 ea 83 3d 32 ab 34 3e 32 a6 a9 3a
       0.0046093185 0.06441242 0.17643431 0.0012943207
000290 fd 6a 69 bc 8e 47 9e ba 21 95 59 3d f9 ed 1a 3e
       -0.014246699 -0.0012075768 0.053120736 0.15129842
0002a0 f0 60 d1 3d ae d5 4c 3e 99 bc c2 3e a8 a4 f6 3e
       0.102235675 0.20003387 0.38034514 0.48172498
0002b0 0d 90 94 be 0b d0 ab 3d 08 cb 38 3d 36 49 89 be
       -0.29016152 0.083892904 0.0451155 -0.26813668
0002c0 5e 9e f5 be f6 b8 ab bc c9 60 67 3d 2e c0 b7 3b
       -0.47972387 -0.02096222 0.056488786 0.0056076264
0002d0 6a 6e 0a 3c 86 85 7e 3e 1d b7 14 be 30 c5 50 bc
       0.008449176 0.24855623 -0.14522977 -0.012742326
0002e0 d4 42 c6 bc f9 e1 97 3e 7d c5 4a be 89 cf 1e 3e
       -0.024201788 0.2966459 -0.19801898 0.15508856
0002f0 e8 76 17 3d 23 81 44 3e 94 85 54 3d 53 3d c1 be
       0.036978632 0.19189887 0.051885203 -0.377421
000300 36 17 f0 bb 26 88 9b bd ef f3 ed 3d 7a 8f c9 3e
       -0.0073269857 -0.07594328 0.11618792 0.39367276
000310 3c 5c 83 3e ff 91 1f bc 9a dc a8 be db 76 a0 be
       0.25656307 -0.009739398 -0.32980806 -0.3134068
000320 a7 d7 a8 3c 50 f3 68 3e 93 24 96 be a7 d8 ac bb
       0.020610644 0.22749066 -0.2932478 -0.0052748504
000330 09 bb 65 be 50 52 5c 3b 9a 3a 5b bc 21 a7 8a 3e
       -0.2243463 0.0033618398 -0.013380671 0.27080634
000340 a2 56 b1 bd c0 c9 51 3b 25 2f 13 3e 22 f8 98 be
       -0.08659102 0.0032011122 0.14373453 -0.2987681
000350 b3 94 76 be b7 a3 05 3e 96 6f e8 be 26 ee 74 3c
       -0.24080162 0.13050734 -0.45397633 0.014949357
000360 b1 38 4f 3b a2 69 6c be 82 0c 90 bc c8 aa 7d bb
       0.0031619484 -0.2308717 -0.01758409 -0.003870653
000370 dc 8d b7 3e 15 55 8b 3e b6 81 09 3f 6f 46 e1 3e
       0.35850418 0.2721335 0.5371355 0.4399905
000380 7e 76 a4 3e 58 9b 2e bf f4 9b 96 be 93 fb ef bc
       0.32121652 -0.68205786 -0.29415858 -0.029294765
000390 2d 2a 09 bf 44 d9 0f bf 4d a0 b0 3e d9 c2 c1 3e
       -0.5357998 -0.56190896 0.344973 0.3784397
0003a0 b6 12 31 3e b5 58 a9 3e 2a 30 0a 3f 8c 6d 41 3e
       0.17292294 0.3307549 0.5397974 0.18889445
0003b0 2b 47 8e 3e 2d af 18 bc be ed 03 3d 24 ff 30 be
       0.27788672 -0.009319109 0.03220915 -0.17284828
0003c0 a7 75 c4 bc a4 27 e5 3b 93 06 61 3c 79 18 07 3e
       -0.023981882 0.006993251 0.013734478 0.1319293
0003d0 b2 bb e4 3c 5d 7c 9d bd 5e 21 10 3e 26 e5 b8 bc
       0.027921531 -0.07689736 0.14075229 -0.022570204
0003e0 e7 54 c5 bc 1c 87 31 3e 62 f6 d0 3e 45 0f 45 be
       -0.024088336 0.17336696 0.40812975 -0.19244106
0003f0 30 53 d2 bc a8 d8 6b bd b9 5a c7 3b 58 8f 85 bd
       -0.025674433 -0.057579666 0.006083813 -0.06521481

classifiers.0.bias f4 [5]
000000 ad fd f3 be dc fe 80 3f 34 ab 56 3f ad bb 67 bf
       -0.47654477 1.0077777 0.83854985 -0.90520746
000010 5a dd ed be
       -0.4645794

classifier.weight f4 [5, 84]
000000 77 9c 4c 3f 6e 69 c6 bd 51 3c ec 3d a7 d0 58 3e
       0.79926246 -0.09688078 0.11534942 0.21173345
000010 0c 8c 08 be cd 0a 3c be 00 8f 99 be 8d bc 98 3e
       -0.13334674 -0.18363495 -0.29991913 0.29831353
000020 ca 40 91 be d8 85 f2 3e 1c cb fd bc f2 2e 25 3c
       -0.28369743 0.4736774 -0.03098064 0.010081993
000030 82 91 e6 3d 3c 04 ed be 36 15 de bd 59 41 ea bc
       0.11258222 -0.46292293 -0.108438894 -0.028595613
000040 75 0d 82 3d a7 0c 0d 3d c0 30 25 3e b4 ed 15 bf
       0.06350223 0.034435894 0.16131878 -0.5856583
000050 93 b5 85 bd 2b 06 9e bd a4 fd 06 be fb a6 5f be
       -0.06528773 -0.0771602 -0.13182694 -0.21841042
000060 35 7f 01 bb 0e 35 00 bf 67 bc 04 bf 3c 0a 73 bd
       -0.001975966 -0.50080955 -0.5184998 -0.059335932
000070 b2 e9 9c 3e ca 78 6e 3c bf b9 8c 3e 68 cc 1e be
       0.30647045 0.014555166 0.27485463 -0.15507662
000080 88 7e 54 bc 67 dc 53 be e4 e3 1e 3e c3 00 75 3a
       -0.0129696205 -0.20689546 0.15516621 0.0009346122
000090 b2 e3 79 be 91 27 58 3a 15 e2 a8 3a 2b ab c0 bc
       -0.24403265 0.0008245642 0.001288476 -0.02351912
0000a0 65 45 57 3e d8 4b 8c bc af 29 f9 be 3e 7e a6 be
       0.21022566 -0.017126009 -0.48664615 -0.3251819
0000b0 df 0e e9 bd 46 7d 00 be f7 4b d5 be b1 1b 52 bb
       -0.113797896 -0.12547788 -0.4165952 -0.0032059962
0000c0 ef f0 ee 3e f7 c0 06 bd 39 2a c9 bc 57 ed e5 b9
       0.46668193 -0.03289887 -0.024556266 -0.00043855116
0000d0 c9 ea 80 be 91 c4 db 3b 67 e4 91 3d b0 b8 f4 3c
       -0.25179127 0.006706782 0.071236424 0.029873222
0000e0 21 2f 01 3e fa f1 ee 3e bd ed 65 bc 68 41 ef 3b
       0.12615635 0.46668988 -0.014033732 0.007301498
0000f0 3a df 7a 3e 54 fa f9 3e 9d a3 f5 3c f1 83 3c 3e
       0.24499217 0.48823798 0.029985243 0.18409707
000100 c6 ee 2a 3c 0e 12 5a 3e 73 89 2e 3e 9b bb 5d be
       0.010432905 0.2129595 0.1704462 -0.21653597
000110 5e 67 a3 be 58 57 fb bb 5e 6c 84 bc 52 03 6c 3e
       -0.319148 -0.0076703243 -0.016164955 0.23048142
000120 64 3e b4 3c ed 3f 1c 3c 80 20 92 3a 5b 9c f5 be
       0.022002406 0.0095367255 0.0011148602 -0.47970852
000130 6b 04 d6 be fb d3 51 3e 1a ed bf bd ed a8 5b 3f
       -0.41800246 0.2049102 -0.093713954 0.85804635
000140 f7 22 6e ba 92 e8 5d be a4 0e 93 be 01 6b d5 3c
       -0.00090841897 -0.2167075 -0.28722107 0.026052
000150 b8 5a c7 be 4b 5c f9 bc 59 94 0b bf 3d 7c d7 be
       -0.389364 -0.030439517 -0.54523236 -0.42086974
000160 d4 e3 e2 bb 0c 00 5e bc e2 2f fc 3b 6c 5f 2c bd
       -0.006924132 -0.013549816 0.0076961378 -0.04208319
000170 19 78 2d 3e 9b b8 a8 3d a3 9c 28 3e c5 ab 2f bc
       0.16940345 0.08238336 0.16466002 -0.010722105
000180 18 19 c7 be b9 3a c6 3e f5 02 09 3e 18 0d dc 3c
       -0.38886333 0.38716677 0.13380034 0.026861712
000190 73 43 c7 be 90 f0 bd be 0e 7f 76 bd d7 ad 47 3e
       -0.38918647 -0.37097597 -0.060179763 0.19499908
0001a0 6c 5a 25 bd 57 e1 18 bd b6 c4 f9 3e 1b dd 09 3f
       -0.040369436 -0.037324276 0.4878289 0.53853005
0001b0 78 9e d0 3a af 0f 32 3d 54 11 d9 3e 44 2e 37 be
       0.0015916368 0.04347199 0.42396033 -0.17888743
0001c0 86 42 9d bd 3d 88 74 3c 9d cb a2 be 16 a2 cb 3c
       -0.07678704 0.01492506 -0.3179597 0.024857562
0001d0 0e 13 a8 bc bc 21 cc be 06 f7 f7 bd 9f 82 e5 bc
       -0.020516898 -0.39869487 -0.12107663 -0.028016387
0001e0 6e 09 11 3c 1e 92 42 bc 06 fd a5 3c da be c5 bd
       0.008852346 -0.011875657 0.020262253 -0.09655543
0001f0 2c c3 46 be cb 08 ab b9 09 db 90 be 42 80 7d bd
       -0.1941039 -0.00032622213 -0.2829211 -0.061889894
000200 25 0e 0a be ad d2 a5 3d 5a ed 2d 3f de 15 0d 3d
       -0.13481958 0.08096824 0.67940295 0.034444682
000210 fc 4b 03 be 62 39 cd 3b 8f 2d a6 3c 14 ed 7d bc
       -0.12821954 0.006262944 0.020285396 -0.015498418
000220 fd 99 bb bd e9 5c b2 be 58 1c 85 be 5c 1c ec bd
       -0.0916023 -0.3483651 -0.25998187 -0.115288466
000230 39 15 34 bb 35 b2 bc 3d 1d a1 1c 3e ff 66 94 3d
       -0.002747847 0.09213678 0.15295835 0.072462074
000240 49 d3 56 be f2 7d 0e be 6d a6 5b be be a5 f6 bd
       -0.20979036 -0.13915232 -0.21450205 -0.120433316
000250 67 e3 3c be 20 56 74 bd 13 f9 9d be fd 29 31 3e
       -0.18446122 -0.059652448 -0.3085409 0.17301174
000260 dd d5 09 3f 8b bc 9b bc e8 e4 23 3d 12 cc 8d be
       0.53841954 -0.019010803 0.040013224 -0.27694756
000270 74 3e 99 3b 5f d1 96 3d 1c 2b 20 3c f9 13 97 3d
       0.0046766344 0.07364153 0.009775903 0.07376856
000280 c4 09 97 3b a9 ea 83 3d 32 ab 34 3e 32 a6 a9 3a
       0.0046093185 0.06441242 0.17643431 0.0012943207
000290 fd 6a 69 bc 8e 47 9e ba 21 95 59 3d f9 ed 1a 3e
       -0.014246699 -0.0012075768 0.053120736 0.15129842
0002a0 f0 60 d1 3d ae d5 4c 3e 99 bc c2 3e a8 a4 f6 3e
       0.102235675 0.20003387 0.38034514 0.48172498
0002b0 0d 90 94 be 0b d0 ab 3d 08 cb 38 3d 36 49 89 be
       -0.29016152 0.083892904 0.0451155 -0.26813668
0002c0 5e 9e f5 be f6 b8 ab bc c9 60 67 3d 2e c0 b7 3b
       -0.47972387 -0.02096222 0.056488786 0.0056076264
0002d0 6a 6e 0a 3c 86 85 7e 3e 1d b7 14 be 30 c5 50 bc
       0.008449176 0.24855623 -0.14522977 -0.012742326
0002e0 d4 42 c6 bc f9 e1 97 3e 7d c5 4a be 89 cf 1e 3e
       -0.024201788 0.2966459 -0.19801898 0.15508856
0002f0 e8 76 17 3d 23 81 44 3e 94 85 54 3d 53 3d c1 be
       0.036978632 0.19189887 0.051885203 -0.377421
000300 36 17 f0 bb 26 88 9b bd ef f3 ed 3d 7a 8f c9 3e
       -0.0073269857 -0.07594328 0.11618792 0.39367276
000310 3c 5c 83 3e ff 91 1f bc 9a dc a8 be db 76 a0 be
       0.25656307 -0.009739398 -0.32980806 -0.3134068
000320 a7 d7 a8 3c 50 f3 68 3e 93 24 96 be a7 d8 ac bb
       0.020610644 0.22749066 -0.2932478 -0.0052748504
000330 09 bb 65 be 50 52 5c 3b 9a 3a 5b bc 21 a7 8a 3e
       -0.2243463 0.0033618398 -0.013380671 0.27080634
000340 a2 56 b1 bd c0 c9 51 3b 25 2f 13 3e 22 f8 98 be
       -0.08659102 0.0032011122 0.14373453 -0.2987681
000350 b3 94 76 be b7 a3 05 3e 96 6f e8 be 26 ee 74 3c
       -0.24080162 0.13050734 -0.45397633 0.014949357
000360 b1 38 4f 3b a2 69 6c be 82 0c 90 bc c8 aa 7d bb
       0.0031619484 -0.2308717 -0.01758409 -0.003870653
000370 dc 8d b7 3e 15 55 8b 3e b6 81 09 3f 6f 46 e1 3e
       0.35850418 0.2721335 0.5371355 0.4399905
000380 7e 76 a4 3e 58 9b 2e bf f4 9b 96 be 93 fb ef bc
       0.32121652 -0.68205786 -0.29415858 -0.029294765
000390 2d 2a 09 bf 44 d9 0f bf 4d a0 b0 3e d9 c2 c1 3e
       -0.5357998 -0.56190896 0.344973 0.3784397
0003a0 b6 12 31 3e b5 58 a9 3e 2a 30 0a 3f 8c 6d 41 3e
       0.17292294 0.3307549 0.5397974 0.18889445
0003b0 2b 47 8e 3e 2d af 18 bc be ed 03 3d 24 ff 30 be
       0.27788672 -0.009319109 0.03220915 -0.17284828
0003c0 a7 75 c4 bc a4 27 e5 3b 93 06 61 3c 79 18 07 3e
       -0.023981882 0.006993251 0.013734478 0.1319293
0003d0 b2 bb e4 3c 5d 7c 9d bd 5e 21 10 3e 26 e5 b8 bc
       0.027921531 -0.07689736 0.14075229 -0.022570204
0003e0 e7 54 c5 bc 1c 87 31 3e 62 f6 d0 3e 45 0f 45 be
       -0.024088336 0.17336696 0.40812975 -0.19244106
0003f0 30 53 d2 bc a8 d8 6b bd b9 5a c7 3b 58 8f 85 bd
       -0.025674433 -0.057579666 0.006083813 -0.06521481

classifier.bias f4 [5]
000000 ad fd f3 be dc fe 80 3f 34 ab 56 3f ad bb 67 bf
       -0.47654477 1.0077777 0.83854985 -0.90520746
000010 5a dd ed be
       -0.4645794

features.9 f4 [120]
000000 94 e7 be bc 02 75 a7 3b 34 82 8c 3e 7b a0 71 3e
       -0.023303784 0.005110384 0.27443087 0.23596375
000010 4b 3c 32 bd 33 ec 2c bc ad ba 4c bc 99 01 90 3d
       -0.04351453 -0.010554361 -0.012495679 0.07031555
000020 7b d4 5d 3c 90 25 ed bb bd 8e e5 bb 76 d9 eb bd
       0.013539429 -0.007237144 -0.007005541 -0.11516087
000030 cd e6 72 3c b2 a7 a3 3b 8c 7d d9 3d d1 a3 ed 3c
       0.014825535 0.004994356 0.10619649 0.029008778
000040 f6 08 ef 3d 34 9a 82 bc f7 14 a7 bd f4 3c 4f 3d
       0.11671631 -0.01594267 -0.081582956 0.05059524
000050 d7 01 9a bb 70 88 aa 3d a1 57 02 bd 6d 20 4a bd
       -0.0046999264 0.08326805 -0.03182185 -0.04934733
000060 36 c6 9a 3d f2 a6 24 bd 22 d9 84 3d cb 51 00 bd
       0.07557337 -0.040198274 0.06486727 -0.031328004
000070 07 54 f9 3d 13 dd 26 3d 78 00 6c 3d d3 e3 6a bb
       0.1217423 0.040738177 0.057617635 -0.003584136
000080 a4 10 a3 bb f2 7f d8 3a c8 f4 d1 3c 62 cb a8 3a
       -0.004976349 0.0016517623 0.025629416 0.0012877996
000090 c0 74 db bc 2b 8a 56 bc ad c8 0a bb 62 d4 51 3c
       -0.02678907 -0.013094465 -0.002117674 0.012806984
0000a0 ef c9 44 3c 34 3f 2c bc e6 0a 14 3d 93 cb b8 bc
       0.012011035 -0.010513116 0.036143206 -0.02255801
0000b0 a1 b2 c8 3d 47 55 0e 3d 57 60 c3 3c 64 7e 5a 3d
       0.09799696 0.034749296 0.02384965 0.05334319
0000c0 6f c9 fb 3c a7 74 11 3e f2 36 8d bb 5c 42 9b bc
       0.0307357 0.14204656 -0.0043095285 -0.018952541
0000d0 a0 6a ce 3d c5 b0 1d 3d 4e ce b0 3a c5 32 4b bc
       0.10078931 0.03849866 0.0013489218 -0.012402241
0000e0 79 b8 f3 3c 13 d3 1a ba 98 41 10 3d 71 ff f7 3b
       0.02975105 -0.00059060863 0.035218805 0.007568293
0000f0 90 86 08 bd 41 a8 31 bc ff f8 0e 3d ef 99 0c 3c
       -0.033331454 -0.0108433375 0.03490543 0.0085816225
000100 28 8b 0b bb 27 a6 9d bb b9 bc 3c bc 8d cb ca 3c
       -0.002129266 -0.0048110667 -0.011519604 0.024755264
000110 e9 46 af bd 64 83 87 3d c3 0f bd 3c d3 86 3e bd
       -0.08558447 0.06616858 0.023078805 -0.046515297
000120 c6 4f 51 3d 28 48 c6 ba a3 ea 04 3c 9a 01 c1 3d
       0.05110147 -0.0015127705 0.008112582 0.094241336
000130 50 f3 ca 3d 23 9d 3b 3d c2 08 e2 3b 53 6d 0e bd
       0.099096894 0.045804154 0.0068980167 -0.03477223
000140 ae 99 b9 bc 80 42 23 bb 48 39 85 3d e3 da de bc
       -0.022656288 -0.0024911463 0.06505066 -0.027203983
000150 83 d4 5f bc 1f 76 20 bd 96 2a fe 3d eb 1b a2 3c
       -0.013661507 -0.03917515 0.124104664 0.019788703
000160 f2 5c c8 bd aa ce 14 3e 3a df fc b9 bf a5 8d 3c
       -0.09783353 0.14531961 -0.00048231502 0.017290948
000170 3c 0a 8a bd c3 92 ce bc a3 ff 9e 3d 3f 5d 1a 3e
       -0.06740233 -0.025216466 0.077636026 0.15074633
000180 6c 06 10 3d 5e 82 18 3e e5 1d 9c 3c f6 8f d6 3b
       0.035162374 0.14893481 0.019057224 0.006547923
000190 c8 c4 00 3b e7 64 98 bd 3d ee b7 3b 4d 55 9e 3c
       0.001964854 -0.074411206 0.005613117 0.019327784
0001a0 68 1d c0 3d 9e 36 80 3c 94 9b 65 3c 3c ef 43 3e
       0.09380609 0.015651044 0.0140141435 0.1913423
0001b0 5d bd 2b 3d 8e 0d ac 3d 5f 9c 85 3c 48 3a 51 3d
       0.041928638 0.08401023 0.016309915 0.051080972
0001c0 4b 49 b1 3d c5 c0 14 bd 4e 55 6b bd 38 ad 82 bb
       0.08656558 -0.03631665 -0.0574544 -0.0039879344
0001d0 be 9c 4e bd fd 8b 17 3c dd 6c 08 bd c5 d0 81 bd
       -0.05044245 0.009249684 -0.033306945 -0.06338648
