checkpoints_lenet5/baseline_scratch/lenet5/food_containers/checkpoint-100.pth.tar (torch, 312211 bytes, 12 tensors)

features.0.weight f4 [6, 3, 5, 5]
000000 d0 7d d2 be b0 71 88 be f1 e9 81 ba 3a 18 b5 3e
       -0.41111612 -0.26649237 -0.0009911639 0.35370046
000010 d3 49 e3 3e 8c b9 b8 bd ac 85 5a be 87 a3 46 be
       0.4439226 -0.09019765 -0.21340054 -0.19398318
000020 c1 52 46 3e 03 84 05 3f a2 54 35 3e 88 95 a5 be
       0.19367506 0.5215456 0.17708066 -0.32340646
000030 35 69 c3 bd 60 a2 98 be da 1a 7c 3e c9 64 28 3e
       -0.09541551 -0.29811382 0.24619618 0.16444696
000040 86 9a ed 3d b1 d8 c0 be 94 e4 2a be 5c dc 8c bc
       0.11601739 -0.37665322 -0.16688758 -0.01719492
000050 75 b3 39 3e a3 2c 6a 3e fe eb 45 3d d1 e1 c3 be
       0.18134864 0.2286859 0.048320763 -0.38258222
000060 e7 92 a5 be c2 dd 6b bd 1e 63 f2 bd b9 ac 00 be
       -0.3233864 -0.05758453 -0.11835311 -0.12565888
000070 5c 2f 04 3e d6 80 a4 3e 52 92 a7 bd 79 d9 5d be
       0.12908691 0.32129544 -0.08182205 -0.2166499
000080 76 5b 82 bd e7 4f 93 bd bd 7a 85 3e 16 be 8d 3e
       -0.06365101 -0.071929745 0.26070204 0.27684087
000090 0e dd c1 bc 0d d3 fe be 28 57 8c be fa f1 8a 3e
       -0.023664977 -0.49770394 -0.27410245 0.27137738
0000a0 77 28 b3 3e 8a e7 e0 3d 26 5d 53 be 8f 8b ce be
       0.3499181 0.109816626 -0.20641002 -0.4034085
0000b0 cb f4 78 3d 49 44 1d bd c2 5d 62 3e ae ba 9a bc
       0.060780328 -0.0383952 0.22106078 -0.018887844
0000c0 57 5e c1 be 5d 34 99 be a4 59 07 be 87 73 d1 be
       -0.37767288 -0.29922763 -0.13217789 -0.40908453
0000d0 31 33 dd bd d3 7d 97 3e 8b 24 e8 3e c4 d7 b6 3d
       -0.108007796 0.29588184 0.4534038 0.08927873
0000e0 f6 c0 bb be f6 de bb be 87 a5 ca bc 92 ae e3 3e
       -0.36670655 -0.36693543 -0.024737133 0.44469124
0000f0 e2 1b a1 3e c6 9a a3 bd 27 f4 b0 be 39 74 c3 bd
       0.31466585 -0.07988505 -0.34561273 -0.09543652
000100 61 0a 3d 3c 22 46 1e 3e 67 d3 eb 3d 2e 2c 7d bd
       0.011538119 0.15456441 0.11514931 -0.06180971
000110 ca dd fb be 0d 1f 82 bd 2e fb c5 3e f4 52 c4 3e
       -0.4919265 -0.06353579 0.38668197 0.38344538
000120 b3 ef 09 3e 7b e9 83 be a5 44 09 bf 92 bb 25 3d
       0.13470344 -0.2576407 -0.5362037 0.040462084
000130 f9 6d 64 3e 30 67 21 3e 29 08 51 3b 24 10 f3 bc
       0.22307576 0.15762019 0.0031895733 -0.029670782
000140 e7 6a 7f 3e 8b 6d b7 3e 06 d6 92 3d 83 4d b5 be
       0.24943124 0.35825762 0.07169728 -0.354107
000150 30 39 d3 bd e0 c0 0d 3e 1b 85 18 be 32 13 5f be
       -0.10313642 0.13843107 -0.14894526 -0.21784666
000160 56 f2 d3 bd c7 0f 7a 3d e4 4d 28 be d7 ef 44 be
       -0.10348956 0.061050203 -0.16435963 -0.19232117
000170 87 47 ee be cf 3e c3 3d e3 b0 4c 3e ab dd d2 bd
       -0.46538946 0.09533464 0.19989352 -0.10296186
000180 e7 be 95 bc 73 3c 3d 3c 42 e0 97 3e 0c 6f 68 3d
       -0.018279506 0.011550057 0.29663283 0.056746528
000190 f2 5f 4a bd 6f 8e 1e 3e 14 41 85 3e c9 24 40 be
       -0.049407907 0.15484022 0.26026213 -0.18764032
0001a0 81 8e 86 be 11 cf df 3e 44 9f 04 be 4d 94 79 3c
       -0.26280597 0.43712667 -0.1295138 0.015233112
0001b0 45 c2 85 be b2 35 87 be fc 50 12 3e 63 11 85 bd
       -0.26124778 -0.26408154 0.14288706 -0.06497457
0001c0 bc 79 1b bf ec 26 c1 be 09 96 a2 3e 9d 07 72 3d
       -0.60732627 -0.37725008 0.31755093 0.05908929
0001d0 73 ee ae be b9 44 9e be c2 b1 3d 3d e5 a1 f1 3e
       -0.34166297 -0.30911806 0.0463121 0.47193828
0001e0 70 97 9b be 76 64 44 be 69 3e e7 3d 9a b0 c2 3e
       -0.30388975 -0.19178948 0.11291201 0.3802536
0001f0 20 ff a2 3e ec 60 c3 bb eb 79 13 3c dc 17 81 3e
       0.3183527 -0.0059624817 0.0090012355 0.25213516
000200 2b 04 dd bd 65 c2 97 bd cf f4 f7 3d 97 d2 9f 3e
       -0.107918106 -0.07410125 0.121072404 0.31215355
000210 11 8f e1 3d 50 bd 90 be 1c da 47 be 38 8e 40 3e
       0.11013616 -0.28269434 -0.19516796 0.18804252
000220 3a 67 d4 3c 90 5f 75 be bb 92 52 be 51 37 87 3e
       0.025928129 -0.23962235 -0.20563786 0.2640939
000230 6a 19 0e bb 30 dc 0c be f6 b1 a2 be d7 63 91 3d
       -0.0021682628 -0.1375587 -0.31776398 0.07099121
000240 ef eb 43 3e d0 bd 3b 3d b8 d5 80 be b4 01 9a 3c
       0.1913297 0.045835316 -0.25163054 0.01879964
000250 2d fa 17 3f 94 7d 1a 3e 39 c6 c6 3d 95 e6 64 3e
       0.5936611 0.15086967 0.09705777 0.22353585
000260 28 3e fb 3d 77 62 19 3e 9a 2d 7e bd f0 24 ae 3d
       0.12267715 0.14978968 -0.062055208 0.08503139
000270 b3 6f 66 3e f5 5b 14 3e de 84 44 be db 93 2d be
       0.22503547 0.14488204 -0.1919131 -0.16950934
000280 70 df ec 3c 13 4c 18 3e a9 32 68 be 9e b7 f0 be
       0.028915137 0.1487277 -0.22675575 -0.4701509
000290 4b ab dd bd 80 2e f6 3d 93 16 fc bd 90 71 7f be
       -0.10823687 0.12020588 -0.12308993 -0.24945664
0002a0 c1 eb da bd 3e e3 97 3d 7e da 8d 3c 4e 34 86 bd
       -0.10689498 0.0741639 0.0173161 -0.06552945
0002b0 85 3c f0 bd 9e 38 1e be 1c c7 0f 3f 00 8b 63 3e
       -0.11730293 -0.15451285 0.5616319 0.22220993
0002c0 a6 52 37 3f a2 86 d0 3e 4f 5a bb 3e fa bd e3 bd
       0.71610487 0.40727717 0.36592337 -0.111202195
0002d0 4a 83 95 3e 0c a2 d5 3e c6 42 6b 3e e5 dd 11 3d
       0.29201728 0.41725194 0.22974691 0.035612006
0002e0 1c 5a ea bd 5e 6e ea 3c ab 24 26 3e 70 98 bf be
       -0.11442968 0.02861708 0.16224925 -0.37420988
0002f0 9f 41 12 bf c1 85 8e be 23 59 4c 3b 83 e8 0a 3c
       -0.5713138 -0.2783642 0.003118106 0.008478287
000300 af 97 99 be e0 6a c9 be 44 2f 20 be ef f1 af bd
       -0.29998538 -0.39339352 -0.1564303 -0.08591067
000310 f4 b2 07 3e 61 60 33 be 09 e2 46 be 1e f6 a1 3e
       0.13251859 -0.17517234 -0.19422163 0.31633085
000320 14 54 2b 3e 35 d9 fa 3e 52 e2 2a 3f fd 7d 53 3e
       0.16731292 0.4899384 0.6675159 0.2065353
000330 ca 20 69 bd 68 79 9f 3e 55 bf 09 3f 80 01 ad 3e
       -0.056916036 0.31147313 0.53807575 0.33790207
000340 c9 35 a5 be 39 a7 cf be 96 df 4d bd 6d 19 08 be
       -0.32267597 -0.40557268 -0.050262056 -0.13290949
000350 9b 4f f6 be 46 d9 37 bf 00 8b 21 bf be 8a 5f 3d
       -0.4810761 -0.7181591 -0.6310272 0.054575674
000360 4b d4 f5 3b e7 39 be be 7a d6 ab be a1 4d 2c be
       0.007502114 -0.3715355 -0.3356207 -0.16826488
000370 1d 8f c7 3d 1c ea 69 3e de 4b 77 be 8c b9 96 bb
       0.097440936 0.22843212 -0.24150035 -0.0045997556
000380 12 f3 80 3e ea fd a0 bd c5 48 40 be 04 a0 ba be
       0.25185448 -0.0786093 -0.1877776 -0.36450207
000390 61 10 36 bd 05 6d c4 3e 71 2d 17 bd e7 9b 79 be
       -0.044449214 0.38364425 -0.03690857 -0.24375878
0003a0 da cb 24 3b 72 e5 c2 3d 19 ad e3 3d 0c 19 14 3d
       0.002514592 0.095164195 0.11117 0.0361567
0003b0 af 1a 60 be bb 3d 8d be 7e 3b d7 3b ad cd 15 3e
       -0.21885179 -0.2758616 0.0065683713 0.1462924
0003c0 18 8d 8f 3d 6f cf 5a be c1 f4 35 be 49 98 25 3e
       0.07009333 -0.21368192 -0.17769147 0.16171373
0003d0 65 86 cd 3e ab 62 ba 3d b8 7d b3 bd 0b 3d 5d 3d
       0.40141597 0.09100851 -0.08764213 0.054013293
0003e0 91 a7 88 3e f3 77 9d 3e 8a ee 80 3c 52 0d 55 be
       0.26690343 0.30755576 0.015738744 -0.20805863
0003f0 68 1d da be ce b9 82 3d 61 30 80 3e 3e c3 51 3e
       -0.4260056 0.06383096 0.2503691 0.20484635

features.3.weight f4 [16, 6, 5, 5]
000000 42 1c fb bd cc a8 a1 3e c6 67 e4 3d a8 cb a4 bd
       -0.12261249 0.31574094 0.11152606 -0.08046657
000010 06 6b 9e 3d 1e 17 05 be 07 14 cf 3c e0 28 d7 bc
       0.07735257 -0.129971 0.025278104 -0.026264608
000020 f8 e5 9d be a3 8b 69 3d c5 02 a1 bd 14 c1 85 bd
       -0.30839515 0.057017934 -0.07861856 -0.06530967
000030 3a 33 86 3d 8f eb 8b be e1 34 dd bc 83 49 ef 3d
       0.065527394 -0.27328154 -0.027002754 0.11683943
000040 0d 95 c8 bd 5e 69 64 3e 0b b0 39 3d 36 e8 87 be
       -0.09794054 0.2230582 0.045333903 -0.2654435
000050 81 d6 69 3d 4e d8 3f bd 88 56 7b 3d 35 7c 4c bd
       0.057089332 -0.046837144 0.06136182 -0.04992314
000060 91 0d 69 be d8 f9 3a 3d 6a 74 84 bd c8 0b aa 3b
       -0.22759081 0.045648426 -0.06467517 0.0051893927
000070 74 e5 1d b9 61 5c 1e 3e f9 8d 17 3e aa 85 7e 3c
       -0.00015058165 0.15464927 0.14800252 0.015534798
000080 2c 55 a9 bc 44 23 c5 bd 4d e0 a6 bd d9 f2 2c bc
       -0.020670496 -0.09625867 -0.08148251 -0.010555946
000090 14 2a fe bb 18 da 61 3d b6 d8 8a bd 1d dd 81 bd
       -0.007756481 0.05513963 -0.067796156 -0.06341002
0000a0 cf d5 6a bd b8 61 e6 bd 3c ef 8f be fd 34 6b bd
       -0.05733281 -0.11249107 -0.2811221 -0.05742358
0000b0 92 5e 6a be 0c 51 c9 3c 8a 2f ae bd b1 c6 8a bd
       -0.22887638 0.024574779 -0.08505161 -0.06776179
0000c0 29 fc 83 3d 92 8c ef bd da 85 12 3e 0c 7b 33 be
       0.0644458 -0.116967335 0.14308873 -0.17527407
0000d0 6a 4d 85 be 8e 97 07 be f6 f4 38 be d6 52 27 3e
       -0.26035625 -0.13241407 -0.18062195 0.16340193
0000e0 3e 95 54 3c 15 53 16 be 14 ab 0c be 91 d9 66 be
       0.012975035 -0.14680131 -0.13737136 -0.22543932
0000f0 74 cb 2e 3d 01 b5 bb bd ff 8f 82 bd 42 2e 68 be
       0.042674497 -0.09165383 -0.06375121 -0.22673896
000100 bf 0c 75 be 77 b3 91 bc d3 3f 40 bd 3b 12 67 bc
       -0.23930643 -0.01778577 -0.046935868 -0.014103468
000110 65 97 08 be 4f 82 3d be 44 9c f0 bd e5 6a 65 be
       -0.13339002 -0.1850674 -0.11748555 -0.22404058
000120 14 16 29 3e c6 8b 4d be 1e 37 bb be 00 ef b3 3d
       0.16512328 -0.2007285 -0.3656549 0.0878582
000130 7d d2 b6 3e 03 c1 bc 3e 10 45 02 be a8 7a 12 3e
       0.35707465 0.36866006 -0.12721658 0.14304602
000140 4f 67 f2 bd 74 e4 92 3a 9f e0 98 3e e5 a8 2e be
       -0.11836111 0.0011207 0.29858872 -0.17056616
000150 f2 30 92 3d fc f0 3d bd 50 f3 15 be 45 31 15 3e
       0.07138242 -0.0463724 -0.14643598 0.14569576
000160 61 d5 0a bd 74 65 23 be 0e 7d 64 bc a9 1d 16 be
       -0.0338949 -0.1595667 -0.013945831 -0.14659752
000170 50 c4 3a 3e 03 4e cf 3d 79 91 6d bb 5f a7 ae 3d
       0.1823895 0.101223014 -0.0036250039 0.08528017
000180 22 93 71 be 31 7e ad bd 87 97 8e 3e 47 9e a5 3d
       -0.23591283 -0.08471335 0.2784998 0.0808683
000190 4f 4a 18 3e 56 61 21 3e bb 80 01 3d 58 f3 17 be
       0.14872096 0.15759787 0.031616908 -0.14838922
0001a0 da 9a 11 bd 12 40 7c 3d bd 7c e2 3d 19 83 55 bd
       -0.03554807 0.06158454 0.11058948 -0.052126978
0001b0 7a 73 f2 bd 82 7e 23 be 47 44 21 bd e8 ef 9d 3d
       -0.11838432 -0.15966228 -0.039371755 0.07711774
0001c0 d7 be c0 3d 2e 27 59 3d 5d 05 80 3d c4 05 41 bd
       0.094114 0.05301588 0.06251023 -0.04712464
0001d0 83 11 2b 3e e5 d6 02 3d 62 c5 f2 3d 7c 5f b8 3d
       0.16705899 0.03194322 0.11854054 0.09002587
0001e0 62 a0 89 3d f6 00 d9 3b bc f8 00 3e b4 77 fc 3c
       0.06720044 0.006622429 0.12594885 0.030818798
0001f0 97 fe 7b 3d f2 36 9d 3d 99 29 3d be fa f6 fe 3b
       0.061522093 0.076764956 -0.184729 0.0077809067
000200 6c 02 6b 3e 69 a4 99 3d eb 33 f1 3d 31 ae 53 be
       0.22950143 0.07502062 0.11777481 -0.20671917
000210 dd 72 84 be e9 15 bf 3d ba a5 51 bd 64 fe 77 3e
       -0.25868884 0.09330351 -0.05118344 0.24218136
000220 a9 f8 5b 3d 32 cd 97 be 00 5d 07 3e 68 6e 08 3d
       0.053703938 -0.2964874 0.1321907 0.033308417
000230 6e 3b 2f 3e 04 12 2c 3e 23 37 b0 be c5 60 1c be
       0.17112514 0.16803747 -0.34417066 -0.1527129
000240 af 33 9a 3c c9 70 97 3d 8b d0 9e 3e b1 5b b4 bd
       0.018823473 0.07394559 0.3101848 -0.08806551
000250 af d1 45 be 1c 5c 0e 3d b3 9a 2b be c8 1c 49 be
       -0.19318269 0.03475581 -0.16758232 -0.19639885
000260 23 f2 b1 bc 08 a1 81 bc 53 79 e4 3d 31 dd 17 3e
       -0.021721905 -0.015823856 0.11155953 0.14830472
000270 a6 e6 a4 be 74 70 b7 bd 86 66 5d bd d6 15 88 bd
       -0.3220722 -0.089569956 -0.054052852 -0.0664479
000280 c8 c0 75 3e 70 78 3e bc 0d 29 af be ff 54 61 3d
       0.23999321 -0.011625394 -0.34211007 0.0550127
000290 e9 c7 db 3d 99 7a 18 3e 8d 3b 1b 3f b2 7a 27 be
       0.10731489 0.14890517 0.6063774 -0.16355398
0002a0 a9 38 ed bd ba 4d 59 3c 82 b7 8d be 4a 6d 27 3f
       -0.11583073 0.01326316 -0.27679068 0.65401137
0002b0 4c 19 a7 3e 4f 5b 12 be 46 ab 10 bd ae 12 7b 3d
       0.32636487 -0.14292644 -0.03531959 0.06129711
0002c0 58 61 ea 3d 45 62 01 be db bc 2d 3d e1 48 07 bd
       0.11444348 -0.12635143 0.042416435 -0.033028487
0002d0 54 94 eb bc 68 4a 14 be c6 95 f6 bc f6 61 d1 bd
       -0.028757252 -0.14481509 -0.030100714 -0.10223763
0002e0 68 1d 56 bd 64 64 9b bd 67 39 2c 3d 1a 5c 2d bd
       -0.052274138 -0.07587507 0.04204693 -0.042324163
0002f0 06 2a a3 bd 72 ed 5f 3d e0 3f c2 3c 79 bc aa bd
       -0.07967 0.054669805 0.023712099 -0.083367296
000300 db 0a d6 bb df ff f2 bd 58 33 0a bd 83 85 17 be
       -0.006532056 -0.1186521 -0.03374037 -0.14797024
000310 07 7a be 3c 51 f1 56 3d 8d f5 cf bd 30 0f c4 bc
       0.023251547 0.05247623 -0.10154257 -0.023933023
000320 f2 6d a2 3c c4 d6 d4 bd 5f 90 32 bd 84 5b 36 bd
       0.019827817 -0.10392526 -0.043594714 -0.04452087
000330 41 c5 25 3d c4 1d 18 bc 79 8c 16 be 1b 71 ab bc
       0.04047132 -0.00928444 -0.14702024 -0.020927956
000340 74 9f 2e bd 0b 9c ff bd 0e 59 e1 3c 78 d7 a6 be
       -0.042632535 -0.12480935 0.027508285 -0.32586265
000350 94 1a a7 be 37 98 0b be e9 a1 b8 bd 48 ec c8 bd
       -0.32637465 -0.13632284 -0.09015257 -0.09810692
000360 b3 b5 30 be a5 fb 76 be 66 8c 49 be ca aa 82 be
       -0.17256813 -0.24119432 -0.19682464 -0.25520927
000370 ec 10 dd bd a6 5d 6c bb 85 a6 a4 be 1b 0e 3f be
       -0.10794243 -0.003606656 -0.32158294 -0.18657725
000380 4b 23 ce be dd c4 62 3d 64 9c e9 3c 1e c3 16 be
       -0.402613 0.055363525 0.028516956 -0.14722869
000390 fd fc 84 3d 45 a3 4d 3d ed 93 dd 3d f5 61 6b be
       0.06493566 0.050204534 0.1081923 -0.22986586
0003a0 d0 5b 7b be f5 4a 2a 3d 91 13 d9 bd ec ac 8c 3e
       -0.24546742 0.04157539 -0.10599435 0.2747568
0003b0 25 e5 66 bd 11 29 f7 be 4a 67 c8 bd 2a 65 37 bd
       -0.056370873 -0.4827352 -0.09785326 -0.044774212
0003c0 ea d0 e8 bd ed 72 65 3d c1 a8 1d be 81 2f 8c be
       -0.11367972 0.056017805 -0.15396406 -0.27379993
0003d0 0f a2 f1 bd b9 00 3e be de 2f 84 3d 04 3a bb 3d
       -0.11798488 -0.18554963 0.064544424 0.09141925
0003e0 55 4e f2 bd 41 72 96 bd 63 00 ea 3c 03 08 ac bd
       -0.11831347 -0.07346011 0.028564638 -0.083999656
0003f0 8e 3b a5 3d 37 ce bc 3c 59 d8 20 3e 93 12 1a bd
       0.08068 0.02304755 0.1570753 -0.03761537

features.7.weight f4 [120, 400]
000000 07 ac 5a 3b 41 d4 11 bc 46 b0 a8 bb 9b 20 95 bc
       0.0033366696 -0.008900703 -0.0051479666 -0.018204024
000010 24 fe 84 3d e0 f5 9f 3c 06 a5 3a 3d cc 18 e1 bb
       0.06493786 0.019526422 0.045567535 -0.006869411
000020 20 bd 9a b9 8a b2 bc 3b cd 4f c7 3c 82 2d 3b 3d
       -0.00029514078 0.005758588 0.024330044 0.045697697
000030 23 90 b2 bc cf 32 1a bd a6 92 2e bd 29 ba e3 bc
       -0.021797245 -0.03764611 -0.042620324 -0.027798729
000040 be 07 94 3c 4a ff 46 bc 01 ad 66 bc 49 bb 75 bc
       0.018070098 -0.012145827 -0.014079333 -0.014998266
000050 24 c6 16 bd 7a 0a 5d 3c 3a 8d b2 bb b5 b3 47 bd
       -0.036810055 0.013491267 -0.0054489644 -0.048755366
000060 b0 30 23 3d fb c1 82 bc 4c 26 1d bc 6e ee b8 bc
       0.039841354 -0.015961638 -0.00959165 -0.02257463
000070 73 de b0 bc c9 ec 06 3d 9c b4 15 bd ee d1 b7 bc
       -0.021590447 0.03294066 -0.036549196 -0.02243897
000080 1e b7 f7 ba 91 5b 7c bd bd ea e3 bc 32 dc ce bb
       -0.0018899178 -0.061610762 -0.027821893 -0.0063128704
000090 a8 24 61 bd da 1b 99 bc b0 62 55 bd 62 47 a2 bd
       -0.0549666 -0.018690038 -0.05209607 -0.079237714
0000a0 7a ca 6c bb 9c 67 08 bd 22 24 c1 bc 1f ff 7b bd
       -0.0036131428 -0.033301935 -0.0235768 -0.0615226
0000b0 e9 36 b6 bc e7 81 f0 bb 8b 10 ae 3c f8 1f ea 3b
       -0.02224298 -0.0073397043 0.021248123 0.0071449243
0000c0 99 cc 48 bd d1 b4 9c bb 79 7c b0 3c 68 17 4c 3d
       -0.049023245 -0.004782297 0.021543728 0.04982701
0000d0 07 17 99 ba 87 49 20 bc ea 2a 07 3d b9 78 d8 3c
       -0.0011679836 -0.009783155 0.03299991 0.026424753
0000e0 66 96 3d 3d 92 88 47 3d e9 94 d5 3c 28 5b ae bc
       0.04628601 0.048714228 0.026071982 -0.021283701
0000f0 be a5 3d bc f9 37 28 3d 4a 68 36 3d 86 9c 32 bc
       -0.011575161 0.041069005 0.04453305 -0.010901576
000100 44 1f 15 bd 6c 58 6f 3b 78 4c 2c 3d 0f 1c d7 3c
       -0.03640677 0.003652121 0.042065114 0.026258497
000110 d8 fe aa 3c d6 c8 45 bd 64 ad 11 bc 63 31 48 3d
       0.020873472 -0.048287235 -0.008891437 0.048875224
000120 81 35 12 3d 9f 32 dc bc 7d 0a 79 bd 2f b8 a3 3d
       0.035695557 -0.026879607 -0.060801018 0.079941146
000130 9e 70 03 3e 82 59 38 3d 16 6a 88 3d 10 57 a4 3d
       0.12835929 0.045007236 0.06660859 0.08024418
000140 01 82 90 3d e2 68 30 3d b3 86 2b bd 19 19 71 3c
       0.07056046 0.043068774 -0.041876506 0.014715456
000150 cd 3c 50 3d b2 2e 5d 3d 7c 4b 63 3c 40 6e c4 3c
       0.050839234 0.05399961 0.013872977 0.023978353
000160 0a fc 79 bc f2 9f e0 3c 2f e8 23 3d 05 63 71 bd
       -0.015257845 0.027420018 0.04001635 -0.058932323
000170 30 2f 26 3d 19 17 20 bd 20 15 c4 bc 80 e8 6d bc
       0.040572345 -0.039084528 -0.023935854 -0.014520764
000180 78 b8 be bd fc 60 92 bb 6c 84 45 ba a6 26 88 ba
       -0.09312528 -0.004467128 -0.0007534686 -0.0010387495
000190 60 6a c6 3c f8 32 8a 3c 39 a8 fc 3c cf ce e6 3c
       0.024220645 0.016870007 0.030841934 0.028174786
0001a0 db 30 48 3d 61 1d d4 bc e3 79 c9 bc 8b d6 4f 3c
       0.048874717 -0.025892915 -0.024594253 0.012685428
0001b0 ae 56 6d 3b cf a9 9e 3c 23 46 f7 bc 53 55 fa bc
       0.0036214995 0.01936808 -0.030184811 -0.030558264
0001c0 71 52 20 bc c9 d9 93 bc 89 36 84 3b 77 fa b9 bc
       -0.009785281 -0.018048184 0.0040348214 -0.022702439
0001d0 90 19 40 bd 90 c1 11 bd 25 70 84 3b e8 64 a7 bb
       -0.04689938 -0.035584986 0.004041689 -0.0051084645
0001e0 8a 40 89 3c f6 1f 5f bd 5a 26 80 bd b9 be 89 bc
       0.016754407 -0.05447384 -0.06257315 -0.016814576
0001f0 a3 7f 28 bc 24 88 96 3b 2b b1 39 3b 29 23 5b 3b
       -0.010284337 0.004593866 0.002833436 0.0033437705
000200 25 02 a6 3c 9a 7e 2a 3d 3d a9 cb bc d1 7f d7 bc
       0.020264694 0.041624643 -0.024860973 -0.026306065
000210 78 41 80 bc 02 14 bc bb d4 bd 8f bb d0 9d 63 bc
       -0.015656218 -0.00573969 -0.004386643 -0.013892606
000220 2d d5 f0 bc d9 e7 d1 bb c0 14 91 ba a7 c1 c2 bc
       -0.029398525 -0.006405812 -0.0011068806 -0.023773981
000230 d5 06 66 bc c3 5c 22 bc c3 74 89 bc 94 c1 8f bc
       -0.014039715 -0.009909811 -0.01677931 -0.01754836
000240 4d 6f 8e bc 27 23 ef 3b 92 0a 0a bd d7 78 07 3b
       -0.017387057 0.0072978917 -0.033701487 0.0020671391
000250 c0 08 0a bb 3c 8c 36 bc 81 34 15 3d 4a 44 25 3d
       -0.0021062344 -0.011141833 0.036427025 0.04034833
000260 88 16 11 3d 0c da 97 3d 04 d5 6f 3d ae e6 a8 bc
       0.035421878 0.07414636 0.058552757 -0.02061781
000270 c9 8d 15 3d 7e 20 df 3c 31 d4 13 3d 9d 02 0f bd
       0.03651217 0.027237173 0.036091033 -0.0349146
000280 d2 8d 0f bd 91 e1 53 38 f4 0c 2d 3c fe d2 17 bd
       -0.03504736 5.0516395e-05 0.01056217 -0.037066452
000290 c3 1f 80 bd 4e 2c eb bc 66 eb cf bc df a9 59 bb
       -0.06256058 -0.02870765 -0.025380801 -0.0033212823
0002a0 e8 8e b9 bc c5 39 99 bd 6a a7 eb bc 43 fd 8b bd
       -0.02265115 -0.07481722 -0.028766353 -0.06835415
0002b0 41 9c 0e bd 5e 04 1d bd f7 ee b8 bd 9f 9a 86 bc
       -0.034816984 -0.038334243 -0.09029954 -0.016431151
0002c0 fb 7a a7 b9 47 ed ef bc 5b 5c 1e bd 25 0d 91 3b
       -0.0003194435 -0.029287947 -0.038662296 0.004426616
0002d0 8e bd 9c bd 12 ce e0 bc b7 0a b8 bc 0b 7a 88 bd
       -0.07653342 -0.027442012 -0.022466047 -0.06663903
0002e0 3c d0 01 bd ab 24 7c bd d7 90 e3 bc 6d 0f 8c bc
       -0.03169273 -0.061558407 -0.027779026 -0.0170972
0002f0 bc 8d b2 bb e1 af f9 bc 0e 0e 51 bd 11 d7 63 bb
       -0.005449025 -0.030479373 -0.051038794 -0.003476564
000300 52 71 70 3c 82 e5 7f 3c e9 12 52 bb bc fe b1 bd
       0.014675455 0.015618684 -0.0032054728 -0.08691165
000310 fd 37 24 3b f8 4d d1 3c 9c f1 33 3c 74 ff ba ba
       0.0025057786 0.025549874 0.010982897 -0.0014266805
000320 e8 f6 d2 3d bf db 90 3d 36 85 79 3d c5 79 1f 3c
       0.10301 0.07073163 0.060918055 0.009733622
000330 1c b7 bb bd 3d 20 04 3c 07 a0 26 bd 89 a4 37 3c
       -0.09165785 0.008064327 -0.040679958 0.011208662
000340 99 26 92 bc 1b f4 1c 3d 79 39 98 3c dd 4e 4a bd
       -0.01784067 0.038318735 0.018582093 -0.049391616
000350 b3 57 e8 3c 2a b2 0b 3d 3a e7 cc 3c e2 5f 00 bc
       0.02836213 0.034105457 0.025012601 -0.00783536
000360 24 34 0d bd 99 70 5b bd f9 98 e4 bc b8 90 a0 bc
       -0.034473553 -0.05357418 -0.027904974 -0.019600257
000370 07 86 c7 3c a4 c5 09 bd a5 d8 96 bd 31 c3 0a bd
       0.024355901 -0.03363575 -0.073655404 -0.033877555
000380 a8 08 44 bd b0 68 3d 3d ba e9 75 3c dd 4b b2 bc
       -0.047859818 0.046242416 0.015009338 -0.02176469
000390 e7 45 a0 3b e6 0c 8f 3c 14 54 16 3d da bf 3d 3c
       0.0048911455 0.017462205 0.036701277 0.0115813855
0003a0 77 41 89 3c 47 ac 0c bc 33 5a 5b 3d 56 be ab 39
       0.016754849 -0.008585996 0.053552818 0.00032757473
0003b0 34 aa 9d bb 48 44 9a bb 30 2a 4b 3c 8c 6d f3 b9
       -0.0048115496 -0.004707847 0.012400195 -0.0004643019
0003c0 8e 29 44 bd 8e 4e c4 bc 44 ac d3 bb bf 21 8f bc
       -0.047891192 -0.023963239 -0.0064597446 -0.017472146
0003d0 91 2f 61 bd fb 5d 92 bd c9 5f 82 3c b2 87 e1 bc
       -0.054977003 -0.071468316 0.015914815 -0.027530525
0003e0 24 b1 48 ba f4 d3 cb 3c 5f b4 5e bc 37 39 2e 3c
       -0.00076557905 0.02488134 -0.0135928085 0.010633758
0003f0 0d 73 1e 3c bf 96 31 bd f7 58 85 3c b1 fb 6a 3c
       0.009670985 -0.043356653 0.016277773 0.0143422345

features.7.bias f4 [120]
000000 d0 c9 ac 3b e1 98 74 3c c9 f1 4a 3d 01 7c 45 3d
       0.0052730814 0.014929027 0.04954699 0.048213962
000010 fc 79 76 3d 5b a3 e2 3d 74 e9 a8 3c 97 a0 1c 3e
       0.060174927 0.11066314 0.020619132 0.15295635
000020 33 d3 a5 3e 04 fd cf 3d 63 ed 6b 3e 16 29 c3 3e
       0.32387695 0.10155681 0.23039775 0.38117284
000030 97 c7 e0 3d fa 93 a1 3c 63 db ac 3d 5d 48 ed bc
       0.10975569 0.019723881 0.08440282 -0.02896517
000040 5b 18 06 3e ba 59 f3 3c 87 7c ad bd 4e d0 45 3d
       0.13095228 0.02970587 -0.08471017 0.048294358
000050 63 71 d7 3d 60 96 7a 3d d4 1b 31 3e e5 d9 27 3e
       0.10519674 0.061178565 0.17295772 0.16391714
000060 9c 9b 44 bc ad 9d df 3d e7 9f 86 bc b4 dd 15 bd
       -0.011999991 0.10918746 -0.01643367 -0.036588386
000070 0c 99 f6 3d 5f 17 74 bb 2f 1d 6b 3d f1 f9 6c 3a
       0.1204091 -0.0037245376 0.05740088 0.000903993
000080 2d b5 ca 3d 6e 2e 0b bc 66 0d bf 3d a5 45 ab 3c
       0.09897838 -0.008494956 0.093287274 0.020907233
000090 c2 0c d3 3d b5 6d f6 bc bb 3d 03 bc db f5 5e 3e
       0.10305168 -0.03008161 -0.008010323 0.21773474
0000a0 c7 18 46 3d 68 5e 8b 3c 12 2b dc 3d 1c 66 3e bd
       0.048363473 0.01701279 0.107504025 -0.046484098
0000b0 f6 42 2a bc 59 54 ec 3c 89 f5 26 3d fd fa 83 3e
       -0.010391941 0.028848814 0.040761504 0.25777426
0000c0 68 0a e1 3d 7a 6d 3e 3e 5e 61 2d 3d e7 d4 d2 bc
       0.10988313 0.1859645 0.042329185 -0.025736285
0000d0 de 27 d1 bb 59 06 9b 3d e8 f8 e0 3d 75 64 04 3e
       -0.0063829264 0.0756957 0.10984975 0.12928946
0000e0 7d dd 5d 3d 2f 69 9c bd 52 ca 80 3c 64 82 07 3b
       0.054166306 -0.0763725 0.015721474 0.0020677084
0000f0 83 af 0d 3c 7a dd 94 3d 16 bc 9e bd 7a 67 2e 3d
       0.008647802 0.07268806 -0.07750718 0.04257915
000100 bc f3 b7 3c 52 56 a9 3d 92 a3 ae 3d 51 3b 05 3d
       0.022455089 0.082684174 0.08527292 0.03252727
000110 9f de 03 3e 74 8d a8 3d f0 c8 f6 3d ba a2 4e 3e
       0.12877892 0.08230105 0.120500445 0.20179263
000120 9f c5 3b 3c 43 95 10 3d 03 a3 03 3e 3c 80 55 3d
       0.011460691 0.035298597 0.12855153 0.052124247
000130 bb 82 90 3e 74 5b 7b 3d 65 b1 ae 3e 56 38 bb 3d
       0.2822474 0.061366513 0.34119716 0.091416046
000140 d4 ce 5b 3e a4 d6 8e 3e 3e c5 8d 3e 32 ea 99 3d
       0.21465617 0.27898133 0.27689546 0.07515372
000150 66 c7 2f 3d 7f 06 45 3e fd 59 4b 3d af 6d 99 bb
       0.04291477 0.1924076 0.049646366 -0.0046822648
000160 36 8d a5 3d 2c 10 8c 3d 48 01 13 3e d8 49 2e 3b
       0.080835745 0.06839022 0.14355958 0.0026594307
000170 03 a3 5a 3c 34 79 b7 ba 36 f3 d9 3c 7b d8 aa bb
       0.013344529 -0.0013997913 0.02660523 -0.0052137948
000180 0e 6f 74 3d b8 3e 9f 3e 46 54 a0 3c d4 30 e8 bd
       0.059676223 0.31102538 0.019571435 -0.11337438
000190 9a 20 65 bb 0c 1c 5b 3e a7 58 9c bc 5e 5a 3d 3e
       -0.003496206 0.21397418 -0.019085241 0.18491504
0001a0 86 d9 9c bd aa c2 fe 3d d1 94 5a 3e e0 45 2c 3e
       -0.07658677 0.12439473 0.21345831 0.1682353
0001b0 1e f0 39 3e f6 4b 31 3d 06 b6 83 3d 0d fa d9 3c
       0.18158004 0.043285333 0.064312026 0.026608491
0001c0 8c e1 1d 3e 9f b0 95 3e 45 d2 35 3d 98 52 22 3d
       0.1541807 0.29236314 0.04438998 0.03962955
0001d0 c0 79 92 3d 8a e0 1f be 00 71 03 bd 1e 1b dd 39
       0.07152128 -0.15612999 -0.032090187 0.0004217261

features.9.weight f4 [84, 120]
000000 57 56 a7 bc af d2 3f 3b 3c c4 76 3c 45 6e 86 bc
       -0.020426912 0.0029269864 0.015061434 -0.016410002
000010 18 dd 86 bc 81 dd a7 3c 58 43 2c bc 19 08 a9 bc
       -0.016462848 0.020491363 -0.010514103 -0.020633744
000020 9a 28 04 3d 0f a5 0c bc 63 5a 05 3a 40 78 9a 3b
       0.032265283 -0.008584275 0.0005087016 0.004714042
000030 57 04 7e 3c 5c 38 34 3c 18 e1 41 3b 8c 69 ea 3c
       0.015503964 0.010999765 0.002958363 0.028614782
000040 61 0d e9 bb e0 a5 eb 3b d6 6f c4 3b af e8 93 3b
       -0.0071121906 0.0071914047 0.005994777 0.004513822
000050 dc ce 5c bc 8a 07 13 3c 32 66 b5 3b ac af 38 bc
       -0.0134770535 0.008973965 0.0055358643 -0.011272352
000060 f7 26 52 3c 65 ea 24 bc d9 69 70 3c f6 63 fe bb
       0.012826673 -0.01006565 0.014673674 -0.007763381
000070 82 c0 a6 bb 66 80 22 3b 05 a0 e1 bb dc 4e c7 3b
       -0.0050888667 0.002479577 -0.006885531 0.006082399
000080 d5 03 bd bb 6d 24 55 3c ce df 19 3c c6 35 4f 39
       -0.005768279 0.013009173 0.009391738 0.0001976109
000090 37 25 77 bb 38 de 4c 3c a0 a5 8b bb 07 b7 34 bc
       -0.003771139 0.012504153 -0.0042616874 -0.011029965
0000a0 8e 34 fc 3a a6 30 27 3b 3b 4b ca bb 18 c8 f7 3b
       0.0019241737 0.0025511174 -0.006173519 0.007561695
0000b0 71 99 80 3c 40 ac af 3b aa 4e 36 3a b4 4e bf 39
       0.015698167 0.00536111 0.0006954471 0.00036488997
0000c0 79 91 99 bc 16 fe d4 39 41 bc 5f bc ee 14 93 3b
       -0.018746125 0.000406251 -0.013655723 0.004488579
0000d0 14 3b 2f 3b 60 9f e5 bb 02 88 44 ba cb cf aa 3b
       0.0026738094 -0.0070075244 -0.00074970734 0.005212759
0000e0 39 93 bd ba d5 f8 a9 bb 92 28 80 3c 55 d7 44 3c
       -0.0014463431 -0.005187134 0.015644345 0.01201423
0000f0 4b 88 d2 3b 56 e1 22 bc 58 bb c3 bb a8 2d c9 bb
       0.006424939 -0.00994142 -0.005973261 -0.006139476
000100 00 c1 70 3a a3 df 9b bb f2 ca 56 bb a8 7c 23 bc
       0.00091840327 -0.004756884 -0.0032774773 -0.009978451
000110 1c 84 5f 3b e9 09 1b 3c 2f 35 51 bc c7 cd 08 bc
       0.0034105843 0.009462812 -0.012769028 -0.008349842
000120 a4 6d 08 bb 6a 14 5a bc 89 43 64 bc 1c 7e b5 bb
       -0.0020817304 -0.013310531 -0.013932117 -0.005538715
000130 29 64 63 bb 3b 4e c5 bc 94 95 02 bc 00 62 f7 3b
       -0.0034697151 -0.024085155 -0.0079702325 0.0075495243
000140 a4 43 cb 3b be 9f f0 bb d9 e2 b0 bc 41 b5 58 3c
       0.0062031318 -0.0073432615 -0.021592544 0.013226808
000150 c2 ee c3 3c 69 a2 8b bb 3e 24 88 bc 77 e4 66 3c
       0.02391756 -0.004261304 -0.016618844 0.014092556
000160 84 90 82 bb a4 d5 85 bc f3 9f 10 3c 98 e1 57 bc
       -0.0039845128 -0.016337223 0.008827197 -0.013176344
000170 8d 6e 3f bb f6 ba 91 3c 02 7a e2 3a 18 96 07 3c
       -0.002921018 0.017789345 0.0017278793 0.008275531
000180 95 87 a1 3c ca ab ff ba ff 98 29 3c 15 e5 92 bc
       0.01971797 -0.0019506153 0.0103514185 -0.0179315
000190 d1 d7 03 bc ad 98 d4 bc 16 97 ca bc 53 4e d1 bb
       -0.00804706 -0.025951708 -0.024730247 -0.006387511
0001a0 91 04 09 3b 71 27 96 3b df 3d 12 bc af 8c 90 bc
       0.0020907263 0.0045823385 -0.008925884 -0.017645208
0001b0 b0 7d 77 3b 24 3e b4 3b 12 0b 90 bc e4 c1 0b 3b
       0.0037764125 0.005500572 -0.017583404 0.0021325285
0001c0 52 22 7a bc dd ed ad 3b 15 38 2b 3c 4c c4 4c bb
       -0.015266972 0.0053078965 0.010450383 -0.0031244932
0001d0 82 34 85 bc eb c7 28 3a 93 33 9d 3c f8 aa 18 3c
       -0.01626039 0.00064384815 0.019189632 0.009318106
0001e0 d6 03 50 bb b8 76 d6 bc d6 aa 53 bc 01 d2 1d 3c
       -0.0031740568 -0.026179656 -0.012919148 0.009632588
0001f0 18 7f 46 bc 13 14 77 bc 43 5a 06 bb 87 ea 4a 3b
       -0.012115262 -0.01508047 -0.0020500578 0.0030962543
000200 7e 58 2a 3c 35 1c a9 bc 8f 07 d3 bc ac f8 07 39
       0.010397075 -0.020643333 -0.02576044 0.00012967241
000210 01 34 11 bb 9f 80 12 bc 7e 89 c4 bc 6a 17 cb bb
       -0.002215624 -0.0089417985 -0.023991343 -0.0061978595
000220 6f 6d 49 bb 6f 11 57 3d 11 5f 0e 3c f0 b8 ef 3c
       -0.0030735394 0.05250686 0.008689658 0.02926299
000230 eb f7 a4 bc 91 6a 39 bc 9e 65 47 bc ad d1 c9 3c
       -0.020137748 -0.011316911 -0.0121702235 0.024636114
000240 bd 86 35 3c 27 44 ae bb bc ad 2d bb 93 c9 aa 3b
       0.011079487 -0.005318183 -0.0026501259 0.005212018
000250 81 81 c8 bb 5f b4 32 3c 5b 34 1c bc dc 6f 85 3b
       -0.0061189537 0.010907262 -0.009533967 0.0040721726
000260 21 02 2e 3a c4 23 49 bc b2 b7 11 3c 8c ca 9f 3c
       0.00066378905 -0.012276594 0.008893894 0.019505762
000270 5e 82 7f 3c 21 2b a1 bb b4 71 01 bc 1b 39 9f bb
       0.015595047 -0.0049184714 -0.007900644 -0.0048591024
000280 0b a8 d4 3b 0a 0e 05 bc bd 37 f3 bc 87 82 32 3c
       0.006489759 -0.008121023 -0.029689664 0.010895378
000290 5c 7d 65 3b b8 70 61 bb 46 ba c4 bc f9 57 a4 bc
       0.0035017347 -0.003439946 -0.024014603 -0.02006148
0002a0 4e ce 07 bc 9f 65 b0 3c c4 a7 ed 3c 31 d3 a0 bb
       -0.008288933 0.021532832 0.029010661 -0.0049079885
0002b0 5a 00 36 3b c1 e1 38 bb 2f ea a2 bc c7 9c 8b 3c
       0.0027771206 -0.0028210732 -0.019887058 0.01704253
0002c0 98 a4 1d bb c7 57 22 3c e1 27 97 3c 7b db 35 3b
       -0.0024054404 0.009908623 0.018451633 0.0027749229
0002d0 9b cc b4 bb 6c 94 b4 bc ec 28 2d bb 9f 80 c7 bb
       -0.005517555 -0.02204343 -0.0026422096 -0.006088331
0002e0 23 f2 07 bc 13 28 b0 ba fe c5 a3 ba 98 c6 ab bb
       -0.008297476 -0.0013439677 -0.0012494919 -0.00524218
0002f0 bf f8 86 3a a4 63 ee bb 2e 80 75 bb a6 5c a1 39
       0.0010297521 -0.0072750617 -0.0037460434 0.0003077734
000300 42 ba 54 bc 97 42 38 3c 39 32 03 bb 3f 8e e1 bb
       -0.01298386 0.011246345 -0.0020018949 -0.006883412
000310 5c ed 00 bd 92 88 c7 3c f1 20 e6 bb 59 30 aa bc
       -0.031476364 0.024357114 -0.00702297 -0.020775007
000320 e8 5f 6b 3b 43 95 be bb 42 2e 6d bc bf dc 74 3c
       0.003591532 -0.005816133 -0.014476361 0.014945208
000330 0e 7e fc 3b 32 27 69 bc b7 bc b1 3c 9a 65 15 bc
       0.0077054566 -0.014230536 0.021696432 -0.009118462
000340 24 84 01 bc 2d ee 21 3c 3b e3 e4 bc cd be 82 3c
       -0.00790504 0.009883446 -0.027940383 0.015960122
000350 4a 54 85 bb 88 25 51 3b 13 15 22 3c b6 e8 99 3c
       -0.004068886 0.003191324 0.00989272 0.018787723
000360 54 6b f7 bb 0f af 6a bc b0 f3 6f 3a 57 bf 31 3c
       -0.0075506363 -0.014323964 0.0009153439 0.010848842
000370 71 98 cb 3b 23 ad b5 bc d9 4b 4a 3c 42 ba c7 bb
       0.006213241 -0.022177285 0.012347185 -0.0060952017
000380 70 11 8c bc 71 ae a2 3c 8a da c8 3c 7f 09 d1 3b
       -0.017098159 0.01985857 0.02451827 0.006379306
000390 0a f7 a9 bc 2a eb 07 bc 20 ca 8c bc 61 08 d3 3b
       -0.02074768 -0.008295814 -0.017186224 0.006440208
0003a0 db bf 78 3b 1a ab d3 ba fd bc 98 bc 1e 0e d2 3b
       0.0037956152 -0.0016149015 -0.018644804 0.0064103743
0003b0 a7 68 10 bc 59 58 b7 ba 1f d2 ce 3a 8b 8f 2f bc
       -0.008814014 -0.0013988122 0.0015779174 -0.010715376
0003c0 ec 1b f1 bc d2 4b 73 bd 4f bd ff bd 47 3d 88 bd
       -0.02943226 -0.05939848 -0.124872796 -0.06652313
0003d0 6b 8d cb 3c 3f 7c 02 3d b0 6b f9 bc 2d f5 b5 bc
       0.024847707 0.03185677 -0.030446857 -0.022211635
0003e0 87 fd 6e bd 3d bc 1e bd 77 13 7b 3c 96 4c 57 3d
       -0.05834725 -0.038753737 0.015324465 0.052563272
0003f0 a3 8a d0 bd f1 82 c7 bd ed 56 e0 3c 7e cf c2 bb
       -0.10182693 -0.09741772 0.0273852 -0.005945145

features.9.bias f4 [84]
000000 b7 3c 25 3b e2 9e 3b 3d 40 bc 3e 3e 73 8a 6e 3a
       0.002521319 0.04580582 0.18626499 0.000909961
000010 2c 94 a3 3d 24 c1 13 3f 04 d6 43 3e dd 15 8d 3e
       0.07987246 0.57716584 0.19124609 0.27555743
000020 a5 87 18 3d 88 07 3c 3e 50 f1 9e 3e dc 4e ec 3d
       0.037238736 0.18362248 0.31043482 0.11538479
000030 30 d4 36 3e 53 92 ea 3d 23 a5 31 bc 16 e7 28 3e
       0.1785438 0.114536904 -0.010842594 0.16494402
000040 75 72 50 3d 26 54 80 bb 90 8c 26 3e 07 10 b3 3e
       0.050890405 -0.0039162813 0.16264558 0.34973165
000050 db 53 2c 3e 22 ca 7d 3d 66 c0 75 3e ac 8d b4 3e
       0.16828863 0.061960347 0.23999175 0.35264337
000060 b7 f0 1a ba 88 93 93 3c e1 38 ca ba 97 da 53 bb
       -0.0005910503 0.018014684 -0.0015428328 -0.0032326335
000070 87 e5 0e 3d ba 98 38 3d 81 f0 5d b9 e9 fa 1c 3d
       0.034886863 0.045067526 -0.00021165797 0.038325224
000080 ae 50 d9 3d 17 29 f3 3d c4 f4 11 3e 12 4d ee ba
       0.106110916 0.11873072 0.14253527 -0.0018180928
000090 1c 41 6e 3e 29 ba 44 3d b0 59 74 3d 73 14 c6 3e
       0.23267025 0.0480291 0.059655845 0.38687477
0000a0 ee 1c 31 3b 9f 3b db 3d 89 84 17 3e 86 b0 0c 3e
       0.00270253 0.10704731 0.14796652 0.13739213
0000b0 5f 74 ce b9 8e 5f 4e bc 7c 11 b2 3d 83 f4 97 3d
       -0.00039378085 -0.012596024 0.08694741 0.07419684
0000c0 fb b3 84 bc 86 a1 93 bc 6b c6 4d 3e 49 54 e7 3e
       -0.016199103 -0.018021356 0.20095222 0.45181492
0000d0 4c 33 57 3d 28 a1 a1 3e 5d d1 b9 3e 08 db 32 3e
       0.052539155 0.31568265 0.36292544 0.17466366
0000e0 0c 03 16 3e 08 5c ee 3d de 92 aa 3a 45 7a f9 bb
       0.146496 0.11638647 0.001301374 -0.0076134526
0000f0 48 3b 15 3e 91 73 03 3e 2d 3f 20 3e b1 17 9d bb
       0.14573395 0.12837054 0.156491 -0.004794084
000100 5c b8 ad 3d 64 3e 57 3d c0 cd eb ba c9 57 f5 3e
       0.084824294 0.052549735 -0.0017990395 0.47918537
000110 dd 6c ea 3d ef 0d 9b bc 41 3a fb 39 9d 66 39 bc
       0.11446545 -0.018927542 0.00047917853 -0.011315969
000120 12 63 99 3d ca 7d 3a 3e 3c 91 23 3d 5e 64 10 3e
       0.07489599 0.18212047 0.03993343 0.14100787
000130 14 4c e7 3d 2f b3 64 3e 14 ae e0 3d 26 9e 14 3e
       0.112938076 0.22333978 0.10970703 0.14513454
000140 4b 44 a8 3d cc 78 aa 3e b7 76 da 3d 21 ed a9 3d
       0.08216151 0.33295286 0.10667174 0.08297182

classifiers.0.weight f4 [5, 84]
000000 ed b4 7a bc c8 f5 de bc 74 16 c6 3e 6f 88 a7 bb
       -0.015301925 -0.027216807 0.38689005 -0.0051126997
000010 19 12 20 3e 4d ed 07 bf d9 ea a4 be 55 6f dd bd
       0.15631904 -0.5309647 -0.32210425 -0.108122505
000020 51 26 36 bd 2f 9d 79 bd cf 63 0a be 4c df 0f 3e
       -0.044470135 -0.060940918 -0.13514636 0.14050025
000030 63 4b e4 bd e5 df 27 be 8a 6d 14 bc 8d 10 02 be
       -0.111471914 -0.16394003 -0.009059319 -0.12701626
000040 8e af 72 bd 7d fa 8f 3b 6e ca 5a 3e 16 a7 90 3e
       -0.059249453 0.004393874 0.21366283 0.28252476
000050 3f 20 ad 3e 41 ab ff bd b2 f4 70 3e 39 ad fc bd
       0.33813664 -0.12483836 0.23530844 -0.12337727
000060 d0 2c 04 3b 9c b6 ac bc b7 2f 37 bb 1f 67 3d 3d
       0.0020168312 -0.021083169 -0.0027952024 0.046240922
000070 4f 7a de 3c eb 92 1d b9 11 ae a4 3b aa 21 1b bd
       0.02715793 -0.00015027418 0.005025633 -0.0378739
000080 2a 67 22 be f7 d0 a4 bd 1a a4 99 3e 22 6b b3 bb
       -0.15859666 -0.080476694 0.30008012 -0.0054754177
000090 18 67 55 bc 00 21 8f bd e2 45 b6 3e f9 1b e9 be
       -0.013025068 -0.06988716 0.3560019 -0.45529154
0000a0 63 85 bb bb 44 9b 8b 3d 7d 8d 40 3d 8c e0 5a bd
       -0.005722688 0.06816724 0.047009934 -0.0534368
0000b0 68 1f 24 3d ca 6d 76 3b 34 cd 9b 3e 5f 0a 10 3e
       0.040069014 0.003760206 0.30429995 0.14066456
0000c0 9f 0e e3 3e 3a 07 f9 3b 8a 3b cc bd 22 3f 2f bd
       0.44347093 0.0075997384 -0.09972294 -0.042784818
0000d0 24 d9 64 bd 86 31 c9 bd 78 f8 13 be 09 d0 88 3d
       -0.055871144 -0.09823899 -0.14450252 0.066803046
0000e0 48 41 2e be 31 cd b2 3d 47 e1 6c 3b d4 1d 8a bb
       -0.1701709 0.087305434 0.0036145018 -0.0042149816
0000f0 45 e5 e8 3d 79 a2 71 be 5e 9b 38 3e 74 c0 fa 3b
       0.11371855 -0.23597135 0.18028018 0.0076523367
000100 17 e7 66 3d 21 17 75 3d ec 2f a8 3c a6 2e c4 be
       0.05637273 0.05983651 0.020530663 -0.3831684
000110 9f 1b 89 3e a4 54 d1 37 b2 2d b7 bb 22 ed ee 3b
       0.26778886 2.4954155e-05 -0.005590164 0.007291452
000120 00 04 91 3d e5 9f b6 bd 3d 75 22 bd fe 96 8a bd
       0.07080841 -0.08917216 -0.03966259 -0.06767081
000130 97 27 84 3c 56 c4 9d 3d 6c 54 52 3e 0b 36 39 be
       0.01613216 0.07703464 0.20540017 -0.18087022
000140 8d 27 95 3e d4 17 cf bd 4d 93 42 3d b0 73 23 3d
       0.29131737 -0.10111967 0.04750376 0.03990525
000150 54 39 d5 3b 7c 1e 10 3d 9b a4 84 bc 59 81 a2 3c
       0.006507078 0.035185322 -0.016191771 0.019837068
000160 0f f4 a4 be f0 89 3f 3e f9 78 1c 3e 3c da be 3b
       -0.32217452 0.18704963 0.15280522 0.0058243554
000170 ae 8b d7 bc ba f7 9a bc 4e 50 39 be 37 38 1b 3e
       -0.026311722 -0.018916953 -0.1809704 0.15158163
000180 d4 42 fa bd c7 cd c1 3d 62 da 08 3c 72 fb 22 3d
       -0.12219778 0.09463077 0.008352848 0.03979058
000190 9e 2e 92 3d ec 2f f3 bb 32 8b 69 be 9b 48 35 3d
       0.07137798 -0.007421484 -0.22807005 0.044258695
0001a0 99 80 5f be 0c 54 be 3c af 90 02 be 7a f1 ab 3d
       -0.218264 0.023233436 -0.12750505 0.083956674
0001b0 95 12 32 bc ac 15 b4 bc 58 d3 4f bb a4 74 5d bd
       -0.010868688 -0.02198299 -0.0031711664 -0.054066315
0001c0 2e fb c2 3c 8b 69 aa 3d 75 34 8a bb 24 3e 16 bc
       0.023801412 0.08320912 -0.004217679 -0.009170089
0001d0 e5 35 07 3d 4a 43 92 3c a7 7a a5 be a5 23 e1 ba
       0.033010382 0.017854352 -0.3232014 -0.0017176761
0001e0 ed ad 69 3d 6b 73 cd 3c 86 13 3f bd 35 0b 59 3e
       0.057050634 0.02507945 -0.04664948 0.21195681
0001f0 23 16 e0 bb 24 57 da bd a9 ef 2d 3e 4b 02 97 3c
       -0.0068385764 -0.10661152 0.16985954 0.01843371
000200 22 ea 28 bd a4 ef c0 bb 71 d4 16 be 74 9d 1c be
       -0.04123891 -0.0058879424 -0.14729477 -0.15294439
000210 b9 91 35 be fb 0f 36 bc 7b aa 93 3e 77 74 05 3e
       -0.1773137 -0.0111122085 0.28841004 0.13032709
000220 25 98 72 3d 8c 12 0d 3e 6f 62 97 bd 2f df ad be
       0.059227128 0.13776606 -0.073918216 -0.33959338
000230 1d 5b fd bd 35 cc 62 3e 56 eb f0 3b d4 86 62 bc
       -0.12370894 0.22148211 0.007352273 -0.013826091
000240 37 05 77 be c7 c9 84 3d ef d8 f3 3b 43 18 34 bc
       -0.24123083 0.064837985 0.007441632 -0.010992113
000250 8a eb e8 3d d4 bc f7 3c 48 39 05 bc 58 b3 d8 3d
       0.113730505 0.030241407 -0.008131333 0.10581082
000260 fa f6 cd 3b 85 ab e8 bc ec 00 f2 ba 28 9b 9f 3c
       0.0062855454 -0.0284021 -0.001846341 0.019483164
000270 f7 04 32 3e 00 ba 85 3e 7d 2a 16 bd 54 ca 4f be
       0.17384706 0.2611847 -0.036661614 -0.20292026
000280 37 6e 80 3e 82 7e 70 3d c5 82 d6 bb 8f 26 7b 3d
       0.25084087 0.058714397 -0.0065463507 0.06131607
000290 62 df 85 bc 08 f5 56 be 2b 09 93 bb a5 74 13 3e
       -0.016341869 -0.2099191 -0.004487177 0.14399965
0002a0 18 c2 14 3c 95 f6 0d 3d 51 0b 66 be ae 20 27 3b
       0.009079479 0.034658987 -0.22465254 0.0025501656
0002b0 c5 d9 65 3e 36 b3 bb be dc d2 5e 3e 7d 20 35 3e
       0.22446354 -0.36660165 0.21760124 0.17688175
0002c0 3f 2a cb 3d 4a b7 c7 be f6 07 8d be b2 83 f1 bd
       0.09920167 -0.39007026 -0.27545136 -0.11792697
0002d0 04 6c 12 3d c5 20 f6 3d 4b 44 ef 3c dc 41 c8 bd
       0.035747543 0.12017969 0.02920737 -0.09778187
0002e0 5f 05 33 3d 80 e4 b8 bb 0b c9 90 3e 4e ee f3 3d
       0.043706294 -0.0056424737 0.28278384 0.119106874
0002f0 87 89 f2 3d aa d5 05 3e 54 06 21 3e 74 e0 6f 3e
       0.118426375 0.13069788 0.1572507 0.23425466
000300 ee 3a b5 3b bc f2 26 3d 5f ae 87 3c 8a ed 6d 3d
       0.0055307066 0.040758833 0.016562639 0.058087863
000310 75 67 93 bd 60 e1 31 bd 9d 7c b8 bc 56 b1 bc 3d
       -0.07197467 -0.043427825 -0.022520358 0.09213512
000320 2d 25 e9 3c 54 c4 cb bd 92 91 72 3e 49 1c 14 bc
       0.02846011 -0.09949556 0.23688343 -0.009039947
000330 e1 9b 0b 3e e5 c3 03 3e 74 3f f4 bd b3 ba 61 bd
       0.13633682 0.12867697 -0.11926165 -0.05510969
000340 aa f4 67 3c 54 d7 ef bd 1a 03 91 3d d2 6b 89 be
       0.014157454 -0.117109925 0.0708067 -0.26840073
000350 82 1b d8 3c bd 3a e7 3b fe de 04 be 27 3f 33 3e
       0.026380304 0.0070565627 -0.1297569 0.1750456
000360 2c c9 d0 bd de 7a bb bb 2a c8 5a be af c6 ff be
       -0.101946205 -0.005721434 -0.21365419 -0.4995627
000370 50 4e 99 3d 31 67 ae be dd e1 9b 3e d1 05 0e 3e
       0.0748564 -0.34063104 0.30445758 0.13869406
000380 20 c0 71 3e 06 3f 5d bd d9 9f a7 3c 20 6b 91 bc
       0.23608446 -0.054015182 0.020461963 -0.017751276
000390 c3 32 4b 3e 6e a9 66 3e 93 56 09 38 5f 57 83 3c
       0.19843583 0.2252557 3.2743974e-05 0.016032873
0003a0 dc 58 0b 3d 9d 88 ae bd 03 c3 50 bb dd 2c 80 be
       0.03402029 -0.08522151 -0.0031854517 -0.25034228
0003b0 fc 82 14 be f7 c4 e8 3c 5a c5 97 3b 38 0a 94 39
       -0.14503092 0.028414233 0.0046316804 0.00028236373
0003c0 61 61 02 be 54 61 38 3e 42 d1 d8 3d c2 c0 09 3e
       -0.1273246 0.18005878 0.10586788 0.13452438
0003d0 7c fa 00 be 21 bc 72 3e 93 c8 3e be 09 aa 0f be
       -0.12595552 0.23704578 -0.186312 -0.14029707
0003e0 ff 55 72 3c f0 38 b2 be f3 b7 0c be d7 d2 26 3d
       0.014791011 -0.34809065 -0.13742046 0.040728416
0003f0 68 d1 a1 3b 78 c8 95 bd 38 7f 01 be 32 05 3d bb
       0.0049382932 -0.07313627 -0.12646186 -0.0028842208

classifiers.0.bias f4 [5]
000000 61 9c 4f bf f7 48 a8 3e 34 88 b8 3e fd ea 1e bf
       -0.8109799 0.32868168 0.36041415 -0.62077314
000010 9a 1e 3e 3f
       0.74265444

classifier.weight f4 [5, 84]
000000 ed b4 7a bc c8 f5 de bc 74 16 c6 3e 6f 88 a7 bb
       -0.015301925 -0.027216807 0.38689005 -0.0051126997
000010 19 12 20 3e 4d ed 07 bf d9 ea a4 be 55 6f dd bd
       0.15631904 -0.5309647 -0.32210425 -0.108122505
000020 51 26 36 bd 2f 9d 79 bd cf 63 0a be 4c df 0f 3e
       -0.044470135 -0.060940918 -0.13514636 0.14050025
000030 63 4b e4 bd e5 df 27 be 8a 6d 14 bc 8d 10 02 be
       -0.111471914 -0.16394003 -0.009059319 -0.12701626
000040 8e af 72 bd 7d fa 8f 3b 6e ca 5a 3e 16 a7 90 3e
       -0.059249453 0.004393874 0.21366283 0.28252476
000050 3f 20 ad 3e 41 ab ff bd b2 f4 70 3e 39 ad fc bd
       0.33813664 -0.12483836 0.23530844 -0.12337727
000060 d0 2c 04 3b 9c b6 ac bc b7 2f 37 bb 1f 67 3d 3d
       0.0020168312 -0.021083169 -0.0027952024 0.046240922
000070 4f 7a de 3c eb 92 1d b9 11 ae a4 3b aa 21 1b bd
       0.02715793 -0.00015027418 0.005025633 -0.0378739
000080 2a 67 22 be f7 d0 a4 bd 1a a4 99 3e 22 6b b3 bb
       -0.15859666 -0.080476694 0.30008012 -0.0054754177
000090 18 67 55 bc 00 21 8f bd e2 45 b6 3e f9 1b e9 be
       -0.013025068 -0.06988716 0.3560019 -0.45529154
0000a0 63 85 bb bb 44 9b 8b 3d 7d 8d 40 3d 8c e0 5a bd
       -0.005722688 0.06816724 0.047009934 -0.0534368
0000b0 68 1f 24 3d ca 6d 76 3b 34 cd 9b 3e 5f 0a 10 3e
       0.040069014 0.003760206 0.30429995 0.14066456
0000c0 9f 0e e3 3e 3a 07 f9 3b 8a 3b cc bd 22 3f 2f bd
       0.44347093 0.0075997384 -0.09972294 -0.042784818
0000d0 24 d9 64 bd 86 31 c9 bd 78 f8 13 be 09 d0 88 3d
       -0.055871144 -0.09823899 -0.14450252 0.066803046
0000e0 48 41 2e be 31 cd b2 3d 47 e1 6c 3b d4 1d 8a bb
       -0.1701709 0.087305434 0.0036145018 -0.0042149816
0000f0 45 e5 e8 3d 79 a2 71 be 5e 9b 38 3e 74 c0 fa 3b
       0.11371855 -0.23597135 0.18028018 0.0076523367
000100 17 e7 66 3d 21 17 75 3d ec 2f a8 3c a6 2e c4 be
       0.05637273 0.05983651 0.020530663 -0.3831684
000110 9f 1b 89 3e a4 54 d1 37 b2 2d b7 bb 22 ed ee 3b
       0.26778886 2.4954155e-05 -0.005590164 0.007291452
000120 00 04 91 3d e5 9f b6 bd 3d 75 22 bd fe 96 8a bd
       0.07080841 -0.08917216 -0.03966259 -0.06767081
000130 97 27 84 3c 56 c4 9d 3d 6c 54 52 3e 0b 36 39 be
       0.01613216 0.07703464 0.20540017 -0.18087022
000140 8d 27 95 3e d4 17 cf bd 4d 93 42 3d b0 73 23 3d
       0.29131737 -0.10111967 0.04750376 0.03990525
000150 54 39 d5 3b 7c 1e 10 3d 9b a4 84 bc 59 81 a2 3c
       0.006507078 0.035185322 -0.016191771 0.019837068
000160 0f f4 a4 be f0 89 3f 3e f9 78 1c 3e 3c da be 3b
       -0.32217452 0.18704963 0.15280522 0.0058243554
000170 ae 8b d7 bc ba f7 9a bc 4e 50 39 be 37 38 1b 3e
       -0.026311722 -0.018916953 -0.1809704 0.15158163
000180 d4 42 fa bd c7 cd c1 3d 62 da 08 3c 72 fb 22 3d
       -0.12219778 0.09463077 0.008352848 0.03979058
000190 9e 2e 92 3d ec 2f f3 bb 32 8b 69 be 9b 48 35 3d
       0.07137798 -0.007421484 -0.22807005 0.044258695
0001a0 99 80 5f be 0c 54 be 3c af 90 02 be 7a f1 ab 3d
       -0.218264 0.023233436 -0.12750505 0.083956674
0001b0 95 12 32 bc ac 15 b4 bc 58 d3 4f bb a4 74 5d bd
       -0.010868688 -0.02198299 -0.0031711664 -0.054066315
0001c0 2e fb c2 3c 8b 69 aa 3d 75 34 8a bb 24 3e 16 bc
       0.023801412 0.08320912 -0.004217679 -0.009170089
0001d0 e5 35 07 3d 4a 43 92 3c a7 7a a5 be a5 23 e1 ba
       0.033010382 0.017854352 -0.3232014 -0.0017176761
0001e0 ed ad 69 3d 6b 73 cd 3c 86 13 3f bd 35 0b 59 3e
       0.057050634 0.02507945 -0.04664948 0.21195681
0001f0 23 16 e0 bb 24 57 da bd a9 ef 2d 3e 4b 02 97 3c
       -0.0068385764 -0.10661152 0.16985954 0.01843371
000200 22 ea 28 bd a4 ef c0 bb 71 d4 16 be 74 9d 1c be
       -0.04123891 -0.0058879424 -0.14729477 -0.15294439
000210 b9 91 35 be fb 0f 36 bc 7b aa 93 3e 77 74 05 3e
       -0.1773137 -0.0111122085 0.28841004 0.13032709
000220 25 98 72 3d 8c 12 0d 3e 6f 62 97 bd 2f df ad be
       0.059227128 0.13776606 -0.073918216 -0.33959338
000230 1d 5b fd bd 35 cc 62 3e 56 eb f0 3b d4 86 62 bc
       -0.12370894 0.22148211 0.007352273 -0.013826091
000240 37 05 77 be c7 c9 84 3d ef d8 f3 3b 43 18 34 bc
       -0.24123083 0.064837985 0.007441632 -0.010992113
000250 8a eb e8 3d d4 bc f7 3c 48 39 05 bc 58 b3 d8 3d
       0.113730505 0.030241407 -0.008131333 0.10581082
000260 fa f6 cd 3b 85 ab e8 bc ec 00 f2 ba 28 9b 9f 3c
       0.0062855454 -0.0284021 -0.001846341 0.019483164
000270 f7 04 32 3e 00 ba 85 3e 7d 2a 16 bd 54 ca 4f be
       0.17384706 0.2611847 -0.036661614 -0.20292026
000280 37 6e 80 3e 82 7e 70 3d c5 82 d6 bb 8f 26 7b 3d
       0.25084087 0.058714397 -0.0065463507 0.06131607
000290 62 df 85 bc 08 f5 56 be 2b 09 93 bb a5 74 13 3e
       -0.016341869 -0.2099191 -0.004487177 0.14399965
0002a0 18 c2 14 3c 95 f6 0d 3d 51 0b 66 be ae 20 27 3b
       0.009079479 0.034658987 -0.22465254 0.0025501656
0002b0 c5 d9 65 3e 36 b3 bb be dc d2 5e 3e 7d 20 35 3e
       0.22446354 -0.36660165 0.21760124 0.17688175
0002c0 3f 2a cb 3d 4a b7 c7 be f6 07 8d be b2 83 f1 bd
       0.09920167 -0.39007026 -0.27545136 -0.11792697
0002d0 04 6c 12 3d c5 20 f6 3d 4b 44 ef 3c dc 41 c8 bd
       0.035747543 0.12017969 0.02920737 -0.09778187
0002e0 5f 05 33 3d 80 e4 b8 bb 0b c9 90 3e 4e ee f3 3d
       0.043706294 -0.0056424737 0.28278384 0.119106874
0002f0 87 89 f2 3d aa d5 05 3e 54 06 21 3e 74 e0 6f 3e
       0.118426375 0.13069788 0.1572507 0.23425466
000300 ee 3a b5 3b bc f2 26 3d 5f ae 87 3c 8a ed 6d 3d
       0.0055307066 0.040758833 0.016562639 0.058087863
000310 75 67 93 bd 60 e1 31 bd 9d 7c b8 bc 56 b1 bc 3d
       -0.07197467 -0.043427825 -0.022520358 0.09213512
000320 2d 25 e9 3c 54 c4 cb bd 92 91 72 3e 49 1c 14 bc
       0.02846011 -0.09949556 0.23688343 -0.009039947
000330 e1 9b 0b 3e e5 c3 03 3e 74 3f f4 bd b3 ba 61 bd
       0.13633682 0.12867697 -0.11926165 -0.05510969
000340 aa f4 67 3c 54 d7 ef bd 1a 03 91 3d d2 6b 89 be
       0.014157454 -0.117109925 0.0708067 -0.26840073
000350 82 1b d8 3c bd 3a e7 3b fe de 04 be 27 3f 33 3e
       0.026380304 0.0070565627 -0.1297569 0.1750456
000360 2c c9 d0 bd de 7a bb bb 2a c8 5a be af c6 ff be
       -0.101946205 -0.005721434 -0.21365419 -0.4995627
000370 50 4e 99 3d 31 67 ae be dd e1 9b 3e d1 05 0e 3e
       0.0748564 -0.34063104 0.30445758 0.13869406
000380 20 c0 71 3e 06 3f 5d bd d9 9f a7 3c 20 6b 91 bc
       0.23608446 -0.054015182 0.020461963 -0.017751276
000390 c3 32 4b 3e 6e a9 66 3e 93 56 09 38 5f 57 83 3c
       0.19843583 0.2252557 3.2743974e-05 0.016032873
0003a0 dc 58 0b 3d 9d 88 ae bd 03 c3 50 bb dd 2c 80 be
       0.03402029 -0.08522151 -0.0031854517 -0.25034228
0003b0 fc 82 14 be f7 c4 e8 3c 5a c5 97 3b 38 0a 94 39
       -0.14503092 0.028414233 0.0046316804 0.00028236373
0003c0 61 61 02 be 54 61 38 3e 42 d1 d8 3d c2 c0 09 3e
       -0.1273246 0.18005878 0.10586788 0.13452438
0003d0 7c fa 00 be 21 bc 72 3e 93 c8 3e be 09 aa 0f be
       -0.12595552 0.23704578 -0.186312 -0.14029707
0003e0 ff 55 72 3c f0 38 b2 be f3 b7 0c be d7 d2 26 3d
       0.014791011 -0.34809065 -0.13742046 0.040728416
0003f0 68 d1 a1 3b 78 c8 95 bd 38 7f 01 be 32 05 3d bb
       0.0049382932 -0.07313627 -0.12646186 -0.0028842208

classifier.bias f4 [5]
000000 61 9c 4f bf f7 48 a8 3e 34 88 b8 3e fd ea 1e bf
       -0.8109799 0.32868168 0.36041415 -0.62077314
000010 9a 1e 3e 3f
       0.74265444
