checkpoints_lenet5/baseline_scratch/lenet5/fruit_and_vegetables/checkpoint-100.pth.tar (torch, 312219 bytes, 12 tensors)

features.0.weight f4 [6, 3, 5, 5]
00000000: 5787 4fbe 8a79 473e 00f7 c53e 3733 e33e
00000010: 6c73 8f3e bc8c 31bd d916 8e3e b06a e03e
00000020: bb2d 0a3f 2693 c53e f781 ce3d cb01 823d
00000030: ee22 273f 5592 a53e 8573 8a3e 86b8 8fbd
00000040: fe1a fa3d 4851 203c 7db5 c13e 8ae0 a23d
00000050: d676 68be c696 4fbe 9a4a 23be 7361 6dbe
00000060: c8e5 85be f216 973e f709 3f3e 5ced 0dbe
00000070: 3f44 3cbe d15f 7b3c 4479 eebd 7bed 22be
00000080: c8b4 1abe 8b53 e5be 9d52 90be 584e e63c
00000090: 05cb 03be 2691 febe e608 cebe f671 0bbe
000000a0: 824e 303d 5dc2 2dbe e9be 8abe 4470 a7be
000000b0: 7f98 5ebd eb71 89be df90 fbbd 6408 47be
000000c0: 04f8 3cbe 25ad 06bc 4d22 693e a0a9 d4bd
000000d0: 3e4b 35be fa2b ebbd ceba 313d 328e ea3d
000000e0: e3cc 5cbe 565f bbbe 5a39 a1be 6c2d 45bc
000000f0: da19 233e c72d 0cbc 7734 02be baec 1d3c
00000100: 1491 29be 8e27 10bd 2a33 9b3d b8d9 353e
00000110: 0542 ccbd 4819 f93d ebcb 963e e31f 9d3e
00000120: 293f 9a3e 9522 993e 569a d53d f2d7 473d
00000130: 5cf8 823e ba69 8d3e f9a9 893e b381 9e3e
00000140: ad13 993e 2512 183f 7b64 093f 82d3 053e
00000150: 83c1 ca3d 9eec 523d 76b1 403d 2d18 223e
00000160: 8920 ea3d cff5 e5bd 06a3 95be ab90 e4bd
00000170: 7120 edbe 78f2 69be 7fee b4be 506f cabd
00000180: 31a2 7a3d 1f56 fabd 4973 f4bd f5dc e6be
00000190: 7499 c3be 96f6 7dbe 9c87 2dbd b44c 48be
000001a0: 36d4 59bd 7d41 113e a75a 97be 0af6 1d3e
000001b0: 4a69 8d3d 1034 aebd 6419 3cbe 10e5 05be
000001c0: c424 c5be d143 33be f77d 753e 477a 34be
000001d0: bcc9 c1be dca4 b3be 904f 6fbe 621b a13d
000001e0: 83cb 8ebe 7ec7 f5bd c910 1bbc f357 2b3d
000001f0: 66b9 123d 4894 45bd b4e3 20bd ecac 853e
00000200: 4ac6 5a3d 6ac2 1f3e 1c78 fa3d 3698 e93e
00000210: a52a f73e c5f9 313e a9b5 c93c a3dd 083e
00000220: f0bb 5e3e 96a7 2a3e ae87 f73d 1a16 863e
00000230: c4ac 8fbd 5081 14bd 47ca 8bbe 5611 11be
00000240: 5d69 38be b6ec 5f3d b8f2 74be 298d 5fbe
00000250: 2032 fc3d 40c8 99be bc56 16bd 92a7 23bd
00000260: 9b7f 79bd 473a df3d 2b0b b53d 28dc 54be
00000270: 6a89 69bd bbd9 d13d 1372 e6bc d0aa 993d
00000280: 533d 0abe fd65 b83d 5433 ae3c 6d7f b1bd
00000290: ec63 353e eab2 873d 7f85 5bbd 9fac a03c
000002a0: 3c70 1a3e 83a2 103e 747b 2f3d 3492 f63d
000002b0: 98f5 153e f2a8 e9bd 2c46 c43e a77f 42bd
000002c0: a276 133d 37f3 b5be 814c 57be 4167 acbe
000002d0: b91a a5bd 3103 68be e904 a4be 624b 88be
000002e0: 567d 4bbe 8603 01bd db29 64bd 6772 d9be
000002f0: a2ef edbe 7c5d 24be 9e7e 053e bb7f cebc
00000300: 3a5d 8cbe 52d4 bdbe c76f 6abe 0679 1e3e
00000310: 7b6d 6f3e 98cc 04be 0516 bbbe aebf 893c
00000320: 0251 713e a7a4 5d3e 8953 cf3e 14de 373e
00000330: a416 343e 5372 a33e 06ee af3e 0cd3 a33e
00000340: 7590 83bd da71 6cbc fa99 433e 7510 fe3b
00000350: 3fe3 dbbd 2e32 3cbe 8d96 2cbe ef3f b93e
00000360: f67f 5f3e b489 40bd 5979 f4bc 4869 56bd
00000370: 4fed ba3e 59ba dd3e c9ba ddbc 002c cdbc
00000380: 5f10 57bc 6701 e8be 96c7 3cbe 0491 51be
00000390: 6ddf c2bd c6ab c23d 4957 68be 9c02 32bb
000003a0: 5902 d43e cfe8 903e 7339 8c3d 1077 293c
000003b0: fc66 273e a328 a83e d7f5 d83e a2d4 8f3e
000003c0: e6c5 3e3d ec1a bf3d bf1d 973e 7e63 e03e
000003d0: 7300 d63e 3183 803d 3a50 a63d 270e 903e
000003e0: 6356 a33e 6c8d 6f3e e41a 3fbd 33c6 adbd
000003f0: acdd 91be 2a5b fdbc 0969 563c 9491 ae3d
-0.20266472 0.19479957 0.3866501 0.4437501 0.28017747 -0.043347105 0.27751806 0.43831396
0.5397603 0.38588828 0.100833826 0.06347998 0.65287673 0.32338205 0.2704126 -0.07017617
0.122121796 0.009785004 0.37833777 0.07952984 -0.22701582 -0.20272359 -0.15946427 -0.23181705
-0.26151872 0.29509693 0.18656145 -0.13860077 -0.18385409 0.015342669 -0.11644223 -0.15910904
-0.15108025 -0.447903 -0.2818803 0.02811353 -0.12870415 -0.49720114 -0.40241164 -0.13617691
0.04304362 -0.16968675 -0.27098778 -0.3270284 -0.05434465 -0.26844725 -0.12283491 -0.19436795
-0.18453985 -0.008219992 0.22766991 -0.10383916 -0.17704484 -0.11482997 0.04339104 0.11452903
-0.21562533 -0.36596173 -0.31489068 -0.012034755 0.1592783 -0.008555836 -0.12715326 0.00963896
-0.16559249 -0.035193972 0.07578118 0.17758834 -0.0997353 0.12163025 0.29452452 0.3068839
0.30126312 0.29909196 0.10429828 0.048789926 0.25580108 0.27619725 0.2688749 0.30958328
0.29897824 0.59402686 0.53668946 0.13068965 0.09900191 0.051495187 0.04704424 0.15829535
0.11431987 -0.11228525 -0.2922594 -0.11160406 -0.46313813 -0.228464 -0.35338208 -0.098845124
0.061189834 -0.122234575 -0.119360514 -0.45090452 -0.38203013 -0.24801096 -0.042365655 -0.1956051
-0.053180896 0.14185138 -0.2956135 0.15425888 0.06904848 -0.08506024 -0.18369061 -0.13075662
-0.38504612 -0.17506339 0.23973833 -0.1762477 -0.37849224 -0.35086715 -0.23370194 0.07866551
-0.27889642 -0.12000941 -0.009464451 0.04183192 0.03582134 -0.048237115 -0.039279655 0.2610849
0.05341176 0.15601507 0.1222994 0.4562394 0.48274723 0.17380436 0.024622755 0.13365798
0.2175138 0.16665491 0.12086426 0.26188737 -0.07015374 -0.036256135 -0.27302763 -0.1416677
-0.18008943 0.054669105 -0.23920715 -0.21831192 0.12314248 -0.3003559 -0.03670381 -0.03995473
-0.06091271 0.108997874 0.08840021 -0.20787108 -0.057015814 0.10246607 -0.028130567 0.07503283
-0.13499956 0.09003828 0.02126471 -0.08666883 0.17713898 0.06625922 -0.05359411 0.019613562
0.15081877 0.14124493 0.042842343 0.12039605 0.14644468 -0.11409177 0.38334787 -0.04748502
0.03600181 -0.3553712 -0.21025278 -0.33672526 -0.080617376 -0.22657467 -0.32034996 -0.26620013
-0.1987203 -0.0314975 -0.05570398 -0.42470095 -0.46471888 -0.16051286 0.13036582 -0.025207391
-0.27414876 -0.3707605 -0.22894202 0.15475854 0.23381607 -0.12968671 -0.36540237 0.016815033
0.23566058 0.21644841 0.4049342 0.1795581 0.17586762 0.3192316 0.34361285 0.31996953
-0.06424037 -0.014431441 0.19101706 0.0077534267 -0.10736703 -0.18378517 -0.16854306 0.3618159
0.21826157 -0.047006324 -0.02984302 -0.052346498 0.36509177 0.43306234 -0.027066605 -0.025045395
-0.013126462 -0.4531357 -0.18435511 -0.20465475 -0.09515271 0.095054194 -0.22689547 -0.00271622
0.4140804 0.2830262 0.06846895 0.010343328 0.16347879 0.32843503 0.4237506 0.28091913
0.04657545 0.09331307 0.29514882 0.43825907 0.41797218 0.06275023 0.08120771 0.28135797
0.31901845 0.23393792 -0.046656504 -0.08485069 -0.28489435 -0.03092726 0.013086566 0.085238606

features.3.weight f4 [16, 6, 5, 5]
00000000: 7708 1bbe c2cf 793c 597c 08bc 2afd 55bd
00000010: e3cb 96bd 3d07 b73b 68d5 0fbd 4ae6 06bd
00000020: c564 ecbd d08e 433b 3b4f b63d b89f 333d
00000030: 9ca1 37bd dec2 f6bd df6f 50bc 585e 8a3e
00000040: 97ee 0c3e bfa4 f03d 8673 b93d 48df 1bbe
00000050: f122 483e 79c8 4e3e 1d07 29bd fd8b 0fbe
00000060: cc9e 97bc b739 61bd d457 ddbd 0465 91bd
00000070: 223f 09be b468 a0bb 5243 323c 2cb0 03bd
00000080: 2d47 eabd 0e6d 2cbe 1c67 1cbe 1188 11be
00000090: ffd8 cebd 9db4 25bd 5f37 31be b2e1 f7bd
000000a0: e53e 18be 54d8 f2bd c69a 85be 9736 81bd
000000b0: ef13 15be b889 20bc a44c fb3c 0b6f 833d
000000c0: 70ee 2d3e 2717 dbba 58e6 a13d 873d e939
000000d0: cadf b5bd fa58 28bd 46c9 b9bd e53a c1bd
000000e0: db05 a0bd be87 14be eeb1 99bd 398b 02be
000000f0: 809b 30be 6de6 87be ac5a 70be 4dad 4bbe
00000100: c8f3 a7bd 9db4 07be aa1f 08be 211b 76be
00000110: 93b8 36bd 8fc9 1fbc 37ae 93bd f45c 3fbe
00000120: 0bef 46bd 965c babd 3dea 16be 6236 583e
00000130: c08d 783e ef28 243e 8f32 58bd 2986 18bd
00000140: 5f25 503e b90a 1b3e 51a2 313e f209 0bbd
00000150: 4100 413d df73 ab3e d67b b13d e5d3 c3bc
00000160: b069 59bd b5ea 1fbe 848f a53e c77b ea3d
00000170: ae0d 8f3d 3140 13be 8900 e7bc 928b 8b3e
00000180: 34d3 81bd f83a 1bbe 27fc 1abe 8cff e73b
00000190: 4ca9 bf3d 6847 2a3e 0b94 403e e976 dabc
000001a0: e3c0 49bd 6a6d 1d3e ce52 d43d 3e08 d9bc
000001b0: bf2d 81bd c026 65be d306 633e 048a 2e3d
000001c0: 11bc 89bd 43d2 96bd e972 4cbe 8610 763e
000001d0: 1af2 063e e806 37be 614a 05be d12d 8cbe
000001e0: e8eb 683e 421d f0bd 55dc 19be 7531 aabe
000001f0: 4165 acbe dff5 623d e394 303d 7348 533e
00000200: 7f06 213e 5665 613e 1c00 d6bd 5473 03be
00000210: af42 c13c f359 f6bb 9916 6a3d 5b77 d1bd
00000220: cbb4 e0bd 1f37 0c3c 09a4 1e3d 5d9a b83d
00000230: 18df bbbd c51a 37be 37d3 e5bd ae62 16be
00000240: a592 9d3d 45c9 c5bb 14fa c83b 558b 40bb
00000250: 886d c6bd 9eca da3d 7019 203e 6593 a03d
00000260: 3f26 b73d 9556 b03d 7f8c 393d 8460 903e
00000270: 86df 53bc 1845 0dbc 980e c3bd 426a 47be
00000280: 4de3 b93d 45b5 03bc c92d 3abe 3cba 42bd
00000290: cb97 96bd abd8 403e 5405 c13c 531b 08be
000002a0: c17f 21be 7504 3bbe 24f5 b2bc 6087 eebc
000002b0: b204 27be ce3e 4abe f9bf 46be 1c5f 5e3e
000002c0: 01f9 8c3e 9f06 50bd f7cc fe3c 2890 d3bd
000002d0: 3c17 4c3e 87b3 703d c84c 053e 0687 cebc
000002e0: 8611 a6bd 526e 5f3e 6847 753e 7187 cb3d
000002f0: 1528 513c f176 833c 40ff 863e 2e0b d43d
00000300: 2201 513d 7e87 93bd 1126 0dbc b6a4 15bc
00000310: a2de fa3d ac3c 463d 9d01 a0bd 9c54 1c3d
00000320: 096f 6b3e ef01 35bb 5aeb 40bc 39aa 7fbd
00000330: 4bc6 a1bd e41b e83d ca45 353b f509 ef3c
00000340: 4eaa a8bd 156e 53be 55d1 2b3e 322a 86bd
00000350: 3835 33be fca2 6bbd 1b41 03bd 089c d23b
00000360: 5ce5 17bd b2c7 80bd e7fc 23bd 8efe 5abd
00000370: fb51 a1bb 45e5 06bb 4f20 fdbd ef20 cb3d
00000380: 2f12 aabd 319b 283d ba86 1d3e b23d bbbc
00000390: a5b2 c83c 755c efbd c0fb ddbc d23c b8bd
000003a0: ebfe f3bd 6680 fa3b d0e9 4dbe 4f73 1f3e
000003b0: c52f 73bc a8a0 94be 969e d7bc 3776 d2bd
000003c0: 96e0 a7ba 7119 65ba f2c5 aabd 24ff 0dbe
000003d0: 2f6c 19be acfc 443c a2e1 83bd 332e 8fbe
000003e0: bdcb 29be 19b2 04be 092c be3d f650 65bd
000003f0: 4bd1 9c3d 2972 1cbd a3d1 ff3d 0ea0 c3bd
-0.15139948 0.015247287 -0.008330428 -0.05224339 -0.07363107 0.0055855797 -0.03511563 -0.032934465
-0.11542658 0.0029839762 0.08901831 0.04385349 -0.044831857 -0.12048887 -0.012721985 0.27025104
0.1376289 0.11750173 0.090552375 -0.15221894 0.19544579 0.20193662 -0.04126655 -0.14018245
-0.018508337 -0.05498668 -0.108077675 -0.07099345 -0.1340299 -0.004895294 0.010880308 -0.032150432
-0.11439357 -0.16838476 -0.15273708 -0.14212061 -0.100999825 -0.04045545 -0.17306279 -0.12103595
-0.14867742 -0.118576676 -0.26094645 -0.0630924 -0.14558385 -0.00979846 0.030676194 0.06417664
0.16985488 -0.0016715274 0.07905263 0.00044487065 -0.08880575 -0.04110048 -0.09071593 -0.09435061
-0.07813617 -0.14504907 -0.075046405 -0.12748422 -0.17246819 -0.26542988 -0.23472089 -0.19890328
-0.082007945 -0.13252492 -0.13293329 -0.24033786 -0.044609617 -0.009752645 -0.07210963 -0.18687803
-0.048567813 -0.090996906 -0.14737792 0.21114495 0.24272823 0.1603124 -0.05278259 -0.03723732
0.20326756 0.15140809 0.17347075 -0.03394503 0.047119383 0.3348684 0.08666198 -0.02390475
-0.053079307 -0.15616877 0.32336056 0.1144939 0.06985031 -0.14379956 -0.028198497 0.2725492
-0.06339112 -0.15159214 -0.15135251 0.007080024 0.09358463 0.16628802 0.18806474 -0.026668029
-0.049256217 0.1537377 0.10367356 -0.026493188 -0.063075535 -0.22378063 0.22170572 0.04261209
-0.06725324 -0.07364323 -0.1996571 0.2402974 0.13178292 -0.17873728 -0.13016655 -0.27378705
0.22746241 -0.117243305 -0.15025456 -0.33240858 -0.33671 0.055410262 0.04311074 0.20633106
0.15725134 0.22011313 -0.104492396 -0.12836963 0.023591368 -0.007518047 0.057150457 -0.102278434
-0.109719835 0.008558064 0.038730655 0.090138175 -0.09173411 -0.17881306 -0.11221927 -0.14686081
0.07693986 -0.006035956 0.0061333273 -0.0029379923 -0.0968886 0.106831774 0.15634704 0.07840613
0.08942842 0.08610264 0.045300003 0.28198636 -0.01293171 -0.00862243 -0.09524268 -0.19474128
0.09076557 -0.0080388235 -0.18181528 -0.04754089 -0.07353171 0.18832652 0.023562111 -0.13291673
-0.1577139 -0.18263419 -0.021845408 -0.029117286 -0.16310385 -0.1975052 -0.1940917 0.21715969
0.27533725 -0.050787564 0.031103594 -0.1033023 0.19930738 0.05876496 0.13017571 -0.025210869
-0.08108811 0.21819428 0.2395302 0.09937943 0.012765904 0.016047927 0.26366615 0.10353695
0.05102647 -0.072035775 -0.008615033 -0.009133508 0.12249495 0.048397705 -0.07812808 0.038166627
0.22991575 -0.002761956 -0.011774862 -0.062418196 -0.078991495 0.11333445 0.0027660006 0.029179553
-0.08235608 -0.20647462 0.16779073 -0.06551017 -0.1750077 -0.05752848 -0.03204451 0.006427292
-0.03708397 -0.06288089 -0.04003611 -0.05346542 -0.004923103 -0.0020583433 -0.12359678 0.09918391
-0.083042495 0.041163627 0.15383425 -0.022856567 0.024499247 -0.11687557 -0.027097583 -0.089959756
-0.11913856 0.007644701 -0.20108724 0.1557133 -0.014842932 -0.2902882 -0.026320737 -0.10276454
-0.0012808021 -0.0008739448 -0.08338536 -0.1386686 -0.14982675 0.012023132 -0.064395204 -0.27964935
-0.16581626 -0.12958564 0.09285743 -0.055985413 0.07657107 -0.03819481 0.12491157 -0.095520124

features.7.weight f4 [120, 400]
00000000: 76c7 573c 24aa a8bd adec 03be 8cd6 e8bd
00000010: 016c 72bd 190b 773c 5ea5 f8bc 4bbe acbd
00000020: 1c2d b7bc 51c4 883c c56f a4bc c312 3ebd
00000030: c273 54bd eb5b 24bc 3fee e23c 5dd9 efba
00000040: 2660 d9ba 3db7 353c 185b b53c af31 e43c
00000050: 0e2a 153d a91d 203d 7fba a33b 6661 893c
00000060: 49e1 d43d ceaa 863d 10d5 1e3d 60f5 19bd
00000070: 4420 5ebd 062e 77bd 40ad d43c 7e4a 0abd
00000080: 5055 4bbd c695 47bd f2c1 bbbd e3b6 4dbd
00000090: 6555 aebd 779a 85bd d89b c7bc f2f6 33bd
000000a0: 53be a9bd 4da2 febd a792 85bd 35d8 c6ba
000000b0: 7495 0dbd 1dd1 bcbc 4cca 7ebd b5a5 91bc
000000c0: c1fc ccbb 74fe 5ebd ee26 37bd da72 963c
000000d0: 3bae 833b ef8d 223d dab9 213d 1f73 9fbd
000000e0: c482 12bd 27ab d8bb af7b 2a3c cdae b63c
000000f0: 89dc 75bd 07e7 63bd 06f1 a8bc e2bf d1bb
00000100: e674 083b 93a0 bd3a 4a7c 013c d00c d83c
00000110: 71f1 de3c 1a2c 34bc 75e6 913c f60a cc3c
00000120: a2ac 5f3b 7229 70bc 4be0 ec3c 5725 883c
00000130: d484 f53c b4af e13b f630 f8bc c8c3 fdbc
00000140: 8d94 e3bb 1ce3 d53c 84b3 dabc 181f 5fbc
00000150: 434f 003d 631b b7bc 2e63 2f3c ffae 1abb
00000160: 85ef 0fbc 58a4 da3b 232e 5bbd d650 7bbd
00000170: 7499 95bc dff2 89bc 4f42 ccbb 6f6d 0dbd
00000180: 7eb1 c6bd 46dc 93bb 841d 69bc eb43 ccbb
00000190: bec7 a5bd b183 123d 046f 25bc edfc 6ebb
000001a0: 0ffd c83c 7116 97bd 9408 2bbd efcc 22bd
000001b0: 238a 14bd da00 7d3d 1853 c5bd b48e 83bd
000001c0: 400a 90bd cc3f 20bc 9f2a 823d 015f acbd
000001d0: db7c 0ebd 7009 03bd 5ca9 573d 44dc b63d
000001e0: e9bb 7a3d e2c7 0a3d de13 cc3b 183e 5e3d
000001f0: b3d3 8e3d 3388 053e f5e7 e33d aa7a 953d
00000200: f22e 613d dee5 813c b2f9 493d bacd 6b3c
00000210: 1d43 223c 91f6 18bb 6183 c8bc f29c 1c3d
00000220: 9a8c 123c 2810 5b3c 0a66 0c3c 4653 aabc
00000230: 6cf3 dcbb 68d1 453b 3858 24bd 8457 8abc
00000240: 9e9a 47bb f880 d4bd 76f4 94bd 066a 48bd
00000250: 53d3 0abd 04f3 843c 63ab 10bc 998e 46bc
00000260: 7255 91bc a1b7 3cbb 2d7c 413c 1883 22bd
00000270: 74b3 2e3c 10a4 1abc d0f1 263c 0a09 91bc
00000280: 7c44 e3bc b3dd 39bb 8e0d 9d3c 819b 42ba
00000290: e3e4 18bc 99d5 1dbd 7212 e2bc 294e 243c
000002a0: 942b 2bbc a727 b7bc 3aeb f639 4b0f 053c
000002b0: fb41 67bb 2366 8bbb 7f83 bdbb 0c72 5fbd
000002c0: a8af 47bd d6ba bbbc c2c5 f6bc ef94 13bd
000002d0: c4a9 59ba 68e4 2abb 2d9e 243b ebd7 d0bc
000002e0: 39b9 1bbd 8a27 4c3c 4167 4e3d 2022 4d3d
000002f0: b7b4 06bc 3dea 14bc ff3a cebc be33 23bb
00000300: 703a 6eba 3332 9cbc f1e4 963c 173e 18bd
00000310: 09c1 fcbc 904e d3bb ad5d c7bb 58d7 10bc
00000320: f085 22bd d516 ffbc 1dd6 46bd db61 28bd
00000330: af8b 8fbd a1a5 323c 7121 623b 53e2 46ba
00000340: 424e d73b 607a 24bd 0664 5d3d 1697 103d
00000350: 783c 633d 4ff1 403d 6045 cabc 1eee 953d
00000360: 38f8 943d 5443 083d 55cc fabc 5834 88bd
00000370: f884 843d 540e dc3c 9e20 ca3c 708a 54bd
00000380: 8a18 1abc ca09 803d a4c6 2e3d dcdc cd3c
00000390: 7cd9 d23c 8e10 9f3d 3040 1e3d 4269 523d
000003a0: c277 053d 9076 8dbc a2b3 1c3d 20c1 5abb
000003b0: 1117 48bb 033d edbc 2db4 ffbc c196 823c
000003c0: 8a86 41bd 572f 0cbd a9ce 3f3c c7fd 9538
000003d0: 4b08 84bc af05 3fbd 0182 a3bc f12f a6bb
000003e0: 9354 a0bc 9fc6 3bbd f323 d8bb f140 3c3d
000003f0: 3608 5c3c b74e 3dbd 408a 8ebd 388d 8a3d
0.013170114 -0.08235577 -0.12883253 -0.113690466 -0.05918503 0.0150783295 -0.03035229 -0.08434733
-0.022360377 0.016695173 -0.020072827 -0.04640461 -0.051868208 -0.010031681 0.027701495 -0.0018299032
-0.0016584441 0.011091051 0.022138163 0.027855722 0.03641706 0.039090786 0.0049965973 0.016770076
0.10394532 0.06575547 0.03877741 -0.037587523 -0.05422999 -0.060346626 0.025961518 -0.033762448
-0.049641907 -0.04872682 -0.091678515 -0.050223242 -0.085123815 -0.065236025 -0.024366304 -0.043936677
-0.082882546 -0.124333 -0.06522112 -0.0015170636 -0.034566358 -0.023048932 -0.062204644 -0.01777921
-0.0062557166 -0.054441884 -0.04471486 0.018365312 0.0040185726 0.03968614 0.039483882 -0.077856295
-0.03576924 -0.0066122 0.010405465 0.022300148 -0.06002477 -0.055640247 -0.020622741 -0.006401048
0.002082163 0.001446741 0.007903168 0.026373297 0.027214738 -0.010996843 0.017810086 0.02490757
0.0034129997 -0.014658319 0.028915545 0.016619368 0.029970564 0.0068874005 -0.030296784 -0.030977145
-0.006945199 0.02610927 -0.026696928 -0.013618253 0.03132559 -0.022351926 0.010704799 -0.002360284
-0.008785133 0.0066724233 -0.053510796 -0.061356388 -0.018261649 -0.016839443 -0.0062334905 -0.034528192
-0.09701823 -0.0045123426 -0.0142282285 -0.0062336824 -0.080947384 0.035770122 -0.010097269 -0.0036466673
0.02453473 -0.07377327 -0.041756228 -0.03974622 -0.03626455 0.06176839 -0.096349895 -0.06423703
-0.07033205 -0.009780835 0.063557856 -0.08416558 -0.03478704 -0.031991422 0.052651748 0.08928731
0.06121436 0.03388203 0.0062279543 0.054258436 0.06973972 0.13040237 0.11128227 0.07298787
0.05497641 0.01585668 0.049310394 0.014392311 0.009903696 -0.0023340324 -0.024476709 0.038235612
0.008944655 0.013370551 0.00856925 -0.020791661 -0.0067428853 0.003018463 -0.040123194 -0.016887434
-0.003045715 -0.10376161 -0.0727319 -0.048929237 -0.03389294 0.01622916 -0.008829924 -0.012118959
-0.017740939 -0.0028795975 0.011809391 -0.039675802 0.010662902 -0.00943853 0.0101894885 -0.017704505
-0.027742617 -0.0028360903 0.019171502 -0.00074236846 -0.009331915 -0.03853378 -0.027596686 0.0100284
-0.010447402 -0.022357775 0.00047096034 0.008121322 -0.003528713 -0.004254119 -0.005783498 -0.054552123
-0.048751503 -0.022916239 -0.030123595 -0.036030706 -0.000830319 -0.0026076082 0.0025118694 -0.025493583
-0.03801844 0.012460599 0.05039144 0.050081372 -0.008221797 -0.00908905 -0.025174616 -0.0024902667
-0.00090876874 -0.019066906 0.018419715 -0.03716859 -0.030853765 -0.0064485744 -0.006084165 -0.008840404
-0.039678514 -0.031138817 -0.048544038 -0.041108947 -0.070090644 0.010903747 0.0034504796 -0.00075868255
0.0065706084 -0.04015577 0.054050468 0.035300337 0.05547759 0.04710513 -0.024691284 0.07320808
0.072739065 0.033267334 -0.030615011 -0.06650609 0.06470674 0.026862301 0.024673756 -0.051889837
-0.009405265 0.06251867 0.042669907 0.025129728 0.02573847 0.077668294 0.038635433 0.051369913
0.032584913 -0.017268449 0.03825725 -0.0033379272 -0.0030531327 -0.028959757 -0.031213844 0.015941026
-0.047247447 -0.034224834 0.011706986 7.1521434e-05 -0.016117236 -0.04663628 -0.019959452 -0.005071633
-0.019571578 -0.045843717 -0.0065960824 0.04596037 0.013429692 -0.046217646 -0.06959963 0.067652166

features.7.bias f4 [120]
00000000: 559f bdbd 5d72 22bd 0087 483e b8f0 f2bb
00000010: 0c65 c3bb ea04 b4bb 0a07 01bd 928a cdbc
00000020: 4087 383e fd2c 25bd 6150 543c 930e f6bd
00000030: 6b17 e5bd 5438 be3b 0662 3bbd 4fc5 9d3d
00000040: 69dd b3bd 7e42 0b3e 72ed 123e e7fb 383d
00000050: 9618 48bd 19be cf3a 9e69 153e ec4c 283c
00000060: c9ab 6e3c bfdf 9a3c dc10 223d c5dd 933d
00000070: 62d7 163d 3bab 92bc 67f9 73be d4d7 a43d
00000080: 6e73 9f3d 54d4 d8bc ddf7 cb3d cb13 d6bc
00000090: ce0b 423d ffba 173b e125 bf3b 22fe 383d
000000a0: 2f8d c43c 2a6c 573d bbe2 9cbe 60a3 3dbd
000000b0: 892d 6cbc aee3 ddbb 4018 f9bc bd78 8abd
000000c0: f3c2 28be 6238 6e3c 4259 863d dbfe a03c
000000d0: b473 c73c 22c7 4c3d a44f 7cbd b247 de3d
000000e0: b490 36be dac7 17bc 1e1e ba3b d13e 973c
000000f0: aa84 eebc c1f9 c8bd 02a2 233e e817 95bb
00000100: a121 e1bc e84c 173e 7678 f5bd 29f5 2a3d
00000110: 9d99 b5bb dc04 d33d a696 f8bc b021 d13d
00000120: 1b14 003c f31d 52bd 612e 9ebd bd49 58bd
00000130: b2f3 203e f49d 76ba bf35 45be 7be7 3dbe
00000140: 1d4c 4f3e 386f 0f3d 49c3 fcbd 36f8 bf3e
00000150: 939c a9bd 4fc4 0e3d 31a2 be3d f14e 0a3d
00000160: 5e9d 693e 82a1 29bc 8e74 09be a860 783c
00000170: f612 d63d 367f 2dbc e7eb 543d a3e2 823c
00000180: 32f1 903d 0cdf f4bc 00c7 90bc 1c01 01be
00000190: 0679 6d3d 3918 6fbc 6798 6f3c 6761 4ebc
000001a0: 54cd e8bd ca60 29be ef87 e0bd 39eb c23d
000001b0: 0bd3 43be 1b24 48bc cb30 fc3c 1bbf 83bd
000001c0: 0888 10bc 130c 0cbd 33be 863d 444b 503d
000001d0: a5b0 42be cae0 e4bc f334 84bc 4e04 93ba
-0.09258906 -0.039659847 0.19582748 -0.00741395 -0.0059629735 -0.00549375 -0.031500854 -0.02509049
0.18020344 -0.040326107 0.012958617 -0.120144986 -0.11186107 0.0058050547 -0.04574778 0.07703649
-0.08782465 0.13599584 0.1434839 0.045162108 -0.048851572 0.00158495 0.14591071 0.010272246
0.014567324 0.018905519 0.03956686 0.072200336 0.0368265 -0.017903915 -0.23825608 0.080489784
0.07785688 -0.026468433 0.099593855 -0.026132485 0.04737454 0.002315223 0.005833373 0.045164235
0.023993103 0.052593388 -0.30641732 -0.046298385 -0.014415153 -0.0067715263 -0.030407071 -0.0676131
-0.16480617 0.01453981 0.06559993 0.019652775 0.024347164 0.049994595 -0.06159939 0.108535185
-0.17828637 -0.009263957 0.00567986 0.01846257 -0.029115994 -0.09813262 0.1597977 -0.004549969
-0.027481856 0.14775431 -0.11985867 0.04173771 -0.005541994 0.10303661 -0.030345272 0.102115035
0.0078172935 -0.051298093 -0.0772369 -0.052804697 0.15717962 -0.0009407692 -0.19258784 -0.18545334
0.20243879 0.035018176 -0.12341935 0.37494057 -0.08281817 0.034855183 0.09308279 0.03376669
0.22813937 -0.010353448 -0.13423368 0.015159763 0.10452835 -0.0105894115 0.051982787 0.01597721
0.07077254 -0.029891513 -0.017673016 -0.1259808 0.057976745 -0.0145931775 0.014623738 -0.012596465
-0.11367288 -0.16540828 -0.10963427 0.095175214 -0.19123475 -0.012215639 0.030784985 -0.06432935
-0.008821495 -0.034191202 0.06579246 0.05085303 -0.19012697 -0.027939219 -0.01613853 -0.0011216493

features.9.weight f4 [84, 120]
00000000: 5abb 13bd 3c72 1bbc 5cfc 1a3d 4e56 bebc
00000010: bd84 87bc b987 b23c 2cb8 d5bb e3ea e5bc
00000020: d8d8 763d 3570 1ebc 5714 98bb 72b5 253b
00000030: 8367 d43c 3ce4 ceb9 614c c1b9 4dd3 433d
00000040: f2d0 56bc 7ec0 5a3c 3db9 af3c 890c 0fbc
00000050: eba5 06bd b782 383c 26d8 903c 247a 0fbc
00000060: 8a9d 963c b993 d4bb 2bf7 a23c 8eeb 143c
00000070: 162a 0a3c 2b2b cabb acf7 0a3d a79a 233c
00000080: 289d 5e3b 3466 6e3c 7b16 ff3b f315 a5bb
00000090: 0f98 b03c 8c81 543c d41d 3ebc a73e 0c3c
000000a0: 115e 903c 94ec dabc 6366 dbbb e655 b4bb
000000b0: 9151 783c 7bd0 1fba 8e7f 533b 68b8 88bc
000000c0: c04f a9bc a2e9 7dba 7d7c 9abc 7a7f 043b
000000d0: 97cf ae3a d5c6 8eb9 111b 71bc 5bef 363c
000000e0: 6016 d83b 400f 6cbc e271 b23c e843 943c
000000f0: 06e3 4f3b cbfc 7bbc 67c8 f93c 667b d5bc
00000100: bfe1 b7bb 7d96 373c 302a 4bbb b597 e5bb
00000110: 9092 b5ba 4227 d43c 3011 88bb 64b9 8d3c
00000120: be17 163c 4f9a 58bb 2c2b 0dbd 3faa 123d
00000130: aa4a 843c 087a e5bc 6d84 843c 617d 5a3c
00000140: 9f85 0c3d 28dd 92bc 84b1 26bd f52f 243d
00000150: 0b4c 093c e61f ea3a d89c 84bc 86cd 3a3c
00000160: d9ba 333c 3ff0 04bd 7b95 8b3c ee19 93bc
00000170: 7561 f2bb bfce b43c 3cd5 383c d20e cf3b
00000180: 64a3 2a3d 1fba 15bc a197 403c 0171 23bc
00000190: fd6e 1f3c 0d8e 41bd 9ac1 1bbd e547 ecbb
000001a0: 2bb2 2e3c 25fb 013c 8909 83bc d4be 5fbc
000001b0: ac91 013c d565 aebc cf2b 15bc 94c0 8fbc
000001c0: 9705 0bbd fdb0 823a 58ee 803c 4c7e 8e3c
000001d0: d156 e0bc 8a75 f039 8c4c 813c 146a 033c
000001e0: 7f0f b1bd ede5 2ebe bcff 433d 9525 9d3b
000001f0: 259f a63c c92e 93bc 5b3c a0bc 0971 bc3b
00000200: d818 b93d aff6 8b3b a835 f8bc 9a74 a4bd
00000210: 059b 5ebd 44e5 21bd 59b1 a6bd c173 823d
00000220: f774 793b 28f8 2b3d df06 843d 8dfe b83d
00000230: 34d8 a53c f192 bcbb bbe6 3dbe 1a04 b33b
00000240: 13e9 c43d 67e7 f33c e37f 393d 18d8 313d
00000250: 2877 39bd 4f37 63bd 66ee f6bd f3b0 123e
00000260: c91d ac3d 1079 cf3c d9fd 7c3d 1509 893c
00000270: cf89 513d 34c8 17bc 8575 bb3a b452 8bbd
00000280: e037 3eb9 c5a5 92bd ceba d63d 697e a63c
00000290: 54a6 8739 d6fa 373d fb01 5ebd 19c8 4ebc
000002a0: 84fb 673c 839f fa3c 1f00 103c 3aee 8a3b
000002b0: b81d 21bc 22f1 98bc ed80 413b aeef 993d
000002c0: 4eb4 093d a385 e63c d5a3 d33c 5d7d 16bc
000002d0: 3a1f 46bd e940 37bd 60eb 193d 8649 5a3d
000002e0: d3cf ca3b 11e6 933d fdd0 c8bd 0c1e e93c
000002f0: 92ae 63bd c05b 253d 3b48 c2bc 4d52 edbc
00000300: 56d2 853d 22dd a73c 5f4b d7ba 49d1 ffbc
00000310: 6362 9c3c 7af6 463b b8b4 40be 471d 5dbb
00000320: e72a 8c3d 85bd 79bc 313a 98bc 15c1 093e
00000330: 0d1d 36bc 62d2 80bc 95bc febc 3be8 243c
00000340: c18f ea3d bd10 ebbb dea9 c5bd 226a 123c
00000350: 9e0f 573d 0510 abbc 8ad8 e53c 43fc 1e3d
00000360: b5f2 54bd 76b5 c4bc 3d3e a5bb af9b adbd
00000370: c232 483c b11e bf3d 34ba 23be b6cc d8bc
00000380: 25be 5abd 147e 603d fbb8 bd3b 8538 c53d
00000390: 5ea1 2bbd fb36 853c 1baf 933c 70c0 87bd
000003a0: 7f99 943b d914 643d 176e fa3b d22b d43d
000003b0: 2deb cb3d 1726 bcbc 01b8 c8bc 52ff 0abc
000003c0: 28b1 0b3d 39cf f6bc ae55 84bc cdde f33c
000003d0: c339 fdbb 231d 0d3c fd88 573a 0da7 173d
000003e0: 4c03 d6bc efad 40bb e532 9c3d e834 fc3b
000003f0: 0eec 25bd f18d 623d 417c 933c 7d63 23ba
-0.036067344 -0.009487685 0.037838325 -0.023234513 -0.016542787 0.021793233 -0.006522199 -0.028066104
0.060265392 -0.009670307 -0.0046410966 0.0025285152 0.025928264 -0.0003946143 -0.00036868735 0.047808934
-0.01311134 0.013351558 0.021450633 -0.008731016 -0.032873075 0.011261634 0.017681193 -0.008757148
0.018385667 -0.0064873365 0.01989325 0.009089364 0.008432886 -0.006169697 0.033927605 0.009985602
0.0033968184 0.014550734 0.0077846623 -0.005038017 0.021556882 0.0129703395 -0.011603791 0.008559859
0.01762298 -0.026724137 -0.006695555 -0.005503404 0.015156166 -0.00060964347 0.0032272073 -0.016689494
-0.02066791 -0.0009685998 -0.018858189 0.0020217584 0.0013337013 -0.00027232492 -0.014715926 0.011165465
0.006594464 -0.014407933 0.02178282 0.018098786 0.003172101 -0.015380095 0.030491067 -0.026059818
-0.005611628 0.011205313 -0.0031000488 -0.0070066103 -0.0013852883 0.025897626 -0.0041524395 0.017300315
0.009160934 -0.003305096 -0.034465 0.03580689 0.016148884 -0.02801229 0.016176427 0.013335557
0.03430712 -0.017927721 -0.040696636 0.040084798 0.008379946 0.001786229 -0.01618807 0.01140154
0.010969841 -0.03245568 0.017039051 -0.0179567 -0.0073968717 0.02207124 0.011281308 0.0063189054
0.041659728 -0.009138613 0.011754901 -0.009975673 0.0097310515 -0.04725461 -0.03802643 -0.007210719
0.010662596 0.007933413 -0.015995758 -0.013656337 0.007908266 -0.021288792 -0.009104683 -0.017547883
-0.033940878 0.000997096 0.015738651 0.017394207 -0.027385147 0.0004586394 0.01578357 0.008020896
-0.08645534 -0.17079897 0.04785131 0.00479574 0.020339558 -0.017966645 -0.01956003 0.0057507795
0.09037942 0.0042713503 -0.030299023 -0.080300525 -0.054347057 -0.039525285 -0.08139295 0.063697346
0.0038064101 0.041984707 0.06446623 0.09032927 0.020244695 -0.0057548215 -0.18545048 0.0054631354
0.09614768 0.029773427 0.045287978 0.043418974 -0.045279652 -0.05547267 -0.1205719 0.14325313
0.084041186 0.025326282 0.061765525 0.016727963 0.051156815 -0.009264041 0.0014301991 -0.06802884
-0.00018140627 -0.07160524 0.10484849 0.020323949 0.0002587313 0.04491695 -0.054201107 -0.012620949
0.014159087 0.03059364 0.008789091 0.0042398246 -0.009833746 -0.018669669 0.0029526309 0.075164184
0.033619218 0.028139895 0.025834957 -0.009185162 -0.048369624 -0.044739638 0.037577987 0.053292774
0.0061893254 0.07221616 -0.09805486 0.02845671 -0.055586405 0.040370703 -0.023716083 -0.028969908
0.06534259 0.020491187 -0.001642566 -0.031227725 0.019089883 0.0030359314 -0.18818939 -0.0033739374
0.068441205 -0.015242939 -0.018582435 0.13452561 -0.011115325 -0.015725318 -0.031095782 0.010065134
0.114532 -0.007173626 -0.0965154 0.008936437 0.052505128 -0.020881662 0.028057355 0.038814794
-0.051989276 -0.024012309 -0.00504282 -0.0847696 0.012219133 0.09332026 -0.15989 -0.026464801
-0.053403992 0.054807737 0.0057898737 0.09629921 -0.04190194 0.016261568 0.018027833 -0.066285014
0.0045348997 0.055683944 0.0076425183 0.103599206 0.099569656 -0.022967381 -0.024501802 -0.008483725
0.034104496 -0.030128108 -0.016154137 0.029769326 -0.007727833 0.008612904 0.0008222012 0.037024546
-0.026124619 -0.0029400548 0.07626895 0.0076967366 -0.040508322 0.055311147 0.018003585 -0.00062327815

features.9.bias f4 [84]
00000000: 385f bb3d c093 153f e28e 0bbd 0cc1 d03b
00000010: eeec 8abe b32c 243f 9d0e a43e 8271 debd
00000020: 154a b63a 6fa4 f73e f29c 843e ee4a 023e
00000030: 96ab 2b3e 96c8 273f 5f69 9e3d d57d e6bd
00000040: d978 333e 5c66 edba 800e d73d 4a61 e7bd
00000050: 098f 5ebd 7ade debb 8658 bc3c e70a 88bd
00000060: 4215 353b 7bcf b43c 6d5c 1aba fe02 aabd
00000070: 30cf 9e3b b039 913e 08c1 f6bb cc6b 8b3a
00000080: f3fb 8e3e 32ac b6bb 836b ab3d 6206 f43d
00000090: d01e 2f3c 6f71 27be 4853 e8bc 96c7 d3bb
000000a0: 2070 30be b1b7 efbc 631d 7e3e 8912 f33b
000000b0: 7c83 88be 9c91 5f3d d004 cabd 40ba 55be
000000c0: f976 1f3d 9185 d0bc 0d62 143f de68 62bb
000000d0: a83f 15bb 1517 8bbe aee3 bbbd 43d6 a23c
000000e0: 96c3 673d d513 e73e fc40 993d 9ddb 993c
000000f0: 2aa1 acbd 9205 d43c 58f8 4abe 3dcd 9e3c
00000100: 66b1 a73e 6d52 b5bb 859a 133c ec08 12bf
00000110: f5e8 32bd 938e 3dbd 5b24 ef3b 6a54 e93b
00000120: b196 b73b 469a d2bd 3557 f03b 0a5f 9fbd
00000130: 6f3b b9bc 1721 b33d 2197 073d 6a84 433e
00000140: c6de 2ebd c1d0 7e3c 74b1 42bb 0f18 b5be
0.09149021 0.58428574 -0.03407181 0.006370669 -0.27133888 0.64130706 0.320424 -0.10861494
0.0013907576 0.4836764 0.2590099 0.12723896 0.16764674 0.65540445 0.07734942 -0.11254469
0.17526568 -0.001811217 0.105008125 -0.11297853 -0.054335628 -0.0068014236 0.02299143 -0.066427045
0.002763108 0.02207159 -0.00058884063 -0.08301352 0.004846476 0.28364325 -0.0075303353 0.0010636984
0.27926597 -0.0055747265 0.083701156 0.1191528 0.010688499 -0.16351865 -0.028360024 -0.0064630015
-0.17230272 -0.029262396 0.24815898 0.007417981 -0.26662815 0.054582223 -0.09864199 -0.2087183
0.03893182 -0.025454314 0.57962114 -0.003454737 -0.0022773538 -0.27166048 -0.09174286 0.019877559
0.05658301 0.45132318 0.07483098 0.018781478 -0.08429177 0.025881562 -0.19821298 0.019384975
0.32752532 -0.0055335076 0.009009008 -0.57044864 -0.043679196 -0.046278547 0.007298035 0.0071206586
0.0056026806 -0.102833316 0.0073346146 -0.07781799 -0.022611348 0.08746546 0.033103112 0.1909348
-0.042692922 0.0155527005 -0.002970782 -0.35369918

classifiers.0.weight f4 [5, 84]
00000000: f493 fbbd 79bd 0e3e 064d 383e 1dec 0cbb
00000010: 8588 6f3e 83ee bdbe c073 acbe d69c 023e
00000020: 6441 a1bb 03b5 093e 4a1d e4be b43c 613c
00000030: 0b4f 423e b2d9 0ebf 4724 06be 17d4 843d
00000040: 1b95 3a3e cc6a dd3b d0bd 803d 0a24 913e
00000050: 3496 0f3e e566 97ba 98f8 043d 3f0a 4a3e
00000060: 6983 8f3b e9b7 b23d 8df5 203b b520 083e
00000070: 26c6 cb3b 1749 75bd 3d9c dd3b b84a d9bb
00000080: 05e8 ff3d b631 5bbc 93ac d23d b89d ac3d
00000090: 6400 393d 59db 163e 6aaa 843c 6c95 e5bb
000000a0: becd f33d c5a0 193e 9b45 b93d b0e9 90bd
000000b0: c770 133e 3921 01bd f528 cb3d 24a6 203e
000000c0: aa30 5e3e 8e46 3e3d e025 5c3e e078 a13d
000000d0: 58b2 43bb 7179 113b 5da9 8b3d 46e9 3ebe
000000e0: d2f2 e8bc eef2 7b3e d30d cb3d 3d30 6d3e
000000f0: 4c88 90bd b824 afbd 549c df3d d53f babb
00000100: c456 a6bd f859 fa3b ea3b 293d 46fe b93d
00000110: 7fbb 38bd 112e 663e b9c3 c63b d510 683e
00000120: af67 3c3e f3b2 d33d 72e9 753c 0761 953d
00000130: 2134 2b3e 45b8 2c3c 1255 b2bd 055e 2cbe
00000140: 25e3 d83d 7f5f 323d 3a86 713e a0a9 c83d
00000150: fa83 c83d 2eb1 a73e 0d93 cabd eebc 9a3c
00000160: 9211 9dbe 5e5e c23e 2a8c 6a3d 891c 4cbe
00000170: 663b e5bb ab59 843e 4744 cabd 6411 3c3e
00000180: 95d2 2dbd b3a1 083f b81e c73d 9dab f0bd
00000190: 11db 5c3d 0f2d 52bc 9231 adbd bb19 90be
000001a0: 8fb2 e2be b55c f63a 3b11 773c 0e82 01be
000001b0: 9b6c 5abc 99c3 a4be 6508 60bb 783c 2abe
000001c0: 1e86 d139 64eb 85bd 9bef 2dbb 1cc2 c2bb
000001d0: 4edd 5c3e 5bb5 16bc 39e9 f9bc 69c1 083d
000001e0: 93bf 30be edf3 05bf 90a8 afbd 8f54 293c
000001f0: 433f 18be 96da 57bd 2acf 3d3e 08ea 59be
00000200: 4c6e 28bf 5e58 8a3d a04e 63be 1c72 adbe
00000210: 4316 54be 64cf a4bd d1c1 0b3f 0e2e 02be
00000220: b2e8 e73c cdf1 febd 2384 0bbe 3090 3fbe
00000230: 3040 bdbb 4942 183e 10fd e3bc 3363 11be
00000240: df3d adbe f5c3 3a3d 6b78 e6be 3296 45bb
00000250: 653e c03e 8d18 7f3b f5f4 b2bb 62cb c6be
00000260: 74f4 a5be 1b05 2cbf 483c 75bc 6894 96bd
00000270: 3849 48bd c50a 6abd 65b5 52bc 6129 5dbe
00000280: 5497 41be 7f0f 0b3e b465 e3bc 9d39 87bd
00000290: 0c29 78be a8c3 3bbe a623 bcbd be7b 30be
000002a0: 8ec4 d03c 2560 20bd 809c dbbd 2d38 0a3b
000002b0: 5e66 41bd 33ce 76be 8bcd 5b3e 0a18 6c3a
000002c0: 66d8 a73c fcf5 3abf 347f 833e 7bcd c33b
000002d0: 4da7 4fbe 19e3 38be ba31 413c cfef 61bd
000002e0: 001f aabe 9806 cdbb 4dac cd3c 4e07 70bd
000002f0: 40eb dc3d 4667 993a c148 363d 97fa f8bd
00000300: 8e28 d03b 3195 413e 190c 633c 87ac 1bbd
00000310: dd64 dabc bd8d e53e 3289 b2bc d760 773c
00000320: cade 14be f4fd 70bb c46d 9c3d ece8 8fbe
00000330: 16e6 153d e029 f53d f32a 62bd 1d58 213c
00000340: 9722 523d 35af 0f3d ed07 f6bd 2231 153e
00000350: 058f 2c3d c7ab c9bb 825e 75bd ab38 1f3c
00000360: 8521 373d a215 57bd db94 37bf 263d e93c
00000370: 675b ce3b d2dd e43d ca97 d3bd b6fd 093e
00000380: 6f76 8f3c 0bf7 80be 8b9f 8cbd 274f 8ebe
00000390: 6268 6a3e 5ed1 6a3d fff3 d63b 9a3a 063c
000003a0: 4630 99bd 8d7b 21bb d31b 88bb a20e 75bc
000003b0: 7cfa ebbd 4122 3c3e f37b 753a 9cb5 04be
000003c0: d334 89bd f542 43bd dd6b db3c cd47 bfbc
000003d0: 29fb 3b3d a5ac f6bb 21d8 6b3d 1c73 ba3d
000003e0: ca0f a13d 6052 05bd 7674 97bd 11b3 ab3d
000003f0: c483 0dbc 2693 87bd 0c02 1fbd e934 903b
-0.12284079 0.13939466 0.17998132 -0.002150304 0.23391922 -0.37096033 -0.3368206 0.1275514
-0.0049211252 0.13447957 -0.44553596 0.013747383 0.18975465 -0.55800927 -0.13099776 0.064857654
0.18220942 0.006757116 0.06286204 0.28347808 0.14022142 -0.0011551051 0.03246364 0.19730471
0.004379679 0.08726484 0.0024560422 0.13293727 0.0062186895 -0.059884157 0.00676301 -0.0066312216
0.12495426 -0.013378551 0.10286822 0.0842852 0.04516639 0.14732112 0.016194541 -0.007006338
0.119044766 0.15002735 0.09046479 -0.07075822 0.1439849 -0.031525824 0.09919921 0.15688378
0.21698251 0.046454005 0.21498823 0.07884383 -0.002986094 0.002219763 0.06819413 -0.18643674
-0.028436098 0.24604389 0.09914746 0.23162933 -0.070572466 -0.085519254 0.10918489 -0.005683879
-0.08122018 0.0076401196 0.041316904 0.09081702 -0.045100685 0.2247851 0.0060658124 0.22662671
0.18398927 0.10336866 0.015009271 0.07293897 0.16719104 0.01054198 -0.08707632 -0.1683274
0.105901994 0.043548103 0.2358636 0.097979784 0.097907975 0.32752365 -0.09891329 0.018888917
-0.30677468 0.3796262 0.057262577 -0.1993276 -0.0069956062 0.2584966 -0.09876304 0.18366009
-0.042437155 0.53371733 0.09722656 -0.11751483 0.053919856 -0.012828126 -0.084567204 -0.2814463
-0.44276854 0.0018795939 0.015079792 -0.12647268 -0.013331558 -0.3218048 -0.003418469 -0.1662463
0.00039963512 -0.06539038 -0.002654052 -0.00594355 0.21568796 -0.009198512 -0.030506717 0.033387575
-0.1726058 -0.52325326 -0.085770726 0.010335102 -0.14867882 -0.052698694 0.18536058 -0.21280682
-0.657933 0.06755136 -0.22197962 -0.3387612 -0.20711617 -0.08047369 0.54592615 -0.12712881
0.0283092 -0.124484636 -0.13624625 -0.18707347 -0.005775474 0.14869036 -0.02783063 -0.14197998
-0.33836266 0.045597035 -0.45013747 -0.0030149338 0.37547603 0.0038924546 -0.00546133 -0.38827044
-0.32413065 -0.6719529 -0.014967985 -0.07352525 -0.04889795 -0.057139177 -0.012860631 -0.21597816
-0.18905383 0.1358013 -0.027758457 -0.06602786 -0.24234408 -0.18336356 -0.09186487 -0.17234704
0.02548435 -0.03915419 -0.107232094 0.0021090612 -0.047216766 -0.24102096 0.21465127 0.00090062676
0.020488929 -0.7303159 0.25682986 0.005975423 -0.20278664 -0.18055381 0.011791641 -0.05516034
-0.33226776 -0.0062568896 0.025106573 -0.058600716 0.10787058 0.0011703752 0.044502977 -0.12157171
0.0063524907 0.18904568 0.013857865 -0.03800633 -0.026659423 0.448347 -0.021793935 0.015098772
-0.14538112 -0.0036772462 0.07638124 -0.28107393 0.03659638 0.11970878 -0.05521674 0.009847668
0.05130252 0.0350792 -0.120132305 0.14569524 0.04212858 -0.0061545107 -0.059904583 0.009718101
0.0447097 -0.052510865 -0.7171151 0.02847154 0.006297517 0.11175121 -0.10331686 0.1347569
0.017512528 -0.2518848 -0.06866368 -0.27794763 0.22891381 0.057328574 0.0065598483 0.008192683
-0.074799106 -0.0024640292 -0.0041537075 -0.014957102 -0.115223855 0.18372442 0.0009364478 -0.12959903
-0.066995285 -0.047671277 0.026784832 -0.023349667 0.045893822 -0.007527905 0.057579163 0.091039866
0.0786434 -0.032549262 -0.0739526 0.083837636 -0.008637372 -0.06619863 -0.03882031 0.0044008386

classifiers.0.bias f4 [5]
00000000: 357a 0cbf 0779 a83f 2c84 c03b 13f6 0a3f
00000010: 5577 a8bf
-0.54873973 1.3161935 0.005875131 0.5428173 -1.3161417

classifier.weight f4 [5, 84]
00000000: f493 fbbd 79bd 0e3e 064d 383e 1dec 0cbb
00000010: 8588 6f3e 83ee bdbe c073 acbe d69c 023e
00000020: 6441 a1bb 03b5 093e 4a1d e4be b43c 613c
00000030: 0b4f 423e b2d9 0ebf 4724 06be 17d4 843d
00000040: 1b95 3a3e cc6a dd3b d0bd 803d 0a24 913e
00000050: 3496 0f3e e566 97ba 98f8 043d 3f0a 4a3e
00000060: 6983 8f3b e9b7 b23d 8df5 203b b520 083e
00000070: 26c6 cb3b 1749 75bd 3d9c dd3b b84a d9bb
00000080: 05e8 ff3d b631 5bbc 93ac d23d b89d ac3d
00000090: 6400 393d 59db 163e 6aaa 843c 6c95 e5bb
000000a0: becd f33d c5a0 193e 9b45 b93d b0e9 90bd
000000b0: c770 133e 3921 01bd f528 cb3d 24a6 203e
000000c0: aa30 5e3e 8e46 3e3d e025 5c3e e078 a13d
000000d0: 58b2 43bb 7179 113b 5da9 8b3d 46e9 3ebe
000000e0: d2f2 e8bc eef2 7b3e d30d cb3d 3d30 6d3e
000000f0: 4c88 90bd b824 afbd 549c df3d d53f babb
00000100: c456 a6bd f859 fa3b ea3b 293d 46fe b93d
00000110: 7fbb 38bd 112e 663e b9c3 c63b d510 683e
00000120: af67 3c3e f3b2 d33d 72e9 753c 0761 953d
00000130: 2134 2b3e 45b8 2c3c 1255 b2bd 055e 2cbe
00000140: 25e3 d83d 7f5f 323d 3a86 713e a0a9 c83d
00000150: fa83 c83d 2eb1 a73e 0d93 cabd eebc 9a3c
00000160: 9211 9dbe 5e5e c23e 2a8c 6a3d 891c 4cbe
00000170: 663b e5bb ab59 843e 4744 cabd 6411 3c3e
00000180: 95d2 2dbd b3a1 083f b81e c73d 9dab f0bd
00000190: 11db 5c3d 0f2d 52bc 9231 adbd bb19 90be
000001a0: 8fb2 e2be b55c f63a 3b11 773c 0e82 01be
000001b0: 9b6c 5abc 99c3 a4be 6508 60bb 783c 2abe
000001c0: 1e86 d139 64eb 85bd 9bef 2dbb 1cc2 c2bb
000001d0: 4edd 5c3e 5bb5 16bc 39e9 f9bc 69c1 083d
000001e0: 93bf 30be edf3 05bf 90a8 afbd 8f54 293c
000001f0: 433f 18be 96da 57bd 2acf 3d3e 08ea 59be
00000200: 4c6e 28bf 5e58 8a3d a04e 63be 1c72 adbe
00000210: 4316 54be 64cf a4bd d1c1 0b3f 0e2e 02be
00000220: b2e8 e73c cdf1 febd 2384 0bbe 3090 3fbe
00000230: 3040 bdbb 4942 183e 10fd e3bc 3363 11be
00000240: df3d adbe f5c3 3a3d 6b78 e6be 3296 45bb
00000250: 653e c03e 8d18 7f3b f5f4 b2bb 62cb c6be
00000260: 74f4 a5be 1b05 2cbf 483c 75bc 6894 96bd
00000270: 3849 48bd c50a 6abd 65b5 52bc 6129 5dbe
00000280: 5497 41be 7f0f 0b3e b465 e3bc 9d39 87bd
00000290: 0c29 78be a8c3 3bbe a623 bcbd be7b 30be
000002a0: 8ec4 d03c 2560 20bd 809c dbbd 2d38 0a3b
000002b0: 5e66 41bd 33ce 76be 8bcd 5b3e 0a18 6c3a
000002c0: 66d8 a73c fcf5 3abf 347f 833e 7bcd c33b
000002d0: 4da7 4fbe 19e3 38be ba31 413c cfef 61bd
000002e0: 001f aabe 9806 cdbb 4dac cd3c 4e07 70bd
000002f0: 40eb dc3d 4667 993a c148 363d 97fa f8bd
00000300: 8e28 d03b 3195 413e 190c 633c 87ac 1bbd
00000310: dd64 dabc bd8d e53e 3289 b2bc d760 773c
00000320: cade 14be f4fd 70bb c46d 9c3d ece8 8fbe
00000330: 16e6 153d e029 f53d f32a 62bd 1d58 213c
00000340: 9722 523d 35af 0f3d ed07 f6bd 2231 153e
00000350: 058f 2c3d c7ab c9bb 825e 75bd ab38 1f3c
00000360: 8521 373d a215 57bd db94 37bf 263d e93c
00000370: 675b ce3b d2dd e43d ca97 d3bd b6fd 093e
00000380: 6f76 8f3c 0bf7 80be 8b9f 8cbd 274f 8ebe
00000390: 6268 6a3e 5ed1 6a3d fff3 d63b 9a3a 063c
000003a0: 4630 99bd 8d7b 21bb d31b 88bb a20e 75bc
000003b0: 7cfa ebbd 4122 3c3e f37b 753a 9cb5 04be
000003c0: d334 89bd f542 43bd dd6b db3c cd47 bfbc
000003d0: 29fb 3b3d a5ac f6bb 21d8 6b3d 1c73 ba3d
000003e0: ca0f a13d 6052 05bd 7674 97bd 11b3 ab3d
000003f0: c483 0dbc 2693 87bd 0c02 1fbd e934 903b
-0.12284079 0.13939466 0.17998132 -0.002150304 0.23391922 -0.37096033 -0.3368206 0.1275514
-0.0049211252 0.13447957 -0.44553596 0.013747383 0.18975465 -0.55800927 -0.13099776 0.064857654
0.18220942 0.006757116 0.06286204 0.28347808 0.14022142 -0.0011551051 0.03246364 0.19730471
0.004379679 0.08726484 0.0024560422 0.13293727 0.0062186895 -0.059884157 0.00676301 -0.0066312216
0.12495426 -0.013378551 0.10286822 0.0842852 0.04516639 0.14732112 0.016194541 -0.007006338
0.119044766 0.15002735 0.09046479 -0.07075822 0.1439849 -0.031525824 0.09919921 0.15688378
0.21698251 0.046454005 0.21498823 0.07884383 -0.002986094 0.002219763 0.06819413 -0.18643674
-0.028436098 0.24604389 0.09914746 0.23162933 -0.070572466 -0.085519254 0.10918489 -0.005683879
-0.08122018 0.0076401196 0.041316904 0.09081702 -0.045100685 0.2247851 0.0060658124 0.22662671
0.18398927 0.10336866 0.015009271 0.07293897 0.16719104 0.01054198 -0.08707632 -0.1683274
0.105901994 0.043548103 0.2358636 0.097979784 0.097907975 0.32752365 -0.09891329 0.018888917
-0.30677468 0.3796262 0.057262577 -0.1993276 -0.0069956062 0.2584966 -0.09876304 0.18366009
-0.042437155 0.53371733 0.09722656 -0.11751483 0.053919856 -0.012828126 -0.084567204 -0.2814463
-0.44276854 0.0018795939 0.015079792 -0.12647268 -0.013331558 -0.3218048 -0.003418469 -0.1662463
0.00039963512 -0.06539038 -0.002654052 -0.00594355 0.21568796 -0.009198512 -0.030506717 0.033387575
-0.1726058 -0.52325326 -0.085770726 0.010335102 -0.14867882 -0.052698694 0.18536058 -0.21280682
-0.657933 0.06755136 -0.22197962 -0.3387612 -0.20711617 -0.08047369 0.54592615 -0.12712881
0.0283092 -0.124484636 -0.13624625 -0.18707347 -0.005775474 0.14869036 -0.02783063 -0.14197998
-0.33836266 0.045597035 -0.45013747 -0.0030149338 0.37547603 0.0038924546 -0.00546133 -0.38827044
-0.32413065 -0.6719529 -0.014967985 -0.07352525 -0.04889795 -0.057139177 -0.012860631 -0.21597816
-0.18905383 0.1358013 -0.027758457 -0.06602786 -0.24234408 -0.18336356 -0.09186487 -0.17234704
0.02548435 -0.03915419 -0.107232094 0.0021090612 -0.047216766 -0.24102096 0.21465127 0.00090062676
0.020488929 -0.7303159 0.25682986 0.005975423 -0.20278664 -0.18055381 0.011791641 -0.05516034
-0.33226776 -0.0062568896 0.025106573 -0.058600716 0.10787058 0.0011703752 0.044502977 -0.12157171
0.0063524907 0.18904568 0.013857865 -0.03800633 -0.026659423 0.448347 -0.021793935 0.015098772
-0.14538112 -0.0036772462 0.07638124 -0.28107393 0.03659638 0.11970878 -0.05521674 0.009847668
0.05130252 0.0350792 -0.120132305 0.14569524 0.04212858 -0.0061545107 -0.059904583 0.009718101
0.0447097 -0.052510865 -0.7171151 0.02847154 0.006297517 0.11175121 -0.10331686 0.1347569
0.017512528 -0.2518848 -0.06866368 -0.27794763 0.22891381 0.057328574 0.0065598483 0.008192683
-0.074799106 -0.0024640292 -0.0041537075 -0.014957102 -0.115223855 0.18372442 0.0009364478 -0.12959903
-0.066995285 -0.047671277 0.026784832 -0.023349667 0.045893822 -0.007527905 0.057579163 0.091039866
0.0786434 -0.032549262 -0.0739526 0.083837636 -0.008637372 -0.06619863 -0.03882031 0.0044008386

classifier.bias f4 [5]
00000000: 357a 0cbf 0779 a83f 2c84 c03b 13f6 0a3f
00000010: 5577 a8bf
-0.54873973 1.3161935 0.005875131 0.5428173 -1.3161417

features.7 f4 [120]
00000000: 559f bdbd 5d72 22bd 0087 483e b8f0 f2bb
00000010: 0c65 c3bb ea04 b4bb 0a07 01bd 928a cdbc
00000020: 4087 383e fd2c 25bd 6150 543c 930e f6bd
00000030: 6b17 e5bd 5438 be3b 0662 3bbd 4fc5 9d3d
00000040: 69dd b3bd 7e42 0b3e 72ed 123e e7fb 383d
00000050: 9618 48bd 19be cf3a 9e69 153e ec4c 283c
00000060: c9ab 6e3c bfdf 9a3c dc10 223d c5dd 933d
00000070: 62d7 163d 3bab 92bc 67f9 73be d4d7 a43d
00000080: 6e73 9f3d 54d4 d8bc ddf7 cb3d cb13 d6bc
00000090: ce0b 423d ffba 173b e125 bf3b 22fe 383d
000000a0: 2f8d c43c 2a6c 573d bbe2 9cbe 60a3 3dbd
000000b0: 892d 6cbc aee3 ddbb 4018 f9bc bd78 8abd
000000c0: f3c2 28be 6238 6e3c 4259 863d dbfe a03c
000000d0: b473 c73c 22c7 4c3d a44f 7cbd b247 de3d
000000e0: b490 36be dac7 17bc 1e1e ba3b d13e 973c
000000f0: aa84 eebc c1f9 c8bd 02a2 233e e817 95bb
00000100: a121 e1bc e84c 173e 7678 f5bd 29f5 2a3d
00000110: 9d99 b5bb dc04 d33d a696 f8bc b021 d13d
00000120: 1b14 003c f31d 52bd 612e 9ebd bd49 58bd
00000130: b2f3 203e f49d 76ba bf35 45be 7be7 3dbe
00000140: 1d4c 4f3e 386f 0f3d 49c3 fcbd 36f8 bf3e
00000150: 939c a9bd 4fc4 0e3d 31a2 be3d f14e 0a3d
00000160: 5e9d 693e 82a1 29bc 8e74 09be a860 783c
00000170: f612 d63d 367f 2dbc e7eb 543d a3e2 823c
00000180: 32f1 903d 0cdf f4bc 00c7 90bc 1c01 01be
00000190: 0679 6d3d 3918 6fbc 6798 6f3c 6761 4ebc
000001a0: 54cd e8bd ca60 29be ef87 e0bd 39eb c23d
000001b0: 0bd3 43be 1b24 48bc cb30 fc3c 1bbf 83bd
000001c0: 0888 10bc 130c 0cbd 33be 863d 444b 503d
000001d0: a5b0 42be cae0 e4bc f334 84bc 4e04 93ba
-0.09258906 -0.039659847 0.19582748 -0.00741395 -0.0059629735 -0.00549375 -0.031500854 -0.02509049
0.18020344 -0.040326107 0.012958617 -0.120144986 -0.11186107 0.0058050547 -0.04574778 0.07703649
-0.08782465 0.13599584 0.1434839 0.045162108 -0.048851572 0.00158495 0.14591071 0.010272246
0.014567324 0.018905519 0.03956686 0.072200336 0.0368265 -0.017903915 -0.23825608 0.080489784
0.07785688 -0.026468433 0.099593855 -0.026132485 0.04737454 0.002315223 0.005833373 0.045164235
0.023993103 0.052593388 -0.30641732 -0.046298385 -0.014415153 -0.0067715263 -0.030407071 -0.0676131
-0.16480617 0.01453981 0.06559993 0.019652775 0.024347164 0.049994595 -0.06159939 0.108535185
-0.17828637 -0.009263957 0.00567986 0.01846257 -0.029115994 -0.09813262 0.1597977 -0.004549969
-0.027481856 0.14775431 -0.11985867 0.04173771 -0.005541994 0.10303661 -0.030345272 0.102115035
0.0078172935 -0.051298093 -0.0772369 -0.052804697 0.15717962 -0.0009407692 -0.19258784 -0.18545334
0.20243879 0.035018176 -0.12341935 0.37494057 -0.08281817 0.034855183 0.09308279 0.03376669
0.22813937 -0.010353448 -0.13423368 0.015159763 0.10452835 -0.0105894115 0.051982787 0.01597721
0.07077254 -0.029891513 -0.017673016 -0.1259808 0.057976745 -0.0145931775 0.014623738 -0.012596465
-0.11367288 -0.16540828 -0.10963427 0.095175214 -0.19123475 -0.012215639 0.030784985 -0.06432935
-0.008821495 -0.034191202 0.06579246 0.05085303 -0.19012697 -0.027939219 -0.01613853 -0.0011216493

features.9 f4 [84]
00000000: 385f bb3d c093 153f e28e 0bbd 0cc1 d03b
00000010: eeec 8abe b32c 243f 9d0e a43e 8271 debd
00000020: 154a b63a 6fa4 f73e f29c 843e ee4a 023e
00000030: 96ab 2b3e 96c8 273f 5f69 9e3d d57d e6bd
00000040: d978 333e 5c66 edba 800e d73d 4a61 e7bd
00000050: 098f 5ebd 7ade debb 8658 bc3c e70a 88bd
00000060: 4215 353b 7bcf b43c 6d5c 1aba fe02 aabd
00000070: 30cf 9e3b b039 913e 08c1 f6bb cc6b 8b3a
00000080: f3fb 8e3e 32ac b6bb 836b ab3d 6206 f43d
00000090: d01e 2f3c 6f71 27be 4853 e8bc 96c7 d3bb
000000a0: 2070 30be b1b7 efbc 631d 7e3e 8912 f33b
000000b0: 7c83 88be 9c91 5f3d d004 cabd 40ba 55be
000000c0: f976 1f3d 9185 d0bc 0d62 143f de68 62bb
000000d0: a83f 15bb 1517 8bbe aee3 bbbd 43d6 a23c
000000e0: 96c3 673d d513 e73e fc40 993d 9ddb 993c
000000f0: 2aa1 acbd 9205 d43c 58f8 4abe 3dcd 9e3c
00000100: 66b1 a73e 6d52 b5bb 859a 133c ec08 12bf
00000110: f5e8 32bd 938e 3dbd 5b24 ef3b 6a54 e93b
00000120: b196 b73b 469a d2bd 3557 f03b 0a5f 9fbd
00000130: 6f3b b9bc 1721 b33d 2197 073d 6a84 433e
00000140: c6de 2ebd c1d0 7e3c 74b1 42bb 0f18 b5be
0.09149021 0.58428574 -0.03407181 0.006370669 -0.27133888 0.64130706 0.320424 -0.10861494
0.0013907576 0.4836764 0.2590099 0.12723896 0.16764674 0.65540445 0.07734942 -0.11254469
0.17526568 -0.001811217 0.105008125 -0.11297853 -0.054335628 -0.0068014236 0.02299143 -0.066427045
0.002763108 0.02207159 -0.00058884063 -0.08301352 0.004846476 0.28364325 -0.0075303353 0.0010636984
0.27926597 -0.0055747265 0.083701156 0.1191528 0.010688499 -0.16351865 -0.028360024 -0.0064630015
-0.17230272 -0.029262396 0.24815898 0.007417981 -0.26662815 0.054582223 -0.09864199 -0.2087183
0.03893182 -0.025454314 0.57962114 -0.003454737 -0.0022773538 -0.27166048 -0.09174286 0.019877559
0.05658301 0.45132318 0.07483098 0.018781478 -0.08429177 0.025881562 -0.19821298 0.019384975
0.32752532 -0.0055335076 0.009009008 -0.57044864 -0.043679196 -0.046278547 0.007298035 0.0071206586
0.0056026806 -0.102833316 0.0073346146 -0.07781799 -0.022611348 0.08746546 0.033103112 0.1909348
-0.042692922 0.0155527005 -0.002970782 -0.35369918
