checkpoints_lenet5/baseline_scratch/lenet5/large_omnivores_and_herbivores/checkpoint-100.pth.tar (torch, 312219 bytes, 12 tensors)

features.0.weight f4 [6, 3, 5, 5]
000000 fd aa b7 be 50 e8 a5 be 97 b3 9b be ec 8a 5f 3d
       -0.3587264 -0.32403803 -0.30410454 0.054575846
000010 8f 9d b2 3e d3 1e cb bd e1 83 52 be 8b 61 af be
       0.34885833 -0.09917989 -0.2055812 -0.34254107
000020 40 ad c6 3c e0 4b e0 3e fb 63 2e 3e eb 23 98 be
       0.024252534 0.43807888 0.17030327 -0.29714903
000030 80 2e 0e be 2b de a8 be 37 b3 4f 3e 06 2f b4 3c
       -0.13884926 -0.32982 0.20283209 0.021995079
000040 f5 06 4b bd 3c bf 13 bf 1a cb 35 be a4 de 0e 3d
       -0.04956718 -0.57713675 -0.17753258 0.034880295
000050 73 40 36 bd ab 0c 2a bd d1 6e 88 be 84 6c d2 be
       -0.044495057 -0.041515987 -0.26647046 -0.41098416
000060 c9 82 f4 bd 70 33 5d bd e2 38 e0 bd c3 6a a1 be
       -0.11939008 -0.054004133 -0.109483495 -0.31526765
000070 06 70 b5 bd ba c9 77 3e e6 3c e5 bd 08 b6 04 be
       -0.088592574 0.24198046 -0.11193256 -0.12960064
000080 70 11 c8 bd 78 29 11 be c5 05 7e 3e 23 98 77 3e
       -0.09768951 -0.14175975 0.24806888 0.2417913
000090 dd 93 93 3d d6 6c e4 be 1b eb 6c be 2b 26 97 3e
       0.07205937 -0.44614285 -0.2313656 0.29521307
0000a0 b9 44 56 3e c1 14 65 3d af 71 87 be f5 d6 a6 be
       0.20924653 0.055927996 -0.2645392 -0.32585874
0000b0 6f 3b 2c 3e 59 01 46 be 7f c9 0f 3e bf 52 b7 bd
       0.16819547 -0.19336452 0.14041708 -0.089513294
0000c0 47 55 5c be f7 32 dd 3c b1 29 3f bd 7b 9b 08 be
       -0.21516906 0.027001841 -0.04667062 -0.13340561
0000d0 87 b3 42 bd 2a df b4 3d ac 2d 2d 3d 6e fc 3b 3e
       -0.047534492 0.08831628 0.042279884 0.18358013
0000e0 78 28 81 3d b9 bf 52 bc 98 41 e5 3d f9 6d 9f 3e
       0.06306547 -0.012863093 0.11194152 0.3113859
0000f0 c2 3b af 3e f9 0b 9f 3e 4b b1 d1 3d 98 a0 72 3e
       0.3422528 0.31063822 0.10238894 0.23694074
000100 36 58 3f 3d d2 bb 40 bc f2 1d 81 3e ca 83 49 3e
       0.046714984 -0.01176353 0.2521816 0.1967918
000110 41 50 19 be 97 b8 9d 3d d5 46 d9 3d 24 68 b9 3e
       -0.1497202 0.07701223 0.10609213 0.36212265
000120 b4 c0 7e 3e bf b1 ab 3d 12 98 5e be e7 84 03 bd
       0.24878198 0.08383512 -0.21737698 -0.032109167
000130 66 f7 bb 3d 68 f6 3a 3d b4 7d 41 3d 2b 14 6a b9
       0.09178047 0.045645148 0.04723902 -0.00022323492
000140 01 d8 81 3e 1f bf cd 3e 57 1a 83 3e 64 ec c9 bd
       0.2536011 0.40184876 0.25606033 -0.09859541
000150 e5 c4 05 be 44 cb 8f 3d b3 76 00 be 33 0f 6d bd
       -0.1306339 0.07021192 -0.1254528 -0.057875823
000160 16 6f e2 bc 37 da 61 be 8c f4 2f be a3 40 1e be
       -0.02764086 -0.22055899 -0.17183131 -0.15454344
000170 74 9d ef be 49 86 02 be ca b9 47 be 64 ad 3a 3d
       -0.46799815 -0.12746538 -0.19504467 0.045575514
000180 cd ad 9b 3d 83 ae c3 bd be 2d 97 3c cc d8 30 be
       0.07601509 -0.0955477 0.018454429 -0.17270201
000190 c0 8f a4 bd 9b 8c 44 3d 95 03 79 3e 97 0e 6a 3d
       -0.08035231 0.047985654 0.24317773 0.05714282
0001a0 bc 49 99 3c 72 78 bc 3e a9 69 0b be 9d c6 86 3e
       0.018711917 0.36810642 -0.13614525 0.26323405
0001b0 fb b2 28 3e 02 94 c4 bd 98 57 ff bc 5b bd ae bd
       0.16474526 -0.09598543 -0.031169698 -0.085322104
0001c0 46 ee bf be 72 c7 2c be d8 92 2a 3e 15 77 5f bd
       -0.37486476 -0.16872957 0.16657579 -0.054556925
0001d0 f1 30 ae be 72 b2 8c be 43 1f 02 be dc a1 fd 3d
       -0.34021714 -0.27479893 -0.12707238 0.12384388
0001e0 67 c9 87 be aa f0 27 be 87 55 fb bc 85 18 8a 3d
       -0.26520845 -0.164004 -0.030680431 0.06742958
0001f0 2d c5 b0 3d 40 18 67 3e 5a 8d 76 3e 32 cb 0e 3f
       0.08631358 0.22567844 0.24077359 0.557788
000200 de a5 a6 3e f2 ed 91 3e c1 2c 55 3e 5c a8 04 3f
       0.32548422 0.2850185 0.20817854 0.51819396
000210 5c ab 07 3f 18 60 40 3e 93 8f 82 bd 1a 0b c5 3d
       0.5299585 0.18786657 -0.06375041 0.09621258
000220 72 3e f7 3d 42 70 8a 3d f2 ae fe b8 4e ac 67 3d
       0.120724574 0.06759693 -0.0001214425 0.056560807
000230 81 9f 82 bd c9 46 80 bd 11 de 5e be c2 f4 65 bd
       -0.06378079 -0.06263501 -0.21764399 -0.056141622
000240 0a d9 26 be 88 37 ec 3d 60 39 2f be b1 1a 61 bd
       -0.16293731 0.11534029 -0.1711173 -0.054957096
000250 91 fb b2 3e 8c 26 87 bd d2 6b 8b 3d ab bf 48 3e
       0.34957555 -0.06599149 0.068076745 0.19604366
000260 de 9d 84 3d 63 54 24 3d ca d5 d4 bc f4 01 17 3d
       0.06475423 0.04011954 -0.025980849 0.036867097
000270 2f 05 87 3e c8 87 4f 3e 87 03 46 be c3 46 91 bd
       0.26371142 0.2026664 -0.19337283 -0.07093575
000280 10 76 54 3e 7d 47 ec 3e 02 23 00 3e 13 db 83 be
       0.20748162 0.4614829 0.12513354 -0.25753078
000290 b5 87 14 3e b5 1e 96 3e 32 91 2a 3e a3 28 53 bd
       0.14504893 0.29320303 0.1665695 -0.051552426
0002a0 52 bd d2 bd 9f 58 62 3e e4 57 a5 3c 0b ff 55 3d
       -0.10290016 0.22104119 0.020183511 0.05224518
0002b0 eb 56 4d be d1 6c fe be bb be 03 3f 9e 1b fc 3c
       -0.20052688 -0.49692395 0.51462907 0.030774888
0002c0 8c 2c de 3e 12 b8 d9 3b ef cd c7 bd ee 35 ca be
       0.43393362 0.0066442573 -0.097560756 -0.3949427
0002d0 4d c2 16 3e 4e 52 87 3e 33 43 b8 3c 5b 55 69 be
       0.14722557 0.2642998 0.02249298 -0.22786467
0002e0 69 84 70 be aa d3 7a 3e cc 18 d4 3e 33 45 27 be
       -0.2348801 0.24494806 0.4142517 -0.16334991
0002f0 64 35 f7 be 50 fc b1 bd 59 b3 5d 3e 99 e5 57 3e
       -0.4828292 -0.08690703 0.21650447 0.21083678
000300 32 25 8f be bf e3 09 bf 7a 32 9c bd ce 3a c0 bd
       -0.27958065 -0.5386314 -0.07626815 -0.09386216
000310 bc fc e4 3d 68 0d ec be fe b6 31 bf 7b 5a 4c 3e
       0.11181018 -0.46103978 -0.6941985 0.1995639
000320 1f db 30 be 9a b9 98 3d 06 9d a1 3e e6 33 22 3d
       -0.17271088 0.07457276 0.31565112 0.039600275
000330 8f 75 c5 3d fc 4a 27 3c 58 e4 87 3e ff f8 5f 3e
       0.09641563 0.010210749 0.265414 0.21872328
000340 ed 45 83 be 94 07 bb bd cc a5 2b bc 4f 47 f6 3a
       -0.25639287 -0.09132305 -0.010476541 0.0018789562
000350 39 82 37 be 3d 2b ac be b2 09 c5 bd 63 6c 02 3e
       -0.1792077 -0.33626738 -0.0962099 0.12736659
000360 a3 0d 2d 3e 3f 5f 4e be ec c3 4c be 6a 8b 1d 3e
       0.16899733 -0.20153521 -0.19996613 0.15385213
000370 eb d6 d2 bc 3a 00 68 3e 8a 2b aa be c1 c4 77 be
       -0.025737246 0.22656336 -0.33236343 -0.2419615
000380 3e 3b 8b 3e 29 bd bb 3d 88 50 4d 3e 3f 88 a2 3d
       0.27193636 0.09166939 0.20050251 0.07936143
000390 a2 16 7d 3e 4b 76 15 3f 44 5e 03 3e ce 8c 0f 3e
       0.24715665 0.58383626 0.12828928 0.14018556
0003a0 fa 39 bf 3e ea 6b 7b 3e c8 78 4d 3e 13 17 05 3e
       0.3734892 0.24552885 0.20065606 0.12997083
0003b0 69 c8 55 3d d3 a9 1f bd 9e a4 05 ba 0f bc e1 3c
       0.05219308 -0.038980316 -0.0005098077 0.027555494
0003c0 a7 fe 9e bc cd 63 2b be 39 4d 3f be 4a 84 c9 bd
       -0.019408537 -0.1673729 -0.18681802 -0.09839685
0003d0 90 84 15 3d 03 9f ac bd d9 e8 1f be 68 8f 1c bd
       0.036503375 -0.084287666 -0.15616168 -0.0382227
0003e0 b0 b3 03 3d a9 d8 81 3d 7a dc 91 be 87 b9 4c be
       0.032153785 0.06340153 -0.28488523 -0.19992648
0003f0 b5 2a a3 be ff ab 80 bb 30 55 4f 3d 76 a1 82 bd
       -0.3186852 -0.0039267535 0.05061835 -0.063784525

features.3.weight f4 [16, 6, 5, 5]
000000 d2 ef cd 3c d5 4a a7 3d 98 25 c6 3d 00 da 32 3d
       0.02513877 0.0816857 0.09675139 0.043664932
000010 e4 71 a4 3d 3b 14 38 3e 66 b5 46 bd cc 5f 9a bd
       0.080295354 0.17976467 -0.04851284 -0.07537803
000020 28 de b1 bd f4 59 e8 3d aa 32 86 3d 9d 53 4c bd
       -0.08684951 0.11345282 0.06552632 -0.049884427
000030 ea a3 e4 bd d1 20 f9 bc c7 14 1e 3e 15 62 42 3d
       -0.111640766 -0.030411156 0.15437613 0.04745682
000040 94 4d 94 3c 11 8c 02 3e 25 19 32 3e cf a5 4d bd
       0.018103398 0.12748744 0.17392404 -0.050206956
000050 54 a8 f9 bd 97 39 47 3d 34 9f cd bc df 71 18 be
       -0.12190309 0.048638906 -0.025100328 -0.14887188
000060 37 eb 8e bd 9a ed 59 be 27 d0 44 be 60 84 7d 3d
       -0.069784574 -0.21282044 -0.19220029 0.06189382
000070 1d ca c9 3d 90 c2 a8 3c e7 74 38 3e a2 6e 9e 3e
       0.09853003 0.020600587 0.18013345 0.3094378
000080 0d 96 9a 3e 29 ce be 3d cf c6 44 be 0f 67 a5 bc
       0.30192605 0.09316666 -0.19216464 -0.020190744
000090 56 5d 48 3d 99 77 de 3c f3 34 7d be e9 5b 8b be
       0.048917137 0.027156638 -0.2472723 -0.2721856
0000a0 61 11 ae bd 23 23 1f be 8e 8f ab be a0 08 ff bd
       -0.084994085 -0.15540747 -0.3350796 -0.12452817
0000b0 4b e8 1e be bb 8c 1a 3e cd 15 8c 3d 1e 17 e2 3d
       -0.155183 0.15092747 0.06840096 0.110395655
0000c0 bd 8d 88 3e 15 df fd 3d 51 a1 d0 bc ab 08 88 3d
       0.26670638 0.12396065 -0.025467547 0.06642278
0000d0 17 ce 92 3e f8 33 ef 3e 25 35 af 3e 1c 15 c1 bc
       0.2867286 0.46719337 0.34220234 -0.023569636
0000e0 97 7c 53 3e 0f a3 99 3e 1c e7 50 3e 07 f0 40 bd
       0.20652996 0.30007216 0.20400661 -0.047103908
0000f0 d1 4e 1c 3b 63 20 9e bd 41 d7 fc bd 6e 55 92 be
       0.002385069 -0.07721021 -0.12345744 -0.28580803
000100 7f a5 78 be af 7e c5 3c 59 8a f1 bd 17 98 b6 be
       -0.24281882 0.024108259 -0.11793966 -0.3566291
000110 62 3d 8e be d4 1c 36 be 22 49 0e 3a 21 b0 8c be
       -0.27781206 -0.17784435 0.0005427768 -0.27478126
000120 b8 1c 92 be 9f c9 d2 be 4b 51 b2 be 59 f2 ce 3d
       -0.28537536 -0.4116945 -0.34827647 0.10104818
000130 44 bf 1c 3e 65 8b 1b 3e 9e 11 28 bb 30 9b 6b 3d
       0.15307337 0.15189894 -0.0025645266 0.057521045
000140 d9 0b 67 3e 46 a9 90 3e 49 13 d3 3e 61 b8 4f 3e
       0.22563113 0.28254145 0.4122565 0.20285179
000150 01 60 59 3e 6d 15 4f 3e 4b ca ba 3d 35 46 47 3d
       0.21228029 0.20223017 0.091206156 0.04865094
000160 b7 3c b4 bb 2f 8e 32 be 30 9e a2 bd 5f 2a d6 bd
       -0.005500402 -0.17437051 -0.07940328 -0.104573004
000170 b9 2d 3c bd 28 75 86 be 50 87 52 be d6 5e 02 be
       -0.045942042 -0.26261258 -0.2055943 -0.1273149
000180 79 7a 6e be c5 fa 58 be dd 72 89 be 56 2b 60 be
       -0.23288907 -0.21189411 -0.26845446 -0.21891531
000190 e5 3f 29 3e b5 e1 2f 3e 8c e8 8d 3e 76 25 26 3e
       0.1652828 0.17175944 0.27716482 0.16225228
0001a0 f6 cb 15 3e b0 0f 12 3e 16 6c 3f 3e 00 ef 6d 3e
       0.14628586 0.14263797 0.18693575 0.23235703
0001b0 61 eb 70 3e 69 34 f0 bb e0 c9 e6 bc 21 b4 78 3d
       0.2352729 -0.0073304665 -0.028172433 0.06071866
0001c0 b2 52 1b 3e 06 d0 f0 3d b5 11 ae bd 50 9f 0f be
       0.15168265 0.11758427 -0.08499471 -0.14025617
0001d0 40 8b 9f 3d 40 5a 17 be be 64 01 be dc c2 86 be
       0.07790232 -0.14780521 -0.12636086 -0.2632054
0001e0 70 db b1 bd 44 0d 29 be ca 4b 3b be d6 05 bc be
       -0.086844325 -0.16508967 -0.1829063 -0.36723202
0001f0 23 8a bb be 18 86 d2 3e e0 fd 2a 3e ac d2 aa 3d
       -0.36628827 0.4111793 0.16698408 0.08340964
000200 53 fa c0 bb e4 a9 9e bc f7 22 f1 3d 4d 78 9a bd
       -0.005889216 -0.01936812 0.11774247 -0.07542477
000210 e5 a5 90 bd 46 04 a9 bd 32 39 d4 bd 4c dd 28 3e
       -0.07062892 -0.08252768 -0.10362472 0.16490668
000220 00 a0 c9 3c 08 1e 44 bd 6d 3c d1 bd 0b 8e 45 be
       0.024612427 -0.047880203 -0.102166034 -0.19292466
000230 b1 70 29 3e cc 19 01 be 71 ec ac be 62 4a c1 be
       0.16546895 -0.12607497 -0.3377414 -0.37752062
000240 90 84 94 be a9 2d 8b 3d 1b 73 12 be 5d f1 c0 be
       -0.29007387 0.06795818 -0.14301722 -0.37684146
000250 c8 46 d3 be bf 1b 86 be 41 bb eb 3d d8 c5 07 bd
       -0.4126494 -0.26193044 0.11510325 -0.033147663
000260 fe b5 1f bd bf f1 60 3d b5 6c a4 3d 9d 3c 82 3e
       -0.03899192 0.054918047 0.08028547 0.2543687
000270 da 9b 25 bd 8b bc 3a be b1 3c 3c be dd 95 f9 bd
       -0.040431835 -0.18235986 -0.18382527 -0.12186787
000280 d5 cc bf 3d 16 73 3e 3e fe 60 20 be 2f e6 43 be
       0.093652405 0.1859859 -0.15662 -0.19130777
000290 22 32 a3 bd eb 1d c4 3d f9 41 79 3e 21 01 30 3e
       -0.079685465 0.09576019 0.24341573 0.1718793
0002a0 d2 5b 18 be e2 f2 8d be aa e2 48 be bc af 12 3e
       -0.14878777 -0.27724367 -0.19617715 0.1432485
0002b0 eb 0a 93 3e fe 96 0e 3e b3 3b 25 be 7c ae d2 bc
       0.28719267 0.13924786 -0.16136055 -0.025717966
0002c0 b6 88 8d 3d bd 88 1d be f4 5d d2 3d f3 f0 b3 3d
       0.06910841 -0.15384193 0.102718264 0.08786192
0002d0 36 83 ad bd 50 fc f4 bd ee 2e 10 bc 6d ea fd bd
       -0.08472292 -0.11962187 -0.008800251 -0.12398229
0002e0 f0 ed 0a be c0 27 06 be 3f ca 1d 3e 5d 5f 0e 3e
       -0.13567328 -0.13101101 0.15409182 0.13903566
0002f0 5c 4a ae 3c 64 e5 78 bd f6 a3 0a be 38 ca 86 bc
       0.021275692 -0.06076564 -0.13539109 -0.016453847
000300 a3 40 f4 3d 1d 1e 3f 3d c2 1a c7 bb cb bc 7c be
       0.11926391 0.046659578 -0.006076188 -0.24681394
000310 e0 2c 0a bd 9a 89 5b bd 8e 41 54 bd a4 df 05 3e
       -0.033734202 -0.053598024 -0.05182033 0.13073593
000320 20 9f 0d be ce 68 7f be 21 9d 2d be da 3e fc bd
       -0.13830233 -0.24942324 -0.16954471 -0.123166755
000330 72 1a 72 3d 38 25 52 be 65 10 3a be 2f eb 7c bd
       0.05910725 -0.2052201 -0.18170317 -0.061747726
000340 ea 00 dc bd 2f fe ed bd 98 71 30 bd 15 4f 1d be
       -0.10742362 -0.11620747 -0.04307708 -0.15362199
000350 39 b6 47 be 3e cc c2 bd 85 df 25 3c af 0e 90 bd
       -0.19503106 -0.09511612 0.010124092 -0.07034051
000360 b9 88 59 bc 6f 0e 6c bd 35 50 30 be f7 f8 b0 bd
       -0.013277226 -0.057630952 -0.17218097 -0.08641236
000370 38 a0 a5 3c b1 23 83 3d 93 4a 08 be 31 a0 22 be
       0.020218 0.06403292 -0.13309698 -0.1588142
000380 90 a1 81 be 82 70 29 bd 75 17 bb 3d 2b b2 2c bd
       -0.25318575 -0.04136706 0.091353334 -0.0421621
000390 af dc ad 3d 91 c3 5a 3c 91 0c a8 bd 2e 15 18 be
       0.08489358 0.013352291 -0.08205522 -0.1485183
0003a0 c7 13 5c be 60 6d 84 bd 16 9b 06 be 1b 01 11 3e
       -0.2149192 -0.06466174 -0.13145098 0.14160578
0003b0 d8 dd e6 3d c4 66 7e be bb 83 a6 bd 1c e8 b3 bd
       0.11272782 -0.2484389 -0.08130594 -0.08784506
0003c0 1d e2 b9 bd ea 29 57 3e 87 4a 37 3e 15 ca 22 bc
       -0.09076331 0.21012083 0.17899524 -0.009935875
0003d0 c5 aa 89 bd 2e 6f 07 be 25 75 bf 3d 19 53 69 3d
       -0.06722025 -0.13226005 0.093485154 0.056964014
0003e0 89 72 10 3e b8 6a 9a 3d 1b a3 5f be e9 7f 15 be
       0.14106192 0.07539886 -0.21839564 -0.14599575
0003f0 e3 d6 2d 3e 6f 46 0f 3e cd e2 6e 3e 39 f8 88 be
       0.16976504 0.13991712 0.23328705 -0.2675188

features.7.weight f4 [120, 400]
000000 e0 86 45 bd 7f b2 5b bd 24 4e 5c bd d5 40 2d bd
       -0.04822433 -0.053637024 -0.05378546 -0.042298157
000010 21 26 61 bc 68 8d 10 bc 8f db 5c bd c0 0f b2 bd
       -0.013742001 -0.008822776 -0.053920325 -0.0869441
000020 8b d1 a1 bd 11 33 b3 bc 44 dc 31 bc 93 d4 05 be
       -0.07901295 -0.021874936 -0.010855738 -0.13069372
000030 18 cc 07 be 51 45 e6 bd d0 6b 9b bd 80 ea 95 bc
       -0.1326145 -0.1124369 -0.07588923 -0.018300295
000040 21 83 ec bc 00 43 5f bd f0 da 82 bd 3a a3 de bd
       -0.02887112 -0.054507256 -0.06389415 -0.10870977
000050 4a a1 ed bb 01 d3 d7 3c 95 8e 11 3d fb 41 be bb
       -0.007251893 0.026345732 0.035536367 -0.0058062053
000060 1d cc 61 bb 07 4a 69 3d a5 53 00 3b a3 6f a4 bc
       -0.0034453936 0.056955364 0.0019581106 -0.020072764
000070 76 91 3e bd ab 2a ca 3c 22 cd ca 3c b5 78 11 bc
       -0.04652544 0.024678549 0.024756018 -0.008878876
000080 1c db 56 bd 09 72 e2 bd 24 b7 95 bd b8 7b f4 3c
       -0.052455053 -0.11056907 -0.07310322 0.02984415
000090 84 5d 48 bc 77 4c 27 bd 91 39 cf bd 63 54 81 bd
       -0.012229327 -0.040844407 -0.10118402 -0.063149236
0000a0 3b a5 18 3d 35 97 19 bd 4d c9 df bb d0 55 38 bd
       0.03726695 -0.037497718 -0.006829417 -0.045003712
0000b0 db 06 5d bc c4 ad 94 3d d4 41 63 bc f0 b4 19 bd
       -0.013490404 0.07259706 -0.013870675 -0.03752607
0000c0 00 d8 f6 bc 7f c1 b2 bb e5 7b 7a bd cd d6 6a 3b
       -0.030132294 -0.0054551954 -0.06115331 0.0035833598
0000d0 eb e5 5e 3d fc 27 4d 3d ee bd 35 3d 67 77 9e bd
       0.054418486 0.05008696 0.044370584 -0.07737618
0000e0 d3 85 ab bc f3 8f 39 3d a1 0f c8 3d 05 59 44 3d
       -0.020937836 0.045303296 0.09768606 0.04793646
0000f0 9a a5 85 bd f7 7f f9 bc 5f 69 01 3d 18 53 89 3d
       -0.065257266 -0.030456526 0.03159463 0.06705302
000100 48 e2 20 3d bf ea fe bc e6 d0 3f bc 2b d2 8e 3c
       0.0392783 -0.031117795 -0.01170752 0.0174342
000110 ab 6b 1b 3d 3d ef 42 3c 0d dc 3c bd 7f ee 13 bd
       0.037944477 0.011897859 -0.046108294 -0.03611612
000120 c3 92 90 ba d2 b7 a2 3c 46 cf bc 3c 8b 54 11 3d
       -0.0011030067 0.019863043 0.023048054 0.035481017
000130 d2 47 7d 3c 43 c2 8b bc e1 43 d9 bb 94 90 0c bd
       0.015459018 -0.017060405 -0.0066304062 -0.034317568
000140 6a 48 12 3d 19 cf 24 3d 3b e6 21 bd 8d 06 16 bb
       0.03571359 0.040236566 -0.039526206 -0.0022892088
000150 13 2a ac ba 5a 1e 9f 3b 11 8b 4d 3c 8e 70 05 bd
       -0.0013135098 0.004855913 0.012545363 -0.032578044
000160 51 51 1a bc 39 9c 3c bd a1 51 77 bd fa 79 3e bd
       -0.009418801 -0.046047423 -0.06038058 -0.046503045
000170 a3 03 23 bd e4 bd a5 bc d7 46 41 bd fc 4f ad bc
       -0.03979839 -0.020232148 -0.0471867 -0.021156304
000180 c6 db cd bc 98 77 4d 3c e0 b4 a2 3c e2 1a ba 3c
       -0.02512921 0.01254072 0.019861639 0.022717897
000190 03 79 4b bd 62 68 4c bd 0c 4b f5 bd 6d 0d e4 bd
       -0.049675953 -0.049904235 -0.11977205 -0.11135373
0001a0 32 c2 68 bd d4 7e 0a bd 7c f5 8f bd 24 a8 ee bd
       -0.056825824 -0.03381236 -0.07029244 -0.11653164
0001b0 a3 a3 84 bd f1 d6 81 bd e1 88 52 bd 79 75 8e bd
       -0.06476524 -0.06339825 -0.05140007 -0.06956
0001c0 08 ba 9c bd 73 7f 6e bd 37 08 5b bd e7 75 d2 bc
       -0.0765267 -0.058227014 -0.05347463 -0.025690986
0001d0 c7 20 f7 bc a5 a6 d7 bc cd a5 1e bd ac 12 17 bd
       -0.030166997 -0.02632458 -0.03873234 -0.03688304
0001e0 b1 fd 29 3d 15 c8 8e 3d 23 2b 17 3d d0 de 83 bc
       0.041501705 0.06971756 0.036906373 -0.016097456
0001f0 b4 4a b0 bb dd 5e 9c ba 84 69 ae 3d 0e 8b b7 3d
       -0.005379999 -0.0011930127 0.08516219 0.089620695
000200 36 55 a9 3d fe 67 7f 3d c0 1b 19 bd c6 50 aa bb
       0.08268206 0.062355034 -0.03737998 -0.005197617
000210 bc 0b 84 bc 0c 4c 01 bd be 23 ff bb ca de 16 3c
       -0.016118877 -0.031566665 -0.007786243 0.0092083905
000220 7a 1a 7d bd 39 56 8c bd 62 10 a2 bd 9e a4 e3 bb
       -0.06179283 -0.06852383 -0.07913281 -0.006947114
000230 71 03 da 3c 44 66 dc b9 c2 dd fd 3b 6d 69 ff bc
       0.02661297 -0.00042037864 0.007747383 -0.0311782
000240 84 17 3d 3c 70 2f 95 3c 1d 66 a6 bc 3d af e7 3c
       0.011541251 0.018211097 -0.020312363 0.028281802
000250 f3 6d 48 3d 88 5a 1d 3d 69 e0 18 bc 39 3b dc bb
       0.04893298 0.038416415 -0.009330847 -0.006720927
000260 91 6c 03 bd 1b 94 66 3a 91 fe 99 ba 89 b2 6d bc
       -0.03208596 0.0008795873 -0.001174884 -0.014507898
000270 ff 7a 00 3c 2f 47 f1 bc 3b 31 c0 3c 1a 10 09 bd
       0.007841825 -0.029452888 0.023460975 -0.03346262
000280 0a 38 bb bc 0c 14 ae bc 85 e3 97 bc ae 19 d2 bc
       -0.02285387 -0.021249793 -0.018541107 -0.02564701
000290 10 9e 1d bc 3e e4 f3 bc e2 2f ac bc 8c e0 4f 3c
       -0.009620205 -0.02977192 -0.021018926 0.0126878135
0002a0 3d 85 86 bc 87 8d b5 bc 8d 6a 05 bd 7e 2b ab 39
       -0.016420955 -0.022162212 -0.032572318 0.00032648066
0002b0 da b2 8c bb 4d 85 03 bc e8 bb 55 bc 69 b4 e4 bc
       -0.0042937817 -0.008027387 -0.013045289 -0.027918058
0002c0 58 b4 29 bd 0d 95 e5 3b ff e3 f6 3b e3 fb 80 3d
       -0.041431755 0.0070062936 0.0075345035 0.062980436
0002d0 4f 01 1f 3c 74 0b 0d bb 3f 97 93 bc 02 a9 86 bd
       0.009704902 -0.002152172 -0.018016456 -0.065752044
0002e0 ed a8 33 bc 51 43 91 3c 69 a5 ce 3c 6c 49 11 bc
       -0.010965568 0.017732294 0.025225358 -0.008867603
0002f0 eb 4b 4c bd 94 12 67 bc 2d c3 63 bc 1d 36 80 3a
       -0.04987709 -0.01410355 -0.013901514 0.0009781752
000300 9e ab 2c bc 5d 76 ed bc 94 7c a9 bc de bd 18 bd
       -0.010538964 -0.028987104 -0.020689286 -0.037290446
000310 5b 8c ea bc 48 7e 44 3c 2a 6d 05 bc 8b 16 12 bd
       -0.02863138 0.011992998 -0.0081437025 -0.03566603
000320 3f ea 00 3c a7 96 9a bc 85 65 5a bd 94 c4 93 3c
       0.007868349 -0.018870665 -0.053319473 0.018038072
000330 ca 58 33 bc 26 b9 57 3c 3f cc dc 3c 39 ef b8 bc
       -0.010946462 0.013166701 0.02695286 -0.022575008
000340 93 a3 d0 bc 07 3b 4f bd fc d9 89 bc 4e 16 32 b8
       -0.025468623 -0.050593402 -0.016827576 -4.245928e-05
000350 9c 89 14 3c e0 92 eb bc 9a 82 91 bc 58 35 03 3d
       0.009066012 -0.028756559 -0.017762471 0.032033294
000360 e7 8f 05 3d 58 9d ca 3b 82 2b bf 3a 64 2a 09 bd
       0.03260794 0.0061833076 0.001458511 -0.033487692
000370 52 a0 db 3c ea 4e 1f bb 5f 48 88 bc f8 79 bf ba
       0.026809845 -0.002430851 -0.016636072 -0.0014608493
000380 fe 13 7b bd 1d b9 3a bd 5c 89 04 bb 3c b2 78 3d
       -0.061298363 -0.045586694 -0.0020223474 0.060716853
000390 52 fe be 3d d3 e5 60 3d 11 30 fb bc 00 35 d1 bc
       0.093258515 0.054906677 -0.030662568 -0.025537968
0003a0 f9 40 62 3d 1c 9d 89 3d f0 eb 86 3d a5 78 5f bd
       0.055237744 0.06719419 0.0658797 -0.054558415
0003b0 bb 24 37 bc e6 2f 56 3c ee d3 de 3c 72 f7 cd 3b
       -0.011178191 0.013072943 0.027200665 0.0062856013
0003c0 d8 5e b7 bd 1d d1 8d bd 7d 92 78 bc 3a 3a ed bb
       -0.08953637 -0.06924651 -0.015171644 -0.007239607
0003d0 22 fc 85 bd 6e 76 a1 bd 7e 2e a8 bd 1d a7 a9 bd
       -0.06542231 -0.07883917 -0.08211993 -0.082838275
0003e0 6d 23 64 bd 04 d9 9d bd a1 9d 37 3d 69 d3 54 3d
       -0.055697847 -0.07707408 0.04482806 0.05195943
0003f0 28 68 60 bc 05 29 c8 bc bb 22 c2 3a fd 4e c1 3d
       -0.013696708 -0.024433622 0.0014811376 0.09438894

features.7.bias f4 [120]
000000 6a 84 06 3d dc a3 01 3d 47 5f cf bc f6 f1 1a bd
       0.032841124 0.03165041 -0.025313986 -0.03782841
000010 60 47 d4 3d 86 f7 11 3c 7d ac bb bc 37 e2 b4 3d
       0.10365176 0.008909112 -0.022909397 0.088322096
000020 2b 47 95 3b 91 ae 39 bd e3 c3 24 3e bb cd 96 bd
       0.004555603 -0.045332495 0.1609035 -0.07363459
000030 ac 34 4b bc a3 88 33 bc bd 91 3a bc 1c fc 24 bc
       -0.012402695 -0.01095787 -0.011387286 -0.010069873
000040 d3 3f 2d bd 8b f9 3c bd 89 c0 f0 bc 33 ca 22 3c
       -0.042297196 -0.04613642 -0.029388683 0.009935903
000050 52 ae e5 bc ca b1 2c be 3b 6a ca 3d c1 5e b0 bc
       -0.028037224 -0.16864696 0.09883543 -0.021529557
000060 a0 57 2f bd e6 b1 31 bc d9 34 20 bd 97 55 76 3b
       -0.042808175 -0.010845637 -0.0391129 0.0037587637
000070 75 6f 6b bb d8 9d 88 3b 77 4f 71 bd 9d 38 9e 3c
       -0.0035924588 0.004169207 -0.058913674 0.019314105
000080 e3 45 55 bd f0 ea 8e bd f4 00 0c bd 99 a4 d9 3b
       -0.052068602 -0.069784045 -0.034180596 0.006641936
000090 7e d5 2f 3c a3 77 0d bb d3 8e 0c bd 8a 87 5f 3b
       0.010732053 -0.0021586202 -0.034315895 0.0034107887
0000a0 26 33 d6 bc 26 a2 da bd f6 1d 16 3d 36 bd a7 3c
       -0.026147436 -0.106754586 0.036649667 0.020475965
0000b0 37 e4 a7 3b b7 92 a9 b9 46 66 e3 b9 c1 0d 45 3d
       0.005123641 -0.00032343503 -0.00043373014 0.04810882
0000c0 c6 27 4f bc 04 92 c8 3d 03 36 fe 3d 11 7f 8b 3c
       -0.01264376 0.09793475 0.12412646 0.017028363
0000d0 ad 38 92 3b 5b 53 de bc c1 9f a7 bc 83 89 f4 bd
       0.0044623227 -0.027139356 -0.020461919 -0.11940291
0000e0 ff ef df bd 84 6b 2b 3c 52 c6 5d ba 96 19 2e 3d
       -0.109344475 0.010462645 -0.0008460033 0.04250487
0000f0 70 26 a8 bd d4 e9 7f 3d 0b 95 56 3d 3a 28 89 bb
       -0.08210456 0.062478855 0.052388232 -0.0041857036
000100 44 b4 c7 3c a1 9d 81 bd 98 a2 94 bb 52 15 b9 ba
       0.02437795 -0.063288935 -0.0045359842 -0.0014120734
000110 c6 93 1c bc 1b 3d c7 3c 19 68 c6 3d 28 48 1e be
       -0.009556716 0.02432113 0.09687824 -0.15457213
000120 ea a9 07 ba 6d b0 85 3c 86 f0 84 bc 47 04 a0 3d
       -0.00051751605 0.016319478 -0.016227972 0.07813316
000130 d0 ad 9d bd bd 0c a0 bd ea 7a 4e 3d 54 f9 d4 bd
       -0.07699168 -0.0781493 0.05041019 -0.10399118
000140 a8 13 92 3e 3b 91 8f 3d 27 11 77 bb 93 32 31 ba
       0.28530622 0.070101224 -0.0037699433 -0.00067595503
000150 54 0c 01 3d ec 4a 88 3b d0 79 46 3d 72 cb 51 3d
       0.031505898 0.004159322 0.048456013 0.05121941
000160 f8 76 2d bd 53 35 6c bc 21 73 10 be b0 11 3a bb
       -0.042349786 -0.01441701 -0.14106418 -0.002839189
000170 9c b3 a2 bc 89 6e 43 3d aa 83 c4 bd 86 d6 d1 ba
       -0.019861035 0.047712836 -0.095954254 -0.0016009368
000180 5a 47 23 3d bd b6 f0 bd f9 63 dc bd fd e4 26 3d
       0.039862968 -0.117536046 -0.10761256 0.040745724
000190 49 6c a9 3b b5 93 6a 3e be 5e d7 bc ee f5 dd 3c
       0.0051703793 0.22907908 -0.026290294 0.027094807
0001a0 9a 91 1f be 76 a3 72 3c dc fd 93 bc 4f 1b 0c bc
       -0.15582886 0.01480948 -0.018065386 -0.008551433
0001b0 cb 62 30 bd 95 20 ae bd 30 b4 1b bd 8d 4c 38 3c
       -0.043062966 -0.08502308 -0.038013637 0.01124872
0001c0 64 08 8a bb b3 31 2b be 6c 02 3e bd fe 82 99 3d
       -0.004212426 -0.16718177 -0.04638903 0.07495688
0001d0 60 7c 32 bd 7d a3 39 3d aa 69 f7 bc e7 3a 33 3a
       -0.043575644 0.04532193 -0.030201752 0.0006837085

features.9.weight f4 [84, 120]
000000 0b 5a 14 bc f2 19 44 bc 8b d1 c7 3c 06 66 bc bc
       -0.009054671 -0.0119690765 0.02439191 -0.022997867
000010 0b c2 9d bc 92 41 ba 3c bb b6 a4 bc aa 73 e9 bc
       -0.019257566 0.022736344 -0.020106664 -0.028497536
000020 b4 38 3e 3d 64 3a 43 3c cf e4 9f bb fe 42 84 3b
       0.046440795 0.011915777 -0.004879571 0.0040363064
000030 f7 ad ec ba 32 71 1d 3d 0b 6b 50 ba 8e 57 b7 3c
       -0.0018057217 0.03843803 -0.0007950521 0.022380617
000040 cb ca 97 bc e0 ec ed 3b 93 a2 b8 3c a1 e0 9e bc
       -0.018529316 0.0072609037 0.022538459 -0.01939422
000050 15 67 da bc 52 c9 97 3a 9c 9b 3f bc 9c 53 94 bc
       -0.026660481 0.0011580384 -0.011694815 -0.018106274
000060 31 fc 2e bc 2d f9 c9 bc ea ef 88 3c 9e 71 b2 bc
       -0.010680244 -0.02465495 0.016715962 -0.021782693
000070 b6 c7 96 3c 14 09 ec 3b 50 e1 93 bb eb ec 88 3c
       0.018405776 0.0072032306 -0.0045129433 0.016714534
000080 cc 62 32 bc 70 3e b8 3c af 54 27 3b 6e 2e 91 3a
       -0.010887813 0.02249071 0.0025532653 0.0011076459
000090 d0 be 3f 3c 62 3c 34 3c 02 0d 04 bc d4 d6 e4 3b
       0.011703208 0.0110007245 -0.008059742 0.0069836173
0000a0 f8 fe 6b 3c 56 35 88 bc 84 69 19 3c 69 55 48 3c
       0.014404051 -0.016626995 0.009363536 0.012227395
0000b0 71 ae c1 3b e9 93 45 3c f9 94 dc 3b 13 c7 94 3c
       0.0059106876 0.01205919 0.006731626 0.018161332
0000c0 b8 d1 11 3c 6a 3b cc b7 c6 32 a9 bc 8a 4d 05 3c
       0.0089000985 -2.4346362e-05 -0.020654093 0.008136163
0000d0 98 73 fc ba aa 41 41 bb 1e 17 69 3c 3d 6b c9 3c
       -0.0019260524 -0.0029488602 0.014226703 0.024587268
0000e0 11 4a 42 bc 6a b0 2c bc 16 9f c9 3b 03 7b 0e 3d
       -0.011858479 -0.010540107 0.0061529977 0.034785282
0000f0 5e 6d 0c bc ea c9 42 3c d9 3a e8 bb 23 12 f3 bb
       -0.008570997 0.01188896 -0.0070870933 -0.0074179335
000100 95 74 4b bb b4 26 19 3b 22 24 61 3c 4e b7 9a bb
       -0.003104483 0.0023369016 0.013741525 -0.0047215587
000110 bd 3c 7c ba 6a c1 b8 bb b6 cb 05 bc 1b 23 b8 bc
       -0.0009622088 -0.005638291 -0.008166244 -0.022477677
000120 16 7b 51 bc e6 03 20 bd c8 a7 53 bc b7 81 3d bc
       -0.012785694 -0.039066218 -0.01291842 -0.011566571
000130 4d b6 0f 3c 3c 27 67 bc c0 74 83 bc ac c4 bb 3c
       0.008771491 -0.014108475 -0.016046882 0.022920929
000140 00 9c a0 3b 03 a6 de bc 09 64 86 bc ea 71 b7 3c
       0.004901409 -0.02717877 -0.016405122 0.022393186
000150 42 b8 29 3c ed bb 8b bc 4f b1 f6 bb 27 83 1b ba
       0.010358872 -0.017057383 -0.007528461 -0.0005932324
000160 8f b4 22 3c 6f 37 de bc e6 41 b4 3b 6c 6e a6 bc
       0.009930744 -0.027126042 0.00550102 -0.020316325
000170 ee 92 b2 bc b0 88 50 3c a5 c9 a4 bb af e0 05 3c
       -0.021798577 0.012727901 -0.0050289207 0.0081712445
000180 5f ae 3b 3d a4 79 0b 3b 21 bc 26 3d da 8c 01 bd
       0.04582059 0.002128222 0.040706757 -0.031628467
000190 35 07 22 bc 11 28 c3 bc 32 73 83 bc 52 54 35 bc
       -0.009889414 -0.023822816 -0.01604614 -0.011067467
0001a0 2d 1a a1 3c 17 71 32 3c 35 a2 01 ba 2b 55 ee bc
       0.019665802 0.0108912205 -0.000494513 -0.029093346
0001b0 50 1c f9 3b 39 6a 26 bb d3 00 bc bb 5e 18 6d 3c
       0.007602252 -0.0025392903 -0.005737403 0.014471142
0001c0 5e 3d 19 bc 65 82 64 3b 2c 7a 6c 3c 9c 2b 23 bc
       -0.00935301 0.003486776 0.014433425 -0.009959128
0001d0 77 d6 e6 bc 16 f3 f3 bb c1 96 73 3c eb 4b 81 3c
       -0.028178437 -0.0074447496 0.0148674855 0.01578327
0001e0 13 ed 14 bc d9 e4 c2 bc 0c 36 b4 bb d0 84 b2 3b
       -0.009089726 -0.023790764 -0.005499607 0.0054479614
0001f0 20 ca 02 3c f4 87 7b bb 16 86 d4 3a e2 d8 76 3c
       0.007982761 -0.0038380595 0.0016214277 0.015066357
000200 04 a2 83 3c 68 fd ff 3a 6b cd 36 bc ca 3c c7 3b
       0.016068466 0.0019530477 -0.011157374 0.0060802447
000210 7a 6d 5e bc 11 e4 02 bc 4c 0b a2 bc 67 68 e5 ba
       -0.013575906 -0.007988946 -0.019780777 -0.0017502428
000220 c7 28 4c 3c 41 f6 e3 3c 76 ca 20 3a f6 43 56 3c
       0.012460894 0.027827384 0.00061336847 0.013077727
000230 d6 e3 01 bc 6d 73 5b bc 05 99 10 bb 69 3f 94 3c
       -0.0079278555 -0.013394219 -0.0022063863 0.018096643
000240 a2 b3 05 3c 13 f3 a5 3b 17 55 c0 b9 25 ae 37 bb
       0.008160504 0.005064377 -0.0003668449 -0.0028027382
000250 9a a3 b0 3b 9a 51 b5 3b 91 d6 47 3c 3b a4 23 3c
       0.0053905966 0.0055334093 0.012197153 0.009987886
000260 83 c1 36 bc 31 bf 82 bc d7 a7 8e 3a ea 6c 65 3b
       -0.011154535 -0.015960308 0.001088376 0.0035007545
000270 c2 60 37 3c 84 6a dd bb 53 cf 34 bc fc 90 e9 bb
       0.011192502 -0.0067570824 -0.011035758 -0.007127879
000280 39 71 51 3c 49 9e 32 bc b3 fe 1c bc d3 b7 d5 bb
       0.012783342 -0.010901996 -0.009582209 -0.0065221577
000290 a2 c1 0e 3a 98 c2 97 3b 04 bb 9e bc 42 4c 33 3b
       0.00054457237 0.0046313517 -0.019376285 0.0027358686
0002a0 2a 7c 30 bc 57 de bb 3c c7 e6 02 3b cc 2f 23 3c
       -0.0107717905 0.022933168 0.001997398 0.009960126
0002b0 6d 00 f1 3b f2 85 01 bc 78 40 8b bb a1 58 97 3c
       0.007354787 -0.00790547 -0.0042496286 0.018474879
0002c0 2d 34 2e 3c 86 da 57 3c 1a 2e f3 3c 18 73 63 ba
       0.010632557 0.013174659 0.029685069 -0.0008676513
0002d0 51 6d 6e 39 eb dc 91 bc 32 b6 e7 3b 42 b4 06 bc
       0.00022738172 -0.017805537 0.00707128 -0.008221688
0002e0 84 bb 63 bc b0 2e 0c 3c 94 aa 2a bc f6 74 14 bc
       -0.013899688 0.008556053 -0.010416646 -0.009061089
0002f0 6a 5a 5c bc 69 87 42 ba 96 e2 a7 3a 0f 5e 26 3c
       -0.013449291 -0.00074206904 0.0012808617 0.010154261
000300 87 c7 c6 ba be 06 08 bb 89 84 e0 3a 3d 56 1b bc
       -0.0015165665 -0.0020755972 0.0017129342 -0.00948101
000310 28 35 ef bc 1d d9 58 3c fb 34 ee 3a 92 34 cd bc
       -0.029200152 0.013235358 0.0018173748 -0.025049482
000320 48 e7 65 3c 9d 49 11 3c 17 9b 11 3b f1 57 60 3b
       0.0140321925 0.008867648 0.0022217685 0.0034232105
000330 5b 3b d1 3b a0 a3 63 bc 78 16 5a 3a 69 71 8b bb
       0.0063852496 -0.013893992 0.0008319388 -0.004255463
000340 19 9c 84 bc 4d 1f a8 bb 76 05 c6 bc e5 52 b3 3c
       -0.016187714 -0.0051306845 -0.024172526 0.021890113
000350 6b 4b 0e bc 57 93 a8 ba 98 56 61 3c 5e 9a 79 3c
       -0.008684973 -0.0012861294 0.013753556 0.015234558
000360 ae 7b 1b bc f1 32 98 bc f4 f6 5d 3c 11 0d 9a 3c
       -0.009489937 -0.018578978 0.013547648 0.018805059
000370 a8 62 9c 3b a2 35 23 bb d0 12 33 3c be 9e 79 bb
       0.004772503 -0.0024903794 0.010929778 -0.0038089002
000380 7b 31 f5 bb d7 ef b5 3b 39 4f 8f 3c bb b7 07 3b
       -0.007482705 0.005552273 0.017493831 0.0020708877
000390 89 63 28 3b 54 9f 14 bc e2 a6 f1 bb f7 5c f7 3a
       0.0025694093 -0.00907119 -0.0073746303 0.001887231
0003a0 46 99 20 3c 6e c5 5e 3b 75 c6 a8 bc 33 5f ec 3c
       0.009802168 0.003399219 -0.020602444 0.028853988
0003b0 fd 29 e4 3b 03 5d c8 bb 8f a6 8f 39 86 93 49 bc
       0.006963013 -0.0061146035 0.0002739918 -0.012303239
0003c0 95 2c ff 3a 8c 95 6d 3d 26 51 b7 3c 31 fe 48 3d
       0.0019468243 0.058003947 0.022377562 0.04907054
0003d0 86 d6 15 bd 1d b4 a8 b9 65 24 59 39 23 91 0f bd
       -0.03658154 -0.00032177652 0.0002070829 -0.035050523
0003e0 09 a0 09 3d 67 89 6d bd ac 3e f6 3d 7d 8d d5 bd
       0.033599887 -0.057992365 0.120236725 -0.104273774
0003f0 87 81 1e 3e ca 37 d4 bd 85 79 64 3d a9 b5 f3 3d
       0.15479098 -0.103622034 0.055779953 0.11899883

features.9.bias f4 [84]
000000 6c af 80 3d f4 01 03 3c 17 a6 14 3e 9c ef 4e bb
       0.06283459 0.007996071 0.14516483 -0.0031575924
000010 73 f5 0a bd 16 7a 43 3e fd 84 e3 3d 6c aa b7 3c
       -0.033925485 0.19089541 0.1110935 0.02242013
000020 7f ed c8 3c fe 5c f2 3b ad a0 7e 3e 38 10 bf bc
       0.02452731 0.0073963394 0.2486598 -0.023323163
000030 9b fc 92 3d fd fb 0d bc 00 49 94 bb 5a a1 a4 3e
       0.07177087 -0.008666036 -0.004525304 0.3215435
000040 ed c2 ef bc d8 08 20 3d b4 f8 06 3e ed 4b 15 be
       -0.029267753 0.039070934 0.1318081 -0.14579745
000050 5c d0 bb bd d3 25 9b 3a 11 d7 20 be 74 a2 00 bd
       -0.09170601 0.0011836834 -0.15707041 -0.031404927
000060 9b e0 6b 3b 6a a7 2a 3e 64 28 07 bb 9d 56 54 3e
       0.003599203 0.16665426 -0.002062344 0.20736165
000070 8f 42 af 3c 73 f4 05 be 5a 10 f4 3d 8d 6e c4 3d
       0.021394042 -0.13081531 0.11917181 0.095913984
000080 10 f2 95 3d b0 3f a2 3e 54 42 18 bd 31 b5 d8 3d
       0.073215604 0.31689215 -0.03717263 0.105814345
000090 9a 80 ae 3d 34 81 34 3d 68 92 c0 bc 75 20 18 3c
       0.085206226 0.04406853 -0.023507312 0.009285082
0000a0 b2 35 fd bd 44 18 42 3e 69 13 47 bc 52 eb 0b 3e
       -0.12363757 0.18954569 -0.012150624 0.13663986
0000b0 53 2e f0 bd ab 47 9d bd a0 bd 4c bb e5 ad 45 3c
       -0.11727586 -0.07679685 -0.0031240955 0.0120653855
0000c0 89 7a 3b 3c 32 bc 4b 3e e7 fe c3 3e 19 4f 8f 3e
       0.011442789 0.1989601 0.38280413 0.27990034
0000d0 43 18 2c bb b7 65 47 3e 75 d4 58 3e 31 e8 87 bb
       -0.0026259578 0.19472395 0.21174796 -0.0041475524
0000e0 37 7a 7b 3e 51 c3 33 be cf ee 7c bb c1 3e 2b 3d
       0.2455834 -0.17554976 -0.003859449 0.041807894
0000f0 00 23 40 3d 25 44 30 bd 67 45 1e bd fb 54 8f 39
       0.04690838 -0.043033738 -0.038640406 0.000273384
000100 be c3 d0 bb 28 c2 a4 3c af 42 93 ba a3 c2 07 3f
       -0.0063709905 0.020112112 -0.0011235083 0.5303137
000110 16 1e ef 3d 99 e3 c2 bb 2a 41 89 3c 6c f5 f2 bc
       0.1167566 -0.005947542 0.016754705 -0.029658042
000120 1e 73 55 bd 98 2e 4a bc 89 cb 05 3d de e5 1a 3d
       -0.052111737 -0.01234021 0.03266481 0.037816875
000130 20 d2 14 bc b6 7a 78 39 3f 3b 3d 3e ae 94 39 3e
       -0.009083301 0.00023696836 0.18479632 0.18123123
000140 c9 b9 31 be 56 e7 8e 3e 22 b9 8b 3e ea 45 a1 bd
       -0.17356028 0.2791087 0.27289683 -0.07874663

classifiers.0.weight f4 [5, 84]
000000 59 17 cc bc 1a 92 14 3c c3 87 8f 3e 2b cb 4d 3a
       -0.024913477 0.009068036 0.28033265 0.0007850404
000010 e8 37 2e 3d 1d cd 58 3e 2a d8 ec bd 32 57 16 be
       0.042533785 0.21171995 -0.115646675 -0.146817
000020 6d 04 e5 bc 29 b9 11 bc bc dc 80 be 29 9e b7 bd
       -0.027956212 -0.008894243 -0.25168407 -0.089657135
000030 60 b6 3b 3d ed a1 94 bc c4 9f a0 bc 89 52 0b be
       0.045828223 -0.018143618 -0.019607432 -0.13605703
000040 57 eb 00 3e cc 75 35 3d 97 26 18 be 7c 0c 85 bd
       0.12589775 0.044301793 -0.14858471 -0.06496522
000050 17 ff 04 bd 11 40 e6 bb 9f 8d fa bc 6b 86 0b bc
       -0.032469835 -0.0070266803 -0.030585108 -0.008515934
000060 e0 34 ae bb 71 78 ab 3d 45 ff 21 39 7c 36 bf 3c
       -0.005316362 0.08372582 0.00015449252 0.02334141
000070 21 f1 d4 3c 41 b6 81 3e b3 21 37 3e 45 47 07 be
       0.025993885 0.2533436 0.17883949 -0.13210781
000080 15 04 da 3c 6c 79 fe 3c d3 86 c8 3d 40 44 5b be
       0.026613275 0.031063758 0.09791341 -0.21412754
000090 35 6a 36 be 7f e7 26 be 1f 63 90 3c 46 83 34 bd
       -0.17813952 -0.16299246 0.01762539 -0.044070505
0000a0 3b 75 04 3e 47 d1 58 3e 8c a9 a6 3c 48 d6 32 be
       0.12935345 0.21173583 0.020344518 -0.17464554
0000b0 10 fd 8d 3d c4 eb 43 3e d9 7f 2a 3c 4b 92 f9 bc
       0.069330335 0.19132906 0.010406458 -0.030465266
0000c0 89 c2 28 3e 53 27 09 be e3 af 39 3e ec 28 83 3e
       0.1648046 -0.13393907 0.18133502 0.25617158
0000d0 5f bb 83 bb 50 91 3b 3d 63 a0 1a be d6 b6 0e 3c
       -0.004020139 0.045792878 -0.15100245 0.008710584
0000e0 4f 98 52 be 49 a3 79 3e 30 92 8d 3c aa c5 04 bd
       -0.20565914 0.24378695 0.017281622 -0.03241507
0000f0 ea 92 fb bd b7 2e 2d bd 02 24 81 bd ab 1a 7f 3c
       -0.12283881 -0.04228088 -0.06305696 0.015570323
000100 1e 63 08 3c bd 54 6a bc 3c 8e 69 3c 4d ab 39 be
       0.008324413 -0.01430243 0.014255103 -0.18131752
000110 1f 23 2b 3e 15 b7 0c 3c 37 75 29 3d ee bb 25 bd
       0.16712616 0.008588572 0.04137155 -0.040462427
000120 a8 b8 f1 3d 5c b7 92 bd 45 25 72 bd c5 ac 90 bc
       0.118027985 -0.07163879 -0.059117574 -0.017660508
000130 53 11 23 be 91 75 23 be b6 95 63 3e ba fd 37 be
       -0.15924577 -0.15962817 0.22225079 -0.17967883
000140 d8 e9 cc 3d af 15 27 be 7b 20 72 3e d0 2b 30 3d
       0.1000554 -0.16316865 0.23645203 0.043010533
000150 6f e6 75 bd 7e 9c 8a 3c 38 d7 ca 3d db c7 31 3c
       -0.06003421 0.016920324 0.09904331 0.010850872
000160 eb 16 91 bd 37 80 4b 3d 1b df cd bd 8a 42 4a 3e
       -0.070844494 0.049682822 -0.100523196 0.19751945
000170 a2 0a 56 bc d1 47 84 ba 65 d0 cb bd b2 4f 62 3e
       -0.0130640585 -0.0010092204 -0.099518575 0.22100714
000180 01 24 88 bd 9f e9 91 3c 47 4b 4e 3d 65 f4 19 3e
       -0.06647492 0.017811595 0.05036476 0.15034635
000190 5e 85 0c 3d 9b d6 7c bd df 8a 73 bc 74 b6 a9 3d
       0.034306876 -0.0617281 -0.014864652 0.08286753
0001a0 b5 7c b3 3d fb 5f d8 3a bb 35 18 3e ed 6e d9 3d
       0.0876402 0.0016508097 0.14864247 0.106168605
0001b0 fc a9 23 bc ce e4 9e bd c7 47 f9 bb da a2 d9 3d
       -0.009989258 -0.07758485 -0.0076074335 0.106267646
0001c0 bb aa 4c bc b7 46 15 3e a3 8f 25 be dc a8 48 bd
       -0.012491877 0.14577757 -0.16168074 -0.04898916
0001d0 76 fc 32 3c c6 ca af 3d cd 1d 23 be 6b 9f 4e 3e
       0.010924449 0.08583598 -0.15929337 0.20178
0001e0 ac 51 38 bc c3 70 6a 3d 96 ab f6 3d 0d 08 0d 3e
       -0.011249941 0.057236444 0.12044446 0.13772602
0001f0 17 78 c9 3b 5d 24 48 3e c8 31 2e bc e3 5b 1b 3e
       0.006148349 0.19545121 -0.010631986 0.15171771
000200 2d 04 21 39 7c ec bb bd dd e6 cb bc df bf e2 3b
       0.00015355712 -0.09175965 -0.024890358 0.0069198455
000210 ac 56 ad 3d 5a 4f e0 3c d6 b4 44 3e d1 68 2b be
       0.08463797 0.027381588 0.19209608 -0.16739203
000220 07 3b bd 3c 36 97 d5 3d 96 70 18 be c5 28 66 3c
       0.023099435 0.10429232 -0.14886698 0.014047806
000230 65 bb f7 bd 94 df 47 3d 84 5b 9c 3c 0c f3 16 bd
       -0.120962895 0.048797205 0.019086607 -0.03685288
000240 87 a2 9a bd ee 59 30 3e 8a b8 c3 bd 0b 81 bc bb
       -0.07550531 0.17221805 -0.095566824 -0.005752688
000250 55 4d 64 3c 55 11 ab 3d e4 9b b3 bb 3b f9 bd bc
       0.013934453 0.08352915 -0.00548123 -0.023190131
000260 b7 50 1f 3d 03 83 a9 bc 40 89 88 bd 98 36 3e 3e
       0.038895335 -0.020692354 -0.06666803 0.18575513
000270 e8 33 5f 3e 0b bf 28 3e e5 42 18 bd 98 4f ae bd
       0.21797144 0.16479127 -0.03717317 -0.08511275
000280 5d 1e 25 3e 61 db 24 3e 9f 50 19 3e 44 ba 6b bd
       0.16124864 0.16099311 0.14972161 -0.057550684
000290 97 2e 4a 3e 40 59 1d be a0 00 e5 3d 5e 45 2d bd
       0.19744335 -0.15366077 0.1118176 -0.04230248
0002a0 1f 22 87 3d 90 26 4c bc db 14 71 be 90 8a 2c bb
       0.06598305 -0.012460366 -0.23543112 -0.0026327707
0002b0 75 b9 e4 3d 29 aa b8 be 4b 2a 42 3e 40 7d 54 3c
       0.111681856 -0.36067322 0.18961446 0.012969315
0002c0 8e b8 05 3d 1c 95 a1 bc fa fa 28 3e 38 21 05 bd
       0.03264671 -0.019724421 0.1650199 -0.032502383
0002d0 da 1f 8e bd ba 65 2c 3c 0c 50 c5 3b 44 e1 39 be
       -0.06939669 0.0105223 0.006021505 -0.18152338
0002e0 8e 85 1d bd 67 05 d7 bc df c0 ec 3d c4 6c 80 3e
       -0.038457446 -0.026247693 0.11560225 0.25082982
0002f0 55 28 fb 3d b9 be c4 3b 57 2d 2b 3e 7e 07 34 3d
       0.12263552 0.006004181 0.16716515 0.043952458
000300 03 5b 0b 3c 99 03 84 bd 7e 05 20 3c 30 d9 f3 bd
       0.008505586 -0.06445999 0.009766934 -0.119066596
000310 6f 11 5f bc 11 1c 29 be b1 cf 14 be 7f 5b ca 3d
       -0.013614996 -0.16514613 -0.14532353 0.09880733
000320 71 1c f6 3c b5 f0 02 be 69 60 9b 3e ef 89 5b bd
       0.030042859 -0.12787135 0.30346993 -0.05359834
000330 cd ee 53 3e 9b 2b c0 3d 11 af 90 bd ef 40 1a bd
       0.20696564 0.09383317 -0.07064641 -0.03765958
000340 b8 0c c1 3d 27 c3 b7 be 5e c5 5e 3d 2b a0 56 bd
       0.09426254 -0.35891077 0.054387443 -0.05239884
000350 8a ae ed 3d 71 c1 ed 3d 89 2e 30 bb 1e cf 82 3d
       0.11605556 0.11609162 -0.0026883206 0.06387161
000360 2d c2 1c be 70 d9 c7 bd 43 6c 98 be af 4f 83 be
       -0.15308447 -0.0975827 -0.29770097 -0.2564673
000370 36 f4 e0 3b b1 be 2a bd 63 f5 00 3e 16 4f 01 3c
       0.0068650497 -0.041685764 0.12593608 0.007892391
000380 d8 45 df ba 71 64 f4 3c 74 23 04 3c fe 00 0f 3c
       -0.0017034365 0.02983305 0.008065093 0.008728264
000390 44 52 86 3e f0 fc 42 bd 88 88 80 3e 96 95 3e 3c
       0.2623464 -0.0476045 0.25104165 0.011632344
0003a0 93 ed 6c 3b 81 e9 d6 bc e9 73 18 bc e8 b6 fa 3d
       0.0036152347 -0.02623439 -0.009304979 0.12241918
0003b0 80 c3 87 bb b8 2c af 3c e8 4d 09 3c d8 33 32 bd
       -0.0041431785 0.021383628 0.008380391 -0.043506473
0003c0 5c ed 30 be 29 a0 a6 bc fe 26 0a 3e de 80 28 3e
       -0.17278045 -0.020340042 0.13491437 0.16455409
0003d0 87 73 93 3d 10 9f 83 3d 1e 55 b9 be 24 0b 0a 3c
       0.071997695 0.06426823 -0.36197752 0.008425508
0003e0 7f 6a 14 3b 72 a9 61 bc dc 6c ab be f0 9a 03 3e
       0.0022646484 -0.013773309 -0.3348149 0.12852073
0003f0 0a f6 43 3d 01 2f 3e bd 83 8b 51 3e 69 1a cf 3b
       0.047842063 -0.046431545 0.20463376 0.006320287

classifiers.0.bias f4 [5]
000000 27 67 fa be 53 44 56 bf dc 2a 8f bf 01 5d a5 3f
       -0.48906824 -0.83698004 -1.1184955 1.2919008
000010 89 89 93 3f
       1.1526347

classifier.weight f4 [5, 84]
000000 59 17 cc bc 1a 92 14 3c c3 87 8f 3e 2b cb 4d 3a
       -0.024913477 0.009068036 0.28033265 0.0007850404
000010 e8 37 2e 3d 1d cd 58 3e 2a d8 ec bd 32 57 16 be
       0.042533785 0.21171995 -0.115646675 -0.146817
000020 6d 04 e5 bc 29 b9 11 bc bc dc 80 be 29 9e b7 bd
       -0.027956212 -0.008894243 -0.25168407 -0.089657135
000030 60 b6 3b 3d ed a1 94 bc c4 9f a0 bc 89 52 0b be
       0.045828223 -0.018143618 -0.019607432 -0.13605703
000040 57 eb 00 3e cc 75 35 3d 97 26 18 be 7c 0c 85 bd
       0.12589775 0.044301793 -0.14858471 -0.06496522
000050 17 ff 04 bd 11 40 e6 bb 9f 8d fa bc 6b 86 0b bc
       -0.032469835 -0.0070266803 -0.030585108 -0.008515934
000060 e0 34 ae bb 71 78 ab 3d 45 ff 21 39 7c 36 bf 3c
       -0.005316362 0.08372582 0.00015449252 0.02334141
000070 21 f1 d4 3c 41 b6 81 3e b3 21 37 3e 45 47 07 be
       0.025993885 0.2533436 0.17883949 -0.13210781
000080 15 04 da 3c 6c 79 fe 3c d3 86 c8 3d 40 44 5b be
       0.026613275 0.031063758 0.09791341 -0.21412754
000090 35 6a 36 be 7f e7 26 be 1f 63 90 3c 46 83 34 bd
       -0.17813952 -0.16299246 0.01762539 -0.044070505
0000a0 3b 75 04 3e 47 d1 58 3e 8c a9 a6 3c 48 d6 32 be
       0.12935345 0.21173583 0.020344518 -0.17464554
0000b0 10 fd 8d 3d c4 eb 43 3e d9 7f 2a 3c 4b 92 f9 bc
       0.069330335 0.19132906 0.010406458 -0.030465266
0000c0 89 c2 28 3e 53 27 09 be e3 af 39 3e ec 28 83 3e
       0.1648046 -0.13393907 0.18133502 0.25617158
0000d0 5f bb 83 bb 50 91 3b 3d 63 a0 1a be d6 b6 0e 3c
       -0.004020139 0.045792878 -0.15100245 0.008710584
0000e0 4f 98 52 be 49 a3 79 3e 30 92 8d 3c aa c5 04 bd
       -0.20565914 0.24378695 0.017281622 -0.03241507
0000f0 ea 92 fb bd b7 2e 2d bd 02 24 81 bd ab 1a 7f 3c
       -0.12283881 -0.04228088 -0.06305696 0.015570323
000100 1e 63 08 3c bd 54 6a bc 3c 8e 69 3c 4d ab 39 be
       0.008324413 -0.01430243 0.014255103 -0.18131752
000110 1f 23 2b 3e 15 b7 0c 3c 37 75 29 3d ee bb 25 bd
       0.16712616 0.008588572 0.04137155 -0.040462427
000120 a8 b8 f1 3d 5c b7 92 bd 45 25 72 bd c5 ac 90 bc
       0.118027985 -0.07163879 -0.059117574 -0.017660508
000130 53 11 23 be 91 75 23 be b6 95 63 3e ba fd 37 be
       -0.15924577 -0.15962817 0.22225079 -0.17967883
000140 d8 e9 cc 3d af 15 27 be 7b 20 72 3e d0 2b 30 3d
       0.1000554 -0.16316865 0.23645203 0.043010533
000150 6f e6 75 bd 7e 9c 8a 3c 38 d7 ca 3d db c7 31 3c
       -0.06003421 0.016920324 0.09904331 0.010850872
000160 eb 16 91 bd 37 80 4b 3d 1b df cd bd 8a 42 4a 3e
       -0.070844494 0.049682822 -0.100523196 0.19751945
000170 a2 0a 56 bc d1 47 84 ba 65 d0 cb bd b2 4f 62 3e
       -0.0130640585 -0.0010092204 -0.099518575 0.22100714
000180 01 24 88 bd 9f e9 91 3c 47 4b 4e 3d 65 f4 19 3e
       -0.06647492 0.017811595 0.05036476 0.15034635
000190 5e 85 0c 3d 9b d6 7c bd df 8a 73 bc 74 b6 a9 3d
       0.034306876 -0.0617281 -0.014864652 0.08286753
0001a0 b5 7c b3 3d fb 5f d8 3a bb 35 18 3e ed 6e d9 3d
       0.0876402 0.0016508097 0.14864247 0.106168605
0001b0 fc a9 23 bc ce e4 9e bd c7 47 f9 bb da a2 d9 3d
       -0.009989258 -0.07758485 -0.0076074335 0.106267646
0001c0 bb aa 4c bc b7 46 15 3e a3 8f 25 be dc a8 48 bd
       -0.012491877 0.14577757 -0.16168074 -0.04898916
0001d0 76 fc 32 3c c6 ca af 3d cd 1d 23 be 6b 9f 4e 3e
       0.010924449 0.08583598 -0.15929337 0.20178
0001e0 ac 51 38 bc c3 70 6a 3d 96 ab f6 3d 0d 08 0d 3e
       -0.011249941 0.057236444 0.12044446 0.13772602
0001f0 17 78 c9 3b 5d 24 48 3e c8 31 2e bc e3 5b 1b 3e
       0.006148349 0.19545121 -0.010631986 0.15171771
000200 2d 04 21 39 7c ec bb bd dd e6 cb bc df bf e2 3b
       0.00015355712 -0.09175965 -0.024890358 0.0069198455
000210 ac 56 ad 3d 5a 4f e0 3c d6 b4 44 3e d1 68 2b be
       0.08463797 0.027381588 0.19209608 -0.16739203
000220 07 3b bd 3c 36 97 d5 3d 96 70 18 be c5 28 66 3c
       0.023099435 0.10429232 -0.14886698 0.014047806
000230 65 bb f7 bd 94 df 47 3d 84 5b 9c 3c 0c f3 16 bd
       -0.120962895 0.048797205 0.019086607 -0.03685288
000240 87 a2 9a bd ee 59 30 3e 8a b8 c3 bd 0b 81 bc bb
       -0.07550531 0.17221805 -0.095566824 -0.005752688
000250 55 4d 64 3c 55 11 ab 3d e4 9b b3 bb 3b f9 bd bc
       0.013934453 0.08352915 -0.00548123 -0.023190131
000260 b7 50 1f 3d 03 83 a9 bc 40 89 88 bd 98 36 3e 3e
       0.038895335 -0.020692354 -0.06666803 0.18575513
000270 e8 33 5f 3e 0b bf 28 3e e5 42 18 bd 98 4f ae bd
       0.21797144 0.16479127 -0.03717317 -0.08511275
000280 5d 1e 25 3e 61 db 24 3e 9f 50 19 3e 44 ba 6b bd
       0.16124864 0.16099311 0.14972161 -0.057550684
000290 97 2e 4a 3e 40 59 1d be a0 00 e5 3d 5e 45 2d bd
       0.19744335 -0.15366077 0.1118176 -0.04230248
0002a0 1f 22 87 3d 90 26 4c bc db 14 71 be 90 8a 2c bb
       0.06598305 -0.012460366 -0.23543112 -0.0026327707
0002b0 75 b9 e4 3d 29 aa b8 be 4b 2a 42 3e 40 7d 54 3c
       0.111681856 -0.36067322 0.18961446 0.012969315
0002c0 8e b8 05 3d 1c 95 a1 bc fa fa 28 3e 38 21 05 bd
       0.03264671 -0.019724421 0.1650199 -0.032502383
0002d0 da 1f 8e bd ba 65 2c 3c 0c 50 c5 3b 44 e1 39 be
       -0.06939669 0.0105223 0.006021505 -0.18152338
0002e0 8e 85 1d bd 67 05 d7 bc df c0 ec 3d c4 6c 80 3e
       -0.038457446 -0.026247693 0.11560225 0.25082982
0002f0 55 28 fb 3d b9 be c4 3b 57 2d 2b 3e 7e 07 34 3d
       0.12263552 0.006004181 0.16716515 0.043952458
000300 03 5b 0b 3c 99 03 84 bd 7e 05 20 3c 30 d9 f3 bd
       0.008505586 -0.06445999 0.009766934 -0.119066596
000310 6f 11 5f bc 11 1c 29 be b1 cf 14 be 7f 5b ca 3d
       -0.013614996 -0.16514613 -0.14532353 0.09880733
000320 71 1c f6 3c b5 f0 02 be 69 60 9b 3e ef 89 5b bd
       0.030042859 -0.12787135 0.30346993 -0.05359834
000330 cd ee 53 3e 9b 2b c0 3d 11 af 90 bd ef 40 1a bd
       0.20696564 0.09383317 -0.07064641 -0.03765958
000340 b8 0c c1 3d 27 c3 b7 be 5e c5 5e 3d 2b a0 56 bd
       0.09426254 -0.35891077 0.054387443 -0.05239884
000350 8a ae ed 3d 71 c1 ed 3d 89 2e 30 bb 1e cf 82 3d
       0.11605556 0.11609162 -0.0026883206 0.06387161
000360 2d c2 1c be 70 d9 c7 bd 43 6c 98 be af 4f 83 be
       -0.15308447 -0.0975827 -0.29770097 -0.2564673
000370 36 f4 e0 3b b1 be 2a bd 63 f5 00 3e 16 4f 01 3c
       0.0068650497 -0.041685764 0.12593608 0.007892391
000380 d8 45 df ba 71 64 f4 3c 74 23 04 3c fe 00 0f 3c
       -0.0017034365 0.02983305 0.008065093 0.008728264
000390 44 52 86 3e f0 fc 42 bd 88 88 80 3e 96 95 3e 3c
       0.2623464 -0.0476045 0.25104165 0.011632344
0003a0 93 ed 6c 3b 81 e9 d6 bc e9 73 18 bc e8 b6 fa 3d
       0.0036152347 -0.02623439 -0.009304979 0.12241918
0003b0 80 c3 87 bb b8 2c af 3c e8 4d 09 3c d8 33 32 bd
       -0.0041431785 0.021383628 0.008380391 -0.043506473
0003c0 5c ed 30 be 29 a0 a6 bc fe 26 0a 3e de 80 28 3e
       -0.17278045 -0.020340042 0.13491437 0.16455409
0003d0 87 73 93 3d 10 9f 83 3d 1e 55 b9 be 24 0b 0a 3c
       0.071997695 0.06426823 -0.36197752 0.008425508
0003e0 7f 6a 14 3b 72 a9 61 bc dc 6c ab be f0 9a 03 3e
       0.0022646484 -0.013773309 -0.3348149 0.12852073
0003f0 0a f6 43 3d 01 2f 3e bd 83 8b 51 3e 69 1a cf 3b
       0.047842063 -0.046431545 0.20463376 0.006320287

classifier.bias f4 [5]
000000 27 67 fa be 53 44 56 bf dc 2a 8f bf 01 5d a5 3f
       -0.48906824 -0.83698004 -1.1184955 1.2919008
000010 89 89 93 3f
       1.1526347
