checkpoints_lenet5/baseline_scratch/lenet5/vehicles_2/checkpoint-100.pth.tar (torch, 312216 bytes, 12 tensors)

features.0.weight f4 [6, 3, 5, 5]
0	0xbe1e1d17	-0.15440784
1	0xbd4ef6d3	-0.05052836
2	0xbcf2cae7	-0.029637767
3	0x3e498f05	0.19683464
4	0x3e86ce4d	0.2632927
5	0x3b36fe46	0.0027922555
6	0x3c8205ab	0.015871843
7	0x3bfd4ec7	0.0077303383
8	0x3e747e0d	0.2387621
9	0x3eb0839b	0.34475407
10	0x3dfb55d5	0.122722305
11	0xbe1f2cb8	-0.15544403
12	0x3e7e9c05	0.24864204
13	0xbda17d79	-0.0788526
14	0x3de4110d	0.11136065
15	0xbda6255f	-0.08112597
16	0x3e0e4a88	0.13895619
17	0xbe0fd9c5	-0.14047916
18	0x3c88d8f0	0.016705006
19	0xbe1e9668	-0.15487063
20	0xbdc4ea3a	-0.09614988
21	0x3e3647dc	0.1780085
22	0x3e183c6d	0.148668
23	0xbe9635ae	-0.2933783
24	0xbeca55cc	-0.39518583
25	0x3e86bd72	0.2631641
26	0x3e4f568b	0.20247857
27	0xbc5e44e6	-0.013566231
28	0x3e0fde2d	0.14049597
29	0x3ea44444	0.32083333
30	0x3d627b4f	0.055293377
31	0x3dc34066	0.095337674
32	0x3e802619	0.25029066
33	0x3e00a611	0.1256335
34	0x3e87a355	0.264918
35	0x3e873dc5	0.26414314
36	0x3e6dc6cc	0.23220366
37	0xbd123489	-0.035694633
38	0x3dcd0771	0.10011185
39	0x3ea86f17	0.32897255
40	0x3e442ff7	0.19158922
41	0x3e8e3741	0.2777653
42	0x3e641a3d	0.22275634
43	0xbc896041	-0.01676953
44	0x3e0ec75a	0.13943234
45	0xbde6e63d	-0.11274383
46	0x3edcb1c4	0.43104374
47	0x3ed52020	0.41626072
48	0x3d8abc7c	0.06774232
49	0xbcfee523	-0.03111512
50	0xbe110f0d	-0.14165898
51	0xbed71146	-0.42005366
52	0xbeb4c3eb	-0.35305724
53	0xbdddb2c7	-0.10825115
54	0xbd2c7898	-0.042107195
55	0xbe696922	-0.22794011
56	0xbf0184cd	-0.5059326
57	0xbefb6de5	-0.4910728
58	0xbe859d28	-0.26096463
59	0xbcdb0d49	-0.026739733
60	0xbe61f031	-0.22064282
61	0xbeabdfa4	-0.33569062
62	0xbeb39225	-0.35072437
63	0xbe0cc23f	-0.13745974
64	0xbeb3df6d	-0.35131398
65	0xbf02a3a3	-0.5103094
66	0xbe5d1202	-0.215889
67	0xbd91b112	-0.071138516
68	0xbeef39e4	-0.46723855
69	0xbeaa882d	-0.3330702
70	0xbde37d53	-0.11107888
71	0x3e2d16db	0.1690325
72	0x3e5281d8	0.20557344
73	0xbd9db7df	-0.07701086
74	0xbf01c687	-0.50693554
75	0xbe72f24d	-0.23725243
76	0xbe5f6c49	-0.21818651
77	0xbe88ae3e	-0.26695436
78	0xbe6b145e	-0.22956988
79	0xbe40ca4b	-0.18827169
80	0xbdb4126a	-0.08792575
81	0xbca304c5	-0.019899735
82	0xbde488ba	-0.11158891
83	0xbeb54824	-0.354066
84	0xbe95a941	-0.29230693
85	0xbdf80a05	-0.12111286
86	0xbe832e04	-0.25621045
87	0xbdaa34b1	-0.08310831
88	0xbda80e19	-0.08205814
89	0xbe933d76	-0.28757828
90	0xbe7b3ad8	-0.24534166
91	0xbe11e6c1	-0.14248182
92	0xbed75a99	-0.42061308
93	0xbe6758b7	-0.22592436
94	0xbea16f5e	-0.3153028
95	0xbe222d6d	-0.15837641
96	0xbe19f79a	-0.15035859
97	0xbec0d2d2	-0.37660843
98	0xbebca88d	-0.36847344
99	0xbf072e9b	-0.5280549
100	0xbe86477e	-0.2622642
101	0xbe103564	-0.14082867
102	0x3da0e689	0.07856471
103	0xbdd11e6c	-0.10210881
104	0xbe086a63	-0.13321833
105	0x3e780108	0.24219143
106	0xbe7c2cc4	-0.24626452
107	0x3e6ff23b	0.23432247
108	0x3e60923e	0.21930787
109	0xbd205ed3	-0.03915293
110	0x3dce4d4a	0.100733355
111	0x3e4d16fe	0.20028302
112	0x3d4e7da4	0.05041279
113	0x3e577ee2	0.21044496
114	0x3ee30daa	0.44346362
115	0x3e4141be	0.18872735
116	0x3db43ae0	0.08800292
117	0x3e7d84b7	0.24757658
118	0x3e8097cf	0.2511582
119	0x3ec987b3	0.39361343
120	0xbe8141df	-0.25245568
121	0xbd944946	-0.07240538
122	0x3da6712e	0.08127056
123	0x3dbc2a23	0.091877244
124	0x3d821b41	0.063528545
125	0xbe00e9c7	-0.12589179
126	0xbe32a49d	-0.17445607
127	0x3e1c3b0b	0.15256898
128	0xbd366c37	-0.044536795
129	0xbd6bf829	-0.05760971
130	0x3d2b45c5	0.041814584
131	0x3ea3ccec	0.3199228
132	0x3ed3cff1	0.41369584
133	0x3e43c0f0	0.19116569
134	0xbd1490a5	-0.036270756
135	0x3e6698e0	0.22519255
136	0x3ebc92e0	0.36830807
137	0x3eed3028	0.46325803
138	0x3ec6741e	0.38760465
139	0x3eb80fdd	0.35949603
140	0x3e0a4e24	0.13506371
141	0x3e9d461f	0.3071756
142	0x3e83728c	0.2567333
143	0x3e9b66e2	0.3035193
144	0x3db891b9	0.090121694
145	0x3d431255	0.047624905
146	0xbe1c3f17	-0.15258442
147	0xbb9d8a44	-0.0048077423
148	0x3ea4d628	0.32194638
149	0xbe20f5f9	-0.15718831
150	0x3e5f90f6	0.21832642
151	0x3e0f2be3	0.13981585
152	0x3dccf61e	0.10007881
153	0x3e86ec75	0.26352277
154	0x3e1ba288	0.1519872
155	0x3d1ab35c	0.037768707
156	0x3e1d7c1f	0.1537938
157	0x3eb5064c	0.35356367
158	0x3e616a56	0.2201322
159	0x3e10ed3f	0.14153002
160	0x3bceb61b	0.0063083298
161	0x3e5fe272	0.21863726
162	0x3e7774c3	0.24165635
163	0x3dfd038f	0.123541944
164	0x3e0cc943	0.1374865
165	0x3db1d774	0.086836725
166	0xbd943017	-0.07235735
167	0x3d94ee36	0.07271998
168	0x3e3d727f	0.18500708
169	0xbd79f9f8	-0.061029404
170	0xbe1a7018	-0.15081823
171	0xbe2e7a53	-0.1703885
172	0xbdf41798	-0.11918563
173	0xbece7651	-0.40324643
174	0xbded471b	-0.11585828
175	0xbe05c31d	-0.13062711
176	0x3da0fd42	0.07860805
177	0xbe310514	-0.17287093
178	0x3ceda1d3	0.029007828
179	0xbe56f4dd	-0.20991845
180	0xbe83ba9b	-0.25728306
181	0xbe751df3	-0.23937206
182	0xbe0144bc	-0.12623876
183	0x3c10cc80	0.008837819
184	0xbdc08867	-0.09401017
185	0xbe9e48a4	-0.30914795
186	0xbe1f2eca	-0.15545192
187	0xbe8c23be	-0.2737102
188	0xbe629f3e	-0.22131059
189	0xbe046d36	-0.12932286
190	0xbe5044ed	-0.20338793
191	0xbe5235a9	-0.20528282
192	0xbe77638c	-0.24159068
193	0xbe826890	-0.254704
194	0xbe9c4adb	-0.3052586
195	0xbe9de5ab	-0.30839285
196	0xbe0500f0	-0.12988639
197	0xbeadb3c4	-0.33926213
198	0xbf021f27	-0.50828785
199	0xbe9a64e4	-0.30155098
200	0x3d5d35c3	0.05400635
201	0x3de842f1	0.11340893
202	0x3ecd4056	0.40088147
203	0x3e6cff4f	0.23144267
204	0x3e4c7505	0.19966514
205	0x3d721771	0.059104387
206	0x3e3ddd26	0.18541393
207	0x3ea8d5a8	0.32975507
208	0x3d6140aa	0.05499331
209	0x3d404598	0.04694137
210	0xbddb50be	-0.1070876
211	0xbe30f9fb	-0.1728286
212	0xbd9528fb	-0.07283207
213	0xbb6fc1e5	-0.0036584076
214	0xbd8c8684	-0.06861594
215	0x3d9cbfb6	0.076537535
216	0x3d53072b	0.051520508
217	0xbcc17a8d	-0.023618007
218	0x3e0972f4	0.13422757
219	0x3d48b7a0	0.049003243
220	0x3daa63bf	0.08319806
221	0x3e8470f2	0.2586742
222	0xbd602a52	-0.05472786
223	0x3d84235c	0.06452057
224	0x3cb3d9ab	0.021954378
225	0xbc07b423	-0.008282694
226	0x3d95c7c2	0.073134914
227	0xbea378e2	-0.31928164
228	0xbe72762d	-0.23677893
229	0x3e4f66eb	0.20254104
230	0x3ebaf269	0.3651307
231	0x3ebb7a95	0.3661696
232	0x3eda8012	0.42675835
233	0x3e8e183a	0.27752858
234	0x3e8a4f1d	0.27013484
235	0x3f236223	0.6382162
236	0x3f103270	0.5632696
237	0x3ec988e0	0.3936224
238	0x3f003a17	0.5008864
239	0x3f0d5e18	0.552217
240	0x3ef8e1fe	0.48609918
241	0x3eb33f0d	0.3500904
242	0x3ea3114a	0.31849128
243	0x3f0fd4a8	0.5618386
244	0x3f408bf8	0.75213575
245	0x3dbbaa74	0.09163371
246	0x3ca178a6	0.01971085
247	0x3e11a41e	0.14222762
248	0x3ebe8a7e	0.37215036
249	0x3ede1826	0.433778
250	0xbdb983e0	-0.09058356
251	0xbe0c322c	-0.13691014
252	0xbf0e0448	-0.5547528
253	0xbe8d5abc	-0.27608287
254	0xbab0db2c	-0.0013493053
255	0x3d5a600b	0.05331425

features.3.weight f4 [16, 6, 5, 5]
0	0xbe8e29f4	-0.27766383
1	0xbd2b138b	-0.041766685
2	0x3d323c7e	0.04351472
3	0x3dadc658	0.08485097
4	0x3df51a3e	0.11967896
5	0xbe411712	-0.18856457
6	0xbe23402d	-0.1594245
7	0xbd2c8f9d	-0.042129148
8	0xbceb385c	-0.028713398
9	0x3e434555	0.19069417
10	0xbe153304	-0.14570242
11	0xbdd2b51f	-0.10288452
12	0xbbec3ec9	-0.007209633
13	0x3cb46bdb	0.022024086
14	0x3e33ad18	0.17546499
15	0x3db95a61	0.090504415
16	0x3da26805	0.079299964
17	0x3e8ee245	0.27907005
18	0x3eb72747	0.35772154
19	0x3dd8fa50	0.10594618
20	0x3e005dda	0.12535802
21	0x3ea66727	0.32500574
22	0x3e865679	0.26237848
23	0x3e5f4cf8	0.21806705
24	0x3ea411fb	0.32044968
25	0xbc2fa00a	-0.010719309
26	0xbd880126	-0.06640844
27	0x3d59fadb	0.05321775
28	0x3d521b24	0.051295415
29	0x3e23e3f9	0.16004933
30	0x3e230386	0.15919313
31	0x3d85eadb	0.06538936
32	0x3ca16224	0.019700117
33	0xbc21769d	-0.00985494
34	0xbcc7f1b4	-0.024407245
35	0x3da855a5	0.082194604
36	0x3db8a1b7	0.0901522
37	0x3e115487	0.14192401
38	0xbc4543fc	-0.0120401345
39	0x3cd4ac3f	0.02596104
40	0x3d2b41d9	0.041810844
41	0x3d04c51f	0.03241455
42	0xbdfbe6a7	-0.12299853
43	0x3ca23bdd	0.019803936
44	0xbddcabfc	-0.10774991
45	0x3cff07a5	0.031131575
46	0x3bc6ee38	0.0060708784
47	0x3d6b85a5	0.0575005
48	0x3e0c0c0d	0.13676472
49	0xbd79bc48	-0.060970575
50	0x3df4443e	0.11927079
51	0x3df6e645	0.12055639
52	0x3b9715dc	0.00461076
53	0xbda95e72	-0.08269967
54	0xbe283cf7	-0.16429506
55	0x3d8585b6	0.06519644
56	0x3e42d410	0.19026208
57	0x3df79e41	0.120907314
58	0xbc553a3f	-0.013014375
59	0xbe617f82	-0.22021297
60	0x3c3bd946	0.011465376
61	0xbc91d634	-0.017802335
62	0x3cab2441	0.02089131
63	0xbe10aab5	-0.1412762
64	0xbe51c1b9	-0.20484056
65	0x3c0957f3	0.008382785
66	0xbc04dcc5	-0.008109276
67	0xbe449d5c	-0.19200653
68	0xbe3e685e	-0.185945
69	0xbe6f80fc	-0.23389047
70	0x3dbc6c4e	0.09200345
71	0xbd352325	-0.04422297
72	0x3c5a853b	0.013337429
73	0xbe5ffbcf	-0.21873401
74	0xbea13d7e	-0.31492227
75	0x3daff2fb	0.08591267
76	0x3e5e4dc4	0.21709353
77	0x3e88a56a	0.266887
78	0x3dc8abd3	0.09798398
79	0x3e0f4495	0.13991006
80	0xbd2d6038	-0.04232809
81	0xbd2a51b9	-0.041581843
82	0x3e23d7a6	0.16000232
83	0x3d6c19e3	0.057641875
84	0x3e50ced4	0.20391399
85	0x3d707ae3	0.058710944
86	0xbe2f05fa	-0.17092124
87	0xbe1420da	-0.14465657
88	0xbdcaa94f	-0.09895574
89	0xbe138230	-0.14405131
90	0x3cb81891	0.022472652
91	0xbe0a2c85	-0.13493545
92	0xbd8b69a7	-0.06807261
93	0xbe7d3d70	-0.24730468
94	0xbe12b361	-0.1432624
95	0x3cba743c	0.022760503
96	0xbe570d7a	-0.21001235
97	0xbe49dfe6	-0.19714317
98	0xbe152e20	-0.14568377
99	0xbd3a002e	-0.045410328
100	0x3de69693	0.112591885
101	0x3dd0e959	0.102007575
102	0x3dd08a1b	0.101825915
103	0xbe0b01bf	-0.13574885
104	0xbe2e7c13	-0.17039518
105	0x3e4cabda	0.19987431
106	0x3e41792f	0.18893884
107	0x3d9d5f7f	0.0768423
108	0xbaecad9b	-0.001805711
109	0xbe5d8f98	-0.21636808
110	0x3daaafd1	0.083343156
111	0x3e095175	0.1340998
112	0x3e1ce970	0.15323424
113	0x3e04b2c2	0.12958816
114	0xbda2c721	-0.07948137
115	0x3d2d7825	0.042350907
116	0x3e418596	0.18898615
117	0xbd75a01f	-0.059967156
118	0x3da0b737	0.078474455
119	0xbcb3f13b	-0.021965614
120	0x3e1aee6b	0.15130012
121	0x3ca77329	0.020440655
122	0xbd0c62c1	-0.034273867
123	0xbe2d2ab2	-0.16910818
124	0xbdf7681d	-0.12080405
125	0xbcff36bc	-0.03115403
126	0xbacb0e69	-0.0015491965
127	0x3dcadd7e	0.099055275
128	0x3da32562	0.079661146
129	0x3da910c9	0.08255155
130	0xbe17dcec	-0.14830369
131	0xbe37ea0f	-0.1796038
132	0xbe11926a	-0.14216009
133	0xbda5b0f4	-0.08090392
134	0xbd8786bf	-0.06617498
135	0xbdec1603	-0.11527636
136	0xbdc8087b	-0.097672425
137	0xbe0ba69a	-0.13637772
138	0xbcb93e4d	-0.022612715
139	0xbd0b548f	-0.03401619
140	0xbe1085bd	-0.14113517
141	0xbe1016e9	-0.1407124
142	0xbe4a1808	-0.1973573
143	0xbe364b36	-0.17802128
144	0xbd77e360	-0.060519576
145	0xbe33350b	-0.17500703
146	0xbcf89779	-0.030345665
147	0xbd86bbd5	-0.06578795
148	0xbe074e5a	-0.13213482
149	0xbd41de7e	-0.047331326
150	0xbcccc39f	-0.024995623
151	0xbe0fe0f5	-0.14050658
152	0xbdea20ab	-0.11432012
153	0xbd7f7cf3	-0.06237502
154	0xbd49057a	-0.04907749
155	0x3da7f6a8	0.08201343
156	0xbe31d5b1	-0.17366673
157	0xbdfe124c	-0.124058336
158	0xbe2b9ce3	-0.16759066
159	0xbe6197c3	-0.22030549
160	0xbd491ecd	-0.04910164
161	0xbda1e988	-0.07905871
162	0xbe2f7e3c	-0.17137998
163	0xbca96a71	-0.020680638
164	0xbcf34db5	-0.02970014
165	0x3e28b3c6	0.16474828
166	0x3d8c0f73	0.06838884
167	0x3c1417b9	0.009038859
168	0xbc28ca6a	-0.0103021655
169	0xbd2f13b3	-0.042743396
170	0x3db4efc0	0.08834791
171	0x3e11e0c8	0.14245903
172	0x3dd20cb9	0.10256333
173	0x3d9cfe47	0.07665687
174	0x3d7dd501	0.061970714
175	0x3e6fa2d3	0.23401956
176	0x3e9168e6	0.28400344
177	0x3d141c01	0.03615952
178	0x3e40d636	0.18831715
179	0x3d9c3e68	0.076290905
180	0x3e050118	0.12988698
181	0xbc16acac	-0.009196442
182	0x3e19d62a	0.15023103
183	0x3d68f22f	0.05687159
184	0x3c7eabdf	0.015543907
185	0x3d075b32	0.033045955
186	0x3df55c7d	0.11980531
187	0x3da71b7e	0.081595406
188	0x3d9488d7	0.07252663
189	0x3dbc2768	0.09187204
190	0x3dac8fd1	0.08425868
191	0x3c3401f8	0.0109867975
192	0x3d9860b3	0.07440319
193	0x3cd217ce	0.025646117
194	0x3dcb1a2a	0.099171
195	0xbe2b54e9	-0.1673161
196	0x3c145477	0.009053341
197	0x3d0615d6	0.032735668
198	0x3a0c62c5	0.0005355294
199	0x3e04c4ee	0.12965748
200	0x3d44683b	0.047950964
201	0xbe1de776	-0.15420327
202	0xbd7760a6	-0.060394906
203	0xbd634299	-0.055483434
204	0x3b4ba592	0.003107403
205	0x3aeda214	0.0018129968
206	0xbd9932e0	-0.07480407
207	0x3cbd77c2	0.023128394
208	0xbdb848f4	-0.0899829
209	0xbe3798ff	-0.17929457
210	0x3e08b276	0.13349327
211	0xbd97b900	-0.07408333
212	0xbdfed7c3	-0.12443497
213	0xbd3e863e	-0.046514742
214	0xbc3fb57d	-0.011700985
215	0xbbb99bcd	-0.005664325
216	0xbcc7613c	-0.024338357
217	0x3c8efc06	0.017454159
218	0xbbf24149	-0.0073930365
219	0x39e1dc0d	0.00043079295
220	0x3d00e8ca	0.031472005
221	0x3c4aab3b	0.012369926
222	0xbd803098	-0.062592685
223	0x3e107e8c	0.14110774
224	0x3d007ae3	0.031367194
225	0x3c9df03e	0.019279595
226	0x3dd25f05	0.1027203
227	0xbdf516d9	-0.119672485
228	0xbcbd15a3	-0.023081606
229	0xbd9b109e	-0.07571529
230	0xbd49c9d3	-0.04926474
231	0xbde8f0ab	-0.11374029
232	0xbe28f9a6	-0.16501483
233	0xbc29989a	-0.010351324
234	0xbe0642b1	-0.13111378
235	0x3e0bce3b	0.1365289
236	0xbb009536	-0.0019620187
237	0xbe84afd5	-0.259154
238	0x3cb38919	0.02191596
239	0x3c0bef44	0.008540932
240	0xbd1927d8	-0.037391514
241	0x3d0b9160	0.034074187
242	0x3c061214	0.008183021
243	0xbc7dca59	-0.015490138
244	0x3bb0a7fc	0.005391119
245	0x3d5ba153	0.053620648
246	0x3db80592	0.089854375
247	0xbd5b7ec3	-0.053587686
248	0x3dcea5e8	0.10090238
249	0x3e1ab3f7	0.15107714
250	0x3dd42aa0	0.103596926
251	0xbd51b7f4	-0.051200822
252	0x3c7c4d72	0.015399324
253	0xbd6d60ad	-0.057953525
254	0x3c9f0910	0.019413501
255	0xbd9803f4	-0.07422629

features.7.weight f4 [120, 400]
0	0xbd33a841	-0.04386163
1	0xbd3c1b67	-0.04592457
2	0xbd13229e	-0.035921685
3	0xbd301e51	-0.042997662
4	0xbbe489e6	-0.0069744466
5	0xbd280ba1	-0.041026715
6	0xbcc590fc	-0.024116985
7	0xbc47da9b	-0.012198116
8	0xbc98825c	-0.018616848
9	0x3b5cf41c	0.0033714836
10	0xbc958fb8	-0.018257007
11	0xbcb3a366	-0.0219285
12	0xbcc197ce	-0.023631956
13	0xbd1aacaf	-0.03776234
14	0xbb9ac0af	-0.0047226767
15	0xbccc70bb	-0.024956098
16	0xbbbbc0fc	-0.0057297926
17	0x3c9821c6	0.018570792
18	0xbc4413db	-0.011967625
19	0xbcba8731	-0.022769542
20	0xbccef467	-0.025263024
21	0x3b3c7208	0.0028754491
22	0x3bfc2a46	0.007695469
23	0xbc9d11be	-0.0191735
24	0xba8a931f	-0.001057241
25	0xbd92b475	-0.07163326
26	0xbce598fc	-0.02802705
27	0xbc4efafc	-0.0126330815
28	0x3ca07357	0.019586248
29	0x3b196618	0.00234068
30	0xbd3be5fc	-0.045873627
31	0xbd2740df	-0.04083335
32	0xbbafe26a	-0.005367567
33	0xba010bb9	-0.0004922706
34	0x3a95a058	0.0011415584
35	0xbc5fafd5	-0.0136527615
36	0xbd1b0b66	-0.037852667
37	0xbce5c660	-0.028048694
38	0xbc57aee0	-0.013164252
39	0x3b37db17	0.0028054172
40	0xbb56b985	-0.0032764387
41	0xbd047218	-0.03233537
42	0xbc6ae587	-0.01433695
43	0x3c02ed17	0.007991097
44	0x3c72d1cd	0.014820528
45	0x3ceb8076	0.028747778
46	0xb7ac6031	-2.054879e-05
47	0x3b40f9d0	0.0029445775
48	0x3c583cdb	0.013198103
49	0x3cc7e03b	0.024398914
50	0xbba88ba7	-0.005143601
51	0x3cc94a4a	0.024571557
52	0x3be4260a	0.0069625424
53	0xbbef80c0	-0.0073090494
54	0x3c460c04	0.012087826
55	0xbcf55590	-0.029948026
56	0xbc3a187a	-0.011358375
57	0x3b094cdd	0.0020950355
58	0x39aa1a4b	0.00032444517
59	0xbc8ab2ed	-0.016931022
60	0xbcd275f3	-0.025691008
61	0xbceec501	-0.029146673
62	0xbc8dae60	-0.017295063
63	0xbcca1693	-0.024668967
64	0xbbc2096e	-0.0059215343
65	0xbcb6850e	-0.022280242
66	0xbbf4a5bc	-0.007466046
67	0xbb4c88e8	-0.0031209532
68	0xbc79b80a	-0.015241632
69	0xbd249b90	-0.04018742
70	0x3cf9d84d	0.030498648
71	0x3cecc37c	0.028901808
72	0xbb06e4de	-0.0020583193
73	0xbcf2e6f5	-0.029651145
74	0xbc30d3ed	-0.010792715
75	0x3d43d97f	0.047814842
76	0x3d1d900f	0.038467463
77	0x3c56dd53	0.013114291
78	0x3d0aebe8	0.033916384
79	0x3cc7b293	0.024377143
80	0x3d380b86	0.044932865
81	0x3d58d8ce	0.052941136
82	0x3b40422e	0.0029336321
83	0x3c9a2551	0.018816622
84	0x3cde2de2	0.027121488
85	0x3cc34018	0.023834273
86	0x3d8702a1	0.06592298
87	0x3d46f3a5	0.0485722
88	0x3c570523	0.013123783
89	0x3a37f8c6	0.0007017966
90	0x3c914ee1	0.017737808
91	0x3b5b9745	0.0033506912
92	0x3c117ba9	0.008879581
93	0xbccc7ea7	-0.024962736
94	0xbd6acbf3	-0.057323407
95	0xbc04f725	-0.0081155645
96	0x3b969993	0.004595944
97	0x3bb8bfa8	0.0056380816
98	0xbc8ffa7a	-0.017575491
99	0xbd4e66eb	-0.05039112
100	0xbc8c3b9a	-0.017118264
101	0xbd5390a7	-0.051651623
102	0xbd87aa74	-0.06624308
103	0xbcba6273	-0.022752022
104	0xbb3ed57a	-0.0029118941
105	0xbd14ece1	-0.036358718
106	0xbd402a42	-0.0469153
107	0xbd5c935c	-0.05385147
108	0xbca1fef0	-0.019774884
109	0xbd42ccb1	-0.04755849
110	0xbb4c4088	-0.0031166393
111	0x3cbb68a1	0.02287704
112	0x3cd02ba7	0.02541144
113	0xb9fa0bad	-0.00047692415
114	0xbc575399	-0.01314249
115	0x3c72eb49	0.014826604
116	0x3d1aadba	0.037763335
117	0x3d7f21fb	0.062288266
118	0x3d78d8ea	0.06075374
119	0x3c354074	0.01106273
120	0xb919f56c	-0.00014682644
121	0x3d12826b	0.035768908
122	0x3cefc71e	0.029269751
123	0x3bc920e0	0.006137952
124	0xbcdccc41	-0.026952865
125	0xbd271f28	-0.040801197
126	0x3d4207ae	0.047370605
127	0x3d94726b	0.07248386
128	0x3d14246c	0.036167547
129	0x3d7622f2	0.06009192
130	0x3c00f451	0.00787075
131	0x3bab2ecb	0.005224084
132	0x3b10401f	0.0022010875
133	0xbc4768ea	-0.01217101
134	0x3d483b8a	0.048884906
135	0x3d984927	0.07435828
136	0x3baadb0a	0.0052141
137	0x3cc9e807	0.024646772
138	0x3cb9d38b	0.02268388
139	0x3da02b74	0.07820788
140	0x3d6b8b94	0.05750616
141	0x3caebb7a	0.02132963
142	0x3b4767fa	0.0030426965
143	0xbcc4a334	-0.024003603
144	0x3bf08e1d	0.00734116
145	0x3dd315be	0.10306881
146	0x3cf61db9	0.03004347
147	0x3b97c814	0.0046320055
148	0xbc970fb1	-0.0184401
149	0xbcd13dce	-0.025542166
150	0x3c88931e	0.016671713
151	0x3ae1ab40	0.0017217174
152	0xbb45ec04	-0.003020049
153	0x3c1f5564	0.009724949
154	0x3c1ba519	0.009499812
155	0xbbd3ba02	-0.006461383
156	0x3ca307b1	0.019901128
157	0xbc5f5a82	-0.013632419
158	0x3c41df37	0.011833004
159	0xbbda6d90	-0.006665893
160	0xbc4698ba	-0.012121374
161	0xbc2117d7	-0.009832344
162	0xba30abe4	-0.0006739481
163	0xbb30359d	-0.0026887425
164	0xbaef7aa1	-0.0018270799
165	0xbc2e3629	-0.01063303
166	0xbc3f1ffd	-0.011665341
167	0x3cb5f2c2	0.022210483
168	0x3b5f69d7	0.0034090185
169	0xbc5716cb	-0.013127993
170	0x3bc50704	0.006012799
171	0x3c81cff5	0.015846232
172	0x3c3eb17a	0.011638993
173	0x3c834166	0.016022395
174	0x3c7b98e2	0.015356274
175	0xbdc4fa89	-0.09618098
176	0xbc950daa	-0.018194992
177	0x3c929939	0.017895328
178	0x3b46fe0c	0.0030363826
179	0x3ccc81aa	0.024964172
180	0xbd3a4f26	-0.045485638
181	0xbb6ddf87	-0.0036296563
182	0x3d8ae76a	0.0678242
183	0x3d13f00d	0.036117602
184	0x3d45ad71	0.04826111
185	0x3cd467ff	0.025928495
186	0x3cc0c24f	0.023530154
187	0xbb4874c9	-0.0030587188
188	0x3a59ed4f	0.0008313255
189	0x3d1c7366	0.03819599
190	0x3d0224bd	0.031773318
191	0xbb9abcbf	-0.0047222073
192	0x3b25828e	0.0025254819
193	0xbca211dd	-0.019783909
194	0x3c7d1288	0.015446313
195	0x3d870621	0.06592966
196	0xbb82f558	-0.0039965324
197	0xbc940661	-0.018069448
198	0xbd811d86	-0.06304459
199	0xbd377c75	-0.044796426
200	0xbd4a29ec	-0.049356386
201	0xbe26250f	-0.16225074
202	0xbdf2cd3b	-0.11855551
203	0xbc4ec087	-0.012619144
204	0xbbf542e2	-0.0074847797
205	0x3b8fa669	0.0043838513
206	0xbda4e799	-0.08051986
207	0xbdc1360d	-0.094341375
208	0xbd0d3c73	-0.034481477
209	0xbc5beddc	-0.013423409
210	0xbb994c0f	-0.0046782563
211	0xbc81533b	-0.015786758
212	0xbb21c559	-0.0024684279
213	0xbce5d426	-0.028055262
214	0xbc0c0331	-0.008545683
215	0x3d0da17d	0.034577835
216	0x3d91922b	0.071079575
217	0x3cf1f4ae	0.029535618
218	0x3da17aad	0.07884727
219	0x3d71d057	0.05903658
220	0xbc9f858b	-0.019472858
221	0x3db52caa	0.088464096
222	0x3daca2d8	0.084294975
223	0x3e166db7	0.1469029
224	0x3de3a35d	0.111151434
225	0x3cc6aeaa	0.024253208
226	0x3baa5ef4	0.0051993076
227	0xbd95d7e8	-0.073165715
228	0xbda0504f	-0.07827818
229	0xbcd7c829	-0.026340561
230	0x3d6bdb02	0.05758191
231	0x3d80fa5c	0.06297752
232	0xbaacda71	-0.0013187659
233	0xbd890359	-0.06690092
234	0xbd5d458b	-0.0540214
235	0x3cbc8e62	0.023017112
236	0x3ceb5715	0.028728047
237	0xbb2b28a3	-0.002611675
238	0xba49b9d5	-0.00076952326
239	0xbaba3290	-0.0014205743
240	0xbdc0f416	-0.09421556
241	0xbd93253d	-0.07184837
242	0x3ca602bb	0.020264974
243	0x3d901617	0.07035463
244	0x3cd2ef9f	0.025749026
245	0xbd7bb144	-0.06144835
246	0xbc74a67e	-0.014932273
247	0x3c9bd5a5	0.019022772
248	0x3d716418	0.058933347
249	0x3d88ca67	0.0667923
250	0x3d488562	0.04895533
251	0x3cc4324e	0.023949768
252	0xbd11075e	-0.035407417
253	0xbcd14f39	-0.025550472
254	0xbcecde25	-0.02891452
255	0xbc062f32	-0.008189963

features.7.bias f4 [120]
0	0xbd288222	-0.04113973
1	0x3e2ce798	0.16885221
2	0x3dbb5bce	0.0914837
3	0xbc592f0d	-0.013255847
4	0xbd3ff1ac	-0.046861336
5	0x3be0b6db	0.0068577356
6	0xbd9a1c25	-0.075248994
7	0x3d677552	0.05650837
8	0x3d883294	0.06650272
9	0xbc149fc1	-0.009071291
10	0xbcb19d9f	-0.021681605
11	0x3db09a5a	0.0862319
12	0x3ca56f8e	0.020194795
13	0x3da79fd1	0.081847794
14	0x3cc82d90	0.024435788
15	0xbc60ff2b	-0.013732712
16	0xbb29b1a6	-0.002589324
17	0x3db67a4b	0.08910044
18	0xbd41eb6c	-0.047343656
19	0x3ca479b5	0.020077566
20	0x3d12a9c4	0.035806432
21	0xbd54af16	-0.051924787
22	0x3d245a43	0.040125143
23	0x3c88da97	0.016705794
24	0x3d928b91	0.071555264
25	0xbb638ba2	-0.0034720679
26	0x3d278a6a	0.040903486
27	0x3cc587af	0.02411255
28	0x3c116070	0.00887309
29	0x3cf41794	0.0297964
30	0xbcef8b84	-0.02924133
31	0xbd98517a	-0.074374154
32	0x3d27a116	0.040925108
33	0x3da9256e	0.08259092
34	0x3da59a9f	0.08086132
35	0x3c9b9437	0.018991573
36	0x3dc67ac7	0.09691387
37	0xbbcf3c93	-0.0063243597
38	0x3d2d3900	0.042290688
39	0xbcec932f	-0.028878776
40	0xbd2cc2a8	-0.042177826
41	0xbcc803ee	-0.024415936
42	0x3d87bcad	0.06627784
43	0xbb1ec6f0	-0.0024227463
44	0x3cf577ee	0.029964413
45	0xbb038446	-0.0020067855
46	0x3c0213bb	0.007939274
47	0xbd2472c1	-0.0401485
48	0x3da09749	0.07841355
49	0xbdbf4dad	-0.09340987
50	0x3d421622	0.04738439
51	0x3ca8b771	0.020595284
52	0xbd7c7a10	-0.061639845
53	0x3d24c127	0.040223267
54	0xbd03fe1b	-0.032224756
55	0x3d0f5eb9	0.035002444
56	0xbd22fb69	-0.039790545
57	0x3d44e561	0.048070315
58	0xbb6ed88c	-0.003644499
59	0x3cdd6c02	0.027029041
60	0x3bbc920d	0.0057547153
61	0x3dc89224	0.09793499
62	0xbcbb2a9f	-0.022847472
63	0xbc407fee	-0.011749251
64	0x3c202fa9	0.009776988
65	0x3e04b203	0.12958531
66	0x3cae8e24	0.021308012
67	0x3d8efc19	0.069816776
68	0x3d1dcd54	0.038525894
69	0x3d16391a	0.03667555
70	0x3d50173b	0.050803404
71	0xbdf2be79	-0.11852736
72	0xbcc43a86	-0.023953687
73	0xb96d19b3	-0.00022611655
74	0xbdb6eb23	-0.089315675
75	0x3ca425df	0.02003759
76	0x3e45e7ec	0.19326752
77	0x3da91269	0.082554646
78	0xbb85b9e4	-0.004080998
79	0x3d912d3d	0.07088707
80	0x3d6bb433	0.0575449
81	0xbc6f53af	-0.014607354
82	0x3b77bfd2	0.0037803543
83	0x3e0a5f15	0.13512833
84	0x3d9239a0	0.07139897
85	0xbad1751c	-0.0015980336
86	0x3d66d57e	0.056355946
87	0xbcf9a531	-0.030474277
88	0x3db4b372	0.08823289
89	0x3b521de0	0.0032061264
90	0x3ccd36f5	0.02505062
91	0x3d9d85b7	0.0769152
92	0x3b5b9a91	0.0033508877
93	0xbbc4146e	-0.0059838807
94	0x3cddf253	0.027093088
95	0xbba989d8	-0.005173903
96	0x3b9f86ea	0.004868378
97	0xbd75d4e2	-0.060017474
98	0x3bed4f6e	0.007242135
99	0xbc2cdd09	-0.010550746
100	0x3b5800ff	0.0032959578
101	0x3c334563	0.010941836
102	0x3ccacdbe	0.024756309
103	0x3c996972	0.018727038
104	0x3dad2be4	0.08455637
105	0x3d5a341a	0.053272344
106	0x3d1c5737	0.038169112
107	0xbd14edd0	-0.03635961
108	0x3d1908db	0.03736196
109	0xbd09ac93	-0.033611845
110	0x3e00c401	0.1257477
111	0xbcf1b18c	-0.029503606
112	0x3cd2711e	0.025688704
113	0x3ca602ef	0.02026507
114	0xbc1e2795	-0.009652992
115	0x3d1dcc7c	0.03852509
116	0x3d3157ad	0.043296505
117	0xbd92cbda	-0.07167788
118	0x3d4ca833	0.049965095
119	0xb9811c9d	-0.00024626116

features.9.weight f4 [84, 120]
0	0xbccd0d39	-0.02503072
1	0x3bcbef67	0.0062236073
2	0x3c813eb9	0.015776979
3	0xbc4450b0	-0.011982128
4	0xbc3bce19	-0.011462712
5	0x3cba92bb	0.022775045
6	0xbbd48aa8	-0.0064862557
7	0xbc38d5e1	-0.011281461
8	0x3d399faa	0.045318283
9	0xbb857ea6	-0.0040739356
10	0xbab310a5	-0.0013661577
11	0x3b2e59f2	0.0026603905
12	0x3be6a11e	0.0070382496
13	0x3ccb8a44	0.024846204
14	0x3b9f9b75	0.004870827
15	0x3d0eab8d	0.034831572
16	0xbb897a84	-0.004195513
17	0x3c63eb41	0.013911069
18	0x3b4e2e2f	0.0031460633
19	0x3c78c371	0.015183316
20	0xbc9a219e	-0.018814858
21	0x3c0677bb	0.008207257
22	0x3c3e2cb4	0.011607338
23	0xbc33556e	-0.010945661
24	0x3cb850c8	0.022499457
25	0xba8b7d2c	-0.0010642163
26	0x3cc0f720	0.023555338
27	0xbbc8333a	-0.0061096223
28	0xbbec35dc	-0.007208569
29	0x3c0408ce	0.00805874
30	0xbb825c8f	-0.003978319
31	0x3b6537a2	0.0034975787
32	0x398c0b5b	0.0002671134
33	0x3b0d7930	0.0021587126
34	0x3c25abe5	0.010111784
35	0x3b183559	0.0023225157
36	0xbab7b2dd	-0.0014015097
37	0x3c5bffd3	0.013427692
38	0x3988cbb4	0.00026091712
39	0xbc376d50	-0.011195496
40	0x3bd17a02	0.0063927183
41	0x3bb2a4d2	0.005451777
42	0xbbe550c3	-0.006998153
43	0xbaf46821	-0.0018646755
44	0x3be0f210	0.0068647936
45	0x3be23681	0.00690347
46	0x3b813a42	0.0039437125
47	0xbbac6fa2	-0.005262331
48	0xbc698147	-0.0142520135
49	0xbb3d4d3d	-0.002888515
50	0xbc76b904	-0.01505876
51	0x3b05c86f	0.0020413657
52	0xbb01c386	-0.001980038
53	0x3be61b7e	0.0070223203
54	0xbb320b9e	-0.002716757
55	0x3b71f752	0.0036921096
56	0x3adf3840	0.0017030314
57	0xbb5b274a	-0.0033440166
58	0x3c8710c8	0.016487494
59	0x3c189ad6	0.0093142595
60	0x3bbe1e40	0.005801946
61	0xbbf6e4af	-0.0075345854
62	0xbc311dfd	-0.010810372
63	0xbbeef920	-0.0072928816
64	0xba7bc49c	-0.0009604187
65	0x3bdc9ed6	0.006732802
66	0x3aaf8889	0.0013392131
67	0x3b36108a	0.0027780854
68	0x3c21f6d5	0.0098855095
69	0x3c10197d	0.008795139
70	0xbc7a4954	-0.015276272
71	0xbc5e4d64	-0.013568256
72	0x3a039341	0.0005019196
73	0xbc8985fb	-0.01678752
74	0xbc220bbb	-0.009890492
75	0xb9d511fc	-0.00040639925
76	0x3bf57983	0.007491292
77	0xbce9e620	-0.028552115
78	0xbc41145a	-0.011784637
79	0xbadc067d	-0.0016786602
80	0x3c4026b3	0.011727977
81	0xbc10d1c3	-0.008839074
82	0xbc9dbe6c	-0.01925584
83	0x3cf4974f	0.029857306
84	0x3c8e9ee3	0.017409747
85	0xbb932462	-0.004490421
86	0xbc97a802	-0.01851273
87	0x3c7d2d34	0.015452672
88	0x3c569939	0.013098055
89	0xbca60411	-0.02026561
90	0xba715c66	-0.0009207189
91	0xbc4294ed	-0.011876327
92	0x3b232959	0.0024896471
93	0x3c8628c2	0.016376857
94	0x3c0092d7	0.007847509
95	0x3c424135	0.011856367
96	0x3ca59a73	0.020215249
97	0x3b2f9071	0.0026788975
98	0x3cd635d8	0.026148722
99	0xbcc9c490	-0.024629861
100	0xbbf69f17	-0.007526289
101	0xbcbf98ea	-0.023388345
102	0xbcca41e4	-0.024689622
103	0x3a7b070c	0.000957594
104	0xbb9344ff	-0.004494309
105	0x3ba8a605	0.005146744
106	0xbc4876c8	-0.012235351
107	0xbccfcf29	-0.025367336
108	0xbb4cade8	-0.0031231586
109	0x3b2f611b	0.002676076
110	0xbb9f0ca1	-0.0048538004
111	0x3b1f06ce	0.002426553
112	0xbc50517f	-0.012714743
113	0xbaabc438	-0.0013104742
114	0x3c30b2c3	0.010784808
115	0x3c0da8c1	0.008646191
116	0xbcb37c79	-0.02190994
117	0xbc284ae6	-0.010271763
118	0x3ca5f83b	0.020259967
119	0x3c202df6	0.009776583
120	0xbbcfb92e	-0.006339214
121	0xbd07d993	-0.03316648
122	0xbb95bf96	-0.004569958
123	0x3c48f42d	0.012265247
124	0x3bcce875	0.006253297
125	0xbb744f0a	-0.0037278556
126	0xbb82007a	-0.003967342
127	0x3c8a1b8e	0.016858842
128	0x3c99b2a1	0.018761935
129	0x3b7a9f08	0.0038241763
130	0xba29e92e	-0.0006481585
131	0x3c9082c6	0.017640483
132	0xbbbc8f57	-0.005754392
133	0xbaeddcce	-0.001814747
134	0xbc5c312e	-0.01343946
135	0x3b838433	0.004013562
136	0x3a09c65b	0.00052556925
137	0x3d0c5652	0.03426201
138	0x3bb0b070	0.0053921267
139	0x3c92cdc9	0.017920392
140	0xbc75e575	-0.01500832
141	0xbc556d8e	-0.013026608
142	0xbbedd01e	-0.0072574755
143	0x3c9f1519	0.01941924
144	0x3c3b8da8	0.011447348
145	0x3c3b646c	0.011437517
146	0x3c55e003	0.013053897
147	0xbb2324b5	-0.0024893705
148	0x3ae3459b	0.001733947
149	0x3b9ee697	0.004849266
150	0xbbda9c85	-0.0066714906
151	0x3b1a93ba	0.0023586587
152	0x3730a639	1.0529119e-05
153	0xbc484af0	-0.012224898
154	0xbad5f8bd	-0.001632474
155	0x3b26be60	0.0025443062
156	0x3b77e4fc	0.0037825694
157	0xbb9eeb4d	-0.0048498274
158	0xbc3370cb	-0.010952185
159	0xbbb33528	-0.005468983
160	0x3c078626	0.00827173
161	0xbbf44c2c	-0.0074553695
162	0xbcc2e76a	-0.023791987
163	0xbc1424ab	-0.009041945
164	0xbc23f2a2	-0.010006579
165	0x3bc13ba2	0.0058970014
166	0xbca1a373	-0.019731259
167	0x3b924eb7	0.00446495
168	0xbc2096dd	-0.009801594
169	0x3ca47ee2	0.020080034
170	0x3c318956	0.010835966
171	0x3c1abfdb	0.009445156
172	0x3c0fc1e3	0.008774254
173	0xbb4ddef4	-0.0031413408
174	0xbc803749	-0.015651362
175	0x3afb913f	0.0019193067
176	0x3b17ea1e	0.0023180316
177	0x3cba8912	0.022770438
178	0x3cd3d742	0.025859479
179	0xbba04b93	-0.0048918216
180	0xbbda5c03	-0.0066638007
181	0xbd0ffd13	-0.03515346
182	0x3ac4ae9e	0.0015005653
183	0xbc3f9e5d	-0.011695472
184	0xbb974a41	-0.004617006
185	0x3b2680b8	0.0025406312
186	0xbbd2e952	-0.0064365054
187	0x3b8876c7	0.00416455
188	0xbbe0dfb6	-0.006862606
189	0xbaf76855	-0.0018875698
190	0xbc16ff6e	-0.009216173
191	0xb86168b7	-5.3741704e-05
192	0xb9140d98	-0.00014119444
193	0xbc695f83	-0.014243963
194	0x3be7a229	0.0070688915
195	0xbc360346	-0.011109179
196	0xbbc631cc	-0.0060484167
197	0x3c356d5b	0.011073436
198	0xbbb2ff39	-0.005462554
199	0xbcb28dc6	-0.021796118
200	0x3c893c4b	0.016752383
201	0x3aab7541	0.0013081209
202	0xbc4edf71	-0.012626515
203	0x3c8ca680	0.017169237
204	0xb8822832	-6.20637e-05
205	0xbc440e4d	-0.0119663
206	0xbb763795	-0.003756975
207	0x38c82e25	9.545338e-05
208	0x3c5b32f0	0.013378844
209	0xbc4b369c	-0.012403157
210	0xbcd34025	-0.025787422
211	0x3b8adfe2	0.0042381147
212	0xba8406d0	-0.0010072831
213	0xbac23738	-0.0014817482
214	0x3c3b8e4e	0.011447502
215	0x3cb064e3	0.021532482
216	0xbc08285b	-0.008310403
217	0xbb9bb95e	-0.004752322
218	0x3c3fd177	0.011707655
219	0xbc0e9b2f	-0.008703991
220	0x3bbf6da1	0.005841926
221	0x3961efb0	0.00021546963
222	0x3a21c7d9	0.0006171442
223	0xbb4155a7	-0.0029500516
224	0xbcbdd90f	-0.02317479
225	0x3be153ca	0.0068764435
226	0xbaa93841	-0.0012910442
227	0x3b62096b	0.0034490477
228	0xbbb10e85	-0.005403342
229	0xbb6ab244	-0.003581182
230	0xbc3dd4a1	-0.011586339
231	0x3ac12435	0.0014735522
232	0x3bf1992f	0.0073729972
233	0xbb5bc70b	-0.0033535387
234	0xbc88e329	-0.01670988
235	0x3d047e5d	0.032347072
236	0xbc42ec72	-0.011897193
237	0xbc1230ca	-0.008922765
238	0xbbbfac87	-0.0058494243
239	0xbc4a160d	-0.012334359
240	0x3dfe91c4	0.12430146
241	0xbde1bb3f	-0.110220425
242	0xbdc5a98f	-0.09651481
243	0x3d380d93	0.04493482
244	0x3db3975c	0.08769104
245	0x3bf91870	0.00760179
246	0xbd940a99	-0.07228584
247	0xbce14e8f	-0.02750328
248	0x3be462d9	0.0069697914
249	0xbda7abcc	-0.081870645
250	0x3c5361d5	0.012901743
251	0x3dfff2dc	0.124974936
252	0xbd04f2db	-0.032458168
253	0xbd2bc934	-0.04193993
254	0xbd00796b	-0.031365793
255	0xbd0e51c5	-0.03474595

features.9.bias f4 [84]
0	0x3cb43fb0	0.022003025
1	0x3cb32124	0.021866389
2	0x3d48e2ba	0.04904435
3	0x3c029bdc	0.00797173
4	0x3de79233	0.11307182
5	0x3d78e1f6	0.06076237
6	0x3e1d83c3	0.15382294
7	0x3e0d38f5	0.13791259
8	0xbb99696f	-0.004681758
9	0x3ddab05c	0.10678169
10	0x3eaf2a2c	0.34211862
11	0x3e1e5d65	0.15465315
12	0x3d8b54d6	0.068032905
13	0x3e9f77c9	0.31146076
14	0x3da12e4a	0.07870157
15	0x3e09cf35	0.1345795
16	0x3c3349c0	0.010942876
17	0x3b5152e9	0.0031940287
18	0xbc9e5e4a	-0.01933207
19	0x3d6d1cf5	0.057888944
20	0xbab30d1d	-0.0013660524
21	0x3e117240	0.14203739
22	0x3e5b5026	0.21417293
23	0x3e511e3a	0.20421687
24	0xbb29dfa3	-0.0025920651
25	0xbb957b25	-0.004561799
26	0x3b0317c8	0.0020003188
27	0x3da197b9	0.07890267
28	0x3a0703b3	0.00051503925
29	0x3e3540d1	0.17700507
30	0x3d13edf2	0.036115594
31	0xbcd2a917	-0.025715394
32	0x3e91709a	0.2840622
33	0x3c5a40a0	0.013321072
34	0x3c843b08	0.01614143
35	0x3da15301	0.0787716
36	0xbd0b280c	-0.03397374
37	0x3e69eddb	0.22844641
38	0x3d340f30	0.043959796
39	0x3e296ea8	0.16546118
40	0x3ccfba57	0.025357408
41	0x3e03824a	0.1284267
42	0xbb269d9b	-0.002542353
43	0x3e37d1a8	0.17951071
44	0x3e45b368	0.1930672
45	0x3decd591	0.11564172
46	0x3d3f3b37	0.04668733
47	0x3db4d63a	0.08829923
48	0x3d59abba	0.053142287
49	0x3d397d40	0.045285463
50	0x3ca87594	0.020563878
51	0x3cc98570	0.02459976
52	0x3beb158e	0.0071742004
53	0x3d276abc	0.040873274
54	0x3e91f3f1	0.28506425
55	0x3e2602fc	0.16212076
56	0xbca3a2aa	-0.019975025
57	0x3e1ff035	0.15618975
58	0x3b705ff1	0.003667828
59	0xbc32b2c8	-0.010906883
60	0x3e22ac91	0.15886141
61	0x3e3f967c	0.18709749
62	0x3e1a73d0	0.15083241
63	0xbba8576e	-0.0051373756
64	0x3a4f7b75	0.000791482
65	0x3d6600c6	0.05615308
66	0x39555143	0.00020343535
67	0x3efb0682	0.49028403
68	0x3e1d942f	0.15388559
69	0xbc30cb4c	-0.010790657
70	0x3b81bbd2	0.0039591575
71	0x3e4389b1	0.19095494
72	0x3b8d66e5	0.0043152445
73	0x3e1db691	0.15401675
74	0xbd64ea52	-0.055887528
75	0x3d85c8dd	0.06532452
76	0x3e5805c2	0.21095946
77	0xbcbd9e7f	-0.023146866
78	0x3e2e3ecc	0.17016143
79	0x3cfeb821	0.031093659
80	0x3da63298	0.08115119
81	0x3e943459	0.28946188
82	0x3dfbe231	0.12299002
83	0x3e3e7288	0.18598378

classifiers.0.weight f4 [5, 84]
0	0xbd1f6c4c	-0.03892164
1	0xbca58eb7	-0.020209653
2	0x3e7cdf26	0.246945
3	0x3ba0db6e	0.0049089706
4	0x3c99ab2e	0.018758383
5	0xbde8ad90	-0.113612294
6	0xbe7343b7	-0.237563
7	0xbd2cbfde	-0.042175166
8	0x3c9ea1bc	0.01936423
9	0xbda5e894	-0.081010014
10	0xbea2dfa2	-0.31811243
11	0xbe254050	-0.16137815
12	0x3de60f52	0.11233391
13	0xbeb5d172	-0.35511357
14	0xbe05f0b6	-0.13080105
15	0x39706d41	0.00022928884
16	0x3e228dc7	0.15874396
17	0x3d7b0f98	0.06129417
18	0x3cdc7a11	0.026913675
19	0x3e533fc9	0.20629801
20	0x3e3f7e42	0.18700507
21	0xbe675223	-0.22589926
22	0xbe0e6072	-0.13903978
23	0xbddfb4c2	-0.10923149
24	0x3afbb68e	0.0019204186
25	0x3c7a5c9c	0.015280869
26	0xbc3c3ee6	-0.0114896055
27	0x3c2f5674	0.010701764
28	0x3be56b36	0.007001306
29	0x3d5b49b2	0.05353708
30	0x3c51849d	0.012787965
31	0x3cc9b249	0.024621146
32	0x3d626cec	0.055279657
33	0xbd796cf7	-0.060894933
34	0x3cf86f4a	0.030326504
35	0x3d5424ba	0.051792838
36	0xbdbdae87	-0.09261804
37	0x3db740f3	0.08947935
38	0x3daa9521	0.08329225
39	0x3c71190f	0.014715447
40	0x3d84f9bb	0.06492945
41	0x3e29f534	0.16597444
42	0xbc43500b	-0.011920939
43	0x3bafc60f	0.0053641866
44	0x3e53eb45	0.20695217
45	0x3ddc1888	0.107468665
46	0x3e315a52	0.1731961
47	0x3e5a9872	0.21347216
48	0x3e328dba	0.17436877
49	0x3d535981	0.05159903
50	0x3e1d1e24	0.15343529
51	0x3d6a63e2	0.057224162
52	0xbc3cc320	-0.011521131
53	0xbd189fc4	-0.03726174
54	0x3db96759	0.09052915
55	0x3da6c064	0.08142164
56	0x3ba32fb8	0.0049800538
57	0x3ddf1038	0.10891765
58	0x3c7e9b30	0.015539929
59	0xbbb1e863	-0.005429314
60	0xbe73105a	-0.23736706
61	0xbe5361e6	-0.20642814
62	0x3e1665f3	0.14687328
63	0x3c0d2408	0.008614548
64	0x3c49c820	0.01231578
65	0x3c8b5d0a	0.017012138
66	0x3cbf0d7c	0.02332186
67	0x3eaaad58	0.33335376
68	0x3e456570	0.19276977
69	0xbc1d2d40	-0.009593308
70	0xbbedf2aa	-0.007261594
71	0x3d7a27be	0.061073057
72	0x3df03e6a	0.117306545
73	0xbe69b8e9	-0.22824444
74	0x3d0d6b5f	0.034526225
75	0xbbdd7799	-0.006758642
76	0xbe9229e6	-0.2854759
77	0x3d04d05c	0.03242527
78	0x3d2724db	0.040806632
79	0xbda3cf4b	-0.07998522
80	0x3e2db2f9	0.16962804
81	0xbc76d831	-0.0150661925
82	0x3dd61aa9	0.10454304
83	0x3d8b9732	0.068159476
84	0x3d21510e	0.03938394
85	0x3cd83b99	0.026395606
86	0x3dd1e0cd	0.102479555
87	0x3d084ada	0.03327451
88	0xbe223761	-0.15841438
89	0x3d5c9fe7	0.053863432
90	0xbe8053bd	-0.25063887
91	0x3e2f6535	0.17128451
92	0xbcf569a4	-0.0299576
93	0xbcda0375	-0.026612977
94	0xbe3dbf85	-0.1853009
95	0x3e6db464	0.23213345
96	0xbd1b02bb	-0.0378444
97	0xbd2ac2b0	-0.041689575
98	0x3e0fc2aa	0.14039102
99	0xbd45e035	-0.048309524
100	0x3c6d20a4	0.014473114
101	0xbad6a537	-0.0016376142
102	0xbcbad395	-0.022805968
103	0x3d4f6f53	0.050643276
104	0xbe08ff97	-0.1337875
105	0xbd9efb7a	-0.07762809
106	0x3ed8fdbf	0.42381093
107	0x3e1e3d5b	0.15453093
108	0xbc35c5d8	-0.011094533
109	0xbc048883	-0.008089188
110	0xbabdfa87	-0.0014494219
111	0xbda0cd3d	-0.07851646
112	0x3bc99f6f	0.006153039
113	0x3ea1a928	0.31574368
114	0xbbc594d4	-0.0060297046
115	0xbbddbbba	-0.0067667635
116	0xbe0c4880	-0.13699532
117	0x3d2e9fe2	0.042632945
118	0xbd100786	-0.035163425
119	0x3cba7ed0	0.022765547
120	0xbb269024	-0.0025415504
121	0xbdf64757	-0.12025326
122	0xbcf5e553	-0.030016577
123	0xbd25d61a	-0.040487386
124	0x3d41ce63	0.047315966
125	0x3e5e4883	0.21707349
126	0x3bb877de	0.0056295237
127	0xbc857156	-0.016289394
128	0xbed6f3ce	-0.41982883
129	0x3e28cf06	0.16485223
130	0xbdf392cb	-0.11893233
131	0xbe2e6083	-0.17029004
132	0x3dddfb36	0.1083893
133	0xbddd631c	-0.10809919
134	0xbd23623e	-0.039888613
135	0xbe2861c6	-0.16443548
136	0x3d222bf7	0.03959271
137	0x3d055830	0.032554805
138	0xbf2c8cce	-0.6740235
139	0x3d266289	0.040621314
140	0x3c855c14	0.016279258
141	0x3e69ee8b	0.22844903
142	0x3c76897f	0.01504743
143	0xbc549e9b	-0.012977268
144	0xbd8ebd8f	-0.06969749
145	0x3e9880e2	0.2978583
146	0xbeb506df	-0.35356805
147	0xbc084978	-0.008318298
148	0x3d3d9413	0.046283793
149	0xbc84a708	-0.016192928
150	0xbbc74852	-0.0060816193
151	0xbeb06db3	-0.34458694
152	0xbe86be0c	-0.2631687
153	0xbc8dfd25	-0.017332623
154	0xb98cf83c	-0.0002688783
155	0xbd55f6d7	-0.052237358
156	0xbc9decdc	-0.019277982
157	0x3e3c6b70	0.18400359
158	0xbd336ac4	-0.04380299
159	0xbe74d442	-0.23909095
160	0x3e8adc2a	0.27121097
161	0x3cccff01	0.02502394
162	0xbcb9c280	-0.022675753
163	0x3da6657a	0.08124824
164	0x3e42ed53	0.19035845
165	0xbe952f7e	-0.29137796
166	0xbd835a22	-0.06413676
167	0xbd80cac8	-0.062886775
168	0x3ba7e604	0.0051238555
169	0xbb24a711	-0.0025123993
170	0xbe3de0ba	-0.18542758
171	0x3c6ddf56	0.0145185795
172	0x3e8412f2	0.25795704
173	0xbd3273d1	-0.043567482
174	0x3e7f9b1e	0.24961516
175	0xbcb170e2	-0.021660272
176	0x3d1fda4f	0.039026555
177	0x3dde8a99	0.10866279
178	0x3d7b0c8e	0.06129127
179	0xbdc0c79c	-0.094130725
180	0xbe8f82b6	-0.28029412
181	0xbdbb05f6	-0.09131996
182	0x3d4acd3e	0.04951214
183	0xbdd71c5d	-0.10503457
184	0xbe154610	-0.14577508
185	0xbd42f785	-0.047599334
186	0x3d0cf54f	0.034413632
187	0xbe08486b	-0.13308875
188	0x3e01d378	0.12678325
189	0x3d90ad32	0.070642844
190	0xbd1c87ca	-0.038215436
191	0x3bdb39b6	0.0066902293
192	0x3bb6951e	0.0055719754
193	0x3c0107b6	0.007875374
194	0x3c4cd3da	0.012501681
195	0x3e1e582a	0.1546332
196	0xbcb1d5b5	-0.021708349
197	0xbdfe73e7	-0.1242445
198	0xbd96ae13	-0.07357421
199	0x3da5a218	0.080875576
200	0xbd73a0a5	-0.059479374
201	0x3b7fc6ce	0.003902841
202	0x3e28148d	0.1641409
203	0xbe7a3360	-0.2443366
204	0x3e6a83ad	0.22901793
205	0x3e813f13	0.25243434
206	0x3debc545	0.115122356
207	0xbd69fc3d	-0.05712532
208	0xbd460e62	-0.04835356
209	0xbe40d8b0	-0.1883266
210	0x3b9849a7	0.004647452
211	0x3b55283f	0.003252521
212	0x3e458f66	0.19292983
213	0xbdd93486	-0.10605721
214	0x3d8b104b	0.06790217
215	0x3e08aa24	0.13346153
216	0xbdd4f30a	-0.103979185
217	0x3de87658	0.11350697
218	0xbd5edb79	-0.054408524
219	0x3ddfc0dd	0.109254576
220	0x3c739f4d	0.014869523
221	0xbd69436f	-0.056949075
222	0x3e1bc3f2	0.15211466
223	0x3e06cdcd	0.13164444
224	0x3d6239f1	0.05523104
225	0xbdf02a87	-0.117268614
226	0x3b27afab	0.0025586884
227	0xbcb73443	-0.022363788
228	0x3e061bf2	0.13096598
229	0xbd816501	-0.06318093
230	0x3d6a4fa9	0.057204876
231	0x3cceaf12	0.025229964
232	0x3d00d3c5	0.03145196
233	0x3dddbbcf	0.10826837
234	0x3b192087	0.0023365335
235	0xbe3bd36e	-0.18342373
236	0xbe21f4bf	-0.1581602
237	0x3cf3e7e4	0.02977366
238	0x3b92d844	0.0044813473
239	0xba8e1fe3	-0.0010843243
240	0xbdda9482	-0.10672857
241	0xbdc420c2	-0.095765606
242	0x3e2a18a5	0.16610964
243	0x3e0d62c6	0.1380721
244	0x3c814a3f	0.015782474
245	0x3d44a5a5	0.048009533
246	0xbe833837	-0.25628826
247	0x3cabcb1d	0.020970875
248	0xbd7f00ab	-0.062256496
249	0xbe1d1f6c	-0.15344018
250	0xbd7b46d8	-0.06134686
251	0x3e3206f1	0.1738546
252	0x3c90c45f	0.017671762
253	0xbbcd8ab1	-0.006272637
254	0xbe12605c	-0.1429457
255	0xbc924bd2	-0.01785842

classifiers.0.bias f4 [5]
0	0xbf4185ee	-0.75594985
1	0x3e886a8a	0.26643783
2	0x3cc807c9	0.024417775
3	0xbd8a9189	-0.0676604
4	0x3f08628a	0.5327536

classifier.weight f4 [5, 84]
0	0xbd1f6c4c	-0.03892164
1	0xbca58eb7	-0.020209653
2	0x3e7cdf26	0.246945
3	0x3ba0db6e	0.0049089706
4	0x3c99ab2e	0.018758383
5	0xbde8ad90	-0.113612294
6	0xbe7343b7	-0.237563
7	0xbd2cbfde	-0.042175166
8	0x3c9ea1bc	0.01936423
9	0xbda5e894	-0.081010014
10	0xbea2dfa2	-0.31811243
11	0xbe254050	-0.16137815
12	0x3de60f52	0.11233391
13	0xbeb5d172	-0.35511357
14	0xbe05f0b6	-0.13080105
15	0x39706d41	0.00022928884
16	0x3e228dc7	0.15874396
17	0x3d7b0f98	0.06129417
18	0x3cdc7a11	0.026913675
19	0x3e533fc9	0.20629801
20	0x3e3f7e42	0.18700507
21	0xbe675223	-0.22589926
22	0xbe0e6072	-0.13903978
23	0xbddfb4c2	-0.10923149
24	0x3afbb68e	0.0019204186
25	0x3c7a5c9c	0.015280869
26	0xbc3c3ee6	-0.0114896055
27	0x3c2f5674	0.010701764
28	0x3be56b36	0.007001306
29	0x3d5b49b2	0.05353708
30	0x3c51849d	0.012787965
31	0x3cc9b249	0.024621146
32	0x3d626cec	0.055279657
33	0xbd796cf7	-0.060894933
34	0x3cf86f4a	0.030326504
35	0x3d5424ba	0.051792838
36	0xbdbdae87	-0.09261804
37	0x3db740f3	0.08947935
38	0x3daa9521	0.08329225
39	0x3c71190f	0.014715447
40	0x3d84f9bb	0.06492945
41	0x3e29f534	0.16597444
42	0xbc43500b	-0.011920939
43	0x3bafc60f	0.0053641866
44	0x3e53eb45	0.20695217
45	0x3ddc1888	0.107468665
46	0x3e315a52	0.1731961
47	0x3e5a9872	0.21347216
48	0x3e328dba	0.17436877
49	0x3d535981	0.05159903
50	0x3e1d1e24	0.15343529
51	0x3d6a63e2	0.057224162
52	0xbc3cc320	-0.011521131
53	0xbd189fc4	-0.03726174
54	0x3db96759	0.09052915
55	0x3da6c064	0.08142164
56	0x3ba32fb8	0.0049800538
57	0x3ddf1038	0.10891765
58	0x3c7e9b30	0.015539929
59	0xbbb1e863	-0.005429314
60	0xbe73105a	-0.23736706
61	0xbe5361e6	-0.20642814
62	0x3e1665f3	0.14687328
63	0x3c0d2408	0.008614548
64	0x3c49c820	0.01231578
65	0x3c8b5d0a	0.017012138
66	0x3cbf0d7c	0.02332186
67	0x3eaaad58	0.33335376
68	0x3e456570	0.19276977
69	0xbc1d2d40	-0.009593308
70	0xbbedf2aa	-0.007261594
71	0x3d7a27be	0.061073057
72	0x3df03e6a	0.117306545
73	0xbe69b8e9	-0.22824444
74	0x3d0d6b5f	0.034526225
75	0xbbdd7799	-0.006758642
76	0xbe9229e6	-0.2854759
77	0x3d04d05c	0.03242527
78	0x3d2724db	0.040806632
79	0xbda3cf4b	-0.07998522
80	0x3e2db2f9	0.16962804
81	0xbc76d831	-0.0150661925
82	0x3dd61aa9	0.10454304
83	0x3d8b9732	0.068159476
84	0x3d21510e	0.03938394
85	0x3cd83b99	0.026395606
86	0x3dd1e0cd	0.102479555
87	0x3d084ada	0.03327451
88	0xbe223761	-0.15841438
89	0x3d5c9fe7	0.053863432
90	0xbe8053bd	-0.25063887
91	0x3e2f6535	0.17128451
92	0xbcf569a4	-0.0299576
93	0xbcda0375	-0.026612977
94	0xbe3dbf85	-0.1853009
95	0x3e6db464	0.23213345
96	0xbd1b02bb	-0.0378444
97	0xbd2ac2b0	-0.041689575
98	0x3e0fc2aa	0.14039102
99	0xbd45e035	-0.048309524
100	0x3c6d20a4	0.014473114
101	0xbad6a537	-0.0016376142
102	0xbcbad395	-0.022805968
103	0x3d4f6f53	0.050643276
104	0xbe08ff97	-0.1337875
105	0xbd9efb7a	-0.07762809
106	0x3ed8fdbf	0.42381093
107	0x3e1e3d5b	0.15453093
108	0xbc35c5d8	-0.011094533
109	0xbc048883	-0.008089188
110	0xbabdfa87	-0.0014494219
111	0xbda0cd3d	-0.07851646
112	0x3bc99f6f	0.006153039
113	0x3ea1a928	0.31574368
114	0xbbc594d4	-0.0060297046
115	0xbbddbbba	-0.0067667635
116	0xbe0c4880	-0.13699532
117	0x3d2e9fe2	0.042632945
118	0xbd100786	-0.035163425
119	0x3cba7ed0	0.022765547
120	0xbb269024	-0.0025415504
121	0xbdf64757	-0.12025326
122	0xbcf5e553	-0.030016577
123	0xbd25d61a	-0.040487386
124	0x3d41ce63	0.047315966
125	0x3e5e4883	0.21707349
126	0x3bb877de	0.0056295237
127	0xbc857156	-0.016289394
128	0xbed6f3ce	-0.41982883
129	0x3e28cf06	0.16485223
130	0xbdf392cb	-0.11893233
131	0xbe2e6083	-0.17029004
132	0x3dddfb36	0.1083893
133	0xbddd631c	-0.10809919
134	0xbd23623e	-0.039888613
135	0xbe2861c6	-0.16443548
136	0x3d222bf7	0.03959271
137	0x3d055830	0.032554805
138	0xbf2c8cce	-0.6740235
139	0x3d266289	0.040621314
140	0x3c855c14	0.016279258
141	0x3e69ee8b	0.22844903
142	0x3c76897f	0.01504743
143	0xbc549e9b	-0.012977268
144	0xbd8ebd8f	-0.06969749
145	0x3e9880e2	0.2978583
146	0xbeb506df	-0.35356805
147	0xbc084978	-0.008318298
148	0x3d3d9413	0.046283793
149	0xbc84a708	-0.016192928
150	0xbbc74852	-0.0060816193
151	0xbeb06db3	-0.34458694
152	0xbe86be0c	-0.2631687
153	0xbc8dfd25	-0.017332623
154	0xb98cf83c	-0.0002688783
155	0xbd55f6d7	-0.052237358
156	0xbc9decdc	-0.019277982
157	0x3e3c6b70	0.18400359
158	0xbd336ac4	-0.04380299
159	0xbe74d442	-0.23909095
160	0x3e8adc2a	0.27121097
161	0x3cccff01	0.02502394
162	0xbcb9c280	-0.022675753
163	0x3da6657a	0.08124824
164	0x3e42ed53	0.19035845
165	0xbe952f7e	-0.29137796
166	0xbd835a22	-0.06413676
167	0xbd80cac8	-0.062886775
168	0x3ba7e604	0.0051238555
169	0xbb24a711	-0.0025123993
170	0xbe3de0ba	-0.18542758
171	0x3c6ddf56	0.0145185795
172	0x3e8412f2	0.25795704
173	0xbd3273d1	-0.043567482
174	0x3e7f9b1e	0.24961516
175	0xbcb170e2	-0.021660272
176	0x3d1fda4f	0.039026555
177	0x3dde8a99	0.10866279
178	0x3d7b0c8e	0.06129127
179	0xbdc0c79c	-0.094130725
180	0xbe8f82b6	-0.28029412
181	0xbdbb05f6	-0.09131996
182	0x3d4acd3e	0.04951214
183	0xbdd71c5d	-0.10503457
184	0xbe154610	-0.14577508
185	0xbd42f785	-0.047599334
186	0x3d0cf54f	0.034413632
187	0xbe08486b	-0.13308875
188	0x3e01d378	0.12678325
189	0x3d90ad32	0.070642844
190	0xbd1c87ca	-0.038215436
191	0x3bdb39b6	0.0066902293
192	0x3bb6951e	0.0055719754
193	0x3c0107b6	0.007875374
194	0x3c4cd3da	0.012501681
195	0x3e1e582a	0.1546332
196	0xbcb1d5b5	-0.021708349
197	0xbdfe73e7	-0.1242445
198	0xbd96ae13	-0.07357421
199	0x3da5a218	0.080875576
200	0xbd73a0a5	-0.059479374
201	0x3b7fc6ce	0.003902841
202	0x3e28148d	0.1641409
203	0xbe7a3360	-0.2443366
204	0x3e6a83ad	0.22901793
205	0x3e813f13	0.25243434
206	0x3debc545	0.115122356
207	0xbd69fc3d	-0.05712532
208	0xbd460e62	-0.04835356
209	0xbe40d8b0	-0.1883266
210	0x3b9849a7	0.004647452
211	0x3b55283f	0.003252521
212	0x3e458f66	0.19292983
213	0xbdd93486	-0.10605721
214	0x3d8b104b	0.06790217
215	0x3e08aa24	0.13346153
216	0xbdd4f30a	-0.103979185
217	0x3de87658	0.11350697
218	0xbd5edb79	-0.054408524
219	0x3ddfc0dd	0.109254576
220	0x3c739f4d	0.014869523
221	0xbd69436f	-0.056949075
222	0x3e1bc3f2	0.15211466
223	0x3e06cdcd	0.13164444
224	0x3d6239f1	0.05523104
225	0xbdf02a87	-0.117268614
226	0x3b27afab	0.0025586884
227	0xbcb73443	-0.022363788
228	0x3e061bf2	0.13096598
229	0xbd816501	-0.06318093
230	0x3d6a4fa9	0.057204876
231	0x3cceaf12	0.025229964
232	0x3d00d3c5	0.03145196
233	0x3dddbbcf	0.10826837
234	0x3b192087	0.0023365335
235	0xbe3bd36e	-0.18342373
236	0xbe21f4bf	-0.1581602
237	0x3cf3e7e4	0.02977366
238	0x3b92d844	0.0044813473
239	0xba8e1fe3	-0.0010843243
240	0xbdda9482	-0.10672857
241	0xbdc420c2	-0.095765606
242	0x3e2a18a5	0.16610964
243	0x3e0d62c6	0.1380721
244	0x3c814a3f	0.015782474
245	0x3d44a5a5	0.048009533
246	0xbe833837	-0.25628826
247	0x3cabcb1d	0.020970875
248	0xbd7f00ab	-0.062256496
249	0xbe1d1f6c	-0.15344018
250	0xbd7b46d8	-0.06134686
251	0x3e3206f1	0.1738546
252	0x3c90c45f	0.017671762
253	0xbbcd8ab1	-0.006272637
254	0xbe12605c	-0.1429457
255	0xbc924bd2	-0.01785842

classifier.bias f4 [5]
0	0xbf4185ee	-0.75594985
1	0x3e886a8a	0.26643783
2	0x3cc807c9	0.024417775
3	0xbd8a9189	-0.0676604
4	0x3f08628a	0.5327536

features.7 f4 [120]
0	0xbd288222	-0.04113973
1	0x3e2ce798	0.16885221
2	0x3dbb5bce	0.0914837
3	0xbc592f0d	-0.013255847
4	0xbd3ff1ac	-0.046861336
5	0x3be0b6db	0.0068577356
6	0xbd9a1c25	-0.075248994
7	0x3d677552	0.05650837
8	0x3d883294	0.06650272
9	0xbc149fc1	-0.009071291
10	0xbcb19d9f	-0.021681605
11	0x3db09a5a	0.0862319
12	0x3ca56f8e	0.020194795
13	0x3da79fd1	0.081847794
14	0x3cc82d90	0.024435788
15	0xbc60ff2b	-0.013732712
16	0xbb29b1a6	-0.002589324
17	0x3db67a4b	0.08910044
18	0xbd41eb6c	-0.047343656
19	0x3ca479b5	0.020077566
20	0x3d12a9c4	0.035806432
21	0xbd54af16	-0.051924787
22	0x3d245a43	0.040125143
23	0x3c88da97	0.016705794
24	0x3d928b91	0.071555264
25	0xbb638ba2	-0.0034720679
26	0x3d278a6a	0.040903486
27	0x3cc587af	0.02411255
28	0x3c116070	0.00887309
29	0x3cf41794	0.0297964
30	0xbcef8b84	-0.02924133
31	0xbd98517a	-0.074374154
32	0x3d27a116	0.040925108
33	0x3da9256e	0.08259092
34	0x3da59a9f	0.08086132
35	0x3c9b9437	0.018991573
36	0x3dc67ac7	0.09691387
37	0xbbcf3c93	-0.0063243597
38	0x3d2d3900	0.042290688
39	0xbcec932f	-0.028878776
40	0xbd2cc2a8	-0.042177826
41	0xbcc803ee	-0.024415936
42	0x3d87bcad	0.06627784
43	0xbb1ec6f0	-0.0024227463
44	0x3cf577ee	0.029964413
45	0xbb038446	-0.0020067855
46	0x3c0213bb	0.007939274
47	0xbd2472c1	-0.0401485
48	0x3da09749	0.07841355
49	0xbdbf4dad	-0.09340987
50	0x3d421622	0.04738439
51	0x3ca8b771	0.020595284
52	0xbd7c7a10	-0.061639845
53	0x3d24c127	0.040223267
54	0xbd03fe1b	-0.032224756
55	0x3d0f5eb9	0.035002444
56	0xbd22fb69	-0.039790545
57	0x3d44e561	0.048070315
58	0xbb6ed88c	-0.003644499
59	0x3cdd6c02	0.027029041
60	0x3bbc920d	0.0057547153
61	0x3dc89224	0.09793499
62	0xbcbb2a9f	-0.022847472
63	0xbc407fee	-0.011749251
64	0x3c202fa9	0.009776988
65	0x3e04b203	0.12958531
66	0x3cae8e24	0.021308012
67	0x3d8efc19	0.069816776
68	0x3d1dcd54	0.038525894
69	0x3d16391a	0.03667555
70	0x3d50173b	0.050803404
71	0xbdf2be79	-0.11852736
72	0xbcc43a86	-0.023953687
73	0xb96d19b3	-0.00022611655
74	0xbdb6eb23	-0.089315675
75	0x3ca425df	0.02003759
76	0x3e45e7ec	0.19326752
77	0x3da91269	0.082554646
78	0xbb85b9e4	-0.004080998
79	0x3d912d3d	0.07088707
80	0x3d6bb433	0.0575449
81	0xbc6f53af	-0.014607354
82	0x3b77bfd2	0.0037803543
83	0x3e0a5f15	0.13512833
84	0x3d9239a0	0.07139897
85	0xbad1751c	-0.0015980336
86	0x3d66d57e	0.056355946
87	0xbcf9a531	-0.030474277
88	0x3db4b372	0.08823289
89	0x3b521de0	0.0032061264
90	0x3ccd36f5	0.02505062
91	0x3d9d85b7	0.0769152
92	0x3b5b9a91	0.0033508877
93	0xbbc4146e	-0.0059838807
94	0x3cddf253	0.027093088
95	0xbba989d8	-0.005173903
96	0x3b9f86ea	0.004868378
97	0xbd75d4e2	-0.060017474
98	0x3bed4f6e	0.007242135
99	0xbc2cdd09	-0.010550746
100	0x3b5800ff	0.0032959578
101	0x3c334563	0.010941836
102	0x3ccacdbe	0.024756309
103	0x3c996972	0.018727038
104	0x3dad2be4	0.08455637
105	0x3d5a341a	0.053272344
106	0x3d1c5737	0.038169112
107	0xbd14edd0	-0.03635961
108	0x3d1908db	0.03736196
109	0xbd09ac93	-0.033611845
110	0x3e00c401	0.1257477
111	0xbcf1b18c	-0.029503606
112	0x3cd2711e	0.025688704
113	0x3ca602ef	0.02026507
114	0xbc1e2795	-0.009652992
115	0x3d1dcc7c	0.03852509
116	0x3d3157ad	0.043296505
117	0xbd92cbda	-0.07167788
118	0x3d4ca833	0.049965095
119	0xb9811c9d	-0.00024626116
