checkpoints_lenet5/CPG_single_scratch_woexp/lenet5/food_containers/gradual_prune/0.6/checkpoint-20.pth.tar (torch, 316621 bytes, 28 tensors)

features.0.weight f4 [6, 3, 5, 5]
00000000: 0000 0000 0000 0000 1f65 84be 274a d3be
00000010: e1dd 04bf 4d3c 9b3e 0000 0000 0000 0000
00000020: 7b68 8ebe 0000 0000 0000 0000 0000 0000
00000030: 0000 0000 0000 0000 0000 0000 0000 0000
00000040: 0000 0000 0000 0000 0000 0000 0000 0000
00000050: 0000 0000 0000 0000 0000 0000 01ae 8f3e
00000060: 3c90 933e 0000 0000 0000 0000 a75d 8d3e
00000070: 0000 0000 0000 0000 0000 0000 0000 0000
00000080: 83d5 5dbe 0000 0000 0000 0000 0000 0000
00000090: a49a a5be 0000 0000 0000 0000 0000 0000
000000a0: 0000 0000 0000 0000 0000 0000 0000 0000
000000b0: 0000 0000 a2f0 8abe 0000 0000 0000 0000
000000c0: 0000 0000 0652 a43e 76db d0be 0000 0000
000000d0: 33a2 cabe 0000 0000 0000 0000 0000 0000
000000e0: 6917 6fbe dc20 fcbe 2322 a7be 0000 0000
000000f0: ccf9 d0be 0000 0000 0bfc aebe 0000 0000
00000100: 5492 723e 0000 0000 0000 0000 0000 0000
00000110: 0000 0000 2293 0a3f 0000 0000 80b6 713e
00000120: f8dd 023f 7ba0 b93e 086b 243f 0000 0000
00000130: 0000 0000 0000 0000 0000 0000 f356 5d3e
00000140: 0000 0000 0000 0000 0000 0000 0000 0000
00000150: 0000 0000 0000 0000 0000 0000 0000 0000
00000160: d199 aa3e 0000 0000 0000 0000 0000 0000
00000170: 0000 0000 0000 0000 ed99 65be 0000 0000
00000180: 0000 0000 0000 0000 0000 0000 0000 0000
00000190: 0000 0000 0000 0000 0000 0000 c927 613e
000001a0: 0000 0000 0000 0000 0000 0000 0000 0000
000001b0: 0000 0000 0000 0000 0000 0000 0000 0000
000001c0: 0000 0000 0000 0000 0000 0000 0000 0000
000001d0: 0000 0000 eebf 873e 0000 0000 0000 0000
000001e0: 0000 0000 0000 0000 0000 0000 0000 0000
000001f0: 0000 0000 0000 0000 0000 0000 0000 0000
00000200: 0000 0000 0000 0000 0000 0000 0000 0000
00000210: f117 423e 0000 0000 4681 4a3e 0000 0000
00000220: 0000 0000 0000 0000 0000 0000 0000 0000
00000230: 0000 0000 0000 0000 0000 0000 0000 0000
00000240: 0000 0000 e508 dcbe 0000 0000 0000 0000
00000250: 11ba 5c3e 0000 0000 f2aa b63e 334c 8b3e
00000260: 8982 b13e fa40 6f3e 0000 0000 0000 0000
00000270: 5722 de3e 0000 0000 0000 0000 0000 0000
00000280: 0000 0000 0000 0000 0000 0000 0000 0000
00000290: 0000 0000 772a 96be 0000 0000 8df9 bdbe
000002a0: 0000 0000 0000 0000 0000 0000 0000 0000
000002b0: 6ccc fdbe 0000 0000 0000 0000 e447 8b3e
000002c0: 56ee da3e 29a9 d33e 2cc2 843e 0000 0000
000002d0: 0000 0000 0000 0000 0000 0000 face a23e
000002e0: 0000 0000 0000 0000 9189 6f3e 0000 0000
000002f0: 0000 0000 0000 0000 68e3 74be 0000 0000
00000300: 0000 0000 0000 0000 0000 0000 0000 0000
00000310: 9465 90be bc86 74be fc56 9bbe 0000 0000
00000320: a530 ae3e 4e9e e13e 1bf2 b53e 0000 0000
00000330: 0000 0000 0000 0000 0000 0000 fbd0 8d3e
00000340: 0000 0000 5e8c 9fbe 0000 0000 0000 0000
00000350: f6bb 6cbe 0000 0000 78b9 b9be 0000 0000
00000360: 0000 0000 0000 0000 b4fa afbe 7513 dabe
00000370: 0000 0000 0000 0000 cf26 8cbe f8f3 f0be
00000380: 0f63 cabe 7dfc 7bbe 0000 0000 28a3 babe
00000390: 0000 0000 0000 0000 0000 0000 0000 0000
000003a0: 0000 0000 31f7 723e 4991 963e 0000 0000
000003b0: 0000 0000 0000 0000 0000 0000 67f4 883e
000003c0: 0000 0000 f035 91be 34d2 bfbe 0000 0000
000003d0: 0000 0000 536a b13e 0000 0000 0000 0000
000003e0: 0000 0000 0000 0000 0000 0000 0000 0000
000003f0: 0000 0000 a877 903e caf0 8a3e 0000 0000
0.0 0.0 -0.258584 -0.4126751 -0.5190106 0.30319443 0.0 0.0
-0.27814087 0.0 0.0 0.0 0.0 0.0 0.0 0.0
0.0 0.0 0.0 0.0 0.0 0.0 0.0 0.28062442
0.2882098 0.0 0.0 0.27610514 0.0 0.0 0.0 0.0
-0.2166348 0.0 0.0 0.0 -0.32344544 0.0 0.0 0.0
0.0 0.0 0.0 0.0 0.0 -0.27136713 0.0 0.0
0.0 0.3209383 -0.40792435 0.0 -0.39576873 0.0 0.0 0.0
-0.23348774 -0.4924382 -0.32643232 0.0 -0.4081558 0.0 -0.3417667 0.0
0.23688632 0.0 0.0 0.0 0.0 0.54130757 0.0 0.23604774
0.5111995 0.3625525 0.64225817 0.0 0.0 0.0 0.0 0.216152
0.0 0.0 0.0 0.0 0.0 0.0 0.0 0.0
0.33320478 0.0 0.0 0.0 0.0 0.0 -0.22422 0.0
0.0 0.0 0.0 0.0 0.0 0.0 0.0 0.21987833
0.0 0.0 0.0 0.0 0.0 0.0 0.0 0.0
0.0 0.0 0.0 0.0 0.0 0.26513618 0.0 0.0
0.0 0.0 0.0 0.0 0.0 0.0 0.0 0.0
0.0 0.0 0.0 0.0 0.18954445 0.0 0.19775876 0.0
0.0 0.0 0.0 0.0 0.0 0.0 0.0 0.0
0.0 -0.42975536 0.0 0.0 0.21555354 0.0 0.35677296 0.27206573
0.34669903 0.2336463 0.0 0.0 0.43385574 0.0 0.0 0.0
0.0 0.0 0.0 0.0 0.0 -0.29329273 0.0 -0.37104455
0.0 0.0 0.0 0.0 -0.49570024 0.0 0.0 0.27203286
0.4275996 0.41339996 0.2592939 0.0 0.0 0.0 0.0 0.31798536
0.0 0.0 0.23392321 0.0 0.0 0.0 -0.23914874 0.0
0.0 0.0 0.0 0.0 -0.28202498 -0.23879522 -0.303398 0.0
0.34021488 0.4406609 0.35536274 0.0 0.0 0.0 0.0 0.27698502
0.0 -0.3116178 0.0 0.0 -0.23118576 0.0 -0.36274314 0.0
0.0 0.0 -0.3437096 -0.4259297 0.0 0.0 -0.2737336 -0.47061133
-0.395287 -0.24608035 0.0 -0.36452603 0.0 0.0 0.0 0.0
0.0 0.23727109 0.2940772 0.0 0.0 0.0 0.0 0.26748964
0.0 -0.28361464 -0.3746506 0.0 0.0 0.3465143 0.0 0.0
0.0 0.0 0.0 0.0 0.0 0.2821629 0.27136832 0.0

features.1.weight f4 [6]
00000000: 789e 7b3f 33ab 1c3f d501 7e3f 05ac 973f
00000010: 8010 bc3f 7e9e bc3f
0.9828868 0.6119873 0.99221545 1.1849371 1.4692535 1.4735868

features.1.bias f4 [6]
00000000: 9b87 4f3d 876e 1c3e 4d4c b53e 3bbc a93c
00000010: 17e6 acbc eca1 9d3d
0.050666433 0.15276538 0.35409775 0.020719638 -0.02110581 0.076969

features.1.running_mean f4 [6]
00000000: b034 7e3b 018e b5bd 4a31 753d 41eb c4bc
00000010: b8b2 cf3d ebff 823e
0.0038788728 -0.08864976 0.05986146 -0.024037959 0.1014151 0.25585875

features.1.running_var f4 [6]
00000000: 547f cc40 d79e 953f 38e5 3b41 2af3 5941
00000010: 5f15 bf40 e781 2241
6.390543 1.1689099 11.743462 13.621866 5.971359 10.156714

features.4.weight f4 [16, 6, 5, 5]
00000000: 325a 62be 0000 0000 0000 0000 3726 0ebe
00000010: 0000 0000 a4a6 dcbd 4ab2 e6bd 0000 0000
00000020: 0000 0000 0000 0000 0000 0000 0000 0000
00000030: 0000 0000 0000 0000 0000 0000 0000 0000
00000040: 0000 0000 0000 0000 0000 0000 0000 0000
00000050: 5ba3 ca3d 7ed8 f13d 4993 e93d 5fa6 5a3e
00000060: 0000 0000 6cac 0dbe 0000 0000 ed1d f23d
00000070: 0000 0000 0000 0000 0000 0000 0000 0000
00000080: 0000 0000 0000 0000 0000 0000 c7dc 3d3e
00000090: 8d7d 033e 0000 0000 0000 0000 0000 0000
000000a0: 0000 0000 0000 0000 0000 0000 0000 0000
000000b0: 0000 0000 0000 0000 0000 0000 0000 0000
000000c0: 0000 0000 0000 0000 0000 0000 0000 0000
000000d0: 0000 0000 0000 0000 0000 0000 0000 0000
000000e0: 0000 0000 0000 0000 c864 0f3e ab8c 6dbe
000000f0: 0000 0000 0000 0000 0000 0000 3011 e53d
00000100: 0000 0000 0000 0000 0000 0000 346f ee3d
00000110: 4fd0 ed3d 27d3 46be ef5a d8bd 0000 0000
00000120: 0000 0000 0000 0000 2a1b f2bd 66c7 1cbe
00000130: 0000 0000 0000 0000 fd97 13be 250b 6abe
00000140: 0000 0000 6de4 0ebe 0000 0000 42b7 52be
00000150: cf24 1abe c5c9 2cbe 0000 0000 0000 0000
00000160: 0000 0000 0000 0000 a26d 1abe a248 22be
00000170: 0000 0000 0000 0000 3771 53be 0000 0000
00000180: 0000 0000 0000 0000 0000 0000 b166 d3bd
00000190: 0000 0000 0000 0000 c396 3bbe 9944 15be
000001a0: 0000 0000 0000 0000 eafe 00be 0000 0000
000001b0: 0000 0000 0000 0000 0000 0000 39ec 29be
000001c0: 9ecd 7abe 0000 0000 0000 0000 0000 0000
000001d0: 0000 0000 0000 0000 0000 0000 0000 0000
000001e0: 0000 0000 8c6f 8b3e 4846 243e 0000 0000
000001f0: 0000 0000 332b f2bd 0000 0000 0000 0000
00000200: d7bd e93d 3570 963e f3cf 36be 0000 0000
00000210: 0000 0000 25e7 5e3e 0417 f73d 66d5 e7bd
00000220: 0000 0000 0000 0000 0000 0000 0000 0000
00000230: 0000 0000 c780 2f3e 0000 0000 0000 0000
00000240: 0000 0000 4cdb 433e d088 e03d a364 17be
00000250: c049 09be 16b4 54be 3b16 663e 0000 0000
00000260: 0000 0000 7b35 90be 0000 0000 0000 0000
00000270: 38b5 51be 52e0 65be b488 40be 8b68 813e
00000280: 6b8c 4ebe 1013 35be d3ad 97be b051 103e
00000290: 6432 aa3e ac7f 6bbe 0000 0000 0000 0000
000002a0: 0000 0000 dcf2 6c3e 0000 0000 c4e1 e93d
000002b0: 0000 0000 8172 233e f8a8 18be 0000 0000
000002c0: 0000 0000 0000 0000 0000 0000 62ea 4fbe
000002d0: 0000 0000 0000 0000 0000 0000 0000 0000
000002e0: 0000 0000 0000 0000 0000 0000 0000 0000
000002f0: 0000 0000 bf18 1cbe 0000 0000 0000 0000
00000300: 0000 0000 0000 0000 db54 663e 8a38 fd3d
00000310: 0000 0000 0000 0000 5267 0a3e 85db 8d3e
00000320: b9f8 6c3e 0000 0000 fa99 35be 0000 0000
00000330: 6b1f 0d3e 0000 0000 0000 0000 3e37 20be
00000340: ea8a 2e3e 0000 0000 8d30 d33d 0000 0000
00000350: 59cf fe3d fbc9 143e 9a23 b5be a097 0f3e
00000360: d43e 0c3e 099b 083e 0000 0000 12dd b5be
00000370: 0000 0000 faaa 063e 0000 0000 6eba 21be
00000380: 7518 80be 0000 0000 e206 883e 0000 0000
00000390: 0000 0000 903f 1ebe 3767 6d3e 04e5 68be
000003a0: 0000 0000 49ff 11be d283 19be 0000 0000
000003b0: 0000 0000 0000 0000 0000 0000 9e99 12be
000003c0: 0000 0000 0000 0000 0000 0000 0000 0000
000003d0: 0000 0000 0000 0000 0000 0000 0000 0000
000003e0: 0000 0000 0000 0000 0000 0000 0000 0000
000003f0: 0000 0000 0000 0000 edf9 4ebe c4e7 073e
-0.2210472 0.0 0.0 -0.13881765 0.0 -0.10773972 -0.11264475 0.0
0.0 0.0 0.0 0.0 0.0 0.0 0.0 0.0
0.0 0.0 0.0 0.0 0.09894439 0.11808871 0.114050455 0.21352528
0.0 -0.13835305 0.0 0.11822114 0.0 0.0 0.0 0.0
0.0 0.0 0.0 0.18541251 0.12840863 0.0 0.0 0.0
0.0 0.0 0.0 0.0 0.0 0.0 0.0 0.0
0.0 0.0 0.0 0.0 0.0 0.0 0.0 0.0
0.0 0.0 0.14003289 -0.23198192 0.0 0.0 0.0 0.11184919
0.0 0.0 0.0 0.11642304 0.11611997 -0.19416486 -0.10564219 0.0
0.0 0.0 -0.118215874 -0.1531044 0.0 0.0 -0.14413448 -0.22855814
0.0 -0.13954325 0.0 -0.2057772 -0.15053104 -0.16873844 0.0 0.0
0.0 0.0 -0.15080884 -0.1584802 0.0 0.0 -0.20648657 0.0
0.0 0.0 0.0 -0.10322321 0.0 0.0 -0.1831923 -0.14576949
0.0 0.0 -0.12597242 0.0 0.0 0.0 0.0 -0.16594018
-0.24492499 0.0 0.0 0.0 0.0 0.0 0.0 0.0
0.0 0.2723354 0.16042435 0.0 0.0 -0.11824646 0.0 0.0
0.11413162 0.29382482 -0.17852764 0.0 0.0 0.21767862 0.12064937 -0.113199994
0.0 0.0 0.0 0.0 0.0 0.17138968 0.0 0.0
0.0 0.19126624 0.10963595 -0.14784484 -0.1340704 -0.20771822 0.22469418 0.0
0.0 -0.28165802 0.0 0.0 -0.20479286 -0.22448853 -0.18802148 0.25275072
-0.20170753 -0.17683053 -0.29624805 0.14093661 0.3324157 -0.22997922 0.0 0.0
0.0 0.23139518 0.0 0.114200145 0.0 0.15961649 -0.14908206 0.0
0.0 0.0 0.0 -0.20304254 0.0 0.0 0.0 0.0
0.0 0.0 0.0 0.0 0.0 -0.15243815 0.0 0.0
0.0 0.0 0.22493307 0.123642996 0.0 0.0 0.13515976 0.27706543
0.23141755 0.0 -0.17734519 0.0 0.13781516 0.0 0.0 -0.15646073
0.17045179 0.0 0.10311995 0.0 0.12441892 0.14530174 -0.35378724 0.14022684
0.13695842 0.13340391 0.0 -0.35520226 0.0 0.1315116 0.0 -0.15793774
-0.2501866 0.0 0.2656775 0.0 0.0 -0.15453935 0.23183905 -0.22743613
0.0 -0.1425754 -0.14991692 0.0 0.0 0.0 0.0 -0.14316413
0.0 0.0 0.0 0.0 0.0 0.0 0.0 0.0
0.0 0.0 0.0 0.0 0.0 0.0 -0.20212527 0.13272005

features.5.weight f4 [16]
00000000: c432 953f 9d37 cf3f f7cc e63f f1bd d33f
00000010: 3023 ca3f cbeb ba3f 0f57 9b3f 44ca 9d3f
00000020: 3876 c03f d13a ac3f 0c8e 9f3f d671 bc3f
00000030: dd83 b33f 5521 a73f e165 b13f b835 b33f
1.1656117 1.6188847 1.80313 1.654234 1.5791988 1.4603208 1.2135943 1.2327352
1.5036077 1.3455449 1.2465224 1.472224 1.4024616 1.3057047 1.3859216 1.4000769

features.5.bias f4 [16]
00000000: 7291 09be 9bda 40bf 73c2 fabe 5074 2cbe
00000010: c124 f8be 9f58 f9be 9156 3bbe da86 80be
00000020: 586f 1dbe bd81 0abe bb1b 793d 3013 dabe
00000030: 8545 c8be b47e a6be 283a afbe 8025 a9bd
-0.13434389 -0.75333565 -0.48976478 -0.16841245 -0.4846554 -0.48700425 -0.18294741 -0.25102884
-0.15374506 -0.13526054 0.06081746 -0.42592764 -0.3911554 -0.32518542 -0.34224057 -0.08259106

features.5.running_mean f4 [16]
00000000: df5e 40bf 4a7a 17bf 92f4 f7be 5951 cfbf
00000010: 4701 44bf 844d 58bf aaf0 ce3f 972d 203f
00000020: ee0d 85bf 8ec8 bdbc 15e6 d7be 7f7c 47bf
00000030: 11cc c2be 8ca3 8b3f 05a2 14bf 4740 edbf
-0.7514476 -0.59170973 -0.4842878 -1.61967 -0.7656445 -0.8449328 1.6167195 0.62569565
-1.0394876 -0.023166921 -0.42167726 -0.7792434 -0.38046315 1.0909286 -0.5805972 -1.8535241

features.5.running_var f4 [16]
00000000: 3876 3d3f d342 673f 2906 603f 96eb 0040
00000010: f2b4 d33f 0326 d73f 2661 853f 1286 853f
00000020: e387 623f 661a 5d3f efdc 843f a3f5 b33f
00000030: 55b2 5b3f e6a6 573f 8aee 1f3f ca52 c43f
0.7400851 0.9033634 0.875094 2.014379 1.6539595 1.6808475 1.0420272 1.043154
0.88488597 0.86368406 1.0379924 1.4059337 0.8581899 0.8423904 0.62473357 1.5337765

features.9.weight f4 [120, 400]
00000000: e024 503d dd1c e13d 0000 0000 3cfd 87bd
00000010: 0000 0000 0000 0000 0854 4e3d 0000 0000
00000020: 365b 1fbd 0000 0000 a770 1fbd 0000 0000
00000030: 0000 0000 0000 0000 0000 0000 443b aabd
00000040: 0000 0000 0000 0000 9c2b 2f3d f6a9 363d
00000050: 95f8 97bd 0000 0000 0000 0000 0b56 a23d
00000060: c653 dc3d 0000 0000 4610 cc3d d9f3 2d3d
00000070: fc44 9dbd 906f a4bd 0000 0000 517d d23c
00000080: 0000 0000 0000 0000 4cf1 31bd 0000 0000
00000090: 7bb3 0abd 0000 0000 0000 0000 2859 1cbd
000000a0: 2925 30bd 3179 63bd 0000 0000 4968 5a3d
000000b0: 0000 0000 0ecd 16bd fbf1 bdbd 0000 0000
000000c0: 5d17 e13d 3515 253d 368e 08bd 0000 0000
000000d0: 6a56 6e3d 0000 0000 0000 0000 4dd4 dbbd
000000e0: 405e 0c3d 3a11 d73d 0000 0000 4b2b 28bd
000000f0: 72fa d0bd 3966 9dbd 2891 bb3d cd00 d63c
00000100: 615e 93bd b3d9 98bd 9ace a0bd 0000 0000
00000110: 6f7d d63c d1eb 6abd 4997 12bd b650 8ebd
00000120: 7d81 d8bc 0000 0000 0000 0000 d74f b63d
00000130: 87c9 aebd a97c 08be e9af 573d 5fc4 3a3e
00000140: e00d 263d b3a5 18bd 9b4b a0bd 0000 0000
00000150: 2f98 043e 0000 0000 0000 0000 0000 0000
00000160: 0000 0000 ff9b 413d 0000 0000 81d9 583d
00000170: ae11 953d 094e fe3c 0000 0000 2c11 6bbd
00000180: 41fa 833d 3fe3 c63d 0000 0000 88b3 f1bc
00000190: da58 2fbd 0000 0000 0000 0000 42a9 893d
000001a0: 0000 0000 0000 0000 fcfe 4dbd 0000 0000
000001b0: 0000 0000 98f6 1b3d 0000 0000 d9a0 0fbd
000001c0: 0000 0000 0000 0000 0000 0000 0000 0000
000001d0: 65a5 79bd bdc6 71bd d8d9 44bd 3862 1cbd
000001e0: e61a 2c3d 0000 0000 a5d3 0cbd 0000 0000
000001f0: 0000 0000 0000 0000 0000 0000 9e39 de3d
00000200: 0000 0000 8e54 e1bd 0000 0000 0000 0000
00000210: b294 0d3d 0000 0000 32fd 90bd 55cc 18bd
00000220: 0000 0000 0000 0000 0000 0000 0000 0000
00000230: 0000 0000 0000 0000 0000 0000 0000 0000
00000240: 9524 bf3c e215 113d 0000 0000 9bb6 47bd
00000250: 0000 0000 0000 0000 0000 0000 0000 0000
00000260: a0ca 3d3d 0000 0000 dabc 88bd 2076 40bd
00000270: 81c1 94bd 0000 0000 0000 0000 e18d 1fbd
00000280: ad0f 07bd 8357 1bbd 0000 0000 0000 0000
00000290: 0000 0000 3b84 43bd 0000 0000 0000 0000
000002a0: 0000 0000 0000 0000 d86b 8fbd 0000 0000
000002b0: 0000 0000 154d 77bd 0000 0000 0000 0000
000002c0: 87c2 8b3d 0000 0000 0000 0000 4038 a9bd
000002d0: 0000 0000 4cec 103d 4528 21bd 0000 0000
000002e0: 0000 0000 0000 0000 0000 0000 0000 0000
000002f0: 0000 0000 0000 0000 0000 0000 0000 0000
00000300: a651 44bd e6f8 22bd 204b 11bd 7f5e ffbc
00000310: 0000 0000 5179 febc 1ae2 14bd 0000 0000
00000320: 0000 0000 0000 0000 0000 0000 d10d 353d
00000330: ecc4 723d 9c31 6dbd 0000 0000 b1e6 b2bd
00000340: 0000 0000 5f2c 0f3d 63c7 b4bd 0000 0000
00000350: 0000 0000 0000 0000 0000 0000 6612 6cbd
00000360: dea1 f8bc 0000 0000 d117 12bd 0000 0000
00000370: d1ec 383d 0000 0000 0000 0000 43c6 29bd
00000380: d2e8 5fbd 9ef9 873d 4659 063e 0000 0000
00000390: 1db3 c6bd c0a2 99bd cee6 2e3d 6bcb 803d
000003a0: 0000 0000 a688 40bd 4d4d 6fbd 0000 0000
000003b0: 0000 0000 0000 0000 0000 0000 0000 0000
000003c0: 9835 08bd 1416 25bd a192 56bd 0000 0000
000003d0: 4f79 813d bb7b 12bd 0000 0000 1db7 aabd
000003e0: 0000 0000 4841 a63d 613c dbbc 0000 0000
000003f0: 0000 0000 f63b 783d 8328 743d 0000 0000
0.050816417 0.10991833 0.0 -0.066400975 0.0 0.0 0.050373107 0.0
-0.038905345 0.0 -0.038925793 0.0 0.0 0.0 0.0 -0.08312085
0.0 0.0 0.0427662 0.04459568 -0.0742046 0.0 0.0 0.07926568
0.10758166 0.0 0.099640414 0.04246888 -0.07679173 -0.08029091 0.0 0.025694521
0.0 0.0 -0.04344301 0.0 -0.033862572 0.0 0.0 -0.038170964
-0.04300419 -0.0555355 0.0 0.05332211 0.0 -0.03681665 -0.0927467 0.0
0.10990784 0.040303428 -0.033338748 0.0 0.05818788 0.0 0.0 -0.107338525
0.03426957 0.105013326 0.0 -0.041056912 -0.10204019 -0.07685513 0.09158546 0.026123429
-0.07195736 -0.07463398 -0.07851906 0.0 0.026182858 -0.0573538 -0.035788808 -0.06948988
-0.026428932 0.0 0.0 0.08901947 -0.08534532 -0.13328804 0.052657995 0.18238972
0.040540576 -0.037267398 -0.078269206 0.0 0.12948678 0.0 0.0 0.0
0.0 0.04726791 0.0 0.052941803 0.07278763 0.03104307 0.0 -0.057389423
0.064442165 0.097113125 0.0 -0.029504552 -0.042809345 0.0 0.0 0.067217365
0.0 0.0 -0.050292 0.0 0.0 0.038076967 0.0 -0.035065506
0.0 0.0 0.0 0.0 -0.06094875 -0.059027422 -0.048059314 -0.038179606
0.04201784 0.0 -0.034381527 0.0 0.0 0.0 0.0 0.10850833
0.0 -0.11002456 0.0 0.0 0.034565635 0.0 -0.07079543 -0.03730424
0.0 0.0 0.0 0.0 0.0 0.0 0.0 0.0
0.023332873 0.03542126 0.0 -0.04875813 0.0 0.0 0.0 0.0
0.046335816 0.0 -0.066766456 -0.046987653 -0.072634704 0.0 0.0 -0.038953666
-0.032973934 -0.037925255 0.0 0.0 0.0 -0.047733527 0.0 0.0
0.0 0.0 -0.070029914 0.0 0.0 -0.060376246 0.0 0.0
0.068242125 0.0 0.0 -0.08262682 0.0 0.0353816 -0.039345045 0.0
0.0 0.0 0.0 0.0 0.0 0.0 0.0 0.0
-0.04792943 -0.03978815 -0.035472035 -0.031172989 0.0 -0.031063708 -0.03634844 0.0
0.0 0.0 0.0 0.04420263 0.05926983 -0.05790864 0.0 -0.08735407
0.0 0.034954425 -0.088270925 0.0 0.0 0.0 0.0 -0.057634734
-0.030350622 0.0 -0.035667244 0.0 0.04514772 0.0 0.0 -0.041448843
-0.054665394 0.066394076 0.13119993 0.0 -0.09702132 -0.07501745 0.04270058 0.06288799
0.0 -0.047005318 -0.05842333 0.0 0.0 0.0 0.0 0.0
-0.033254236 -0.04030426 -0.05238593 0.0 0.06321966 -0.03576253 0.0 -0.08335707
0.0 0.0811792 -0.02676219 0.0 0.0 0.06060406 0.059608947 0.0

features.9.bias f4 [120]
00000000: 650a c5bc 0115 8a3b 0cc1 853e c52a 663e
00000010: 5678 3abd 4054 2cbc 2ecf eb39 716b 8e3d
00000020: d4eb 283c 0ed9 23bc 2352 0fbc 181d e2bd
00000030: 4ca1 863c 1165 043c d9c7 c53d 3633 d03c
00000040: e29d dc3d ec5f 73bc e56c a3bd 3fc9 243d
00000050: 6eb1 903b 1390 ad3d f603 bdbc 8da6 4abd
00000060: 53bd 913d 36ad 25bd 05c7 883d 12bc b2bc
00000070: bb0b f13d 82f1 253d b598 673d c3d7 56bb
00000080: f4df 07bb 61dc 5a3a 97a5 c93c 8d3e a23b
00000090: 4915 bcbc 0d97 5fbc 7ae9 09bb a1f1 a03c
000000a0: 56fa 8a3c 6a4e dcbb 8233 213d 2a75 cabc
000000b0: 207c c13d 23cb 1f3d b1c9 b23c 0998 563d
000000c0: b25d c93c 50df 0d3e c5e8 8fba 6927 9cbc
000000d0: c4b8 c83d 783b 123d ae55 223c 2b98 4bbc
000000e0: bbea d73c 4691 2f3b d7c0 0c3d 6b92 7c3c
000000f0: 7b4c e4bc f7f6 16bc 3497 023d d35d 433c
00000100: a321 10bc 9cec debb 5c6c 0abc 9cb8 fa3c
00000110: e68e b2bd 8a2a 883d 1278 c83c 24c4 2fbd
00000120: 3c79 393d 2848 c6ba 5e1e de3b ef96 c13d
00000130: 890f bf3d 087f 1c3d b83f 2d3c 85b4 15bd
00000140: 29ce b6bc fce4 16bb 1ecc 7e3d 0e93 edbc
00000150: c94d 8cbc 14ef 05bd d587 ec3d 97f0 c23c
00000160: 33d8 b6bd 9b99 0a3e 464a 3bbb 4601 aa3c
00000170: fabb 87bd 0904 07bd 5bcb 963d 6cd3 173e
00000180: 5f0d 163d 5234 133e 9d8f 9d3c ff8c d43b
00000190: f4fd bcbb 70fe 91bd b5c1 da3b 3d53 9b3c
000001a0: 0cee b03d b725 9b3c 9c4c 663c 262b 413e
000001b0: 6023 203d 6c37 a83d 1e9b 8d3c 2949 3b3d
000001c0: 53b0 a63d 3cc5 0fbd 51b8 6fbd 38ad 82bb
000001d0: 5469 3abd ba4e 313c 48a8 e7bc 8561 83bd
-0.024052808 0.0042139296 0.26123846 0.22477253 -0.045524918 -0.010518134 0.00044977054 0.069540866
0.010310132 -0.01000048 -0.00874761 -0.110407054 0.016434334 0.008080737 0.096572585 0.025415044
0.10772301 -0.0148544125 -0.07979754 0.040230986 0.0044156825 0.084747456 -0.023073178 -0.04947524
0.07116189 -0.04044839 0.06678585 -0.021818195 0.117698155 0.040513523 0.056542117 -0.0032782413
-0.0020732852 0.0008348879 0.024615092 0.0049513043 -0.022959368 -0.013646853 -0.0021043704 0.019646468
0.016965073 -0.006723215 0.039355762 -0.024714071 0.09447503 0.039012086 0.02182469 0.052391086
0.02458081 0.13854718 -0.0010979405 -0.019061761 0.09800866 0.035701245 0.009908123 -0.012426416
0.026357045 0.002678947 0.034363594 0.015415768 -0.0278685 -0.009214154 0.03188248 0.011924225
-0.008797082 -0.0068031084 -0.008448686 0.030605607 -0.08718662 0.06648739 0.024471316 -0.042911664
0.045281634 -0.0015127705 0.0067785224 0.094526164 0.09329135 0.038207084 0.010574274 -0.03654911
-0.022315102 -0.002302467 0.06220638 -0.029000785 -0.017126935 -0.032698706 0.115493454 0.023796363
-0.089279555 0.13535158 -0.0028578206 0.02075256 -0.066276506 -0.032962833 0.07363006 0.14826745
0.036633845 0.14375427 0.01923352 0.0064865346 -0.0057675783 -0.07128608 0.0066759237 0.01896059
0.08639154 0.018938882 0.014056351 0.18864116 0.039096236 0.08213696 0.01728588 0.045724068
0.081391 -0.035100207 -0.058525387 -0.0039879344 -0.045510605 0.0108219925 -0.028278485 -0.06415085

features.11.weight f4 [84, 120]
00000000: 0cfd cd3d bb82 0b3e fecb ac3d a6ca 2f3e
00000010: 0000 0000 9836 183d 2577 c53d 76de eebd
00000020: 0000 0000 f768 2bbe 836a 91bd adff 843e
00000030: fd59 253e 9551 453d 0000 0000 0000 0000
00000040: 95a4 bb3d 65da 4ebd ef33 a23d e4fd d13d
00000050: ac6d eb3d 585e 20bd 8cbd 0d3d 273b 5e3d
00000060: c551 49be 0000 0000 0000 0000 0000 0000
00000070: 31e4 3b3e 0000 0000 0000 0000 bec4 1a3d
00000080: 0000 0000 333e 1abd 57ee 9e3d 8b46 5d3d
00000090: ecd9 27bd ad30 51bd 0000 0000 72d8 51bd
000000a0: 0000 0000 46d6 30bd 0000 0000 0000 0000
000000b0: 0000 0000 e935 013d e653 103d da44 183e
000000c0: f2bc 5b3e 693f 97bd 988e a9bd 4195 ca3d
000000d0: b468 d3bd 0000 0000 d655 803d 0000 0000
000000e0: 21d8 a93d 8569 2d3d 0000 0000 0000 0000
000000f0: 0fb5 c33d 0000 0000 9022 4b3d 0000 0000
00000100: 9c81 933d db61 15be 8ccf d23d 0d53 5cbd
00000110: 2526 f0bd 0000 0000 9927 93bd 0000 0000
00000120: a291 083d 0000 0000 ada2 fc3c 52d1 ec3d
00000130: 0000 0000 97b5 253e 4ebb d4bd 0000 0000
00000140: 212f 03be 0000 0000 841b 8a3d 693b 333e
00000150: 13eb 423e 5ce9 ddbd 91ca 1e3e 6d57 04be
00000160: 0000 0000 48e4 a4bd 0b30 273d 6417 ae3d
00000170: 9659 32be 1b82 233d 0000 0000 0000 0000
00000180: 43a7 d23d f6e1 3cbe 0000 0000 7635 543d
00000190: e095 793d e96b 263e 1bac 14be cd73 bebd
000001a0: 0000 0000 3bf7 833d 0000 0000 0000 0000
000001b0: e645 00bd ad09 31be 4d31 74bd baf8 f83d
000001c0: 360c 05be ccdb 083e e545 16bd 0000 0000
000001d0: 751a 403d 3423 27bd 3668 73bd b141 babd
000001e0: 0000 0000 51a3 7cbd 0000 0000 0000 0000
000001f0: 477f 31bd 0000 0000 c838 fcbc 0000 0000
00000200: 0000 0000 0000 0000 0000 0000 0000 0000
00000210: 0000 0000 0000 0000 6e54 5c3d 53c8 14bd
00000220: 0000 0000 0000 0000 0000 0000 0000 0000
00000230: 7679 fd3c d008 913d 0000 0000 0000 0000
00000240: 0000 0000 3955 07bd 0000 0000 0000 0000
00000250: 19d4 1bbd d3ca 293d 0000 0000 d8ea f0bc
00000260: 0000 0000 0000 0000 2394 02bd 0000 0000
00000270: 0000 0000 0000 0000 0000 0000 0000 0000
00000280: 0000 0000 0000 0000 0000 0000 0000 0000
00000290: 0000 0000 bc78 3fbd 0000 0000 0000 0000
000002a0: 0000 0000 00ea 123d 0000 0000 0000 0000
000002b0: 5d23 6b3d 0000 0000 0000 0000 0000 0000
000002c0: daa1 57bd 0000 0000 0000 0000 0000 0000
000002d0: 0000 0000 0000 0000 0000 0000 0000 0000
000002e0: 0000 0000 0000 0000 0000 0000 0000 0000
000002f0: 0000 0000 0bf6 0abd 0000 0000 0000 0000
00000300: 0000 0000 0000 0000 0000 0000 7aec 5e3d
00000310: 0000 0000 0000 0000 b1ea 24bd 0000 0000
00000320: 63d0 15bd 0000 0000 0000 0000 0000 0000
00000330: c537 10bd 0000 0000 0000 0000 0000 0000
00000340: 0000 0000 2d16 a03d 0000 0000 0000 0000
00000350: 54bf 0abd 0000 0000 0000 0000 8c6e 023d
00000360: 0000 0000 0000 0000 0000 0000 0000 0000
00000370: 0000 0000 57c4 21bd 0000 0000 25dc 473d
00000380: 0000 0000 0000 0000 0000 0000 83a4 273d
00000390: 0000 0000 0000 0000 0000 0000 0000 0000
000003a0: 0000 0000 f655 0fbd 37fc 50bd 0000 0000
000003b0: 0000 0000 0000 0000 0000 0000 0000 0000
000003c0: 0000 0000 0cc9 d53d 0000 0000 0049 073e
000003d0: 0bbf 96bd 0000 0000 6541 43bd 0000 0000
000003e0: 0000 0000 b7fe 25bd cd27 4cbd 6806 483d
000003f0: 0000 0000 0000 0000 1c70 ca3d 877e 51bd
0.100580305 0.13624088 0.08437346 0.17167148 0.0 0.03716144 0.09641866 -0.11663525
0.0 -0.1673926 -0.071003936 0.25976315 0.16147609 0.048173506 0.0 0.0
0.09162251 -0.050501246 0.07920062 0.10253504 0.114955276 -0.039152473 0.034604594 0.05425563
-0.19660099 0.0 0.0 0.0 0.18348767 0.0 0.0 0.037785284
0.0 -0.037656974 0.077603035 0.054022353 -0.04097931 -0.05107181 0.0 -0.05123181
0.0 -0.043173097 0.0 0.0 0.0 0.031545553 0.03523626 0.14870015
0.21458796 -0.073851414 -0.08279151 0.09891749 -0.10322705 0.0 0.06266372 0.0
0.082931764 0.04233696 0.0 0.0 0.095560186 0.0 0.04959351 0.0
0.072024554 -0.1458811 0.10293493 -0.05379014 -0.117260255 0.0 -0.07185287 0.0
0.03334201 0.0 0.030839289 0.11563362 0.0 0.16182552 -0.10387288 0.0
-0.12810947 0.0 0.067435294 0.17503132 0.19034986 -0.108355254 0.1550696 -0.12923975
0.0 -0.08051354 0.0408173 0.08500555 -0.17416987 0.039919 0.0 0.0
0.10285809 -0.18445572 0.0 0.051808797 0.060933948 0.16252102 -0.14518778 -0.09299431
0.0 0.0644364 0.0 0.0 -0.03131666 -0.17288847 -0.05961733 0.12156816
-0.1299294 0.13365096 -0.03668775 0.0 0.04690023 -0.040805057 -0.059425555 -0.09094561
0.0 -0.06167919 0.0 0.0 -0.04333427 0.0 -0.030788794 0.0
0.0 0.0 0.0 0.0 0.0 0.0 0.053791456 -0.036323857
0.0 0.0 0.0 0.0 0.030941706 0.07081759 0.0 0.0
0.0 -0.03304026 0.0 0.0 -0.03804407 0.041453194 0.0 -0.029408857
0.0 0.0 -0.031879555 0.0 0.0 0.0 0.0 0.0
0.0 0.0 0.0 0.0 0.0 -0.046746 0.0 0.0
0.0 0.03586769 0.0 0.0 0.057406772 0.0 0.0 0.0
-0.052644588 0.0 0.0 0.0 0.0 0.0 0.0 0.0
0.0 0.0 0.0 0.0 0.0 -0.03392605 0.0 0.0
0.0 0.0 0.0 0.05442474 0.0 0.0 -0.04026288 0.0
-0.036575686 0.0 0.0 0.0 -0.035209436 0.0 0.0 0.0
0.0 0.0781673 0.0 0.0 -0.03387387 0.0 0.0 0.031843707
0.0 0.0 0.0 0.0 0.0 -0.039493885 0.0 0.04879393
0.0 0.0 0.0 0.040928375 0.0 0.0 0.0 0.0
0.0 -0.034994088 -0.05102178 0.0 0.0 0.0 0.0 0.0
0.0 0.10438737 0.0 0.13211441 -0.07360657 0.0 -0.047669787 0.0
0.0 -0.040526118 -0.049842644 0.048834234 0.0 0.0 0.098846644 -0.051146057

features.11.bias f4 [84]
00000000: 4aab 893e 9084 9f3d 7d2a 3e3e 895a 9e3e
00000010: 1f3e cdbd 7236 9a3d 8ccf dc3d 43c7 b53c
00000020: 4b3e b03d afab f83d 707b 863d 6cf5 8eba
00000030: 8416 473d 2d92 4f3e de70 cf3c d06b 7c3c
00000040: 774c 23bd e8fa 193e 38d6 733a fc1f 683e
00000050: d0db ee3c ca62 8e3d c678 143e a729 f93d
00000060: eb4c c6bb cad8 6cbd 0bda 5c3e cb91 673e
00000070: 0378 5f3e b9d0 a839 4c5c 8bbd 6938 e23c
00000080: 0364 b13b 20d5 c13b 216c 9abc 060c 81bb
00000090: 03d6 cf3d ab4c 2bbb 227c edb8 a8c2 013e
000000a0: a9d1 5fbb 1493 84bb 75b5 c53d f05c 3c3d
000000b0: 2125 4dbd 685a 1b3e 470f f73d 3fc2 a83c
000000c0: ea00 7a3d 50e2 45bd 1e1c 693b ebe2 b5bb
000000d0: bf18 3a3e da54 123e dc22 963e 8c0a 823e
000000e0: 2078 703e a0a9 a13b d783 e03c 6e22 d43c
000000f0: d2b7 993b 111a 873c 4e17 393e d883 853e
00000100: c3e7 973d 2672 7c3e e7c9 a33e 8226 c43d
00000110: bef8 c43e 10c7 293a 55ee 063c c684 bdbc
00000120: 2ff2 faba 41ef f93c 49b4 37bb c012 213e
00000130: 029f eabc a189 163d c811 c23d 58a1 2c3e
00000140: b273 3cbb 2aa7 6f3d cb13 4a3e 9989 c03c
0.26888496 0.07788956 0.18570895 0.30928448 -0.10021614 0.07529916 0.10781774 0.022189742
0.086056314 0.12142121 0.065665126 -0.0010906882 0.048605457 0.20270605 0.025322374 0.015406564
-0.039867844 0.1503712 0.00093016354 0.22668451 0.02915755 0.06952436 0.14499196 0.12166148
-0.00605165 -0.057823934 0.21567552 0.2261421 0.21823125 0.00032198968 -0.068047136 0.02761479
0.0054135337 0.005915299 -0.018850388 -0.003938201 0.10148241 -0.0026138227 -0.00011324162 0.12671912
-0.0034152067 -0.0040458534 0.09653751 0.04598707 -0.050084237 0.15171206 0.12063461 0.020600436
0.061036028 -0.04831153 0.0035569738 -0.0055507324 0.18173502 0.14290181 0.2932347 0.25398672
0.23483324 0.004933551 0.027406616 0.025895324 0.0046911025 0.016491922 0.18075296 0.2607715
0.07417252 0.24652919 0.31989977 0.09577657 0.38471025 0.0006476501 0.008235534 -0.0231346
-0.0019145663 0.030509593 -0.0028031042 0.15729809 -0.028640274 0.036752347 0.09476048 0.16858423
-0.0028755483 0.05850903 0.19734113 0.023503112

classifiers.0.weight f4 [5, 84]
00000000: 874d 453f 22f5 c3bd 1b3d e93d 925e 543e
00000010: ce92 08be 71fd 3abe a239 98be 3412 933e
00000020: b475 90be f265 e93e 999f f8bc f22e 253c
00000030: bae2 df3d d1cd e8be d07d d8bd d96b eabc
00000040: 1ca6 833d d76e 0f3d 0eb2 213e 703e 14bf
00000050: 4e2e 86bd 88ff 9bbd 54b8 05be 576a 5ebe
00000060: 357f 01bb e0b9 f8be dcda 02bf d68e 64bd
00000070: fe36 983e 4976 6e3c 8490 883e 4a0b 1abe
00000080: 54f3 54bc 45fe 49be 2970 1a3e c300 753a
00000090: 1b5a 77be 5984 593a 49c1 aa3a 4a4f cbbc
000000a0: 4daa 533e d84b 8cbc 5668 f2be 187c a4be
000000b0: 6f75 ddbd 52fb fdbd ff11 d1be 13ad 58bb
000000c0: 3523 e63e 6942 febc e74c c9bc 57ed e5b9
000000d0: 318a 78be 4bb8 f53b ef2a 923d 287c f63c
000000e0: a850 fc3d 68d6 e43e 678f 61bc adcb ea3b
000000f0: ade3 703e 0bf0 ef3e af0a f43c bd99 383e
00000100: 9d39 1e3c 55b1 533e 80f8 2b3e ee05 59be
00000110: d20a a0be fe76 fbbb 5f77 84bc 0389 663e
00000120: 643e b43c 599a 193c 8020 923a 9ba4 f2be
00000130: b25a cfbe 705f 4c3e b0ee bdbd 45d4 523f
00000140: 007f 6eba cdd5 59be ffff 8ebe 8c0a bc3c
00000150: 9b34 c1be b732 febc 0521 06bf 7c35 cfbe
00000160: c6ce 0fbb 7456 1dbc da4f 2f3c b28d 27bd
00000170: 7894 2e3e cb45 a03d 3190 233e c5ab 2fbc
00000180: 4ffc bfbe 2031 bf3e f7a3 073e c177 db3c
00000190: 133c bfbe a6e6 b6be 3b2e 70bd 20d2 463e
000001a0: ef51 25bd 6202 12bd 4ca5 ed3e 33fa 033f
000001b0: 789e d03a e97f 573d b67f d03e 54dd 2fbe
000001c0: e945 9abd 5987 743c 806b 9bbe 47bc ea3c
000001d0: cc5e a8bc 50c3 c0be 468d edbd 9f82 e5bc
000001e0: 3840 2d3c 7358 42bc f508 a63c aa83 c0bd
000001f0: 2673 41be cb08 abb9 f2fb 87be ad59 57bd
00000200: 29aa febd e1be 9f3d ab30 263f 4aa9 0c3d
00000210: cd49 fdbd fcfe 103c 9c0f a63c 14ed 7dbc
00000220: dbaa aebd 8d58 acbe 440d 7ebe 43cb e4bd
00000230: 5183 50bb 482c b23d 4615 1a3e f910 943d
00000240: c45c 4dbe 0bcf 09be 5a33 55be 60d4 efbd
00000250: cb56 38be be4e 6cbd c09e 97be b9d6 2b3e
00000260: 8aae 043f edce 9bbc 4d14 243d 91de 88be
00000270: 743e 993b 5862 963d 1c2b 203c dd19 9f3d
00000280: a5bf 193c c700 7c3d 0c6e 2d3e a949 973a
00000290: 3b6a 69bc ea4e 4f3b f3bd 583d 4fe5 163e
000002a0: c0c1 d13d 49e5 493e dead b83e 17eb e93e
000002b0: f8c7 8fbe b1d5 a53d eab2 313d 13c0 82be
000002c0: 35d3 ebbe 9e5f a2bc ddeb 693d 2ec0 b73b
000002d0: 5154 153c 2cb1 713e 01c9 10be c040 50bc
000002e0: fb24 c9bc 4011 913e c60b 47be 4428 163e
000002f0: 887e 183d 17fa 3d3e 1591 4b3d 7ee1 b8be
00000300: 3617 f0bb d415 9abd 3e9f e43d a921 c23e
00000310: 3280 793e ea99 1fbc ff43 a3be aa72 9cbe
00000320: e712 a93c 9615 563e 8f33 92be a7d8 acbb
00000330: 4020 5cbe f771 5a3b 5349 5bbc d5f6 873e
00000340: 67f8 acbd c0c9 513b 13f9 063e 0748 93be
00000350: fc5f 6fbe b998 043e bd96 dcbe b64d 763c
00000360: f30e 153b de11 67be d2f9 8fbc c8aa 7dbb
00000370: f21f b03e 8fe0 853e 8e0c 033f 560b d83e
00000380: 0568 9e3e 0bb2 28bf 1340 91be b50c efbc
00000390: 1666 03bf 1ed1 09bf affb a93e aa8c b83e
000003a0: 7cfc 2a3e 610a a13e 3b02 033f fe0c 3e3e
000003b0: a582 8c3e 1ea2 18bc e926 043d 0cbd 2cbe
000003c0: a775 c4bc 6637 e73b 9306 613c 7762 f83d
000003d0: a101 d53c 0b66 9abd 96da 0a3e 1e49 b8bc
000003e0: 7431 c5bc 926e 263e cb7e ca3e 93a4 3ebe
000003f0: fc33 a7bc 6234 60bd 311b 183c 572d 72bd
0.7707142 -0.0956824 0.11388608 0.207392 -0.13337252 -0.18260743 -0.2973147 0.28724825
-0.282148 0.4558559 -0.03034954 0.010081993 0.109319165 -0.45469525 -0.10570872 -0.028615879
0.06428167 0.035017814 0.15790579 -0.5790777 -0.06551801 -0.07617098 -0.13058597 -0.21720253
-0.001975966 -0.4857931 -0.511152 -0.05580028 0.29729456 0.014554569 0.26672757 -0.15043369
-0.012997467 -0.19725902 0.15081848 0.0009346122 -0.24155466 0.00082976144 0.0013027574 -0.024818081
0.20670433 -0.017126009 -0.47345227 -0.32125926 -0.10813414 -0.12401451 -0.40834042 -0.0033062145
0.44948736 -0.031037526 -0.024572803 -0.00043855116 -0.24271466 0.007498776 0.07137095 0.0300885
0.123200715 0.4469483 -0.0137671 0.0071653933 0.23524351 0.46862826 0.02979025 0.18027397
0.009657291 0.20673116 0.16794014 -0.21193668 -0.31258255 -0.007674097 -0.016170202 0.22513203
0.022002406 0.009375178 0.0011148602 -0.4739121 -0.40498883 0.19958282 -0.09274042 0.8235515
-0.0009097904 -0.21272965 -0.27929685 0.022954248 -0.37735447 -0.031030042 -0.52394134 -0.40470493
-0.0021943315 -0.009603132 0.01070019 -0.040906616 0.17048824 0.07825812 0.15972973 -0.010722105
-0.37497184 0.37342167 0.13246141 0.026790502 -0.3735052 -0.35722846 -0.05863784 0.19416094
-0.04036134 -0.035646804 0.46415174 0.5155365 0.0015916368 0.05261222 0.40722436 -0.17174274
-0.075328656 0.0149248475 -0.30355453 0.02865423 -0.020553015 -0.37649012 -0.115992114 -0.028016387
0.010574393 -0.011861908 0.020267943 -0.09400113 -0.18891582 -0.00032622213 -0.26559407 -0.052575756
-0.12434799 0.07800079 0.6491801 0.034341134 -0.12367592 0.0088498555 0.020271115 -0.015498418
-0.08528682 -0.3366131 -0.24809748 -0.111715816 -0.0031816552 0.08699852 0.15047178 0.072298
-0.20054919 -0.13457887 -0.2082037 -0.11710429 -0.18001859 -0.057692282 -0.29613304 0.16781129
0.51828825 -0.019019568 0.040058423 -0.26732305 0.0046766344 0.07342976 0.009775903 0.07768605
0.0093840705 0.06152418 0.16936511 0.0011542338 -0.014246519 0.003163273 0.052915525 0.14735912
0.10242033 0.19716372 0.3607015 0.45687172 -0.28082252 0.08097399 0.043383516 -0.25537166
-0.46059576 -0.019820984 0.057109702 0.0056076264 0.009114341 0.23602742 -0.14139177 -0.01271075
-0.024553766 0.28333473 -0.19438085 0.14663798 0.037230045 0.18552433 0.049698908 -0.36109537
-0.0073269857 -0.07523695 0.111631855 0.37916306 0.24365309 -0.009741286 -0.31887814 -0.30556232
0.020638896 0.20906672 -0.2855496 -0.0052748504 -0.21496677 0.0033332088 -0.013384181 0.26555505
-0.084458165 0.0032011122 0.13180952 -0.2876589 -0.23376459 0.12948884 -0.43083754 0.015033176
0.0022744506 -0.2256541 -0.017575178 -0.003870653 0.34399372 0.26147887 0.5119103 0.4219615
0.30938736 -0.6589667 -0.28369197 -0.029180864 -0.51327646 -0.5383471 0.33199832 0.36044818
0.16697878 0.3145323 0.5117528 0.18559644 0.27443424 -0.0093159955 0.03226367 -0.1686899
-0.023981882 0.0070561646 0.013734478 0.12128156 0.026001753 -0.075389944 0.13559946 -0.022495802
-0.024071433 0.16253117 0.3954986 -0.18617468 -0.02041053 -0.054737456 0.009283827 -0.05912527

classifiers.0.bias f4 [5]
00000000: 4580 f6be 3b47 803f 00cb 573f 7787 65bf
00000010: ff23 efbe
-0.48144737 1.0021738 0.8429413 -0.8965983 -0.4670715

classifier.weight f4 [5, 84]
00000000: 874d 453f 22f5 c3bd 1b3d e93d 925e 543e
00000010: ce92 08be 71fd 3abe a239 98be 3412 933e
00000020: b475 90be f265 e93e 999f f8bc f22e 253c
00000030: bae2 df3d d1cd e8be d07d d8bd d96b eabc
00000040: 1ca6 833d d76e 0f3d 0eb2 213e 703e 14bf
00000050: 4e2e 86bd 88ff 9bbd 54b8 05be 576a 5ebe
00000060: 357f 01bb e0b9 f8be dcda 02bf d68e 64bd
00000070: fe36 983e 4976 6e3c 8490 883e 4a0b 1abe
00000080: 54f3 54bc 45fe 49be 2970 1a3e c300 753a
00000090: 1b5a 77be 5984 593a 49c1 aa3a 4a4f cbbc
000000a0: 4daa 533e d84b 8cbc 5668 f2be 187c a4be
000000b0: 6f75 ddbd 52fb fdbd ff11 d1be 13ad 58bb
000000c0: 3523 e63e 6942 febc e74c c9bc 57ed e5b9
000000d0: 318a 78be 4bb8 f53b ef2a 923d 287c f63c
000000e0: a850 fc3d 68d6 e43e 678f 61bc adcb ea3b
000000f0: ade3 703e 0bf0 ef3e af0a f43c bd99 383e
00000100: 9d39 1e3c 55b1 533e 80f8 2b3e ee05 59be
00000110: d20a a0be fe76 fbbb 5f77 84bc 0389 663e
00000120: 643e b43c 599a 193c 8020 923a 9ba4 f2be
00000130: b25a cfbe 705f 4c3e b0ee bdbd 45d4 523f
00000140: 007f 6eba cdd5 59be ffff 8ebe 8c0a bc3c
00000150: 9b34 c1be b732 febc 0521 06bf 7c35 cfbe
00000160: c6ce 0fbb 7456 1dbc da4f 2f3c b28d 27bd
00000170: 7894 2e3e cb45 a03d 3190 233e c5ab 2fbc
00000180: 4ffc bfbe 2031 bf3e f7a3 073e c177 db3c
00000190: 133c bfbe a6e6 b6be 3b2e 70bd 20d2 463e
000001a0: ef51 25bd 6202 12bd 4ca5 ed3e 33fa 033f
000001b0: 789e d03a e97f 573d b67f d03e 54dd 2fbe
000001c0: e945 9abd 5987 743c 806b 9bbe 47bc ea3c
000001d0: cc5e a8bc 50c3 c0be 468d edbd 9f82 e5bc
000001e0: 3840 2d3c 7358 42bc f508 a63c aa83 c0bd
000001f0: 2673 41be cb08 abb9 f2fb 87be ad59 57bd
00000200: 29aa febd e1be 9f3d ab30 263f 4aa9 0c3d
00000210: cd49 fdbd fcfe 103c 9c0f a63c 14ed 7dbc
00000220: dbaa aebd 8d58 acbe 440d 7ebe 43cb e4bd
00000230: 5183 50bb 482c b23d 4615 1a3e f910 943d
00000240: c45c 4dbe 0bcf 09be 5a33 55be 60d4 efbd
00000250: cb56 38be be4e 6cbd c09e 97be b9d6 2b3e
00000260: 8aae 043f edce 9bbc 4d14 243d 91de 88be
00000270: 743e 993b 5862 963d 1c2b 203c dd19 9f3d
00000280: a5bf 193c c700 7c3d 0c6e 2d3e a949 973a
00000290: 3b6a 69bc ea4e 4f3b f3bd 583d 4fe5 163e
000002a0: c0c1 d13d 49e5 493e dead b83e 17eb e93e
000002b0: f8c7 8fbe b1d5 a53d eab2 313d 13c0 82be
000002c0: 35d3 ebbe 9e5f a2bc ddeb 693d 2ec0 b73b
000002d0: 5154 153c 2cb1 713e 01c9 10be c040 50bc
000002e0: fb24 c9bc 4011 913e c60b 47be 4428 163e
000002f0: 887e 183d 17fa 3d3e 1591 4b3d 7ee1 b8be
00000300: 3617 f0bb d415 9abd 3e9f e43d a921 c23e
00000310: 3280 793e ea99 1fbc ff43 a3be aa72 9cbe
00000320: e712 a93c 9615 563e 8f33 92be a7d8 acbb
00000330: 4020 5cbe f771 5a3b 5349 5bbc d5f6 873e
00000340: 67f8 acbd c0c9 513b 13f9 063e 0748 93be
00000350: fc5f 6fbe b998 043e bd96 dcbe b64d 763c
00000360: f30e 153b de11 67be d2f9 8fbc c8aa 7dbb
00000370: f21f b03e 8fe0 853e 8e0c 033f 560b d83e
00000380: 0568 9e3e 0bb2 28bf 1340 91be b50c efbc
00000390: 1666 03bf 1ed1 09bf affb a93e aa8c b83e
000003a0: 7cfc 2a3e 610a a13e 3b02 033f fe0c 3e3e
000003b0: a582 8c3e 1ea2 18bc e926 043d 0cbd 2cbe
000003c0: a775 c4bc 6637 e73b 9306 613c 7762 f83d
000003d0: a101 d53c 0b66 9abd 96da 0a3e 1e49 b8bc
000003e0: 7431 c5bc 926e 263e cb7e ca3e 93a4 3ebe
000003f0: fc33 a7bc 6234 60bd 311b 183c 572d 72bd
0.7707142 -0.0956824 0.11388608 0.207392 -0.13337252 -0.18260743 -0.2973147 0.28724825
-0.282148 0.4558559 -0.03034954 0.010081993 0.109319165 -0.45469525 -0.10570872 -0.028615879
0.06428167 0.035017814 0.15790579 -0.5790777 -0.06551801 -0.07617098 -0.13058597 -0.21720253
-0.001975966 -0.4857931 -0.511152 -0.05580028 0.29729456 0.014554569 0.26672757 -0.15043369
-0.012997467 -0.19725902 0.15081848 0.0009346122 -0.24155466 0.00082976144 0.0013027574 -0.024818081
0.20670433 -0.017126009 -0.47345227 -0.32125926 -0.10813414 -0.12401451 -0.40834042 -0.0033062145
0.44948736 -0.031037526 -0.024572803 -0.00043855116 -0.24271466 0.007498776 0.07137095 0.0300885
0.123200715 0.4469483 -0.0137671 0.0071653933 0.23524351 0.46862826 0.02979025 0.18027397
0.009657291 0.20673116 0.16794014 -0.21193668 -0.31258255 -0.007674097 -0.016170202 0.22513203
0.022002406 0.009375178 0.0011148602 -0.4739121 -0.40498883 0.19958282 -0.09274042 0.8235515
-0.0009097904 -0.21272965 -0.27929685 0.022954248 -0.37735447 -0.031030042 -0.52394134 -0.40470493
-0.0021943315 -0.009603132 0.01070019 -0.040906616 0.17048824 0.07825812 0.15972973 -0.010722105
-0.37497184 0.37342167 0.13246141 0.026790502 -0.3735052 -0.35722846 -0.05863784 0.19416094
-0.04036134 -0.035646804 0.46415174 0.5155365 0.0015916368 0.05261222 0.40722436 -0.17174274
-0.075328656 0.0149248475 -0.30355453 0.02865423 -0.020553015 -0.37649012 -0.115992114 -0.028016387
0.010574393 -0.011861908 0.020267943 -0.09400113 -0.18891582 -0.00032622213 -0.26559407 -0.052575756
-0.12434799 0.07800079 0.6491801 0.034341134 -0.12367592 0.0088498555 0.020271115 -0.015498418
-0.08528682 -0.3366131 -0.24809748 -0.111715816 -0.0031816552 0.08699852 0.15047178 0.072298
-0.20054919 -0.13457887 -0.2082037 -0.11710429 -0.18001859 -0.057692282 -0.29613304 0.16781129
0.51828825 -0.019019568 0.040058423 -0.26732305 0.0046766344 0.07342976 0.009775903 0.07768605
0.0093840705 0.06152418 0.16936511 0.0011542338 -0.014246519 0.003163273 0.052915525 0.14735912
0.10242033 0.19716372 0.3607015 0.45687172 -0.28082252 0.08097399 0.043383516 -0.25537166
-0.46059576 -0.019820984 0.057109702 0.0056076264 0.009114341 0.23602742 -0.14139177 -0.01271075
-0.024553766 0.28333473 -0.19438085 0.14663798 0.037230045 0.18552433 0.049698908 -0.36109537
-0.0073269857 -0.07523695 0.111631855 0.37916306 0.24365309 -0.009741286 -0.31887814 -0.30556232
0.020638896 0.20906672 -0.2855496 -0.0052748504 -0.21496677 0.0033332088 -0.013384181 0.26555505
-0.084458165 0.0032011122 0.13180952 -0.2876589 -0.23376459 0.12948884 -0.43083754 0.015033176
0.0022744506 -0.2256541 -0.017575178 -0.003870653 0.34399372 0.26147887 0.5119103 0.4219615
0.30938736 -0.6589667 -0.28369197 -0.029180864 -0.51327646 -0.5383471 0.33199832 0.36044818
0.16697878 0.3145323 0.5117528 0.18559644 0.27443424 -0.0093159955 0.03226367 -0.1686899
-0.023981882 0.0070561646 0.013734478 0.12128156 0.026001753 -0.075389944 0.13559946 -0.022495802
-0.024071433 0.16253117 0.3954986 -0.18617468 -0.02041053 -0.054737456 0.009283827 -0.05912527

classifier.bias f4 [5]
00000000: 4580 f6be 3b47 803f 00cb 573f 7787 65bf
00000010: ff23 efbe
-0.48144737 1.0021738 0.8429413 -0.8965983 -0.4670715

features.9 f4 [120]
00000000: 650a c5bc 0115 8a3b 0cc1 853e c52a 663e
00000010: 5678 3abd 4054 2cbc 2ecf eb39 716b 8e3d
00000020: d4eb 283c 0ed9 23bc 2352 0fbc 181d e2bd
00000030: 4ca1 863c 1165 043c d9c7 c53d 3633 d03c
00000040: e29d dc3d ec5f 73bc e56c a3bd 3fc9 243d
00000050: 6eb1 903b 1390 ad3d f603 bdbc 8da6 4abd
00000060: 53bd 913d 36ad 25bd 05c7 883d 12bc b2bc
00000070: bb0b f13d 82f1 253d b598 673d c3d7 56bb
00000080: f4df 07bb 61dc 5a3a 97a5 c93c 8d3e a23b
00000090: 4915 bcbc 0d97 5fbc 7ae9 09bb a1f1 a03c
000000a0: 56fa 8a3c 6a4e dcbb 8233 213d 2a75 cabc
000000b0: 207c c13d 23cb 1f3d b1c9 b23c 0998 563d
000000c0: b25d c93c 50df 0d3e c5e8 8fba 6927 9cbc
000000d0: c4b8 c83d 783b 123d ae55 223c 2b98 4bbc
000000e0: bbea d73c 4691 2f3b d7c0 0c3d 6b92 7c3c
000000f0: 7b4c e4bc f7f6 16bc 3497 023d d35d 433c
00000100: a321 10bc 9cec debb 5c6c 0abc 9cb8 fa3c
00000110: e68e b2bd 8a2a 883d 1278 c83c 24c4 2fbd
00000120: 3c79 393d 2848 c6ba 5e1e de3b ef96 c13d
00000130: 890f bf3d 087f 1c3d b83f 2d3c 85b4 15bd
00000140: 29ce b6bc fce4 16bb 1ecc 7e3d 0e93 edbc
00000150: c94d 8cbc 14ef 05bd d587 ec3d 97f0 c23c
00000160: 33d8 b6bd 9b99 0a3e 464a 3bbb 4601 aa3c
00000170: fabb 87bd 0904 07bd 5bcb 963d 6cd3 173e
00000180: 5f0d 163d 5234 133e 9d8f 9d3c ff8c d43b
00000190: f4fd bcbb 70fe 91bd b5c1 da3b 3d53 9b3c
000001a0: 0cee b03d b725 9b3c 9c4c 663c 262b 413e
000001b0: 6023 203d 6c37 a83d 1e9b 8d3c 2949 3b3d
000001c0: 53b0 a63d 3cc5 0fbd 51b8 6fbd 38ad 82bb
000001d0: 5469 3abd ba4e 313c 48a8 e7bc 8561 83bd
-0.024052808 0.0042139296 0.26123846 0.22477253 -0.045524918 -0.010518134 0.00044977054 0.069540866
0.010310132 -0.01000048 -0.00874761 -0.110407054 0.016434334 0.008080737 0.096572585 0.025415044
0.10772301 -0.0148544125 -0.07979754 0.040230986 0.0044156825 0.084747456 -0.023073178 -0.04947524
0.07116189 -0.04044839 0.06678585 -0.021818195 0.117698155 0.040513523 0.056542117 -0.0032782413
-0.0020732852 0.0008348879 0.024615092 0.0049513043 -0.022959368 -0.013646853 -0.0021043704 0.019646468
0.016965073 -0.006723215 0.039355762 -0.024714071 0.09447503 0.039012086 0.02182469 0.052391086
0.02458081 0.13854718 -0.0010979405 -0.019061761 0.09800866 0.035701245 0.009908123 -0.012426416
0.026357045 0.002678947 0.034363594 0.015415768 -0.0278685 -0.009214154 0.03188248 0.011924225
-0.008797082 -0.0068031084 -0.008448686 0.030605607 -0.08718662 0.06648739 0.024471316 -0.042911664
0.045281634 -0.0015127705 0.0067785224 0.094526164 0.09329135 0.038207084 0.010574274 -0.03654911
-0.022315102 -0.002302467 0.06220638 -0.029000785 -0.017126935 -0.032698706 0.115493454 0.023796363
-0.089279555 0.13535158 -0.0028578206 0.02075256 -0.066276506 -0.032962833 0.07363006 0.14826745
0.036633845 0.14375427 0.01923352 0.0064865346 -0.0057675783 -0.07128608 0.0066759237 0.01896059
0.08639154 0.018938882 0.014056351 0.18864116 0.039096236 0.08213696 0.01728588 0.045724068
0.081391 -0.035100207 -0.058525387 -0.0039879344 -0.045510605 0.0108219925 -0.028278485 -0.06415085

features.11 f4 [84]
00000000: 4aab 893e 9084 9f3d 7d2a 3e3e 895a 9e3e
00000010: 1f3e cdbd 7236 9a3d 8ccf dc3d 43c7 b53c
00000020: 4b3e b03d afab f83d 707b 863d 6cf5 8eba
00000030: 8416 473d 2d92 4f3e de70 cf3c d06b 7c3c
00000040: 774c 23bd e8fa 193e 38d6 733a fc1f 683e
00000050: d0db ee3c ca62 8e3d c678 143e a729 f93d
00000060: eb4c c6bb cad8 6cbd 0bda 5c3e cb91 673e
00000070: 0378 5f3e b9d0 a839 4c5c 8bbd 6938 e23c
00000080: 0364 b13b 20d5 c13b 216c 9abc 060c 81bb
00000090: 03d6 cf3d ab4c 2bbb 227c edb8 a8c2 013e
000000a0: a9d1 5fbb 1493 84bb 75b5 c53d f05c 3c3d
000000b0: 2125 4dbd 685a 1b3e 470f f73d 3fc2 a83c
000000c0: ea00 7a3d 50e2 45bd 1e1c 693b ebe2 b5bb
000000d0: bf18 3a3e da54 123e dc22 963e 8c0a 823e
000000e0: 2078 703e a0a9 a13b d783 e03c 6e22 d43c
000000f0: d2b7 993b 111a 873c 4e17 393e d883 853e
00000100: c3e7 973d 2672 7c3e e7c9 a33e 8226 c43d
00000110: bef8 c43e 10c7 293a 55ee 063c c684 bdbc
00000120: 2ff2 faba 41ef f93c 49b4 37bb c012 213e
00000130: 029f eabc a189 163d c811 c23d 58a1 2c3e
00000140: b273 3cbb 2aa7 6f3d cb13 4a3e 9989 c03c
0.26888496 0.07788956 0.18570895 0.30928448 -0.10021614 0.07529916 0.10781774 0.022189742
0.086056314 0.12142121 0.065665126 -0.0010906882 0.048605457 0.20270605 0.025322374 0.015406564
-0.039867844 0.1503712 0.00093016354 0.22668451 0.02915755 0.06952436 0.14499196 0.12166148
-0.00605165 -0.057823934 0.21567552 0.2261421 0.21823125 0.00032198968 -0.068047136 0.02761479
0.0054135337 0.005915299 -0.018850388 -0.003938201 0.10148241 -0.0026138227 -0.00011324162 0.12671912
-0.0034152067 -0.0040458534 0.09653751 0.04598707 -0.050084237 0.15171206 0.12063461 0.020600436
0.061036028 -0.04831153 0.0035569738 -0.0055507324 0.18173502 0.14290181 0.2932347 0.25398672
0.23483324 0.004933551 0.027406616 0.025895324 0.0046911025 0.016491922 0.18075296 0.2607715
0.07417252 0.24652919 0.31989977 0.09577657 0.38471025 0.0006476501 0.008235534 -0.0231346
-0.0019145663 0.030509593 -0.0028031042 0.15729809 -0.028640274 0.036752347 0.09476048 0.16858423
-0.0028755483 0.05850903 0.19734113 0.023503112

features.1 f4 [6]
00000000: b034 7e3b 018e b5bd 4a31 753d 41eb c4bc
00000010: b8b2 cf3d ebff 823e
0.0038788728 -0.08864976 0.05986146 -0.024037959 0.1014151 0.25585875

features.5 f4 [16]
00000000: df5e 40bf 4a7a 17bf 92f4 f7be 5951 cfbf
00000010: 4701 44bf 844d 58bf aaf0 ce3f 972d 203f
00000020: ee0d 85bf 8ec8 bdbc 15e6 d7be 7f7c 47bf
00000030: 11cc c2be 8ca3 8b3f 05a2 14bf 4740 edbf
-0.7514476 -0.59170973 -0.4842878 -1.61967 -0.7656445 -0.8449328 1.6167195 0.62569565
-1.0394876 -0.023166921 -0.42167726 -0.7792434 -0.38046315 1.0909286 -0.5805972 -1.8535241

features.1 f4 [6]
00000000: 547f cc40 d79e 953f 38e5 3b41 2af3 5941
00000010: 5f15 bf40 e781 2241
6.390543 1.1689099 11.743462 13.621866 5.971359 10.156714

features.5 f4 [16]
00000000: 3876 3d3f d342 673f 2906 603f 96eb 0040
00000010: f2b4 d33f 0326 d73f 2661 853f 1286 853f
00000020: e387 623f 661a 5d3f efdc 843f a3f5 b33f
00000030: 55b2 5b3f e6a6 573f 8aee 1f3f ca52 c43f
0.7400851 0.9033634 0.875094 2.014379 1.6539595 1.6808475 1.0420272 1.043154
0.88488597 0.86368406 1.0379924 1.4059337 0.8581899 0.8423904 0.62473357 1.5337765

features.1 f4 [6]
00000000: 789e 7b3f 33ab 1c3f d501 7e3f 05ac 973f
00000010: 8010 bc3f 7e9e bc3f
0.9828868 0.6119873 0.99221545 1.1849371 1.4692535 1.4735868

features.5 f4 [16]
00000000: c432 953f 9d37 cf3f f7cc e63f f1bd d33f
00000010: 3023 ca3f cbeb ba3f 0f57 9b3f 44ca 9d3f
00000020: 3876 c03f d13a ac3f 0c8e 9f3f d671 bc3f
00000030: dd83 b33f 5521 a73f e165 b13f b835 b33f
1.1656117 1.6188847 1.80313 1.654234 1.5791988 1.4603208 1.2135943 1.2327352
1.5036077 1.3455449 1.2465224 1.472224 1.4024616 1.3057047 1.3859216 1.4000769

features.1 f4 [6]
00000000: 9b87 4f3d 876e 1c3e 4d4c b53e 3bbc a93c
00000010: 17e6 acbc eca1 9d3d
0.050666433 0.15276538 0.35409775 0.020719638 -0.02110581 0.076969

features.5 f4 [16]
00000000: 7291 09be 9bda 40bf 73c2 fabe 5074 2cbe
00000010: c124 f8be 9f58 f9be 9156 3bbe da86 80be
00000020: 586f 1dbe bd81 0abe bb1b 793d 3013 dabe
00000030: 8545 c8be b47e a6be 283a afbe 8025 a9bd
-0.13434389 -0.75333565 -0.48976478 -0.16841245 -0.4846554 -0.48700425 -0.18294741 -0.25102884
-0.15374506 -0.13526054 0.06081746 -0.42592764 -0.3911554 -0.32518542 -0.34224057 -0.08259106
