checkpoints_lenet5/CPG_single_scratch_woexp/lenet5/food_containers/gradual_prune/0.5/checkpoint-20.pth.tar (torch, 316621 bytes, 28 tensors)

features.0.weight f4 [6, 3, 5, 5]
000000 00 00 00 00 00 00 00 00 6d 79 7b be b7 a0 c7 be
       0.0 0.0 -0.24558039 -0.38989803
000010 c2 65 fc be 11 2e 9b 3e 00 00 00 00 00 00 00 00
       -0.49296385 0.30308583 0.0 0.0
000020 b4 ef 82 be 00 00 00 00 00 00 00 00 00 00 00 00
       -0.25573504 0.0 0.0 0.0
000030 00 00 00 00 00 00 00 00 00 00 00 00 00 00 00 00
       0.0 0.0 0.0 0.0
000040 ab 0d 60 be 00 00 00 00 00 00 00 00 00 00 00 00
       -0.21880214 0.0 0.0 0.0
000050 00 00 00 00 00 00 00 00 00 00 00 00 b7 69 97 3e
       0.0 0.0 0.0 0.29572842
000060 a9 32 98 3e ad 3f 1f 3e 00 00 00 00 d2 56 80 3e
       0.2972615 0.15551634 0.0 0.2506624
000070 00 00 00 00 00 00 00 00 00 00 00 00 16 1a 17 3e
       0.0 0.0 0.0 0.14756045
000080 9c fc 6f be 00 00 00 00 00 00 00 00 00 00 00 00
       -0.23436207 0.0 0.0 0.0
000090 bf 56 ad be 00 00 00 00 00 00 00 00 00 00 00 00
       -0.33855245 0.0 0.0 0.0
0000a0 00 00 00 00 00 00 00 00 00 00 00 00 00 00 00 00
       0.0 0.0 0.0 0.0
0000b0 00 00 00 00 e6 52 88 be 00 00 00 00 00 00 00 00
       0.0 -0.26625746 0.0 0.0
0000c0 00 00 00 00 33 04 a6 3e 68 ce d3 be 00 00 00 00
       0.0 0.3242508 -0.41368413 0.0
0000d0 68 47 c1 be 00 00 00 00 50 e4 48 be 00 00 00 00
       -0.3774979 0.0 -0.19618344 0.0
0000e0 fc 52 66 be 9e 17 f2 be 7f d2 99 be 00 00 00 00
       -0.22492594 -0.47283643 -0.30043408 0.0
0000f0 bd b0 cc be 00 00 00 00 4a b8 a3 be 00 00 00 00
       -0.3997859 0.0 -0.3197654 0.0
000100 47 89 86 3e 00 00 00 00 6e d7 47 be 00 00 00 00
       0.2627661 0.0 -0.19515774 0.0
000110 00 00 00 00 b2 70 10 3f 00 00 00 00 c4 aa 81 3e
       0.0 0.5642196 0.0 0.25325596
000120 08 b4 07 3f 75 37 c2 3e 7d de 28 3f 00 00 00 00
       0.5300908 0.37932935 0.6596449 0.0
000130 00 00 00 00 00 00 00 00 00 00 00 00 6a 0a 59 3e
       0.0 0.0 0.0 0.21195379
000140 00 00 00 00 00 00 00 00 00 00 00 00 61 69 4c 3e
       0.0 0.0 0.0 0.19962074
000150 00 00 00 00 df 37 75 be 00 00 00 00 00 00 00 00
       0.0 -0.23947094 0.0 0.0
000160 41 49 99 3e 00 00 00 00 00 00 00 00 3e c9 3b 3e
       0.299387 0.0 0.0 0.18338487
000170 00 00 00 00 00 00 00 00 33 7d 7c be 00 00 00 00
       0.0 0.0 -0.24657135 0.0
000180 00 00 00 00 00 00 00 00 00 00 00 00 00 00 00 00
       0.0 0.0 0.0 0.0
000190 00 00 00 00 00 00 00 00 00 00 00 00 92 ae 60 3e
       0.0 0.0 0.0 0.21941593
0001a0 00 00 00 00 00 00 00 00 00 00 00 00 00 00 00 00
       0.0 0.0 0.0 0.0
0001b0 00 00 00 00 00 00 00 00 00 00 00 00 c3 f0 4a 3e
       0.0 0.0 0.0 0.19818406
0001c0 00 00 00 00 00 00 00 00 00 00 00 00 00 00 00 00
       0.0 0.0 0.0 0.0
0001d0 00 00 00 00 61 5a 86 3e 00 00 00 00 00 00 00 00
       0.0 0.2624083 0.0 0.0
0001e0 00 00 00 00 00 00 00 00 00 00 00 00 00 00 00 00
       0.0 0.0 0.0 0.0
0001f0 2a 79 63 be 00 00 00 00 00 00 00 00 00 00 00 00
       -0.22214189 0.0 0.0 0.0
000200 00 00 00 00 93 d2 36 3e 00 00 00 00 31 a5 55 be
       0.0 0.17853765 0.0 -0.20863797
000210 6e ad 58 3e 00 00 00 00 45 a9 52 3e ab 62 6e be
       0.21159908 0.0 0.20572384 -0.23279826
000220 00 00 00 00 00 00 00 00 00 00 00 00 00 00 00 00
       0.0 0.0 0.0 0.0
000230 00 00 00 00 00 00 00 00 00 00 00 00 00 00 00 00
       0.0 0.0 0.0 0.0
000240 00 00 00 00 0e 12 b6 be 00 00 00 00 f3 b7 42 3e
       0.0 -0.3556065 0.0 0.19015484
000250 6c 6e 5f 3e 00 00 00 00 90 cb bf 3e 8d 17 99 3e
       0.21819466 0.0 0.37459993 0.2990078
000260 94 bb c5 3e c4 14 92 3e 70 7a 39 3e 00 00 00 00
       0.38619673 0.28531468 0.18113112 0.0
000270 fa 89 ec 3e 00 00 00 00 00 00 00 00 00 00 00 00
       0.46199018 0.0 0.0 0.0
000280 00 00 00 00 00 00 00 00 00 00 00 00 00 00 00 00
       0.0 0.0 0.0 0.0
000290 00 00 00 00 57 da 8a be 00 00 00 00 85 ce 9d be
       0.0 -0.27119705 0.0 -0.30821624
0002a0 2f 93 36 be 00 00 00 00 00 00 00 00 00 00 00 00
       -0.17829584 0.0 0.0 0.0
0002b0 98 a6 d9 be be 5a 5e be 00 00 00 00 b3 f6 86 3e
       -0.42509913 -0.21714303 0.0 0.26360092
0002c0 7e fe d8 3e 2a e0 d4 3e ea d3 88 3e 00 00 00 00
       0.42381662 0.41577274 0.26724178 0.0
0002d0 00 00 00 00 00 00 00 00 00 00 00 00 72 3a a9 3e
       0.0 0.0 0.0 0.33052403
0002e0 00 00 00 00 00 00 00 00 af 72 6e 3e 00 00 00 00
       0.0 0.0 0.23285936 0.0
0002f0 00 00 00 00 37 4b 2e be 43 05 7e be 00 00 00 00
       0.0 -0.1702088 -0.24806695 0.0
000300 00 00 00 00 00 00 00 00 00 00 00 00 00 00 00 00
       0.0 0.0 0.0 0.0
000310 f2 33 90 be 4d 77 66 be ec f0 8d be 00 00 00 00
       -0.2816463 -0.22506447 -0.2772287 0.0
000320 df 16 b0 3e 6e cb e1 3e 17 17 b5 3e 3e e1 47 3e
       0.3439245 0.44100517 0.3536918 0.19519517
000330 00 00 00 00 00 00 00 00 00 00 00 00 f0 64 8c 3e
       0.0 0.0 0.0 0.2742076
000340 00 00 00 00 18 38 a0 be 00 00 00 00 00 00 00 00
       0.0 -0.31292796 0.0 0.0
000350 d2 56 6e be 7a 72 3c be 84 ec b8 be 00 00 00 00
       -0.23275307 -0.18403044 -0.36117947 0.0
000360 00 00 00 00 00 00 00 00 03 28 af be ac 62 da be
       0.0 0.0 -0.34210214 -0.42653406
000370 00 00 00 00 00 00 00 00 0c 99 8e be 10 1b f1 be
       0.0 0.0 -0.2785114 -0.4709096
000380 57 58 cc be 0c 41 60 be d3 a4 20 be 0e 50 b1 be
       -0.39911148 -0.21899813 -0.15687875 -0.3463139
000390 00 00 00 00 00 00 00 00 00 00 00 00 00 00 00 00
       0.0 0.0 0.0 0.0
0003a0 00 00 00 00 da 31 7c 3e 77 cb 9c 3e 00 00 00 00
       0.0 0.24628392 0.3062398 0.0
0003b0 00 00 00 00 00 00 00 00 ed 3a 4f 3e 0e 02 90 3e
       0.0 0.0 0.20237322 0.28126568
0003c0 00 00 00 00 15 6e 88 be 1d c4 b8 be 00 00 00 00
       0.0 -0.26646486 -0.36087123 0.0
0003d0 31 9e 3c be 04 8d b7 3e 00 00 00 00 11 13 43 be
       -0.1841972 0.35849774 0.0 -0.19050242
0003e0 00 00 00 00 47 7c 63 3e 00 00 00 00 00 00 00 00
       0.0 0.22215377 0.0 0.0
0003f0 00 00 00 00 d6 8c 9a 3e be 53 97 3e 00 00 00 00
       0.0 0.30185574 0.29556078 0.0

features.1.weight f4 [6]
000000 4f 56 7d 3f 5c 01 25 3f 9c a6 7b 3f b5 ba 93 3f
       0.9895982 0.644552 0.983011 1.1541353
000010 f1 7b bd 3f 84 57 bc 3f
       1.4803449 1.4714208

features.1.bias f4 [6]
000000 0c a2 49 3d 27 db 20 3e c2 c0 ae 3e 78 a9 a6 3c
       0.049226806 0.157086 0.34131438 0.02034448
000010 6f f7 c5 bc 00 e5 b6 3d
       -0.024165837 0.08930397

features.1.running_mean f4 [6]
000000 20 1d a9 3b 9d 98 bd bd c4 24 63 3d 2e f8 1c bd
       0.0051609427 -0.09257624 0.055454984 -0.03832262
000010 39 28 d3 3d e9 5f 89 3e
       0.10310406 0.26830986

features.1.running_var f4 [6]
000000 d2 b8 c3 40 be 7b d2 3f 78 fb 5f 41 88 6f 7e 41
       6.116311 1.6444013 13.998894 15.902229
000010 28 66 cd 40 ab 37 2c 41
       6.4187202 10.763591

features.4.weight f4 [16, 6, 5, 5]
000000 eb 48 50 be eb 79 c3 bd 00 00 00 00 ab 3a 05 be
       -0.20340316 -0.095447384 0.0 -0.13010661
000010 00 00 00 00 64 4a dc bd 1d 2c ec bd 00 00 00 00
       0.0 -0.107563764 -0.115318514 0.0
000020 00 00 00 00 00 00 00 00 00 00 00 00 00 00 00 00
       0.0 0.0 0.0 0.0
000030 00 00 00 00 30 ab c1 bd 00 00 00 00 00 00 00 00
       0.0 -0.094564795 0.0 0.0
000040 00 00 00 00 00 00 00 00 6e 8d d4 3d 00 00 00 00
       0.0 0.0 0.10378538 0.0
000050 96 9c e7 3d 08 10 fd 3d 76 de db 3d e5 ab 51 3e
       0.11309163 0.12356573 0.107357904 0.20475729
000060 00 00 00 00 9d 12 0d be 00 00 00 00 f3 30 ec 3d
       0.0 -0.13776632 0.0 0.11532774
000070 00 00 00 00 ac d2 d1 3d 00 00 00 00 00 00 00 00
       0.0 0.102452606 0.0 0.0
000080 00 00 00 00 00 00 00 00 00 00 00 00 91 4e 39 3e
       0.0 0.0 0.0 0.18096377
000090 ca 53 ff 3d 00 00 00 00 00 00 00 00 00 00 00 00
       0.12467153 0.0 0.0 0.0
0000a0 00 00 00 00 00 00 00 00 00 00 00 00 00 00 00 00
       0.0 0.0 0.0 0.0
0000b0 00 00 00 00 00 00 00 00 00 00 00 00 00 00 00 00
       0.0 0.0 0.0 0.0
0000c0 00 00 00 00 00 00 00 00 00 00 00 00 32 f4 df bd
       0.0 0.0 0.0 -0.109352484
0000d0 00 00 00 00 00 00 00 00 00 00 00 00 3e f6 cf 3d
       0.0 0.0 0.0 0.10154389
0000e0 00 00 00 00 00 00 00 00 2b b0 1f 3e d7 4a 64 be
       0.0 0.0 0.15594546 -0.22294174
0000f0 00 00 00 00 00 00 00 00 00 00 00 00 99 43 03 3e
       0.0 0.0 0.0 0.12818755
000100 84 e2 a5 bd 00 00 00 00 00 00 00 00 70 a6 de 3d
       -0.08099845 0.0 0.0 0.10871589
000110 75 cf e7 3d f1 c6 4b be e5 e4 fc bd 00 00 00 00
       0.11318866 -0.19900109 -0.12348346 0.0
000120 00 00 00 00 00 00 00 00 59 a2 fe bd 81 0e 20 be
       0.0 0.0 -0.12433309 -0.15630533
000130 00 00 00 00 00 00 00 00 71 f5 1f be 66 70 79 be
       0.0 0.0 -0.15620972 -0.24359283
000140 00 00 00 00 f5 5e f7 bd eb 7f be bd f8 fa 50 be
       0.0 -0.120786585 -0.09301742 -0.20408237
000150 a5 52 1f be 37 ad 1e be 93 5f c7 bd c3 52 a7 bd
       -0.1555887 -0.15495764 -0.09735026 -0.081700824
000160 00 00 00 00 00 00 00 00 e0 a6 23 be 28 cd 24 be
       0.0 0.0 -0.15981627 -0.16093886
000170 00 00 00 00 00 00 00 00 a7 8d 5c be 00 00 00 00
       0.0 0.0 -0.21538411 0.0
000180 00 00 00 00 00 00 00 00 00 00 00 00 64 8f e0 bd
       0.0 0.0 0.0 -0.109648496
000190 00 00 00 00 00 00 00 00 c4 e4 29 be 50 0a fb bd
       0.0 0.0 -0.16591173 -0.12257826
0001a0 00 00 00 00 00 00 00 00 50 d6 e2 bd 00 00 00 00
       0.0 0.0 -0.11076033 0.0
0001b0 82 6f ba bd 00 00 00 00 00 00 00 00 bf 82 2c be
       -0.091033 0.0 0.0 -0.1684675
0001c0 c9 d5 74 be 11 f1 d3 bd 00 00 00 00 00 00 00 00
       -0.23909678 -0.10348714 0.0 0.0
0001d0 00 00 00 00 a7 7c d3 bd 00 00 00 00 00 00 00 00
       0.0 -0.1032651 0.0 0.0
0001e0 00 00 00 00 bb 72 8a 3e f5 2a 26 3e 00 00 00 00
       0.0 0.27040657 0.16227324 0.0
0001f0 00 00 00 00 61 f7 fd bd 00 00 00 00 00 00 00 00
       0.0 -0.124006994 0.0 0.0
000200 24 37 06 3e 4c 83 90 3e 3d a3 2a be 71 54 bd bd
       0.13106972 0.28225172 -0.16663833 -0.092446215
000210 00 00 00 00 c1 bd 81 3e 74 38 f3 3d 2b 03 f9 bd
       0.0 0.25340083 0.11876002 -0.12158807
000220 00 00 00 00 00 00 00 00 00 00 00 00 5f 5f ac 3d
       0.0 0.0 0.0 0.08416628
000230 00 00 00 00 56 15 23 3e be a7 db 3d 00 00 00 00
       0.0 0.15926108 0.10725354 0.0
000240 00 00 00 00 9e 4c 33 3e 0e c7 e4 3d 3f d6 19 be
       0.0 0.17509696 0.11170779 -0.15023135
000250 d9 8d fc bd a0 7b 54 be 7e 01 65 3e 00 00 00 00
       -0.12331743 -0.20750284 0.2236385 0.0
000260 41 57 ae bd b3 f6 8b be 00 00 00 00 00 00 00 00
       -0.08512736 -0.27336654 0.0 0.0
000270 dd 23 56 be 6a 29 71 be 2c 67 3e be de 92 7b 3e
       -0.20912118 -0.23550954 -0.18594044 0.24567744
000280 3d d5 5b be 5c 0e 3a be 24 7a 98 be 5f f4 16 3e
       -0.21468063 -0.1816954 -0.29780686 0.14741658
000290 42 34 a1 3e 4e f8 76 be 00 00 00 00 00 00 00 00
       0.31485182 -0.24118158 0.0 0.0
0002a0 02 9b b1 3d b5 0d 5b 3e 00 00 00 00 c2 31 e2 3d
       0.086721435 0.21391948 0.0 0.11044647
0002b0 00 00 00 00 29 7b 19 3e b2 ae 1c be f6 8f cf bd
       0.0 0.14988388 -0.15301016 -0.1013488
0002c0 00 00 00 00 00 00 00 00 00 00 00 00 f8 2c 36 be
       0.0 0.0 0.0 -0.17790592
0002d0 00 00 00 00 00 00 00 00 00 00 00 00 00 00 00 00
       0.0 0.0 0.0 0.0
0002e0 e3 ba ce bd 00 00 00 00 00 00 00 00 00 00 00 00
       -0.100942396 0.0 0.0 0.0
0002f0 00 00 00 00 6b e5 05 be 00 00 00 00 00 00 00 00
       0.0 -0.13075797 0.0 0.0
000300 00 00 00 00 00 00 00 00 6b a4 78 3e 9e 88 17 3e
       0.0 0.0 0.2428147 0.14798209
000310 00 00 00 00 00 00 00 00 4d 16 23 3e 38 61 96 3e
       0.0 0.0 0.15926476 0.29371047
000320 9d d7 60 3e 00 00 00 00 c9 c1 3e be d9 16 be 3d
       0.2195725 0.0 -0.1862861 0.092817016
000330 b1 b4 07 3e 00 00 00 00 00 00 00 00 29 56 18 be
       0.13252522 0.0 0.0 -0.14876617
000340 0e 35 29 3e 00 00 00 00 24 e6 08 3e 39 69 dc bd
       0.16524145 0.0 0.13369042 -0.10762257
000350 4f e6 09 3e 24 33 10 3e 47 5b aa be 6e 8a 2b 3e
       0.13466762 0.14082009 -0.33272764 0.16752025
000360 06 f8 1c 3e 50 ca 07 3e 00 00 00 00 41 ec aa be
       0.15328988 0.1326077 0.0 -0.33383372
000370 00 00 00 00 e4 f2 e9 3d 00 00 00 00 10 80 2a be
       0.0 0.11423281 0.0 -0.16650414
000380 83 7d 77 be 00 00 00 00 31 ff 80 3e 00 00 00 00
       -0.24168973 0.0 0.25194696 0.0
000390 00 00 00 00 75 06 1d be 76 90 65 3e f8 2c 6d be
       0.0 -0.15334494 0.22418389 -0.23161685
0003a0 00 00 00 00 9f 9e 0e be 96 8e 16 be 00 00 00 00
       0.0 -0.13927697 -0.1470283 0.0
0003b0 00 00 00 00 00 00 00 00 00 00 00 00 fd 3d 16 be
       0.0 0.0 0.0 -0.14672084
0003c0 00 00 00 00 00 00 00 00 00 00 00 00 00 00 00 00
       0.0 0.0 0.0 0.0
0003d0 00 00 00 00 00 00 00 00 00 00 00 00 00 00 00 00
       0.0 0.0 0.0 0.0
0003e0 00 00 00 00 00 00 00 00 00 00 00 00 00 00 00 00
       0.0 0.0 0.0 0.0
0003f0 00 00 00 00 00 00 00 00 e4 d1 26 be 0f 5d 0f 3e
       0.0 0.0 -0.16291004 0.14000343

features.5.weight f4 [16]
000000 c3 14 90 3f 38 99 cc 3f 32 75 e2 3f 7d 38 ce 3f
       1.1256336 1.5984259 1.7692015 1.6110989
000010 47 26 c3 3f ed 37 b6 3f c5 67 97 3f 14 98 97 3f
       1.5246056 1.4235817 1.1828543 1.1843286
000020 60 e5 bb 3f de f1 a8 3f 7c 23 9a 3f 32 5f b7 3f
       1.4679375 1.3198812 1.2042079 1.4325926
000030 26 4a af 3f 0a c3 a3 3f 70 ac ab 3f 6e dc ae 3f
       1.3694503 1.2793896 1.3411999 1.366102

features.5.bias f4 [16]
000000 53 e3 12 be 8c f3 3e bf aa 03 f8 be 65 c7 3b be
       -0.1434453 -0.74590373 -0.48440295 -0.18337782
000010 2e 47 ff be 0a 10 fc be 22 0f 44 be bb 14 81 be
       -0.49858993 -0.49230987 -0.19146398 -0.2521113
000020 2d 41 2a be e3 77 16 be 6e c9 47 3d bf 1d d4 be
       -0.16626425 -0.1469417 0.048776083 -0.41428944
000030 71 ac cf be 0f cd a6 be e4 8b b3 be 6f fc c5 bd
       -0.4056125 -0.32578322 -0.35067666 -0.096672885

features.5.running_mean f4 [16]
000000 bd fe 68 bf 07 bb 29 bf 03 b6 f9 be 0f c4 e3 bf
       -0.910137 -0.66301006 -0.48771676 -1.7794207
000010 17 9f 54 bf 63 2f 5f bf 42 fd d1 3f 6d 96 43 3f
       -0.8305525 -0.8718168 1.6405413 0.76401407
000020 ea 7a 8e bf 73 7d 37 3d 60 d9 ab be d6 6a 48 bf
       -1.113126 0.044797372 -0.3356428 -0.7828802
000030 da 48 da be ea 7f a2 3f c4 d6 0d bf cd 78 fc bf
       -0.42633706 1.2695286 -0.5540583 -1.9724365

features.5.running_var f4 [16]
000000 e8 55 5e 3f ac 58 8a 3f 56 ba 76 3f ea 18 07 40
       0.8684983 1.080831 0.96378076 2.1108956
000010 96 3f f7 3f 9e dc e5 3f da 68 8d 3f 30 d4 8e 3f
       1.931628 1.7957952 1.1047623 1.1158504
000020 b8 40 87 3f ca e5 84 3f 7a 33 86 3f ca c8 cf 3f
       1.0566626 1.0382626 1.0484459 1.6233151
000030 b8 3d 77 3f e1 14 73 3f 47 d6 37 3f 7d 9d e1 3f
       0.9657855 0.94953734 0.71811336 1.7626187

features.9.weight f4 [120, 400]
000000 c6 cd 56 3d 26 db db 3d 00 00 00 00 e0 1d 89 bd
       0.052442335 0.107351586 0.0 -0.06695151
000010 00 00 00 00 7d b7 ba bc f9 d3 46 3d 00 00 00 00
       0.0 -0.022792572 0.048541997 0.0
000020 ef 6d 2b bd 00 00 00 00 60 bf 1f bd 00 00 00 00
       -0.041852888 0.0 -0.03900087 0.0
000030 ff 6b ca 3c 00 00 00 00 00 00 00 00 4c f3 98 bd
       0.0247097 0.0 0.0 -0.0746828
000040 00 00 00 00 00 00 00 00 e6 5d 35 3d 9b 04 2e 3d
       0.0 0.0 0.044279 0.04248486
000050 05 f6 8f bd 00 00 00 00 00 00 00 00 cc 23 aa 3d
       -0.070293464 0.0 0.0 0.08307609
000060 f0 bf cb 3d 00 00 00 00 3d 00 db 3d d0 87 39 3d
       0.099487185 0.0 0.10693405 0.045295537
000070 ae b4 9a bd 68 64 a6 bd 00 00 00 00 b7 2a 00 3d
       -0.07553993 -0.0812462 0.0 0.031290736
000080 00 00 00 00 9f 9f e1 bc 34 30 40 bd 00 00 00 00
       0.0 -0.027541934 -0.04692097 0.0
000090 12 ce eb bc 00 00 00 00 31 d2 bb bc ec 98 2a bd
       -0.028784785 0.0 -0.022927376 -0.041649744
0000a0 a9 c5 0d bd 85 dc 4a bd 00 00 00 00 a7 c3 4e 3d
       -0.03461233 -0.04952671 0.0 0.050479557
0000b0 00 00 00 00 97 0c 12 bd 58 96 ba bd 9d 60 af bc
       0.0 -0.035656538 -0.09110707 -0.021408373
0000c0 12 f0 d5 3d 8d 9e 06 3d 82 eb 06 bd f5 3e cf 3c
       0.104461804 0.03286605 -0.03293944 0.025298575
0000d0 17 e3 6c 3d 00 00 00 00 00 00 00 00 f6 b9 d9 bd
       0.057833757 0.0 0.0 -0.10631172
0000e0 cb b3 18 3d c1 3d dd 3d 00 00 00 00 c4 a7 28 bd
       0.03728084 0.10802794 0.0 -0.04117562
0000f0 01 f2 cb bd 2c d3 90 bd 74 f8 ba 3d c1 85 e2 3c
       -0.09958268 -0.07071528 0.0912942 0.02765167
000100 17 cd 8f bd 2f 00 9e bd e6 31 98 bd 00 00 00 00
       -0.0702154 -0.07714879 -0.07431392 0.0
000110 87 e3 e1 3c a4 67 63 bd 33 ac 14 bd d8 8c 93 bd
       0.027574314 -0.05551876 -0.036297034 -0.07204598
000120 03 11 0c bd 00 00 00 00 ad e5 cb bc 77 48 ba 3d
       -0.03419591 0.0 -0.024889791 0.09095853
000130 de 13 ad bd d6 6f 01 be 86 d2 56 3d 52 15 3a 3e
       -0.08451055 -0.12640318 0.052446865 0.18172196
000140 6f d1 46 3d 48 4e 1b bd bf 99 9d bd 00 00 00 00
       0.048539575 -0.03791645 -0.0769534 0.0
000150 58 f4 09 3e 00 00 00 00 00 00 00 00 2b d9 ae 3c
       0.13472116 0.0 0.0 0.021343788
000160 00 00 00 00 9f 17 50 3d 00 00 00 00 52 3a 3c 3d
       0.0 0.050803777 0.0 0.045954056
000170 31 c5 8a 3d a0 75 e6 3c 00 00 00 00 fb c7 4d bd
       0.067758925 0.02813226 0.0 -0.050239544
000180 9c 77 5c 3d de 22 af 3d 00 00 00 00 23 03 02 bd
       0.053825006 0.08551572 0.0 -0.031741273
000190 3c ac 34 bd 00 00 00 00 3b fe dc 3c a7 be 88 3d
       -0.044109568 0.0 0.026976695 0.06676989
0001a0 00 00 00 00 09 c3 cb bc 13 05 41 bd 00 00 00 00
       0.0 -0.024873273 -0.04712398 0.0
0001b0 a0 84 83 3c 11 8e 2a 3d 00 00 00 00 52 52 f9 bc
       0.016054451 0.04163939 0.0 -0.030434761
0001c0 00 00 00 00 00 00 00 00 00 00 00 00 bb a9 bb 3c
       0.0 0.0 0.0 0.022908082
0001d0 8f f3 65 bd ad c7 66 bd 71 04 4d bd e7 13 0f bd
       -0.05614048 -0.05634277 -0.050053064 -0.03493109
0001e0 4d 62 0f 3d a5 50 d4 bc 16 77 04 bd 00 00 00 00
       0.035005856 -0.02591736 -0.03234013 0.0
0001f0 00 00 00 00 00 00 00 00 00 00 00 00 93 7b de 3d
       0.0 0.0 0.0 0.10863414
000200 00 00 00 00 5b 9b dd bd 00 00 00 00 00 00 00 00
       0.0 -0.10820647 0.0 0.0
000210 41 79 16 3d 00 00 00 00 12 a6 8d bd 3f 05 07 bd
       0.03673673 0.0 -0.06916441 -0.032963987
000220 00 00 00 00 00 00 00 00 00 00 00 00 00 00 00 00
       0.0 0.0 0.0 0.0
000230 00 00 00 00 00 00 00 00 00 00 00 00 00 00 00 00
       0.0 0.0 0.0 0.0
000240 d9 a1 cd 3c e6 2d 0c 3d 00 00 00 00 96 2d 2b bd
       0.025101589 0.03422346 0.0 -0.04179152
000250 00 00 00 00 00 00 00 00 00 00 00 00 00 00 00 00
       0.0 0.0 0.0 0.0
000260 15 ea 47 3d 00 00 00 00 ef 3f 8e bd bd d7 32 bd
       0.048807222 0.0 -0.06945788 -0.043662775
000270 9d 3e 81 bd 00 00 00 00 00 00 00 00 e6 cc 21 bd
       -0.06310771 0.0 0.0 -0.039502047
000280 36 22 f4 bc 36 cd 0a bd 00 00 00 00 00 00 00 00
       -0.02980147 -0.03388711 0.0 0.0
000290 00 00 00 00 ba 23 3b bd 00 00 00 00 00 00 00 00
       0.0 -0.04568837 0.0 0.0
0002a0 00 00 00 00 db e1 e7 bc be f1 82 bd 00 00 00 00
       0.0 -0.028305938 -0.06393765 0.0
0002b0 00 00 00 00 d7 c5 66 bd 00 00 00 00 00 00 00 00
       0.0 -0.05634102 0.0 0.0
0002c0 c2 12 8e 3d 00 00 00 00 00 00 00 00 52 e7 a7 bd
       0.069371715 0.0 0.0 -0.08198418
0002d0 00 00 00 00 ac 88 f9 3c 9c 80 33 bd 00 00 00 00
       0.0 0.030460678 -0.043823823 0.0
0002e0 db 3a e4 bc 00 00 00 00 00 00 00 00 46 07 d0 bc
       -0.027860096 0.0 0.0 -0.025394093
0002f0 00 00 00 00 00 00 00 00 28 61 cf bc c8 28 cc bc
       0.0 0.0 -0.025314882 -0.02492179
000300 d8 32 28 bd e2 d0 05 bd 57 71 e0 bc d6 8f ea bc
       -0.041064113 -0.03266991 -0.027397795 -0.02863304
000310 ca 62 cb bc 86 da 0a bd 57 4c 06 bd 00 00 00 00
       -0.02482738 -0.033899806 -0.032787647 0.0
000320 00 00 00 00 00 00 00 00 00 00 00 00 0a 25 3c 3d
       0.0 0.0 0.0 0.04593376
000330 5f a5 81 3d fc 1e 60 bd cc 75 b5 bc f9 f8 b2 bd
       0.0633037 -0.05471705 -0.022150896 -0.08738894
000340 00 00 00 00 e7 4e 26 3d 9a cc a9 bd 00 00 00 00
       0.0 0.04060259 -0.08290978 0.0
000350 00 00 00 00 00 00 00 00 00 00 00 00 94 73 4e bd
       0.0 0.0 0.0 -0.050403193
000360 bb 03 f0 bc 00 00 00 00 bb 68 1d bd a9 ca d8 bc
       -0.029298654 0.0 -0.038429957 -0.026463823
000370 c8 d7 24 3d 00 00 00 00 00 00 00 00 fa fc 40 bd
       0.040244848 0.0 0.0 -0.047116257
000380 57 52 42 bd b3 9a 93 3d fc c8 f8 3d 89 98 99 3c
       -0.047441807 0.07207241 0.1214771 0.018749492
000390 4f a3 c5 bd 65 e1 90 bd b3 0c 47 3d 0f 5c 81 3d
       -0.09650289 -0.070742406 0.048596095 0.06316387
0003a0 00 00 00 00 06 c1 38 bd 77 21 70 bd 00 00 00 00
       0.0 -0.045105956 -0.058625665 0.0
0003b0 00 00 00 00 00 00 00 00 00 00 00 00 00 00 00 00
       0.0 0.0 0.0 0.0
0003c0 37 5b e8 bc c0 5e 18 bd a1 58 46 bd 00 00 00 00
       -0.028363807 -0.037199736 -0.048424367 0.0
0003d0 e9 e6 62 3d 47 43 11 bd 00 00 00 00 4a 96 9b bd
       0.055395994 -0.03546455 0.0 -0.07597025
0003e0 00 00 00 00 b6 3a 98 3d c5 65 17 bd 00 00 00 00
       0.0 0.07433073 -0.03696229 0.0
0003f0 00 00 00 00 9b d3 59 3d d1 ef 67 3d f7 bd 96 bc
       0.0 0.05318032 0.05662519 -0.01840113

features.9.bias f4 [120]
000000 32 9f a9 bc 68 18 85 b9 4a ea 80 3e 3f d5 5d 3e
       -0.020705793 -0.0002538592 0.25178748 0.21663378
000010 d2 c7 34 bd 30 ee 14 bc 93 ed 59 bb 67 d7 94 3d
       -0.044135876 -0.009089991 -0.0033253178 0.07267647
000020 8d c8 00 3c 2a 04 1d bc 37 b4 12 bc 56 1f dd bd
       0.007860315 -0.009583512 -0.008954099 -0.107969925
000030 f2 61 87 3c f6 e0 f6 3b e3 59 c9 3d 9e ad bb 3c
       0.016526196 0.0075341417 0.09831598 0.022909936
000040 7c 91 d5 3d 9e 0f 71 bc af 56 9d bd e2 41 3a 3d
       0.104281396 -0.014713196 -0.07682549 0.045472987
000050 80 37 0b 3c 6e e8 a5 3d 4b a3 c3 bc 30 5d 43 bd
       0.008497119 0.08100973 -0.023881575 -0.047696292
000060 f6 06 80 3d 9c 38 25 bd a7 8a 80 3d cc da aa bc
       0.06251328 -0.04033719 0.06276446 -0.020856284
000070 90 be e6 3d 99 ad f8 3c ce 48 64 3d bb 8f b8 ba
       0.11266816 0.030356215 0.055733494 -0.0014080921
000080 b7 e8 35 ba 83 e1 57 3a 15 4b d1 3c df 00 04 3c
       -0.0006939279 0.0008235203 0.025548497 0.008056848
000090 f4 0a da bc 2d 9b 5d bc 49 68 f4 ba 6d c2 a9 3c
       -0.026616551 -0.013525766 -0.0018646802 0.020722592
0000a0 52 94 98 3c 74 37 9d bb 6e b7 20 3d b0 2e b1 bc
       0.018625412 -0.0047978703 0.039237432 -0.021628708
0000b0 72 e4 b8 3d 37 dd 1c 3d d7 71 bf 3c 47 df 56 3d
       0.090279475 0.038296904 0.023369713 0.052459028
0000c0 9c c6 b1 3c 14 df 09 3e e8 f9 d6 bb cd 89 a3 bc
       0.02170115 0.13464004 -0.006560553 -0.01996317
0000d0 a5 8f be 3d de 37 0e 3d 54 9f 96 3b 83 2e 5c bc
       0.09304742 0.034721248 0.00459663 -0.013438824
0000e0 02 66 c7 3c bd cc 15 3b a5 eb fc 3c 38 bf 8b 3c
       0.024340633 0.002285763 0.030874083 0.017058954
0000f0 a6 fb fb bc e7 02 d8 bb df 6d 07 3d 6a ac 5e 3c
       -0.030759644 -0.006592143 0.033063766 0.013590911
000100 ed cf 93 bb e2 3f d8 bb 97 ef 01 bc 3c 09 d4 3c
       -0.0045108707 -0.0065994123 -0.007930658 0.02588331
000110 dc ca b0 bd f6 c3 8d 3d e6 84 bb 3c 9f e5 34 bd
       -0.08632442 0.06922142 0.02289052 -0.044164296
000120 02 bf 31 3d 5a 3a c6 ba c9 9c da 3b 99 2d bd 3d
       0.04339505 -0.0015123591 0.0066715223 0.09237213
000130 05 70 b6 3d 5f 39 0a 3d cf 39 10 3c 7a 50 12 bd
       0.08908085 0.03374612 0.008802845 -0.03572128
000140 df f3 b3 bc e2 17 8d bb 1d 57 89 3d de 8c f7 bc
       -0.021966873 -0.0043058256 0.06706069 -0.030218538
000150 15 15 b0 bc 87 ec 03 bd 82 94 f2 3d ae ea bf 3c
       -0.021494428 -0.032207992 0.11844732 0.023427334
000160 5b 36 b3 bd 6d 03 06 3e 1b 52 81 bb ec d6 ab 3c
       -0.08750602 0.13087244 -0.0039465553 0.020976506
000170 89 97 83 bd a1 8f f5 bc c3 8a 90 3d fe 32 11 3e
       -0.064253874 -0.029975714 0.07057717 0.14179608
000180 d0 23 0b 3d 94 29 10 3e 90 cd b2 3c d8 d2 b5 3b
       0.0339697 0.14078361 0.021826535 0.005548816
000190 fb ea 3b bb a2 15 87 bd a6 ed 33 3c 76 9e aa 3c
       -0.0028673995 -0.06595923 0.010981953 0.020827513
0001a0 99 22 ab 3d e1 f5 9c 3c 5d e4 66 3c 18 c5 3f 3e
       0.08356208 0.019160213 0.014092532 0.18727529
0001b0 ad 8d 0f 3d fe cc a6 3d d9 81 90 3c d3 c4 25 3d
       0.035047222 0.08144568 0.017640041 0.04047091
0001c0 da f0 98 3d c2 1d 10 bd 02 fc 61 bd a6 bb 82 bb
       0.07467814 -0.03518463 -0.055171974 -0.0039896546
0001d0 c7 89 25 bd 1d e8 4e 3c 7d af d5 bc 43 a0 7e bd
       -0.040414598 0.012628582 -0.026084656 -0.062164556

features.11.weight f4 [84, 120]
000000 a2 aa cd 3d 33 91 08 3e 9e 6b 9e 3d 14 eb 28 3e
       0.10042311 0.13336639 0.0773537 0.16495925
000010 00 00 00 00 53 55 18 3d 01 95 bb 3d f0 33 e7 bd
       0.0 0.037190747 0.091592796 -0.11289203
000020 e6 84 c3 bc 07 5a 23 be 64 cc 8b bd f2 b4 82 3e
       -0.023867082 -0.15952311 -0.06826094 0.25528675
000030 9b 21 1a 3e a4 4a 4b 3d 00 00 00 00 4a 12 d0 3c
       0.15051882 0.04963173 0.0 0.025399346
000040 6e 25 b2 3d e3 6e 42 bd 14 7f ab 3d 16 25 c9 3d
       0.086985454 -0.04746903 0.083738476 0.09821527
000050 ec 8d e3 3d a1 00 21 bd dc 30 0c 3d 1f f0 5b 3d
       0.11111054 -0.03930724 0.034226283 0.053695794
000060 e5 76 40 be 00 00 00 00 00 00 00 00 00 00 00 00
       -0.18795355 0.0 0.0 0.0
000070 88 69 3c 3e 00 00 00 00 00 00 00 00 a9 a7 27 3d
       0.18399632 0.0 0.0 0.040931378
000080 00 00 00 00 bd 2a 13 bd 94 f3 95 3d 96 f7 58 3d
       0.0 -0.03592943 0.073218495 0.05297049
000090 fe ff 21 bd 63 19 43 bd 00 00 00 00 f0 ed 47 bd
       -0.039550774 -0.047631633 0.0 -0.0488109
0000a0 00 00 00 00 f1 01 2c bd 00 00 00 00 00 00 00 00
       0.0 -0.04199404 0.0 0.0
0000b0 00 00 00 00 02 c4 09 3d 16 0f 06 3d 16 d6 16 3e
       0.0 0.033634193 0.03272923 0.14730105
0000c0 16 39 55 3e 9a 53 a2 bd d1 8c 9a bd 48 1d bf 3d
       0.20822558 -0.07926102 -0.0754639 0.09331757
0000d0 4f 92 c7 bd 00 00 00 00 2e 73 76 3d 00 00 00 00
       -0.09744703 0.0 0.060168438 0.0
0000e0 c4 c5 a8 3d da 19 2a 3d 9a da c9 3c 00 00 00 00
       0.08240846 0.04152856 0.02464037 0.0
0000f0 2b d5 c1 3d 00 00 00 00 7d 36 4d 3d 00 00 00 00
       0.09464487 0.0 0.050100792 0.0
000100 c5 da 85 3d 30 e1 0f be 22 29 c1 3d ff a9 57 bd
       0.065358676 -0.14050746 0.094316736 -0.052652355
000110 48 ff e8 bd 00 00 00 00 28 4b 8e bd 00 00 00 00
       -0.11376816 0.0 -0.06947929 0.0
000120 80 12 02 3d 00 00 00 00 6e d0 f6 3c 72 7a ec 3d
       0.031755924 0.0 0.030128684 0.11546792
000130 00 00 00 00 38 4d 1b 3e 78 46 c1 bd 00 00 00 00
       0.0 0.15166175 -0.09437269 0.0
000140 bb 35 f3 bd 54 46 be 3c 6a 02 8b 3d c3 bc 2c 3e
       -0.11875483 0.023226894 0.0678757 0.16868882
000150 26 28 3c 3e 62 7c cd bd 3f 8e 16 3e e2 13 01 be
       0.1837469 -0.1003349 0.147027 -0.12605241
000160 00 00 00 00 fd df 9e bd 03 09 25 3d 43 eb a4 3d
       0.0 -0.07757566 0.040291797 0.08052685
000170 6b 6c 2b be 3c 99 1d 3d 12 a1 ba 3c 54 b9 c7 bc
       -0.16740577 0.038476214 0.022781882 -0.024380364
000180 2f 3f c6 3d 17 de 39 be 00 00 00 00 4f 18 50 3d
       0.0968002 -0.18151127 0.0 0.050804432
000190 63 69 78 3d 30 a9 2a 3e 90 2b 0f be 98 d6 b5 bd
       0.06064738 0.16666102 -0.13981462 -0.08878821
0001a0 00 00 00 00 30 ec 82 3d f0 cf e0 bc 00 00 00 00
       0.0 0.063927054 -0.027442902 0.0
0001b0 ec 90 ee bc ba 80 2d be d3 ec 74 bd bc 69 ef 3d
       -0.029121839 -0.16943637 -0.059796166 0.11690089
0001c0 d4 39 05 be d1 d7 05 3e 8c 0a 0a bd 00 00 00 00
       -0.13010341 0.13070609 -0.033701465 0.0
0001d0 ae 5e 45 3d c4 79 25 bd 3f 9e 4f bd 85 a9 b5 bd
       0.048185997 -0.040399328 -0.050688025 -0.08870224
0001e0 70 04 d1 bc e3 b7 79 bd 04 ef cf 3c a5 07 e7 3c
       -0.025514811 -0.060966384 0.025382526 0.028201887
0001f0 a5 96 2d bd 00 00 00 00 dd 0f ed bc 7b f7 ea 3c
       -0.042379994 0.0 -0.028938228 0.028682461
000200 00 00 00 00 b3 0b d0 bc 00 00 00 00 47 d5 b1 bc
       0.0 -0.025396204 0.0 -0.021708144
000210 00 00 00 00 00 00 00 00 03 05 46 3d f8 4a 12 bd
       0.0 0.0 0.048344623 -0.035716027
000220 00 00 00 00 5e 44 ad bc 00 00 00 00 00 00 00 00
       0.0 -0.021150764 0.0 0.0
000230 b2 74 f2 3c 00 4f 90 3d 00 00 00 00 00 00 00 00
       0.02959666 0.07046318 0.0 0.0
000240 00 00 00 00 be 96 03 bd 00 00 00 00 d3 93 e8 bc
       0.0 -0.03212618 0.0 -0.0283908
000250 43 80 1d bd f7 89 1b 3d 75 b2 c4 3c 7d ca e6 bc
       -0.038452398 0.03797337 0.024010876 -0.028172726
000260 00 00 00 00 00 00 00 00 e9 90 05 bd 00 00 00 00
       0.0 0.0 -0.0326089 0.0
000270 00 00 00 00 00 00 00 00 00 00 00 00 00 00 00 00
       0.0 0.0 0.0 0.0
000280 cb e2 df 3c 00 00 00 00 00 00 00 00 00 00 00 00
       0.027329823 0.0 0.0 0.0
000290 00 00 00 00 1e 2b 45 bd 96 a2 c2 bc 00 00 00 00
       0.0 -0.048136823 -0.023759168 0.0
0002a0 00 00 00 00 6d b3 03 3d 00 00 00 00 00 00 00 00
       0.0 0.032153536 0.0 0.0
0002b0 f9 2a 5b 3d 00 00 00 00 00 00 00 00 00 00 00 00
       0.05350778 0.0 0.0 0.0
0002c0 9d 53 57 bd 00 00 00 00 00 00 00 00 4f fb ce bc
       -0.052569974 0.0 0.0 -0.025266318
0002d0 dd b7 d8 bc 00 00 00 00 00 00 00 00 00 00 00 00
       -0.02645486 0.0 0.0 0.0
0002e0 00 00 00 00 00 00 00 00 00 00 00 00 00 00 00 00
       0.0 0.0 0.0 0.0
0002f0 00 00 00 00 83 e5 08 bd 00 00 00 00 00 00 00 00
       0.0 -0.033422004 0.0 0.0
000300 00 00 00 00 00 00 00 00 00 00 00 00 1d eb 5b 3d
       0.0 0.0 0.0 0.05369102
000310 00 00 00 00 00 00 00 00 e5 25 23 bd 00 00 00 00
       0.0 0.0 -0.03983106 0.0
000320 ba fe 0d bd 00 00 00 00 b0 df b9 3c 00 00 00 00
       -0.034666754 0.0 0.02268967 0.0
000330 88 06 13 bd 00 00 00 00 00 00 00 00 00 00 00 00
       -0.0358949 0.0 0.0 0.0
000340 00 00 00 00 45 c8 9b 3d 00 00 00 00 00 00 00 00
       0.0 0.07606558 0.0 0.0
000350 a6 92 0d bd ae c9 d3 bc 27 44 dd 3c 4f d0 f3 3c
       -0.034563683 -0.025853004 0.027010037 0.029762415
000360 00 00 00 00 00 00 00 00 00 00 00 00 00 00 00 00
       0.0 0.0 0.0 0.0
000370 00 00 00 00 57 1a 24 bd 00 00 00 00 ee 68 42 3d
       0.0 -0.040064182 0.0 0.04746335
000380 00 00 00 00 00 00 00 00 00 00 00 00 ef 8e 16 3d
       0.0 0.0 0.0 0.036757406
000390 00 00 00 00 00 00 00 00 00 00 00 00 77 d1 b3 bc
       0.0 0.0 0.0 -0.021950467
0003a0 00 00 00 00 8d e8 0c bd e9 db 4f bd 00 00 00 00
       0.0 -0.034401465 -0.050746832 0.0
0003b0 00 00 00 00 00 00 00 00 00 00 00 00 00 00 00 00
       0.0 0.0 0.0 0.0
0003c0 00 00 00 00 7e d1 ce 3d 00 00 00 00 29 3b ff 3d
       0.0 0.10098551 0.0 0.12462456
0003d0 e7 7f 8d bd 00 00 00 00 88 28 3c bd 00 00 00 00
       -0.06909161 0.0 -0.04593709 0.0
0003e0 00 00 00 00 3f 44 1f bd 9f 07 41 bd 2b d7 48 3d
       0.0 -0.038883444 -0.04712641 0.049033325
0003f0 00 00 00 00 00 00 00 00 a2 d2 bc 3d 37 d6 3a bd
       0.0 0.0 0.092198625 -0.045614447

features.11.bias f4 [84]
000000 56 26 88 3e 03 51 96 3d d9 55 3d 3e 88 0a 9a 3e
       0.26591748 0.073396705 0.1848978 0.3008616
000010 85 46 d8 bd b2 9a 99 3d 1d 2e d9 3d ae 1b 9a 3c
       -0.105603255 0.07500209 0.106044985 0.018812027
000020 cc 21 a2 3d 99 b4 f5 3d 26 75 83 3d 6c f5 8e ba
       0.079166025 0.11997337 0.06418829 -0.0010906882
000030 d7 5f 3b 3d d8 16 4a 3e fd 89 ce 3c 7a da 72 3c
       0.045745697 0.19735277 0.025212282 0.014822597
000040 12 1b 1a bd 14 2b 1d 3e 8d 11 85 ba b1 21 60 3e
       -0.037623473 0.15348464 -0.0010152325 0.21887852
000050 a4 4d f1 3c d7 23 89 3d 41 2d 0f 3e 63 d7 e9 3d
       0.029455967 0.06696289 0.13982107 0.11418035
000060 30 e8 c5 bb a4 d5 65 bd 41 b9 55 3e 63 bd 68 3e
       -0.006039642 -0.056111947 0.2087145 0.22728495
000070 f4 f8 59 3e ec 24 d6 39 e0 a5 89 bd c3 5e d4 3c
       0.21286374 0.0004084477 -0.06721091 0.025924092
000080 7b c6 b4 3b 82 1f 2c 3c c8 d3 b5 bc f5 66 86 bb
       0.005516825 0.010505559 -0.022195712 -0.004101629
000090 3d 6e ce 3d 21 ec 32 bb 7e ca 0e b9 89 2f fa 3d
       0.1007962 -0.0027301388 -0.0001361761 0.12216098
0000a0 8b 85 78 bb 55 9b 84 bb 8d af c8 3d 25 70 37 3d
       -0.0037921395 -0.0040468373 0.09799109 0.044784684
0000b0 c8 81 4a bd f7 c3 17 3e 46 0b ec 3d f9 a2 a3 3c
       -0.049440175 0.14820848 0.11525588 0.019975172
0000c0 0f 65 7b 3d 77 f3 60 bd 39 9e 57 3b c0 79 b4 bb
       0.061375674 -0.054919686 0.0032900705 -0.005507678
0000d0 94 a5 37 3e ce 53 0f 3e 11 a9 92 3e c1 8d 7a 3e
       0.17934257 0.13996813 0.28644612 0.24468137
0000e0 05 4e 6d 3e 67 fc 2e 3b 0d 33 b6 3c aa e5 c4 3c
       0.23174293 0.0026700736 0.02224114 0.024035294
0000f0 34 d6 31 3b 69 0e 27 3c 0c 3f 35 3e 67 df 82 3e
       0.0027135732 0.010196307 0.17699832 0.25561067
000100 d7 a5 98 3d 00 9a 77 3e 2b e1 9e 3e 50 98 c2 3d
       0.074535064 0.2417984 0.31031165 0.095017076
000110 20 4c be 3e a4 36 6e 3a 02 4e 00 3c b7 78 be bc
       0.37167454 0.00090871216 0.0078310985 -0.02325092
000120 a3 cc fa ba 62 3b f2 3c aa 0b 35 bb 32 be 1c 3e
       -0.0019134473 0.029569332 -0.002762536 0.15306929
000130 96 3e db bc 70 7d 04 3d 60 91 bd 3d 80 87 2b 3e
       -0.026763242 0.03234619 0.09256244 0.16750908
000140 fe c0 4d bb e8 1f 70 3d 91 04 45 3e c7 c4 aa 3c
       -0.003139555 0.05862418 0.19240023 0.020845784

classifiers.0.weight f4 [5, 84]
000000 7c 52 3e 3f 8c af be bd 6d a3 ec 3d 0a 06 4f 3e
       0.7434461 -0.09310827 0.115546085 0.20217147
000010 c8 69 06 be c7 d5 38 be 7d 50 96 be 7b a8 8d 3e
       -0.1312629 -0.180503 -0.29358283 0.27667603
000020 50 c3 8d be d6 4a e0 3e 48 7c f1 bc f2 2e 25 3c
       -0.27688074 0.43807095 -0.029478207 0.010081993
000030 be b1 df 3d fb 08 e3 be 26 12 d2 bd d0 41 e9 bc
       0.109225735 -0.4434279 -0.10257368 -0.028473765
000040 4d 19 86 3d cd 84 17 3d 17 f8 1c 3e 1e da 11 bf
       0.065477945 0.036991883 0.15329014 -0.56973445
000050 5b 94 84 bd 23 26 96 bd e2 7b 03 be 7f 1e 59 be
       -0.06473609 -0.07331493 -0.12840226 -0.2120304
000060 f8 ab 01 bb 6e 62 f1 be 42 34 00 bf 98 50 57 bd
       -0.001978634 -0.47145408 -0.5007974 -0.052567095
000070 89 ce 92 3e 59 06 6f 3c b2 85 84 3e 10 20 14 be
       0.286732 0.014588916 0.2588325 -0.14465356
000080 b8 94 54 bc e7 64 3f be 82 91 16 3e 9d e9 69 3a
       -0.01297491 -0.18690835 0.14703944 0.0008923056
000090 c7 bf 72 be 4d 28 41 3a 86 cb b8 3a 66 ce b8 bc
       -0.2370597 0.0007368371 0.0014098741 -0.022559356
0000a0 98 d5 4e 3e 33 39 8c bc 3c b8 e8 be f2 7f 9f be
       0.20198667 -0.017117118 -0.4545306 -0.31152302
0000b0 51 f7 d0 bd 29 11 f6 bd f5 87 cb be 3a ce 57 bb
       -0.10203422 -0.12014992 -0.39752164 -0.0032929317
0000c0 50 ed dd 3e d9 bc ec bc 39 5f c9 bc 29 f4 d7 b9
       0.43345118 -0.028898643 -0.024581539 -0.0004118991
0000d0 99 c2 6d be 90 b7 13 3c 40 01 92 3d 4c 57 02 3d
       -0.23218764 0.009015933 0.07129145 0.031821534
0000e0 0d 5d f4 3d 14 6d da 3e fc 1f 55 bc 58 6c e9 3b
       0.119318105 0.42661345 -0.013008114 0.0071235113
0000f0 25 e2 67 3e 48 c1 e6 3e 14 ae fc 3c 0d 2c 34 3e
       0.22644861 0.45069337 0.030844726 0.17594929
000100 dc 78 41 3c 55 78 4e 3e fc 9f 27 3e 24 48 54 be
       0.0118086 0.2016309 0.16369623 -0.20730644
000110 92 8a 9b be 3b 17 fd bb 09 3f 82 bc 10 36 61 3e
       -0.30379158 -0.0077237166 -0.015899198 0.2199328
000120 9a 33 b4 3c 6e 91 17 3c 3c 03 92 3a 6f 98 ee be
       0.021997262 0.009250982 0.001113988 -0.46600673
000130 32 77 c8 be 18 58 45 3e 86 8d b7 bd 48 59 4a 3f
       -0.3915344 0.19271886 -0.0896254 0.7904248
000140 c4 7c 9f ba e8 9a 52 be 73 74 89 be 24 cd ad 3c
       -0.001216792 -0.20566905 -0.26846656 0.021215983
000150 d7 64 b9 be 48 47 fa bc 07 28 01 bf c1 bf c7 be
       -0.36209747 -0.030551568 -0.504517 -0.39013484
000160 0b 05 e9 3a 0a 51 d0 bb 59 39 5d 3c 13 ad 27 bd
       0.0017777992 -0.006357317 0.013502442 -0.04093654
000170 6c e2 29 3e f1 f7 9d 3d f5 10 1d 3e c5 ab 2f bc
       0.1659028 0.07713307 0.153385 -0.010722105
000180 06 05 b8 be a1 14 b6 3e 60 36 04 3e 8a 20 d9 3c
       -0.35941333 0.35562614 0.12911367 0.026504774
000190 1e 5a b6 be 35 06 b0 be 69 a7 6d bd 11 4d 43 3e
       -0.3561563 -0.34379736 -0.058020983 0.19072367
0001a0 00 a8 23 bd 8d 72 0d bd 22 2f e1 3e e6 9f f9 3e
       -0.03995514 -0.034533072 0.43981272 0.48754805
0001b0 ec 20 d0 3a f4 d2 70 3d e2 d9 c6 3e b2 c2 28 be
       0.0015878952 0.05879493 0.38838106 -0.1648052
0001c0 bc d8 8d bd d8 e5 74 3c 27 1c 94 be 42 34 00 3d
       -0.069261044 0.014947377 -0.2892773 0.031299837
0001d0 b1 46 a7 bc 95 a9 b7 be 18 c6 e2 bd ad ff e4 bc
       -0.02041945 -0.35871568 -0.1107294 -0.027953947
0001e0 4e c8 4a 3c 37 a4 3e bc a4 a7 a7 3c 53 4b b9 bd
       0.012376858 -0.011635832 0.02046568 -0.0904757
0001f0 79 70 3a be b9 9b c0 b9 63 b0 7e be 54 f1 3b bd
       -0.18206967 -0.00036737116 -0.24871974 -0.045884445
000200 af fa eb bd 56 dc 9c 3d 73 7c 1d 3f 3a 50 0c 3d
       -0.115224235 0.07659213 0.6151802 0.034256198
000210 4b 0a f0 bd d1 80 20 3c 9f 2f a6 3c f1 e6 7d bc
       -0.11720713 0.009796337 0.02028638 -0.015496955
000220 21 ed a3 bd ae 58 a6 be 28 2a 74 be b1 de da bd
       -0.08004213 -0.32489532 -0.23844206 -0.10687006
000230 4e 2a 24 ba 76 cb a1 3d 3d 23 16 3e b2 16 92 3d
       -0.00062624074 0.07900135 0.1466188 0.07133235
000240 53 31 42 be f2 4d 05 be c4 46 4d be 6d 9c e5 bd
       -0.18964128 -0.13018015 -0.20046526 -0.112114765
000250 b2 96 32 be 05 13 5e bd 7a ba 91 be f8 17 28 3e
       -0.17440298 -0.054217357 -0.28462583 0.16415393
000260 7f 57 00 3f a9 fc 9a bc 20 ce 21 3d eb e3 82 be
       0.5013351 -0.018919306 0.039503217 -0.25564513
000270 5a ac 9b 3b d3 a9 94 3d dd 32 20 3c 4e 5f a2 3d
       0.0047507705 0.07258954 0.009777752 0.07928334
000280 bf e5 61 3c d1 a0 74 3d d9 34 25 3e a5 e1 68 3b
       0.013787686 0.05972368 0.16133441 0.0035534885
000290 b3 b3 68 bc d8 72 86 3b f6 9a 61 3d 52 c0 0f 3e
       -0.014203 0.004103046 0.055079423 0.14038208
0002a0 c2 70 d7 3d 3f c0 42 3e 7a fa ad 3e 81 5e de 3e
       0.10519554 0.19018649 0.3398016 0.43431476
0002b0 d7 19 8b be cd 84 a0 3d a8 63 2d 3d 3a 55 75 be
       -0.27168152 0.0783783 0.042331368 -0.23958293
0002c0 11 c4 e0 be 2b df 81 bc 44 0f 66 3d 2e c0 b7 3b
       -0.43899587 -0.015853485 0.056166902 0.0056076264
0002d0 6c f8 09 3c 97 48 62 3e 0d 4b 0b be 1b 61 50 bc
       0.008421045 0.22098003 -0.13602848 -0.012718464
0002e0 74 5e bb bc d2 46 89 3e 47 bc 3e be 1c 0a 0f 3e
       -0.022872187 0.26811844 -0.1862651 0.139687
0002f0 93 ea 11 3d 63 d6 32 3e ce 5f 43 3d 7a 07 b1 be
       0.035624098 0.17464595 0.04769879 -0.34576017
000300 b6 c0 ef bb 88 76 92 bd 13 b2 d7 3d ce 57 ba 3e
       -0.007316674 -0.07151514 0.10532012 0.36395115
000310 f2 20 6e 3e 55 6c 1e bc 8d cf 9a be 86 29 96 be
       0.23254755 -0.009669383 -0.30236474 -0.29328555
000320 4c f3 a8 3c 80 db 47 3e 9d eb 8b be da 6b aa bb
       0.020623825 0.19517326 -0.27328196 -0.005200845
000330 cb 62 51 be 0d 09 51 3b 3e 01 5e bc 93 1c 82 3e
       -0.20447843 0.0031896264 -0.013550101 0.25412425
000340 a4 ac a4 bd 02 ac 54 3b 47 d9 ee 3d 60 4f 8d be
       -0.08040741 0.0032451157 0.11662536 -0.2759962
000350 01 d9 65 be eb 99 fe 3d 8c 19 d0 be 22 d2 75 3c
       -0.22446062 0.12431701 -0.4064449 0.015003713
000360 47 65 cd 3a 55 8e 5f be 7f 0f 90 bc c1 9b 7d bb
       0.0015670442 -0.21831639 -0.017585514 -0.0038697573
000370 c6 e5 a7 3e 26 96 80 3e d0 80 f9 3e 16 f8 cc 3e
       0.3279249 0.25114554 0.4873109 0.40033025
000380 89 7c 97 3e 59 d8 20 bf 69 29 8b be fd 03 ed bc
       0.295872 -0.6283012 -0.2718003 -0.028932566
000390 7b bc f8 be c1 06 02 bf af 1c a1 3e d9 48 af 3e
       -0.485813 -0.50791556 0.31467196 0.34235266
0003a0 b7 5b 21 3e 64 26 98 3e 42 e9 f8 3e 25 96 36 3e
       0.15757643 0.2971679 0.48615462 0.17830713
0003b0 43 ee 86 3e 6d 4a 18 bc 99 80 02 3d 83 d7 23 be
       0.26353654 -0.009295088 0.03186092 -0.1600018
0003c0 f0 92 c4 bc cc 95 ea 3b f5 16 61 3c 2e c1 ea 3d
       -0.023995847 0.0071589705 0.013738384 0.11462627
0003d0 5a 97 bd 3c f4 52 94 bd 96 dc 02 3e e9 87 8c bc
       0.02314346 -0.072423846 0.1277946 -0.01715465
0003e0 38 f7 c2 bc 67 76 1a 3e fc 79 c1 3e fb fd 33 be
       -0.023799524 0.1508423 0.3778838 -0.17577355
0003f0 bc d8 bf bc cb 23 52 bd 3e 59 6b 3c f9 17 58 bd
       -0.023418777 -0.051303666 0.014364539 -0.052757237

classifiers.0.bias f4 [5]
000000 3a 4e f6 be 79 53 7e 3f 73 e5 57 3f 4e d5 63 bf
       -0.48106557 0.9934612 0.84334487 -0.8899735
000010 1f 79 ee be
       -0.46576783

classifier.weight f4 [5, 84]
000000 7c 52 3e 3f 8c af be bd 6d a3 ec 3d 0a 06 4f 3e
       0.7434461 -0.09310827 0.115546085 0.20217147
000010 c8 69 06 be c7 d5 38 be 7d 50 96 be 7b a8 8d 3e
       -0.1312629 -0.180503 -0.29358283 0.27667603
000020 50 c3 8d be d6 4a e0 3e 48 7c f1 bc f2 2e 25 3c
       -0.27688074 0.43807095 -0.029478207 0.010081993
000030 be b1 df 3d fb 08 e3 be 26 12 d2 bd d0 41 e9 bc
       0.109225735 -0.4434279 -0.10257368 -0.028473765
000040 4d 19 86 3d cd 84 17 3d 17 f8 1c 3e 1e da 11 bf
       0.065477945 0.036991883 0.15329014 -0.56973445
000050 5b 94 84 bd 23 26 96 bd e2 7b 03 be 7f 1e 59 be
       -0.06473609 -0.07331493 -0.12840226 -0.2120304
000060 f8 ab 01 bb 6e 62 f1 be 42 34 00 bf 98 50 57 bd
       -0.001978634 -0.47145408 -0.5007974 -0.052567095
000070 89 ce 92 3e 59 06 6f 3c b2 85 84 3e 10 20 14 be
       0.286732 0.014588916 0.2588325 -0.14465356
000080 b8 94 54 bc e7 64 3f be 82 91 16 3e 9d e9 69 3a
       -0.01297491 -0.18690835 0.14703944 0.0008923056
000090 c7 bf 72 be 4d 28 41 3a 86 cb b8 3a 66 ce b8 bc
       -0.2370597 0.0007368371 0.0014098741 -0.022559356
0000a0 98 d5 4e 3e 33 39 8c bc 3c b8 e8 be f2 7f 9f be
       0.20198667 -0.017117118 -0.4545306 -0.31152302
0000b0 51 f7 d0 bd 29 11 f6 bd f5 87 cb be 3a ce 57 bb
       -0.10203422 -0.12014992 -0.39752164 -0.0032929317
0000c0 50 ed dd 3e d9 bc ec bc 39 5f c9 bc 29 f4 d7 b9
       0.43345118 -0.028898643 -0.024581539 -0.0004118991
0000d0 99 c2 6d be 90 b7 13 3c 40 01 92 3d 4c 57 02 3d
       -0.23218764 0.009015933 0.07129145 0.031821534
0000e0 0d 5d f4 3d 14 6d da 3e fc 1f 55 bc 58 6c e9 3b
       0.119318105 0.42661345 -0.013008114 0.0071235113
0000f0 25 e2 67 3e 48 c1 e6 3e 14 ae fc 3c 0d 2c 34 3e
       0.22644861 0.45069337 0.030844726 0.17594929
000100 dc 78 41 3c 55 78 4e 3e fc 9f 27 3e 24 48 54 be
       0.0118086 0.2016309 0.16369623 -0.20730644
000110 92 8a 9b be 3b 17 fd bb 09 3f 82 bc 10 36 61 3e
       -0.30379158 -0.0077237166 -0.015899198 0.2199328
000120 9a 33 b4 3c 6e 91 17 3c 3c 03 92 3a 6f 98 ee be
       0.021997262 0.009250982 0.001113988 -0.46600673
000130 32 77 c8 be 18 58 45 3e 86 8d b7 bd 48 59 4a 3f
       -0.3915344 0.19271886 -0.0896254 0.7904248
000140 c4 7c 9f ba e8 9a 52 be 73 74 89 be 24 cd ad 3c
       -0.001216792 -0.20566905 -0.26846656 0.021215983
000150 d7 64 b9 be 48 47 fa bc 07 28 01 bf c1 bf c7 be
       -0.36209747 -0.030551568 -0.504517 -0.39013484
000160 0b 05 e9 3a 0a 51 d0 bb 59 39 5d 3c 13 ad 27 bd
       0.0017777992 -0.006357317 0.013502442 -0.04093654
000170 6c e2 29 3e f1 f7 9d 3d f5 10 1d 3e c5 ab 2f bc
       0.1659028 0.07713307 0.153385 -0.010722105
000180 06 05 b8 be a1 14 b6 3e 60 36 04 3e 8a 20 d9 3c
       -0.35941333 0.35562614 0.12911367 0.026504774
000190 1e 5a b6 be 35 06 b0 be 69 a7 6d bd 11 4d 43 3e
       -0.3561563 -0.34379736 -0.058020983 0.19072367
0001a0 00 a8 23 bd 8d 72 0d bd 22 2f e1 3e e6 9f f9 3e
       -0.03995514 -0.034533072 0.43981272 0.48754805
0001b0 ec 20 d0 3a f4 d2 70 3d e2 d9 c6 3e b2 c2 28 be
       0.0015878952 0.05879493 0.38838106 -0.1648052
0001c0 bc d8 8d bd d8 e5 74 3c 27 1c 94 be 42 34 00 3d
       -0.069261044 0.014947377 -0.2892773 0.031299837
0001d0 b1 46 a7 bc 95 a9 b7 be 18 c6 e2 bd ad ff e4 bc
       -0.02041945 -0.35871568 -0.1107294 -0.027953947
0001e0 4e c8 4a 3c 37 a4 3e bc a4 a7 a7 3c 53 4b b9 bd
       0.012376858 -0.011635832 0.02046568 -0.0904757
0001f0 79 70 3a be b9 9b c0 b9 63 b0 7e be 54 f1 3b bd
       -0.18206967 -0.00036737116 -0.24871974 -0.045884445
000200 af fa eb bd 56 dc 9c 3d 73 7c 1d 3f 3a 50 0c 3d
       -0.115224235 0.07659213 0.6151802 0.034256198
000210 4b 0a f0 bd d1 80 20 3c 9f 2f a6 3c f1 e6 7d bc
       -0.11720713 0.009796337 0.02028638 -0.015496955
000220 21 ed a3 bd ae 58 a6 be 28 2a 74 be b1 de da bd
       -0.08004213 -0.32489532 -0.23844206 -0.10687006
000230 4e 2a 24 ba 76 cb a1 3d 3d 23 16 3e b2 16 92 3d
       -0.00062624074 0.07900135 0.1466188 0.07133235
000240 53 31 42 be f2 4d 05 be c4 46 4d be 6d 9c e5 bd
       -0.18964128 -0.13018015 -0.20046526 -0.112114765
000250 b2 96 32 be 05 13 5e bd 7a ba 91 be f8 17 28 3e
       -0.17440298 -0.054217357 -0.28462583 0.16415393
000260 7f 57 00 3f a9 fc 9a bc 20 ce 21 3d eb e3 82 be
       0.5013351 -0.018919306 0.039503217 -0.25564513
000270 5a ac 9b 3b d3 a9 94 3d dd 32 20 3c 4e 5f a2 3d
       0.0047507705 0.07258954 0.009777752 0.07928334
000280 bf e5 61 3c d1 a0 74 3d d9 34 25 3e a5 e1 68 3b
       0.013787686 0.05972368 0.16133441 0.0035534885
000290 b3 b3 68 bc d8 72 86 3b f6 9a 61 3d 52 c0 0f 3e
       -0.014203 0.004103046 0.055079423 0.14038208
0002a0 c2 70 d7 3d 3f c0 42 3e 7a fa ad 3e 81 5e de 3e
       0.10519554 0.19018649 0.3398016 0.43431476
0002b0 d7 19 8b be cd 84 a0 3d a8 63 2d 3d 3a 55 75 be
       -0.27168152 0.0783783 0.042331368 -0.23958293
0002c0 11 c4 e0 be 2b df 81 bc 44 0f 66 3d 2e c0 b7 3b
       -0.43899587 -0.015853485 0.056166902 0.0056076264
0002d0 6c f8 09 3c 97 48 62 3e 0d 4b 0b be 1b 61 50 bc
       0.008421045 0.22098003 -0.13602848 -0.012718464
0002e0 74 5e bb bc d2 46 89 3e 47 bc 3e be 1c 0a 0f 3e
       -0.022872187 0.26811844 -0.1862651 0.139687
0002f0 93 ea 11 3d 63 d6 32 3e ce 5f 43 3d 7a 07 b1 be
       0.035624098 0.17464595 0.04769879 -0.34576017
000300 b6 c0 ef bb 88 76 92 bd 13 b2 d7 3d ce 57 ba 3e
       -0.007316674 -0.07151514 0.10532012 0.36395115
000310 f2 20 6e 3e 55 6c 1e bc 8d cf 9a be 86 29 96 be
       0.23254755 -0.009669383 -0.30236474 -0.29328555
000320 4c f3 a8 3c 80 db 47 3e 9d eb 8b be da 6b aa bb
       0.020623825 0.19517326 -0.27328196 -0.005200845
000330 cb 62 51 be 0d 09 51 3b 3e 01 5e bc 93 1c 82 3e
       -0.20447843 0.0031896264 -0.013550101 0.25412425
000340 a4 ac a4 bd 02 ac 54 3b 47 d9 ee 3d 60 4f 8d be
       -0.08040741 0.0032451157 0.11662536 -0.2759962
000350 01 d9 65 be eb 99 fe 3d 8c 19 d0 be 22 d2 75 3c
       -0.22446062 0.12431701 -0.4064449 0.015003713
000360 47 65 cd 3a 55 8e 5f be 7f 0f 90 bc c1 9b 7d bb
       0.0015670442 -0.21831639 -0.017585514 -0.0038697573
000370 c6 e5 a7 3e 26 96 80 3e d0 80 f9 3e 16 f8 cc 3e
       0.3279249 0.25114554 0.4873109 0.40033025
000380 89 7c 97 3e 59 d8 20 bf 69 29 8b be fd 03 ed bc
       0.295872 -0.6283012 -0.2718003 -0.028932566
000390 7b bc f8 be c1 06 02 bf af 1c a1 3e d9 48 af 3e
       -0.485813 -0.50791556 0.31467196 0.34235266
0003a0 b7 5b 21 3e 64 26 98 3e 42 e9 f8 3e 25 96 36 3e
       0.15757643 0.2971679 0.48615462 0.17830713
0003b0 43 ee 86 3e 6d 4a 18 bc 99 80 02 3d 83 d7 23 be
       0.26353654 -0.009295088 0.03186092 -0.1600018
0003c0 f0 92 c4 bc cc 95 ea 3b f5 16 61 3c 2e c1 ea 3d
       -0.023995847 0.0071589705 0.013738384 0.11462627
0003d0 5a 97 bd 3c f4 52 94 bd 96 dc 02 3e e9 87 8c bc
       0.02314346 -0.072423846 0.1277946 -0.01715465
0003e0 38 f7 c2 bc 67 76 1a 3e fc 79 c1 3e fb fd 33 be
       -0.023799524 0.1508423 0.3778838 -0.17577355
0003f0 bc d8 bf bc cb 23 52 bd 3e 59 6b 3c f9 17 58 bd
       -0.023418777 -0.051303666 0.014364539 -0.052757237

classifier.bias f4 [5]
000000 3a 4e f6 be 79 53 7e 3f 73 e5 57 3f 4e d5 63 bf
       -0.48106557 0.9934612 0.84334487 -0.8899735
000010 1f 79 ee be
       -0.46576783

features.9 f4 [120]
000000 32 9f a9 bc 68 18 85 b9 4a ea 80 3e 3f d5 5d 3e
       -0.020705793 -0.0002538592 0.25178748 0.21663378
000010 d2 c7 34 bd 30 ee 14 bc 93 ed 59 bb 67 d7 94 3d
       -0.044135876 -0.009089991 -0.0033253178 0.07267647
000020 8d c8 00 3c 2a 04 1d bc 37 b4 12 bc 56 1f dd bd
       0.007860315 -0.009583512 -0.008954099 -0.107969925
000030 f2 61 87 3c f6 e0 f6 3b e3 59 c9 3d 9e ad bb 3c
       0.016526196 0.0075341417 0.09831598 0.022909936
000040 7c 91 d5 3d 9e 0f 71 bc af 56 9d bd e2 41 3a 3d
       0.104281396 -0.014713196 -0.07682549 0.045472987
000050 80 37 0b 3c 6e e8 a5 3d 4b a3 c3 bc 30 5d 43 bd
       0.008497119 0.08100973 -0.023881575 -0.047696292
000060 f6 06 80 3d 9c 38 25 bd a7 8a 80 3d cc da aa bc
       0.06251328 -0.04033719 0.06276446 -0.020856284
000070 90 be e6 3d 99 ad f8 3c ce 48 64 3d bb 8f b8 ba
       0.11266816 0.030356215 0.055733494 -0.0014080921
000080 b7 e8 35 ba 83 e1 57 3a 15 4b d1 3c df 00 04 3c
       -0.0006939279 0.0008235203 0.025548497 0.008056848
000090 f4 0a da bc 2d 9b 5d bc 49 68 f4 ba 6d c2 a9 3c
       -0.026616551 -0.013525766 -0.0018646802 0.020722592
0000a0 52 94 98 3c 74 37 9d bb 6e b7 20 3d b0 2e b1 bc
       0.018625412 -0.0047978703 0.039237432 -0.021628708
0000b0 72 e4 b8 3d 37 dd 1c 3d d7 71 bf 3c 47 df 56 3d
       0.090279475 0.038296904 0.023369713 0.052459028
0000c0 9c c6 b1 3c 14 df 09 3e e8 f9 d6 bb cd 89 a3 bc
       0.02170115 0.13464004 -0.006560553 -0.01996317
0000d0 a5 8f be 3d de 37 0e 3d 54 9f 96 3b 83 2e 5c bc
       0.09304742 0.034721248 0.00459663 -0.013438824
0000e0 02 66 c7 3c bd cc 15 3b a5 eb fc 3c 38 bf 8b 3c
       0.024340633 0.002285763 0.030874083 0.017058954
0000f0 a6 fb fb bc e7 02 d8 bb df 6d 07 3d 6a ac 5e 3c
       -0.030759644 -0.006592143 0.033063766 0.013590911
000100 ed cf 93 bb e2 3f d8 bb 97 ef 01 bc 3c 09 d4 3c
       -0.0045108707 -0.0065994123 -0.007930658 0.02588331
000110 dc ca b0 bd f6 c3 8d 3d e6 84 bb 3c 9f e5 34 bd
       -0.08632442 0.06922142 0.02289052 -0.044164296
000120 02 bf 31 3d 5a 3a c6 ba c9 9c da 3b 99 2d bd 3d
       0.04339505 -0.0015123591 0.0066715223 0.09237213
000130 05 70 b6 3d 5f 39 0a 3d cf 39 10 3c 7a 50 12 bd
       0.08908085 0.03374612 0.008802845 -0.03572128
000140 df f3 b3 bc e2 17 8d bb 1d 57 89 3d de 8c f7 bc
       -0.021966873 -0.0043058256 0.06706069 -0.030218538
000150 15 15 b0 bc 87 ec 03 bd 82 94 f2 3d ae ea bf 3c
       -0.021494428 -0.032207992 0.11844732 0.023427334
000160 5b 36 b3 bd 6d 03 06 3e 1b 52 81 bb ec d6 ab 3c
       -0.08750602 0.13087244 -0.0039465553 0.020976506
000170 89 97 83 bd a1 8f f5 bc c3 8a 90 3d fe 32 11 3e
       -0.064253874 -0.029975714 0.07057717 0.14179608
000180 d0 23 0b 3d 94 29 10 3e 90 cd b2 3c d8 d2 b5 3b
       0.0339697 0.14078361 0.021826535 0.005548816
000190 fb ea 3b bb a2 15 87 bd a6 ed 33 3c 76 9e aa 3c
       -0.0028673995 -0.06595923 0.010981953 0.020827513
0001a0 99 22 ab 3d e1 f5 9c 3c 5d e4 66 3c 18 c5 3f 3e
       0.08356208 0.019160213 0.014092532 0.18727529
0001b0 ad 8d 0f 3d fe cc a6 3d d9 81 90 3c d3 c4 25 3d
       0.035047222 0.08144568 0.017640041 0.04047091
0001c0 da f0 98 3d c2 1d 10 bd 02 fc 61 bd a6 bb 82 bb
       0.07467814 -0.03518463 -0.055171974 -0.0039896546
0001d0 c7 89 25 bd 1d e8 4e 3c 7d af d5 bc 43 a0 7e bd
       -0.040414598 0.012628582 -0.026084656 -0.062164556
