checkpoints_lenet5/baseline_scratch/lenet5/people/checkpoint-100.pth.tar (torch, 312219 bytes, 12 tensors)

features.0.weight f4 [6, 3, 5, 5]
-0.39033198 -0.2674317 -0.24697618 -0.021113783 0.14640002 -0.21470459 -0.23306297 -0.27167287
-0.009313989 0.20242064 -0.015303222 -0.41474515 -0.06413135 -0.2720809 0.021008804 -0.023266433
-0.049215775 -0.3779286 0.030570332 0.0018722926 0.064640604 0.059289817 -0.041507695 -0.18012801
-0.07914283 0.035585936 0.04838901 -0.17793049 -0.07718275 0.14981215 -0.18494296 -0.11427393
0.006852001 -0.13790399 0.059568956 0.021269538 -0.075368755 -0.3971306 -0.18344457 0.11936333
0.049104422 -0.06424522 -0.1764414 -0.1856261 0.11018574 -0.265376 0.047428526 -0.04542885
-0.09900279 0.026144365 0.10208792 -0.031375755 0.032508902 0.17719963 0.21312752 0.11205374
-0.043937624 -0.05678096 0.081972316 0.27863336 0.14349054 0.06504865 -0.0019932238 0.20263502
-0.038277708 -0.12539287 0.0736877 0.15995015 -0.09937014 0.07088014 0.11173373 0.25731948
0.22278748 0.1432195 -0.1634097 0.0076736845 0.07165006 -0.018360915 0.0034314285 0.05862015
0.17953525 0.34544057 0.23182699 -0.06457271 0.00837954 0.19767778 0.16024429 0.28931504
0.2365685 0.027969588 -0.0033126723 0.21146242 -0.102180645 0.07116774 -0.044950034 0.18194884
0.31648967 0.08587963 0.07253629 -0.09721781 -0.37580606 -0.33797544 -0.17335857 -0.3216132
-0.1952674 -0.10111316 -0.6537634 -0.23272586 -0.23351108 -0.2985671 -0.33344966 -0.3176327
-0.5683462 -0.3616463 0.090859264 -0.26699144 -0.43807727 -0.3665827 -0.2865144 0.031689066
-0.39549705 -0.246646 -0.13657963 -0.07180825 0.03209215 0.16090107 0.046964545 0.3210861
0.14449057 0.27061802 0.0792007 0.30280384 0.32156545 0.10012277 0.053398512 0.16555856
0.22152218 0.1928332 0.1480692 0.33270407 0.07806227 0.1607336 -0.003854471 0.09658472
0.049914986 0.32185882 0.058267295 0.13138703 0.49004358 0.1314284 0.04614373 -0.088153705
-0.1323054 0.009935373 -0.086978644 -0.1365867 -0.12408531 0.0248581 -0.13166092 -0.15445706
-0.14896685 -0.03800708 -0.076896094 -0.21258871 -0.11819285 -0.033957798 -0.23036371 -0.106483474
0.0022951795 -0.17875193 -0.12500696 -0.092494436 -0.007847183 -0.29187506 0.032730535 0.09660034
0.26201743 -0.013727676 0.11413276 -0.16225664 0.085521035 0.034265727 0.08848922 0.15253845
0.045164533 0.042704288 0.13412836 -0.048734933 -0.05282122 0.06349532 0.07067617 0.06651964
0.010408892 -0.03804014 -0.06642258 -0.0440379 0.21941996 0.050166927 -0.13864863 0.07976788
0.09653254 0.11205327 0.38141772 0.17006066 0.12228413 0.13151057 0.2006206 0.2981288
-0.021545587 -0.024128143 -0.068274684 -0.17886509 -0.12905496 -0.09395977 -0.13304622 0.05857611
0.037608124 -0.048582125 0.09987761 0.04112072 0.039061368 0.28313634 0.0077460217 0.13400064
0.11626209 -0.30193323 -0.16624908 -0.1935442 0.058967005 0.46526796 -0.23434411 -0.21478641
0.15419821 0.17022447 0.21129571 -0.10872517 -0.1763869 -0.0938427 0.14045218 0.27382803
-0.13117161 -0.2660676 -0.12175484 0.15408728 0.3907776 -0.110873796 -0.20665933 0.0044726664
0.1804101 0.2800207 -0.21042734 -0.14871782 -0.2669201 0.03648403 0.094196126 0.0060795415
00000000: 98d9 c7be cfec 88be 53e7 7cbe d0f6 acbc
00000010: e3e9 153e 85db 5bbe 0fa8 6ebe b518 8bbe
00000020: b499 18bc 5b47 4f3e 5eba 7abc 7a59 d4be
00000030: 4c57 83bd 304e 8bbe a81a ac3c 3f99 bebc
00000040: 7b96 49bd dc7f c1be a26e fa3c b767 f53a
00000050: 4b62 843d e1d9 723d f903 2abd 7a73 38be
00000060: a315 a2bd 8fc2 113d 8e33 463d 6933 36be
00000070: fd11 9ebd 5b68 193e b061 3dbe 7308 eabd
00000080: c086 e03b b436 0dbe 94fe 733d 743d ae3c
00000090: ef5a 9abd b454 cbbe e5d8 3bbe c374 f43d
000000a0: b821 493d ff92 83bd 0ead 34be c514 3ebe
000000b0: 10a9 e13d 5ddf 87be 6a44 423d 9a13 3abd
000000c0: fac1 cabd b52c d63c 7913 d13d dd83 00bd
000000d0: 0e28 053d d273 353e 1a3e 5a3e 6e7c e53d
000000e0: f0f7 33bd 2793 68bd 1ae1 a73d 08a9 8e3e
000000f0: 2fef 123e 3a38 853d bfa0 02bb 8e7f 4f3e
00000100: 16c9 1cbd fd66 00be 94e9 963d f9c9 233e
00000110: 9282 cbbd 9b29 913d a7d4 e43d 61bf 833e
00000120: 6722 643e 22a8 123e df54 27be 8873 fb3b
00000130: 44bd 923d a169 96bc d1e1 603b af1b 703d
00000140: 17d8 373e 96dd b03e 0e64 6d3e b23e 84bd
00000150: 574a 093c 0b6c 4a3e 1417 243e 1a21 943e
00000160: 033f 723e 7a20 e53c 6b19 59bb 9b89 583e
00000170: 1644 d1bd 64c0 913d 871d 38bd cc50 3a3e
00000180: ef0a a23e a9e1 af3d e88d 943d 221a c7bd
00000190: a769 c0be 1e0b adbe e984 31be 7caa a4be
000001a0: 2df4 47be 6b14 cfbd 0a5d 27bf b04f 6ebe
000001b0: 871d 6fbe c9dd 98be eab9 aabe c1a0 a2be
000001c0: 237f 11bf b429 b9be 6c14 ba3d 1ab3 88be
000001d0: aa4b e0be bab0 bbbe 04b2 92be 65cc 013d
000001e0: 977e cabe c590 7cbe 88db 0bbe 3410 93bd
000001f0: 0f73 033d 40c3 243e e55d 403d 6665 a43e
00000200: 56f5 133e 728e 8a3e fa33 a23d 1b09 9b3e
00000210: 3aa4 a43e 2b0d cd3d 66b8 5a3d 2f88 293e
00000220: b6d6 623e 1176 453e 749f 173e 3058 aa3e
00000230: 1ddf 9f3d 5997 243e 4b9b 7cbb 36ce c53d
00000240: a873 4c3d aeca a43e b0a9 6e3d 528a 063e
00000250: fee6 fa3e 2b95 063e 3501 3d3d ee89 b4bd
00000260: 117b 07be fac7 223c dc21 b2bd 62dd 0bbe
00000270: 7020 febd 37a3 cb3c 1fd2 06be fe29 1ebe
00000280: c48a 18be 50ad 1bbd b37b 9dbd dbb0 59be
00000290: 180f f2bd 5517 0bbd 77e4 6bbe 0214 dabd
000002a0: b96a 163b bf0a 37be d301 00be b96d bdbd
000002b0: 7991 00bc a670 95be 7410 063d 66d6 c53d
000002c0: 2627 863e 0cea 60bc 70be e93d 9b26 26be
000002d0: a725 af3d 385a 0c3d d639 b53d 0a33 1c3e
000002e0: 72fe 383d b1ea 2e3d f258 093e 489e 47bd
000002f0: 105b 58bd d609 823d abbe 903d 733b 883d
00000300: 0f8a 2a3c facf 1bbd 9008 88bd 1661 34bd
00000310: a0af 603e d67b 4d3d e8f9 0dbe 585d a33d
00000320: dab2 c53d 2f7c e53d 2f49 c33e 6224 2e3e
00000330: 1a70 fa3d b5aa 063e 7d6f 4d3e 57a4 983e
00000340: 5f80 b0bc 62a8 c5bc 99d3 8bbd 6928 37be
00000350: fc26 04be fb6d c0bd 453d 08be 81ed 6f3d
00000360: fa0a 1a3d 0dfe 46bd a28c cc3d 336e 283d
00000370: d0fe 1f3d 3ff7 903e 57d2 fd3b 7737 093e
00000380: d21a ee3d fe96 9abe 333d 2abe 7330 46be
00000390: 6387 713d 9a37 ee3e e7f7 6fbe f8f0 5bbe
000003a0: 23e6 1d3e 534f 2e3e e75d 583e 4dab debd
000003b0: c49e 34be 9a30 c0bd b2d2 0f3e 3033 8c3e
000003c0: da51 06be 033a 88be 9a5a f9bd 0ec9 1d3e
000003d0: 0014 c83e cd11 e3bd 819e 53be 728f 923b
000003e0: 6dbd 383e e05e 8f3e 447a 57be 7c49 18be
000003f0: c0a9 88be 4770 153d e6e9 c03d e436 c73b

features.3.weight f4 [16, 6, 5, 5]
-0.06476904 0.08395027 0.061996218 0.06887248 0.16113392 0.0062010186 -0.067567006 -0.03874599
-0.06964733 0.1662834 -0.06991288 -0.10549597 -0.082370706 -0.0930687 0.0782545 0.009927302
-0.041618403 0.1097109 0.1403609 -0.10355297 -0.103952676 0.047202263 -0.012253461 -0.08410015
-0.010891529 -0.023733636 -0.10071535 0.030073922 0.050259016 0.17402706 0.13204314 0.048316456
0.025701527 0.0226518 0.011644423 -0.013572764 0.017613877 0.12783252 0.015979487 0.04011807
-0.084576204 -0.05869305 -0.1765326 0.004081892 -0.10823256 -0.030768575 -0.033926375 0.009355817
0.10116149 -0.07077907 0.005617893 0.0039856564 -0.044281438 -0.0523539 -0.07136117 -0.06120081
0.044444267 0.010339536 -0.026070064 -0.11023831 -0.060116585 -0.06920055 -0.02414699 -0.114802755
-0.06010199 0.019362733 0.07678013 -0.058830224 -0.0014239092 0.0017338315 0.06538018 -0.0017896823
0.06827107 -0.1054088 -0.15189378 0.13314398 0.17546536 0.113263756 -0.046369884 0.057798695
0.0374141 0.04119324 0.15595134 0.023700085 0.15789755 0.067306496 -0.057272185 0.00847868
0.065016285 -0.053089354 0.013905171 -0.025797805 0.13936874 0.01961483 0.059750233 -0.007797734
-0.1430422 -0.03266446 0.030161262 0.07811107 0.17576498 0.12015598 0.1581319 -0.021960333
-0.018421056 0.14339127 0.08254839 0.039959207 0.05567069 -0.12946248 0.039446313 0.012356737
0.077778146 0.18940748 0.047255453 0.019956395 0.13294637 -0.044956483 0.15867978 0.049470633
0.12868097 -0.035919145 0.021490728 -0.0034528666 0.02685139 0.012825881 -0.07516047 -0.026672548
-0.032161616 -0.0653092 -0.013802605 -0.13399643 -0.15016085 -0.100901596 -0.11393411 0.018043902
-0.06046732 -0.12845051 -0.0017225889 -0.027455445 -0.06905084 -0.17656922 -0.2558304 -0.16938804
-0.024421036 -0.11604866 -0.06921913 -0.14938585 -0.18042292 -0.08115142 0.026209699 -0.08943956
-0.057902575 -0.035175133 -0.040948275 0.099400796 -0.14645617 -0.08737609 -0.15105464 -0.22303788
-0.085748024 -0.08314598 -0.1654763 -0.043687765 -0.06373627 0.044822674 -0.028164145 -0.075824596
-0.11700706 -0.1486642 -0.076503895 -0.006976601 -0.046888538 -0.085992746 -0.087411635 -0.011109612
0.07139679 -0.18249154 -0.025762685 -0.10853582 0.031981736 -0.06329501 0.08544409 -0.018953362
-0.05706709 0.09810599 0.21751837 0.1522226 0.11757499 0.13634391 0.2165839 0.16051656
0.1763497 0.09721454 0.18214718 -0.026175797 0.16652243 0.145667 0.07768654 0.22705217
0.08783832 -0.07961042 0.019957988 0.04277837 0.1001029 0.013145773 -0.031404845 0.060009602
-0.040273085 -0.12864296 0.08728857 -0.087380655 -0.1447764 -0.042865608 0.0034592003 -0.08272496
-0.081650354 -0.05304254 -0.044548307 -0.026998147 -0.064831905 -0.017152147 -0.091833085 0.098545805
-0.059441335 0.0016165634 0.119693235 -0.04579766 0.01592093 -0.09803706 -0.05483981 -0.08353898
-0.064198 0.051993232 -0.13165973 0.13969061 0.027250493 -0.18127416 0.06309727 -0.008984131
-0.015915018 0.04841398 0.03515315 -0.014224128 -0.031129299 0.009421783 0.0074683265 -0.14147858
0.0034214973 0.040696293 0.029077929 -0.11681908 -0.02155802 -0.08077926 -0.0012468924 -0.024217632
00000000: a1a5 84bd 1fee ab3d bfef 7d3d 040d 8d3d
00000010: 4a00 253e ea31 cb3b 9260 8abd 1db4 1ebd
00000020: 42a3 8ebd 3246 2a3e 7c2e 8fbd 450e d8bd
00000030: f9b1 a8bd cd9a bebd e543 a03d 1fa6 223c
00000040: 0f78 2abd 1cb0 e03d c5ba 0f3e 9413 d4bd
00000050: 24e5 d4bd 2957 413d bec2 48bc b33c acbd
00000060: 6272 32bc 0b6d c2bc d943 cebd 965d f63c
00000070: 66dc 4d3d 2634 323e 5136 073e 7ae7 453d
00000080: 028c d23c 4590 b93c 40c8 3e3c 4c60 5ebc
00000090: fa4a 903c 87e6 023e 6ae7 823c d852 243d
000000a0: 4a36 adbd 2068 70bd f6c4 34be 64c1 853b
000000b0: 08a9 ddbd 610e fcbc 62f6 0abd 2449 193c
000000c0: c12d cf3d 9ef4 90bd 4d16 b83b 1c9a 823b
000000d0: 7460 35bd 0b71 56bd ce25 92bd b3ad 7abd
000000e0: 310b 363d 2867 293c e390 d5bc a0c4 e1bd
000000f0: cf3c 76bd 05b9 8dbd e9cf c5bc b51d ebbd
00000100: 812d 76bd 989e 9e3c e73e 9d3d f6f7 70bd
00000110: 77a2 baba bb41 e33a 0be6 853d c693 eaba
00000120: b4d1 8b3d 92e0 d7bd 0b8a 1bbe e556 083e
00000130: 31ad 333e d4f6 e73d 59ee 3dbd 53be 6c3d
00000140: 873f 193d 3eba 283d b5b1 1f3e ae26 c23c
00000150: e5af 213e fdd7 893d 3d96 6abd 29ea 0a3c
00000160: 4227 853d 3974 59bd 84d2 633c eb55 d3bc
00000170: aeb6 0e3e 48af a03c a9bc 743d 2284 ffbb
00000180: a879 12be 2bcb 05bd c014 f73c b2f8 9f3d
00000190: bcfb 333e 5714 f63d 54ed 213e 28e6 b3bc
000001a0: c1e7 96bc 29d5 123e 210f a93d 44ac 233d
000001b0: f306 643d d091 04be 7592 213d e973 4a3c
000001c0: 264a 9f3d 09f4 413e ef8e 413d 987b a33c
000001d0: 1823 083e 4a24 38bd f47c 223e b8a1 4a3d
000001e0: f2c4 033e f41f 13bd 530d b03c 7d49 62bb
000001f0: 72f7 db3c a523 523c bced 99bd 6380 dabc
00000200: e6bb 03bd d4c0 85bd 5224 62bc 5c36 09be
00000210: c4c3 19be 7fa5 cebd 4956 e9bd ced0 933c
00000220: 95ac 77bd 8888 03be 7ec8 e1ba 3eea e0bc
00000230: 876a 8dbd 90ce 34be 34fc 82be 0f74 2dbe
00000240: a00e c8bc ebaa edbd c2c2 8dbd 9bf8 18be
00000250: c9c0 38be b732 a6bd b9b5 d63c 172c b7bd
00000260: 402b 6dbd cd13 10bd 61b9 27bd a592 cb3d
00000270: 9bf8 15be 3cf2 b2bd 11ae 1abe 0b64 64be
00000280: a99c afbd 7148 aabd 9f72 29be f1f1 32bd
00000290: 2988 82bd fb97 373d 7eb8 e6bc ed49 9bbd
000002a0: 66a1 efbd 6e3b 18be 13ae 9cbd f99b e4bb
000002b0: 320e 40bd f71c b0bd df04 b3bd 1705 36bc
000002c0: 7b38 923d 10df 3abe 440c d3bc 0748 debd
000002d0: 48ff 023d d0a0 81bd 50fd ae3d 1544 9bbc
000002e0: 2ebf 69bd cbeb c83d 23bd 5e3e 3ee0 1b3e
000002f0: 28cb f03d bd9d 0b3e 2bc8 5d3e 745e 243e
00000300: 0495 343e 6b18 c73d ca84 3a3e a06e d6bc
00000310: db84 2a3e bb29 153e 1f1a 9f3d 5d80 683e
00000320: 94e4 b33d ca0a a3bd ef7e a33c 5f38 2f3d
00000330: c002 cd3d 5e61 573c 5ea2 00bd a1cc 753d
00000340: 64f5 24bd fbba 03be 5ac4 b23d a1f4 b2bd
00000350: 4440 14be d993 2fbd c0b3 623b b46b a9bd
00000360: 4d38 a7bd 2243 59bd 4978 36bd 382b ddbc
00000370: 97c6 84bd a982 8cbc fc12 bcbd 62d2 c93d
00000380: c278 73bd dee2 d33a ba21 f53d 5496 3bbd
00000390: 9c6c 823c a7c7 c8bd b59f 60bd 7c16 abbd
000003a0: 3e7a 83bd dbf6 543d cfd1 06be 0e0b 0f3e
000003b0: 6d3c df3c ef9f 39be 2439 813d 2d32 13bc
000003c0: 3660 82bc bd4d 463d c0fc 0f3d 510c 69bc
000003d0: df02 ffbc d25d 1a3c ddb8 f43b c3df 10be
000003e0: 333b 603b 28b1 263d d634 ee3c d83e efbd
000003f0: 729a b0bc 996f a5bd c46e a3ba 0e64 c6bc

features.7.weight f4 [120, 400]
0.027382545 -0.010317126 -0.0062481137 -0.00089005876 0.019967742 0.038769607 0.02511589 0.011141787
0.019447664 0.03174584 0.051785655 0.018148635 0.010511869 0.010484577 0.031923354 0.014868386
0.0062259757 0.031153759 0.02285973 0.019165339 -0.0064139436 -0.0009855964 0.011717922 -0.0064067887
0.0068937866 0.024958747 0.021214483 -0.009128055 0.010167394 0.02319547 0.01833387 0.0100574065
-0.0033786478 -0.003625211 0.012304887 0.029525513 -0.010945062 -0.016188301 -0.0023411706 0.0054916996
0.002754423 -0.014766619 0.0054934146 0.011489827 -0.012776748 0.00959119 -0.00050702493 0.010607505
-0.007802242 -0.019855162 -0.0033471843 0.021008192 0.0038812214 -0.0028987015 0.021847347 -0.011917525
0.014680708 0.01864426 0.0040394687 -0.009538342 0.0014743304 0.011260447 0.014772613 -0.008698306
-0.0010335639 -0.0015189713 0.019598559 0.011944866 -0.0036544856 -0.014632218 -0.0068315594 0.0032927094
0.0016878044 -0.009487694 0.0070384536 -0.0102269165 -0.018645106 -0.01611077 -0.013298922 -0.029523097
-0.001323309 0.00025798922 -0.010162382 0.0075011365 0.02998245 0.0150369555 0.01063777 0.015729
-0.0065628514 0.012482615 0.011035802 -0.02245952 0.013504271 -0.020344721 -0.006949775 0.0035127373
-0.038965937 -0.0016764394 -0.00766143 -0.00044676842 0.030523364 0.039830122 -0.012538763 -0.022224408
0.006961694 -0.0027065412 0.0063493196 -0.0037939593 0.0015393067 -0.0013034205 -0.0036877724 0.0042207376
0.003469115 -0.006580655 0.0015112428 0.010431723 -0.008279278 0.0021531582 -0.0074089756 -0.013551562
0.035053726 -0.009675027 -0.012120397 -0.018955307 -0.035157826 0.038605317 0.024049157 0.006346492
0.015420245 0.07341813 0.024707295 -0.0039884923 -0.014926315 -0.005937304 0.03201552 0.020361358
-0.02556401 -0.01447314 -0.0041852966 0.01069289 -0.010900106 -0.024205757 -0.026854284 -0.033016928
-0.017966544 0.008833884 -0.028119212 0.024467872 0.0018592968 -0.022696331 0.011587036 0.0020715294
-0.0014548918 0.009423927 0.008251756 -0.01235589 0.027047107 -0.0016781186 0.010881573 -0.009707401
-0.0094619915 0.00511546 0.013429091 -0.006506965 -0.0029567005 -0.01131743 -0.00044105924 0.03226568
0.00069949904 -0.015626213 0.003196905 0.0083049005 0.007893735 -0.00053269934 -0.0020153113 -0.015924377
-0.017839406 0.008987388 0.011102624 0.03887486 -0.01392035 -0.00011828484 0.017880281 -0.014683226
0.018094555 0.007913518 0.022651464 0.017255882 0.015171504 0.024533734 0.010010715 0.02479921
0.03028145 0.021205936 0.014518056 -0.0069705085 0.015268851 0.041764736 0.026711117 -0.006655754
0.023260059 0.012893778 -0.0054057087 -0.018221043 -0.009906299 0.027735284 -0.009629109 -0.03055767
-0.022474714 -0.015086046 0.008971185 -0.0066049886 0.021529878 -0.0007918888 0.012861927 0.018362619
0.0042283675 -0.0041781683 -0.008254572 -0.0010830589 0.026579622 -0.0006638923 -0.0063348194 -0.010786463
-0.002599482 -0.00072959287 0.012849212 0.0062585827 0.021009738 0.017078679 -0.0064634355 0.0037021723
0.01848168 0.022599291 0.029402796 -0.011099953 0.0012599905 -0.0072340006 0.018248102 0.021513255
-0.018439306 -0.009883106 -0.01317276 9.631899e-05 0.0006556439 0.0017005383 0.0014678872 -0.022105422
-0.009812124 0.0009510729 -0.013542771 -0.004961964 -0.025163462 -0.02445525 -0.015596038 -0.013439889
00000000: 5c51 e03c 2a09 29bc fabc ccbb d552 69ba
00000010: 6493 a33c e1cc 1e3d d7bf cd3c 0b8c 363c
00000020: b550 9f3c ed07 023d 321d 543d 72ac 943c
00000030: f939 2c3c 81c7 2b3c 10c2 023d 889a 733c
00000040: 4503 cc3b 2b36 ff3c 5444 bb3c a100 9d3c
00000050: 0f2c d2bb 212f 81ba 87fc 3f3c 0af0 d1bb
00000060: 46e5 e13b 4976 cc3c ffc9 ad3c d68d 15bc
00000070: 2495 263c 6d04 be3c ea30 963c d2c7 243c
00000080: 4e6c 5dbb f394 6dbb 709a 493c 7ddf f13c
00000090: eb52 33bc 549d 84bc 536e 19bb b7f3 b33b
000000a0: 8d83 343b b0ef 71bc 1a02 b43b d43f 3c3c
000000b0: 9155 51bc 5e24 1d3c dee9 04ba 1acb 2d3c
000000c0: f3a9 ffbb 4ba7 a2bc 6f5c 5bbb 5f19 ac3c
000000d0: 175c 7e3b 24f8 3dbb 35f9 b23c b941 43bc
000000e0: 5a87 703c d9bb 983c 855d 843b b546 1cbc
000000f0: 523e c13a bd7d 383c d408 723c 5783 0ebc
00000100: a678 87ba 3818 c7ba 288d a03c 66b4 433c
00000110: 1880 6fbb f8bb 6fbc 46db dfbb 7fca 573b
00000120: 5139 dd3a 4672 1bbc d4a2 e63b cc8e 27bc
00000130: 9fbd 98bc bcfa 83bc b9e3 59bc 6cda f1bc
00000140: e272 adba ba42 8739 1f80 26bc 18cc f53b
00000150: c19d f53c 905d 763c 0b4a 2e3c 1bda 803c
00000160: 300d d7bb e283 4c3c 82cf 343c 07fd b7bc
00000170: 0541 5d3c f9a9 a6bc f0ba e3bb f435 663b
00000180: bf9a 1fbd f9bb dbba bc0c fbbb 3e3c eab9
00000190: 220c fa3c e924 233d 626f 4dbc f60f b6bc
000001a0: ec1e e43b 3a60 31bb f40d d03b 13a4 78bb
000001b0: 90c2 c93a 89d7 aaba 8eae 71bb 1d4e 8a3b
000001c0: 175a 633b 89a2 d7bb e514 c63a d1e9 2a3c
000001d0: cfa5 07bc 001c 0d3b fec6 f2bb 5f07 5ebc
000001e0: 7f94 0f3d 0184 1ebc a194 46bc 2948 9bbc
000001f0: a701 10bd 9c20 1e3d bd02 c53c 3cf6 cf3b
00000200: 32a5 7c3c 3f5c 963d f466 ca3c e6b1 82bb
00000210: 818d 74bc b78d c2bb b522 033d ddcc a63c
00000220: 9d6b d1bc c020 6dbc d024 89bb 3b31 2f3c
00000230: 5c96 32bc 274b c6bc 84fd dbbc c23c 07bd
00000240: 932e 93bc ffbb 103c 435a e6bc d970 c83c
00000250: a6b3 f33a a8ed b9bc 8dd7 3d3c 7fc2 073b
00000260: 11b2 beba d166 1a3c 6032 073c 5c70 4abc
00000270: e591 dd3c 51f4 dbba a048 323c ca0b 1fbc
00000280: 7806 1bbc 979f a73b b105 5c3c 6138 d5bb
00000290: 34c5 41bb be6c 39bc f83d e7b9 0529 043d
000002a0: 965e 373a 8b02 80bc 2a83 513b 4711 083c
000002b0: b954 013c d9a4 0bba 5013 04bb d773 82bc
000002c0: f223 92bc d63f 133c c8e7 353c 3f3b 1f3d
000002d0: 2e12 64bc b10f f8b8 ab79 923c ea91 70bc
000002e0: 083b 943c b3a7 013c 908f b93c 355c 8d3c
000002f0: e691 783c f8fa c83c fb03 243c b627 cb3c
00000300: ce10 f83c 12b8 ad3c 24dd 6d3c dd68 e4bb
00000310: 342a 7a3c 8011 2b3d 46d1 da3c 8318 dabb
00000320: e18b be3c 6d40 533c 5f22 b1bb 4c44 95bc
00000330: 084e 22bc 1b35 e33c 69c3 1dbc 1454 fabc
00000340: e41c b8bc 772b 77bc e1fb 123c a96e d8bb
00000350: 6d5f b03c c296 4fba d5ba 523c 346d 963c
00000360: 1e8e 8a3b 04e9 88bb 2f3e 07bc 6df5 8dba
00000370: 82bd d93c 0f09 2eba 5194 cfbb b4b9 30bc
00000380: 125c 2abb 2642 3fba 8085 523c cc14 cd3b
00000390: 9d1c ac3c 96e8 8b3c 3acb d3bb 25a0 723b
000003a0: e466 973c 2622 b93c 22de f03c 94dc 35bc
000003b0: 4426 a53a 320b edbb 0b7d 953c 913c b03c
000003c0: 070e 97bc c0ec 21bc 8fd2 57bc ddfe c938
000003d0: 84df 2b3a 99e4 de3a 1f66 c03a 6e16 b5bc
000003e0: 08c3 20bc 6c51 793a 80e2 5dbc f997 a2bb
000003f0: 9b23 cebc 6056 c8bc 8686 7fbc fb32 5cbc

features.7.bias f4 [120]
0.009599984 -0.067263134 -0.102215335 0.008369784 0.044015285 -0.00308878 -0.009435489 0.012356865
-0.06775657 -0.014065315 0.07410785 0.02288699 -0.017150095 0.01771432 0.060315885 0.029621417
-0.01038727 0.020445434 -0.0036001431 -0.04438947 -0.0006088912 0.014898377 -0.08276644 0.003550847
0.032040168 0.059479654 0.00090214895 -0.00664297 -0.060450524 0.027255643 -0.004822 0.0022880596
-0.0046157003 0.014667334 -0.036422245 -0.00082582916 -0.14315578 0.018195048 0.010843152 -0.010969719
-0.0050815423 0.05579087 -0.13136406 -0.0035754654 -0.007759232 -0.00049189356 -0.0015396674 -0.043985184
-0.029622145 0.01956561 0.0021402382 0.05039752 -0.004794616 -0.052593254 -0.017879037 -0.075000525
-0.012930473 0.0027579532 -0.00036974112 -0.022182237 0.0021892712 -0.051201083 -0.041287147 0.0030942275
0.040194567 -0.031544935 -0.07773897 -0.027786283 -0.035830468 0.016882494 -0.0006147791 0.030268257
-0.003640746 0.059517723 0.078838065 0.021083793 0.1111307 -0.0016124614 -0.07985744 -0.11818625
0.04156693 -0.0101133 -0.011515379 -0.048474807 -0.07076351 -0.014248463 -0.023374446 0.040739473
0.05548072 0.0077466206 -0.074868456 -0.035319705 -0.043284085 6.066827e-05 0.004954114 0.03728173
-0.008780065 -0.041123662 0.017880607 -0.035967022 -0.005636783 -0.041515198 0.002070222 -0.029728714
-0.049900606 -0.015904732 -0.055047058 0.0025099376 -0.07360421 -0.012334477 -0.05765682 0.032661196
0.009083619 -0.04382957 0.0038335226 0.08976493 -0.11230465 0.03675641 0.010393449 -0.00042395378
00000000: 4049 1d3c 41c1 89bd 4656 d1bd 6b21 093c
00000010: 5f49 343d 216d 4abb 4f97 1abc 7374 4a3c
00000020: f5c3 8abd 3572 66bc dbc5 973d 7f7d bb3c
00000030: 5b7e 8cbc 9f1d 913c ca0d 773d 9da8 f23c
00000040: 5e2f 2abc 2f7d a73c 61f0 6bbb bcd1 35bd
00000050: ff9d 1fba 5218 743c 7481 a9bd 54b5 683b
00000060: 8d3c 033d f0a0 733d 317e 6c3a 45ad d9bb
00000070: f89a 77bd 3a47 df3c de01 9ebb 45f3 153b
00000080: 4d3f 97bb 424f 703c 7e2f 15bd 757c 58ba
00000090: 6e97 12be c80d 953c 7aa7 313c 56ba 33bc
000000a0: 1183 a6bb f884 643d 4d84 06be 5b52 6abb
000000b0: 2841 febb 6bf2 00ba aace c9ba cf29 34bd
000000c0: 24aa f2bc 0f48 a03c 3d43 0c3b a16d 4e3d
000000d0: 271c 9dbb 066c 57bd 0f77 92bc e099 99bd
000000e0: 56da 53bc c7be 343b d0d9 c1b9 86b7 b5bc
000000f0: e079 0f3b 3ab8 51bd b61c 29bd 86c8 4a3b
00000100: 0fa3 243d 4335 01bd 9c35 9fbd 0fa0 e3bc
00000110: f8c2 12bd 284d 8a3c 2129 21ba 23f5 f73c
00000120: 9599 6ebb dbc8 733d da75 a13d ebb7 ac3c
00000130: 7e98 e33d 3a59 d3ba 4c8c a3bd a20b f2bd
00000140: 1642 2a3d 41b2 25bc 00ab 3cbc 858d 46bd
00000150: 76ec 90bd 6372 69bc c47b bfbc 6fde 263d
00000160: c03f 633d 5dd7 fd3b a254 99bd 65ab 10bd
00000170: a74a 31bd 0f76 7e38 1f56 a23b bab4 183d
00000180: 43da 0fbc 4971 28bd 5a7a 923c 2852 13bd
00000190: c3b4 b8bb d70b 2abd 90ac 073b a289 f3bc
000001a0: 9464 4cbd a44a 82bc 0679 61bd c47d 243b
000001b0: cebd 96bd 8c16 4abc 8f29 6cbd bfc7 053d
000001c0: 76d3 143c a386 33bd d63b 7b3b add6 b73d
000001d0: fbff e5bd e48d 163d 4949 2a3c 1d46 deb9

features.9.weight f4 [84, 120]
-0.012472682 -0.0035781849 0.014049335 -0.017034082 -0.02336037 0.020175062 -0.0103625655 -0.01682152
0.029224928 -0.0017575397 -0.0059038238 0.0019517418 0.018781897 0.008903253 -0.009515661 0.025953101
-0.014943958 0.016990105 0.01275166 0.009375794 -0.013305618 0.024123348 0.017811947 -0.013806904
0.010933029 -0.026114464 0.02245268 0.002850984 -0.0038900266 -0.0045285067 0.008709532 0.005468023
-0.00085398945 0.023082616 0.008211597 -0.0009427271 0.003957753 0.004064239 -0.0028849854 -0.015924493
0.0067531755 0.0037334934 -0.00838141 0.0055129826 0.004059464 0.010711727 0.0008526228 0.003967762
-0.040829085 -0.0059315558 -0.013160799 0.0064527886 0.00049437775 0.013881557 -0.007906603 -0.003358699
0.0003271665 -0.004835179 0.013834829 0.016993389 0.0053592306 -0.013797248 0.013117008 0.004212102
-0.0036323927 0.010561453 0.02246641 0.006172461 0.008931749 0.0012330388 -0.01146677 -0.008205062
0.0021602712 -0.021622846 -0.02117886 -0.0018039504 -0.0041030166 -0.030628752 -0.0039096703 0.0062028673
-0.0083727045 -0.0034338646 -0.023632094 0.03139997 0.01919453 0.0018322777 -0.011524645 0.033681657
-0.01613796 -0.015220449 0.018119298 -0.01356749 0.0064177765 0.01677431 0.0032088617 -0.00019032799
0.022588594 0.01055373 0.036263913 -0.03493515 -0.0066626035 -0.03197267 -0.025350876 0.0035337242
0.0009994637 -0.0018509845 -0.009268123 -0.01789221 0.025771426 0.014408096 -0.019643402 0.0020724225
-0.014018485 0.014358544 0.02387993 -0.013182341 -0.0069104675 -0.008613772 0.016940134 0.008738658
-0.0011267563 -0.028132796 -0.0043377494 0.008507841 -0.0008784 -0.006203867 -0.0072460556 0.007886288
0.011863576 0.0020389515 -0.01971207 0.003366219 -0.0026602768 -0.0077931886 -0.018568322 -0.0013922503
0.0030813238 0.021665808 0.0033224477 0.013824799 -0.0066252346 -0.011742483 -0.004620932 0.017431287
0.009788524 0.0006144984 0.0024736822 -0.002421716 0.008446956 0.0029275687 0.002217398 0.004766402
-0.0066915527 -0.01613854 0.005607731 0.0015826838 0.013290507 -0.007436901 -0.01184136 -0.0052296235
0.009162189 -0.0086281495 -0.014686173 -0.004813002 -0.0009001073 0.0062753493 -0.020353898 0.00025877287
-0.006587509 0.014800053 0.004754085 0.0026945968 0.0036566344 -0.0068556974 -0.010102742 0.008690714
0.0037906815 0.011681458 0.024650961 -0.0019825345 -0.0051305112 -0.021282678 0.0072505884 -0.009608095
-0.0036151013 0.008467925 0.0035988137 -0.0067099347 -0.01391702 -0.0030301523 0.0019893907 0.004206151
-0.0050745155 -0.0053578555 0.005955456 -0.013434298 -0.023437673 0.013994726 -0.0049136337 -0.023472441
0.006934065 0.002553149 -0.005433181 0.0052765016 0.003576202 -0.012043452 0.0098737 0.0023334161
-0.0009550942 0.00078873464 -0.02564726 0.016684383 -0.0011013782 -0.0017874917 0.009265992 0.015451439
-0.0038303486 -0.007689208 0.010988451 0.0077115498 0.004804981 -0.0018140499 0.009330305 -0.0052692597
-0.015706917 0.00712691 0.015769232 0.004581424 -0.0037173205 -0.0021511875 -0.009061004 0.0046911216
0.0098068705 -0.0029568477 -0.014857894 0.015214318 -0.008582957 -0.0042175036 0.0007661418 -0.011482724
0.019486325 0.016746335 0.00036303935 0.0011148283 0.0117575945 0.008836196 -0.01172068 0.022514181
-0.038211625 -0.025726032 0.054899916 0.056867007 0.00338357 -0.009165252 0.03220673 0.037396193
00000000: 385a 4cbc fb7f 6abb 2f2f 663c 0f8b 8bbc
00000010: 3f5e bfbc 2c46 a53c c0c7 29bc 49cd 89bc
00000020: 1e69 ef3c 3f5d e6ba dd74 c1bb 96d1 ff3a
00000030: 7edc 993c f3de 113c 93e7 1bbc 999b d43c
00000040: 81d7 74bc d52e 8b3c 57ec 503c ee9c 193c
00000050: cfff 59bc 549e c53c 5cea 913c 5a36 62bc
00000060: 7320 333c 00ee d5bc afee b73c 93d7 3a3b
00000070: d1ef 7ebb de63 94bb 6db2 0e3c 1a2d b33b
00000080: 43de 5fba c117 bd3c ef89 063c 5821 77ba
00000090: 0ab0 813b 4f2d 853b 0612 3dbb 1574 82bc
000000a0: be49 dd3b a0ad 743b 2e52 09bc 40a6 b43b
000000b0: 4105 853b 3d80 2f3c 8c82 5f3a 0004 823b
000000c0: 663c 27bd 7f5d c2bb 64a0 57bc ea71 d33b
000000d0: 2199 013a 786f 633c b28a 01bc 9e1d 5cbb
000000e0: 8b87 ab39 6c70 9ebb 7bab 623c b835 8b3c
000000f0: 7c9c af3b da0d 62bc b8e8 563c ac05 8a3b
00000100: 700d 6ebb f209 2d3c 7a0b b83c 5b42 ca3b
00000110: 7856 123c eb9d a13a 1fdf 3bbc 866e 06bc
00000120: 5693 0d3b 6522 b1bc 4a7f adbc 8872 ecba
00000130: 9972 86bb 26e9 fabc b11c 80bb 6c41 cb3b
00000140: ab2d 09bc b00a 61bb 1898 c1bc 419d 003d
00000150: d93d 9d3c 0a29 f03a ddd1 3cbc c7f5 093d
00000160: c133 84bc 315f 79bc ec6e 943c 2d4a 5ebc
00000170: 364c d23b 476a 893c c44b 523b c892 47b9
00000180: b70b b93c 8de9 2c3c 7889 143d 2918 0fbd
00000190: f851 dabb c6f5 02bd a4ac cfbc 0e96 673b
000001a0: 7000 833a bc9c f2ba 53d9 17bc af92 92bc
000001b0: 991e d33c ef0f 6c3c 33eb a0bc 7bd1 073b
000001c0: caad 65bc 1940 6b3c d89f c33c bffa 57bc
000001d0: 3471 e2bb c720 0dbc 09c6 8a3c 972c 0f3c
000001e0: abaf 93ba c076 e6bc ae23 8ebb 7964 0b3c
000001f0: 6d44 66ba cf49 cbbb 5270 edbb 7d35 013c
00000200: 725f 423c ee9f 053b 357b a1bc c99b 5c3b
00000210: 0a58 2ebb 015e ffbb 981c 98bc 2b7c b6ba
00000220: 09f0 493b 7e7c b13c 6cbd 593b 6981 623c
00000230: 7f18 d9bb 8b63 40bc 306b 97bb 0fcc 8e3c
00000240: 0c60 203c 4a16 213a 801d 223b a7b5 1ebb
00000250: 1a65 0a3c 74dc 3f3b c451 113b 7a2f 9c3b
00000260: d044 dbbb f934 84bc 0fc1 b73b 0e72 cf3a
00000270: 6dc0 593c 3fb1 f3bb 4302 42bc 435d abbb
00000280: 021d 163c 155d 0dbc 469e 70bc 63b6 9dbb
00000290: 2ef5 6bba 72a1 cd3b 38bd a6bc e8ab 8739
000002a0: 08dc d7bb ec7b 723c 28c8 9b3b d597 303b
000002b0: 25a4 6f3b c2a5 e0bb f985 25bc 7f63 0e3c
000002c0: 156d 783b 9663 3f3c d0f0 c93c 69ed 01bb
000002d0: d91d a8bb 0359 aebc 5896 ed3b 456b 1dbc
000002e0: 56eb 6cbb 0dbd 0a3c 13da 6b3b 03df dbbb
000002f0: 3604 64bc 8595 46bb 7060 023b c0d3 893b
00000300: 1f48 a6bb f390 afbb fc25 c33b 881b 5cbc
00000310: 5d00 c0bc 234a 653c 8c02 a1bb 4749 c0bc
00000320: 2737 e33b bb52 273b d308 b2bb 81e6 ac3b
00000330: b75e 6a3b e651 45bc 4dc5 213c 3aec 183b
00000340: 495f 7aba 16c3 4e3a 341a d2bc b0ad 883c
00000350: 1f5c 90ba 454a eaba 63d0 173c 0828 7d3c
00000360: 9606 7bbb c0f5 fbbb e708 343c 2bb1 fc3b
00000370: 1a73 9d3b 6ac5 edba 23de 183c c1a9 acbb
00000380: cbab 80bc db88 e93b 7a2e 813c c51f 963b
00000390: 4a9e 73bb f0fa 0cbb 9b74 14bc fbb7 993b
000003a0: ffac 203c acc7 41bb 866e 73bc 7a45 793c
000003b0: 889f 0cbc fc32 8abb e8d6 483a 0922 3cbc
000003c0: c9a1 9f3c 9c2f 893c 5156 be39 6e1f 923a
000003d0: eda2 403c b1c5 103c 1808 40bc a96f b83c
000003e0: cb83 1cbd 66bf d2bc bcde 603d 61ed 683d
000003f0: e2be 5d3b da29 16bc 34eb 033d c02c 193d

features.9.bias f4 [84]
-0.020358127 -0.001796214 0.14529862 0.0002988964 0.0042514927 -0.010568467 0.013391523 0.004062934
-0.0018031845 0.0091369795 -0.13412878 -0.041405525 -0.064646386 -0.14347054 -0.028495215 -0.061732106
0.12861353 0.071356766 -0.0010706739 0.020514928 -0.008594686 -0.025405772 0.0660111 0.20118755
-0.002631938 0.059029017 -0.0013473181 -0.0050904406 -0.0017758306 0.43135208 -0.00022286274 0.02499147
-0.06686461 -0.0066798655 0.00054116215 -0.000521336 0.010008276 0.037369985 -0.005516454 -0.05723671
0.16891097 0.14707582 0.015588551 -0.09728171 -0.067145884 0.21097852 -0.009084175 -0.014199163
0.078348845 0.01113253 -0.026688816 0.015341817 -0.0005312442 -0.0150917135 0.0023270599 -0.0049365666
-0.0005812663 0.01565009 -0.000935625 -0.04791675 -0.04912751 -0.043216113 -0.09436759 -2.8848981e-05
0.0054157157 0.0019881136 0.0031714009 -0.1227389 0.010814521 0.09474269 0.035944697 -0.09145554
-0.0025458697 -0.044961903 0.003616645 -0.014257435 -0.008059737 -0.12949671 -0.05602576 -0.004279271
0.20871846 -0.050115965 0.021394078 -0.04269687
00000000: 16c6 a6bc f16e ebba 29c9 143e 32b5 9c39
00000010: 1b50 8b3b 5d27 2dbc 1e68 5b3c 5c22 853b
00000020: d558 ecba 45b3 153c 0e59 09be d798 29bd
00000030: 5365 84bd f1e9 12be cc6e e9bc ceda 7cbd
00000040: 44b3 033e 7f23 923d db55 8cba ec0e a83c
00000050: bad0 0cbc c41f d0bc d430 873d 1c04 4e3e
00000060: 987c 2cbb 69c8 713d 7e98 b0ba b6cd a6bb
00000070: fdc2 e8ba 2eda dc3e 43b0 69b9 e9ba cc3c
00000080: 50f0 88bd c6e2 dabb c7dc 0d3a 44aa 08ba
00000090: c1f9 233c 4511 193d 5fc3 b4bb 0a71 6abd
000000a0: fff6 2c3e 0b9b 163e 1f67 7f3c a23b c7bd
000000b0: c883 89bd c10a 583e cbd5 14bc 9ba3 68bc
000000c0: 5c75 a03d 3765 363c 81a2 dabc 3f5c 7b3c
000000d0: 3243 0bba 3c43 77bc 9681 183b ecc2 a1bb
000000e0: 1f60 18ba 9e34 803c bb44 75ba 5b44 44bd
000000f0: ee39 49bd 6103 31bd cc43 c1bd b700 f2b7
00000100: 5176 b13b 034b 023b 47d7 4f3b 885e fbbd
00000110: 642f 313c 7508 c23d bf3a 133d 0b4d bbbd
00000120: 9bd8 26bb f929 38bd 3c05 6d3b 0498 69bc
00000130: fd0c 04bc c99a 04be 447b 65bd 2039 8cbb
00000140: 4bba 553e 6646 4dbd a242 af3c eae2 2ebd

classifiers.0.weight f4 [5, 84]
-0.040655963 0.011589095 0.17607 0.003223202 0.0035195379 -0.016175041 -0.049892448 -0.018604005
-0.0074546183 -0.12562992 -0.2581023 -0.06446448 -0.07747511 -0.2535388 -0.09784679 -0.07417753
0.13805878 0.07578916 -0.0049075363 0.023890963 0.009861829 -0.07092643 0.073320724 0.181729
0.0016073287 -0.035644077 -0.0028748573 0.002280671 0.0033196441 0.48228416 0.0011632558 -0.034648187
-0.05901791 -0.0092521 0.008749493 0.0021846506 -0.023978582 -0.05048079 -0.01600254 -0.20179695
0.20417576 0.19759324 -0.07926261 -0.13242279 -0.1595826 0.23258188 0.0070823873 -0.039972764
0.09395035 0.022070127 -0.15184171 0.019775916 -0.005944824 -0.09734116 -0.1003226 -0.006432009
-0.010860689 0.06122455 0.030669602 -0.10720095 -0.1725065 -0.07146915 -0.1331072 0.007992056
0.0014560175 0.00921148 0.01708443 -0.17797236 0.014380309 -0.029838307 0.01011027 -0.1571532
0.0048323236 -0.06557951 -0.006980854 -0.05126446 -0.028832491 -0.16200073 -0.066998534 -0.015175818
0.24214716 -0.17320713 0.034424294 -0.0741322 0.0714176 -0.00216123 0.053471852 0.012913493
-0.07461506 -0.0071329274 -0.033369157 0.024892846 -0.004398481 0.11015195 -0.16912943 0.07674656
0.022547761 0.10004647 0.20871425 0.026829375 -0.012083365 -0.036298253 -0.01634546 0.2180157
-0.0020935088 -0.022995293 0.19810703 0.03509774 -0.010798274 -0.114167705 -0.0032882453 0.0028048325
0.0015348875 -0.19833934 -0.048747092 0.019864311 0.15067613 -0.016256897 0.0041449266 0.0023232515
0.067990966 -0.06511858 0.03487942 0.09170604 -0.085466415 0.106518365 0.1603391 -0.06577868
0.020965269 -0.12892258 -0.024086228 0.043765485 0.08814811 -0.009980264 0.22142014 -0.08931828
0.022165624 0.06405302 -0.14504474 0.0053215297 -0.003420085 0.27647802 -0.0037218786 -0.009230541
0.09037085 0.12210218 0.02477992 -0.008136642 0.11446458 0.00626399 -0.007443998 -0.10753397
-0.060271163 -0.16361193 -0.056839544 0.10134548 0.04803533 0.1317615 -0.014747204 -0.11520618
0.14181013 0.32059658 0.04578363 0.0041011823 0.048912875 -0.059697844 0.01672776 0.036738683
0.027367605 -0.0096432865 -0.11694072 -0.0021626952 0.040059574 -0.020199765 0.0003184697 -0.055606827
0.011910389 -0.21143979 0.018810851 0.04163494 -0.100580774 -0.038153246 0.07279122 -0.040360387
-0.111435816 -0.04671018 0.01209434 -0.03859089 0.020970799 0.002201276 -0.054146327 -0.14724684
0.006483944 0.24330674 0.011664179 0.0057535255 -0.024772914 -0.18234462 -0.07666898 0.066780075
-0.012035644 -0.007835073 0.017877417 -0.012288814 -0.06447172 0.1512546 0.012052525 0.113164924
-0.055828016 -0.16104661 0.038370848 -0.015872296 0.0916183 -0.05477788 -0.0058753835 0.05510531
-0.08254257 -0.0056033535 -0.20677142 0.02633478 0.006375213 0.12782232 -0.14672498 0.006474844
0.005507635 -0.057907395 0.004994516 -0.0038648518 0.07704779 0.041017972 -0.060103286 0.016719062
-0.046781585 0.006076888 -0.0073186522 0.03938012 -0.05086863 0.20573816 0.0027173918 -0.015346727
-0.026929054 0.076279715 0.031794276 0.01442137 0.011244226 0.021413404 -0.021083849 0.014838109
-0.12879674 -0.18101332 -0.05969883 0.04870408 -0.0054070237 -0.0064734775 -0.1114105 0.0020522776
00000000: de86 26bd 30e0 3d3c b24b 343e 5b3c 533b
00000010: 0ca8 663b 8581 84bc 065c 4cbd 6d67 98bc
00000020: df45 f4bb 21a5 00be fc25 84be f405 84bd
00000030: 45ab 9ebd d6cf 81be e663 c8bd 64ea 97bd
00000040: 485f 0d3e 5937 9b3d 66cf a0bb fbb6 c33c
00000050: 8293 213c e041 91bd 2d29 963d 2b17 3a3e
00000060: 00ad d23a 86ff 11bd 1a68 3cbb 4f77 153b
00000070: 638e 593b f3ed f63e 6378 983a 42eb 0dbd
00000080: c4bc 71bd 1f96 17bc 095a 0f3c 5b2c 0f3b
00000090: bb6e c4bc f2c4 4ebd c217 83bc dca3 4ebe
000000a0: 7313 513e e255 4a3e 6f54 a2bd d799 07be
000000b0: 9f69 23be f229 6e3e 5f13 e83b 7bba 23bd
000000c0: 0b69 c03d 69cc b43c 657c 1bbe 1a01 a23c
000000d0: cccc c2bb cd5a c7bd ef75 cdbd 9ac3 d2bb
000000e0: 08f1 31bc 98c6 7a3d d13e fb3c 2c8c dbbd
000000f0: 8ba5 30be 6b5e 92bd 414d 08be 1df1 023c
00000100: d7d7 be3a bfeb 163c a6f4 8b3c 633e 36be
00000110: 639b 6b3c 776f f4bc 8ca5 253c c5ec 20be
00000120: 7858 9e3b 8d4e 86bd a6bf e4bb affa 51bd
00000130: 1e32 ecbc 85e3 25be 8736 89bd ffa3 78bc
00000140: 6df5 773e 365d 31be 7d00 0d3d 9fd2 97bd
00000150: 6443 923d 6ca3 0dbb 4d05 5b3d 1e93 533c
00000160: c8cf 98bd 55bb e9bb 19ae 08bd 15ec cb3c
00000170: 2221 90bb 5897 e13d 4430 2dbe 4d2d 9d3d
00000180: 15b6 b83c 2ae5 cc3d 30b9 553e 47c9 db3c
00000190: 4ef9 45bc 7aad 14bd eae6 85bc 823f 5f3e
000001a0: 4033 09bb a060 bcbc 92dc 4a3e a6c2 0f3d
000001b0: 3eeb 30bc c2d0 e9bd 9a7f 57bb 48d1 373b
000001c0: 472e c93a 7819 4bbe 08ab 47bd 7bba a23c
000001d0: d84a 1a3e 2f2d 85bc 2ad2 873b b141 183b
000001e0: d93e 8b3d e45c 85bd b9dd 0e3d 60d0 bb3d
000001f0: 0409 afbd 4d26 da3d ef2f 243e f9b6 86bd
00000200: 5bbf ab3c 4804 04be 7b50 c5bc 7043 333d
00000210: ff86 b43d 4384 23bc f6bb 623e 81ec b6bd
00000220: af94 b53c 3b2e 833d 9c86 14be 3a60 ae3b
00000230: 8123 60bb 878e 8d3e c3ea 73bb b23b 17bc
00000240: 5a14 b93d b510 fa3d 42ff ca3c 8d4f 05bc
00000250: 686c ea3d 2842 cd3b c8ec f3bb c53a dcbd
00000260: e5de 76bd e389 27be 95d0 68bd 388e cf3d
00000270: b2c0 443d 7dec 063e 429e 71bc 38f1 ebbd
00000280: ad36 113e 3c25 a43e 9e87 3b3d 3663 863b
00000290: de58 483d ba85 74bd a808 893c 4d7b 163d
000002a0: 0732 e03c e0fe 1dbc 9e7e efbd 01bc 0dbb
000002b0: 8215 243d fa79 a5bc 48f8 a639 fcc3 63bd
000002c0: cb23 433c ac83 58be 3719 9a3c 6689 2a3d
000002d0: 4bfd cdbd 9446 1cbd 9013 953d ef50 25bd
000002e0: 7638 e4bd 2c53 3fbd 5727 463c 7b11 1ebd
000002f0: f4ca ab3c 4843 103b 8ac8 5dbd e0c7 16be
00000300: 4477 d43b 6725 793e 1d1b 3f3c 1288 bc3b
00000310: 91f0 cabc 8cb8 3abe a004 9dbd fec3 883d
00000320: 2631 45bc ae5e 00bc a973 923c 0657 49bc
00000330: c009 84bd 7ce2 1a3e f477 453c 03c3 e73d
00000340: ebab 64bd 67e9 24be c02a 1d3d 9e06 82bc
00000350: 60a2 bb3d c55e 60bd 4a86 c0bb 1bb6 613d
00000360: 140c a9bd 569c b7bb e3bb 53be 09bc d73c
00000370: 2ae7 d03b dbe3 023e 133f 16be ee2a d43b
00000380: 6479 b43b 4e30 6dbd 09a9 a33b 7449 7dbb
00000390: 3bcb 9d3d 7602 283d dd2e 76bd 6af6 883c
000003a0: 0c9e 3fbd a220 c73b 4ed1 efbb 0c4d 213d
000003b0: a05b 50bd 06ad 523e 4516 323b d770 7bbc
000003c0: 529a dcbc 8a38 9c3d b73a 023d 9c47 6c3c
000003d0: b439 383c 2a6b af3c 09b8 acbc 8a1b 733c
000003e0: 4be3 03be 8e5b 39be c386 74bd ee7d 473d
000003f0: 672d b1bb 771f d4bb 302b e4bd 817f 063b

classifiers.0.bias f4 [5]
0.6424935 -0.06649237 0.29422215 0.02879067 -0.8990095
00000000: 747a 243f 272d 88bd 49a4 963e 69da eb3c
00000010: 7d25 66bf

classifier.weight f4 [5, 84]
-0.040655963 0.011589095 0.17607 0.003223202 0.0035195379 -0.016175041 -0.049892448 -0.018604005
-0.0074546183 -0.12562992 -0.2581023 -0.06446448 -0.07747511 -0.2535388 -0.09784679 -0.07417753
0.13805878 0.07578916 -0.0049075363 0.023890963 0.009861829 -0.07092643 0.073320724 0.181729
0.0016073287 -0.035644077 -0.0028748573 0.002280671 0.0033196441 0.48228416 0.0011632558 -0.034648187
-0.05901791 -0.0092521 0.008749493 0.0021846506 -0.023978582 -0.05048079 -0.01600254 -0.20179695
0.20417576 0.19759324 -0.07926261 -0.13242279 -0.1595826 0.23258188 0.0070823873 -0.039972764
0.09395035 0.022070127 -0.15184171 0.019775916 -0.005944824 -0.09734116 -0.1003226 -0.006432009
-0.010860689 0.06122455 0.030669602 -0.10720095 -0.1725065 -0.07146915 -0.1331072 0.007992056
0.0014560175 0.00921148 0.01708443 -0.17797236 0.014380309 -0.029838307 0.01011027 -0.1571532
0.0048323236 -0.06557951 -0.006980854 -0.05126446 -0.028832491 -0.16200073 -0.066998534 -0.015175818
0.24214716 -0.17320713 0.034424294 -0.0741322 0.0714176 -0.00216123 0.053471852 0.012913493
-0.07461506 -0.0071329274 -0.033369157 0.024892846 -0.004398481 0.11015195 -0.16912943 0.07674656
0.022547761 0.10004647 0.20871425 0.026829375 -0.012083365 -0.036298253 -0.01634546 0.2180157
-0.0020935088 -0.022995293 0.19810703 0.03509774 -0.010798274 -0.114167705 -0.0032882453 0.0028048325
0.0015348875 -0.19833934 -0.048747092 0.019864311 0.15067613 -0.016256897 0.0041449266 0.0023232515
0.067990966 -0.06511858 0.03487942 0.09170604 -0.085466415 0.106518365 0.1603391 -0.06577868
0.020965269 -0.12892258 -0.024086228 0.043765485 0.08814811 -0.009980264 0.22142014 -0.08931828
0.022165624 0.06405302 -0.14504474 0.0053215297 -0.003420085 0.27647802 -0.0037218786 -0.009230541
0.09037085 0.12210218 0.02477992 -0.008136642 0.11446458 0.00626399 -0.007443998 -0.10753397
-0.060271163 -0.16361193 -0.056839544 0.10134548 0.04803533 0.1317615 -0.014747204 -0.11520618
0.14181013 0.32059658 0.04578363 0.0041011823 0.048912875 -0.059697844 0.01672776 0.036738683
0.027367605 -0.0096432865 -0.11694072 -0.0021626952 0.040059574 -0.020199765 0.0003184697 -0.055606827
0.011910389 -0.21143979 0.018810851 0.04163494 -0.100580774 -0.038153246 0.07279122 -0.040360387
-0.111435816 -0.04671018 0.01209434 -0.03859089 0.020970799 0.002201276 -0.054146327 -0.14724684
0.006483944 0.24330674 0.011664179 0.0057535255 -0.024772914 -0.18234462 -0.07666898 0.066780075
-0.012035644 -0.007835073 0.017877417 -0.012288814 -0.06447172 0.1512546 0.012052525 0.113164924
-0.055828016 -0.16104661 0.038370848 -0.015872296 0.0916183 -0.05477788 -0.0058753835 0.05510531
-0.08254257 -0.0056033535 -0.20677142 0.02633478 0.006375213 0.12782232 -0.14672498 0.006474844
0.005507635 -0.057907395 0.004994516 -0.0038648518 0.07704779 0.041017972 -0.060103286 0.016719062
-0.046781585 0.006076888 -0.0073186522 0.03938012 -0.05086863 0.20573816 0.0027173918 -0.015346727
-0.026929054 0.076279715 0.031794276 0.01442137 0.011244226 0.021413404 -0.021083849 0.014838109
-0.12879674 -0.18101332 -0.05969883 0.04870408 -0.0054070237 -0.0064734775 -0.1114105 0.0020522776
00000000: de86 26bd 30e0 3d3c b24b 343e 5b3c 533b
00000010: 0ca8 663b 8581 84bc 065c 4cbd 6d67 98bc
00000020: df45 f4bb 21a5 00be fc25 84be f405 84bd
00000030: 45ab 9ebd d6cf 81be e663 c8bd 64ea 97bd
00000040: 485f 0d3e 5937 9b3d 66cf a0bb fbb6 c33c
00000050: 8293 213c e041 91bd 2d29 963d 2b17 3a3e
00000060: 00ad d23a 86ff 11bd 1a68 3cbb 4f77 153b
00000070: 638e 593b f3ed f63e 6378 983a 42eb 0dbd
00000080: c4bc 71bd 1f96 17bc 095a 0f3c 5b2c 0f3b
00000090: bb6e c4bc f2c4 4ebd c217 83bc dca3 4ebe
000000a0: 7313 513e e255 4a3e 6f54 a2bd d799 07be
000000b0: 9f69 23be f229 6e3e 5f13 e83b 7bba 23bd
000000c0: 0b69 c03d 69cc b43c 657c 1bbe 1a01 a23c
000000d0: cccc c2bb cd5a c7bd ef75 cdbd 9ac3 d2bb
000000e0: 08f1 31bc 98c6 7a3d d13e fb3c 2c8c dbbd
000000f0: 8ba5 30be 6b5e 92bd 414d 08be 1df1 023c
00000100: d7d7 be3a bfeb 163c a6f4 8b3c 633e 36be
00000110: 639b 6b3c 776f f4bc 8ca5 253c c5ec 20be
00000120: 7858 9e3b 8d4e 86bd a6bf e4bb affa 51bd
00000130: 1e32 ecbc 85e3 25be 8736 89bd ffa3 78bc
00000140: 6df5 773e 365d 31be 7d00 0d3d 9fd2 97bd
00000150: 6443 923d 6ca3 0dbb 4d05 5b3d 1e93 533c
00000160: c8cf 98bd 55bb e9bb 19ae 08bd 15ec cb3c
00000170: 2221 90bb 5897 e13d 4430 2dbe 4d2d 9d3d
00000180: 15b6 b83c 2ae5 cc3d 30b9 553e 47c9 db3c
00000190: 4ef9 45bc 7aad 14bd eae6 85bc 823f 5f3e
000001a0: 4033 09bb a060 bcbc 92dc 4a3e a6c2 0f3d
000001b0: 3eeb 30bc c2d0 e9bd 9a7f 57bb 48d1 373b
000001c0: 472e c93a 7819 4bbe 08ab 47bd 7bba a23c
000001d0: d84a 1a3e 2f2d 85bc 2ad2 873b b141 183b
000001e0: d93e 8b3d e45c 85bd b9dd 0e3d 60d0 bb3d
000001f0: 0409 afbd 4d26 da3d ef2f 243e f9b6 86bd
00000200: 5bbf ab3c 4804 04be 7b50 c5bc 7043 333d
00000210: ff86 b43d 4384 23bc f6bb 623e 81ec b6bd
00000220: af94 b53c 3b2e 833d 9c86 14be 3a60 ae3b
00000230: 8123 60bb 878e 8d3e c3ea 73bb b23b 17bc
00000240: 5a14 b93d b510 fa3d 42ff ca3c 8d4f 05bc
00000250: 686c ea3d 2842 cd3b c8ec f3bb c53a dcbd
00000260: e5de 76bd e389 27be 95d0 68bd 388e cf3d
00000270: b2c0 443d 7dec 063e 429e 71bc 38f1 ebbd
00000280: ad36 113e 3c25 a43e 9e87 3b3d 3663 863b
00000290: de58 483d ba85 74bd a808 893c 4d7b 163d
000002a0: 0732 e03c e0fe 1dbc 9e7e efbd 01bc 0dbb
000002b0: 8215 243d fa79 a5bc 48f8 a639 fcc3 63bd
000002c0: cb23 433c ac83 58be 3719 9a3c 6689 2a3d
000002d0: 4bfd cdbd 9446 1cbd 9013 953d ef50 25bd
000002e0: 7638 e4bd 2c53 3fbd 5727 463c 7b11 1ebd
000002f0: f4ca ab3c 4843 103b 8ac8 5dbd e0c7 16be
00000300: 4477 d43b 6725 793e 1d1b 3f3c 1288 bc3b
00000310: 91f0 cabc 8cb8 3abe a004 9dbd fec3 883d
00000320: 2631 45bc ae5e 00bc a973 923c 0657 49bc
00000330: c009 84bd 7ce2 1a3e f477 453c 03c3 e73d
00000340: ebab 64bd 67e9 24be c02a 1d3d 9e06 82bc
00000350: 60a2 bb3d c55e 60bd 4a86 c0bb 1bb6 613d
00000360: 140c a9bd 569c b7bb e3bb 53be 09bc d73c
00000370: 2ae7 d03b dbe3 023e 133f 16be ee2a d43b
00000380: 6479 b43b 4e30 6dbd 09a9 a33b 7449 7dbb
00000390: 3bcb 9d3d 7602 283d dd2e 76bd 6af6 883c
000003a0: 0c9e 3fbd a220 c73b 4ed1 efbb 0c4d 213d
000003b0: a05b 50bd 06ad 523e 4516 323b d770 7bbc
000003c0: 529a dcbc 8a38 9c3d b73a 023d 9c47 6c3c
000003d0: b439 383c 2a6b af3c 09b8 acbc 8a1b 733c
000003e0: 4be3 03be 8e5b 39be c386 74bd ee7d 473d
000003f0: 672d b1bb 771f d4bb 302b e4bd 817f 063b

classifier.bias f4 [5]
0.6424935 -0.06649237 0.29422215 0.02879067 -0.8990095
00000000: 747a 243f 272d 88bd 49a4 963e 69da eb3c
00000010: 7d25 66bf

features.7 f4 [120]
0.009599984 -0.067263134 -0.102215335 0.008369784 0.044015285 -0.00308878 -0.009435489 0.012356865
-0.06775657 -0.014065315 0.07410785 0.02288699 -0.017150095 0.01771432 0.060315885 0.029621417
-0.01038727 0.020445434 -0.0036001431 -0.04438947 -0.0006088912 0.014898377 -0.08276644 0.003550847
0.032040168 0.059479654 0.00090214895 -0.00664297 -0.060450524 0.027255643 -0.004822 0.0022880596
-0.0046157003 0.014667334 -0.036422245 -0.00082582916 -0.14315578 0.018195048 0.010843152 -0.010969719
-0.0050815423 0.05579087 -0.13136406 -0.0035754654 -0.007759232 -0.00049189356 -0.0015396674 -0.043985184
-0.029622145 0.01956561 0.0021402382 0.05039752 -0.004794616 -0.052593254 -0.017879037 -0.075000525
-0.012930473 0.0027579532 -0.00036974112 -0.022182237 0.0021892712 -0.051201083 -0.041287147 0.0030942275
0.040194567 -0.031544935 -0.07773897 -0.027786283 -0.035830468 0.016882494 -0.0006147791 0.030268257
-0.003640746 0.059517723 0.078838065 0.021083793 0.1111307 -0.0016124614 -0.07985744 -0.11818625
0.04156693 -0.0101133 -0.011515379 -0.048474807 -0.07076351 -0.014248463 -0.023374446 0.040739473
0.05548072 0.0077466206 -0.074868456 -0.035319705 -0.043284085 6.066827e-05 0.004954114 0.03728173
-0.008780065 -0.041123662 0.017880607 -0.035967022 -0.005636783 -0.041515198 0.002070222 -0.029728714
-0.049900606 -0.015904732 -0.055047058 0.0025099376 -0.07360421 -0.012334477 -0.05765682 0.032661196
0.009083619 -0.04382957 0.0038335226 0.08976493 -0.11230465 0.03675641 0.010393449 -0.00042395378
00000000: 4049 1d3c 41c1 89bd 4656 d1bd 6b21 093c
00000010: 5f49 343d 216d 4abb 4f97 1abc 7374 4a3c
00000020: f5c3 8abd 3572 66bc dbc5 973d 7f7d bb3c
00000030: 5b7e 8cbc 9f1d 913c ca0d 773d 9da8 f23c
00000040: 5e2f 2abc 2f7d a73c 61f0 6bbb bcd1 35bd
00000050: ff9d 1fba 5218 743c 7481 a9bd 54b5 683b
00000060: 8d3c 033d f0a0 733d 317e 6c3a 45ad d9bb
00000070: f89a 77bd 3a47 df3c de01 9ebb 45f3 153b
00000080: 4d3f 97bb 424f 703c 7e2f 15bd 757c 58ba
00000090: 6e97 12be c80d 953c 7aa7 313c 56ba 33bc
000000a0: 1183 a6bb f884 643d 4d84 06be 5b52 6abb
000000b0: 2841 febb 6bf2 00ba aace c9ba cf29 34bd
000000c0: 24aa f2bc 0f48 a03c 3d43 0c3b a16d 4e3d
000000d0: 271c 9dbb 066c 57bd 0f77 92bc e099 99bd
000000e0: 56da 53bc c7be 343b d0d9 c1b9 86b7 b5bc
000000f0: e079 0f3b 3ab8 51bd b61c 29bd 86c8 4a3b
00000100: 0fa3 243d 4335 01bd 9c35 9fbd 0fa0 e3bc
00000110: f8c2 12bd 284d 8a3c 2129 21ba 23f5 f73c
00000120: 9599 6ebb dbc8 733d da75 a13d ebb7 ac3c
00000130: 7e98 e33d 3a59 d3ba 4c8c a3bd a20b f2bd
00000140: 1642 2a3d 41b2 25bc 00ab 3cbc 858d 46bd
00000150: 76ec 90bd 6372 69bc c47b bfbc 6fde 263d
00000160: c03f 633d 5dd7 fd3b a254 99bd 65ab 10bd
00000170: a74a 31bd 0f76 7e38 1f56 a23b bab4 183d
00000180: 43da 0fbc 4971 28bd 5a7a 923c 2852 13bd
00000190: c3b4 b8bb d70b 2abd 90ac 073b a289 f3bc
000001a0: 9464 4cbd a44a 82bc 0679 61bd c47d 243b
000001b0: cebd 96bd 8c16 4abc 8f29 6cbd bfc7 053d
000001c0: 76d3 143c a386 33bd d63b 7b3b add6 b73d
000001d0: fbff e5bd e48d 163d 4949 2a3c 1d46 deb9

features.9 f4 [84]
-0.020358127 -0.001796214 0.14529862 0.0002988964 0.0042514927 -0.010568467 0.013391523 0.004062934
-0.0018031845 0.0091369795 -0.13412878 -0.041405525 -0.064646386 -0.14347054 -0.028495215 -0.061732106
0.12861353 0.071356766 -0.0010706739 0.020514928 -0.008594686 -0.025405772 0.0660111 0.20118755
-0.002631938 0.059029017 -0.0013473181 -0.0050904406 -0.0017758306 0.43135208 -0.00022286274 0.02499147
-0.06686461 -0.0066798655 0.00054116215 -0.000521336 0.010008276 0.037369985 -0.005516454 -0.05723671
0.16891097 0.14707582 0.015588551 -0.09728171 -0.067145884 0.21097852 -0.009084175 -0.014199163
0.078348845 0.01113253 -0.026688816 0.015341817 -0.0005312442 -0.0150917135 0.0023270599 -0.0049365666
-0.0005812663 0.01565009 -0.000935625 -0.04791675 -0.04912751 -0.043216113 -0.09436759 -2.8848981e-05
0.0054157157 0.0019881136 0.0031714009 -0.1227389 0.010814521 0.09474269 0.035944697 -0.09145554
-0.0025458697 -0.044961903 0.003616645 -0.014257435 -0.008059737 -0.12949671 -0.05602576 -0.004279271
0.20871846 -0.050115965 0.021394078 -0.04269687
00000000: 16c6 a6bc f16e ebba 29c9 143e 32b5 9c39
00000010: 1b50 8b3b 5d27 2dbc 1e68 5b3c 5c22 853b
00000020: d558 ecba 45b3 153c 0e59 09be d798 29bd
00000030: 5365 84bd f1e9 12be cc6e e9bc ceda 7cbd
00000040: 44b3 033e 7f23 923d db55 8cba ec0e a83c
00000050: bad0 0cbc c41f d0bc d430 873d 1c04 4e3e
00000060: 987c 2cbb 69c8 713d 7e98 b0ba b6cd a6bb
00000070: fdc2 e8ba 2eda dc3e 43b0 69b9 e9ba cc3c
00000080: 50f0 88bd c6e2 dabb c7dc 0d3a 44aa 08ba
00000090: c1f9 233c 4511 193d 5fc3 b4bb 0a71 6abd
000000a0: fff6 2c3e 0b9b 163e 1f67 7f3c a23b c7bd
000000b0: c883 89bd c10a 583e cbd5 14bc 9ba3 68bc
000000c0: 5c75 a03d 3765 363c 81a2 dabc 3f5c 7b3c
000000d0: 3243 0bba 3c43 77bc 9681 183b ecc2 a1bb
000000e0: 1f60 18ba 9e34 803c bb44 75ba 5b44 44bd
000000f0: ee39 49bd 6103 31bd cc43 c1bd b700 f2b7
00000100: 5176 b13b 034b 023b 47d7 4f3b 885e fbbd
00000110: 642f 313c 7508 c23d bf3a 133d 0b4d bbbd
00000120: 9bd8 26bb f929 38bd 3c05 6d3b 0498 69bc
00000130: fd0c 04bc c99a 04be 447b 65bd 2039 8cbb
00000140: 4bba 553e 6646 4dbd a242 af3c eae2 2ebd
