checkpoints_lenet5/CPG_single_scratch_woexp/lenet5/food_containers/gradual_prune/0.8/checkpoint-20.pth.tar (torch, 316553 bytes, 28 tensors)

features.0.weight f4 [6, 3, 5, 5]
000000 00 00 00 00 00 00 00 00 00 00 00 00 07 77 ab be
       0.0 0.0 0.0 -0.33489248
000010 d6 29 e3 be 00 00 00 00 00 00 00 00 00 00 00 00
       -0.44367856 0.0 0.0 0.0
000020 00 00 00 00 00 00 00 00 00 00 00 00 00 00 00 00
       0.0 0.0 0.0 0.0
000030 00 00 00 00 00 00 00 00 00 00 00 00 00 00 00 00
       0.0 0.0 0.0 0.0
000040 00 00 00 00 00 00 00 00 00 00 00 00 00 00 00 00
       0.0 0.0 0.0 0.0
000050 00 00 00 00 00 00 00 00 00 00 00 00 00 00 00 00
       0.0 0.0 0.0 0.0
000060 00 00 00 00 00 00 00 00 00 00 00 00 00 00 00 00
       0.0 0.0 0.0 0.0
000070 00 00 00 00 00 00 00 00 00 00 00 00 00 00 00 00
       0.0 0.0 0.0 0.0
000080 00 00 00 00 00 00 00 00 00 00 00 00 00 00 00 00
       0.0 0.0 0.0 0.0
000090 24 07 9c be 00 00 00 00 00 00 00 00 00 00 00 00
       -0.30474198 0.0 0.0 0.0
0000a0 00 00 00 00 00 00 00 00 00 00 00 00 00 00 00 00
       0.0 0.0 0.0 0.0
0000b0 00 00 00 00 00 00 00 00 00 00 00 00 00 00 00 00
       0.0 0.0 0.0 0.0
0000c0 00 00 00 00 00 00 00 00 27 e8 dc be 00 00 00 00
       0.0 0.0 -0.43145868 0.0
0000d0 f0 24 03 bf 00 00 00 00 00 00 00 00 00 00 00 00
       -0.5122824 0.0 0.0 0.0
0000e0 00 00 00 00 58 45 19 bf 00 00 00 00 00 00 00 00
       0.0 -0.59871435 0.0 0.0
0000f0 85 29 e4 be 00 00 00 00 00 00 00 00 00 00 00 00
       -0.44562927 0.0 0.0 0.0
000100 00 00 00 00 00 00 00 00 00 00 00 00 00 00 00 00
       0.0 0.0 0.0 0.0
000110 00 00 00 00 93 83 0a 3f 00 00 00 00 00 00 00 00
       0.0 0.54107016 0.0 0.0
000120 27 f8 03 3f e6 c3 c1 3e ca 8e 2c 3f 00 00 00 00
       0.51550525 0.3784477 0.6740538 0.0
000130 00 00 00 00 00 00 00 00 00 00 00 00 00 00 00 00
       0.0 0.0 0.0 0.0
000140 00 00 00 00 00 00 00 00 00 00 00 00 00 00 00 00
       0.0 0.0 0.0 0.0
000150 00 00 00 00 00 00 00 00 00 00 00 00 00 00 00 00
       0.0 0.0 0.0 0.0
000160 54 08 af 3e 00 00 00 00 00 00 00 00 00 00 00 00
       0.3418604 0.0 0.0 0.0
000170 00 00 00 00 00 00 00 00 00 00 00 00 00 00 00 00
       0.0 0.0 0.0 0.0
000180 00 00 00 00 00 00 00 00 00 00 00 00 00 00 00 00
       0.0 0.0 0.0 0.0
000190 00 00 00 00 00 00 00 00 00 00 00 00 00 00 00 00
       0.0 0.0 0.0 0.0
0001a0 00 00 00 00 00 00 00 00 00 00 00 00 00 00 00 00
       0.0 0.0 0.0 0.0
0001b0 00 00 00 00 00 00 00 00 00 00 00 00 00 00 00 00
       0.0 0.0 0.0 0.0
0001c0 00 00 00 00 00 00 00 00 00 00 00 00 00 00 00 00
       0.0 0.0 0.0 0.0
0001d0 00 00 00 00 cf b7 e7 3e 00 00 00 00 00 00 00 00
       0.0 0.45257422 0.0 0.0
0001e0 00 00 00 00 00 00 00 00 00 00 00 00 00 00 00 00
       0.0 0.0 0.0 0.0
0001f0 00 00 00 00 00 00 00 00 00 00 00 00 00 00 00 00
       0.0 0.0 0.0 0.0
000200 00 00 00 00 00 00 00 00 00 00 00 00 00 00 00 00
       0.0 0.0 0.0 0.0
000210 00 00 00 00 00 00 00 00 00 00 00 00 00 00 00 00
       0.0 0.0 0.0 0.0
000220 00 00 00 00 00 00 00 00 00 00 00 00 00 00 00 00
       0.0 0.0 0.0 0.0
000230 00 00 00 00 00 00 00 00 00 00 00 00 00 00 00 00
       0.0 0.0 0.0 0.0
000240 00 00 00 00 00 00 00 00 00 00 00 00 00 00 00 00
       0.0 0.0 0.0 0.0
000250 00 00 00 00 00 00 00 00 43 14 b3 3e 00 00 00 00
       0.0 0.0 0.34976396 0.0
000260 58 23 d6 3e 00 00 00 00 00 00 00 00 00 00 00 00
       0.4182384 0.0 0.0 0.0
000270 69 ea d0 3e 00 00 00 00 00 00 00 00 00 00 00 00
       0.4080384 0.0 0.0 0.0
000280 00 00 00 00 00 00 00 00 00 00 00 00 00 00 00 00
       0.0 0.0 0.0 0.0
000290 00 00 00 00 00 00 00 00 00 00 00 00 00 00 00 00
       0.0 0.0 0.0 0.0
0002a0 00 00 00 00 00 00 00 00 00 00 00 00 00 00 00 00
       0.0 0.0 0.0 0.0
0002b0 c8 eb 2a bf 00 00 00 00 00 00 00 00 00 00 00 00
       -0.66766024 0.0 0.0 0.0
0002c0 ef 64 cc 3e 9b 06 d9 3e 00 00 00 00 00 00 00 00
       0.39920756 0.42387852 0.0 0.0
0002d0 00 00 00 00 00 00 00 00 00 00 00 00 00 00 00 00
       0.0 0.0 0.0 0.0
0002e0 00 00 00 00 00 00 00 00 00 00 00 00 00 00 00 00
       0.0 0.0 0.0 0.0
0002f0 00 00 00 00 00 00 00 00 00 00 00 00 00 00 00 00
       0.0 0.0 0.0 0.0
000300 00 00 00 00 00 00 00 00 00 00 00 00 00 00 00 00
       0.0 0.0 0.0 0.0
000310 00 00 00 00 00 00 00 00 00 00 00 00 00 00 00 00
       0.0 0.0 0.0 0.0
000320 00 00 00 00 fa fe d5 3e 8b 9a c2 3e 00 00 00 00
       0.0 0.41796094 0.38008532 0.0
000330 00 00 00 00 00 00 00 00 00 00 00 00 00 00 00 00
       0.0 0.0 0.0 0.0
000340 00 00 00 00 00 00 00 00 00 00 00 00 00 00 00 00
       0.0 0.0 0.0 0.0
000350 00 00 00 00 00 00 00 00 e6 fe 9b be 00 00 00 00
       0.0 0.0 -0.3046791 0.0
000360 00 00 00 00 00 00 00 00 33 97 bb be a5 68 c1 be
       0.0 0.0 -0.36638793 -0.3777515
000370 00 00 00 00 00 00 00 00 00 00 00 00 7b 5e 00 bf
       0.0 0.0 0.0 -0.50144166
000380 14 ee af be 00 00 00 00 00 00 00 00 f6 10 77 be
       -0.34361327 0.0 0.0 -0.24127564
000390 00 00 00 00 00 00 00 00 00 00 00 00 00 00 00 00
       0.0 0.0 0.0 0.0
0003a0 00 00 00 00 00 00 00 00 00 00 00 00 00 00 00 00
       0.0 0.0 0.0 0.0
0003b0 00 00 00 00 00 00 00 00 00 00 00 00 00 00 00 00
       0.0 0.0 0.0 0.0
0003c0 00 00 00 00 00 00 00 00 b3 52 90 be 00 00 00 00
       0.0 0.0 -0.28188094 0.0
0003d0 00 00 00 00 00 00 00 00 00 00 00 00 00 00 00 00
       0.0 0.0 0.0 0.0
0003e0 00 00 00 00 00 00 00 00 00 00 00 00 00 00 00 00
       0.0 0.0 0.0 0.0
0003f0 00 00 00 00 00 00 00 00 00 00 00 00 00 00 00 00
       0.0 0.0 0.0 0.0

features.1.weight f4 [6]
000000 46 ef 88 3f 45 a2 17 3f f0 18 78 3f 66 6d 99 3f
       1.069802 0.5923198 0.9691305 1.1986511
000010 31 df ba 3f d9 c0 b8 3f
       1.4599363 1.4433852

features.1.bias f4 [6]
000000 69 a6 82 3d ae ca 1f 3e 55 1b ba 3e e9 bc aa bc
       0.063793965 0.1560466 0.36348978 -0.020842033
000010 af af eb bc 06 95 84 3d
       -0.028770296 0.064737365

features.1.running_mean f4 [6]
000000 9f 53 63 3d 54 00 90 bd ad 1a 95 3c 94 c4 a4 bb
       0.05549967 -0.070313126 0.018201197 -0.0050283168
000010 f2 b9 a7 3d dc 02 5c 3e
       0.08189763 0.21485466

features.1.running_var f4 [6]
000000 be 6a 7a 40 56 3d 1a 3f 21 41 a6 40 94 fd d3 40
       3.912765 0.6024984 5.1954503 6.6247044
000010 16 1e 88 40 e7 e2 ec 40
       4.2536726 7.402698

features.4.weight f4 [16, 6, 5, 5]
000000 7e ad 74 be 00 00 00 00 00 00 00 00 00 00 00 00
       -0.23894307 0.0 0.0 0.0
000010 00 00 00 00 00 00 00 00 00 00 00 00 00 00 00 00
       0.0 0.0 0.0 0.0
000020 00 00 00 00 00 00 00 00 00 00 00 00 00 00 00 00
       0.0 0.0 0.0 0.0
000030 00 00 00 00 00 00 00 00 00 00 00 00 00 00 00 00
       0.0 0.0 0.0 0.0
000040 00 00 00 00 00 00 00 00 00 00 00 00 00 00 00 00
       0.0 0.0 0.0 0.0
000050 00 00 00 00 00 00 00 00 00 00 00 00 44 71 8e 3e
       0.0 0.0 0.0 0.2782079
000060 00 00 00 00 00 00 00 00 00 00 00 00 00 00 00 00
       0.0 0.0 0.0 0.0
000070 00 00 00 00 00 00 00 00 00 00 00 00 00 00 00 00
       0.0 0.0 0.0 0.0
000080 00 00 00 00 00 00 00 00 00 00 00 00 ec df 4e 3e
       0.0 0.0 0.0 0.20202607
000090 00 00 00 00 00 00 00 00 00 00 00 00 00 00 00 00
       0.0 0.0 0.0 0.0
0000a0 00 00 00 00 00 00 00 00 00 00 00 00 00 00 00 00
       0.0 0.0 0.0 0.0
0000b0 00 00 00 00 00 00 00 00 00 00 00 00 00 00 00 00
       0.0 0.0 0.0 0.0
0000c0 00 00 00 00 00 00 00 00 00 00 00 00 00 00 00 00
       0.0 0.0 0.0 0.0
0000d0 00 00 00 00 00 00 00 00 00 00 00 00 00 00 00 00
       0.0 0.0 0.0 0.0
0000e0 00 00 00 00 00 00 00 00 3e 2b 11 3e 65 18 72 be
       0.0 0.0 0.14176652 -0.23642118
0000f0 00 00 00 00 00 00 00 00 00 00 00 00 00 00 00 00
       0.0 0.0 0.0 0.0
000100 00 00 00 00 00 00 00 00 00 00 00 00 00 00 00 00
       0.0 0.0 0.0 0.0
000110 00 00 00 00 00 00 00 00 00 00 00 00 00 00 00 00
       0.0 0.0 0.0 0.0
000120 00 00 00 00 00 00 00 00 00 00 00 00 00 00 00 00
       0.0 0.0 0.0 0.0
000130 00 00 00 00 00 00 00 00 00 00 00 00 0b de 5b be
       0.0 0.0 0.0 -0.21471421
000140 00 00 00 00 00 00 00 00 00 00 00 00 06 04 4d be
       0.0 0.0 0.0 -0.20021066
000150 00 00 00 00 00 00 00 00 00 00 00 00 00 00 00 00
       0.0 0.0 0.0 0.0
000160 00 00 00 00 00 00 00 00 00 00 00 00 00 00 00 00
       0.0 0.0 0.0 0.0
000170 00 00 00 00 00 00 00 00 65 9a 47 be 00 00 00 00
       0.0 0.0 -0.1949249 0.0
000180 00 00 00 00 00 00 00 00 00 00 00 00 00 00 00 00
       0.0 0.0 0.0 0.0
000190 00 00 00 00 00 00 00 00 ea 16 5a be 00 00 00 00
       0.0 0.0 -0.21297804 0.0
0001a0 00 00 00 00 00 00 00 00 00 00 00 00 00 00 00 00
       0.0 0.0 0.0 0.0
0001b0 00 00 00 00 00 00 00 00 00 00 00 00 18 d8 57 be
       0.0 0.0 0.0 -0.21078527
0001c0 62 41 84 be 00 00 00 00 00 00 00 00 00 00 00 00
       -0.25831133 0.0 0.0 0.0
0001d0 00 00 00 00 00 00 00 00 00 00 00 00 00 00 00 00
       0.0 0.0 0.0 0.0
0001e0 00 00 00 00 d3 34 9c 3e 00 00 00 00 00 00 00 00
       0.0 0.30509052 0.0 0.0
0001f0 00 00 00 00 00 00 00 00 00 00 00 00 00 00 00 00
       0.0 0.0 0.0 0.0
000200 00 00 00 00 e8 37 97 3e 14 e5 67 be 00 00 00 00
       0.0 0.2953484 -0.2264598 0.0
000210 00 00 00 00 30 39 20 3e 00 00 00 00 00 00 00 00
       0.0 0.15646815 0.0 0.0
000220 00 00 00 00 00 00 00 00 00 00 00 00 00 00 00 00
       0.0 0.0 0.0 0.0
000230 00 00 00 00 00 00 00 00 00 00 00 00 00 00 00 00
       0.0 0.0 0.0 0.0
000240 00 00 00 00 00 00 00 00 00 00 00 00 00 00 00 00
       0.0 0.0 0.0 0.0
000250 00 00 00 00 46 e3 4e be d7 a8 82 3e 00 00 00 00
       0.0 -0.20203885 0.2551944 0.0
000260 00 00 00 00 80 5f a4 be 00 00 00 00 00 00 00 00
       0.0 -0.3210411 0.0 0.0
000270 8a a2 2d be bc 13 3c be c7 40 54 be 23 ca 5c 3e
       -0.16956535 -0.18366903 -0.20727836 0.21561484
000280 d9 14 3e be 9b 5f 37 be 8e 07 9a be 00 00 00 00
       -0.1856264 -0.17907564 -0.3008389 0.0
000290 cc 80 9c 3e f0 3e 63 be 00 00 00 00 00 00 00 00
       0.30567014 -0.22191978 0.0 0.0
0002a0 00 00 00 00 bb 26 40 3e 00 00 00 00 00 00 00 00
       0.0 0.18764775 0.0 0.0
0002b0 00 00 00 00 77 c6 3a 3e 00 00 00 00 00 00 00 00
       0.0 0.18239771 0.0 0.0
0002c0 00 00 00 00 00 00 00 00 00 00 00 00 3a f8 50 be
       0.0 0.0 0.0 -0.20407191
0002d0 00 00 00 00 00 00 00 00 00 00 00 00 00 00 00 00
       0.0 0.0 0.0 0.0
0002e0 00 00 00 00 00 00 00 00 00 00 00 00 00 00 00 00
       0.0 0.0 0.0 0.0
0002f0 00 00 00 00 00 00 00 00 00 00 00 00 00 00 00 00
       0.0 0.0 0.0 0.0
000300 00 00 00 00 00 00 00 00 2c 96 87 3e 00 00 00 00
       0.0 0.0 0.2648176 0.0
000310 00 00 00 00 00 00 00 00 00 00 00 00 eb 21 a0 3e
       0.0 0.0 0.0 0.31275877
000320 b2 82 6f 3e 00 00 00 00 53 b2 70 be 00 00 00 00
       0.233897 0.0 -0.23505525 0.0
000330 00 00 00 00 00 00 00 00 00 00 00 00 00 00 00 00
       0.0 0.0 0.0 0.0
000340 49 d3 37 3e 00 00 00 00 00 00 00 00 00 00 00 00
       0.17951693 0.0 0.0 0.0
000350 00 00 00 00 00 00 00 00 59 20 9b be 86 b6 36 3e
       0.0 0.0 -0.30298117 0.17843065
000360 9e 81 3e 3e 00 00 00 00 00 00 00 00 51 e5 a3 be
       0.18604133 0.0 0.0 -0.32010892
000370 00 00 00 00 00 00 00 00 00 00 00 00 00 00 00 00
       0.0 0.0 0.0 0.0
000380 3a a1 4b be 00 00 00 00 b1 a8 6f 3e 00 00 00 00
       -0.19885722 0.0 0.23404194 0.0
000390 00 00 00 00 00 00 00 00 40 9d 74 3e 88 53 88 be
       0.0 0.0 0.23888111 -0.2662623
0003a0 00 00 00 00 00 00 00 00 00 00 00 00 00 00 00 00
       0.0 0.0 0.0 0.0
0003b0 00 00 00 00 00 00 00 00 00 00 00 00 00 00 00 00
       0.0 0.0 0.0 0.0
0003c0 00 00 00 00 00 00 00 00 00 00 00 00 00 00 00 00
       0.0 0.0 0.0 0.0
0003d0 00 00 00 00 00 00 00 00 00 00 00 00 00 00 00 00
       0.0 0.0 0.0 0.0
0003e0 00 00 00 00 00 00 00 00 00 00 00 00 00 00 00 00
       0.0 0.0 0.0 0.0
0003f0 00 00 00 00 00 00 00 00 00 00 00 00 00 00 00 00
       0.0 0.0 0.0 0.0

features.5.weight f4 [16]
000000 e9 28 9c 3f 0d 37 d5 3f 95 88 ee 3f 42 4a dc 3f
       1.2199985 1.6657425 1.8635432 1.7210162
000010 3e de d3 3f bd d7 c5 3f f9 39 a3 3f 0b d4 a6 3f
       1.6552198 1.5456463 1.2752067 1.303346
000020 45 83 c6 3f b9 27 b4 3f 78 61 a4 3f fd ad c9 3f
       1.550881 1.4074622 1.2842245 1.5756222
000030 f9 34 bd 3f 9b 4e b2 3f dc fe ba 3f ec c9 bd 3f
       1.4781791 1.3930238 1.4609027 1.4827247

features.5.bias f4 [16]
000000 58 0a f2 bd 87 4d 3c bf ec 53 08 bf 28 17 37 be
       -0.11818379 -0.735558 -0.53253055 -0.17879927
000010 68 6f fd be bd e3 f3 be 7f a5 1a be 21 5b 7e be
       -0.4949906 -0.47634688 -0.15102194 -0.2483945
000020 a5 cb 0d be 3c 38 e2 bd a6 f6 b0 3d c3 a1 d6 be
       -0.13847215 -0.11045882 0.086407945 -0.4192029
000030 b6 d1 cc be e2 b9 9d be fd e4 ab be fa 79 20 bd
       -0.40003747 -0.3080588 -0.33573142 -0.039178826

features.5.running_mean f4 [16]
000000 ca 15 af be 58 14 02 bf 7e d4 b7 be 61 47 a9 bf
       -0.3419631 -0.5081229 -0.35904306 -1.3224908
000010 41 a8 e3 be 6a c0 fb be 1a b0 af 3f 47 a0 34 3f
       -0.44464305 -0.49170238 1.3725617 0.70557064
000020 31 86 24 bf 68 0f 15 3e f6 b7 9a be 24 45 25 bf
       -0.6426726 0.14556658 -0.30218476 -0.64558625
000030 5a 27 0f bf 50 c9 2a 3f ba 08 6e be 66 06 b5 bf
       -0.5591942 0.6671343 -0.23245516 -1.4142578

features.5.running_var f4 [16]
000000 f9 87 81 3e 59 3f 40 3f 04 45 49 3f 2d 34 a3 3f
       0.2529905 0.7509666 0.78620934 1.2750298
000010 8a 75 70 3f cf c6 88 3f 3c 01 0e 3f 3f 3a 2d 3f
       0.9392935 1.0685672 0.55470634 0.67667
000020 f8 d1 e4 3e c6 0e d5 3e a5 68 09 3f 79 bb 8e 3f
       0.44691443 0.41612834 0.536753 1.1150962
000030 ad 9f 16 3f fb 48 0c 3f 17 cc 06 3f c5 86 8d 3f
       0.58837396 0.5479886 0.52655166 1.1056753

features.9.weight f4 [120, 400]
000000 e0 e2 34 3d 6c 63 eb 3d 00 00 00 00 fd ef 94 bd
       0.044161677 0.114935726 0.0 -0.07272337
000010 00 00 00 00 00 00 00 00 2d e7 57 3d 00 00 00 00
       0.0 0.0 0.0527107 0.0
000020 00 00 00 00 00 00 00 00 00 00 00 00 00 00 00 00
       0.0 0.0 0.0 0.0
000030 00 00 00 00 00 00 00 00 00 00 00 00 7b d3 bd bd
       0.0 0.0 0.0 -0.09268852
000040 00 00 00 00 00 00 00 00 00 00 00 00 00 00 00 00
       0.0 0.0 0.0 0.0
000050 90 97 c6 bd 00 00 00 00 00 00 00 00 c4 71 8e 3d
       -0.09696877 0.0 0.0 0.06955293
000060 82 a9 d8 3d 00 00 00 00 a9 56 e3 3d 00 00 00 00
       0.10579206 0.0 0.111005135 0.0
000070 77 e3 aa bd 90 73 b2 bd 00 00 00 00 00 00 00 00
       -0.08344167 -0.08713448 0.0 0.0
000080 00 00 00 00 00 00 00 00 00 00 00 00 00 00 00 00
       0.0 0.0 0.0 0.0
000090 00 00 00 00 00 00 00 00 00 00 00 00 00 00 00 00
       0.0 0.0 0.0 0.0
0000a0 00 00 00 00 18 7f 88 bd 00 00 00 00 e3 41 3a 3d
       0.0 -0.06664866 0.0 0.04547299
0000b0 00 00 00 00 00 00 00 00 88 8c c5 bd 00 00 00 00
       0.0 0.0 -0.09645945 0.0
0000c0 78 b7 d0 3d 00 00 00 00 00 00 00 00 00 00 00 00
       0.10191244 0.0 0.0 0.0
0000d0 3e 4c 45 3d 00 00 00 00 00 00 00 00 c3 4d e6 bd
       0.048168413 0.0 0.0 -0.112453006
0000e0 00 00 00 00 2a 98 d3 3d 00 00 00 00 00 00 00 00
       0.0 0.10331757 0.0 0.0
0000f0 2f 95 dc bd b5 ac a5 bd ab 96 b5 3d 00 00 00 00
       -0.10770642 -0.08089582 0.08866628 0.0
000100 d1 f4 a8 bd 82 0a a7 bd da 8b a4 bd 00 00 00 00
       -0.0824982 -0.08156301 -0.08034487 0.0
000110 00 00 00 00 4e a6 8f bd 00 00 00 00 9c e8 8e bd
       0.0 -0.07014142 0.0 -0.069779605
000120 00 00 00 00 00 00 00 00 00 00 00 00 ce cd cf 3d
       0.0 0.0 0.0 0.10146676
000130 39 28 ac bd c5 ea 17 be fd c1 64 3d 5a 00 3c 3e
       -0.08406109 -0.14835651 0.055849064 0.18359509
000140 00 00 00 00 00 00 00 00 b0 3a af bd 00 00 00 00
       0.0 0.0 -0.085561156 0.0
000150 b6 bd 05 3e 00 00 00 00 00 00 00 00 00 00 00 00
       0.1306065 0.0 0.0 0.0
000160 00 00 00 00 00 00 00 00 00 00 00 00 e0 ca 7d 3d
       0.0 0.0 0.0 0.061961055
000170 aa 55 be 3d 00 00 00 00 00 00 00 00 a0 d3 9f bd
       0.09293683 0.0 0.0 -0.07804036
000180 83 82 8f 3d 33 1a e4 3d 00 00 00 00 00 00 00 00
       0.07007315 0.111378096 0.0 0.0
000190 00 00 00 00 00 00 00 00 00 00 00 00 97 ff 92 3d
       0.0 0.0 0.0 0.07177656
0001a0 00 00 00 00 00 00 00 00 f8 e2 5f bd 00 00 00 00
       0.0 0.0 -0.054659814 0.0
0001b0 00 00 00 00 00 00 00 00 00 00 00 00 00 00 00 00
       0.0 0.0 0.0 0.0
0001c0 00 00 00 00 00 00 00 00 00 00 00 00 00 00 00 00
       0.0 0.0 0.0 0.0
0001d0 21 79 96 bd 08 a2 9f bd 00 00 00 00 00 00 00 00
       -0.07347322 -0.07794577 0.0 0.0
0001e0 73 9a 5f 3d 00 00 00 00 00 00 00 00 00 00 00 00
       0.054590654 0.0 0.0 0.0
0001f0 00 00 00 00 00 00 00 00 00 00 00 00 fa 98 dd 3d
       0.0 0.0 0.0 0.108201936
000200 00 00 00 00 85 46 fe bd 00 00 00 00 00 00 00 00
       0.0 -0.12415794 0.0 0.0
000210 00 00 00 00 00 00 00 00 db b9 ac bd 00 00 00 00
       0.0 0.0 -0.084338866 0.0
000220 00 00 00 00 00 00 00 00 00 00 00 00 00 00 00 00
       0.0 0.0 0.0 0.0
000230 00 00 00 00 00 00 00 00 00 00 00 00 00 00 00 00
       0.0 0.0 0.0 0.0
000240 00 00 00 00 00 00 00 00 00 00 00 00 5b b3 8a bd
       0.0 0.0 0.0 -0.067724906
000250 00 00 00 00 00 00 00 00 00 00 00 00 00 00 00 00
       0.0 0.0 0.0 0.0
000260 70 d8 08 3d 00 00 00 00 f1 25 93 bd 00 00 00 00
       0.033409536 0.0 -0.07184971 0.0
000270 9e 08 cd bd 00 00 00 00 00 00 00 00 00 00 00 00
       -0.10011409 0.0 0.0 0.0
000280 00 00 00 00 00 00 00 00 00 00 00 00 00 00 00 00
       0.0 0.0 0.0 0.0
000290 00 00 00 00 00 00 00 00 00 00 00 00 00 00 00 00
       0.0 0.0 0.0 0.0
0002a0 00 00 00 00 00 00 00 00 93 95 89 bd 00 00 00 00
       0.0 0.0 -0.06717982 0.0
0002b0 00 00 00 00 3c b8 7b bd 00 00 00 00 00 00 00 00
       0.0 -0.061454996 0.0 0.0
0002c0 21 45 91 3d 00 00 00 00 00 00 00 00 ad f8 c6 bd
       0.070932634 0.0 0.0 -0.097154
0002d0 00 00 00 00 00 00 00 00 00 00 00 00 00 00 00 00
       0.0 0.0 0.0 0.0
0002e0 00 00 00 00 00 00 00 00 00 00 00 00 00 00 00 00
       0.0 0.0 0.0 0.0
0002f0 00 00 00 00 00 00 00 00 00 00 00 00 00 00 00 00
       0.0 0.0 0.0 0.0
000300 f3 07 9e bd 00 00 00 00 00 00 00 00 00 00 00 00
       -0.0771636 0.0 0.0 0.0
000310 00 00 00 00 00 00 00 00 00 00 00 00 00 00 00 00
       0.0 0.0 0.0 0.0
000320 00 00 00 00 00 00 00 00 00 00 00 00 00 00 00 00
       0.0 0.0 0.0 0.0
000330 2b e8 49 3d 70 cc 85 bd 00 00 00 00 01 46 cf bd
       0.04929368 -0.06533134 0.0 -0.10120774
000340 00 00 00 00 00 00 00 00 e7 93 c2 bd 00 00 00 00
       0.0 0.0 -0.095008664 0.0
000350 00 00 00 00 00 00 00 00 00 00 00 00 88 cb 65 bd
       0.0 0.0 0.0 -0.056102306
000360 00 00 00 00 00 00 00 00 00 00 00 00 00 00 00 00
       0.0 0.0 0.0 0.0
000370 00 00 00 00 00 00 00 00 00 00 00 00 00 00 00 00
       0.0 0.0 0.0 0.0
000380 4b d1 99 bd 00 00 00 00 3c ec 12 3e 00 00 00 00
       -0.075106226 0.0 0.14347929 0.0
000390 f1 da bb bd 80 65 9b bd 00 00 00 00 83 2f 7a 3d
       -0.09172619 -0.07587719 0.0 0.061080467
0003a0 00 00 00 00 00 00 00 00 61 5d 7f bd 00 00 00 00
       0.0 0.0 -0.062344912 0.0
0003b0 00 00 00 00 00 00 00 00 00 00 00 00 00 00 00 00
       0.0 0.0 0.0 0.0
0003c0 00 00 00 00 00 00 00 00 00 00 00 00 00 00 00 00
       0.0 0.0 0.0 0.0
0003d0 8f ff 85 3d 00 00 00 00 00 00 00 00 bd f4 cc bd
       0.065428846 0.0 0.0 -0.100076176
0003e0 00 00 00 00 6f 74 b9 3d 00 00 00 00 00 00 00 00
       0.0 0.09055411 0.0 0.0
0003f0 00 00 00 00 cf df 5d 3d 69 af 85 3d 00 00 00 00
       0.0 0.05416852 0.065275975 0.0

features.9.bias f4 [120]
000000 9c 95 00 bd e9 8a 4a 3c 57 9d 92 3e ae 6f 77 3e
       -0.03139268 0.01236222 0.28635666 0.24163696
000010 0e ab 45 bd 33 ec 2c bc e1 f8 0b bc bb 69 a1 3d
       -0.048258834 -0.010554361 -0.008543224 0.078814946
000020 c7 8d 67 3c 73 1d 70 bc 73 fd f3 bb fd 90 f2 bd
       0.014132923 -0.014655459 -0.007445985 -0.118440606
000030 43 55 4e 3c 60 78 62 3b 05 82 eb 3d 0d f4 c6 3c
       0.01259357 0.0034556612 0.11499409 0.024286294
000040 b4 99 f7 3d 41 ac 38 bc 10 b2 ab bd af cd 3f 3d
       0.120898634 -0.011271537 -0.08383572 0.046827015
000050 71 93 2a bc 94 77 b9 3d 06 5f b1 bc 6d 1e 3b bd
       -0.010411129 0.09056011 -0.021651756 -0.045683313
000060 ca 77 94 3d 95 0a 31 bd c7 72 9a 3d a6 af c9 bc
       0.072494105 -0.043222982 0.07541423 -0.024619889
000070 fa 6d fe 3d 88 2a 61 3d 1a 11 44 3d b6 6e a2 bb
       0.1242332 0.0549722 0.04786787 -0.0049570454
000080 75 a2 b2 bb 45 44 0f 3b 47 b4 11 3d 4d e1 bd bc
       -0.0054514953 0.002186076 0.035572316 -0.02317872
000090 da de bf bc e9 bb ac bc ad c8 0a bb ed 03 a9 3c
       -0.023421694 -0.021085696 -0.002117674 0.020631755
0000a0 bd 82 1e 3c cd 66 26 bc 4d 7e 13 3d b5 1c b0 bc
       0.009674725 -0.010156346 0.03600912 -0.021498064
0000b0 56 19 da 3d 9e b5 29 3d de ad fe 3c 34 eb 64 3d
       0.10649364 0.04143297 0.031088766 0.05588837
0000c0 db 47 0a 3d 20 25 26 3e 89 e4 d8 ba 8e 17 d4 bc
       0.033759933 0.162251 -0.0016547601 -0.025890138
0000d0 15 7b dc 3d 0f ef 03 3d 2e 0b a5 bb 52 18 42 bc
       0.107656635 0.032210406 -0.005036733 -0.011846619
0000e0 f8 23 1a 3d e4 d2 4b bb ed 64 32 3d 4b 83 61 3c
       0.03763196 -0.0031101042 0.04355328 0.013764213
0000f0 06 0b 0d bd 09 bd 2d bc dc 39 0a 3d f4 8d 40 3c
       -0.03443434 -0.0106041515 0.033746585 0.011752594
000100 d3 3c 19 bc dc 94 de 3a 37 3d d2 bc aa 0f 16 3d
       -0.0093528805 0.0016981619 -0.025663955 0.036636032
000110 3c 08 b3 bd d5 88 96 3d eb 89 cb 3c ac 36 3c bd
       -0.08741805 0.073503174 0.024846038 -0.045950577
000120 4b 2f 6d 3d 28 48 c6 ba 35 93 08 3c 56 50 bf 3d
       0.05790643 -0.0015127705 0.008335878 0.09341495
000130 f1 fa e4 3d 4a d6 35 3d a7 8e 08 3c d8 6d 13 bd
       0.11180676 0.044393815 0.008334792 -0.035993427
000140 4b b9 a4 bc 10 f0 40 bb 3b dc 5d 3d 44 52 77 bc
       -0.020107886 -0.0029439963 0.054165106 -0.015095297
000150 08 9b 24 bc 9d 77 52 bd 02 a4 f7 3d 98 26 cd 3c
       -0.010046728 -0.051383603 0.12091829 0.025042817
000160 4f 55 a2 bd 12 d8 18 3e 97 46 6f b9 13 b6 ed 3c
       -0.079264276 0.14926174 -0.00022819113 0.029017484
000170 2a 20 66 bd 1c 38 a1 bc f2 36 b3 3d 17 47 1d 3e
       -0.056183018 -0.019680075 0.08750714 0.1535915
000180 7b 92 1e 3d cd 43 21 3e 8f 7b 9e 3c 5f ec dc 3b
       0.038713913 0.1574852 0.019346027 0.006742045
000190 10 cf 16 3b e6 73 8e bd 40 54 5a 3b b3 4b bf 3c
       0.0023011602 -0.069556996 0.0033314377 0.023351526
0001a0 7b ed cf 3d cc ee cc 3b 94 9b 65 3c 97 94 48 3e
       0.10152718 0.0062540527 0.0140141435 0.19587933
0001b0 6a cd 3c 3d 99 ef b4 3d 75 97 b3 3b 4f 77 6d 3d
       0.046094336 0.08834762 0.0054807016 0.05797511
0001c0 fb 10 b1 3d dd f5 12 bd ee 7d 63 bd 38 ad 82 bb
       0.08645817 -0.035879005 -0.055540018 -0.0039879344
0001d0 a5 23 51 bd 99 28 43 3c e2 28 eb bc 85 21 93 bd
       -0.051059384 0.011911535 -0.028706018 -0.07184128

features.11.weight f4 [84, 120]
000000 6b 3a c6 3d 7d 56 15 3e b9 2a c0 3d 38 a9 38 3e
       0.09679111 0.14583774 0.09383149 0.18033302
000010 00 00 00 00 00 00 00 00 92 0f d8 3d 8d 27 ee bd
       0.0 0.0 0.10549845 -0.116286375
000020 00 00 00 00 ae 2d 3c be bb 36 92 bd 35 3b 87 3e
       0.0 -0.183768 -0.07139345 0.2641236
000030 3a 43 46 3e 00 00 00 00 00 00 00 00 00 00 00 00
       0.19361582 0.0 0.0 0.0
000040 66 14 c8 3d 00 00 00 00 04 db 90 3d 1d 30 ea 3d
       0.09769516 0.0 0.07073024 0.11434958
000050 fd 9d f0 3d 00 00 00 00 00 00 00 00 00 00 00 00
       0.11748884 0.0 0.0 0.0
000060 d3 17 54 be 00 00 00 00 00 00 00 00 00 00 00 00
       -0.20712213 0.0 0.0 0.0
000070 47 d2 51 3e 00 00 00 00 00 00 00 00 00 00 00 00
       0.2049037 0.0 0.0 0.0
000080 00 00 00 00 00 00 00 00 70 10 bc 3d 00 00 00 00
       0.0 0.0 0.09182823 0.0
000090 00 00 00 00 00 00 00 00 00 00 00 00 00 00 00 00
       0.0 0.0 0.0 0.0
0000a0 00 00 00 00 00 00 00 00 00 00 00 00 00 00 00 00
       0.0 0.0 0.0 0.0
0000b0 00 00 00 00 00 00 00 00 00 00 00 00 1e 73 2a 3e
       0.0 0.0 0.0 0.16645476
0000c0 86 4f 6a 3e 17 9c 8b bd 54 b6 b9 bd b0 81 f3 3d
       0.22881898 -0.06816881 -0.090679795 0.1188997
0000d0 e9 4a e8 bd 00 00 00 00 00 00 00 00 00 00 00 00
       -0.11342413 0.0 0.0 0.0
0000e0 13 a5 b8 3d 00 00 00 00 00 00 00 00 00 00 00 00
       0.090158604 0.0 0.0 0.0
0000f0 26 f6 ca 3d 00 00 00 00 00 00 00 00 00 00 00 00
       0.0991023 0.0 0.0 0.0
000100 27 df a8 3d ce 89 2d be 84 09 ea 3d 00 00 00 00
       0.08245688 -0.169471 0.11427596 0.0
000110 74 5a 02 be 00 00 00 00 a9 ef 98 bd 00 00 00 00
       -0.12729818 0.0 -0.074675865 0.0
000120 00 00 00 00 00 00 00 00 00 00 00 00 a8 d4 d1 3d
       0.0 0.0 0.0 0.10245639
000130 00 00 00 00 d0 22 3a 3e 58 67 da bd 00 00 00 00
       0.0 0.18177342 -0.106642425 0.0
000140 1c 94 0e be 00 00 00 00 78 aa 89 3d f2 a0 50 3e
       -0.13923687 0.0 0.067219675 0.20373896
000150 b0 1d 4b 3e f3 1e fa bd aa 22 37 3e 7a d3 f8 bd
       0.19835544 -0.12212934 0.17884317 -0.12149711
000160 00 00 00 00 06 c0 b1 bd 00 00 00 00 4a c2 c3 3d
       0.0 -0.08679204 0.0 0.09558542
000170 09 f8 41 be 00 00 00 00 00 00 00 00 00 00 00 00
       -0.18942274 0.0 0.0 0.0
000180 5b 02 de 3d 26 eb 3a be 00 00 00 00 00 00 00 00
       0.10840293 -0.18253765 0.0 0.0
000190 0a 84 7f 3d 0e 7e 21 3e 67 b4 07 be ec aa d3 bd
       0.06238178 0.15770742 -0.13252412 -0.10335335
0001a0 00 00 00 00 67 2f 83 3d 00 00 00 00 00 00 00 00
       0.0 0.06405526 0.0 0.0
0001b0 00 00 00 00 39 3c 29 be 00 00 00 00 56 91 f7 3d
       0.0 -0.1652688 0.0 0.120882675
0001c0 cb bf 03 be a0 8e 12 3e 00 00 00 00 00 00 00 00
       -0.12866132 0.1431222 0.0 0.0
0001d0 00 00 00 00 00 00 00 00 00 00 00 00 c7 6a ab bd
       0.0 0.0 0.0 -0.083699755
0001e0 00 00 00 00 0e ac 7e bd 00 00 00 00 00 00 00 00
       0.0 -0.062175803 0.0 0.0
0001f0 00 00 00 00 00 00 00 00 00 00 00 00 00 00 00 00
       0.0 0.0 0.0 0.0
000200 00 00 00 00 00 00 00 00 00 00 00 00 00 00 00 00
       0.0 0.0 0.0 0.0
000210 00 00 00 00 00 00 00 00 00 00 00 00 00 00 00 00
       0.0 0.0 0.0 0.0
000220 00 00 00 00 00 00 00 00 00 00 00 00 00 00 00 00
       0.0 0.0 0.0 0.0
000230 00 00 00 00 83 25 94 3d 00 00 00 00 00 00 00 00
       0.0 0.07233717 0.0 0.0
000240 00 00 00 00 00 00 00 00 00 00 00 00 00 00 00 00
       0.0 0.0 0.0 0.0
000250 00 00 00 00 00 00 00 00 00 00 00 00 00 00 00 00
       0.0 0.0 0.0 0.0
000260 00 00 00 00 00 00 00 00 00 00 00 00 00 00 00 00
       0.0 0.0 0.0 0.0
000270 00 00 00 00 00 00 00 00 00 00 00 00 00 00 00 00
       0.0 0.0 0.0 0.0
000280 00 00 00 00 00 00 00 00 00 00 00 00 00 00 00 00
       0.0 0.0 0.0 0.0
000290 00 00 00 00 00 00 00 00 00 00 00 00 00 00 00 00
       0.0 0.0 0.0 0.0
0002a0 00 00 00 00 00 00 00 00 00 00 00 00 00 00 00 00
       0.0 0.0 0.0 0.0
0002b0 00 00 00 00 00 00 00 00 00 00 00 00 00 00 00 00
       0.0 0.0 0.0 0.0
0002c0 00 00 00 00 00 00 00 00 00 00 00 00 00 00 00 00
       0.0 0.0 0.0 0.0
0002d0 00 00 00 00 00 00 00 00 00 00 00 00 00 00 00 00
       0.0 0.0 0.0 0.0
0002e0 00 00 00 00 00 00 00 00 00 00 00 00 00 00 00 00
       0.0 0.0 0.0 0.0
0002f0 00 00 00 00 00 00 00 00 00 00 00 00 00 00 00 00
       0.0 0.0 0.0 0.0
000300 00 00 00 00 00 00 00 00 00 00 00 00 00 00 00 00
       0.0 0.0 0.0 0.0
000310 00 00 00 00 00 00 00 00 00 00 00 00 00 00 00 00
       0.0 0.0 0.0 0.0
000320 00 00 00 00 00 00 00 00 00 00 00 00 00 00 00 00
       0.0 0.0 0.0 0.0
000330 00 00 00 00 00 00 00 00 00 00 00 00 00 00 00 00
       0.0 0.0 0.0 0.0
000340 00 00 00 00 36 34 aa 3d 00 00 00 00 00 00 00 00
       0.0 0.0831074 0.0 0.0
000350 00 00 00 00 00 00 00 00 00 00 00 00 00 00 00 00
       0.0 0.0 0.0 0.0
000360 00 00 00 00 00 00 00 00 00 00 00 00 00 00 00 00
       0.0 0.0 0.0 0.0
000370 00 00 00 00 00 00 00 00 00 00 00 00 00 00 00 00
       0.0 0.0 0.0 0.0
000380 00 00 00 00 00 00 00 00 00 00 00 00 00 00 00 00
       0.0 0.0 0.0 0.0
000390 00 00 00 00 00 00 00 00 00 00 00 00 00 00 00 00
       0.0 0.0 0.0 0.0
0003a0 00 00 00 00 00 00 00 00 00 00 00 00 00 00 00 00
       0.0 0.0 0.0 0.0
0003b0 00 00 00 00 00 00 00 00 00 00 00 00 00 00 00 00
       0.0 0.0 0.0 0.0
0003c0 00 00 00 00 c6 fe d8 3d 00 00 00 00 95 2a 13 3e
       0.0 0.10595469 0.0 0.14371713
0003d0 48 29 9e bd 00 00 00 00 00 00 00 00 00 00 00 00
       -0.077227175 0.0 0.0 0.0
0003e0 00 00 00 00 00 00 00 00 00 00 00 00 00 00 00 00
       0.0 0.0 0.0 0.0
0003f0 00 00 00 00 00 00 00 00 8c 81 ed 3d 00 00 00 00
       0.0 0.0 0.11596975 0.0

features.11.bias f4 [84]
000000 87 89 92 3e 77 48 96 3d fc f4 3a 3e 92 7e a0 3e
       0.2862055 0.0733804 0.18257517 0.31346565
000010 81 96 bd bd d6 ce 95 3d 78 89 e9 3d e5 c6 fa 3c
       -0.09257222 0.073148414 0.11403173 0.030612418
000020 d3 92 ed 3d f6 ea 04 3e 85 77 80 3d 6c f5 8e ba
       0.1160027 0.12980255 0.062727965 -0.0010906882
000030 0b 1a 67 3d e1 ec 3d 3e 22 a8 03 3d 3c 15 78 3c
       0.05642132 0.18547393 0.032142766 0.015141781
000040 1a 55 1e bd a3 aa 15 3e 3b cd 03 3c a0 53 6f 3e
       -0.038655378 0.14615874 0.008044536 0.23371744
000050 4a 62 e6 3c cf b4 85 3d 5e c8 0a 3e 20 08 0b 3e
       0.02812304 0.06528627 0.13552997 0.13577318
000060 eb 4c c6 bb b9 c3 32 bd 02 7e 50 3e b8 7b 5f 3e
       -0.00605165 -0.043643687 0.20360568 0.21824539
000070 d6 d8 65 3e 28 7a 3c 3a b3 01 76 bd af a6 30 3d
       0.22445998 0.00071898336 -0.060060214 0.04312771
000080 b8 b1 ae 3b 88 94 8a bb bb c7 5e bb 06 0c 81 bb
       0.0053312443 -0.004229132 -0.003399356 -0.003938201
000090 fa 73 e0 3d 88 80 28 bb 32 bf cb b8 aa 89 00 3e
       0.10959621 -0.0025711376 -9.715407e-05 0.12552515
0000a0 b7 c6 16 3c 14 93 84 bb 5c 60 d1 3d 18 71 73 3d
       0.009202651 -0.0040458534 0.10223457 0.059434026
0000b0 30 ad 34 bd 0b 57 11 3e b6 cd 03 3e f2 46 ab 3c
       -0.044110477 0.1419336 0.12871441 0.020907853
0000c0 cf e0 86 3d f7 e4 1b bd c7 66 7c 3b eb e2 b5 bb
       0.065858476 -0.038060155 0.0038513409 -0.0055507324
0000d0 d4 e0 35 3e 83 92 16 3e 37 a7 8e 3e 5e 6b 7c 3e
       0.17761546 0.14704327 0.2786195 0.24650332
0000e0 81 4a 6b 3e 5c b3 04 3d 5f 86 23 3d 3f 22 dd 3c
       0.2297764 0.032397613 0.039923068 0.026993869
0000f0 49 0e c9 3c c3 20 2e 3d a5 8d 30 3e 3f e9 82 3e
       0.024542945 0.042511713 0.17241533 0.25568578
000100 f9 b4 94 3d e6 eb 7e 3e 3a c4 a4 3e 37 a6 b3 3d
       0.0726108 0.24894676 0.3218096 0.08771937
000110 ce 8e ca 3e 81 74 7a 3a dd 3c f4 3b 57 56 81 bb
       0.39562076 0.00095541036 0.0074535445 -0.00394706
000120 2f f2 fa ba ae 0e fa 3c 49 b4 37 bb 47 08 25 3e
       -0.0019145663 0.030524578 -0.0028031042 0.16116439
000130 07 47 e4 bc 24 b8 38 3d df 08 b7 3d a0 ac 35 3e
       -0.0278659 0.045097485 0.08937239 0.17741632
000140 14 3e 39 bb 56 3e 54 3d 22 b7 42 3e 6c 33 ca 3c
       -0.0028265761 0.05181726 0.19015172 0.024682723

classifiers.0.weight f4 [5, 84]
000000 a8 9f 51 3f 5b 9c c6 bd 36 6e e2 3d 8f ba 57 3e
       0.8188424 -0.09697791 0.11056177 0.2106726
000010 b2 2d 09 be f8 e9 3b be fc ef 99 be 89 b4 9d 3e
       -0.13396338 -0.18350971 -0.30065906 0.308018
000020 fb 7d 90 be 1c 15 fb 3e 16 bf fc bc f2 2e 25 3c
       -0.28221115 0.49039543 -0.030852836 0.010081993
000030 57 52 e8 3d 4d 82 ee be b4 e4 e0 bd 0c 14 e9 bc
       0.1134383 -0.46583787 -0.10981122 -0.028451942
000040 30 49 81 3d 1f 6b 04 3d 77 b2 25 3e dc be 16 bf
       0.063127875 0.03232872 0.1618136 -0.5888498
000050 b2 31 85 bd 86 ff a0 bd 48 38 00 be ce 88 5f be
       -0.06503619 -0.07861237 -0.1252147 -0.2182953
000060 35 7f 01 bb 3f 66 03 bf b6 75 05 bf 4f 06 81 bd
       -0.001975966 -0.5132789 -0.5213274 -0.063000314
000070 01 c3 a0 3e d2 88 6e 3c 25 db 90 3e a8 3d 1f be
       0.31398776 0.014558988 0.28292194 -0.15550864
000080 32 ac 53 bc 87 cb 5e be ac f6 22 3e c3 00 75 3a
       -0.0129194725 -0.21757327 0.1591441 0.0009346122
000090 50 65 7b be 91 27 58 3a 15 e2 a8 3a 77 47 c1 bc
       -0.24550366 0.0008245642 0.001288476 -0.023593647
0000a0 80 c0 57 3e d8 4b 8c bc 0b 9c fc be 01 4e a7 be
       0.21069527 -0.017126009 -0.493378 -0.326767
0000b0 25 da eb bd 1d f0 00 be 1a e0 d3 be 25 6e 45 bb
       -0.11516217 -0.12591596 -0.41381913 -0.0030125466
0000c0 46 91 f4 3e 63 bc 07 bd 40 db c8 bc 57 ed e5 b9
       0.47767085 -0.033138644 -0.024518609 -0.00043855116
0000d0 0a 0f 87 be b8 81 a9 3b 8f 58 8b 3d 57 b6 d7 3c
       -0.2637866 0.0051729344 0.068040006 0.026332064
0000e0 c9 dd 05 3e f5 8c f8 3e ec 92 4c bc 9a 4b f7 3b
       0.13072886 0.48545042 -0.012486201 0.007546854
0000f0 47 4e 83 3e 73 f5 01 3f 2e ee f6 3c 08 7e 3e 3e
       0.25645658 0.5076515 0.03014287 0.18602765
000100 14 98 29 3c 5a 41 5d 3e d3 f3 2c 3e a9 9b 60 be
       0.0103512 0.21606961 0.16889887 -0.2193438
000110 d9 0b a7 be 31 21 fb bb 3a c9 83 bc c4 31 71 3e
       -0.32626227 -0.007663869 -0.016087163 0.2355414
000120 64 3e b4 3c 67 e4 20 3c 80 20 92 3a 9a 9e f6 be
       0.022002406 0.00982008 0.0011148602 -0.48167878
000130 65 f0 db be 78 ca 53 3e 79 4d ba bd ad 33 62 3f
       -0.42956844 0.20682704 -0.09096808 0.883601
000140 f7 22 6e ba ff 80 5e be 75 30 99 be da 45 f9 3c
       -0.00090841897 -0.21728896 -0.29919782 0.030428816
000150 7b 0a d1 be f1 97 f7 bc 67 14 10 bf b1 8e dc be
       -0.40828308 -0.030223818 -0.5628113 -0.43077615
000160 3d dd 45 bc cc 78 7a bc ad fd 2e 3b 44 fc 40 bd
       -0.012076673 -0.015287589 0.0026701496 -0.04711558
000170 d9 e0 27 3e 86 b1 a2 3d aa aa 28 3e c5 ab 2f bc
       0.16394366 0.07944016 0.16471353 -0.010722105
000180 1c f5 cc be d7 a2 c9 3e d0 4f 0a 3e 41 94 db 3c
       -0.40030754 0.3938205 0.13507009 0.026804091
000190 89 d8 ce be 00 62 c5 be 55 9c 7a bd c8 ed 43 3e
       -0.40399578 -0.3855133 -0.061184246 0.19133675
0001a0 dc 8f 25 bd 2b 5a 22 bd 31 60 00 3f 9c 89 0e 3f
       -0.040420398 -0.039636772 0.50146776 0.55678725
0001b0 78 9e d0 3a fc e6 1a 3d a5 1a de 3e d5 00 3d be
       0.0015916368 0.03781794 0.43379703 -0.18457349
0001c0 2e 00 a9 bd 6b 74 74 3c 8f a3 aa be 23 18 91 3c
       -0.082519874 0.014920334 -0.3332791 0.017711705
0001d0 4c 25 a8 bc f7 3a d6 be 87 74 00 be 9f 82 e5 bc
       -0.020525597 -0.41841862 -0.12544452 -0.028016387
0001e0 9f dd 60 3b 1e 92 42 bc 06 fd a5 3c 67 27 c4 bd
       0.0034311784 -0.011875657 0.020262253 -0.09577828
0001f0 5c 54 49 be cb 08 ab b9 7c 52 9c be a4 39 99 bd
       -0.19661087 -0.00032622213 -0.3053168 -0.07481697
000200 b4 b0 18 be f5 d6 a5 3d 3e b6 32 3f 22 c7 0c 3d
       -0.14911157 0.080976404 0.6980933 0.034369595
000210 85 af 0c be 95 36 a7 3b 59 04 a6 3c 14 ed 7d bc
       -0.1373883 0.005102942 0.020265745 -0.015498418
000220 40 6e c8 bd 45 e8 b9 be ce ee 88 be c6 25 eb bd
       -0.097866535 -0.3631002 -0.26744694 -0.11481814
000230 f2 4b be bb 8e 38 c1 3d b0 f3 19 3e 17 30 94 3d
       -0.005807393 0.09434615 0.15034366 0.07235735
000240 9f 32 65 be 78 ed 17 be 26 cf 5e be c2 0a f7 bd
       -0.22382592 -0.14836681 -0.21758708 -0.12062599
000250 b8 ff 3e be 6b a5 89 bd 1a 2f a3 be ab 4e 32 3e
       -0.18652236 -0.06721004 -0.31871873 0.17412822
000260 a3 92 0b 3f 40 b3 9b bc ce bd 23 3d ff e6 90 be
       0.54520625 -0.019006371 0.039975934 -0.28301236
000270 74 3e 99 3b 7c 92 96 3d 1c 2b 20 3c a2 24 89 3d
       0.0046766344 0.073521584 0.009775903 0.0669644
000280 e3 e6 65 bb 75 2d 81 3d 07 ac 33 3e e5 16 c4 bb
       -0.0035080246 0.06307498 0.17546092 -0.0059841746
000290 fd 6a 69 bc 15 74 3d bb 8b c2 58 3d 63 db 19 3e
       -0.014246699 -0.0028908302 0.052919906 0.15025096
0002a0 2e 83 db 3d 42 58 4c 3e d0 35 cc 3e 44 e2 00 3f
       0.1071838 0.19955543 0.39884806 0.50345254
0002b0 f7 72 99 be fb e7 a8 3d 56 36 2f 3d 29 c3 8e be
       -0.29970524 0.08247372 0.04277643 -0.2788327
0002c0 ec 04 01 bf b4 7e a4 bc bd 21 6b 3d 2e c0 b7 3b
       -0.50398135 -0.020079948 0.057405222 0.0056076264
0002d0 c3 50 ed 3b 2f 29 86 3e 57 2e 15 be e4 f5 54 bc
       0.0072422936 0.26203296 -0.14568458 -0.012998078
0002e0 a2 dc f8 bc f2 b7 9c 3e dc ad 4a be bc 98 1a 3e
       -0.030378643 0.3060909 -0.19792885 0.15097326
0002f0 b5 36 15 3d 30 ac 48 3e 86 68 5b 3d 90 80 c8 be
       0.036429126 0.19596934 0.05356648 -0.39160585
000300 36 17 f0 bb 0a 82 94 bd e0 a6 f6 3d ba f7 d0 3e
       -0.0073269857 -0.072513655 0.12043548 0.40814
000310 e5 9a 87 3e 28 ab 1f bc 83 33 b0 be 53 cd a5 be
       0.26485363 -0.009745397 -0.344143 -0.32383212
000320 3f 14 a8 3c 55 dc 6f 3e 7c f0 99 be a7 d8 ac bb
       0.020517467 0.23423894 -0.30066288 -0.0052748504
000330 eb d2 71 be 50 52 5c 3b 9a 3a 5b bc 4e 6c 8b 3e
       -0.23615615 0.0033618398 -0.013380671 0.27231067
000340 3d 58 b3 bd c0 c9 51 3b d1 97 13 3e be 9b a1 be
       -0.087570645 0.0032011122 0.14413382 -0.31564134
000350 cf 1b 82 be c5 9f 09 3e 35 a0 f3 be 33 23 6f 3c
       -0.2541184 0.13439853 -0.47583166 0.0145957945
000360 a2 be 0e 3c b6 e2 6f be 4a 8f 90 bc c8 aa 7d bb
       0.008712443 -0.23426327 -0.01764645 -0.003870653
000370 87 3f c1 3e 45 29 90 3e ae 5d 0f 3f 79 e1 e9 3e
       0.3774378 0.28156486 0.5600232 0.45679834
000380 41 53 a7 3e 3c 00 36 bf c3 bb 9a be 23 99 f3 bc
       0.32680705 -0.7109411 -0.30221376 -0.029736107
000390 a8 bb 10 bf 1e cb 16 bf 8d ed b3 3e ad 81 c6 3e
       -0.5653634 -0.5890368 0.35142174 0.3877081
0003a0 3c 3f 37 3e 95 1b b3 3e 5c 94 11 3f c9 95 4c 3e
       0.17895216 0.3498198 0.56867003 0.19979014
0003b0 41 8b 9a 3e c4 da 18 bc 16 5a 03 3d f0 99 37 be
       0.30184367 -0.009329502 0.032068335 -0.17929816
0003c0 a7 75 c4 bc b8 35 d4 3b 93 06 61 3c d5 57 07 3e
       -0.023981882 0.0064761303 0.013734478 0.13217099
0003d0 58 0f 14 3d aa 19 9d bd 73 7a 0f 3e 91 c8 67 bc
       0.036147445 -0.07670911 0.14011554 -0.01414694
0003e0 e7 54 c5 bc 39 16 34 3e 2d 3f dc 3e 03 de 4b be
       -0.024088336 0.17586602 0.4301695 -0.1990891
0003f0 ed c1 93 bc 70 a5 71 bd 8a 76 9e 3a 1b 30 8f bd
       -0.018036807 -0.058995664 0.0012089771 -0.06991597

classifiers.0.bias f4 [5]
000000 98 53 ef be 67 97 80 3f a9 62 52 3f 66 6c 68 bf
       -0.46743464 1.0046204 0.82181793 -0.907904
000010 2e f7 e6 be
       -0.45110458

classifier.weight f4 [5, 84]
000000 a8 9f 51 3f 5b 9c c6 bd 36 6e e2 3d 8f ba 57 3e
       0.8188424 -0.09697791 0.11056177 0.2106726
000010 b2 2d 09 be f8 e9 3b be fc ef 99 be 89 b4 9d 3e
       -0.13396338 -0.18350971 -0.30065906 0.308018
000020 fb 7d 90 be 1c 15 fb 3e 16 bf fc bc f2 2e 25 3c
       -0.28221115 0.49039543 -0.030852836 0.010081993
000030 57 52 e8 3d 4d 82 ee be b4 e4 e0 bd 0c 14 e9 bc
       0.1134383 -0.46583787 -0.10981122 -0.028451942
000040 30 49 81 3d 1f 6b 04 3d 77 b2 25 3e dc be 16 bf
       0.063127875 0.03232872 0.1618136 -0.5888498
000050 b2 31 85 bd 86 ff a0 bd 48 38 00 be ce 88 5f be
       -0.06503619 -0.07861237 -0.1252147 -0.2182953
000060 35 7f 01 bb 3f 66 03 bf b6 75 05 bf 4f 06 81 bd
       -0.001975966 -0.5132789 -0.5213274 -0.063000314
000070 01 c3 a0 3e d2 88 6e 3c 25 db 90 3e a8 3d 1f be
       0.31398776 0.014558988 0.28292194 -0.15550864
000080 32 ac 53 bc 87 cb 5e be ac f6 22 3e c3 00 75 3a
       -0.0129194725 -0.21757327 0.1591441 0.0009346122
000090 50 65 7b be 91 27 58 3a 15 e2 a8 3a 77 47 c1 bc
       -0.24550366 0.0008245642 0.001288476 -0.023593647
0000a0 80 c0 57 3e d8 4b 8c bc 0b 9c fc be 01 4e a7 be
       0.21069527 -0.017126009 -0.493378 -0.326767
0000b0 25 da eb bd 1d f0 00 be 1a e0 d3 be 25 6e 45 bb
       -0.11516217 -0.12591596 -0.41381913 -0.0030125466
0000c0 46 91 f4 3e 63 bc 07 bd 40 db c8 bc 57 ed e5 b9
       0.47767085 -0.033138644 -0.024518609 -0.00043855116
0000d0 0a 0f 87 be b8 81 a9 3b 8f 58 8b 3d 57 b6 d7 3c
       -0.2637866 0.0051729344 0.068040006 0.026332064
0000e0 c9 dd 05 3e f5 8c f8 3e ec 92 4c bc 9a 4b f7 3b
       0.13072886 0.48545042 -0.012486201 0.007546854
0000f0 47 4e 83 3e 73 f5 01 3f 2e ee f6 3c 08 7e 3e 3e
       0.25645658 0.5076515 0.03014287 0.18602765
000100 14 98 29 3c 5a 41 5d 3e d3 f3 2c 3e a9 9b 60 be
       0.0103512 0.21606961 0.16889887 -0.2193438
000110 d9 0b a7 be 31 21 fb bb 3a c9 83 bc c4 31 71 3e
       -0.32626227 -0.007663869 -0.016087163 0.2355414
000120 64 3e b4 3c 67 e4 20 3c 80 20 92 3a 9a 9e f6 be
       0.022002406 0.00982008 0.0011148602 -0.48167878
000130 65 f0 db be 78 ca 53 3e 79 4d ba bd ad 33 62 3f
       -0.42956844 0.20682704 -0.09096808 0.883601
000140 f7 22 6e ba ff 80 5e be 75 30 99 be da 45 f9 3c
       -0.00090841897 -0.21728896 -0.29919782 0.030428816
000150 7b 0a d1 be f1 97 f7 bc 67 14 10 bf b1 8e dc be
       -0.40828308 -0.030223818 -0.5628113 -0.43077615
000160 3d dd 45 bc cc 78 7a bc ad fd 2e 3b 44 fc 40 bd
       -0.012076673 -0.015287589 0.0026701496 -0.04711558
000170 d9 e0 27 3e 86 b1 a2 3d aa aa 28 3e c5 ab 2f bc
       0.16394366 0.07944016 0.16471353 -0.010722105
000180 1c f5 cc be d7 a2 c9 3e d0 4f 0a 3e 41 94 db 3c
       -0.40030754 0.3938205 0.13507009 0.026804091
000190 89 d8 ce be 00 62 c5 be 55 9c 7a bd c8 ed 43 3e
       -0.40399578 -0.3855133 -0.061184246 0.19133675
0001a0 dc 8f 25 bd 2b 5a 22 bd 31 60 00 3f 9c 89 0e 3f
       -0.040420398 -0.039636772 0.50146776 0.55678725
0001b0 78 9e d0 3a fc e6 1a 3d a5 1a de 3e d5 00 3d be
       0.0015916368 0.03781794 0.43379703 -0.18457349
0001c0 2e 00 a9 bd 6b 74 74 3c 8f a3 aa be 23 18 91 3c
       -0.082519874 0.014920334 -0.3332791 0.017711705
0001d0 4c 25 a8 bc f7 3a d6 be 87 74 00 be 9f 82 e5 bc
       -0.020525597 -0.41841862 -0.12544452 -0.028016387
0001e0 9f dd 60 3b 1e 92 42 bc 06 fd a5 3c 67 27 c4 bd
       0.0034311784 -0.011875657 0.020262253 -0.09577828
0001f0 5c 54 49 be cb 08 ab b9 7c 52 9c be a4 39 99 bd
       -0.19661087 -0.00032622213 -0.3053168 -0.07481697
000200 b4 b0 18 be f5 d6 a5 3d 3e b6 32 3f 22 c7 0c 3d
       -0.14911157 0.080976404 0.6980933 0.034369595
000210 85 af 0c be 95 36 a7 3b 59 04 a6 3c 14 ed 7d bc
       -0.1373883 0.005102942 0.020265745 -0.015498418
000220 40 6e c8 bd 45 e8 b9 be ce ee 88 be c6 25 eb bd
       -0.097866535 -0.3631002 -0.26744694 -0.11481814
000230 f2 4b be bb 8e 38 c1 3d b0 f3 19 3e 17 30 94 3d
       -0.005807393 0.09434615 0.15034366 0.07235735
000240 9f 32 65 be 78 ed 17 be 26 cf 5e be c2 0a f7 bd
       -0.22382592 -0.14836681 -0.21758708 -0.12062599
000250 b8 ff 3e be 6b a5 89 bd 1a 2f a3 be ab 4e 32 3e
       -0.18652236 -0.06721004 -0.31871873 0.17412822
000260 a3 92 0b 3f 40 b3 9b bc ce bd 23 3d ff e6 90 be
       0.54520625 -0.019006371 0.039975934 -0.28301236
000270 74 3e 99 3b 7c 92 96 3d 1c 2b 20 3c a2 24 89 3d
       0.0046766344 0.073521584 0.009775903 0.0669644
000280 e3 e6 65 bb 75 2d 81 3d 07 ac 33 3e e5 16 c4 bb
       -0.0035080246 0.06307498 0.17546092 -0.0059841746
000290 fd 6a 69 bc 15 74 3d bb 8b c2 58 3d 63 db 19 3e
       -0.014246699 -0.0028908302 0.052919906 0.15025096
0002a0 2e 83 db 3d 42 58 4c 3e d0 35 cc 3e 44 e2 00 3f
       0.1071838 0.19955543 0.39884806 0.50345254
0002b0 f7 72 99 be fb e7 a8 3d 56 36 2f 3d 29 c3 8e be
       -0.29970524 0.08247372 0.04277643 -0.2788327
0002c0 ec 04 01 bf b4 7e a4 bc bd 21 6b 3d 2e c0 b7 3b
       -0.50398135 -0.020079948 0.057405222 0.0056076264
0002d0 c3 50 ed 3b 2f 29 86 3e 57 2e 15 be e4 f5 54 bc
       0.0072422936 0.26203296 -0.14568458 -0.012998078
0002e0 a2 dc f8 bc f2 b7 9c 3e dc ad 4a be bc 98 1a 3e
       -0.030378643 0.3060909 -0.19792885 0.15097326
0002f0 b5 36 15 3d 30 ac 48 3e 86 68 5b 3d 90 80 c8 be
       0.036429126 0.19596934 0.05356648 -0.39160585
000300 36 17 f0 bb 0a 82 94 bd e0 a6 f6 3d ba f7 d0 3e
       -0.0073269857 -0.072513655 0.12043548 0.40814
000310 e5 9a 87 3e 28 ab 1f bc 83 33 b0 be 53 cd a5 be
       0.26485363 -0.009745397 -0.344143 -0.32383212
000320 3f 14 a8 3c 55 dc 6f 3e 7c f0 99 be a7 d8 ac bb
       0.020517467 0.23423894 -0.30066288 -0.0052748504
000330 eb d2 71 be 50 52 5c 3b 9a 3a 5b bc 4e 6c 8b 3e
       -0.23615615 0.0033618398 -0.013380671 0.27231067
000340 3d 58 b3 bd c0 c9 51 3b d1 97 13 3e be 9b a1 be
       -0.087570645 0.0032011122 0.14413382 -0.31564134
000350 cf 1b 82 be c5 9f 09 3e 35 a0 f3 be 33 23 6f 3c
       -0.2541184 0.13439853 -0.47583166 0.0145957945
000360 a2 be 0e 3c b6 e2 6f be 4a 8f 90 bc c8 aa 7d bb
       0.008712443 -0.23426327 -0.01764645 -0.003870653
000370 87 3f c1 3e 45 29 90 3e ae 5d 0f 3f 79 e1 e9 3e
       0.3774378 0.28156486 0.5600232 0.45679834
000380 41 53 a7 3e 3c 00 36 bf c3 bb 9a be 23 99 f3 bc
       0.32680705 -0.7109411 -0.30221376 -0.029736107
000390 a8 bb 10 bf 1e cb 16 bf 8d ed b3 3e ad 81 c6 3e
       -0.5653634 -0.5890368 0.35142174 0.3877081
0003a0 3c 3f 37 3e 95 1b b3 3e 5c 94 11 3f c9 95 4c 3e
       0.17895216 0.3498198 0.56867003 0.19979014
0003b0 41 8b 9a 3e c4 da 18 bc 16 5a 03 3d f0 99 37 be
       0.30184367 -0.009329502 0.032068335 -0.17929816
0003c0 a7 75 c4 bc b8 35 d4 3b 93 06 61 3c d5 57 07 3e
       -0.023981882 0.0064761303 0.013734478 0.13217099
0003d0 58 0f 14 3d aa 19 9d bd 73 7a 0f 3e 91 c8 67 bc
       0.036147445 -0.07670911 0.14011554 -0.01414694
0003e0 e7 54 c5 bc 39 16 34 3e 2d 3f dc 3e 03 de 4b be
       -0.024088336 0.17586602 0.4301695 -0.1990891
0003f0 ed c1 93 bc 70 a5 71 bd 8a 76 9e 3a 1b 30 8f bd
       -0.018036807 -0.058995664 0.0012089771 -0.06991597

classifier.bias f4 [5]
000000 98 53 ef be 67 97 80 3f a9 62 52 3f 66 6c 68 bf
       -0.46743464 1.0046204 0.82181793 -0.907904
000010 2e f7 e6 be
       -0.45110458

features.9 f4 [120]
000000 9c 95 00 bd e9 8a 4a 3c 57 9d 92 3e ae 6f 77 3e
       -0.03139268 0.01236222 0.28635666 0.24163696
000010 0e ab 45 bd 33 ec 2c bc e1 f8 0b bc bb 69 a1 3d
       -0.048258834 -0.010554361 -0.008543224 0.078814946
000020 c7 8d 67 3c 73 1d 70 bc 73 fd f3 bb fd 90 f2 bd
       0.014132923 -0.014655459 -0.007445985 -0.118440606
000030 43 55 4e 3c 60 78 62 3b 05 82 eb 3d 0d f4 c6 3c
       0.01259357 0.0034556612 0.11499409 0.024286294
000040 b4 99 f7 3d 41 ac 38 bc 10 b2 ab bd af cd 3f 3d
       0.120898634 -0.011271537 -0.08383572 0.046827015
000050 71 93 2a bc 94 77 b9 3d 06 5f b1 bc 6d 1e 3b bd
       -0.010411129 0.09056011 -0.021651756 -0.045683313
000060 ca 77 94 3d 95 0a 31 bd c7 72 9a 3d a6 af c9 bc
       0.072494105 -0.043222982 0.07541423 -0.024619889
000070 fa 6d fe 3d 88 2a 61 3d 1a 11 44 3d b6 6e a2 bb
       0.1242332 0.0549722 0.04786787 -0.0049570454
000080 75 a2 b2 bb 45 44 0f 3b 47 b4 11 3d 4d e1 bd bc
       -0.0054514953 0.002186076 0.035572316 -0.02317872
000090 da de bf bc e9 bb ac bc ad c8 0a bb ed 03 a9 3c
       -0.023421694 -0.021085696 -0.002117674 0.020631755
0000a0 bd 82 1e 3c cd 66 26 bc 4d 7e 13 3d b5 1c b0 bc
       0.009674725 -0.010156346 0.03600912 -0.021498064
0000b0 56 19 da 3d 9e b5 29 3d de ad fe 3c 34 eb 64 3d
       0.10649364 0.04143297 0.031088766 0.05588837
0000c0 db 47 0a 3d 20 25 26 3e 89 e4 d8 ba 8e 17 d4 bc
       0.033759933 0.162251 -0.0016547601 -0.025890138
0000d0 15 7b dc 3d 0f ef 03 3d 2e 0b a5 bb 52 18 42 bc
       0.107656635 0.032210406 -0.005036733 -0.011846619
0000e0 f8 23 1a 3d e4 d2 4b bb ed 64 32 3d 4b 83 61 3c
       0.03763196 -0.0031101042 0.04355328 0.013764213
0000f0 06 0b 0d bd 09 bd 2d bc dc 39 0a 3d f4 8d 40 3c
       -0.03443434 -0.0106041515 0.033746585 0.011752594
000100 d3 3c 19 bc dc 94 de 3a 37 3d d2 bc aa 0f 16 3d
       -0.0093528805 0.0016981619 -0.025663955 0.036636032
000110 3c 08 b3 bd d5 88 96 3d eb 89 cb 3c ac 36 3c bd
       -0.08741805 0.073503174 0.024846038 -0.045950577
000120 4b 2f 6d 3d 28 48 c6 ba 35 93 08 3c 56 50 bf 3d
       0.05790643 -0.0015127705 0.008335878 0.09341495
000130 f1 fa e4 3d 4a d6 35 3d a7 8e 08 3c d8 6d 13 bd
       0.11180676 0.044393815 0.008334792 -0.035993427
000140 4b b9 a4 bc 10 f0 40 bb 3b dc 5d 3d 44 52 77 bc
       -0.020107886 -0.0029439963 0.054165106 -0.015095297
000150 08 9b 24 bc 9d 77 52 bd 02 a4 f7 3d 98 26 cd 3c
       -0.010046728 -0.051383603 0.12091829 0.025042817
000160 4f 55 a2 bd 12 d8 18 3e 97 46 6f b9 13 b6 ed 3c
       -0.079264276 0.14926174 -0.00022819113 0.029017484
000170 2a 20 66 bd 1c 38 a1 bc f2 36 b3 3d 17 47 1d 3e
       -0.056183018 -0.019680075 0.08750714 0.1535915
000180 7b 92 1e 3d cd 43 21 3e 8f 7b 9e 3c 5f ec dc 3b
       0.038713913 0.1574852 0.019346027 0.006742045
000190 10 cf 16 3b e6 73 8e bd 40 54 5a 3b b3 4b bf 3c
       0.0023011602 -0.069556996 0.0033314377 0.023351526
0001a0 7b ed cf 3d cc ee cc 3b 94 9b 65 3c 97 94 48 3e
       0.10152718 0.0062540527 0.0140141435 0.19587933
0001b0 6a cd 3c 3d 99 ef b4 3d 75 97 b3 3b 4f 77 6d 3d
       0.046094336 0.08834762 0.0054807016 0.05797511
0001c0 fb 10 b1 3d dd f5 12 bd ee 7d 63 bd 38 ad 82 bb
       0.08645817 -0.035879005 -0.055540018 -0.0039879344
0001d0 a5 23 51 bd 99 28 43 3c e2 28 eb bc 85 21 93 bd
       -0.051059384 0.011911535 -0.028706018 -0.07184128

features.11 f4 [84]
000000 87 89 92 3e 77 48 96 3d fc f4 3a 3e 92 7e a0 3e
       0.2862055 0.0733804 0.18257517 0.31346565
000010 81 96 bd bd d6 ce 95 3d 78 89 e9 3d e5 c6 fa 3c
       -0.09257222 0.073148414 0.11403173 0.030612418
000020 d3 92 ed 3d f6 ea 04 3e 85 77 80 3d 6c f5 8e ba
       0.1160027 0.12980255 0.062727965 -0.0010906882
000030 0b 1a 67 3d e1 ec 3d 3e 22 a8 03 3d 3c 15 78 3c
       0.05642132 0.18547393 0.032142766 0.015141781
000040 1a 55 1e bd a3 aa 15 3e 3b cd 03 3c a0 53 6f 3e
       -0.038655378 0.14615874 0.008044536 0.23371744
000050 4a 62 e6 3c cf b4 85 3d 5e c8 0a 3e 20 08 0b 3e
       0.02812304 0.06528627 0.13552997 0.13577318
000060 eb 4c c6 bb b9 c3 32 bd 02 7e 50 3e b8 7b 5f 3e
       -0.00605165 -0.043643687 0.20360568 0.21824539
000070 d6 d8 65 3e 28 7a 3c 3a b3 01 76 bd af a6 30 3d
       0.22445998 0.00071898336 -0.060060214 0.04312771
000080 b8 b1 ae 3b 88 94 8a bb bb c7 5e bb 06 0c 81 bb
       0.0053312443 -0.004229132 -0.003399356 -0.003938201
000090 fa 73 e0 3d 88 80 28 bb 32 bf cb b8 aa 89 00 3e
       0.10959621 -0.0025711376 -9.715407e-05 0.12552515
0000a0 b7 c6 16 3c 14 93 84 bb 5c 60 d1 3d 18 71 73 3d
       0.009202651 -0.0040458534 0.10223457 0.059434026
0000b0 30 ad 34 bd 0b 57 11 3e b6 cd 03 3e f2 46 ab 3c
       -0.044110477 0.1419336 0.12871441 0.020907853
0000c0 cf e0 86 3d f7 e4 1b bd c7 66 7c 3b eb e2 b5 bb
       0.065858476 -0.038060155 0.0038513409 -0.0055507324
0000d0 d4 e0 35 3e 83 92 16 3e 37 a7 8e 3e 5e 6b 7c 3e
       0.17761546 0.14704327 0.2786195 0.24650332
0000e0 81 4a 6b 3e 5c b3 04 3d 5f 86 23 3d 3f 22 dd 3c
       0.2297764 0.032397613 0.039923068 0.026993869
0000f0 49 0e c9 3c c3 20 2e 3d a5 8d 30 3e 3f e9 82 3e
       0.024542945 0.042511713 0.17241533 0.25568578
000100 f9 b4 94 3d e6 eb 7e 3e 3a c4 a4 3e 37 a6 b3 3d
       0.0726108 0.24894676 0.3218096 0.08771937
000110 ce 8e ca 3e 81 74 7a 3a dd 3c f4 3b 57 56 81 bb
       0.39562076 0.00095541036 0.0074535445 -0.00394706
000120 2f f2 fa ba ae 0e fa 3c 49 b4 37 bb 47 08 25 3e
       -0.0019145663 0.030524578 -0.0028031042 0.16116439
000130 07 47 e4 bc 24 b8 38 3d df 08 b7 3d a0 ac 35 3e
       -0.0278659 0.045097485 0.08937239 0.17741632
000140 14 3e 39 bb 56 3e 54 3d 22 b7 42 3e 6c 33 ca 3c
       -0.0028265761 0.05181726 0.19015172 0.024682723

features.1 f4 [6]
000000 9f 53 63 3d 54 00 90 bd ad 1a 95 3c 94 c4 a4 bb
       0.05549967 -0.070313126 0.018201197 -0.0050283168
000010 f2 b9 a7 3d dc 02 5c 3e
       0.08189763 0.21485466

features.5 f4 [16]
000000 ca 15 af be 58 14 02 bf 7e d4 b7 be 61 47 a9 bf
       -0.3419631 -0.5081229 -0.35904306 -1.3224908
000010 41 a8 e3 be 6a c0 fb be 1a b0 af 3f 47 a0 34 3f
       -0.44464305 -0.49170238 1.3725617 0.70557064
000020 31 86 24 bf 68 0f 15 3e f6 b7 9a be 24 45 25 bf
       -0.6426726 0.14556658 -0.30218476 -0.64558625
000030 5a 27 0f bf 50 c9 2a 3f ba 08 6e be 66 06 b5 bf
       -0.5591942 0.6671343 -0.23245516 -1.4142578
