checkpoints_lenet5/CPG_single_scratch_woexp/lenet5/food_containers/gradual_prune/0.4/checkpoint-20.pth.tar (torch, 316549 bytes, 28 tensors)

features.0.weight f4 [6, 3, 5, 5]
0	0x00000000	0.0
1	0x3e1b8c76	0.151903
2	0xbe87a007	-0.2648928
3	0xbecf88ea	-0.40534145
4	0xbf02d3b8	-0.5110431
5	0x3e8d91ef	0.276504
6	0x00000000	0.0
7	0x00000000	0.0
8	0xbe8a547f	-0.2701759
9	0x00000000	0.0
10	0x00000000	0.0
11	0x00000000	0.0
12	0x00000000	0.0
13	0xbe2a8b42	-0.16654685
14	0x00000000	0.0
15	0x00000000	0.0
16	0xbe657e8c	-0.22411555
17	0x00000000	0.0
18	0x00000000	0.0
19	0x3e108c28	0.14115965
20	0x00000000	0.0
21	0x00000000	0.0
22	0x3e26f1b5	0.16303141
23	0x3e8c1a1d	0.27363673
24	0x3e884f78	0.2662313
25	0x3e43425b	0.19068281
26	0x00000000	0.0
27	0x3e9b644f	0.30349967
28	0x00000000	0.0
29	0x00000000	0.0
30	0x00000000	0.0
31	0x3e4dc85e	0.20095965
32	0xbe2fe8f1	-0.17178704
33	0x00000000	0.0
34	0x00000000	0.0
35	0x00000000	0.0
36	0xbe8c9b47	-0.27462217
37	0xbe260cc1	-0.16215803
38	0xbe10837e	-0.1411266
39	0x00000000	0.0
40	0x00000000	0.0
41	0x00000000	0.0
42	0xbe244f7f	-0.1604595
43	0x00000000	0.0
44	0x00000000	0.0
45	0xbe4e34ba	-0.20137301
46	0xbe1d0e5d	-0.1533751
47	0x00000000	0.0
48	0x00000000	0.0
49	0x3ec23e96	0.37938374
50	0xbece12e0	-0.40248775
51	0x00000000	0.0
52	0xbeb70561	-0.3574629
53	0x00000000	0.0
54	0xbe38d741	-0.18050863
55	0x00000000	0.0
56	0xbe538b60	-0.20658636
57	0xbee61cff	-0.44943997
58	0xbe8ec73f	-0.27886388
59	0x00000000	0.0
60	0xbec30eb5	-0.38097158
61	0xbe1688d6	-0.14700636
62	0xbe96ee9b	-0.29478917
63	0x00000000	0.0
64	0x3e8fa765	0.280574
65	0x00000000	0.0
66	0xbe334f1d	-0.17510648
67	0x00000000	0.0
68	0x00000000	0.0
69	0x3f149438	0.58038664
70	0x00000000	0.0
71	0x3e8ae104	0.27124798
72	0x3f0c40af	0.547862
73	0x3ec8bc03	0.39205942
74	0x3f2b679a	0.6695496
75	0x00000000	0.0
76	0x00000000	0.0
77	0x00000000	0.0
78	0x00000000	0.0
79	0x3e782ceb	0.24235885
80	0x00000000	0.0
81	0x00000000	0.0
82	0x00000000	0.0
83	0x3e5da1dd	0.21643777
84	0x00000000	0.0
85	0xbe34f217	-0.17670475
86	0x00000000	0.0
87	0x00000000	0.0
88	0x3ea0f89a	0.31439668
89	0x00000000	0.0
90	0x00000000	0.0
91	0x3e66914e	0.22516367
92	0x00000000	0.0
93	0x00000000	0.0
94	0xbe677aba	-0.2260541
95	0xbe0d9bbe	-0.13828942
96	0x00000000	0.0
97	0x00000000	0.0
98	0x00000000	0.0
99	0x00000000	0.0
100	0x00000000	0.0
101	0x00000000	0.0
102	0x00000000	0.0
103	0x3e627c9a	0.22117844
104	0x00000000	0.0
105	0xbe1b88f1	-0.15188958
106	0x00000000	0.0
107	0x00000000	0.0
108	0x3e0ed3f4	0.13948041
109	0x00000000	0.0
110	0x00000000	0.0
111	0x3e4f66f5	0.20254119
112	0x3e2b28a7	0.16714726
113	0x00000000	0.0
114	0x00000000	0.0
115	0x00000000	0.0
116	0x3e28b51a	0.16475335
117	0x3e866550	0.2624917
118	0x00000000	0.0
119	0x00000000	0.0
120	0x00000000	0.0
121	0x00000000	0.0
122	0x00000000	0.0
123	0x00000000	0.0
124	0xbe5e72a6	-0.21723422
125	0x00000000	0.0
126	0x00000000	0.0
127	0x00000000	0.0
128	0x3e24cee8	0.16094553
129	0x3e40eb49	0.18839754
130	0xbe2646b6	-0.16237912
131	0xbe444c0d	-0.19169636
132	0x3e5bab6b	0.2145211
133	0x3e20f078	0.15716732
134	0x3e56333d	0.20917983
135	0xbe521f87	-0.20519839
136	0x00000000	0.0
137	0x00000000	0.0
138	0x00000000	0.0
139	0x00000000	0.0
140	0x00000000	0.0
141	0x00000000	0.0
142	0x00000000	0.0
143	0xbe22467b	-0.15847199
144	0x00000000	0.0
145	0xbea86e4f	-0.3289666
146	0x00000000	0.0
147	0x3e57c0bc	0.21069616
148	0x3e7226d8	0.2364763
149	0xbe0e56f3	-0.13900356
150	0x3eb8434e	0.3598885
151	0x3e9223b4	0.28542864
152	0x3ec2475e	0.37945074
153	0x3e9280cd	0.28613892
154	0x3e3a4620	0.18190813
155	0x3e213607	0.15743266
156	0x3ee4dcb7	0.44699642
157	0x3e1c2717	0.15249287
158	0x00000000	0.0
159	0x00000000	0.0
160	0x00000000	0.0
161	0x3e1df4b3	0.15425377
162	0x00000000	0.0
163	0xbe000fb9	-0.12505998
164	0x00000000	0.0
165	0xbe930ee4	-0.28722298
166	0x00000000	0.0
167	0xbe9f27f3	-0.31085166
168	0xbe2ac9f6	-0.16678604
169	0x00000000	0.0
170	0x00000000	0.0
171	0xbe05d53a	-0.1306962
172	0xbed9a7f2	-0.42510945
173	0xbe50b8a0	-0.20382929
174	0xbe138b01	-0.14408495
175	0x3e80ae17	0.2513282
176	0x3ed1d8f2	0.4098583
177	0x3ecea902	0.40363318
178	0x3e845a39	0.25850084
179	0x3e27f84a	0.16403309
180	0x3e26872f	0.16262506
181	0x3e2c9523	0.16853766
182	0x3e08b8a9	0.13351692
183	0x3ea60625	0.32426563
184	0x00000000	0.0
185	0x00000000	0.0
186	0x3e6022ac	0.21888226
187	0xbe1dd6c3	-0.15413956
188	0x00000000	0.0
189	0xbe2f93b4	-0.17146188
190	0xbe85d0a7	-0.26135752
191	0x00000000	0.0
192	0x00000000	0.0
193	0x00000000	0.0
194	0x00000000	0.0
195	0x00000000	0.0
196	0xbe974c26	-0.29550284
197	0xbe6e1c11	-0.23252894
198	0xbe8d6e11	-0.27623037
199	0xbe2b27e3	-0.16714434
200	0x3eb38998	0.35065913
201	0x3ee2dcb5	0.4430901
202	0x3eb4c2d1	0.35304883
203	0x3e477f6c	0.19482201
204	0x00000000	0.0
205	0x00000000	0.0
206	0x00000000	0.0
207	0x3e8bc093	0.2729536
208	0xbe208a52	-0.15677765
209	0xbea1b2ea	-0.31581813
210	0x00000000	0.0
211	0x00000000	0.0
212	0xbe708a1b	-0.23490183
213	0xbe3cd8e0	-0.18442106
214	0xbeba1392	-0.36343056
215	0x00000000	0.0
216	0x00000000	0.0
217	0x00000000	0.0
218	0xbeb0395d	-0.34418765
219	0xbedcd2d8	-0.4312961
220	0x00000000	0.0
221	0x00000000	0.0
222	0xbe91db0e	-0.28487438
223	0xbef2b7ed	-0.4740595
224	0xbecfd07d	-0.4058875
225	0xbe6912ba	-0.2276105
226	0xbe29aec6	-0.16570577
227	0xbeb446d3	-0.35210285
228	0x00000000	0.0
229	0x00000000	0.0
230	0x00000000	0.0
231	0x00000000	0.0
232	0x00000000	0.0
233	0x3e7e0f2d	0.24810477
234	0x3ea0159e	0.31266493
235	0x00000000	0.0
236	0x00000000	0.0
237	0x00000000	0.0
238	0x3e5217da	0.20516911
239	0x3e945ebb	0.28978524
240	0x00000000	0.0
241	0xbe883e6f	-0.26610133
242	0xbeb7c67b	-0.35893616
243	0x00000000	0.0
244	0xbe318b19	-0.17338218
245	0x3eb47f80	0.35253525
246	0x00000000	0.0
247	0xbe43b3a1	-0.19111492
248	0x00000000	0.0
249	0x3e6995f2	0.22811106
250	0x00000000	0.0
251	0x00000000	0.0
252	0x00000000	0.0
253	0x3ea44eb9	0.3209131
254	0x3ea29106	0.3175127
255	0x00000000	0.0

features.1.weight f4 [6]
0	0x3f80e70f	1.0070513
1	0x3f261dbc	0.6488912
2	0x3f7bda6e	0.9838017
3	0x3f929292	1.145098
4	0x3fbc4f31	1.4711667
5	0x3fbc802c	1.4726615

features.1.bias f4 [6]
0	0x3d422a57	0.04740366
1	0x3e1d696d	0.15372248
2	0x3ea6371b	0.32463917
3	0x3cd2af79	0.025718438
4	0xbcb025a9	-0.021502333
5	0x3db5501e	0.08853172

features.1.running_mean f4 [6]
0	0xbc82d7f6	-0.015972119
1	0xbde41415	-0.11136643
2	0x3d8ad3ab	0.06778654
3	0xbd374e3c	-0.044752344
4	0x3dd24ee3	0.10268953
5	0x3e8b4c0d	0.2720646

features.1.running_var f4 [6]
0	0x40c53663	6.162889
1	0x4040295d	3.0025246
2	0x418c6d82	17.55347
3	0x417e7d86	15.905645
4	0x40d3f2d1	6.6233907
5	0x41324b24	11.143345

features.4.weight f4 [16, 6, 5, 5]
0	0xbe4ca3a3	-0.19984297
1	0xbdc5f18f	-0.09665214
2	0x00000000	0.0
3	0xbdff40ce	-0.124635324
4	0x00000000	0.0
5	0xbde93785	-0.11387543
6	0xbdfb914c	-0.122835726
7	0x00000000	0.0
8	0x00000000	0.0
9	0x00000000	0.0
10	0x00000000	0.0
11	0x00000000	0.0
12	0xbda69f4d	-0.08135853
13	0xbdbc740d	-0.092018224
14	0x00000000	0.0
15	0x00000000	0.0
16	0x00000000	0.0
17	0x00000000	0.0
18	0x3dcbe6f2	0.09956159
19	0x00000000	0.0
20	0x3df84dd8	0.121242225
21	0x3dfb6c43	0.12276509
22	0x3dcf754e	0.10129796
23	0x3e4de500	0.20106888
24	0x00000000	0.0
25	0xbe0c2c36	-0.1368874
26	0x00000000	0.0
27	0x3de73d4a	0.11290987
28	0x00000000	0.0
29	0x3dc563a6	0.09638147
30	0x00000000	0.0
31	0x3d8f7f96	0.07006757
32	0x00000000	0.0
33	0x00000000	0.0
34	0x00000000	0.0
35	0x3e358361	0.17725898
36	0x3df9ba26	0.12193708
37	0x00000000	0.0
38	0x00000000	0.0
39	0x00000000	0.0
40	0x00000000	0.0
41	0x00000000	0.0
42	0x3d948301	0.072515495
43	0xbd9f093d	-0.07765434
44	0xbda18510	-0.07886708
45	0x00000000	0.0
46	0x00000000	0.0
47	0x00000000	0.0
48	0xbd9b06d1	-0.075696595
49	0x00000000	0.0
50	0x00000000	0.0
51	0xbde2b915	-0.11070458
52	0x00000000	0.0
53	0x00000000	0.0
54	0x00000000	0.0
55	0x3de4524a	0.11148508
56	0x00000000	0.0
57	0x00000000	0.0
58	0x3e1a666c	0.15078133
59	0xbe68c418	-0.22731054
60	0x3d9c4a1b	0.07631322
61	0x00000000	0.0
62	0x00000000	0.0
63	0x3de75655	0.112957634
64	0xbdbca998	-0.09212035
65	0x00000000	0.0
66	0x00000000	0.0
67	0x3dbdc04f	0.092651956
68	0x3dc591aa	0.09646924
69	0xbe55c6c2	-0.20876601
70	0xbe0a2f5b	-0.13494627
71	0x00000000	0.0
72	0x00000000	0.0
73	0x00000000	0.0
74	0xbe036d5e	-0.12834689
75	0xbe2965fd	-0.16542812
76	0x00000000	0.0
77	0x00000000	0.0
78	0xbe279f7e	-0.16369435
79	0xbe817c13	-0.25289974
80	0xbd8d0913	-0.068864964
81	0xbdf5d1c1	-0.12002898
82	0xbdc279f2	-0.094959155
83	0xbe538e21	-0.20659687
84	0xbe25f287	-0.16205798
85	0xbe222dcf	-0.15837787
86	0xbdcfcb59	-0.10146207
87	0xbdad0844	-0.08448842
88	0x00000000	0.0
89	0xbda1c853	-0.07899537
90	0xbe2d4982	-0.16922572
91	0xbe2b0366	-0.16700515
92	0x00000000	0.0
93	0x00000000	0.0
94	0xbe5ca6d0	-0.21548009
95	0x00000000	0.0
96	0x00000000	0.0
97	0x00000000	0.0
98	0x00000000	0.0
99	0xbddeeb84	-0.10884765
100	0xbd9a6696	-0.07539098
101	0xbd8d7d8a	-0.0690871
102	0xbe20ee70	-0.15715957
103	0xbdf6c01f	-0.12048363
104	0x00000000	0.0
105	0x00000000	0.0
106	0xbde3ae62	-0.11117245
107	0xbda168a8	-0.0788129
108	0xbdbbb376	-0.09165089
109	0x00000000	0.0
110	0x00000000	0.0
111	0xbe2f3125	-0.17108591
112	0xbe71e2a8	-0.23621619
113	0xbdd8ecc5	-0.10592035
114	0x00000000	0.0
115	0x3da16b8c	0.07881841
116	0x00000000	0.0
117	0xbdc91c18	-0.098198116
118	0x00000000	0.0
119	0x00000000	0.0
120	0x00000000	0.0
121	0x3e8692bb	0.2628382
122	0x3e24b676	0.16085228
123	0x00000000	0.0
124	0x00000000	0.0
125	0xbdfe393c	-0.1241326
126	0xbd8e5359	-0.06949491
127	0x00000000	0.0
128	0x3df4dd55	0.11956278
129	0x3e8f61a0	0.2800417
130	0xbe2368a4	-0.15957886
131	0xbdb3e11e	-0.08783172
132	0x00000000	0.0
133	0x3e7fe8ae	0.24991104
134	0x3e005ce5	0.12535436
135	0xbe05db3a	-0.1307191
136	0x3db117a9	0.08647091
137	0x00000000	0.0
138	0x00000000	0.0
139	0x3dc6ca05	0.09706501
140	0x00000000	0.0
141	0x3e24b98d	0.16086407
142	0x3de87f66	0.11352424
143	0x00000000	0.0
144	0x00000000	0.0
145	0x3e2c0e84	0.16802412
146	0x3df1063b	0.117687665
147	0xbe150dfa	-0.14556113
148	0xbdf9e052	-0.12200989
149	0xbe3b3c3f	-0.18284701
150	0x3e62bc89	0.22142233
151	0x00000000	0.0
152	0xbdd1ac14	-0.102378994
153	0xbe904b79	-0.2818258
154	0x00000000	0.0
155	0x00000000	0.0
156	0xbe57b0eb	-0.21063583
157	0xbe7f1925	-0.24911936
158	0xbe412f5b	-0.18865721
159	0x3e79854c	0.24367255
160	0xbe56e4a1	-0.20985653
161	0xbe35f6dd	-0.17769952
162	0xbe96bfa1	-0.29443076
163	0x3e222675	0.15834983
164	0x3ea39eb3	0.31957015
165	0xbe6e3691	-0.23263003
166	0x00000000	0.0
167	0x00000000	0.0
168	0x3dc181af	0.09448563
169	0x3e66df4f	0.22546123
170	0x00000000	0.0
171	0x3de1f5c8	0.11033207
172	0x00000000	0.0
173	0x3e185e13	0.14879636
174	0xbe14a9bd	-0.14517875
175	0xbdb9c560	-0.090708494
176	0xbd9f518f	-0.07779228
177	0x00000000	0.0
178	0x3da42b6d	0.08016095
179	0xbe26fb5c	-0.16306823
180	0x00000000	0.0
181	0x00000000	0.0
182	0xbda03014	-0.0782167
183	0x00000000	0.0
184	0xbdb574a5	-0.08860139
185	0x00000000	0.0
186	0x00000000	0.0
187	0x00000000	0.0
188	0x00000000	0.0
189	0xbdfeeb0b	-0.12447175
190	0x00000000	0.0
191	0xbda70759	-0.08155698
192	0x00000000	0.0
193	0x00000000	0.0
194	0x3e7a8346	0.2446414
195	0x3e311329	0.17292465
196	0x00000000	0.0
197	0x00000000	0.0
198	0x3e27e8c0	0.16397381
199	0x3e984a9f	0.2974443
200	0x3e4681d7	0.19385467
201	0x00000000	0.0
202	0xbe44a6c6	-0.19204244
203	0x3dcbbd53	0.0994822
204	0x3e121bf3	0.14268474
205	0x3d953ad1	0.07286609
206	0x00000000	0.0
207	0xbe0e59d9	-0.13901462
208	0x3e368fa7	0.17828237
209	0x00000000	0.0
210	0x3df67ffb	0.12036129
211	0xbde17d47	-0.11010223
212	0x3e0f4ee1	0.13994934
213	0x3e0f3a3f	0.13987063
214	0xbea9f9ac	-0.33198297
215	0x3e1f5b20	0.15562105
216	0x3e161dcc	0.14659804
217	0x3e009c77	0.12559687
218	0x00000000	0.0
219	0xbeaea1a1	-0.34107688
220	0x00000000	0.0
221	0x3dbb95ed	0.091594554
222	0x00000000	0.0
223	0xbe39b34e	-0.18134806
224	0xbe83b835	-0.25726476
225	0x00000000	0.0
226	0x3e76254b	0.24037664
227	0x00000000	0.0
228	0x00000000	0.0
229	0xbe18be00	-0.14916229
230	0x3e58d243	0.21173958
231	0xbe7672ee	-0.2406728
232	0x00000000	0.0
233	0xbe10c053	-0.14135866
234	0xbe16d98f	-0.1473143
235	0x00000000	0.0
236	0x00000000	0.0
237	0x00000000	0.0
238	0x00000000	0.0
239	0xbe191d3a	-0.14952555
240	0x00000000	0.0
241	0x00000000	0.0
242	0x3db1920e	0.08670436
243	0x00000000	0.0
244	0x00000000	0.0
245	0x00000000	0.0
246	0x00000000	0.0
247	0x3da5328a	0.0806628
248	0x00000000	0.0
249	0x00000000	0.0
250	0x00000000	0.0
251	0x00000000	0.0
252	0x3da73858	0.081650436
253	0x00000000	0.0
254	0xbe2c66db	-0.16836111
255	0x3e1079d8	0.1410898

features.5.weight f4 [16]
0	0x3f8baf68	1.0912905
1	0x3fc86b4a	1.5657742
2	0x3fdd6297	1.7295712
3	0x3fc930d1	1.5718023
4	0x3fbde9d3	1.4836982
5	0x3fb35d7c	1.4012904
6	0x3f947e35	1.1601015
7	0x3f932b70	1.1497631
8	0x3fb79ab2	1.4344084
9	0x3fa38ea1	1.2777902
10	0x3f94edf9	1.1635123
11	0x3fb2b5eb	1.3961767
12	0x3fab6675	1.3390642
13	0x3f9e04e5	1.2345244
14	0x3fa65994	1.2996087
15	0x3faa5298	1.3306456

features.5.bias f4 [16]
0	0xbe1d0e4b	-0.15337484
1	0xbf3f72fa	-0.74784815
2	0xbefa66a7	-0.48906443
3	0xbe4ab6e6	-0.19796333
4	0xbf0063f8	-0.5015254
5	0xbef50ae1	-0.47859862
6	0xbe44d6e9	-0.19222607
7	0xbe81208d	-0.25220147
8	0xbe36f27e	-0.17865941
9	0xbe192b4b	-0.14957921
10	0x3cd9b780	0.026576757
11	0xbed5977c	-0.41717136
12	0xbed295a9	-0.41129807
13	0xbeadb0ae	-0.33923858
14	0xbeb989b3	-0.3623787
15	0xbde6ad28	-0.11263496

features.5.running_mean f4 [16]
0	0xbf8b3d52	-1.0878088
1	0xbf3471dc	-0.70486236
2	0xbf106631	-0.5640593
3	0xbfe88e77	-1.8168477
4	0xbf5e4eff	-0.8683929
5	0xbf53d1a4	-0.8274176
6	0x3fdbd409	1.7174083
7	0x3f39c6ad	0.7256878
8	0xbf92b64e	-1.1461885
9	0x3c3c477b	0.011491652
10	0xbed55adf	-0.41670892
11	0xbf4f5fc0	-0.8100548
12	0xbee1f8b4	-0.44135058
13	0x3fa5d54c	1.2955718
14	0xbf04deed	-0.5190266
15	0xc0079db8	-2.1190014

features.5.running_var f4 [16]
0	0x3f83e1b5	1.0303255
1	0x3f8f85a0	1.1212654
2	0x3f82478e	1.0178087
3	0x4011e806	2.2797866
4	0x400582dd	2.0861123
5	0x3ff2f2b7	1.8980321
6	0x3f98a24a	1.1924527
7	0x3f96dd24	1.1786237
8	0x3f9483a4	1.1602674
9	0x3f9189e8	1.1370211
10	0x3f8de072	1.108412
11	0x3fec5dd2	1.8466132
12	0x3f831eb9	1.0243751
13	0x3f899780	1.0749359
14	0x3f406a01	0.7516175
15	0x3ff5174b	1.9147733

features.9.weight f4 [120, 400]
0	0x3d5c8632	0.053838916
1	0x3ddc79af	0.10765397
2	0x00000000	0.0
3	0xbd867bbe	-0.06566571
4	0x00000000	0.0
5	0xbcc24008	-0.023712173
6	0x3d4723ac	0.048618004
7	0x00000000	0.0
8	0xbd42adfe	-0.047529213
9	0x00000000	0.0
10	0xbd1a2e4a	-0.0376418
11	0x00000000	0.0
12	0x3cc80c2c	0.024419867
13	0x00000000	0.0
14	0x3c90b371	0.01766369
15	0xbd91db07	-0.07121854
16	0x00000000	0.0
17	0x00000000	0.0
18	0x3d3511a8	0.04420629
19	0x3d26408d	0.040588904
20	0xbd8892ed	-0.06668649
21	0x00000000	0.0
22	0x00000000	0.0
23	0x3daf3c94	0.08556476
24	0x3dc093d7	0.09403198
25	0x00000000	0.0
26	0x3ddfdbd2	0.10930599
27	0x3d39ef2e	0.045394115
28	0xbd947d5f	-0.07250475
29	0xbda58d3a	-0.080835775
30	0x00000000	0.0
31	0x3d13ea21	0.036111955
32	0x00000000	0.0
33	0xbcd05afe	-0.025434013
34	0xbd43941f	-0.04774868
35	0x00000000	0.0
36	0xbcd7034e	-0.026246693
37	0x00000000	0.0
38	0xbcd22da9	-0.025656538
39	0xbd28e3b1	-0.04123277
40	0xbcf5966f	-0.029978959
41	0xbd42209e	-0.047394387
42	0x00000000	0.0
43	0x3d47ac3d	0.048748244
44	0x3ca3488c	0.019932054
45	0xbd134cf4	-0.03596206
46	0xbdb2c2d5	-0.087285675
47	0xbcc6996a	-0.024243075
48	0x3dd2faef	0.10301768
49	0x3cf6ad5d	0.030111963
50	0xbd120276	-0.03564688
51	0x3cf87bf6	0.030332547
52	0x3d5e2381	0.054233078
53	0x3c7fddc4	0.015616838
54	0x00000000	0.0
55	0xbdd89821	-0.10575891
56	0x3d172188	0.036897212
57	0x3ddb3496	0.10703389
58	0x00000000	0.0
59	0xbd2a62c6	-0.041598104
60	0xbdc48862	-0.095963255
61	0xbd83e1b2	-0.06439532
62	0x3db85b60	0.090018034
63	0x3cd6e7ef	0.026233641
64	0xbd8ed8b6	-0.06974928
65	0xbd9b6492	-0.07587542
66	0xbd9653a6	-0.073401734
67	0x00000000	0.0
68	0x3ceac585	0.028658638
69	0xbd5224e6	-0.05130472
70	0xbd11ccfd	-0.035595883
71	0xbd90182d	-0.07035861
72	0xbd24afa8	-0.04020658
73	0x00000000	0.0
74	0xbcb71e1d	-0.022353226
75	0x3db90532	0.09034194
76	0xbdab8999	-0.08375854
77	0xbdf46dc3	-0.11934998
78	0x3d650542	0.055913217
79	0x3e389c09	0.18028273
80	0x3d55e1c8	0.052217275
81	0xbd146491	-0.03622872
82	0xbd97ea23	-0.07417705
83	0x00000000	0.0
84	0x3e0a97b3	0.13534431
85	0x3c900ed9	0.017585205
86	0x00000000	0.0
87	0x3cb6ccd7	0.022314472
88	0x00000000	0.0
89	0x3d47d774	0.048789456
90	0x00000000	0.0
91	0x3d2f9d0c	0.04287438
92	0x3d8986b9	0.067151494
93	0x3cd61c2d	0.026136482
94	0x00000000	0.0
95	0xbd38f689	-0.04515699
96	0x3d34c811	0.04413611
97	0x3da1d99f	0.07902836
98	0x00000000	0.0
99	0xbd0b4247	-0.033998754
100	0xbd34879b	-0.044074636
101	0x3c913dee	0.017729726
102	0x3ccd06be	0.025027629
103	0x3d8cd558	0.068766296
104	0xbc697a35	-0.014250328
105	0xbcac018f	-0.020996837
106	0xbd45042c	-0.04809968
107	0x00000000	0.0
108	0x3cb25eab	0.021773657
109	0x3d2355dd	0.039876807
110	0x00000000	0.0
111	0xbcf73290	-0.030175477
112	0xbc9a2b11	-0.018819364
113	0x00000000	0.0
114	0x00000000	0.0
115	0x3cb4d51b	0.022074273
116	0xbd6906c1	-0.056891207
117	0xbd5c671a	-0.053809263
118	0xbd4e3ef0	-0.05035299
119	0xbcea9524	-0.028635569
120	0x3d02cbf5	0.03193279
121	0xbcdcc91d	-0.026951367
122	0xbcf84cd0	-0.030310065
123	0xbc8fc537	-0.017550094
124	0x00000000	0.0
125	0x3c9a2b19	0.018819379
126	0x00000000	0.0
127	0x3dda7bb2	0.10668124
128	0x00000000	0.0
129	0xbdd76baa	-0.10518582
130	0x00000000	0.0
131	0x00000000	0.0
132	0x3d17f0b3	0.037094783
133	0x3c99e820	0.018787444
134	0xbd8921b0	-0.066958785
135	0xbcedf240	-0.029046178
136	0x00000000	0.0
137	0x00000000	0.0
138	0x00000000	0.0
139	0xbc75b812	-0.014997499
140	0x00000000	0.0
141	0x00000000	0.0
142	0x00000000	0.0
143	0x00000000	0.0
144	0x3cf0602f	0.029342739
145	0x3d0c8639	0.034307692
146	0x00000000	0.0
147	0xbd14a433	-0.036289405
148	0x00000000	0.0
149	0x00000000	0.0
150	0xbcd33baa	-0.025785286
151	0x00000000	0.0
152	0x3d37684f	0.04477721
153	0x00000000	0.0
154	0xbd8daecd	-0.06918106
155	0xbd350fbf	-0.04420447
156	0xbd5e4259	-0.054262493
157	0x00000000	0.0
158	0x00000000	0.0
159	0xbd24d8b6	-0.040245734
160	0xbce4e83f	-0.027942775
161	0xbce9390f	-0.02846959
162	0x00000000	0.0
163	0x00000000	0.0
164	0x00000000	0.0
165	0xbd360e32	-0.04444713
166	0x00000000	0.0
167	0x00000000	0.0
168	0x00000000	0.0
169	0xbce9eea2	-0.028556172
170	0xbd83f566	-0.064432904
171	0x00000000	0.0
172	0x00000000	0.0
173	0xbd6a4146	-0.057191156
174	0x00000000	0.0
175	0x00000000	0.0
176	0x3d86e926	0.06587438
177	0x00000000	0.0
178	0x00000000	0.0
179	0xbdac746f	-0.084206454
180	0x00000000	0.0
181	0x3cb64f0f	0.022254495
182	0xbd3cabec	-0.046062395
183	0x00000000	0.0
184	0xbd140567	-0.036137965
185	0x00000000	0.0
186	0x00000000	0.0
187	0xbce142e6	-0.02749772
188	0x00000000	0.0
189	0x00000000	0.0
190	0xbcd5604b	-0.026046893
191	0xbccfdc25	-0.025373528
192	0xbd1afbb5	-0.037837703
193	0xbcd701c7	-0.026245965
194	0xbcc68115	-0.024231473
195	0xbcf63dc4	-0.030058749
196	0xbcea8a09	-0.028630273
197	0xbd170a15	-0.03687485
198	0xbcdc649d	-0.026903445
199	0x00000000	0.0
200	0x00000000	0.0
201	0x00000000	0.0
202	0x00000000	0.0
203	0x3d48434b	0.0488923
204	0x3d8298fb	0.06376835
205	0xbd5bc7c3	-0.053657304
206	0xbcba3966	-0.022732448
207	0xbdafa26f	-0.085759036
208	0xbc97e156	-0.018540066
209	0x3d407574	0.046987012
210	0xbda4005d	-0.08007882
211	0xbc8939a0	-0.01675111
212	0x00000000	0.0
213	0x00000000	0.0
214	0x00000000	0.0
215	0xbd2747b0	-0.04083985
216	0xbcfda543	-0.030962592
217	0x00000000	0.0
218	0xbd249392	-0.040179797
219	0xbd03941f	-0.03212368
220	0x3d28708d	0.04112296
221	0x00000000	0.0
222	0xbca777ff	-0.02044296
223	0xbd3eafbd	-0.046554316
224	0xbd28b8bb	-0.041191798
225	0x3d9a2a7e	0.07527636
226	0x3de1de04	0.11028674
227	0x3cb6c6d3	0.022311604
228	0xbdc7209b	-0.09723016
229	0xbd90132b	-0.07034906
230	0x3d4bd7b8	0.049766272
231	0x3d6d3fcb	0.057922166
232	0x00000000	0.0
233	0xbd3f3296	-0.046679102
234	0xbd6ffce2	-0.058590777
235	0x00000000	0.0
236	0x00000000	0.0
237	0x00000000	0.0
238	0x00000000	0.0
239	0x00000000	0.0
240	0xbcda4e7e	-0.026648756
241	0xbd143181	-0.036180023
242	0xbd4195b2	-0.0472619
243	0x00000000	0.0
244	0x3d53b98c	0.051690623
245	0xbd16e2ab	-0.03683726
246	0xbc79ce68	-0.015246965
247	0xbd8d0948	-0.06886536
248	0x00000000	0.0
249	0x3d8da27f	0.06915759
250	0xbd304cf5	-0.043042142
251	0x00000000	0.0
252	0xbca22c1c	-0.019796424
253	0x3d4e3be7	0.050350096
254	0x3d5c6b76	0.05381342
255	0xbcd14a70	-0.02554819

features.9.bias f4 [120]
0	0xbc9fcfa6	-0.019508194
1	0xbae17c8f	-0.0017203259
2	0x3e782a6c	0.24234933
3	0x3e55020c	0.20801562
4	0xbd31abf2	-0.04337687
5	0xbc042348	-0.008065052
6	0xbac885aa	-0.0015298624
7	0x3d931dbb	0.07183405
8	0x3c0a3c9c	0.008437302
9	0xbbef9e27	-0.0073125544
10	0xbc29f158	-0.010372482
11	0xbdd0dc6a	-0.10198291
12	0x3c99bb39	0.018766033
13	0x3c0a4e87	0.008441574
14	0x3dc113ec	0.09427628
15	0x3ca014ca	0.019541163
16	0x3dc90696	0.09815709
17	0xbc5cdf52	-0.013480978
18	0xbd92fd25	-0.0717719
19	0x3d282343	0.041049253
20	0x3c40cde6	0.01176784
21	0x3da182d3	0.07886281
22	0xbcd89b16	-0.026441138
23	0xbd2dcd04	-0.042431846
24	0x3d72d8a0	0.05928862
25	0xbd17640b	-0.036960643
26	0x3d7c56a5	0.06160607
27	0xbca1d4fe	-0.019754883
28	0x3de2e8f1	0.11079586
29	0x3d0ac46b	0.033878725
30	0x3d56ac16	0.052410208
31	0x3a922703	0.0011150542
32	0x3b0a9d5a	0.0021150918
33	0x38f94876	0.00011886742
34	0x3ca3d514	0.019999065
35	0x3c277d66	0.010222768
36	0xbcc4f232	-0.024041269
37	0xbc8669a2	-0.016407792
38	0xbad228d2	-0.0016033894
39	0x3c911e53	0.017714655
40	0x3c96e2d1	0.018418701
41	0xbb83a497	-0.0040174234
42	0x3d1ce57b	0.038304787
43	0xbca1114c	-0.019661568
44	0x3db35bc6	0.08757739
45	0x3d142f94	0.036178187
46	0x3c9d3dc1	0.019194486
47	0x3d576658	0.052587837
48	0x3c97ce28	0.01853092
49	0x3e0392a8	0.12848914
50	0xbbda08cd	-0.006653881
51	0xbca835fb	-0.020533552
52	0x3db29ddb	0.08721515
53	0x3d043b93	0.032283377
54	0x3c0053a6	0.007832443
55	0xbc33f61a	-0.010983968
56	0x3cb10ade	0.021611627
57	0x3b7a52a0	0.003819622
58	0x3cf9cab2	0.03049216
59	0x3c964615	0.018343965
60	0xbcdc73a4	-0.02691061
61	0xbbabdda8	-0.0052449293
62	0x3cf85129	0.030312138
63	0x3c544b70	0.012957439
64	0xbc03315e	-0.0080073755
65	0xbbacdcfb	-0.0052753664
66	0xbc08f214	-0.008358497
67	0x3ccc2250	0.024918705
68	0xbdab420f	-0.08362209
69	0x3d909a03	0.070606254
70	0x3caeb0d5	0.021324554
71	0xbd32f668	-0.043692023
72	0x3d21a873	0.039467286
73	0xbac549b3	-0.0015051871
74	0x3bb4ad1b	0.0055138
75	0x3db89d25	0.09014348
76	0x3db43304	0.08798793
77	0x3d00ca6a	0.031443037
78	0x3be21bcf	0.0069002877
79	0xbd0fe85a	-0.035133697
80	0xbcaf7f67	-0.021423055
81	0xbb4fda1b	-0.0031715694
82	0x3d86cd5f	0.0658214
83	0xbced3dd8	-0.028960153
84	0xbca3ee28	-0.020011023
85	0xbcf45355	-0.029824892
86	0x3dec3d18	0.1153509
87	0x3cab9533	0.020945167
88	0xbda789dc	-0.081805915
89	0x3dfabf3a	0.12243505
90	0xbbe4e3b2	-0.006985151
91	0x3ca8fc35	0.020628074
92	0xbd80d7f4	-0.0629119
93	0xbcf2b197	-0.029625697
94	0x3d906b96	0.070517704
95	0x3e0f884a	0.14016834
96	0x3d0d124a	0.03444127
97	0x3e0b96c3	0.1363173
98	0x3ca477d8	0.020076677
99	0x3bcf2f6f	0.006322793
100	0xbba5aafd	-0.005055784
101	0xbd7f67fe	-0.062355034
102	0x3c68d90c	0.014211904
103	0x3cb5aae7	0.02217622
104	0x3daa41a4	0.08313301
105	0x3c8d2de7	0.017233802
106	0x3c54ce1b	0.0129885925
107	0x3e3f7f9d	0.18701024
108	0x3d03bb24	0.032160893
109	0x3d9f8bf2	0.07790364
110	0x3c7fe16a	0.015617708
111	0x3d203eec	0.039122507
112	0x3d8f0f3d	0.06985328
113	0xbd0ba28b	-0.03409056
114	0xbd5c7ead	-0.053831745
115	0xbb8292af	-0.003984771
116	0xbd0cc951	-0.034371678
117	0x3c626232	0.013817357
118	0xbcb64235	-0.022248367
119	0xbd8135bc	-0.06309077

features.11.weight f4 [84, 120]
0	0x3dd07015	0.10177628
1	0x3e06f536	0.13179478
2	0x3d918229	0.07104904
3	0x3e1fee8e	0.15618345
4	0x00000000	0.0
5	0x3d1213df	0.03566348
6	0x3db81b14	0.0898954
7	0xbdddee89	-0.108365126
8	0xbcb7affa	-0.02242278
9	0xbe173557	-0.14766441
10	0xbd83dbe2	-0.06438424
11	0x3e803e9d	0.2504777
12	0x3e0cc39d	0.13746496
13	0x3d455880	0.048180103
14	0x00000000	0.0
15	0x3ce11ebc	0.027480476
16	0x3da765c3	0.081737064
17	0xbd395ff9	-0.045257542
18	0x3db212c6	0.08694987
19	0x3db9d9c0	0.09074736
20	0x3dd433cc	0.10361442
21	0xbd1d2362	-0.03836382
22	0x3d0cb254	0.034349754
23	0x3d4af290	0.049547732
24	0xbe3aaaa2	-0.18229154
25	0xbc966cac	-0.018362366
26	0x3c97c6a4	0.018527336
27	0x00000000	0.0
28	0x3e41885d	0.18899675
29	0x00000000	0.0
30	0x00000000	0.0
31	0x3d3563e8	0.04428473
32	0x00000000	0.0
33	0xbd0c4d51	-0.034253422
34	0x3d8f79bc	0.07005641
35	0x3d584df5	0.05280872
36	0xbd1c49ae	-0.038156204
37	0xbd358305	-0.044314403
38	0x00000000	0.0
39	0xbd3ee9e1	-0.046609763
40	0x00000000	0.0
41	0xbd238e9a	-0.039930917
42	0x00000000	0.0
43	0x00000000	0.0
44	0x00000000	0.0
45	0x3d134dab	0.03596274
46	0x3cf00640	0.029299855
47	0x3e159826	0.14608821
48	0x3e4dea4f	0.20108913
49	0xbdad5fde	-0.08465551
50	0xbd8b7d0a	-0.06810959
51	0x3daec0d3	0.08532872
52	0xbdbd7c98	-0.0925228
53	0x3c6cdc94	0.014456887
54	0x3d6e37d6	0.058158718
55	0x00000000	0.0
56	0x3da8e0f1	0.08246029
57	0x3d21f556	0.03954061
58	0x3cbf84f2	0.023378823
59	0x00000000	0.0
60	0x3dc14a29	0.09437973
61	0x00000000	0.0
62	0x3d484483	0.048893463
63	0x00000000	0.0
64	0x3d6e44a1	0.05817092
65	0xbe0d19cc	-0.13779372
66	0x3db060a6	0.08612184
67	0xbd5b4a18	-0.05353746
68	0xbddfd000	-0.10928345
69	0x00000000	0.0
70	0xbd8a3d02	-0.067499176
71	0x00000000	0.0
72	0x3cfea96c	0.031086646
73	0x00000000	0.0
74	0x3ce8e32d	0.028428638
75	0x3deda3c2	0.116035
76	0x00000000	0.0
77	0x3e13f858	0.14450204
78	0xbdbac1f8	-0.09119028
79	0xbc93da9c	-0.018048577
80	0xbdeb6b34	-0.11495057
81	0x3cba17bb	0.022716394
82	0x3d8408c0	0.064469814
83	0x3e264478	0.16237056
84	0x3e3619c4	0.17783266
85	0xbdcaffbc	-0.09912059
86	0x3e0fbfcd	0.1403801
87	0xbdf64471	-0.12024773
88	0x00000000	0.0
89	0xbd96d989	-0.0736571
90	0x3d1ce1cc	0.038301274
91	0x3d9f584a	0.07780512
92	0xbe2224a2	-0.15834287
93	0x3d161056	0.036636673
94	0x3cbb83a6	0.022889923
95	0xbcc35663	-0.023844903
96	0x3db7bbf5	0.08971397
97	0xbe383f42	-0.17992881
98	0x00000000	0.0
99	0x3d4d485f	0.050117847
100	0x3d638664	0.055548087
101	0x3e293cee	0.16527149
102	0xbe0dda0c	-0.1385271
103	0xbdae493d	-0.08510063
104	0x00000000	0.0
105	0x3d79fbec	0.061031267
106	0xbcdb8b24	-0.026799746
107	0x3ca231c4	0.01979912
108	0xbcdf0f17	-0.027228875
109	0xbe2b2b42	-0.1671572
110	0xbd726a30	-0.0591833
111	0x3deb0393	0.11475291
112	0xbe051226	-0.12995204
113	0x3e0363d1	0.12831046
114	0xbd0601e2	-0.03271664
115	0x00000000	0.0
116	0x3d356954	0.0442899
117	0xbd1ecf7d	-0.038772095
118	0xbd375182	-0.044755466
119	0xbdb1d773	-0.08683672
120	0xbcc72647	-0.024310244
121	0xbd7766ff	-0.06040096
122	0x3cd658f2	0.02616546
123	0x3cd90659	0.026492285
124	0xbd27358b	-0.040822547
125	0x00000000	0.0
126	0xbcd89a44	-0.026440747
127	0x3cdece1e	0.027197894
128	0x00000000	0.0
129	0xbcc67d41	-0.024229648
130	0x00000000	0.0
131	0xbcaca1c5	-0.021073231
132	0x00000000	0.0
133	0x00000000	0.0
134	0x3d40e493	0.047092985
135	0xbd1297ff	-0.035789486
136	0x00000000	0.0
137	0xbca1282a	-0.019672472
138	0x00000000	0.0
139	0x00000000	0.0
140	0x3ceb76ea	0.028743226
141	0x3d8e21cc	0.0694004
142	0x00000000	0.0
143	0x00000000	0.0
144	0x00000000	0.0
145	0xbcfdd88a	-0.030987043
146	0x00000000	0.0
147	0xbce323fd	-0.027727121
148	0xbd227638	-0.039663523
149	0x3d13d2a7	0.036089566
150	0x3cc345e0	0.02383703
151	0xbcd73bfd	-0.026273722
152	0x3c73e34a	0.014885733
153	0x00000000	0.0
154	0xbd003d53	-0.031308483
155	0x00000000	0.0
156	0x00000000	0.0
157	0x00000000	0.0
158	0x00000000	0.0
159	0x00000000	0.0
160	0x3cd01e19	0.025404977
161	0x00000000	0.0
162	0x3c94060f	0.018069295
163	0x00000000	0.0
164	0x00000000	0.0
165	0xbd42f390	-0.04759556
166	0xbcb5fc9e	-0.022215184
167	0x00000000	0.0
168	0x3c8a694e	0.016895916
169	0x3cee4295	0.029084483
170	0xbc7073a9	-0.014676013
171	0x00000000	0.0
172	0x3d50d3cf	0.050983246
173	0x00000000	0.0
174	0x3c7ae40f	0.0153131625
175	0x3c92ef7c	0.01793646
176	0xbd51e31f	-0.05124199
177	0x00000000	0.0
178	0xbc8fde55	-0.01756207
179	0xbcd04c0d	-0.025426889
180	0xbcd7985b	-0.026317766
181	0x00000000	0.0
182	0x00000000	0.0
183	0x00000000	0.0
184	0x00000000	0.0
185	0x3c757d54	0.014983494
186	0x00000000	0.0
187	0x00000000	0.0
188	0x00000000	0.0
189	0xbd05b9c5	-0.032647867
190	0x00000000	0.0
191	0x00000000	0.0
192	0xbc73efbb	-0.014888699
193	0x00000000	0.0
194	0x00000000	0.0
195	0x3d58f9ff	0.05297279
196	0x00000000	0.0
197	0x00000000	0.0
198	0xbd1e0916	-0.038582884
199	0x00000000	0.0
200	0xbd034abc	-0.032053694
201	0x00000000	0.0
202	0x3cbb1708	0.02283813
203	0xbc9c1ffd	-0.019058222
204	0xbd0cc216	-0.034364782
205	0x00000000	0.0
206	0x3c8e8bbe	0.017400619
207	0x00000000	0.0
208	0x00000000	0.0
209	0x3d97c6c0	0.074109554
210	0x00000000	0.0
211	0x00000000	0.0
212	0xbd0ad8b4	-0.03389807
213	0xbcc18cb9	-0.023626672
214	0x3cc27a24	0.023739882
215	0x3cf35629	0.02970417
216	0x00000000	0.0
217	0xbc772e39	-0.015086704
218	0x00000000	0.0
219	0x00000000	0.0
220	0x00000000	0.0
221	0xbd233e23	-0.03985418
222	0x00000000	0.0
223	0x3d3dd07d	0.046341408
224	0x00000000	0.0
225	0x00000000	0.0
226	0x00000000	0.0
227	0x3d0fcc4c	0.035106942
228	0x00000000	0.0
229	0x00000000	0.0
230	0x00000000	0.0
231	0xbcb09cf4	-0.021559216
232	0x00000000	0.0
233	0xbd0a0a8f	-0.033701476
234	0xbd4a353c	-0.049367175
235	0x00000000	0.0
236	0xbc501e11	-0.012702481
237	0x3c8ed3f8	0.017435059
238	0x00000000	0.0
239	0x00000000	0.0
240	0x3c9c6400	0.019090652
241	0x3dbe161b	0.0928156
242	0x3c62a19d	0.013832477
243	0x3deb6524	0.114939004
244	0xbd8b2625	-0.06794385
245	0x00000000	0.0
246	0xbd3064a7	-0.04306474
247	0x00000000	0.0
248	0x00000000	0.0
249	0xbd18f04b	-0.037338536
250	0xbd367c4d	-0.044552136
251	0x3d4bbe6a	0.04974214
252	0x00000000	0.0
253	0x00000000	0.0
254	0x3db3bdce	0.08776437
255	0xbd2dcd1f	-0.042431947

features.11.bias f4 [84]
0	0x3e84ec91	0.25961736
1	0x3d93dda6	0.072200105
2	0x3e3749e1	0.17899276
3	0x3e9851de	0.2974996
4	0xbdd7651d	-0.10517333
5	0x3d99ec81	0.07515813
6	0x3dd5d411	0.10440839
7	0x3c813590	0.01577261
8	0x3d901b45	0.07036451
9	0x3defb714	0.11704841
10	0x3d7ddcb1	0.061978046
11	0xba8a8e99	-0.0010571062
12	0x3d393b62	0.045222647
13	0x3e45fc38	0.19334495
14	0x3cc13c95	0.023588458
15	0x3c69e558	0.014275871
16	0xbd14b638	-0.03630659
17	0x3e1c7f95	0.15283044
18	0xbb2ed802	-0.0026679044
19	0x3e5bcd38	0.21465003
20	0x3cfaf1d6	0.030632894
21	0x3d8717e6	0.06596355
22	0x3e096f4e	0.13421366
23	0x3dd6e4af	0.10492837
24	0xbbccafd6	-0.006246547
25	0xbd5cdb34	-0.053919986
26	0x3e5079e1	0.20358993
27	0x3e6a4e63	0.22881465
28	0x3e55470a	0.2082788
29	0x39a64ebb	0.00031720646
30	0xbd84cde3	-0.06484582
31	0x3cb74a2c	0.022374235
32	0x3baaf3e8	0.005217064
33	0x3c5a8ccc	0.013339233
34	0xbcc9d614	-0.024638213
35	0xbb82f1c6	-0.003996107
36	0x3dcc0102	0.0996113
37	0xbb294a71	-0.0025831724
38	0xb9035ee6	-0.00012528486
39	0x3df38860	0.11891246
40	0xbb8bd164	-0.0042669047
41	0xbb8f6df9	-0.0043771234
42	0x3dcd7ca3	0.10033538
43	0x3d2f7d24	0.042843953
44	0xbd40d63a	-0.047079302
45	0x3e144517	0.1447948
46	0x3dde2c5d	0.108483054
47	0x3c9ab152	0.018883381
48	0x3d7a1de7	0.061063673
49	0xbd652623	-0.055944573
50	0x3b4f81ee	0.0031663137
51	0xbbb04f6a	-0.0053805606
52	0x3e388b92	0.18021992
53	0x3e0cfe8c	0.13768977
54	0x3e8f23b9	0.27956942
55	0x3e746b8e	0.23869154
56	0x3e69c2e9	0.22828259
57	0xbaf0b500	-0.0018364489
58	0x3c8e2eab	0.017356237
59	0x3cab3538	0.0208994
60	0x3a77f154	0.0009458263
61	0x3bdae64f	0.006680287
62	0x3e32f7ea	0.17477384
63	0x3e802f71	0.25036195
64	0x3d95f99b	0.07322999
65	0x3e6e9f7d	0.23303027
66	0x3e9bc2da	0.30422097
67	0x3dbc1dce	0.09185372
68	0x3eb6a536	0.3567292
69	0x3a4d6b71	0.00078361394
70	0x3be2c2d2	0.006920197
71	0xbcc203c8	-0.023683444
72	0xbb134498	-0.0022471305
73	0x3ceaa2ef	0.028642146
74	0xbb2eacbd	-0.0026653253
75	0x3e1a6118	0.15076101
76	0xbcc9a720	-0.024615824
77	0x3cf89964	0.03034658
78	0x3db9805d	0.090576865
79	0x3e29a51c	0.1656689
80	0xbb480f38	-0.003052665
81	0x3d6e2dbe	0.058149092
82	0x3e40a416	0.18812594
83	0x3c9485d3	0.018130219

classifiers.0.weight f4 [5, 84]
0	0x3f374905	0.71595794
1	0xbdba70e3	-0.09103563
2	0x3de97b1d	0.11400435
3	0x3e493ca5	0.1965204
4	0xbe041b46	-0.12901029
5	0xbe365bcc	-0.17808455
6	0xbe947e9d	-0.29002848
7	0x3e88e97d	0.26740637
8	0xbe8c0571	-0.273479
9	0x3ed727d1	0.42022565
10	0xbce36196	-0.027756494
11	0x3c2554e5	0.010091041
12	0x3dd8a829	0.10578949
13	0xbedcd22f	-0.43129107
14	0xbdc8dc01	-0.098075874
15	0xbce569ea	-0.028004605
16	0x3d86fddd	0.06591389
17	0x3d186a8b	0.037210982
18	0x3e169168	0.14703906
19	0xbf0f5a1f	-0.5599689
20	0xbd8393fd	-0.06424711
21	0xbd916458	-0.07099217
22	0xbdfbe0b5	-0.12298719
23	0xbe5161b3	-0.20447426
24	0xbb02ef1f	-0.0019978953
25	0xbee7c596	-0.45267934
26	0xbefa7a47	-0.48921415
27	0xbd489fd1	-0.048980538
28	0x3e8d4d5c	0.27598083
29	0x3c6ef29f	0.014584213
30	0x3e803b13	0.2504507
31	0xbe0ea58b	-0.13930337
32	0xbc533e43	-0.012893262
33	0xbe35af1f	-0.17742585
34	0x3e116d8b	0.14201944
35	0x3a7737cc	0.00094306166
36	0xbe6f2cdc	-0.23356956
37	0x3a200826	0.000610473
38	0x3ac05e70	0.0014676582
39	0xbcb13120	-0.02162987
40	0x3e4804eb	0.19533126
41	0xbc8b319e	-0.016991433
42	0xbee28c1d	-0.44247523
43	0xbe9bea99	-0.3045242
44	0xbdc43075	-0.09579555
45	0xbdec5743	-0.11540081
46	0xbec318f3	-0.38104972
47	0xbb6b0e58	-0.0035866704
48	0x3ed521c1	0.41627315
49	0xbcde3667	-0.02712555
50	0xbcc9491a	-0.02457099
51	0xb99492ba	-0.0002833808
52	0xbe628b92	-0.22123554
53	0x3c25d0ca	0.01012058
54	0x3d90ee9d	0.07076762
55	0x3d046a3e	0.032327883
56	0x3debfd48	0.11522919
57	0x3ed06d7c	0.4070853
58	0xbc3586c1	-0.011079491
59	0x3becd573	0.0072275936
60	0x3e5d4c6e	0.21611187
61	0x3edd5a0c	0.43232763
62	0x3cf5cdc6	0.030005347
63	0x3e2f5aa1	0.17124416
64	0x3c42afcd	0.0118827345
65	0x3e47b75f	0.19503544
66	0x3e2288a6	0.1587244
67	0xbe4d7c74	-0.20067006
68	0xbe95a2d9	-0.29225805
69	0xbbfa6af3	-0.007642144
70	0xbc7acf56	-0.015308222
71	0x3e59db02	0.21274951
72	0x3cb3ff96	0.021972459
73	0x3c131af7	0.008978597
74	0x3a943c83	0.0011309538
75	0xbeea9859	-0.45819357
76	0xbebf86fa	-0.37407666
77	0x3e3dbec7	0.18529807
78	0xbdb02877	-0.08601468
79	0x3f41f032	0.75757134
80	0xbac3cbc9	-0.0014938052
81	0xbe4ab067	-0.19793855
82	0xbe8359b0	-0.25654364
83	0x3cb5b825	0.022182534
84	0xbeb38424	-0.35061753
85	0xbceef577	-0.029169781
86	0xbef84469	-0.48489693
87	0xbec019d6	-0.3751971
88	0x3b9f04da	0.0048528733
89	0xbb341d8a	-0.0027483427
90	0x3c80498e	0.015660074
91	0xbd29e640	-0.04147935
92	0x3e250692	0.16115788
93	0x3d96ba6e	0.073597774
94	0x3e1583db	0.1460108
95	0xbc2fde80	-0.0107342005
96	0xbeafba08	-0.34321618
97	0x3eae20b5	0.34009328
98	0x3e006977	0.12540232
99	0x3cd0bd99	0.025481032
100	0xbead5a83	-0.33858117
101	0xbea8731a	-0.32900316
102	0xbd6ab249	-0.057298932
103	0x3e412cb1	0.18864705
104	0xbd1da9a6	-0.038491867
105	0xbd03c685	-0.032171745
106	0x3ed4f7b1	0.41595224
107	0x3eeaf228	0.45887876
108	0x3ae77a6c	0.0017660386
109	0x3d88b378	0.06674856
110	0x3ebe1b03	0.37129983
111	0xbe1ffbb1	-0.15623356
112	0xbd8a816d	-0.06762967
113	0x3c70440f	0.014664664
114	0xbe8dc1ba	-0.27686864
115	0x3cfc64b0	0.03080973
116	0xbca730b8	-0.020408973
117	0xbead15cc	-0.33805692
118	0xbdddb506	-0.10825543
119	0xbce15ca1	-0.02750999
120	0x3c55c328	0.013047017
121	0xbc3b54d8	-0.011433803
122	0x3ca8702a	0.020561296
123	0xbdb1bd85	-0.08678726
124	0xbe345aae	-0.17612717
125	0xba5c4427	-0.00084024895
126	0xbe6de0ac	-0.23230237
127	0xbd28b8d3	-0.041191887
128	0xbdd86b71	-0.10567368
129	0x3d97ec2d	0.07418094
130	0x3f1465f3	0.5796806
131	0x3d098521	0.033574227
132	0xbde9b466	-0.114113614
133	0x3c3812b8	0.011234932
134	0x3ca48107	0.020081056
135	0xbc7ba7fd	-0.015359876
136	0xbd96248f	-0.07331192
137	0xbe9fa385	-0.31179443
138	0xbe6a33d8	-0.2287134
139	0xbdd1ce3f	-0.102444164
140	0xb8ad4e80	-8.2639046e-05
141	0x3d900023	0.07031276
142	0x3e11a0ba	0.14221469
143	0x3d8d06ba	0.068860486
144	0xbe3a94de	-0.18220851
145	0xbe03489c	-0.12820667
146	0xbe454213	-0.19263487
147	0xbddf2b0d	-0.10896883
148	0xbe2bbc88	-0.16771138
149	0xbd558349	-0.052127156
150	0xbe8c6597	-0.27421257
151	0x3e22fe6c	0.15917367
152	0x3ef68fee	0.48156685
153	0xbc990b0e	-0.01868203
154	0x3d1f6293	0.038912367
155	0xbe7b06fd	-0.24514385
156	0x3ba135ba	0.004919735
157	0x3d8faba7	0.07015162
158	0x3c20466b	0.009782414
159	0x3da5ebae	0.08101593
160	0x3ca14e29	0.01969059
161	0x3d64e10e	0.05587869
162	0x3e1c7dfd	0.15282436
163	0x3aae4e94	0.0013298565
164	0xbc676bbe	-0.014124809
165	0x3bf272a0	0.0073989183
166	0x3d6a0a95	0.057138998
167	0x3e07045a	0.13185254
168	0x3dd933f7	0.10605615
169	0x3e3a788c	0.18210047
170	0x3ea3169b	0.31853184
171	0x3ed28423	0.41116437
172	0xbe865c95	-0.2624251
173	0x3d97d26d	0.074131824
174	0x3d2651ed	0.040605474
175	0xbe66ea57	-0.22550331
176	0xbed507c0	-0.41607475
177	0xbc507cb5	-0.012725045
178	0x3d5bb56e	0.05363982
179	0x3bb80f8d	0.005617088
180	0x3bf66d59	0.0075203595
181	0x3e50dba5	0.20396288
182	0xbe04516b	-0.12921683
183	0xbc4d7549	-0.01254017
184	0xbcc2e6a7	-0.023791624
185	0x3e814ad5	0.25252405
186	0xbe3653ef	-0.17805456
187	0x3e02c825	0.12771662
188	0x3d06dba8	0.032924324
189	0x3e264ba4	0.16239792
190	0x3d2ea8ef	0.042641576
191	0xbea8a8bb	-0.3294123
192	0xbbec4c94	-0.0072112773
193	0xbd8be8d7	-0.0683152
194	0x3dc5c62c	0.09656939
195	0x3eb2691e	0.34845823
196	0x3e624119	0.22095145
197	0xbc1935ca	-0.009351203
198	0xbe9329f2	-0.2874294
199	0xbe8f9b94	-0.28048384
200	0x3ca718d8	0.020397589
201	0x3e36434e	0.17799112
202	0xbe850d8f	-0.25986907
203	0xbbade057	-0.0053062844
204	0xbe46b6f2	-0.19405726
205	0x3b49e2df	0.0030805392
206	0xbc5bbba8	-0.01341144
207	0x3e7841f2	0.24243906
208	0xbd9b5161	-0.07583881
209	0x3b431acb	0.0029770609
210	0x3dcfa5ef	0.10139071
211	0xbe8648f6	-0.2622754
212	0xbe5cffd5	-0.21581967
213	0x3df5d5ce	0.12003671
214	0xbec46443	-0.38357744
215	0x3c77c65c	0.015122976
216	0x3af22da3	0.0018476736
217	0xbe57bf80	-0.21069145
218	0xbc8f323f	-0.017480014
219	0xbb802459	-0.003910583
220	0x3ea056ce	0.31316227
221	0x3e76a8b3	0.24087791
222	0x3eed00eb	0.46289763
223	0x3ec2c889	0.3804362
224	0x3e906001	0.28198245
225	0xbf19388b	-0.598519
226	0xbe851baf	-0.25997683
227	0xbce6c7aa	-0.02817138
228	0xbeebcc99	-0.46054533
229	0xbef616b3	-0.48064193
230	0x3e98bf87	0.29833624
231	0x3ea644e2	0.32474428
232	0x3e17af4e	0.14812967
233	0x3e9066ed	0.28203526
234	0x3eebf21f	0.4608316
235	0x3e2f24a4	0.17103821
236	0x3e82d65c	0.25554168
237	0xbc1e288f	-0.009653225
238	0x3cfcf511	0.030878576
239	0xbe1b7655	-0.15181859
240	0xbcc46297	-0.023972793
241	0x3bf8ca8e	0.007592506
242	0x3c612c28	0.013743438
243	0x3dd69de1	0.10479332
244	0x3c98287a	0.018573988
245	0xbd8c6295	-0.068547405
246	0x3df33158	0.11874646
247	0xbc5d6a98	-0.013514183
248	0xbcbe9c68	-0.02326794
249	0x3e0ca908	0.13736355
250	0x3eb96f57	0.36217758
251	0xbe2add08	-0.16685879
252	0xbca4ed14	-0.020132579
253	0xbd44036e	-0.047854833
254	0x3c968db5	0.018378118
255	0xbd3c04c8	-0.045902997

classifiers.0.bias f4 [5]
0	0xbef5ef94	-0.48034346
1	0x3f7bfe9d	0.98435384
2	0x3f57b657	0.84262604
3	0xbf6224e3	-0.88337535
4	0xbeed30f4	-0.4632641

classifier.weight f4 [5, 84]
0	0x3f374905	0.71595794
1	0xbdba70e3	-0.09103563
2	0x3de97b1d	0.11400435
3	0x3e493ca5	0.1965204
4	0xbe041b46	-0.12901029
5	0xbe365bcc	-0.17808455
6	0xbe947e9d	-0.29002848
7	0x3e88e97d	0.26740637
8	0xbe8c0571	-0.273479
9	0x3ed727d1	0.42022565
10	0xbce36196	-0.027756494
11	0x3c2554e5	0.010091041
12	0x3dd8a829	0.10578949
13	0xbedcd22f	-0.43129107
14	0xbdc8dc01	-0.098075874
15	0xbce569ea	-0.028004605
16	0x3d86fddd	0.06591389
17	0x3d186a8b	0.037210982
18	0x3e169168	0.14703906
19	0xbf0f5a1f	-0.5599689
20	0xbd8393fd	-0.06424711
21	0xbd916458	-0.07099217
22	0xbdfbe0b5	-0.12298719
23	0xbe5161b3	-0.20447426
24	0xbb02ef1f	-0.0019978953
25	0xbee7c596	-0.45267934
26	0xbefa7a47	-0.48921415
27	0xbd489fd1	-0.048980538
28	0x3e8d4d5c	0.27598083
29	0x3c6ef29f	0.014584213
30	0x3e803b13	0.2504507
31	0xbe0ea58b	-0.13930337
32	0xbc533e43	-0.012893262
33	0xbe35af1f	-0.17742585
34	0x3e116d8b	0.14201944
35	0x3a7737cc	0.00094306166
36	0xbe6f2cdc	-0.23356956
37	0x3a200826	0.000610473
38	0x3ac05e70	0.0014676582
39	0xbcb13120	-0.02162987
40	0x3e4804eb	0.19533126
41	0xbc8b319e	-0.016991433
42	0xbee28c1d	-0.44247523
43	0xbe9bea99	-0.3045242
44	0xbdc43075	-0.09579555
45	0xbdec5743	-0.11540081
46	0xbec318f3	-0.38104972
47	0xbb6b0e58	-0.0035866704
48	0x3ed521c1	0.41627315
49	0xbcde3667	-0.02712555
50	0xbcc9491a	-0.02457099
51	0xb99492ba	-0.0002833808
52	0xbe628b92	-0.22123554
53	0x3c25d0ca	0.01012058
54	0x3d90ee9d	0.07076762
55	0x3d046a3e	0.032327883
56	0x3debfd48	0.11522919
57	0x3ed06d7c	0.4070853
58	0xbc3586c1	-0.011079491
59	0x3becd573	0.0072275936
60	0x3e5d4c6e	0.21611187
61	0x3edd5a0c	0.43232763
62	0x3cf5cdc6	0.030005347
63	0x3e2f5aa1	0.17124416
64	0x3c42afcd	0.0118827345
65	0x3e47b75f	0.19503544
66	0x3e2288a6	0.1587244
67	0xbe4d7c74	-0.20067006
68	0xbe95a2d9	-0.29225805
69	0xbbfa6af3	-0.007642144
70	0xbc7acf56	-0.015308222
71	0x3e59db02	0.21274951
72	0x3cb3ff96	0.021972459
73	0x3c131af7	0.008978597
74	0x3a943c83	0.0011309538
75	0xbeea9859	-0.45819357
76	0xbebf86fa	-0.37407666
77	0x3e3dbec7	0.18529807
78	0xbdb02877	-0.08601468
79	0x3f41f032	0.75757134
80	0xbac3cbc9	-0.0014938052
81	0xbe4ab067	-0.19793855
82	0xbe8359b0	-0.25654364
83	0x3cb5b825	0.022182534
84	0xbeb38424	-0.35061753
85	0xbceef577	-0.029169781
86	0xbef84469	-0.48489693
87	0xbec019d6	-0.3751971
88	0x3b9f04da	0.0048528733
89	0xbb341d8a	-0.0027483427
90	0x3c80498e	0.015660074
91	0xbd29e640	-0.04147935
92	0x3e250692	0.16115788
93	0x3d96ba6e	0.073597774
94	0x3e1583db	0.1460108
95	0xbc2fde80	-0.0107342005
96	0xbeafba08	-0.34321618
97	0x3eae20b5	0.34009328
98	0x3e006977	0.12540232
99	0x3cd0bd99	0.025481032
100	0xbead5a83	-0.33858117
101	0xbea8731a	-0.32900316
102	0xbd6ab249	-0.057298932
103	0x3e412cb1	0.18864705
104	0xbd1da9a6	-0.038491867
105	0xbd03c685	-0.032171745
106	0x3ed4f7b1	0.41595224
107	0x3eeaf228	0.45887876
108	0x3ae77a6c	0.0017660386
109	0x3d88b378	0.06674856
110	0x3ebe1b03	0.37129983
111	0xbe1ffbb1	-0.15623356
112	0xbd8a816d	-0.06762967
113	0x3c70440f	0.014664664
114	0xbe8dc1ba	-0.27686864
115	0x3cfc64b0	0.03080973
116	0xbca730b8	-0.020408973
117	0xbead15cc	-0.33805692
118	0xbdddb506	-0.10825543
119	0xbce15ca1	-0.02750999
120	0x3c55c328	0.013047017
121	0xbc3b54d8	-0.011433803
122	0x3ca8702a	0.020561296
123	0xbdb1bd85	-0.08678726
124	0xbe345aae	-0.17612717
125	0xba5c4427	-0.00084024895
126	0xbe6de0ac	-0.23230237
127	0xbd28b8d3	-0.041191887
128	0xbdd86b71	-0.10567368
129	0x3d97ec2d	0.07418094
130	0x3f1465f3	0.5796806
131	0x3d098521	0.033574227
132	0xbde9b466	-0.114113614
133	0x3c3812b8	0.011234932
134	0x3ca48107	0.020081056
135	0xbc7ba7fd	-0.015359876
136	0xbd96248f	-0.07331192
137	0xbe9fa385	-0.31179443
138	0xbe6a33d8	-0.2287134
139	0xbdd1ce3f	-0.102444164
140	0xb8ad4e80	-8.2639046e-05
141	0x3d900023	0.07031276
142	0x3e11a0ba	0.14221469
143	0x3d8d06ba	0.068860486
144	0xbe3a94de	-0.18220851
145	0xbe03489c	-0.12820667
146	0xbe454213	-0.19263487
147	0xbddf2b0d	-0.10896883
148	0xbe2bbc88	-0.16771138
149	0xbd558349	-0.052127156
150	0xbe8c6597	-0.27421257
151	0x3e22fe6c	0.15917367
152	0x3ef68fee	0.48156685
153	0xbc990b0e	-0.01868203
154	0x3d1f6293	0.038912367
155	0xbe7b06fd	-0.24514385
156	0x3ba135ba	0.004919735
157	0x3d8faba7	0.07015162
158	0x3c20466b	0.009782414
159	0x3da5ebae	0.08101593
160	0x3ca14e29	0.01969059
161	0x3d64e10e	0.05587869
162	0x3e1c7dfd	0.15282436
163	0x3aae4e94	0.0013298565
164	0xbc676bbe	-0.014124809
165	0x3bf272a0	0.0073989183
166	0x3d6a0a95	0.057138998
167	0x3e07045a	0.13185254
168	0x3dd933f7	0.10605615
169	0x3e3a788c	0.18210047
170	0x3ea3169b	0.31853184
171	0x3ed28423	0.41116437
172	0xbe865c95	-0.2624251
173	0x3d97d26d	0.074131824
174	0x3d2651ed	0.040605474
175	0xbe66ea57	-0.22550331
176	0xbed507c0	-0.41607475
177	0xbc507cb5	-0.012725045
178	0x3d5bb56e	0.05363982
179	0x3bb80f8d	0.005617088
180	0x3bf66d59	0.0075203595
181	0x3e50dba5	0.20396288
182	0xbe04516b	-0.12921683
183	0xbc4d7549	-0.01254017
184	0xbcc2e6a7	-0.023791624
185	0x3e814ad5	0.25252405
186	0xbe3653ef	-0.17805456
187	0x3e02c825	0.12771662
188	0x3d06dba8	0.032924324
189	0x3e264ba4	0.16239792
190	0x3d2ea8ef	0.042641576
191	0xbea8a8bb	-0.3294123
192	0xbbec4c94	-0.0072112773
193	0xbd8be8d7	-0.0683152
194	0x3dc5c62c	0.09656939
195	0x3eb2691e	0.34845823
196	0x3e624119	0.22095145
197	0xbc1935ca	-0.009351203
198	0xbe9329f2	-0.2874294
199	0xbe8f9b94	-0.28048384
200	0x3ca718d8	0.020397589
201	0x3e36434e	0.17799112
202	0xbe850d8f	-0.25986907
203	0xbbade057	-0.0053062844
204	0xbe46b6f2	-0.19405726
205	0x3b49e2df	0.0030805392
206	0xbc5bbba8	-0.01341144
207	0x3e7841f2	0.24243906
208	0xbd9b5161	-0.07583881
209	0x3b431acb	0.0029770609
210	0x3dcfa5ef	0.10139071
211	0xbe8648f6	-0.2622754
212	0xbe5cffd5	-0.21581967
213	0x3df5d5ce	0.12003671
214	0xbec46443	-0.38357744
215	0x3c77c65c	0.015122976
216	0x3af22da3	0.0018476736
217	0xbe57bf80	-0.21069145
218	0xbc8f323f	-0.017480014
219	0xbb802459	-0.003910583
220	0x3ea056ce	0.31316227
221	0x3e76a8b3	0.24087791
222	0x3eed00eb	0.46289763
223	0x3ec2c889	0.3804362
224	0x3e906001	0.28198245
225	0xbf19388b	-0.598519
226	0xbe851baf	-0.25997683
227	0xbce6c7aa	-0.02817138
228	0xbeebcc99	-0.46054533
229	0xbef616b3	-0.48064193
230	0x3e98bf87	0.29833624
231	0x3ea644e2	0.32474428
232	0x3e17af4e	0.14812967
233	0x3e9066ed	0.28203526
234	0x3eebf21f	0.4608316
235	0x3e2f24a4	0.17103821
236	0x3e82d65c	0.25554168
237	0xbc1e288f	-0.009653225
238	0x3cfcf511	0.030878576
239	0xbe1b7655	-0.15181859
240	0xbcc46297	-0.023972793
241	0x3bf8ca8e	0.007592506
242	0x3c612c28	0.013743438
243	0x3dd69de1	0.10479332
244	0x3c98287a	0.018573988
245	0xbd8c6295	-0.068547405
246	0x3df33158	0.11874646
247	0xbc5d6a98	-0.013514183
248	0xbcbe9c68	-0.02326794
249	0x3e0ca908	0.13736355
250	0x3eb96f57	0.36217758
251	0xbe2add08	-0.16685879
252	0xbca4ed14	-0.020132579
253	0xbd44036e	-0.047854833
254	0x3c968db5	0.018378118
255	0xbd3c04c8	-0.045902997

classifier.bias f4 [5]
0	0xbef5ef94	-0.48034346
1	0x3f7bfe9d	0.98435384
2	0x3f57b657	0.84262604
3	0xbf6224e3	-0.88337535
4	0xbeed30f4	-0.4632641

features.9 f4 [120]
0	0xbc9fcfa6	-0.019508194
1	0xbae17c8f	-0.0017203259
2	0x3e782a6c	0.24234933
3	0x3e55020c	0.20801562
4	0xbd31abf2	-0.04337687
5	0xbc042348	-0.008065052
6	0xbac885aa	-0.0015298624
7	0x3d931dbb	0.07183405
8	0x3c0a3c9c	0.008437302
9	0xbbef9e27	-0.0073125544
10	0xbc29f158	-0.010372482
11	0xbdd0dc6a	-0.10198291
12	0x3c99bb39	0.018766033
13	0x3c0a4e87	0.008441574
14	0x3dc113ec	0.09427628
15	0x3ca014ca	0.019541163
16	0x3dc90696	0.09815709
17	0xbc5cdf52	-0.013480978
18	0xbd92fd25	-0.0717719
19	0x3d282343	0.041049253
20	0x3c40cde6	0.01176784
21	0x3da182d3	0.07886281
22	0xbcd89b16	-0.026441138
23	0xbd2dcd04	-0.042431846
24	0x3d72d8a0	0.05928862
25	0xbd17640b	-0.036960643
26	0x3d7c56a5	0.06160607
27	0xbca1d4fe	-0.019754883
28	0x3de2e8f1	0.11079586
29	0x3d0ac46b	0.033878725
30	0x3d56ac16	0.052410208
31	0x3a922703	0.0011150542
32	0x3b0a9d5a	0.0021150918
33	0x38f94876	0.00011886742
34	0x3ca3d514	0.019999065
35	0x3c277d66	0.010222768
36	0xbcc4f232	-0.024041269
37	0xbc8669a2	-0.016407792
38	0xbad228d2	-0.0016033894
39	0x3c911e53	0.017714655
40	0x3c96e2d1	0.018418701
41	0xbb83a497	-0.0040174234
42	0x3d1ce57b	0.038304787
43	0xbca1114c	-0.019661568
44	0x3db35bc6	0.08757739
45	0x3d142f94	0.036178187
46	0x3c9d3dc1	0.019194486
47	0x3d576658	0.052587837
48	0x3c97ce28	0.01853092
49	0x3e0392a8	0.12848914
50	0xbbda08cd	-0.006653881
51	0xbca835fb	-0.020533552
52	0x3db29ddb	0.08721515
53	0x3d043b93	0.032283377
54	0x3c0053a6	0.007832443
55	0xbc33f61a	-0.010983968
56	0x3cb10ade	0.021611627
57	0x3b7a52a0	0.003819622
58	0x3cf9cab2	0.03049216
59	0x3c964615	0.018343965
60	0xbcdc73a4	-0.02691061
61	0xbbabdda8	-0.0052449293
62	0x3cf85129	0.030312138
63	0x3c544b70	0.012957439
64	0xbc03315e	-0.0080073755
65	0xbbacdcfb	-0.0052753664
66	0xbc08f214	-0.008358497
67	0x3ccc2250	0.024918705
68	0xbdab420f	-0.08362209
69	0x3d909a03	0.070606254
70	0x3caeb0d5	0.021324554
71	0xbd32f668	-0.043692023
72	0x3d21a873	0.039467286
73	0xbac549b3	-0.0015051871
74	0x3bb4ad1b	0.0055138
75	0x3db89d25	0.09014348
76	0x3db43304	0.08798793
77	0x3d00ca6a	0.031443037
78	0x3be21bcf	0.0069002877
79	0xbd0fe85a	-0.035133697
80	0xbcaf7f67	-0.021423055
81	0xbb4fda1b	-0.0031715694
82	0x3d86cd5f	0.0658214
83	0xbced3dd8	-0.028960153
84	0xbca3ee28	-0.020011023
85	0xbcf45355	-0.029824892
86	0x3dec3d18	0.1153509
87	0x3cab9533	0.020945167
88	0xbda789dc	-0.081805915
89	0x3dfabf3a	0.12243505
90	0xbbe4e3b2	-0.006985151
91	0x3ca8fc35	0.020628074
92	0xbd80d7f4	-0.0629119
93	0xbcf2b197	-0.029625697
94	0x3d906b96	0.070517704
95	0x3e0f884a	0.14016834
96	0x3d0d124a	0.03444127
97	0x3e0b96c3	0.1363173
98	0x3ca477d8	0.020076677
99	0x3bcf2f6f	0.006322793
100	0xbba5aafd	-0.005055784
101	0xbd7f67fe	-0.062355034
102	0x3c68d90c	0.014211904
103	0x3cb5aae7	0.02217622
104	0x3daa41a4	0.08313301
105	0x3c8d2de7	0.017233802
106	0x3c54ce1b	0.0129885925
107	0x3e3f7f9d	0.18701024
108	0x3d03bb24	0.032160893
109	0x3d9f8bf2	0.07790364
110	0x3c7fe16a	0.015617708
111	0x3d203eec	0.039122507
112	0x3d8f0f3d	0.06985328
113	0xbd0ba28b	-0.03409056
114	0xbd5c7ead	-0.053831745
115	0xbb8292af	-0.003984771
116	0xbd0cc951	-0.034371678
117	0x3c626232	0.013817357
118	0xbcb64235	-0.022248367
119	0xbd8135bc	-0.06309077
