checkpoints_lenet5/baseline_scratch/lenet5/medium_mammals/checkpoint-100.pth.tar (torch, 312216 bytes, 12 tensors)

features.0.weight f4 [6, 3, 5, 5]
00000000: d253 c6be 9a7c cfbd 1337 dbbc f859 a73d
00000010: 6993 093e f4c4 44be 3326 13bd bf12 38bd
00000020: 15dd 8e3d 1477 6e3e 0417 043d a087 42be
00000030: 9a46 2a3e e6ff 8fbe 9d3b 8abd 3ea5 c8bd
00000040: cbd9 1c3d bd88 80be 7877 b6bd 47a7 74be
00000050: 119c 35be 3d9c 68bd 4b5d 89bd 44bb c4be
00000060: 0132 e0be 9f2c c0bd 468d c13d 365f 8fbd
00000070: a472 82bd bdb5 893d a43d 9abe 7add 64bd
00000080: 2311 e33d baf4 11be 7aea fb3c 1d60 e3bc
00000090: d6c7 7f3d 9c9a 6abe 5ea6 56be 862f cd3c
000000a0: 8068 8cbd 0b14 8a3c 5dba 1cbc 7843 6ebe
000000b0: 0f10 83bd e290 ffbe 27e8 b3ba cc60 723d
000000c0: 1c30 10be 3858 3bbe 98ba 09be 48a1 11be
000000d0: 22c0 cebc ec5d 6c3d 74e3 9a3c 6266 9d3c
000000e0: 22d2 08bb e20d e23c c9d9 c13d 75ec 913e
000000f0: 8220 3e3e 014a 883e 71ad 6f3e bbe1 933e
00000100: 08f3 b73a d6b1 17be ed43 6f3e a647 d23e
00000110: e362 81bc 554c 593d 8569 b0bd 1847 723e
00000120: 3d72 b63e 073f 343e 1493 89be f29d 60bd
00000130: 21b3 5cbc 69cc af38 db2d 133e 79e8 5f3e
00000140: 304e 1d3d 6127 ec3d 5090 ba3d 0042 76bd
00000150: 5a8f 813c 7ca9 c9bd 2aca a1be 588c 0abe
00000160: 6578 443d ad9c 33bd c4d2 29be a630 1fbe
00000170: 9c29 e0be 45e2 62bd 9145 a4bd af73 923d
00000180: dcd1 bdbb 618c 61be 2840 49bd 73f7 78be
00000190: d419 3ebe dee2 20bd 04b1 823e 2e74 453e
000001a0: d40c 653e f34d 1f3e fa5d aabe 72c4 5f3e
000001b0: 91b3 9c3e bbe5 bb3d b355 29be 4fb2 3ebe
000001c0: f0a9 b0be 23e2 883c e317 d43e b105 6abc
000001d0: c3d3 8abe c7ea 20be 5708 473d b164 a63e
000001e0: da14 40be 519e 1fbe d9fe 25bd edf2 093e
000001f0: 3d3d 093e 88e9 19bb 6fc7 b7bd cbf8 8e3e
00000200: 9fa7 3e3e a11f 683e 6f54 bdbc fed4 3f3e
00000210: 6b45 a23e b061 483e ce79 5e3c 01a7 0cbc
00000220: 5d00 5cbd 06f0 08bb 13e4 023e a0dc 8e3e
00000230: ef45 5b3c 7fd4 15bd ce37 2bbe 2a4a a93d
00000240: 489a 973c 8987 7a3e 155a 2fbe 0c8f d1bd
00000250: b00b c63e e027 5cbd 4c6b 133e 868d b63e
00000260: a8e3 003f ed95 893e a747 7bbe 0395 113e
00000270: a4d6 ee3e c501 2a3f c095 00bc 7c84 9fbe
00000280: 26d3 bdbd 4114 9dbd bbff 8bbe ee35 0bbf
00000290: 41aa 65be eb74 6b3d 55e0 88be c49c 89be
000002a0: 5e2c e1bd 9bd9 5fbd f3de a5bd a7cd fabc
000002b0: ce00 ab3c 69e2 9abe 3d7b 8a3c c40b dfbc
000002c0: d76b 0e3f ed22 083f 3369 ae3e 1626 abbe
000002d0: 9ef1 a83d a0ea cf3e ca2f 113f 7fda 323e
000002e0: b7b5 51be 43b6 1cbe d1d7 e7bd 388b d5be
000002f0: ab15 01bf 757a 27be 86cd 44bd 96c7 1abe
00000300: 8bef 9fbe d109 8fbe e6f4 a3bd 1b91 79be
00000310: 6a62 803d a8fd fdbd 8ed3 a8be b68e 05be
00000320: e385 d2be 1ba2 1dbc aa4e 073f 2200 b43d
00000330: 1e41 84be 7454 10bd 6c32 c53e 407d 1e3f
00000340: d8d6 5dbd 1c30 70be a9c9 54be 983d b7be
00000350: 4ae1 c3be 2253 b8be 71e7 03be 2c7a 013e
00000360: 058f c03c f3a1 02be 56a9 0f3e fe35 aa3e
00000370: 856d 7c3d 198f ae3e 625d 8b3d c3c3 553e
00000380: 2525 5a3e b0b3 65be 20fc 94bd 413b fcbd
00000390: 0abe a43a 16da 6a3e 1bac 2cbd d26c 89bc
000003a0: ac3a a13e e219 7a3e 077b d63d b7d7 e23d
000003b0: 2331 083d 6fbc ce3d 40ad 9a3e 2e6c a03e
000003c0: 96c8 023e a1a7 d5bc 0aab bc3d 2b98 b63e
000003d0: 2d42 093f ea33 143e 5790 99bb 8a4d 113e
000003e0: aa73 b03e bca2 e33e 9578 84be df71 7dbe
000003f0: 4e11 c0be f6cf f8bd bd03 1dbe 03ab 3abd
-0.38735825 -0.10131188 -0.02675966 0.08171457 0.13435139 -0.19215757 -0.0359251 -0.044939753
0.06975762 0.23287612 0.032248512 -0.1899705 0.16628495 -0.28124923 -0.067496516 -0.097971424
0.03829364 -0.25104323 -0.089095056 -0.23891936 -0.17735316 -0.056789625 -0.06707247 -0.38424122
-0.4378815 -0.09383511 0.09450774 -0.07000582 -0.06369522 0.06724117 -0.30125153 -0.05587528
0.11087253 -0.14253512 0.030751456 -0.027755791 0.062446438 -0.22910541 -0.20961902 0.025047075
-0.06855869 0.01685526 -0.009565917 -0.23267925 -0.06399547 -0.49915224 -0.0013725803 0.059174344
-0.14080852 -0.18295372 -0.13450086 -0.1422168 -0.0252381 0.05770676 0.018907286 0.019213859
-0.0020877202 0.02759451 0.09465367 0.28500715 0.18567088 0.2661896 0.23406006 0.28883156
0.0014034221 -0.14813933 0.23365755 0.41070288 -0.015794223 0.05305131 -0.08613876 0.23659933
0.35634032 0.17602168 -0.26870024 -0.05483813 -0.013470442 8.3827246e-05 0.14372961 0.21866025
0.038404644 0.115309484 0.09109557 -0.060121536 0.015815426 -0.0984678 -0.3159955 -0.135301
0.04796638 -0.04385059 -0.16584307 -0.15545902 -0.43781745 -0.05539157 -0.08021081 0.07150971
-0.0057928395 -0.22026207 -0.04913345 -0.24313144 -0.1856454 -0.039278857 0.25525677 0.192826
0.22368175 0.15557079 -0.33274823 0.21852282 0.30605748 0.09174677 -0.16536598 -0.18622707
-0.34504652 0.016709393 0.41424474 -0.0142835835 -0.27114686 -0.1571456 0.048591938 0.32498696
-0.18757954 -0.15587737 -0.040526245 0.13471575 0.13402267 -0.0023485143 -0.08973586 0.2792419
0.1861863 0.22668315 -0.02311155 0.18733594 0.31693587 0.19568515 0.013578845 -0.008584739
-0.053711284 -0.0020895018 0.12782316 0.279027 0.013383373 -0.036579605 -0.16720507 0.08266099
0.018506184 0.24465765 -0.17124207 -0.10232362 0.38680792 -0.053748965 0.143964 0.3565485
0.50347376 0.26872197 -0.24539052 0.14217 0.46648133 0.6640895 -0.007848203 -0.31155765
-0.09268789 -0.07669879 -0.27343544 -0.54379165 -0.22428228 0.05748455 -0.26733652 -0.26877415
-0.109947905 -0.054650884 -0.08099165 -0.03061564 0.020874407 -0.30250862 0.016904468 -0.02722729
0.556333 0.5317829 0.34064636 -0.33427495 0.0824921 0.40608692 0.56713545 0.17466162
-0.20479475 -0.15303902 -0.113204606 -0.41707778 -0.5042369 -0.16355307 -0.048047565 -0.15115198
-0.31237444 -0.27937177 -0.08005695 -0.2437176 0.06268771 -0.12401897 -0.32973903 -0.13042721
-0.41117772 -0.0096211685 0.52854407 0.08789088 -0.2583093 -0.03523679 0.3851503 0.61909866
-0.05415997 -0.23455852 -0.20780052 -0.3578918 -0.3825782 -0.36000925 -0.12881257 0.12644261
0.023505697 -0.12757091 0.1402944 0.33244318 0.061627883 0.3409355 0.06804921 0.20875458
0.21303232 -0.22431827 -0.072746515 -0.12315989 0.0012568843 0.22934756 -0.04215632 -0.016775522
0.31490076 0.24423936 0.10472684 0.110763006 0.033249985 0.100945346 0.30210304 0.31332535
0.1277183 -0.026080908 0.092123106 0.3566297 0.536166 0.14472929 -0.004686396 0.14189735
0.34463245 0.44460094 -0.25873247 -0.2475047 -0.37513202 -0.121490404 -0.15333457 -0.045573246

features.3.weight f4 [16, 6, 5, 5]
00000000: 5f33 1dbe f775 18bd 2e45 acbc 3e48 283c
00000010: a9f9 113e 006e 52bd e148 0dbe 9745 99bd
00000020: 6144 a3bd b442 f13d 1663 ddbd 4c6a 61bd
00000030: 3a41 22bd 2b86 17bd 4b7e d53d efb3 c4bd
00000040: 2cfc 253c b0e0 1c3e 9c39 1c3e c090 9dbd
00000050: 2c8d 7abe e18d 503d 2b8a 6b3c 5b1b 27be
00000060: 2b1a 0ebe e782 693d 001a 3cbe d617 2abe
00000070: b8f8 293d e1d7 843e 8a70 403e cfa2 cfbc
00000080: be82 26be 1554 34bc fbef 563d 8507 cd3c
00000090: 1ebc c23b cbff 443d b620 073d 73f7 253e
000000a0: fa39 96bc 3996 873d b4b8 82bd 5fda 9d3c
000000b0: c9bb 60bd 5b47 7e3d 4a14 453e 700b 563e
000000c0: f97f 083e d9e6 b9bd b107 2bbc 2d6c 80bc
000000d0: 1f25 89bd d7d1 dabd 827c 02be 98d7 a2bd
000000e0: 0e7d 403d 40db 203d 4cf2 73bd 8415 99bd
000000f0: 4dee 3fbe af5b ebbd 06f2 4abc dcfd d3bd
00000100: 6084 bebd 6e38 75be 03f2 9cbd 304a d6bc
00000110: e94f 953a 7a8d 23be 3182 33be 6f25 7cbd
00000120: f679 393e 85cc 313e bd77 11be d2ec b4be
00000130: f708 4fbd ca6c b93d a03b e7bc 98bc 48be
00000140: d9f2 36be 69ee e63d 769d b23e f3a6 2a3e
00000150: f95e 3e3d 00d8 45bd 9fe3 3e3a f260 af3d
00000160: 36ff e53d 08c8 eabd 8341 9bbd 4959 a6bd
00000170: ac92 5c3c 5f49 f3bd 5c3b 26bc 70e2 7f3c
00000180: 9f29 69be fc19 82be 56dd 29be 398f dd3c
00000190: b2aa debe d9b2 c33e 5005 4e3f c0cb 1b3e
000001a0: 8f39 bbbe 4df1 0fbe fbf3 303f 0111 833f
000001b0: 4702 f03e 2ae9 c5be c519 3cbe c4d8 333e
000001c0: de44 d13e 2ed7 873e 8762 33be b7bf 4cbe
000001d0: c653 94be 8081 febe 9bd5 37be cb39 dabd
000001e0: 0dfd 803d 28fa 17bf e44d 21bf 3687 bbbe
000001f0: 9a18 3b3d 88cb 50be b419 27be e5b9 4cbe
00000200: 5083 55be 069e 0abe d1ea 38bd 2029 9b3d
00000210: 7c33 0d3d 3e21 42bd 64a0 c93c 8785 1b3e
00000220: 6a31 c43e b8b5 a83e 0ad8 4d3e 59d7 f23d
00000230: 6abd 6abb 5a66 083e 78f7 2d3d 8034 12be
00000240: 2552 27be a69e 67be 3c7d f63d 267c dc3c
00000250: 8530 82be f3cb 83be a748 413e abca 86bc
00000260: 6bc8 bd3d bace c73c af82 d43d adfc 7c3e
00000270: 53ba b1bd 4289 183d 7deb babd 3708 bebd
00000280: ffee df3d 5de0 f1bc c340 bbbd 3d19 debb
00000290: 8e30 803c b4e6 9c3e f72c 873d dcf2 babc
000002a0: 4ff7 94bd 7908 74bd 91f6 a63e d45e 8a3e
000002b0: 382f 1a3e a921 7d3d e94f df3d 8bdc 9dbc
000002c0: 3994 233e ee73 fcbd 904e a23d fce9 313b
000002d0: 46e7 b8bd a808 efbd 8a75 c63c 146e 80bd
000002e0: 754b bbbd 6149 debd 1c5e 093d 43bf 973b
000002f0: e752 f9bc ee06 5c3c 277f 053d 4ccb 73bc
00000300: 397d 093d cabe bcbd a428 32bd 6d54 d3bd
00000310: f1bb 053e d622 203e 7540 a4bc f1ff 12bd
00000320: d8ef 473e e5b3 77bd 12d2 d53d eb2b 5f3b
00000330: ea0a 153e 72bb 153e 7d08 2bbd 7d03 8a3d
00000340: d8a7 f2bd 9500 88bd 4c4a 283e 47c4 4abe
00000350: e893 63be eb82 f8bd 4e62 013e b95f f43c
00000360: 3a0b 8dbd e611 a3bd 2a52 bcbd 6be3 923d
00000370: 16f5 243d 42eb 6e3c eebb 3fbe 3eaa a5bd
00000380: 2a08 0ebe 418a 09bc 9489 6d3e 2559 a6bb
00000390: 1ce7 a43d e286 babd 4f84 89bd ad70 253c
000003a0: f58c 08bd 309d be3d 28c6 47be 75d2 0e3e
000003b0: ffff a43d ec98 27be 868e 683d f2d6 04be
000003c0: 81f5 95bc 1703 9f3d f02d 703d 972b 70bd
000003d0: 9326 3cbe 2370 d7bc 6a26 a9bc e072 30be
000003e0: 69b9 eabd 355e 2dbe 4525 913d 5b25 c3bd
000003f0: 45e3 8abd f9b5 17be 86e4 c6bd 54d2 153d
-0.15351628 -0.037221875 -0.021029081 0.01027113 0.14255394 -0.051374435 -0.13797332 -0.07483976
-0.079720266 0.11780301 -0.10809915 -0.055033013 -0.039612986 -0.036993187 0.10424479 -0.09604632
0.010130923 0.15320086 0.15256351 -0.076936245 -0.24467915 0.050916556 0.0143762035 -0.16319029
-0.1387717 0.057009604 -0.18369293 -0.16610655 0.041496962 0.25945953 0.1879293 -0.025346188
-0.16260812 -0.011006375 0.052474957 0.025028 0.0059428355 0.048095506 0.03299018 0.16207676
-0.018338192 0.066204496 -0.063828856 0.019269167 -0.054866586 0.06207977 0.19246021 0.209028
0.13330068 -0.09077234 -0.0104388455 -0.015676582 -0.066965334 -0.10684555 -0.12742808 -0.079512775
0.04699426 0.039271593 -0.059557244 -0.07474807 -0.18743248 -0.11492097 -0.012386804 -0.10351154
-0.09302592 -0.23947307 -0.076633476 -0.026158422 0.0011391613 -0.15971938 -0.17530133 -0.061559137
0.1811293 0.17363174 -0.14205833 -0.3533693 -0.05054566 0.09053953 -0.028226674 -0.19603193
-0.17866077 0.11275942 0.34885758 0.16665249 0.04647729 -0.048301697 0.0007281843 0.08563413
0.11230318 -0.11463934 -0.07580855 -0.081224985 0.013462704 -0.11879229 -0.010145988 0.015617952
-0.22769783 -0.2541045 -0.16588339 0.027045833 -0.43489605 0.38222387 0.80476856 0.15214443
-0.3656735 -0.14056893 0.69122285 1.0239564 0.46876737 -0.38654453 -0.18369205 0.17563158
0.40872854 0.26531357 -0.17518054 -0.19995008 -0.28970164 -0.49708176 -0.17952578 -0.106555544
0.062982656 -0.59366083 -0.63009477 -0.36626595 0.04567776 -0.20390141 -0.16318399 -0.19992788
-0.20850873 -0.13536844 -0.045145813 0.07576203 0.034472927 -0.047394983 0.024612613 0.15187655
0.3831895 0.3295114 0.20101944 0.118574806 -0.0035818466 0.13320294 0.042472333 -0.1427784
-0.1633993 -0.22619113 0.12035605 0.026914667 -0.25427642 -0.25741538 0.18875371 -0.016454061
0.09266742 0.024390567 0.103764884 0.24705763 -0.08678117 0.037240274 -0.09126947 -0.092789106
0.10934257 -0.02952593 -0.09143212 -0.006777911 0.015648153 0.30644763 0.06600373 -0.022820882
-0.07273733 -0.059578393 0.3260999 0.27025473 0.15057075 0.06179968 0.109039135 -0.019270202
0.15974511 -0.12326799 0.07925141 0.0027147522 -0.09028487 -0.11671573 0.024225969 -0.06270996
-0.09145252 -0.1085384 0.033537015 0.0046309545 -0.030435039 0.013429387 0.032591965 -0.014880013
0.033566687 -0.092160776 -0.04349579 -0.10318837 0.13059975 0.15638289 -0.020050267 -0.035888616
0.19525087 -0.060474295 0.10440458 0.0034053277 0.14554945 0.14622286 -0.041756142 0.067389466
-0.1184842 -0.06640736 0.16434592 -0.19801436 -0.2222439 -0.121343456 0.12635157 0.0298308
-0.06886907 -0.07962398 -0.09195359 0.07172283 0.040272795 0.014582457 -0.18724033 -0.08089112
-0.13870302 -0.008394779 0.23197013 -0.005076545 0.08051893 -0.09107758 -0.06714689 0.010097665
-0.033337552 0.09307325 -0.19509184 0.1394747 0.0805664 -0.16366929 0.056776546 -0.1297262
-0.018305542 0.07764261 0.05863756 -0.05863532 -0.1837409 -0.026298588 -0.0206482 -0.17231321
-0.114611454 -0.16930468 0.07087187 -0.09528609 -0.067816295 -0.14815511 -0.09711556 0.036577538

features.7.weight f4 [120, 400]
00000000: 94f1 7c3c 8614 03bc 7e48 69bd bd57 a93b
00000010: ca06 943c ebd7 eb3b 6aec da3c 97a7 f93c
00000020: 71b7 d63c 87b0 c039 35f8 e53b 4612 253d
00000030: ba14 553d 1b43 053b 24ff 8a3c ac8d e2bc
00000040: 8744 82bc 90bd 1b3d 747c afbb 3aa7 84bc
00000050: fb64 eb3a 60ab 113d 8555 f43c 9f00 63b9
00000060: 2d42 a33c a485 eabc 2494 ca3b 2063 243b
00000070: 1208 343d c42b b13c 6a56 7f3c 95e7 55bb
00000080: 4f44 63bc 0bed 2fbc b19a a73c 2f52 503d
00000090: 4836 54bc 0c7c 0dbd 75d1 d3bc dc4a c73a
000000a0: 6d1d b83c 37ac babb 77f2 6ebc f9e2 353b
000000b0: 2ab1 0a3d 5e54 543d bd8c 473b 056b 46bd
000000c0: 8ed5 43bc 189c f33c aab7 3ebc 1098 303c
000000d0: ba47 14bd 7f68 08bd 3d79 cd3c 3533 2fbd
000000e0: 38e2 0abc adea 82bb 0e01 a7bc c046 acbc
000000f0: 267b 00bb a681 50bb 861d 8d3a 3605 5f3c
00000100: 41e7 ad3c 69a2 fc3b b864 993c 5a52 c8bb
00000110: b17a 3e3c 8b7d 393b ccde 253c 8846 3cbb
00000120: dff5 7239 8b40 46bc 684f 293d bf69 b6bc
00000130: cac9 d1ba 9619 d8bc 0a09 b9bb 56b5 b0bc
00000140: 525e be3c f7c5 0d3d f907 56bd c0ba 393c
00000150: fe64 e03c ead2 463c 1638 c93b 2f4a c2bc
00000160: f528 aebb 14b1 b83c 31ec e43a 94a5 2fbc
00000170: 6891 ce38 bbf2 25bc 0344 963b 32cd 90ba
00000180: 31ca 823a 5d2c 503c 89ff db3c 0e40 893c
00000190: cdce 98bd 8e41 8d3c cb0f 99b8 ae70 613c
000001a0: b82e 773d 5337 31bd fdcd 333c 826a f43c
000001b0: 80bb 8d3c 2626 de3c 9cdd 6bbd bd7a 07bc
000001c0: 1ce6 1cbc 9f06 22bc 4851 82bc 434f 97bc
000001d0: 0a1c 25bc 0a66 3ebc 47f8 a739 0739 b93a
000001e0: b7d9 34bc 1cee 1e3b d878 44bd 75e0 17bd
000001f0: 3d19 1dbd 09a7 0e3d eac3 8f3d 2687 003d
00000200: 7d54 0dbc e41c 4cbb a679 a73b b7c9 2c3d
00000210: 2b2b b63c abb7 80bc f5fe 8a3a 4599 6d3d
00000220: c93c 4c3d e9dd 6b3d 16fa 0c3d 7c26 3a3d
00000230: 90c7 b63c 5981 ad3c 5f1d a03c a085 783c
00000240: fa21 d33c b971 20bd d687 3abd c105 cb3c
00000250: 20ef a2bc d891 46bd a92a 2b3d 79ab 2dbc
00000260: 9ca5 d13b a0b8 753b 0016 b13c 2cbe 3e3b
00000270: 97e4 0d3d 13e3 edbb d8cb c2bb 5a3c 6abc
00000280: 947e 803c 2929 b7bb 3e77 f53b b74f 48bc
00000290: b091 16bc ca8c adbc fb25 a9bb e2f0 ad3c
000002a0: 2a00 cebb 0e69 68bc abe3 0e3c fc25 2e3c
000002b0: 2b8a b93c 03f2 4c3c b890 093d d03a aabc
000002c0: 6879 bd3c b41d 423d 9a26 ad3c 63e2 49bc
000002d0: c493 ddbb e0b6 313d 14f5 a03d b263 943c
000002e0: 85c0 a23c c16a fd3b 0c84 433d e59d 353d
000002f0: 163f 253d dff3 c83c 57b9 4aba 90c1 c83c
00000300: cfaf a33c c7ca 9fb9 ccdd 56bb ecfa 61bc
00000310: 823d 9e3b 0fce dd3c f615 893b dc00 35bd
00000320: 067b c2bb 94f8 44bc 25f5 be3c e282 e13c
00000330: 6852 21bd 0c56 8bbc a7d7 1bbd bac4 53bd
00000340: 3ff9 753c 58c9 303c 6bfe 1bbd cb0c f6bc
00000350: cdbb cdbb 128f 69bc 1fa6 463c d557 f439
00000360: 1b4e ebbb 8ad1 14bd ba6f 16bd 30b7 50bd
00000370: e2a5 7b3c 4e2d 40bc 7ddf 653c ae91 6a3c
00000380: 2133 9bbc bc55 833c e871 4d3d 5f65 b03b
00000390: 0b0f 033c ade2 fdbb 1462 dcbc ed21 b13c
000003a0: 6089 e73c f717 b73c a74c c0ba 7426 e13c
000003b0: c193 8f3c 91cc 743c f2fe 783d 8ebf 283d
000003c0: 179c 153d 15ca 1f3d 9699 533d 77eb 873d
000003d0: d16d 5b3c 60c4 2b3d 71c5 113d 5be0 3e3c
000003e0: 91b6 f43b d174 ca3a 212c 303a cf1f e53c
000003f0: 67d6 f63b 35b1 cbbc b29d 24bd 23f6 c23c
0.015438456 -0.008000499 -0.0569539 0.00516793 0.018069644 0.0071973703 0.02672406 0.03047542
0.026210519 0.00036752617 0.007018114 0.04030063 0.05202172 0.0020334187 0.016967364 -0.027655445
-0.015901817 0.038022578 -0.005355412 -0.016193021 0.0017959172 0.035563827 0.029825935 -0.00021648638
0.019929016 -0.028628178 0.0061822105 0.0025083497 0.04395301 0.021627314 0.015584568 -0.0032639254
-0.0138712665 -0.010737668 0.020459505 0.050859626 -0.012952395 -0.03454213 -0.025856713 0.0015204805
0.022474969 -0.005696799 -0.014584175 0.0027753694 0.033860363 0.05183827 0.0030448877 -0.048441906
-0.011952771 0.029737517 -0.011640469 0.010778442 -0.036201216 -0.03330278 0.025082225 -0.042773444
-0.008476786 -0.0039952607 -0.020386245 -0.02102983 -0.0019604652 -0.0031815558 0.0010766245 0.013612082
0.021228435 0.0077097905 0.018724784 -0.0061133327 0.011625932 0.002830359 0.01012392 -0.0028728563
0.00023170513 -0.012100349 0.041335493 -0.02226722 -0.0016005572 -0.026379388 -0.0056468295 -0.021570843
0.023238335 0.034612622 -0.052253697 0.011336029 0.027391907 0.012135247 0.006140719 -0.023717014
-0.005314941 0.022545375 0.001746541 -0.010720629 9.8499295e-05 -0.010128672 0.0045857443 -0.0011047481
0.0009978471 0.0127058895 0.026855247 0.016754176 -0.07461319 0.017243173 -7.29855e-05 0.013759775
0.06034729 -0.043265652 0.010974404 0.029835943 0.017301321 0.0271178 -0.05758439 -0.008269009
-0.009576347 -0.009889274 -0.015907899 -0.018470412 -0.010077486 -0.011621008 0.00032037703 0.0014131375
-0.011038235 0.002425081 -0.047966808 -0.037079293 -0.038354147 0.034827266 0.070197895 0.031378888
-0.008626101 -0.003114515 0.005110937 0.042184558 0.022237381 -0.01571258 0.0010604548 0.058007497
0.049862657 0.057584677 0.034418188 0.045446858 0.022311956 0.021179842 0.019545255 0.015168577
0.025773037 -0.039170954 -0.0455397 0.024783017 -0.019889414 -0.04847893 0.04178873 -0.010599964
0.006397916 0.0037494078 0.021616936 0.002910505 0.03464183 -0.0072597354 -0.00594471 -0.0142966155
0.015685357 -0.0055896235 0.0074910214 -0.012226037 -0.009190008 -0.021185298 -0.0051619983 0.021233026
-0.0062866407 -0.014185203 0.008721272 0.010629173 0.022648891 0.012508872 0.03358528 -0.020779997
0.02312918 0.04739161 0.02113657 -0.012322041 -0.006762 0.043387294 0.07859245 0.018113945
0.019867191 0.0077336733 0.04773335 0.044340033 0.040343367 0.02453035 -0.0007733306 0.02450636
0.019981293 -0.00030477924 -0.003278601 -0.013792735 0.0048291096 0.027075795 0.004183526 -0.044190273
-0.0059350757 -0.012022156 0.023310253 0.02752823 -0.03938523 -0.017008804 -0.03804746 -0.051701285
0.015013038 0.010790192 -0.03808443 -0.030035397 -0.006278491 -0.014255302 0.012124567 0.00046604747
-0.0071809418 -0.036332645 -0.036727645 -0.05095595 0.015359374 -0.0117295515 0.014030335 0.014316959
-0.018945279 0.016032092 0.050157458 0.005383178 0.007999192 -0.007747969 -0.026902236 0.021622622
0.028263748 0.022350295 -0.0014671282 0.027484156 0.01752651 0.014941351 0.06079001 0.041198306
0.036525812 0.03901108 0.051660143 0.06636708 0.0133928815 0.041935325 0.035588685 0.01165017
0.0074680527 0.0015446191 0.0006720443 0.02796927 0.007532883 -0.024864772 -0.040189452 0.023799008

features.7.bias f4 [120]
00000000: d7a5 2abd 05b9 763c ca2c eabd b89b f83c
00000010: decd 31bc d52a 75bb 0753 cd3c 26b8 d5bd
00000020: fd64 613d 5a26 97bd 9664 aebc a9bc 4abd
00000030: 01d2 b13c bc92 a83d c1db e33d 178e 403d
00000040: e12b 51be 5a21 013e e2fe 14bd f8dd 1cbd
00000050: 3b40 923c aa9d 003a 8835 acbd 9511 58bc
00000060: 6832 593c b18c 743c 00ef 963b f853 903d
00000070: da2e 2bbe dbf3 463d 72ff bbbd 4eac 823c
00000080: 7965 b03c 1ccb 7d3d b540 7bbc fafd 763d
00000090: 2a10 68be 60f7 6c3c 6a6e 783c d6e2 383e
000000a0: 422a a3bb 0803 e43d f0af 7ebd bc44 c8bd
000000b0: 533f 34bb 5990 7f3b 5cdc 273c 027a f6bc
000000c0: 61f4 bc3d ac42 63bd 1aa8 063d eb66 d73d
000000d0: c131 9b3c 54b9 233c c049 a33b 2ac8 9abd
000000e0: 6399 84bd eee8 12bd 26bb 09bc bd11 973c
000000f0: b2c4 24bb bf5a a83c 2830 70be 5734 adbd
00000100: 572d 30bc f049 3e3c 1d80 3dbd caba c8bd
00000110: ecfc c13c 15c1 aebd 4e38 183e fd3e f6bd
00000120: d358 58bd 252c 01be e518 773d ebbf c4bc
00000130: f0e6 10bc b66e e4bd 03c1 f03d d802 52be
00000140: 6af4 07bc 6e9f 9ebd d205 f2bd f723 31bd
00000150: 45eb 00be 1183 0d3c 433a 463d 7c48 313a
00000160: c079 853c d8ef 363d 0460 22be d762 11be
00000170: aa14 e63d c34f c9bc 7a3e a8bd deda 423d
00000180: f61d 83bc 0e64 243d c5c5 993d 83be ca3b
00000190: 3bcf 0bbd e992 743d 193e 26bc 2b80 d33d
000001a0: b3bd 91bd faf9 c1be 2c6f bebb fe5c 88bb
000001b0: 8104 c5bd 2bce cabd d403 5dbc 5927 c73d
000001c0: 947e 0a3c 5e2e 3cbe 7ba4 073d 98a7 cc3d
000001d0: 05df 05be d370 74bd 6b19 f3b9 2de2 36bb
-0.041662063 0.0150587605 -0.11434324 0.03034769 -0.010852305 -0.0037409563 0.025064005 -0.10435514
0.05502795 -0.07380362 -0.021288197 -0.049496327 0.021706583 0.08231112 0.11125899 0.047010507
-0.20426895 0.12610379 -0.036375888 -0.038297623 0.017852893 0.0004906306 -0.08408648 -0.013187786
0.013256647 0.014926122 0.0046061277 0.07047266 -0.16717091 0.048572402 -0.09179582 0.015951302
0.021532761 0.06196128 -0.015335252 0.060300805 -0.22662416 0.014463276 0.0151630435 0.18055281
-0.0049794028 0.11133391 -0.062179506 -0.09778735 -0.0027503564 0.003899595 0.010245409 -0.030087475
0.09226299 -0.055483505 0.032875158 0.10517677 0.018944623 0.009992916 0.004983157 -0.075577095
-0.06474569 -0.03586667 -0.008406436 0.018441075 -0.0025141654 0.020551084 -0.2345587 -0.08457249
-0.010752997 0.011614308 -0.046264756 -0.09801252 0.023680173 -0.08532921 0.14865229 -0.12023733
-0.052819084 -0.12614496 0.060326476 -0.024017295 -0.008844122 -0.11153929 0.11755564 -0.20508897
-0.008298019 -0.077452525 -0.118175164 -0.04324719 -0.12589748 0.008637206 0.048395406 0.0006762815
0.016293406 0.044662327 -0.1585694 -0.1419786 0.1123441 -0.024574166 -0.082150415 0.04757201
-0.016005497 0.040134482 0.07508425 0.0061872615 -0.034133177 0.059710417 -0.010146641 0.103271805
-0.071162604 -0.3788603 -0.0058115926 -0.004161476 -0.0962 -0.09902605 -0.013489682 0.09724302
0.00845303 -0.18377063 0.033115845 0.099929035 -0.13073356 -0.05967791 -0.0004636751 -0.0027905807

features.9.weight f4 [84, 120]
00000000: b420 a9bd 6ded 073b ca22 593c d784 60bd
00000010: 9dc9 e9bc f315 373c fd06 1ebc d398 a4bd
00000020: b625 173e 155a 5d3d 8625 89bd 44f8 46bd
00000030: e02a eb3c 1bb3 f3bb 6fc4 ba3d 7e7c 8a3d
00000040: 3a48 bebc 241a a13d 452f 8d3b fd94 e9bc
00000050: d361 3cbd 903b 84bc 84f9 97bc ac5e 27bd
00000060: 381a 273c e9f8 9fbc 08db 953c da3a 05bd
00000070: 0dd2 bd3c b449 ca3b 1024 bbbd 4c9e 133d
00000080: 9fa8 d5bc d646 3fba 5bd8 b03c afd2 5b3c
00000090: 77b2 563d a714 aa3c 3c5b 173c 65c0 c4ba
000000a0: a396 0d3d 7354 9fbd a05b 263d 6f48 233d
000000b0: 5e16 1a3d 79df f53b 0dff bdbc 850c 283d
000000c0: 626d 00bb a8a4 1ebd 6e55 873d 59eb b5bc
000000d0: 046f fd3a 8e14 653d 7148 493d 265b 033d
000000e0: 0cb4 d7bc 1f18 d6bc 09e1 093c 377e 813d
000000f0: 1af3 093b 1925 2fba 0586 c8ba d1e2 d3bc
00000100: 6266 e2ba ff2f 7f3c e889 163c 733f 98bc
00000110: 3b79 c33c 34a6 64bc 95e0 413c a9bd b03a
00000120: 691f 48b9 b7f1 28bd e0b0 1fbd 22e4 49bd
00000130: 37b7 4e3c 2a5b adbc 9fd3 9e3c 470a cf3d
00000140: 3270 10bd 5014 d3bd 871e cdbd 1be0 b43d
00000150: 5831 223d 588c 2cbc 15b5 3ab9 e79c 473c
00000160: 1860 263d 8cc3 3cbd 2178 aa3d 5990 7dbd
00000170: 32e9 e43d d537 a43c d71e 4cbd 30be ef3c
00000180: 581e 0c3e a9f1 a33d 6d49 413d ec0b 97bd
00000190: e8d9 b13c 6424 26bb 98ce 7cbd b4df ab3c
000001a0: 7c35 48bd fc1c 1fbd b9b8 7a3c 135b 17bd
000001b0: db02 c7bc 048e c13c d29c 9f3d fb55 56bc
000001c0: 9edf de3c 3c87 493d 83bc 7c3c dd38 4fbd
000001d0: 93ba 21bd 4117 06bd a21d af3c 777b 243c
000001e0: 139d 7fbc 1e95 cbbc 81fc 153c adcc b83b
000001f0: 691e 8e3a aac1 acbb 18eb faba 2b22 ed3b
00000200: dd08 263c 4d87 573b abf5 a2bc e495 babc
00000210: 2ac7 883c b2e9 91bc 52ad c13b bd32 873c
00000220: fb66 1dbc 7e09 193d 5e52 88b8 69f2 183d
00000230: 6f4c 83bc ae67 fabb ba7a 65bb afe8 8e3c
00000240: bc9c e13b 7e75 dc3b 478e a839 e3e7 293d
00000250: 9b22 d53b f7ad 5cbc 037c bf3b 0245 a03c
00000260: 382c 913c 642f 40bc 8e66 3ebb 1239 8bbc
00000270: a42d 263d 7abe d4bb 4563 28bc b776 3a3b
00000280: 897b db3b 2589 2abc 7ce5 b6bc 229f 2abc
00000290: b2bb 693c 09ad bc3a 4206 c7bb 6507 703c
000002a0: e410 aa3b 193c 843c 9534 5e3d 74e6 2f3c
000002b0: d047 103c b1ee 79bc 5519 bbbc 9439 b1bb
000002c0: 7ca8 ea3b 6440 343c e6e6 d53c c09d 19bc
000002d0: 6eb5 7dbb 5aea e3bc b4a0 3a3c 6e4a 2fba
000002e0: a9af e2bb 6570 973b 81e8 d93b cc47 1d3c
000002f0: c830 e9bc 18cf 6ebb eb67 283c d79b 3bbc
00000300: 18b8 62bc c58d a6bc d6f9 793b fd87 3a3c
00000310: 3048 15bd e214 693c 1f73 1bbd 282a abbc
00000320: 49f3 af3a a1d4 5f3b ea7b 1bbc 7a33 2dbc
00000330: fca7 9abb 1118 adbb c209 a53c dd03 2b3b
00000340: 85f6 f53c 7be0 953c 9f20 89bd 3645 ab3c
00000350: 262a 013c 5234 123c 93a3 143d ffb0 453d
00000360: d252 9a3a afe1 803c 226d 053d 188c 873c
00000370: 18f4 ab3a 4feb 5abc c93b 6d3c 346c 823c
00000380: 47f3 44bb 108b 5f3c 7c56 d3ba 463d c33c
00000390: 3ac0 e5bc f6a4 95bc 8cc2 d8bc bde0 3c3c
000003a0: 1da5 d33c 136f dfbc a223 8bbc c672 ac3c
000003b0: e277 f8bc c3c3 e8bb 44c4 a5b9 b471 38bc
000003c0: 6500 bc3d 61cb 9f3d afae 22be 5688 9ebc
000003d0: 2ead 2f3d d867 223d 9fe1 d8bb 6dbe c13d
000003e0: 012c 94bd b46e fabd fe99 b33d eb4a 9b3d
000003f0: 136f c4bd 51e1 8abd 30c5 9abd eec5 e4bc
-0.08258191 0.0020740882 0.013252923 -0.054814186 -0.02853852 0.011174667 -0.009645221 -0.080369614
0.1476048 0.054040987 -0.0669661 -0.04857661 0.028706968 -0.0074371225 0.09119498 0.06762026
-0.0232278 0.07866314 0.0043086135 -0.028513426 -0.04599173 -0.016141683 -0.018551596 -0.04086177
0.010199122 -0.01952787 0.018292919 -0.03252683 0.02317145 0.006173337 -0.09137738 0.036039636
-0.026081381 -0.0007296627 0.021587541 0.01341693 0.05241629 0.0207618 0.009238061 -0.0015010951
0.034567486 -0.07779779 0.040614724 0.039864 0.037618987 0.0075034467 -0.023192907 0.041027565
-0.0019596447 -0.038731247 0.06608091 -0.02220695 0.0019335453 0.055927806 0.04914135 0.032069348
-0.02633097 -0.026134549 0.008415469 0.06322902 0.002104944 -0.0006681248 -0.001529873 -0.02586499
-0.0017272944 0.015575408 0.009188153 -0.018584942 0.023861518 -0.013955642 0.01183333 0.0013484258
-0.00019085188 -0.041246142 -0.03898704 -0.04928983 0.012616924 -0.021161634 0.019388018 0.10109382
-0.035263248 -0.10306609 -0.10015588 0.08831807 0.03959784 -0.010531507 -0.000178058 0.0121834045
0.040618986 -0.046084926 0.08323694 -0.06190524 0.11177291 0.020046154 -0.0498341 0.029265493
0.1368345 0.080050774 0.047189165 -0.07375321 0.021710351 -0.002535128 -0.06172046 0.020980693
-0.04887913 -0.038846 0.01530283 -0.03695209 -0.024293354 0.023627289 0.07793583 -0.013082023
0.027206238 0.049201235 0.015425804 -0.05059134 -0.03948457 -0.03273702 0.021376435 0.010039202
-0.015601414 -0.024851378 0.00915444 0.0056396336 0.0010842803 -0.00527211 -0.001914355 0.007236739
0.010133949 0.0032887042 -0.019892534 -0.022776552 0.016696531 -0.01781163 0.005910554 0.016503686
-0.009607072 0.037362568 -6.5003274e-05 0.037340555 -0.016027657 -0.007641754 -0.0035015778 0.017444937
0.0068851393 0.0067278733 0.00032149462 0.04148091 0.0065043694 -0.013469211 0.005843641 0.019564155
0.01772128 -0.011730049 -0.0029052827 -0.016994987 0.04057087 -0.006492433 -0.010277574 0.0028452107
0.006698076 -0.010408674 -0.022326224 -0.010413917 0.014265941 0.001439483 -0.006073744 0.0146502005
0.005190002 0.016141938 0.054249365 0.010736097 0.008806184 -0.015254662 -0.022839228 -0.005408475
0.007161198 0.01100168 0.026111078 -0.009375989 -0.0038712877 -0.027821708 0.011390854 -0.0006686811
-0.006917913 0.004621553 0.006650031 0.009599637 -0.028465644 -0.0036439355 0.010278682 -0.011450729
-0.013837837 -0.020331273 0.0038143299 0.011384961 -0.036445796 0.01422617 -0.037951585 -0.020894125
0.0013423945 0.0034153836 -0.009489993 -0.010571355 -0.0047197323 -0.00528241 0.020146254 0.0026094832
0.030024776 0.018295517 -0.06695675 0.020907026 0.007883584 0.008923607 0.03628881 0.0482645
0.001177395 0.015732614 0.03257478 0.016546294 0.001311901 -0.013361766 0.014479586 0.015920736
-0.003005223 0.013643995 -0.0016123797 0.023832928 -0.028045762 -0.018267136 -0.026459955 0.011528191
0.025835568 -0.027274644 -0.016984764 0.021050822 -0.030330602 -0.0071034147 -0.00031617482 -0.011257578
0.09179763 0.07802463 -0.15886949 -0.01935212 0.042889766 0.039649814 -0.006618693 0.09460149
-0.072349556 -0.12228146 0.08769606 0.07582649 -0.09591498 -0.06781257 -0.07557142 -0.027926411

features.9.bias f4 [84]
00000000: 4cfe 8b3e 2794 963d a95e 913e c876 67ba
00000010: 2de9 9f3d da63 893d 8368 c43e 09b2 1a3e
00000020: 9291 1838 7291 9a3d 87be 453e f14a ae3e
00000030: 226f 453e 8cf3 08be 4c37 043f 20ae c3bc
00000040: a691 c33e eca3 86ba 1ba7 903e 8e6c 033f
00000050: e7ce 3c3e 2799 a83c fa96 1cbc f036 de3e
00000060: 5f73 913b 585b a7bd fd1a 06bb 03c5 bc3d
00000070: 4d4e 80bb 3baf 793e 99a8 ac3c 3774 b1bb
00000080: 6a06 87be 1ddf 883c bdd3 9639 15a9 7c3d
00000090: 14da 383e f1c3 803d 5948 b83c 9191 d3be
000000a0: 8350 3b3d 3527 823e 3258 1cbd 455c 86bc
000000b0: 2ec3 3cbe c8b5 96b8 9d7d 4bba ddfa 2ebe
000000c0: a000 0a3e 267d 343e d44c d13c c4b1 5d3c
000000d0: b5a1 df3c 1f58 09bd bea2 38bd 5b40 6d38
000000e0: f548 b43b d84c 8fbe b7b3 8abb 6835 92be
000000f0: 660d 793d 0daf 503d f583 c9bd 6256 79ba
00000100: 8869 3b3c 46be 843e e55b 59bb 12aa 1cbf
00000110: 64e2 f03d 227a a43d 2b3f b43d d30d b4be
00000120: f2d1 723d f020 d43d 4876 c4bb 4be5 02bd
00000130: 7386 5e3e d100 9e3d 1a4f e63c c2d3 a73e
00000140: 00fd 6a3e 235b 513e ac07 073e 60a5 77be
0.2734245 0.073524766 0.28392532 -0.00088296505 0.078081466 0.06708498 0.38360986 0.15106978
3.6375197e-05 0.07547273 0.19310962 0.3404155 0.19280675 -0.13374156 0.51646876 -0.02388674
0.38197058 -0.0010272241 0.2825249 0.51337516 0.18438302 0.020580841 -0.00955748 0.4340129
0.004438802 -0.08171719 -0.0020462864 0.092172645 -0.003915584 0.24383251 0.021076487 -0.005415465
-0.2637208 0.016707951 0.00028767987 0.061684687 0.1805194 0.06287373 0.022495436 -0.41321996
0.04573108 0.25420538 -0.038170047 -0.01640142 -0.1843383 -7.186417e-05 -0.0007762553 -0.17087884
0.13476801 0.17625865 0.02554933 0.013531152 0.027298788 -0.033531304 -0.045077078 5.656514e-05
0.005501861 -0.27988315 -0.0042328495 -0.2855637 0.060803793 0.05094819 -0.09839622 -0.0009511468
0.011438735 0.25926417 -0.0033166346 -0.61197007 0.117619306 0.080311075 0.08801111 -0.35166797
0.05928225 0.10357845 -0.0059955455 -0.031956952 0.21730976 0.077149995 0.02811389 0.32778746
0.22948074 0.20444922 0.1318652 -0.2418418

classifiers.0.weight f4 [5, 84]
00000000: e255 77be b2db 113c 09bb d33e 41c7 843b
00000010: c0e5 003e 82a1 27bd 99a4 b7be 7c08 8fbd
00000020: 4d03 e2bb cd4d debd a066 d7be f477 2ebe
00000030: 13fb 58bc 3e07 88be 7c91 90be 58d3 323b
00000040: b079 dcbd 60c8 e73b 6052 b5bd 45c3 81be
00000050: b5d9 893e de11 0bbe 12a3 5e3a b79d dabc
00000060: ef27 1e3c 9866 bb3d f2d8 3bbb 1578 0a3e
00000070: e64a 3f3c fce4 b43e 9c1a 313d 3209 e7bb
00000080: f459 f8bd b1a3 963c 5d37 353c aa2b 0abd
00000090: 3744 18be 1f6c aabd 1ec4 7b3d 0d3e 48be
000000a0: 0458 7e3c 53ca 8d3e 4eb3 0cbe 6a88 88bc
000000b0: 6f40 cebd bb31 993d c858 4f3c e568 84bc
000000c0: c6ac 843e 3e1b a8bd f807 96bd 2665 f53d
000000d0: bb36 7bbc b0cd 823c 5d5a 89bd cd33 c13b
000000e0: 8ce5 6ebc 59ab 0abe b8d7 813c ee3b 23be
000000f0: bb0e f1bd ab5d 443b 3faf cabd 0680 313c
00000100: 0ec8 4a3c cb53 b03e 978b 883c 3b79 1ebe
00000110: 0a92 783e c16c 933d cb23 653d 9cd1 05be
00000120: 580f 1d3e dd1c 9ebd 799a 6bba 1aa9 7fbd
00000130: 8c89 e7bd 9fd0 ecbd 7ab7 e83d d49a 7abe
00000140: 5392 843e a1e6 edbd b5f6 543e ac4f 03be
00000150: b294 273e 4204 ec3d 637c 9e3d 13bc 353c
00000160: 5995 8d3d bdbb 273d 7bea 443e 41c7 513c
00000170: d68a d0bb 147e f33d f42d 8cbe 0f79 cf3e
00000180: 8d4a ee39 5afa f83c 921e 1a3f 89c1 31bd
00000190: 5986 cd3e c79f 45bc 7145 ebbd 17d8 9c3e
000001a0: b92f 17be a108 a03d 7c74 8b3c f5b5 643e
000001b0: 4419 dbbc 90d0 6cbe 4d3e 1abb 36b8 83bc
000001c0: a48d c83b 8c1c 10be ab45 f03a b22a ae3b
000001d0: c1b5 3bbd 3daa ab3c 3f14 093c d1ef bb3d
000001e0: d310 af3d 59dc 98bd 2e26 633d 597f bebd
000001f0: 7cbe f7bd cac5 69bd 4af9 f63d 56fd f5bb
00000200: 47e3 98be 7c1e 48be d1b6 acbc d70f bbbd
00000210: 5b1d 883d 0e76 cb3d 2a66 fb3d 2725 a8bd
00000220: 6f1e 383d 39de d8bd e007 82be af5a 60bb
00000230: 873e 9dbb e04f 86bc 7a99 493b a66d 1fbe
00000240: 44b2 cfbd b6ce 6b3d 0a08 3ebe 4d84 0bbc
00000250: 407c 363d d018 553d 9528 8ebb 8089 01bf
00000260: b32b 193d a143 73be 0a6a dcbd c8da cbbd
00000270: 8df5 4e3d f7ba 503e 1ef1 98bc cd89 6abe
00000280: 8fd1 8f3d 17ec 563e da7c 9f3d 47fe 183e
00000290: 6230 c7bd 086f 8fbd e3bd 193d 982a 7cbd
000002a0: 511b 3fbe cb74 8bbd 5ce1 9fbe e903 00bb
000002b0: 3ea2 0bbc 142f e0bd 9a34 4a3e b53c 143e
000002c0: 20e9 9c3c 5d8a 66be 1b6d 073e 5d9b c7bd
000002d0: 5ae5 55be 60be a5bd 0dc1 10be 6da2 72bd
000002e0: f68e db3d 4282 99bb 127b 3b3e 7014 b73e
000002f0: bbee 3d3e f894 863c baf9 d53b 2ce2 a53e
00000300: eb8a 743c 68aa 0e3e cd11 463c 0ee6 a5bd
00000310: b80c 22bd 364b 6f3e f73c 8fbd bccc 093c
00000320: d208 693d 7259 e3bc 7c51 663c 1544 91bd
00000330: bf98 3fbd a699 643e 7448 0cbd 3ae7 13bd
00000340: 5a3b 473e 57eb a93d e3f3 5ebd cfba 30bb
00000350: 4cd7 343d 399d 1c3e e3b2 23bb 5f3a d2bc
00000360: 4a59 68bd bf82 1d3d 9f57 3abe a55e 123d
00000370: 0ea5 b7bb 97c1 633b c3cf e9bd e2ec 0c3c
00000380: 8214 273c 7de8 783d 7c80 a63b 8b40 6dbd
00000390: 7f62 4cbd 52c2 57bd bccc 943d 1a8f 583c
000003a0: c2e4 b0bb 39d7 3cbe c0a4 f7bb c501 86bd
000003b0: 5eab 73bd d302 173e e72a 95bc b30c 28bd
000003c0: 9905 32bd 6c71 19bd 23e5 c93c b3d0 2d3d
000003d0: 5185 9c3e 9fa6 64bd ab2d 1dbd 6878 ebbb
000003e0: 7fbf 423e 6107 89bd 30e3 adbd 79bf b23d
000003f0: 4e0a 993e 4c00 6abd 4d05 4e3d af30 423b
-0.24153855 0.008902477 0.41353634 0.004052073 0.12587643 -0.04092551 -0.35867766 -0.0698404
-0.006897366 -0.10854683 -0.42070484 -0.17037946 -0.0132434545 -0.26568025 -0.28235996 0.0027286615
-0.107653975 0.007073447 -0.088536024 -0.2534429 0.2692391 -0.13581035 0.00084929273 -0.026686532
0.009653076 0.091504276 -0.0028663245 0.1352237 0.011675572 0.3533095 0.043238267 -0.0070506567
-0.12126532 0.018388601 0.011060563 -0.033733048 -0.14869772 -0.08321404 0.06146633 -0.1955492
0.015523914 0.27693424 -0.13740274 -0.01666661 -0.100708835 0.074801885 0.012655444 -0.016163299
0.25913066 -0.08208321 -0.07325739 0.11982183 -0.015332873 0.01596722 -0.067066886 0.0058960677
-0.014581095 -0.13541926 0.015849933 -0.1594083 -0.11770388 0.0029963057 -0.09896707 0.010833746
0.012376798 0.3443893 0.016668124 -0.15475933 0.2427446 0.071984775 0.055942338 -0.13068241
0.15337884 -0.07720349 -0.0008987557 -0.062417127 -0.11305532 -0.11563229 0.113631204 -0.24473125
0.25892887 -0.116162546 0.20797236 -0.12823361 0.16365317 0.115242496 0.07738569 0.011092204
0.069132514 0.040950526 0.19230072 0.0128038535 -0.006364207 0.11889282 -0.2737881 0.40522048
0.00045450442 0.030392814 0.60202897 -0.04339746 0.40141562 -0.01206202 -0.11487854 0.30633613
-0.14764298 0.07814146 0.017023318 0.22335036 -0.026745446 -0.23126435 -0.002353567 -0.01607905
0.0061204005 -0.1407339 0.001833131 0.0053151483 -0.04582763 0.0209552 0.008366643 0.09176601
0.08548131 -0.07463903 0.055456333 -0.093016334 -0.12096879 -0.057073392 0.12059267 -0.0075070066
-0.298609 -0.19542879 -0.021083267 -0.091338806 0.06646224 0.099346265 0.122753456 -0.08210211
0.0449509 -0.105892606 -0.25396633 -0.003423374 -0.0047987136 -0.01639551 0.0030761645 -0.15569171
-0.10141423 0.05757018 -0.18557754 -0.00851543 0.044552088 0.052025616 -0.004338334 -0.50600433
0.03739519 -0.23756267 -0.10762413 -0.099538386 0.050527144 0.20383821 -0.018669661 -0.2290413
0.07022392 0.20988499 0.077874854 0.14940749 -0.09726025 -0.070035994 0.037534606 -0.061564058
-0.18662764 -0.06809386 -0.31226623 -0.001953358 -0.008522568 -0.109464794 0.19746628 0.14476283
0.019154131 -0.22513719 0.13225214 -0.0974643 -0.20888272 -0.08092952 -0.14136143 -0.059236933
0.10720627 -0.0046847174 0.18308666 0.3575778 0.185481 0.016428456 0.006530014 0.32399118
0.014925699 0.13932192 0.012089205 -0.0810052 -0.03956291 0.23368534 -0.0699405 0.008410629
0.056893177 -0.027752612 0.014057513 -0.07093064 -0.04677653 0.22324237 -0.034248784 -0.036109187
0.19456235 0.08296841 -0.054431807 -0.0026966815 0.044150636 0.1529435 -0.002497845 -0.0256626
-0.056725778 0.038454767 -0.18197487 0.03573479 -0.005604393 0.003475284 -0.114165805 0.008601399
0.010197761 0.060768593 0.0050812345 -0.05792288 -0.04989862 -0.052675553 0.072656125 0.013217712
-0.005398364 -0.18441476 -0.0075574815 -0.06543306 -0.0594896 0.14747171 -0.018208934 -0.041027736
-0.04346237 -0.037461683 0.024645394 0.04243536 0.30570462 -0.055822965 -0.03837363 -0.0071859844
0.19018362 -0.066908605 -0.08490598 0.08727927 0.29890674 -0.05712919 0.050298024 0.0029631068

classifiers.0.bias f4 [5]
00000000: 3837 613d f8c1 b13f 3908 63bc 1da8 d23e
00000010: a6af ebbf
0.0549843 1.388732 -0.013856941 0.41143885 -1.8412979

classifier.weight f4 [5, 84]
00000000: e255 77be b2db 113c 09bb d33e 41c7 843b
00000010: c0e5 003e 82a1 27bd 99a4 b7be 7c08 8fbd
00000020: 4d03 e2bb cd4d debd a066 d7be f477 2ebe
00000030: 13fb 58bc 3e07 88be 7c91 90be 58d3 323b
00000040: b079 dcbd 60c8 e73b 6052 b5bd 45c3 81be
00000050: b5d9 893e de11 0bbe 12a3 5e3a b79d dabc
00000060: ef27 1e3c 9866 bb3d f2d8 3bbb 1578 0a3e
00000070: e64a 3f3c fce4 b43e 9c1a 313d 3209 e7bb
00000080: f459 f8bd b1a3 963c 5d37 353c aa2b 0abd
00000090: 3744 18be 1f6c aabd 1ec4 7b3d 0d3e 48be
000000a0: 0458 7e3c 53ca 8d3e 4eb3 0cbe 6a88 88bc
000000b0: 6f40 cebd bb31 993d c858 4f3c e568 84bc
000000c0: c6ac 843e 3e1b a8bd f807 96bd 2665 f53d
000000d0: bb36 7bbc b0cd 823c 5d5a 89bd cd33 c13b
000000e0: 8ce5 6ebc 59ab 0abe b8d7 813c ee3b 23be
000000f0: bb0e f1bd ab5d 443b 3faf cabd 0680 313c
00000100: 0ec8 4a3c cb53 b03e 978b 883c 3b79 1ebe
00000110: 0a92 783e c16c 933d cb23 653d 9cd1 05be
00000120: 580f 1d3e dd1c 9ebd 799a 6bba 1aa9 7fbd
00000130: 8c89 e7bd 9fd0 ecbd 7ab7 e83d d49a 7abe
00000140: 5392 843e a1e6 edbd b5f6 543e ac4f 03be
00000150: b294 273e 4204 ec3d 637c 9e3d 13bc 353c
00000160: 5995 8d3d bdbb 273d 7bea 443e 41c7 513c
00000170: d68a d0bb 147e f33d f42d 8cbe 0f79 cf3e
00000180: 8d4a ee39 5afa f83c 921e 1a3f 89c1 31bd
00000190: 5986 cd3e c79f 45bc 7145 ebbd 17d8 9c3e
000001a0: b92f 17be a108 a03d 7c74 8b3c f5b5 643e
000001b0: 4419 dbbc 90d0 6cbe 4d3e 1abb 36b8 83bc
000001c0: a48d c83b 8c1c 10be ab45 f03a b22a ae3b
000001d0: c1b5 3bbd 3daa ab3c 3f14 093c d1ef bb3d
000001e0: d310 af3d 59dc 98bd 2e26 633d 597f bebd
000001f0: 7cbe f7bd cac5 69bd 4af9 f63d 56fd f5bb
00000200: 47e3 98be 7c1e 48be d1b6 acbc d70f bbbd
00000210: 5b1d 883d 0e76 cb3d 2a66 fb3d 2725 a8bd
00000220: 6f1e 383d 39de d8bd e007 82be af5a 60bb
00000230: 873e 9dbb e04f 86bc 7a99 493b a66d 1fbe
00000240: 44b2 cfbd b6ce 6b3d 0a08 3ebe 4d84 0bbc
00000250: 407c 363d d018 553d 9528 8ebb 8089 01bf
00000260: b32b 193d a143 73be 0a6a dcbd c8da cbbd
00000270: 8df5 4e3d f7ba 503e 1ef1 98bc cd89 6abe
00000280: 8fd1 8f3d 17ec 563e da7c 9f3d 47fe 183e
00000290: 6230 c7bd 086f 8fbd e3bd 193d 982a 7cbd
000002a0: 511b 3fbe cb74 8bbd 5ce1 9fbe e903 00bb
000002b0: 3ea2 0bbc 142f e0bd 9a34 4a3e b53c 143e
000002c0: 20e9 9c3c 5d8a 66be 1b6d 073e 5d9b c7bd
000002d0: 5ae5 55be 60be a5bd 0dc1 10be 6da2 72bd
000002e0: f68e db3d 4282 99bb 127b 3b3e 7014 b73e
000002f0: bbee 3d3e f894 863c baf9 d53b 2ce2 a53e
00000300: eb8a 743c 68aa 0e3e cd11 463c 0ee6 a5bd
00000310: b80c 22bd 364b 6f3e f73c 8fbd bccc 093c
00000320: d208 693d 7259 e3bc 7c51 663c 1544 91bd
00000330: bf98 3fbd a699 643e 7448 0cbd 3ae7 13bd
00000340: 5a3b 473e 57eb a93d e3f3 5ebd cfba 30bb
00000350: 4cd7 343d 399d 1c3e e3b2 23bb 5f3a d2bc
00000360: 4a59 68bd bf82 1d3d 9f57 3abe a55e 123d
00000370: 0ea5 b7bb 97c1 633b c3cf e9bd e2ec 0c3c
00000380: 8214 273c 7de8 783d 7c80 a63b 8b40 6dbd
00000390: 7f62 4cbd 52c2 57bd bccc 943d 1a8f 583c
000003a0: c2e4 b0bb 39d7 3cbe c0a4 f7bb c501 86bd
000003b0: 5eab 73bd d302 173e e72a 95bc b30c 28bd
000003c0: 9905 32bd 6c71 19bd 23e5 c93c b3d0 2d3d
000003d0: 5185 9c3e 9fa6 64bd ab2d 1dbd 6878 ebbb
000003e0: 7fbf 423e 6107 89bd 30e3 adbd 79bf b23d
000003f0: 4e0a 993e 4c00 6abd 4d05 4e3d af30 423b
-0.24153855 0.008902477 0.41353634 0.004052073 0.12587643 -0.04092551 -0.35867766 -0.0698404
-0.006897366 -0.10854683 -0.42070484 -0.17037946 -0.0132434545 -0.26568025 -0.28235996 0.0027286615
-0.107653975 0.007073447 -0.088536024 -0.2534429 0.2692391 -0.13581035 0.00084929273 -0.026686532
0.009653076 0.091504276 -0.0028663245 0.1352237 0.011675572 0.3533095 0.043238267 -0.0070506567
-0.12126532 0.018388601 0.011060563 -0.033733048 -0.14869772 -0.08321404 0.06146633 -0.1955492
0.015523914 0.27693424 -0.13740274 -0.01666661 -0.100708835 0.074801885 0.012655444 -0.016163299
0.25913066 -0.08208321 -0.07325739 0.11982183 -0.015332873 0.01596722 -0.067066886 0.0058960677
-0.014581095 -0.13541926 0.015849933 -0.1594083 -0.11770388 0.0029963057 -0.09896707 0.010833746
0.012376798 0.3443893 0.016668124 -0.15475933 0.2427446 0.071984775 0.055942338 -0.13068241
0.15337884 -0.07720349 -0.0008987557 -0.062417127 -0.11305532 -0.11563229 0.113631204 -0.24473125
0.25892887 -0.116162546 0.20797236 -0.12823361 0.16365317 0.115242496 0.07738569 0.011092204
0.069132514 0.040950526 0.19230072 0.0128038535 -0.006364207 0.11889282 -0.2737881 0.40522048
0.00045450442 0.030392814 0.60202897 -0.04339746 0.40141562 -0.01206202 -0.11487854 0.30633613
-0.14764298 0.07814146 0.017023318 0.22335036 -0.026745446 -0.23126435 -0.002353567 -0.01607905
0.0061204005 -0.1407339 0.001833131 0.0053151483 -0.04582763 0.0209552 0.008366643 0.09176601
0.08548131 -0.07463903 0.055456333 -0.093016334 -0.12096879 -0.057073392 0.12059267 -0.0075070066
-0.298609 -0.19542879 -0.021083267 -0.091338806 0.06646224 0.099346265 0.122753456 -0.08210211
0.0449509 -0.105892606 -0.25396633 -0.003423374 -0.0047987136 -0.01639551 0.0030761645 -0.15569171
-0.10141423 0.05757018 -0.18557754 -0.00851543 0.044552088 0.052025616 -0.004338334 -0.50600433
0.03739519 -0.23756267 -0.10762413 -0.099538386 0.050527144 0.20383821 -0.018669661 -0.2290413
0.07022392 0.20988499 0.077874854 0.14940749 -0.09726025 -0.070035994 0.037534606 -0.061564058
-0.18662764 -0.06809386 -0.31226623 -0.001953358 -0.008522568 -0.109464794 0.19746628 0.14476283
0.019154131 -0.22513719 0.13225214 -0.0974643 -0.20888272 -0.08092952 -0.14136143 -0.059236933
0.10720627 -0.0046847174 0.18308666 0.3575778 0.185481 0.016428456 0.006530014 0.32399118
0.014925699 0.13932192 0.012089205 -0.0810052 -0.03956291 0.23368534 -0.0699405 0.008410629
0.056893177 -0.027752612 0.014057513 -0.07093064 -0.04677653 0.22324237 -0.034248784 -0.036109187
0.19456235 0.08296841 -0.054431807 -0.0026966815 0.044150636 0.1529435 -0.002497845 -0.0256626
-0.056725778 0.038454767 -0.18197487 0.03573479 -0.005604393 0.003475284 -0.114165805 0.008601399
0.010197761 0.060768593 0.0050812345 -0.05792288 -0.04989862 -0.052675553 0.072656125 0.013217712
-0.005398364 -0.18441476 -0.0075574815 -0.06543306 -0.0594896 0.14747171 -0.018208934 -0.041027736
-0.04346237 -0.037461683 0.024645394 0.04243536 0.30570462 -0.055822965 -0.03837363 -0.0071859844
0.19018362 -0.066908605 -0.08490598 0.08727927 0.29890674 -0.05712919 0.050298024 0.0029631068

classifier.bias f4 [5]
00000000: 3837 613d f8c1 b13f 3908 63bc 1da8 d23e
00000010: a6af ebbf
0.0549843 1.388732 -0.013856941 0.41143885 -1.8412979

features.7 f4 [120]
00000000: d7a5 2abd 05b9 763c ca2c eabd b89b f83c
00000010: decd 31bc d52a 75bb 0753 cd3c 26b8 d5bd
00000020: fd64 613d 5a26 97bd 9664 aebc a9bc 4abd
00000030: 01d2 b13c bc92 a83d c1db e33d 178e 403d
00000040: e12b 51be 5a21 013e e2fe 14bd f8dd 1cbd
00000050: 3b40 923c aa9d 003a 8835 acbd 9511 58bc
00000060: 6832 593c b18c 743c 00ef 963b f853 903d
00000070: da2e 2bbe dbf3 463d 72ff bbbd 4eac 823c
00000080: 7965 b03c 1ccb 7d3d b540 7bbc fafd 763d
00000090: 2a10 68be 60f7 6c3c 6a6e 783c d6e2 383e
000000a0: 422a a3bb 0803 e43d f0af 7ebd bc44 c8bd
000000b0: 533f 34bb 5990 7f3b 5cdc 273c 027a f6bc
000000c0: 61f4 bc3d ac42 63bd 1aa8 063d eb66 d73d
000000d0: c131 9b3c 54b9 233c c049 a33b 2ac8 9abd
000000e0: 6399 84bd eee8 12bd 26bb 09bc bd11 973c
000000f0: b2c4 24bb bf5a a83c 2830 70be 5734 adbd
00000100: 572d 30bc f049 3e3c 1d80 3dbd caba c8bd
00000110: ecfc c13c 15c1 aebd 4e38 183e fd3e f6bd
00000120: d358 58bd 252c 01be e518 773d ebbf c4bc
00000130: f0e6 10bc b66e e4bd 03c1 f03d d802 52be
00000140: 6af4 07bc 6e9f 9ebd d205 f2bd f723 31bd
00000150: 45eb 00be 1183 0d3c 433a 463d 7c48 313a
00000160: c079 853c d8ef 363d 0460 22be d762 11be
00000170: aa14 e63d c34f c9bc 7a3e a8bd deda 423d
00000180: f61d 83bc 0e64 243d c5c5 993d 83be ca3b
00000190: 3bcf 0bbd e992 743d 193e 26bc 2b80 d33d
000001a0: b3bd 91bd faf9 c1be 2c6f bebb fe5c 88bb
000001b0: 8104 c5bd 2bce cabd d403 5dbc 5927 c73d
000001c0: 947e 0a3c 5e2e 3cbe 7ba4 073d 98a7 cc3d
000001d0: 05df 05be d370 74bd 6b19 f3b9 2de2 36bb
-0.041662063 0.0150587605 -0.11434324 0.03034769 -0.010852305 -0.0037409563 0.025064005 -0.10435514
0.05502795 -0.07380362 -0.021288197 -0.049496327 0.021706583 0.08231112 0.11125899 0.047010507
-0.20426895 0.12610379 -0.036375888 -0.038297623 0.017852893 0.0004906306 -0.08408648 -0.013187786
0.013256647 0.014926122 0.0046061277 0.07047266 -0.16717091 0.048572402 -0.09179582 0.015951302
0.021532761 0.06196128 -0.015335252 0.060300805 -0.22662416 0.014463276 0.0151630435 0.18055281
-0.0049794028 0.11133391 -0.062179506 -0.09778735 -0.0027503564 0.003899595 0.010245409 -0.030087475
0.09226299 -0.055483505 0.032875158 0.10517677 0.018944623 0.009992916 0.004983157 -0.075577095
-0.06474569 -0.03586667 -0.008406436 0.018441075 -0.0025141654 0.020551084 -0.2345587 -0.08457249
-0.010752997 0.011614308 -0.046264756 -0.09801252 0.023680173 -0.08532921 0.14865229 -0.12023733
-0.052819084 -0.12614496 0.060326476 -0.024017295 -0.008844122 -0.11153929 0.11755564 -0.20508897
-0.008298019 -0.077452525 -0.118175164 -0.04324719 -0.12589748 0.008637206 0.048395406 0.0006762815
0.016293406 0.044662327 -0.1585694 -0.1419786 0.1123441 -0.024574166 -0.082150415 0.04757201
-0.016005497 0.040134482 0.07508425 0.0061872615 -0.034133177 0.059710417 -0.010146641 0.103271805
-0.071162604 -0.3788603 -0.0058115926 -0.004161476 -0.0962 -0.09902605 -0.013489682 0.09724302
0.00845303 -0.18377063 0.033115845 0.099929035 -0.13073356 -0.05967791 -0.0004636751 -0.0027905807

features.9 f4 [84]
00000000: 4cfe 8b3e 2794 963d a95e 913e c876 67ba
00000010: 2de9 9f3d da63 893d 8368 c43e 09b2 1a3e
00000020: 9291 1838 7291 9a3d 87be 453e f14a ae3e
00000030: 226f 453e 8cf3 08be 4c37 043f 20ae c3bc
00000040: a691 c33e eca3 86ba 1ba7 903e 8e6c 033f
00000050: e7ce 3c3e 2799 a83c fa96 1cbc f036 de3e
00000060: 5f73 913b 585b a7bd fd1a 06bb 03c5 bc3d
00000070: 4d4e 80bb 3baf 793e 99a8 ac3c 3774 b1bb
00000080: 6a06 87be 1ddf 883c bdd3 9639 15a9 7c3d
00000090: 14da 383e f1c3 803d 5948 b83c 9191 d3be
000000a0: 8350 3b3d 3527 823e 3258 1cbd 455c 86bc
000000b0: 2ec3 3cbe c8b5 96b8 9d7d 4bba ddfa 2ebe
000000c0: a000 0a3e 267d 343e d44c d13c c4b1 5d3c
000000d0: b5a1 df3c 1f58 09bd bea2 38bd 5b40 6d38
000000e0: f548 b43b d84c 8fbe b7b3 8abb 6835 92be
000000f0: 660d 793d 0daf 503d f583 c9bd 6256 79ba
00000100: 8869 3b3c 46be 843e e55b 59bb 12aa 1cbf
00000110: 64e2 f03d 227a a43d 2b3f b43d d30d b4be
00000120: f2d1 723d f020 d43d 4876 c4bb 4be5 02bd
00000130: 7386 5e3e d100 9e3d 1a4f e63c c2d3 a73e
00000140: 00fd 6a3e 235b 513e ac07 073e 60a5 77be
0.2734245 0.073524766 0.28392532 -0.00088296505 0.078081466 0.06708498 0.38360986 0.15106978
3.6375197e-05 0.07547273 0.19310962 0.3404155 0.19280675 -0.13374156 0.51646876 -0.02388674
0.38197058 -0.0010272241 0.2825249 0.51337516 0.18438302 0.020580841 -0.00955748 0.4340129
0.004438802 -0.08171719 -0.0020462864 0.092172645 -0.003915584 0.24383251 0.021076487 -0.005415465
-0.2637208 0.016707951 0.00028767987 0.061684687 0.1805194 0.06287373 0.022495436 -0.41321996
0.04573108 0.25420538 -0.038170047 -0.01640142 -0.1843383 -7.186417e-05 -0.0007762553 -0.17087884
0.13476801 0.17625865 0.02554933 0.013531152 0.027298788 -0.033531304 -0.045077078 5.656514e-05
0.005501861 -0.27988315 -0.0042328495 -0.2855637 0.060803793 0.05094819 -0.09839622 -0.0009511468
0.011438735 0.25926417 -0.0033166346 -0.61197007 0.117619306 0.080311075 0.08801111 -0.35166797
0.05928225 0.10357845 -0.0059955455 -0.031956952 0.21730976 0.077149995 0.02811389 0.32778746
0.22948074 0.20444922 0.1318652 -0.2418418
