checkpoints_lenet5/CPG_single_scratch_woexp/lenet5/food_containers/gradual_prune/0.2/checkpoint-20.pth.tar (torch, 316627 bytes, 28 tensors)

features.0.weight f4 [6, 3, 5, 5]
0	0x3d935836	0.07194559
1	0x3e2f3efe	0.17113873
2	0xbe741e6a	-0.23839727
3	0xbebcf748	-0.3690741
4	0xbeef3a56	-0.46724194
5	0x3e8f649e	0.28006452
6	0xbdd0b6f0	-0.101911426
7	0xbdcf7684	-0.10130027
8	0xbe7edc2a	-0.24888673
9	0xbdcf2d43	-0.10116055
10	0x00000000	0.0
11	0xbda78345	-0.081793346
12	0x00000000	0.0
13	0xbe138100	-0.14404678
14	0x00000000	0.0
15	0x00000000	0.0
16	0xbe4ae7df	-0.19815014
17	0x00000000	0.0
18	0x00000000	0.0
19	0x3e28c65c	0.16481918
20	0x00000000	0.0
21	0x00000000	0.0
22	0x3e416727	0.18887006
23	0x3e950a2f	0.29109332
24	0x3e8ff134	0.2811371
25	0x3e22e747	0.15908538
26	0x3dd6fd1b	0.10497495
27	0x3e8f81c8	0.28028703
28	0xbdc34518	-0.09534663
29	0x00000000	0.0
30	0x3dea7cb5	0.11449567
31	0x3e276fea	0.16351286
32	0xbe4fd366	-0.20295486
33	0x3dbb9704	0.09159663
34	0x00000000	0.0
35	0xbdada970	-0.08479583
36	0xbe9f213f	-0.31080052
37	0xbe424526	-0.1897169
38	0xbe1c3b14	-0.15256912
39	0xbdaaeb41	-0.08345652
40	0x3d8300ea	0.06396659
41	0x00000000	0.0
42	0xbe3cf2fe	-0.18452069
43	0x00000000	0.0
44	0x00000000	0.0
45	0xbe6b3b3d	-0.22971816
46	0xbe30fc07	-0.17283641
47	0x3d8aee5d	0.067837454
48	0x3dfa5851	0.12223876
49	0x3ec1078d	0.37701073
50	0xbec307db	-0.3809193
51	0xbdabed23	-0.083948396
52	0xbea98d0e	-0.3311543
53	0xbdc22b1c	-0.09480879
54	0xbe1b0941	-0.15140249
55	0xbd99279f	-0.0747826
56	0xbe49e1b1	-0.19715
57	0xbedeb403	-0.43496713
58	0xbe83ca9a	-0.2574051
59	0x00000000	0.0
60	0xbec6af5d	-0.38805667
61	0xbe18618c	-0.14880961
62	0xbe9425a0	-0.28934956
63	0xbd87158a	-0.06595905
64	0x3e9c8315	0.30568758
65	0xbdaf51ab	-0.08560499
66	0xbe3d2ad7	-0.18473373
67	0x00000000	0.0
68	0x3e071b7c	0.13194078
69	0x3f1ad430	0.6048002
70	0x00000000	0.0
71	0x3e87d8e3	0.2653266
72	0x3f0c4bcd	0.5480316
73	0x3ecd8b1e	0.401452
74	0x3f2ff1ed	0.68728524
75	0xbe089373	-0.13337497
76	0x00000000	0.0
77	0x3dd832ee	0.10556589
78	0x3e009d01	0.12559892
79	0x3e78bf2f	0.24291681
80	0x00000000	0.0
81	0x00000000	0.0
82	0x3d9f99f9	0.0779304
83	0x3e43bb5c	0.1911444
84	0x00000000	0.0
85	0xbe41ea6a	-0.18937078
86	0x3d80bb3e	0.062857136
87	0x3de94336	0.113897726
88	0x3e923b3b	0.28560814
89	0x00000000	0.0
90	0x00000000	0.0
91	0x3e4a7abd	0.19773383
92	0xbd93edba	-0.07223077
93	0x00000000	0.0
94	0xbe7ecb2a	-0.24882188
95	0xbe29032f	-0.1650512
96	0x3db3a384	0.087714225
97	0x00000000	0.0
98	0x00000000	0.0
99	0xbd8c2eff	-0.06844901
100	0x00000000	0.0
101	0xbdf7d9ca	-0.12102087
102	0x3db8434c	0.08997211
103	0x3e74b57a	0.23897353
104	0x00000000	0.0
105	0xbe16e1fe	-0.14734647
106	0x00000000	0.0
107	0x00000000	0.0
108	0x3e17310a	0.147648
109	0x00000000	0.0
110	0x00000000	0.0
111	0x3e529132	0.205632
112	0x3e2e6265	0.17029722
113	0x00000000	0.0
114	0x00000000	0.0
115	0x3e06ec71	0.13176133
116	0x3e2b835a	0.16749325
117	0x3e8894a3	0.266759
118	0x00000000	0.0
119	0x00000000	0.0
120	0x00000000	0.0
121	0x00000000	0.0
122	0x3df68880	0.12037754
123	0xbdb955a1	-0.090495355
124	0xbe5db2f1	-0.21650292
125	0x00000000	0.0
126	0x00000000	0.0
127	0xbdc71719	-0.097212024
128	0x3e29f37b	0.16596787
129	0x3e4739ee	0.19455692
130	0xbe1b8695	-0.15188058
131	0xbe3ff44a	-0.18745533
132	0x3e588209	0.21143354
133	0x3e1b9c15	0.1519626
134	0x3e50dc1c	0.20396465
135	0xbe4b3fdf	-0.19848584
136	0x00000000	0.0
137	0x3ddfed8c	0.1093398
138	0x3dd17736	0.10227816
139	0x3d984262	0.074345365
140	0xbdf370af	-0.11886727
141	0x00000000	0.0
142	0xbdd70ddd	-0.10500691
143	0xbe24881b	-0.16067545
144	0x3da013b7	0.0781626
145	0xbea89311	-0.32924703
146	0x00000000	0.0
147	0x3e56a10c	0.20959872
148	0x3e69f679	0.22847928
149	0xbe219265	-0.15778501
150	0x3ebf92cd	0.37416688
151	0x3e94a34e	0.29030842
152	0x3ec4896e	0.383861
153	0x3e94793f	0.28998753
154	0x3e3665d6	0.17812285
155	0x3e319471	0.17341782
156	0x3ee71e78	0.45140433
157	0x3e1e4d6e	0.15459225
158	0x3dae8aaf	0.085225455
159	0xbdbf647e	-0.09345339
160	0xbd978c90	-0.07399857
161	0x3e25a059	0.16174449
162	0x00000000	0.0
163	0xbdf06934	-0.11738816
164	0xbdc24f4d	-0.09487782
165	0xbe88ce58	-0.26719928
166	0x00000000	0.0
167	0xbe9c86f6	-0.30571717
168	0xbe209fde	-0.15685984
169	0x00000000	0.0
170	0x00000000	0.0
171	0xbe02ec08	-0.12785351
172	0xbed73e25	-0.420396
173	0xbe47ea75	-0.19523032
174	0xbe14b94d	-0.14523812
175	0x3e88e914	0.26740324
176	0x3ed574df	0.41690728
177	0x3ed17c81	0.409153
178	0x3e86defc	0.26342
179	0x3e29322f	0.1652305
180	0x3e3af56e	0.18257686
181	0x3e35b15d	0.1774344
182	0x3e0e3bb8	0.13889968
183	0x3ea98252	0.3310724
184	0x3db6efe1	0.08932472
185	0x3dce1734	0.100630194
186	0x3e6c8bbb	0.23100178
187	0xbe173b3d	-0.14768691
188	0x00000000	0.0
189	0xbe293872	-0.16525438
190	0xbe73dc9f	-0.23814629
191	0x00000000	0.0
192	0x00000000	0.0
193	0x00000000	0.0
194	0xbdc0f4c1	-0.09421683
195	0xbdd3a4dd	-0.103341796
196	0xbe93c8f0	-0.2886424
197	0xbe680c43	-0.22660927
198	0xbe8987eb	-0.2686151
199	0xbe27c5a0	-0.16383982
200	0x3ec044a8	0.3755238
201	0x3eea4697	0.4575698
202	0x3ebb2e8a	0.36558944
203	0x3e57bdd2	0.21068504
204	0x00000000	0.0
205	0x00000000	0.0
206	0x00000000	0.0
207	0x3e9394b5	0.28824392
208	0xbe0d5b7b	-0.13804428
209	0xbe974f6e	-0.29552788
210	0xbde76195	-0.11297909
211	0x3dad8c16	0.08473985
212	0xbe5e7eff	-0.21728133
213	0xbe27aea2	-0.16375211
214	0xbeae8ac5	-0.34090248
215	0x00000000	0.0
216	0xbdb8950f	-0.09012806
217	0xbdc7f4b5	-0.09763471
218	0xbea6420c	-0.32472265
219	0xbed33c16	-0.4125678
220	0xbdddb9f8	-0.10826486
221	0x00000000	0.0
222	0xbe8c9c85	-0.27463165
223	0xbeeb3bb5	-0.4594399
224	0xbec9c83e	-0.39410585
225	0xbe5d6d68	-0.21623766
226	0xbe1f5441	-0.15559484
227	0xbeab6af2	-0.3348003
228	0x00000000	0.0
229	0x00000000	0.0
230	0x3d8e0f06	0.06936459
231	0x00000000	0.0
232	0xbd80325a	-0.06259604
233	0x3e884e92	0.26622444
234	0x3eacdaef	0.33760783
235	0x00000000	0.0
236	0x00000000	0.0
237	0xbdf57912	-0.11985983
238	0x3e684ef0	0.22686362
239	0x3ea471ff	0.32118222
240	0x00000000	0.0
241	0xbe828521	-0.25492194
242	0xbeaeac7f	-0.3411598
243	0xbddb18f4	-0.10698119
244	0xbe0d15b7	-0.13777815
245	0x3eb19ee5	0.3469154
246	0x00000000	0.0
247	0xbe3c3843	-0.18380837
248	0x00000000	0.0
249	0x3e8198a4	0.25311768
250	0x00000000	0.0
251	0x00000000	0.0
252	0xbdadf1f0	-0.084934115
253	0x3ea787d8	0.32720828
254	0x3ea8fdcf	0.3300614
255	0x3d9036fd	0.07041738

features.1.weight f4 [6]
0	0x3f81f635	1.0153261
1	0x3f224b03	0.6339571
2	0x3f7ba99a	0.98305666
3	0x3f93b0a2	1.1538279
4	0x3fbbdd0c	1.4676833
5	0x3fbc0cc2	1.4691393

features.1.bias f4 [6]
0	0x3cb6af63	0.022300428
1	0x3e10258b	0.14076822
2	0x3e99c2eb	0.30031523
3	0x3c9cd78a	0.019145746
4	0xbd206127	-0.03915515
5	0x3da5397b	0.08067604

features.1.running_mean f4 [6]
0	0xbca5eb68	-0.020253852
1	0xbe0c1f08	-0.13683712
2	0x3d9c9500	0.07645607
3	0xbd475a5e	-0.048670165
4	0x3dc9b7ee	0.09849535
5	0x3e8cf4bf	0.27530476

features.1.running_var f4 [6]
0	0x40eca140	7.394684
1	0x408cfec0	4.4060974
2	0x4196d792	18.855259
3	0x4183d94b	16.4811
4	0x40dab33b	6.8343787
5	0x4134d744	11.302555

features.4.weight f4 [16, 6, 5, 5]
0	0xbe48075c	-0.19534057
1	0xbdd022c4	-0.10162881
2	0x00000000	0.0
3	0xbdf76d5c	-0.120814055
4	0x00000000	0.0
5	0xbdff3b05	-0.12462429
6	0xbe0a0180	-0.13477135
7	0x00000000	0.0
8	0xbd2e1047	-0.042495992
9	0x00000000	0.0
10	0x00000000	0.0
11	0x3d2c55ff	0.0420742
12	0xbda82ff8	-0.08212274
13	0xbdbfa486	-0.09357552
14	0x00000000	0.0
15	0x00000000	0.0
16	0x00000000	0.0
17	0xbcf0b801	-0.029384615
18	0x3db2156e	0.08695494
19	0x3d3f9cfb	0.046780568
20	0x3dfdfa39	0.12401242
21	0x3deed8a7	0.11662417
22	0x3db90377	0.09033864
23	0x3e481514	0.1953929
24	0x00000000	0.0
25	0xbe14189a	-0.1446251
26	0x00000000	0.0
27	0x3dd5e2b2	0.10443629
28	0x3d29e03c	0.041473612
29	0x3da11272	0.07864846
30	0x3d2622e5	0.04056062
31	0x3d83b5b8	0.064311445
32	0x00000000	0.0
33	0x00000000	0.0
34	0xbd2107a1	-0.039313916
35	0x3e28562d	0.16439123
36	0x3de1c35d	0.11023591
37	0x3d2c85bc	0.042119727
38	0x00000000	0.0
39	0x00000000	0.0
40	0x3d2c0d7f	0.04200506
41	0x00000000	0.0
42	0x3d8a6d1a	0.06759091
43	0xbda363cf	-0.07978021
44	0xbda11601	-0.07865525
45	0x00000000	0.0
46	0xbd05f085	-0.03270008
47	0x3d790620	0.060796857
48	0xbd9cc5bd	-0.07654903
49	0x00000000	0.0
50	0x00000000	0.0
51	0xbde1172a	-0.10990746
52	0x3d1308ab	0.03589694
53	0x3d393aa8	0.045221955
54	0x00000000	0.0
55	0x3dffcea3	0.12490585
56	0x00000000	0.0
57	0xbd2e5e76	-0.042570554
58	0x3e1b6aa0	0.15177393
59	0xbe606222	-0.21912435
60	0x3dbca8a1	0.09211851
61	0x3cde9bce	0.027173903
62	0x3d11034e	0.035403542
63	0x3dd4fd46	0.103998706
64	0xbdbb91b9	-0.09158654
65	0x3d85a429	0.06525452
66	0xbd35af47	-0.04435661
67	0x3da5407c	0.0806894
68	0x3dad9bcb	0.08476981
69	0xbe56b64b	-0.20967977
70	0xbe064d08	-0.13115323
71	0x00000000	0.0
72	0x00000000	0.0
73	0x3d0d4964	0.03449382
74	0xbe006e12	-0.12541988
75	0xbe3ea5b3	-0.18617897
76	0x00000000	0.0
77	0x00000000	0.0
78	0xbe33cc7b	-0.17558472
79	0xbe893e80	-0.26805496
80	0xbd8eba76	-0.06969158
81	0xbe044889	-0.12918295
82	0xbdccb09b	-0.09994622
83	0xbe5746c4	-0.21023089
84	0xbe2f63c3	-0.171279
85	0xbe27c6c4	-0.16384417
86	0xbdd87506	-0.105691954
87	0xbdb4cf90	-0.08828652
88	0x00000000	0.0
89	0xbdadf6d3	-0.084943436
90	0xbe39d1aa	-0.18146387
91	0xbe30e7c0	-0.17275906
92	0xbd3aaccd	-0.045574952
93	0x00000000	0.0
94	0xbe5e2810	-0.2169497
95	0x3d2bc9c7	0.041940477
96	0x3d5f4d83	0.05451728
97	0xbce06a32	-0.027394388
98	0xbd0e60a2	-0.034760125
99	0xbde2406c	-0.11047444
100	0xbdb627a4	-0.088942796
101	0xbd9182df	-0.0710504
102	0xbe232b68	-0.15934527
103	0xbe02102d	-0.12701483
104	0x00000000	0.0
105	0xbd188adf	-0.037241813
106	0xbdf50e62	-0.11965634
107	0xbd93a3d8	-0.07208985
108	0xbdcc3ce4	-0.099725515
109	0xbd694f1f	-0.05696022
110	0x00000000	0.0
111	0xbe3a5f3b	-0.1820039
112	0xbe73226f	-0.23743604
113	0xbdea34b1	-0.11435831
114	0x00000000	0.0
115	0x3d9ad485	0.07560066
116	0x3d2b5859	0.0418323
117	0xbdcdd120	-0.10049653
118	0x00000000	0.0
119	0x00000000	0.0
120	0x00000000	0.0
121	0x3e7cb5e0	0.24678755
122	0x3e1b8b10	0.15189767
123	0x3d3b1450	0.04567367
124	0x00000000	0.0
125	0xbe0fee47	-0.1405574
126	0xbd95eb07	-0.073202185
127	0x00000000	0.0
128	0x3db6dbf6	0.08928673
129	0x3e8a0d1b	0.26963124
130	0xbe21cb07	-0.15800105
131	0xbdbdf52f	-0.09275281
132	0xbd0fc94b	-0.035104077
133	0x3e75b7b9	0.23995866
134	0x3e071aca	0.13193813
135	0xbe151ae8	-0.14561045
136	0x3d844e3a	0.06460233
137	0x3d204189	0.039125
138	0x3d0c55f5	0.034261663
139	0x3ded09d2	0.11574139
140	0x3d548f32	0.051894374
141	0x3e1962af	0.14979051
142	0x3dde6d3f	0.10860681
143	0xbd8789bc	-0.066180676
144	0xbd49a6f0	-0.04923147
145	0x3e1b3d28	0.15160048
146	0x3dddb304	0.1082516
147	0xbe1b4304	-0.15162283
148	0xbdf9bfc1	-0.12194777
149	0xbe189b95	-0.149031
150	0x3e51ac8e	0.2047598
151	0x00000000	0.0
152	0xbde6d3c9	-0.112708636
153	0xbe93269b	-0.2874039
154	0x00000000	0.0
155	0xbd46e432	-0.048557468
156	0xbe51fbd3	-0.2050622
157	0xbe88f815	-0.26751772
158	0xbe412388	-0.1886121
159	0x3e7b6450	0.24549985
160	0xbe4950f2	-0.19659784
161	0xbe2b77c0	-0.167449
162	0xbe926640	-0.28593636
163	0x3e3e80e2	0.18603852
164	0x3eab3777	0.33440754
165	0xbe60d69b	-0.21956865
166	0xbd527a4f	-0.051386174
167	0x00000000	0.0
168	0x3df64be0	0.12026191
169	0x3e7f4d25	0.24931772
170	0x00000000	0.0
171	0x3dd8458e	0.105601415
172	0x00000000	0.0
173	0x3e1bade9	0.1520306
174	0xbe08ebd9	-0.13371219
175	0xbdc1b32c	-0.094580024
176	0xbda5f0c1	-0.08102561
177	0xbd176de3	-0.03697003
178	0x3dac48c7	0.08412319
179	0xbe12277f	-0.14272879
180	0x3d2e474b	0.04254846
181	0xbd1cb88c	-0.038261935
182	0xbd8e9011	-0.06961072
183	0x00000000	0.0
184	0xbd9a8f1f	-0.075468294
185	0x00000000	0.0
186	0x00000000	0.0
187	0x00000000	0.0
188	0x00000000	0.0
189	0xbdeeefcd	-0.11666832
190	0x00000000	0.0
191	0xbd905d3c	-0.07049033
192	0x00000000	0.0
193	0x00000000	0.0
194	0x3e7ec6be	0.24880502
195	0x3e3bfd57	0.1835836
196	0x00000000	0.0
197	0xbd4ac09a	-0.049500085
198	0x3e2d1c6d	0.16905375
199	0x3e9e8cd2	0.30966812
200	0x3e3a774b	0.18209569
201	0x00000000	0.0
202	0xbe47fba1	-0.19529583
203	0x3ddf9019	0.10916156
204	0x3e274384	0.16334349
205	0x3d9372d1	0.07199634
206	0xbd73884c	-0.059456155
207	0xbdf32378	-0.118719995
208	0x3e4ccbac	0.1999957
209	0xbd6cfa18	-0.057855695
210	0x3dfc68e1	0.123246916
211	0xbdc931ca	-0.0982395
212	0x3e20bf19	0.15697898
213	0x3e1be3c9	0.15223612
214	0xbea24043	-0.31689653
215	0x3e25db27	0.16196881
216	0x3e201761	0.15633918
217	0x3e0617e0	0.13095045
218	0xbd7f083c	-0.062263712
219	0xbeabe8b3	-0.33575973
220	0xbd3a0f89	-0.04542497
221	0x3dcef647	0.101055674
222	0x3d6cf71a	0.057852842
223	0xbe2cc896	-0.16873392
224	0xbe80b500	-0.25138092
225	0x3d6aa82c	0.057289287
226	0x3e5c146e	0.21492168
227	0x3d21f71d	0.039542306
228	0xbd17f07c	-0.03709458
229	0xbe0f97bd	-0.14022727
230	0x3e3ba701	0.18325426
231	0xbe7e8314	-0.2485469
232	0x3d8b69ba	0.06807275
233	0xbe0cc4be	-0.13746926
234	0xbe0f5e57	-0.14000832
235	0x00000000	0.0
236	0x00000000	0.0
237	0xbd0dccf4	-0.034619287
238	0xbd0000ab	-0.031250637
239	0xbe0ca705	-0.13735588
240	0x00000000	0.0
241	0xbccda7f4	-0.0251045
242	0x3d898c84	0.06716254
243	0x00000000	0.0
244	0x00000000	0.0
245	0x00000000	0.0
246	0x00000000	0.0
247	0x3d92d98a	0.071703985
248	0x3d379310	0.044817984
249	0x00000000	0.0
250	0x3d3e97be	0.04653143
251	0x00000000	0.0
252	0x3db09e9d	0.08624003
253	0x00000000	0.0
254	0xbe322d38	-0.17400062
255	0x3df59663	0.119915746

features.5.weight f4 [16]
0	0x3f81ea17	1.0149564
1	0x3fc0793f	1.5037001
2	0x3fd48269	1.6602298
3	0x3fbe5385	1.4869238
4	0x3fb41fb8	1.407218
5	0x3fae0f5b	1.3598436
6	0x3f8c1344	1.0943379
7	0x3f890d8b	1.0707258
8	0x3fad3d43	1.353432
9	0x3f9abb9b	1.2088503
10	0x3f8a8209	1.0820934
11	0x3fab948f	1.3404711
12	0x3fa3c728	1.2795153
13	0x3f94c2cc	1.1621947
14	0x3f9f07ae	1.2424219
15	0x3fa307ca	1.2736752

features.5.bias f4 [16]
0	0xbe2ddfb9	-0.16979875
1	0xbf407634	-0.75180364
2	0xbf02507b	-0.50904053
3	0xbe6f077c	-0.23342699
4	0xbf02ee77	-0.5114512
5	0xbef108e0	-0.47077084
6	0xbe4eb30f	-0.20185493
7	0xbe896061	-0.26831344
8	0xbe67075d	-0.22561403
9	0xbe371ccf	-0.17882083
10	0xbc9dc9fa	-0.019261349
11	0xbed8e5fd	-0.42362967
12	0xbedb0306	-0.42775744
13	0xbeb61ca3	-0.35568723
14	0xbec0cd3e	-0.37656587
15	0xbdf9afa6	-0.121917054

features.5.running_mean f4 [16]
0	0xbf8f1be8	-1.1180391
1	0xbf3a82df	-0.72855943
2	0xbf199ed0	-0.60007954
3	0xbfedbe56	-1.8573711
4	0xbf47e36d	-0.780814
5	0xbf5e5454	-0.86847425
6	0x3fd31aab	1.6492513
7	0x3f250074	0.64453816
8	0xbf9ce848	-1.2258387
9	0xbcdcc5e0	-0.026949823
10	0xbf0db9e3	-0.55361766
11	0xbf4f7184	-0.81032586
12	0xbf126eff	-0.57200617
13	0x3fac1584	1.3444066
14	0xbefbc220	-0.49171543
15	0xc00b130f	-2.1730382

features.5.running_var f4 [16]
0	0x3f90f568	1.1324892
1	0x3f98e240	1.1944046
2	0x3f8e2e61	1.1107904
3	0x401c85ab	2.4456584
4	0x40156eb9	2.334883
5	0x4002f4d1	2.0461924
6	0x3f981599	1.1881591
7	0x3fac9680	1.3483429
8	0x3f9e4d1f	1.2367285
9	0x3f9f7642	1.2457964
10	0x3f9ef92b	1.241979
11	0x3ff75868	1.9323854
12	0x3f931fb3	1.1494049
13	0x3f927178	1.1440878
14	0x3f51fed0	0.8202944
15	0x4001b797	2.0268304

features.9.weight f4 [120, 400]
0	0x3d7515b8	0.059835166
1	0x3dd5f66e	0.10447393
2	0xbbcf16ea	-0.0063198702
3	0xbd7dd3a4	-0.061969414
4	0x00000000	0.0
5	0xbc92637b	-0.017869702
6	0x3d5480f7	0.051880803
7	0x00000000	0.0
8	0xbd573a93	-0.052546095
9	0x3c6b2ab2	0.014353441
10	0xbcecb54c	-0.028895043
11	0x3c1a80db	0.009430136
12	0x3cce215c	0.025162391
13	0xbc5ecb2f	-0.013598247
14	0x3c384539	0.011246973
15	0xbd83f083	-0.06442358
16	0x00000000	0.0
17	0x3c7e4f8c	0.015521895
18	0x3d3b3de8	0.045713335
19	0x3d28ca78	0.041208714
20	0xbd6f131e	-0.05836784
21	0xbc7467e5	-0.0149173485
22	0x3c50c6c3	0.012742701
23	0x3dac10de	0.08401655
24	0x3da6dfcf	0.08148157
25	0x3be8ef3c	0.007108597
26	0x3de9fda3	0.114253305
27	0x3d357c00	0.04430771
28	0xbd8a947c	-0.067666024
29	0xbda0a276	-0.07843487
30	0x00000000	0.0
31	0x3d36b2fc	0.044604287
32	0x3c8760c0	0.016525626
33	0xbca6161d	-0.020274216
34	0xbd2fded6	-0.042937122
35	0x00000000	0.0
36	0xbc8ec084	-0.017425783
37	0x3c1ec571	0.009690628
38	0xbd05c075	-0.032654244
39	0xbd2e00d8	-0.042481273
40	0xbcae03e7	-0.021242095
41	0xbd223fd2	-0.039611645
42	0xbc7e7e9e	-0.015533118
43	0x3d1924fc	0.037388787
44	0x3cc175a8	0.023615673
45	0xbd077b55	-0.033076603
46	0xbda1a743	-0.07893231
47	0xbcf0515d	-0.029335672
48	0x3db83a1b	0.08995458
49	0x3cb1d739	0.021709071
50	0xbd18d449	-0.037311826
51	0x3d10c955	0.035348255
52	0x3d40f321	0.047106866
53	0x3c80132a	0.015634138
54	0x00000000	0.0
55	0xbdc975f5	-0.09836952
56	0x3d07b793	0.033134054
57	0x3dc0665b	0.09394523
58	0x00000000	0.0
59	0xbd250f8f	-0.04029804
60	0xbdb51b47	-0.08843093
61	0xbd61c3ae	-0.055118255
62	0x3da84733	0.08216705
63	0x3c86e79c	0.016467862
64	0xbd8dc986	-0.06923203
65	0xbda0a078	-0.07843107
66	0xbd963631	-0.07334555
67	0x00000000	0.0
68	0x3cdfca9f	0.027318297
69	0xbd3ec85d	-0.0465778
70	0xbd108e48	-0.03529194
71	0xbd960b14	-0.07326332
72	0xbd4aa4d3	-0.049473595
73	0x00000000	0.0
74	0xbc8b3f8a	-0.016998071
75	0x3da08264	0.0783737
76	0xbda89411	-0.082313664
77	0xbdd947c4	-0.10609391
78	0x3d742e07	0.059614208
79	0x3e2f7d86	0.17137727
80	0x3d5b3315	0.053515512
81	0xbd006dc6	-0.031354688
82	0xbd850014	-0.064941555
83	0x3c7682ab	0.015045802
84	0x3e0ebea8	0.13939917
85	0x3cfb1ac1	0.030652406
86	0x3bb4a030	0.00551226
87	0x3cc090e8	0.023506597
88	0xbc90f153	-0.017693197
89	0x3d3ae66a	0.045629896
90	0x00000000	0.0
91	0x3d0ffdc9	0.035154138
92	0x3d6f96d1	0.05849344
93	0x3c929ce9	0.017897086
94	0xbc661829	-0.014043846
95	0xbd22217b	-0.03958271
96	0x3ce25d14	0.027632274
97	0x3d7dd6ef	0.061972555
98	0xbc530465	-0.012879466
99	0xbd21f715	-0.039542276
100	0xbd267e03	-0.040647518
101	0x3c96af37	0.018394096
102	0x3cd75000	0.026283264
103	0x3d8bcfed	0.06826768
104	0xbc976b2e	-0.018483724
105	0xbc7f1023	-0.015567812
106	0xbd334e5e	-0.04377591
107	0xbc2b190b	-0.010442982
108	0x3cccd0b7	0.025001867
109	0x3cf89d12	0.030348334
110	0x3c40be28	0.011764087
111	0xbcdb9e82	-0.02680898
112	0xbc43e4bf	-0.011956393
113	0x00000000	0.0
114	0x00000000	0.0
115	0x3c885efb	0.016646853
116	0xbd59c2cb	-0.053164285
117	0xbd4bd5db	-0.049764495
118	0xbd5e794a	-0.05431489
119	0xbcb6115a	-0.02222507
120	0x3cc7e7ee	0.024402585
121	0xbcc73245	-0.024315963
122	0xbcc39c4c	-0.02387824
123	0xbca71596	-0.020396035
124	0x00000000	0.0
125	0x3c984db6	0.018591743
126	0x3c3d36cf	0.011548712
127	0x3dd48275	0.10376445
128	0xbc4a5e3e	-0.012351571
129	0xbdce7da5	-0.100825585
130	0x3c0a26e4	0.008432124
131	0x00000000	0.0
132	0x3d0da38c	0.0345798
133	0x3c4ef231	0.012630985
134	0xbd82205a	-0.06353827
135	0xbc96161d	-0.018321091
136	0xbc046d60	-0.008082718
137	0x3c14e49a	0.009087706
138	0x00000000	0.0
139	0xbca6ebfa	-0.020376194
140	0x3c5f75b5	0.013638903
141	0x00000000	0.0
142	0xbc5ee6eb	-0.01360486
143	0xbc831c4a	-0.0160047
144	0x3d032c19	0.032024477
145	0x3d0c83de	0.034305446
146	0x3b99680d	0.0046815933
147	0xbcd31275	-0.025765637
148	0xbbf604ea	-0.00750791
149	0x00000000	0.0
150	0xbd0d0e71	-0.0344376
151	0x00000000	0.0
152	0x3d20cc24	0.039257184
153	0xbc1edafa	-0.009695763
154	0xbd7e6424	-0.06210722
155	0xbd2486f1	-0.040167753
156	0xbd0f2f10	-0.03495699
157	0x3bd58b68	0.0065168627
158	0x00000000	0.0
159	0xbd1be1ab	-0.03805701
160	0xbcb225e1	-0.021746578
161	0xbc9ef646	-0.019404542
162	0x00000000	0.0
163	0xbbb4ea94	-0.005521128
164	0xbc54f799	-0.012998485
165	0xbd269c3f	-0.04067635
166	0x3c598821	0.013277085
167	0x3c1ff655	0.00976332
168	0x00000000	0.0
169	0xbcf77cc5	-0.030210862
170	0xbd7dfb69	-0.06200734
171	0xbc6dfd85	-0.014525776
172	0x3a7db474	0.00096780737
173	0xbd70d682	-0.05879832
174	0x00000000	0.0
175	0xbc43872d	-0.011934084
176	0x3d6e4994	0.05817564
177	0x3c150c25	0.009097134
178	0x00000000	0.0
179	0xbdaef3e2	-0.08542611
180	0xbc9e7bf8	-0.019346222
181	0x3c876003	0.016525274
182	0xbd2f53f3	-0.04280467
183	0x00000000	0.0
184	0xbd431f2c	-0.04763715
185	0xbc4205e8	-0.0118422285
186	0x00000000	0.0
187	0xbcc576d1	-0.024104508
188	0x00000000	0.0
189	0xbc4ee058	-0.01262673
190	0xbcc8da47	-0.024518145
191	0xbcc1bb33	-0.023648834
192	0xbd0d483e	-0.034492724
193	0xbc951b58	-0.018201515
194	0xbc9c4002	-0.01907349
195	0xbcfc60fa	-0.03080796
196	0xbd0492f4	-0.032366708
197	0xbd32f4d0	-0.043690503
198	0xbcc7c564	-0.024386115
199	0xbc850953	-0.016239798
200	0x00000000	0.0
201	0xbbee380f	-0.0072698663
202	0xbc5e6247	-0.013573236
203	0x3d38b5e0	0.045095325
204	0x3d898910	0.06715596
205	0xbd3d6c81	-0.046246056
206	0xbca0f40f	-0.019647626
207	0xbda7e088	-0.08197123
208	0xbca9be86	-0.020720731
209	0x3d50aff2	0.050949045
210	0xbd8dd5d0	-0.06925547
211	0xbca25e17	-0.019820256
212	0xbc1b77e9	-0.009489038
213	0x00000000	0.0
214	0x00000000	0.0
215	0xbcd93fe4	-0.026519723
216	0xbcfbdc91	-0.030744823
217	0xbb468312	-0.0030290526
218	0xbd4bc01d	-0.04974376
219	0xbd1513d2	-0.036395855
220	0x3d1dd780	0.038535595
221	0x00000000	0.0
222	0xbcc8ca16	-0.024510425
223	0xbd49c5b8	-0.049260825
224	0xbcc432ff	-0.023950098
225	0x3dafc44c	0.085823625
226	0x3dc2bc37	0.095085554
227	0x3ce77765	0.028255174
228	0xbdc0db5c	-0.094168395
229	0xbd86976e	-0.06571852
230	0x3d75a1ad	0.05996864
231	0x3d517bf7	0.051143613
232	0x3c0fede0	0.008784741
233	0xbd3b1ef1	-0.045683805
234	0xbd70a0d3	-0.058747124
235	0x3c40466d	0.011735541
236	0x00000000	0.0
237	0x00000000	0.0
238	0xbc828ac8	-0.015935317
239	0xbbb88e1a	-0.005632174
240	0xbcbbdcbe	-0.022932407
241	0xbd06ede3	-0.03294171
242	0xbd36104e	-0.044449143
243	0x00000000	0.0
244	0x3d3617c3	0.044456255
245	0xbd10ac6a	-0.035320677
246	0xbc70d9c4	-0.014700357
247	0xbd755d63	-0.059903514
248	0x00000000	0.0
249	0x3d7a6eae	0.06114071
250	0xbd4c5d0f	-0.049893435
251	0x3c176fc0	0.009242952
252	0xbcbc0906	-0.022953521
253	0x3d316527	0.043309357
254	0x3d518e53	0.05116112
255	0xbd05f9f1	-0.032709066

features.9.bias f4 [120]
0	0xbc46ba6b	-0.012129406
1	0xbb5c7952	-0.0033641648
2	0x3e683ff2	0.22680643
3	0x3e461824	0.19345146
4	0xbd18d60f	-0.037313517
5	0xbbb0bd56	-0.0053936644
6	0xbad8713a	-0.0016513236
7	0x3d8415ea	0.06449492
8	0x3bb6e87a	0.0055819126
9	0xbb868c0f	-0.0041060518
10	0xbc0b191a	-0.008489871
11	0xbdbcc5fc	-0.0921745
12	0x3caa6b37	0.020803077
13	0x3c234ae1	0.009966583
14	0x3db4f5ee	0.0883597
15	0x3c6ee5b7	0.0145811355
16	0x3db223ff	0.08698272
17	0xbc3a2ec2	-0.011363687
18	0xbd81d189	-0.06338794
19	0x3d176ff6	0.03697201
20	0x3c6887ab	0.014192502
21	0x3d92ed1a	0.0717413
22	0xbce470fb	-0.027885905
23	0xbd125e8e	-0.035734706
24	0x3d4a84c8	0.049443036
25	0xbd128fa8	-0.035781533
26	0x3d792d4e	0.06083422
27	0xbca71ee4	-0.020400472
28	0x3ddff6a1	0.109357126
29	0x3cfd323f	0.030907748
30	0x3d2ed76d	0.042685915
31	0x3bbb572a	0.005717178
32	0x3b83bf13	0.0040205806
33	0xbb28e373	-0.0025770336
34	0x3c4dc5a8	0.012559332
35	0x3c3441b3	0.011001992
36	0xbcb2e73e	-0.02183878
37	0xbc879b73	-0.016553616
38	0xbacf2c8a	-0.001580612
39	0x3c8a2b21	0.016866269
40	0x3c6ee165	0.014580105
41	0xbb94b245	-0.004537853
42	0x3d11f6ed	0.035635877
43	0xbc9fa101	-0.019485952
44	0x3da357fa	0.079757646
45	0x3d0c0339	0.03418276
46	0x3c9a34f7	0.018824084
47	0x3d57e1ed	0.052705694
48	0x3c8662b7	0.016404493
49	0x3dee22fa	0.11627765
50	0xbb8076a3	-0.0039203926
51	0xbca99a0d	-0.02070334
52	0x3da627b2	0.0811304
53	0x3cf1cd15	0.029516736
54	0x3c050aae	0.008120222
55	0xbc3617df	-0.01111409
56	0x3c96de4e	0.01841655
57	0x3b984623	0.004647033
58	0x3cf561ab	0.029953798
59	0x3cb87ac3	0.022519475
60	0xbcc75a0f	-0.024334935
61	0xbc023c75	-0.007948984
62	0x3cf32e13	0.029685056
63	0x3c440f7c	0.011966582
64	0xbbea9734	-0.007159138
65	0xbbbdb13f	-0.0057889516
66	0xbbadb776	-0.0053014113
67	0x3cc54fde	0.024085935
68	0xbdab8707	-0.08375364
69	0x3d9268f3	0.07148924
70	0x3cb512ac	0.02210363
71	0xbd27a266	-0.04092636
72	0x3d0f801d	0.035034288
73	0xba3f9dc2	-0.00073095795
74	0x3bdd7391	0.0067581614
75	0x3db67146	0.08908324
76	0x3da26ce9	0.07930929
77	0x3cd57983	0.026058918
78	0x3c096cf3	0.008387792
79	0xbd02acd4	-0.031903103
80	0xbca28b6f	-0.019841878
81	0xbb9d4e38	-0.004800584
82	0x3d838f4d	0.06423817
83	0xbcd84147	-0.026398314
84	0xbca6f004	-0.02037812
85	0xbcd10899	-0.025516795
86	0x3ddc4f7d	0.10757349
87	0x3cab5a26	0.02091701
88	0xbd9908fd	-0.074724175
89	0x3de0cd61	0.10976673
90	0xbc0477e2	-0.008085223
91	0x3cc39de9	0.023879008
92	0xbd7a37a8	-0.061088234
93	0xbccb180b	-0.024791738
94	0x3d861373	0.065466784
95	0x3e081997	0.13291012
96	0x3ce37b35	0.02776871
97	0x3e02aebf	0.12761973
98	0x3c86b338	0.01644288
99	0x3baf6b9c	0.005353404
100	0xbba14784	-0.0049218554
101	0xbd67fe97	-0.05663928
102	0x3c973e22	0.018462244
103	0x3c95a5ad	0.018267477
104	0x3d9f97fe	0.07792662
105	0x3c813352	0.015771542
106	0x3c42bd49	0.011885949
107	0x3e39bcea	0.18138471
108	0x3cc7dcc6	0.024397265
109	0x3d903607	0.07041555
110	0x3c40110f	0.011722817
111	0x3d1173ad	0.035510708
112	0x3d6b6b9f	0.057475682
113	0xbce6e750	-0.02818647
114	0xbd4687da	-0.048469402
115	0xbb85f099	-0.0040875194
116	0xbcdb1277	-0.026742203
117	0x3c698d5d	0.014254895
118	0xbc8cf7f0	-0.01720807
119	0xbd7decb2	-0.06199331

features.11.weight f4 [84, 120]
0	0x3dcd32a6	0.10019426
1	0x3e034724	0.12820107
2	0x3d860e92	0.06545748
3	0x3e088dce	0.13335344
4	0x3c32a419	0.010903382
5	0x3d0036d9	0.031302307
6	0x3da8a7f1	0.08235157
7	0xbdca020d	-0.098636724
8	0xbc9c2c76	-0.01906417
9	0xbe013789	-0.12618841
10	0xbd68a39d	-0.05679666
11	0x3e7a0e0e	0.24419424
12	0x3de7471c	0.1129286
13	0x3d42fbba	0.047603346
14	0x00000000	0.0
15	0x3cec4f7a	0.028846491
16	0x3d93e8af	0.07222115
17	0xbd3514d6	-0.044209324
18	0x3dbf14dc	0.093301505
19	0x3d9cbd4c	0.07653293
20	0x3dbe3b63	0.09288671
21	0xbd1690d6	-0.03675922
22	0x3d18d306	0.037310623
23	0x3d2f548d	0.042805243
24	0xbe312eae	-0.17302963
25	0xbc4cdc41	-0.0125036845
26	0x3c767521	0.015042574
27	0xbbd4a385	-0.0064892196
28	0x3e424817	0.18972813
29	0x00000000	0.0
30	0x3c217f4f	0.009857013
31	0x3d397e47	0.045286443
32	0x00000000	0.0
33	0xbce5122c	-0.027962767
34	0x3d902f9d	0.070403315
35	0x3d5895d3	0.05287726
36	0xbd05eece	-0.032698445
37	0xbd1a2495	-0.037632544
38	0x3c192452	0.009347038
39	0xbd2c48f5	-0.042061765
40	0xbc03add0	-0.008037046
41	0xbd089e15	-0.033353884
42	0x3c2af211	0.01043369
43	0x00000000	0.0
44	0xbc2c407f	-0.010513424
45	0x3d1d5a1b	0.03841601
46	0x3cba01f0	0.022706002
47	0x3e152616	0.1456531
48	0x3e40c32a	0.18824449
49	0xbdb585fb	-0.08863445
50	0xbd65f758	-0.05614409
51	0x3d8d6fed	0.06906114
52	0xbda70d72	-0.08156861
53	0x3c9b38c3	0.018947965
54	0x3d54d093	0.051956724
55	0x00000000	0.0
56	0x3da0aa6a	0.07845004
57	0x3d08e861	0.03342474
58	0x3ca1bb4d	0.019742632
59	0xbc43c4b1	-0.01194875
60	0x3db82177	0.08990758
61	0x00000000	0.0
62	0x3d3d9ae2	0.046290286
63	0x00000000	0.0
64	0x3d316d63	0.04331721
65	0xbe031251	-0.12799956
66	0x3d8e4889	0.06947429
67	0xbd51aa72	-0.05118794
68	0xbdd23120	-0.10263276
69	0x3bd0e017	0.00637437
70	0xbd7d095c	-0.061776504
71	0x3c62894f	0.013826682
72	0x3cc68ceb	0.024237117
73	0x00000000	0.0
74	0x3cbbce25	0.022925446
75	0x3def8c5b	0.116966926
76	0x00000000	0.0
77	0x3e073088	0.13202107
78	0xbdb1a9f5	-0.08674995
79	0xbcaa820b	-0.020813962
80	0xbde54302	-0.11194421
81	0x3c97fbfc	0.018552773
82	0x3d78599b	0.06063233
83	0x3e11146d	0.14167948
84	0x3e2cb67d	0.16866489
85	0xbdc0f33b	-0.094213925
86	0x3e041956	0.1290029
87	0xbde45830	-0.11149633
88	0x3bb50954	0.0055247936
89	0xbd7ebbe7	-0.062190916
90	0x3d06f3c7	0.032947328
91	0x3d9b1b3c	0.07573554
92	0xbe10b5c8	-0.14131844
93	0x3d0390c6	0.03212049
94	0x3cd2ba4f	0.025723604
95	0xbca7a487	-0.020464195
96	0x3d9b2826	0.07576017
97	0xbe343e6f	-0.17601942
98	0x3c56a5e3	0.013101074
99	0x3d3a43ea	0.045474924
100	0x3d3cc56d	0.046086717
101	0x3e28d691	0.164881
102	0xbe05aea0	-0.13054895
103	0xbda1b320	-0.078954935
104	0x3c285eb1	0.010276482
105	0x3d66f110	0.05638224
106	0xbcbf5f8b	-0.023360988
107	0x3d218698	0.039435
108	0xbcc7b2c7	-0.02437724
109	0xbe2c50a9	-0.16827644
110	0xbd727c7d	-0.059200753
111	0x3de34fa6	0.11099176
112	0xbe0451ba	-0.12921801
113	0x3df8dfb1	0.12152041
114	0xbce909ce	-0.028447058
115	0x3c0bd748	0.008535214
116	0x3d2143c7	0.039371278
117	0xbd08ba5a	-0.033380844
118	0xbd0debd7	-0.034648743
119	0xbdaba973	-0.08381929
120	0xbcb5b185	-0.022179374
121	0xbd720436	-0.059086047
122	0x3cdfc754	0.027316727
123	0x3ccaf2fe	0.02477407
124	0xbd18f2e4	-0.037341014
125	0xbbe8bde0	-0.007102713
126	0xbcb7f17d	-0.022454018
127	0x3cca95ad	0.024729574
128	0x00000000	0.0
129	0xbcbad6cf	-0.022807507
130	0x3c1dda08	0.009634502
131	0xbca5cec7	-0.0202402
132	0x3bf57d7c	0.0074917655
133	0x00000000	0.0
134	0x3d3ca7e5	0.046058554
135	0xbd0fc2ba	-0.035097815
136	0x00000000	0.0
137	0xbc8e0aae	-0.017339077
138	0x00000000	0.0
139	0x3bfaf29c	0.007658316
140	0x3cd8f5f6	0.02648447
141	0x3d8a4101	0.0675068
142	0xbbe59dd0	-0.007007338
143	0x00000000	0.0
144	0x00000000	0.0
145	0xbcf13acd	-0.029446984
146	0xbbd5e3cd	-0.0065274
147	0xbcdfbdd3	-0.027312195
148	0xbd273d38	-0.040829867
149	0x3d06dc91	0.032925192
150	0x3cc62323	0.024186676
151	0xbcc09ef1	-0.02351329
152	0x3c5a30ac	0.013317268
153	0x00000000	0.0
154	0xbce7678a	-0.028247613
155	0x3c4abc9c	0.01237407
156	0xbc2850a8	-0.010273136
157	0x00000000	0.0
158	0xbbedc37f	-0.007255971
159	0x00000000	0.0
160	0x3cab4f12	0.020911727
161	0x3c12ecb6	0.008967569
162	0x3c9b3d3c	0.018950097
163	0x00000000	0.0
164	0xbc622c8e	-0.013804568
165	0xbd3ff131	-0.046860877
166	0xbc9f15fc	-0.019419663
167	0x00000000	0.0
168	0x3c81c481	0.01584077
169	0x3cbd8f92	0.023139749
170	0xbc67417e	-0.014114736
171	0x00000000	0.0
172	0x3d359a94	0.04433687
173	0x00000000	0.0
174	0x3c6a6a59	0.014307582
175	0x3c954dfa	0.018225659
176	0xbd47e144	-0.048798814
177	0x00000000	0.0
178	0xbc798db9	-0.015231543
179	0xbce380e5	-0.027771423
180	0xbcd2074e	-0.025638249
181	0x00000000	0.0
182	0x00000000	0.0
183	0x3c03bbb1	0.008040355
184	0x00000000	0.0
185	0x3c7b5a9e	0.015341429
186	0xbc48830b	-0.012238274
187	0x00000000	0.0
188	0xbbec9fe8	-0.0072212107
189	0xbcfa186f	-0.030529229
190	0x3bdafd21	0.0066830073
191	0x3c43c617	0.011949084
192	0xbc694d72	-0.014239656
193	0x3c2588d9	0.010103428
194	0x00000000	0.0
195	0x3d5527c0	0.05203986
196	0x3c435927	0.011923111
197	0x00000000	0.0
198	0xbd14af34	-0.0362999
199	0x00000000	0.0
200	0xbce8daf0	-0.02842471
201	0x00000000	0.0
202	0x3cbe3791	0.023219856
203	0xbc825dc9	-0.01591386
204	0xbd077296	-0.033068262
205	0xbbd0a5aa	-0.006367405
206	0x3c95790d	0.018246198
207	0x3c072551	0.008248643
208	0xbc38d672	-0.0112815965
209	0x3d8ae7de	0.067825064
210	0x00000000	0.0
211	0x00000000	0.0
212	0xbd0a4f2c	-0.03376691
213	0xbca9819d	-0.020691687
214	0x3c98239f	0.018571673
215	0x3d00fd6f	0.031491693
216	0x00000000	0.0
217	0xbc78bbed	-0.015181524
218	0x00000000	0.0
219	0xbc233d28	-0.009963311
220	0x00000000	0.0
221	0xbd233c86	-0.03985264
222	0x00000000	0.0
223	0x3d354474	0.044254735
224	0xbc52c1ef	-0.01286362
225	0xbc150aa3	-0.009096774
226	0xbbddff54	-0.0067748223
227	0x3cf9217e	0.030411478
228	0x00000000	0.0
229	0x00000000	0.0
230	0xbc2d42db	-0.010575022
231	0xbca4d93e	-0.02012312
232	0x00000000	0.0
233	0xbd04e5c9	-0.032445703
234	0xbd440d90	-0.047864497
235	0xbc162d5f	-0.009166091
236	0xbc825f4e	-0.015914585
237	0x3c8a1a9e	0.016858395
238	0x00000000	0.0
239	0x00000000	0.0
240	0x3c5182ea	0.01278756
241	0x3d9a008d	0.07519636
242	0x3c8f51ad	0.017495
243	0x3dcff7cb	0.10154685
244	0xbd7e8c56	-0.062145554
245	0x00000000	0.0
246	0xbd1975ac	-0.037465736
247	0xbc56ad11	-0.013102786
248	0x00000000	0.0
249	0xbd16281f	-0.036659356
250	0xbd1e09b4	-0.038583472
251	0x3d508262	0.050905593
252	0x00000000	0.0
253	0x00000000	0.0
254	0x3dac2ec5	0.08407358
255	0xbd0910e6	-0.03346338

features.11.bias f4 [84]
0	0x3e7f7b5c	0.24949402
1	0x3d8657c3	0.06559708
2	0x3e3713d5	0.17878659
3	0x3e8ff53f	0.28116795
4	0xbddb2b36	-0.10701601
5	0x3d98510d	0.07437334
6	0x3dcce4f2	0.10004605
7	0x3c40c6a5	0.011766111
8	0x3d575189	0.052567992
9	0x3dee47cd	0.11634789
10	0x3d672707	0.056433704
11	0xba895e2b	-0.0010480335
12	0x3d355449	0.044269834
13	0x3e349890	0.17636323
14	0x3c8dd564	0.017313667
15	0x3c4b317e	0.012401937
16	0xbcb022dd	-0.021501
17	0x3e1a0800	0.15042114
18	0xbb24abfd	-0.0025126927
19	0x3e52357d	0.20528217
20	0x3cfa6225	0.030564377
21	0x3d812777	0.063063554
22	0x3df4ce76	0.11953442
23	0x3db4331a	0.08798809
24	0xbbd3033f	-0.006439596
25	0xbd6c90ad	-0.05775516
26	0x3e420b7b	0.18949692
27	0x3e631487	0.221758
28	0x3e4710b6	0.19439968
29	0x39faf00c	0.00047862565
30	0xbd66015a	-0.056153633
31	0x3c9cd10a	0.019142646
32	0x3bb50f18	0.005525481
33	0x3cbcaa92	0.023030553
34	0xbccab9e5	-0.024746845
35	0xbb608076	-0.0034256256
36	0x3dbe4dbe	0.09292172
37	0xbb43dfd2	-0.0029888046
38	0xba008748	-0.0004902971
39	0x3de6b8eb	0.11265739
40	0xbb1b0aac	-0.0023657484
41	0xbb8b3ec7	-0.004249427
42	0x3dd309e5	0.103046216
43	0x3d203347	0.039111402
44	0xbd2d9ac0	-0.04238391
45	0x3e0b8d9a	0.13628235
46	0x3dbe127c	0.09280869
47	0x3c8a068f	0.01684883
48	0x3d7f3e9f	0.06231558
49	0xbd5af71e	-0.053458326
50	0x3b3fdd88	0.002927633
51	0xbbb38775	-0.005478794
52	0x3e37c944	0.1794787
53	0x3e0bb691	0.13643862
54	0x3e866ebe	0.26256365
55	0x3e611e7d	0.21984287
56	0x3e5aba20	0.21360064
57	0xbc0d7f71	-0.008636341
58	0x3c3abdad	0.011397761
59	0x3c859c83	0.016309982
60	0xbaa0be36	-0.0012263719
61	0x3bc63a82	0.006049455
62	0x3e27b478	0.16377437
63	0x3e6e9d2a	0.23302141
64	0x3d8e8c70	0.0696038
65	0x3e5bdeca	0.21471706
66	0x3e912144	0.28345692
67	0x3da3a9c7	0.07991367
68	0x3ea3e9aa	0.3201421
69	0x3a6d923b	0.00090626226
70	0x3b98c212	0.004661807
71	0xbc86453c	-0.016390435
72	0xbb3f3ac1	-0.0029179307
73	0x3cccac5a	0.024984527
74	0xbb29b11a	-0.0025892914
75	0x3e11ef04	0.14251333
76	0xbcb13217	-0.02163033
77	0x3ce7f764	0.028316207
78	0x3da95928	0.08268958
79	0x3e250ce0	0.16118193
80	0xbb58bfee	-0.0033073383
81	0x3d5f8811	0.054573122
82	0x3e38c080	0.18042183
83	0x3c5d904f	0.013523175

classifiers.0.weight f4 [5, 84]
0	0x3f2a0940	0.66420364
1	0xbdaf33e6	-0.08554821
2	0x3ded5ffd	0.11590574
3	0x3e40f2fe	0.18842694
4	0xbdfd778b	-0.12376317
5	0xbe2fbcd4	-0.17161876
6	0xbe8f6bea	-0.2801202
7	0x3e7ce8de	0.24698207
8	0xbe86ee04	-0.26353467
9	0x3ec67f03	0.38768777
10	0xbcbc9846	-0.023021828
11	0x3c260709	0.010133513
12	0x3dd29124	0.102815896
13	0xbecefc95	-0.4042708
14	0xbdb5d24e	-0.08878003
15	0xbcdd64c2	-0.027025584
16	0x3d87424f	0.06604444
17	0x3d265d31	0.040616218
18	0x3e09026d	0.13379832
19	0xbf096984	-0.5367663
20	0xbd7d643f	-0.06186318
21	0xbd8452fe	-0.06461142
22	0xbde08744	-0.109633
23	0xbe402893	-0.18765478
24	0xbaf59f3a	-0.001873947
25	0xbed45462	-0.4147063
26	0xbeecab8c	-0.4622463
27	0xbd21a2d8	-0.03946194
28	0x3e83ed0f	0.257668
29	0x3c6fde33	0.014640379
30	0x3e6ef0d8	0.23334062
31	0xbe02b5fc	-0.12764734
32	0xbc42b2c3	-0.01188344
33	0xbe21c37a	-0.15797225
34	0x3e062d9f	0.1310334
35	0x3a77b606	0.0009449426
36	0xbe644099	-0.22290267
37	0x3a28eb9d	0.00064438005
38	0x3adcc760	0.0016844086
39	0xbc933417	-0.017969174
40	0x3e3aa47e	0.18226811
41	0xbc8931e3	-0.01674742
42	0xbed12fd6	-0.40856808
43	0xbe9362b3	-0.2878624
44	0xbdab9d1c	-0.083795756
45	0xbdd5c164	-0.10437277
46	0xbeb1a565	-0.346965
47	0xbb503407	-0.0031769292
48	0x3ec50793	0.3848234
49	0xbcc01a1e	-0.023449954
50	0xbccb6938	-0.024830446
51	0xb99980be	-0.00029278354
52	0xbe4b27eb	-0.19839446
53	0x3c801fc0	0.01564014
54	0x3d93e015	0.07220475
55	0x3d11b95f	0.035577174
56	0x3de3de3d	0.11126373
57	0x3ebcaaad	0.36848965
58	0xbbb176d2	-0.005415776
59	0x3bf7aa31	0.00755813
60	0x3e49aa42	0.19693854
61	0x3ecae108	0.3962481
62	0x3cfc622f	0.030808536
63	0x3e28d2a4	0.16486603
64	0x3c759e0e	0.014991296
65	0x3e3f181d	0.18661542
66	0x3e1c8edc	0.15288872
67	0xbe3ca463	-0.18422084
68	0xbe87ad2a	-0.264993
69	0xbbf1de1f	-0.007381215
70	0xbc5ccc7a	-0.013476485
71	0x3e4bb1b9	0.19892015
72	0x3cae7c05	0.021299371
73	0x3c0b6f79	0.008510464
74	0x3aa50bde	0.0012592038
75	0xbee1408e	-0.43994564
76	0xbead04c5	-0.337927
77	0x3e2e5d2f	0.17027734
78	0xbd9db63d	-0.07700775
79	0x3f329cd8	0.69770575
80	0xbb02f269	-0.0019980913
81	0xbe380955	-0.1797231
82	0xbe6c9fe2	-0.23107865
83	0x3cc1df46	0.023666035
84	0xbeaa45c4	-0.33256352
85	0xbcdd7a6f	-0.02703592
86	0xbee6742b	-0.45010504
87	0xbeb3c6d0	-0.3511262
88	0x3c2b6379	0.010460728
89	0x3b89e4e5	0.0042081946
90	0x3cacef2c	0.02111014
91	0xbd2ff16b	-0.042954843
92	0x3e1bf4fe	0.15230176
93	0x3d88fe1a	0.06689091
94	0x3e071c22	0.13194326
95	0xbc2d5a1c	-0.010580566
96	0xbe9f83f4	-0.3115536
97	0x3e9f63ae	0.31130737
98	0x3deff329	0.11716301
99	0x3cbd046a	0.023073394
100	0xbe9dbd83	-0.30808648
101	0xbe9b9b56	-0.3039195
102	0xbd63433b	-0.055484038
103	0x3e3da0e7	0.1851841
104	0xbd0cceda	-0.034376957
105	0xbcdda1f1	-0.027054759
106	0x3ebe16f2	0.3712688
107	0x3ed074d4	0.40714133
108	0x3ad0f10c	0.0015940978
109	0x3da9cfa7	0.0829156
110	0x3eae1b9d	0.34005442
111	0xbe129cac	-0.14317578
112	0xbd861f08	-0.065488875
113	0x3c69d758	0.014272533
114	0xbe8244fa	-0.2544325
115	0x3ce49bbc	0.027906291
116	0xbca25096	-0.019813817
117	0xbe9b2027	-0.30297968
118	0xbdd3a583	-0.10334303
119	0xbcd60342	-0.0261246
120	0x3c7fa9aa	0.015604416
121	0xbc288647	-0.01028592
122	0x3ca790f9	0.02045487
123	0xbda34f89	-0.079741545
124	0xbe25e60b	-0.16201036
125	0xbb090b8e	-0.0020911428
126	0xbe50276d	-0.2032754
127	0xbd0269ff	-0.031839367
128	0xbdb5cda6	-0.08877115
129	0x3d8b0fb6	0.06790106
130	0x3f02be86	0.51071966
131	0x3cfe6a88	0.031056657
132	0xbdddd621	-0.108318575
133	0x3c688090	0.014190808
134	0x3c932388	0.017961279
135	0xbc779caa	-0.015113035
136	0xbd807383	-0.06272032
137	0xbe9459be	-0.28974718
138	0xbe5a0641	-0.21291448
139	0xbdc1fad5	-0.094716705
140	0xba84e8a8	-0.0010140138
141	0x3d508e2b	0.050916832
142	0x3e08222f	0.1329429
143	0x3d8295f1	0.06376255
144	0xbe2c5fff	-0.16833495
145	0xbdff21f4	-0.12457648
146	0xbe377e02	-0.17919162
147	0xbdd9db74	-0.106375605
148	0xbe1fa344	-0.15589625
149	0xbd46ef80	-0.04856825
150	0xbe83a1c0	-0.25709343
151	0x3e193186	0.14960298
152	0x3ee0eae3	0.43929204
153	0xbc8dfd99	-0.017332839
154	0x3d1555a8	0.03645864
155	0xbe663f18	-0.22485006
156	0x3b91dab2	0.0044511193
157	0x3d7ee6e2	0.062231906
158	0x3c1e055d	0.009644833
159	0x3dab3ed6	0.083615944
160	0x3ce6b6f1	0.028163405
161	0x3d4701cc	0.048585698
162	0x3e0b377d	0.13595386
163	0xbb3891dc	-0.002816311
164	0xbc645c7f	-0.013938068
165	0x3c485336	0.01222687
166	0x3d74e92d	0.059792686
167	0x3de7774b	0.1130205
168	0x3dd32061	0.1030891
169	0x3e29f03c	0.16595548
170	0x3e8f031e	0.27932066
171	0x3ebbe6d7	0.36699554
172	0xbe78b453	-0.24287538
173	0x3d878cb9	0.066186376
174	0x3d0ebdb8	0.0348489
175	0xbe4dc72d	-0.20095511
176	0xbec007a6	-0.37505835
177	0xbc47b6bf	-0.012189566
178	0x3d38fb30	0.045161426
179	0x3bb42136	0.005497123
180	0x3b8f5cae	0.004375062
181	0x3e2fc4f8	0.17164981
182	0xbdeeaf11	-0.11654485
183	0xbc4d7638	-0.012540393
184	0xbcb43414	-0.021997489
185	0x3e6591e9	0.22418942
186	0xbe263c6e	-0.1623399
187	0x3dd3d86b	0.10344013
188	0x3ce77af6	0.028256875
189	0x3e0de018	0.13855016
190	0x3d00a856	0.031410538
191	0xbe9b9a8a	-0.3039134
192	0xbbe4602b	-0.006969472
193	0xbd866516	-0.06562249
194	0x3d9deaa7	0.07710772
195	0x3ea2beb9	0.31786135
196	0x3e49bd5b	0.1970114
197	0xbc21cfe2	-0.009876223
198	0xbe8512cb	-0.259909
199	0xbe831718	-0.25603557
200	0x3ca54859	0.0201761
201	0x3e1c9da0	0.15294504
202	0xbe702da2	-0.23454908
203	0xbbb73598	-0.0055911057
204	0xbe34fecb	-0.17675321
205	0x3b10b635	0.002208126
206	0xbc57a2ba	-0.013161356
207	0x3e6037fe	0.2189636
208	0xbd8b77d0	-0.06809962
209	0x3b44a506	0.0030005588
210	0x3d959150	0.07303107
211	0xbe7212fc	-0.23640054
212	0xbe4cc399	-0.1999649
213	0x3de3ebc1	0.11128951
214	0xbeb0c40b	-0.3452457
215	0x3c5a1678	0.013311021
216	0xbade0fee	-0.0016942003
217	0xbe48d0aa	-0.19610849
218	0xbc89b28f	-0.016808776
219	0xbb8dc649	-0.004326616
220	0x3e923c86	0.285618
221	0x3e61dc94	0.220568
222	0x3ed5905e	0.41711706
223	0x3eafb024	0.34314072
224	0x3e817ea7	0.2529194
225	0xbf0b8d86	-0.5451282
226	0xbe7698b2	-0.24081686
227	0xbcd6ae28	-0.026206091
228	0xbed46b31	-0.4148803
229	0xbeddcfd2	-0.43322617
230	0x3e894013	0.26806697
231	0x3e95a259	0.29225424
232	0x3e050fb2	0.12994269
233	0x3e8153eb	0.25259337
234	0x3ed383cd	0.41311494
235	0x3e1eb8a2	0.1550012
236	0x3e738783	0.23782162
237	0xbc24ddf6	-0.010062685
238	0x3cdedd94	0.027205266
239	0xbe0b6ecb	-0.13616483
240	0xbcbf3862	-0.023342315
241	0x3c07d3d9	0.0082902545
242	0x3c60ba33	0.013716268
243	0x3daed6a7	0.085370354
244	0x3c3141fc	0.010818955
245	0xbd80a583	-0.06281569
246	0x3dd0c8a1	0.10194517
247	0xbc62de3f	-0.013846933
248	0xbcb63dc8	-0.022246256
249	0x3de839ef	0.11339175
250	0x3eaa004e	0.33203357
251	0xbe195d4e	-0.14976999
252	0xbc1c509f	-0.009540706
253	0xbd2917b5	-0.041282374
254	0x3cd9394d	0.026516581
255	0xbcf611e6	-0.030037832

classifiers.0.bias f4 [5]
0	0xbef1467d	-0.4712409
1	0x3f7564d2	0.95856965
2	0x3f556e81	0.8337174
3	0xbf5d8fd5	-0.86547595
4	0xbee94060	-0.45556927

classifier.weight f4 [5, 84]
0	0x3f2a0940	0.66420364
1	0xbdaf33e6	-0.08554821
2	0x3ded5ffd	0.11590574
3	0x3e40f2fe	0.18842694
4	0xbdfd778b	-0.12376317
5	0xbe2fbcd4	-0.17161876
6	0xbe8f6bea	-0.2801202
7	0x3e7ce8de	0.24698207
8	0xbe86ee04	-0.26353467
9	0x3ec67f03	0.38768777
10	0xbcbc9846	-0.023021828
11	0x3c260709	0.010133513
12	0x3dd29124	0.102815896
13	0xbecefc95	-0.4042708
14	0xbdb5d24e	-0.08878003
15	0xbcdd64c2	-0.027025584
16	0x3d87424f	0.06604444
17	0x3d265d31	0.040616218
18	0x3e09026d	0.13379832
19	0xbf096984	-0.5367663
20	0xbd7d643f	-0.06186318
21	0xbd8452fe	-0.06461142
22	0xbde08744	-0.109633
23	0xbe402893	-0.18765478
24	0xbaf59f3a	-0.001873947
25	0xbed45462	-0.4147063
26	0xbeecab8c	-0.4622463
27	0xbd21a2d8	-0.03946194
28	0x3e83ed0f	0.257668
29	0x3c6fde33	0.014640379
30	0x3e6ef0d8	0.23334062
31	0xbe02b5fc	-0.12764734
32	0xbc42b2c3	-0.01188344
33	0xbe21c37a	-0.15797225
34	0x3e062d9f	0.1310334
35	0x3a77b606	0.0009449426
36	0xbe644099	-0.22290267
37	0x3a28eb9d	0.00064438005
38	0x3adcc760	0.0016844086
39	0xbc933417	-0.017969174
40	0x3e3aa47e	0.18226811
41	0xbc8931e3	-0.01674742
42	0xbed12fd6	-0.40856808
43	0xbe9362b3	-0.2878624
44	0xbdab9d1c	-0.083795756
45	0xbdd5c164	-0.10437277
46	0xbeb1a565	-0.346965
47	0xbb503407	-0.0031769292
48	0x3ec50793	0.3848234
49	0xbcc01a1e	-0.023449954
50	0xbccb6938	-0.024830446
51	0xb99980be	-0.00029278354
52	0xbe4b27eb	-0.19839446
53	0x3c801fc0	0.01564014
54	0x3d93e015	0.07220475
55	0x3d11b95f	0.035577174
56	0x3de3de3d	0.11126373
57	0x3ebcaaad	0.36848965
58	0xbbb176d2	-0.005415776
59	0x3bf7aa31	0.00755813
60	0x3e49aa42	0.19693854
61	0x3ecae108	0.3962481
62	0x3cfc622f	0.030808536
63	0x3e28d2a4	0.16486603
64	0x3c759e0e	0.014991296
65	0x3e3f181d	0.18661542
66	0x3e1c8edc	0.15288872
67	0xbe3ca463	-0.18422084
68	0xbe87ad2a	-0.264993
69	0xbbf1de1f	-0.007381215
70	0xbc5ccc7a	-0.013476485
71	0x3e4bb1b9	0.19892015
72	0x3cae7c05	0.021299371
73	0x3c0b6f79	0.008510464
74	0x3aa50bde	0.0012592038
75	0xbee1408e	-0.43994564
76	0xbead04c5	-0.337927
77	0x3e2e5d2f	0.17027734
78	0xbd9db63d	-0.07700775
79	0x3f329cd8	0.69770575
80	0xbb02f269	-0.0019980913
81	0xbe380955	-0.1797231
82	0xbe6c9fe2	-0.23107865
83	0x3cc1df46	0.023666035
84	0xbeaa45c4	-0.33256352
85	0xbcdd7a6f	-0.02703592
86	0xbee6742b	-0.45010504
87	0xbeb3c6d0	-0.3511262
88	0x3c2b6379	0.010460728
89	0x3b89e4e5	0.0042081946
90	0x3cacef2c	0.02111014
91	0xbd2ff16b	-0.042954843
92	0x3e1bf4fe	0.15230176
93	0x3d88fe1a	0.06689091
94	0x3e071c22	0.13194326
95	0xbc2d5a1c	-0.010580566
96	0xbe9f83f4	-0.3115536
97	0x3e9f63ae	0.31130737
98	0x3deff329	0.11716301
99	0x3cbd046a	0.023073394
100	0xbe9dbd83	-0.30808648
101	0xbe9b9b56	-0.3039195
102	0xbd63433b	-0.055484038
103	0x3e3da0e7	0.1851841
104	0xbd0cceda	-0.034376957
105	0xbcdda1f1	-0.027054759
106	0x3ebe16f2	0.3712688
107	0x3ed074d4	0.40714133
108	0x3ad0f10c	0.0015940978
109	0x3da9cfa7	0.0829156
110	0x3eae1b9d	0.34005442
111	0xbe129cac	-0.14317578
112	0xbd861f08	-0.065488875
113	0x3c69d758	0.014272533
114	0xbe8244fa	-0.2544325
115	0x3ce49bbc	0.027906291
116	0xbca25096	-0.019813817
117	0xbe9b2027	-0.30297968
118	0xbdd3a583	-0.10334303
119	0xbcd60342	-0.0261246
120	0x3c7fa9aa	0.015604416
121	0xbc288647	-0.01028592
122	0x3ca790f9	0.02045487
123	0xbda34f89	-0.079741545
124	0xbe25e60b	-0.16201036
125	0xbb090b8e	-0.0020911428
126	0xbe50276d	-0.2032754
127	0xbd0269ff	-0.031839367
128	0xbdb5cda6	-0.08877115
129	0x3d8b0fb6	0.06790106
130	0x3f02be86	0.51071966
131	0x3cfe6a88	0.031056657
132	0xbdddd621	-0.108318575
133	0x3c688090	0.014190808
134	0x3c932388	0.017961279
135	0xbc779caa	-0.015113035
136	0xbd807383	-0.06272032
137	0xbe9459be	-0.28974718
138	0xbe5a0641	-0.21291448
139	0xbdc1fad5	-0.094716705
140	0xba84e8a8	-0.0010140138
141	0x3d508e2b	0.050916832
142	0x3e08222f	0.1329429
143	0x3d8295f1	0.06376255
144	0xbe2c5fff	-0.16833495
145	0xbdff21f4	-0.12457648
146	0xbe377e02	-0.17919162
147	0xbdd9db74	-0.106375605
148	0xbe1fa344	-0.15589625
149	0xbd46ef80	-0.04856825
150	0xbe83a1c0	-0.25709343
151	0x3e193186	0.14960298
152	0x3ee0eae3	0.43929204
153	0xbc8dfd99	-0.017332839
154	0x3d1555a8	0.03645864
155	0xbe663f18	-0.22485006
156	0x3b91dab2	0.0044511193
157	0x3d7ee6e2	0.062231906
158	0x3c1e055d	0.009644833
159	0x3dab3ed6	0.083615944
160	0x3ce6b6f1	0.028163405
161	0x3d4701cc	0.048585698
162	0x3e0b377d	0.13595386
163	0xbb3891dc	-0.002816311
164	0xbc645c7f	-0.013938068
165	0x3c485336	0.01222687
166	0x3d74e92d	0.059792686
167	0x3de7774b	0.1130205
168	0x3dd32061	0.1030891
169	0x3e29f03c	0.16595548
170	0x3e8f031e	0.27932066
171	0x3ebbe6d7	0.36699554
172	0xbe78b453	-0.24287538
173	0x3d878cb9	0.066186376
174	0x3d0ebdb8	0.0348489
175	0xbe4dc72d	-0.20095511
176	0xbec007a6	-0.37505835
177	0xbc47b6bf	-0.012189566
178	0x3d38fb30	0.045161426
179	0x3bb42136	0.005497123
180	0x3b8f5cae	0.004375062
181	0x3e2fc4f8	0.17164981
182	0xbdeeaf11	-0.11654485
183	0xbc4d7638	-0.012540393
184	0xbcb43414	-0.021997489
185	0x3e6591e9	0.22418942
186	0xbe263c6e	-0.1623399
187	0x3dd3d86b	0.10344013
188	0x3ce77af6	0.028256875
189	0x3e0de018	0.13855016
190	0x3d00a856	0.031410538
191	0xbe9b9a8a	-0.3039134
192	0xbbe4602b	-0.006969472
193	0xbd866516	-0.06562249
194	0x3d9deaa7	0.07710772
195	0x3ea2beb9	0.31786135
196	0x3e49bd5b	0.1970114
197	0xbc21cfe2	-0.009876223
198	0xbe8512cb	-0.259909
199	0xbe831718	-0.25603557
200	0x3ca54859	0.0201761
201	0x3e1c9da0	0.15294504
202	0xbe702da2	-0.23454908
203	0xbbb73598	-0.0055911057
204	0xbe34fecb	-0.17675321
205	0x3b10b635	0.002208126
206	0xbc57a2ba	-0.013161356
207	0x3e6037fe	0.2189636
208	0xbd8b77d0	-0.06809962
209	0x3b44a506	0.0030005588
210	0x3d959150	0.07303107
211	0xbe7212fc	-0.23640054
212	0xbe4cc399	-0.1999649
213	0x3de3ebc1	0.11128951
214	0xbeb0c40b	-0.3452457
215	0x3c5a1678	0.013311021
216	0xbade0fee	-0.0016942003
217	0xbe48d0aa	-0.19610849
218	0xbc89b28f	-0.016808776
219	0xbb8dc649	-0.004326616
220	0x3e923c86	0.285618
221	0x3e61dc94	0.220568
222	0x3ed5905e	0.41711706
223	0x3eafb024	0.34314072
224	0x3e817ea7	0.2529194
225	0xbf0b8d86	-0.5451282
226	0xbe7698b2	-0.24081686
227	0xbcd6ae28	-0.026206091
228	0xbed46b31	-0.4148803
229	0xbeddcfd2	-0.43322617
230	0x3e894013	0.26806697
231	0x3e95a259	0.29225424
232	0x3e050fb2	0.12994269
233	0x3e8153eb	0.25259337
234	0x3ed383cd	0.41311494
235	0x3e1eb8a2	0.1550012
236	0x3e738783	0.23782162
237	0xbc24ddf6	-0.010062685
238	0x3cdedd94	0.027205266
239	0xbe0b6ecb	-0.13616483
240	0xbcbf3862	-0.023342315
241	0x3c07d3d9	0.0082902545
242	0x3c60ba33	0.013716268
243	0x3daed6a7	0.085370354
244	0x3c3141fc	0.010818955
245	0xbd80a583	-0.06281569
246	0x3dd0c8a1	0.10194517
247	0xbc62de3f	-0.013846933
248	0xbcb63dc8	-0.022246256
249	0x3de839ef	0.11339175
250	0x3eaa004e	0.33203357
251	0xbe195d4e	-0.14976999
252	0xbc1c509f	-0.009540706
253	0xbd2917b5	-0.041282374
254	0x3cd9394d	0.026516581
255	0xbcf611e6	-0.030037832

classifier.bias f4 [5]
0	0xbef1467d	-0.4712409
1	0x3f7564d2	0.95856965
2	0x3f556e81	0.8337174
3	0xbf5d8fd5	-0.86547595
4	0xbee94060	-0.45556927

features.9 f4 [120]
0	0xbc46ba6b	-0.012129406
1	0xbb5c7952	-0.0033641648
2	0x3e683ff2	0.22680643
3	0x3e461824	0.19345146
4	0xbd18d60f	-0.037313517
5	0xbbb0bd56	-0.0053936644
6	0xbad8713a	-0.0016513236
7	0x3d8415ea	0.06449492
8	0x3bb6e87a	0.0055819126
9	0xbb868c0f	-0.0041060518
10	0xbc0b191a	-0.008489871
11	0xbdbcc5fc	-0.0921745
12	0x3caa6b37	0.020803077
13	0x3c234ae1	0.009966583
14	0x3db4f5ee	0.0883597
15	0x3c6ee5b7	0.0145811355
16	0x3db223ff	0.08698272
17	0xbc3a2ec2	-0.011363687
18	0xbd81d189	-0.06338794
19	0x3d176ff6	0.03697201
20	0x3c6887ab	0.014192502
21	0x3d92ed1a	0.0717413
22	0xbce470fb	-0.027885905
23	0xbd125e8e	-0.035734706
24	0x3d4a84c8	0.049443036
25	0xbd128fa8	-0.035781533
26	0x3d792d4e	0.06083422
27	0xbca71ee4	-0.020400472
28	0x3ddff6a1	0.109357126
29	0x3cfd323f	0.030907748
30	0x3d2ed76d	0.042685915
31	0x3bbb572a	0.005717178
32	0x3b83bf13	0.0040205806
33	0xbb28e373	-0.0025770336
34	0x3c4dc5a8	0.012559332
35	0x3c3441b3	0.011001992
36	0xbcb2e73e	-0.02183878
37	0xbc879b73	-0.016553616
38	0xbacf2c8a	-0.001580612
39	0x3c8a2b21	0.016866269
40	0x3c6ee165	0.014580105
41	0xbb94b245	-0.004537853
42	0x3d11f6ed	0.035635877
43	0xbc9fa101	-0.019485952
44	0x3da357fa	0.079757646
45	0x3d0c0339	0.03418276
46	0x3c9a34f7	0.018824084
47	0x3d57e1ed	0.052705694
48	0x3c8662b7	0.016404493
49	0x3dee22fa	0.11627765
50	0xbb8076a3	-0.0039203926
51	0xbca99a0d	-0.02070334
52	0x3da627b2	0.0811304
53	0x3cf1cd15	0.029516736
54	0x3c050aae	0.008120222
55	0xbc3617df	-0.01111409
56	0x3c96de4e	0.01841655
57	0x3b984623	0.004647033
58	0x3cf561ab	0.029953798
59	0x3cb87ac3	0.022519475
60	0xbcc75a0f	-0.024334935
61	0xbc023c75	-0.007948984
62	0x3cf32e13	0.029685056
63	0x3c440f7c	0.011966582
64	0xbbea9734	-0.007159138
65	0xbbbdb13f	-0.0057889516
66	0xbbadb776	-0.0053014113
67	0x3cc54fde	0.024085935
68	0xbdab8707	-0.08375364
69	0x3d9268f3	0.07148924
70	0x3cb512ac	0.02210363
71	0xbd27a266	-0.04092636
72	0x3d0f801d	0.035034288
73	0xba3f9dc2	-0.00073095795
74	0x3bdd7391	0.0067581614
75	0x3db67146	0.08908324
76	0x3da26ce9	0.07930929
77	0x3cd57983	0.026058918
78	0x3c096cf3	0.008387792
79	0xbd02acd4	-0.031903103
80	0xbca28b6f	-0.019841878
81	0xbb9d4e38	-0.004800584
82	0x3d838f4d	0.06423817
83	0xbcd84147	-0.026398314
84	0xbca6f004	-0.02037812
85	0xbcd10899	-0.025516795
86	0x3ddc4f7d	0.10757349
87	0x3cab5a26	0.02091701
88	0xbd9908fd	-0.074724175
89	0x3de0cd61	0.10976673
90	0xbc0477e2	-0.008085223
91	0x3cc39de9	0.023879008
92	0xbd7a37a8	-0.061088234
93	0xbccb180b	-0.024791738
94	0x3d861373	0.065466784
95	0x3e081997	0.13291012
96	0x3ce37b35	0.02776871
97	0x3e02aebf	0.12761973
98	0x3c86b338	0.01644288
99	0x3baf6b9c	0.005353404
100	0xbba14784	-0.0049218554
101	0xbd67fe97	-0.05663928
102	0x3c973e22	0.018462244
103	0x3c95a5ad	0.018267477
104	0x3d9f97fe	0.07792662
105	0x3c813352	0.015771542
106	0x3c42bd49	0.011885949
107	0x3e39bcea	0.18138471
108	0x3cc7dcc6	0.024397265
109	0x3d903607	0.07041555
110	0x3c40110f	0.011722817
111	0x3d1173ad	0.035510708
112	0x3d6b6b9f	0.057475682
113	0xbce6e750	-0.02818647
114	0xbd4687da	-0.048469402
115	0xbb85f099	-0.0040875194
116	0xbcdb1277	-0.026742203
117	0x3c698d5d	0.014254895
118	0xbc8cf7f0	-0.01720807
119	0xbd7decb2	-0.06199331
