checkpoints_lenet5/baseline_scratch/lenet5/household_electrical_devices/checkpoint-100.pth.tar (torch, 312219 bytes, 12 tensors)

features.0.weight f4 [6, 3, 5, 5]
000000 15 ec 2c be 73 d7 ae 3b a5 74 16 3d 28 c5 12 3e
       -0.16886933 0.005335742 0.036732335 0.14333022
000010 af b9 60 3e 64 c5 a0 bd 62 99 fe 3a 7e 12 0f bc
       0.21945833 -0.07850149 0.0019424374 -0.008732436
000020 86 01 f2 3d ad 5a 6e 3e 1b 8b 65 3d d1 2c 7e be
       0.11816697 0.23276778 0.056040864 -0.24821784
000030 51 62 10 3e 2c a4 45 be 0d 71 7b 3c 68 2a 4a bc
       0.14100005 -0.19300908 0.015346778 -0.012339212
000040 93 df 8f bc 5d 5a a6 be ff 5d 2f 3b 8e 06 98 bd
       -0.017562663 -0.32490817 0.0026758907 -0.07423125
000050 88 42 08 3e 37 33 9c 3d 1b fc a1 bb 2e 4e 45 be
       0.1330663 0.07626956 -0.0049433834 -0.19268104
000060 1c 4f e2 bd 41 b0 a1 bb 54 e8 be 3d 31 d2 8c bd
       -0.11050245 -0.004934341 0.09321657 -0.06876028
000070 be ec 55 bd 28 8c be 3d c1 ee 76 be f4 f8 82 bd
       -0.052227728 0.093040764 -0.24114515 -0.0639514
000080 8e 76 07 3e 31 92 c9 bd 20 3f 6a 3c 06 9a e9 3b
       0.13228819 -0.09842337 0.014297277 0.0071289567
000090 0f f5 b9 3b 68 7d 77 be 0a 8d e5 bd c6 be d7 3d
       0.005674965 -0.24168932 -0.11208542 0.10534434
0000a0 7e 4b 55 3d 59 95 01 bd 1d e9 bd bd 86 ef 26 be
       0.052073948 -0.03163657 -0.092729785 -0.16302308
0000b0 fc 52 85 3d 69 31 53 be d1 93 8a 3d 16 e8 9f 3c
       0.06509969 -0.20624317 0.06766475 0.019519847
0000c0 d0 d1 a2 bd 84 bd 92 bb 52 41 9d bd bd c4 08 be
       -0.07950175 -0.0044781584 -0.076784745 -0.133563
0000d0 9e 1a 1b 3d 97 18 2c 3e 7e 56 3c 3e 92 35 00 be
       0.03786718 0.16806255 0.18392369 -0.12520435
0000e0 46 7f 48 be 8b c9 ba bd 77 cc 10 3d e7 50 5e 3e
       -0.19579801 -0.091204725 0.035351243 0.2171055
0000f0 09 e0 b4 bd 81 d9 d6 bd 4c 99 84 bd b4 75 ff 3d
       -0.08831794 -0.10490704 -0.064745516 0.12473622
000100 5a 78 03 be fb d4 b2 be 32 78 21 be 89 e1 bd bb
       -0.12838879 -0.34928116 -0.15768507 -0.005794708
000110 00 91 8a be 2b ee bf bd 74 d3 2e bd 33 3a eb 3c
       -0.2706375 -0.09371599 -0.042682126 0.028714275
000120 20 2b 15 3d 54 7a 47 bd 8f be ac be d6 31 91 be
       0.03641808 -0.048700646 -0.33739135 -0.28358334
000130 ab c2 f2 3e 5e db 1d 3f 6a 12 c7 be d8 a1 c8 be
       0.47414145 0.6166285 -0.38881236 -0.39185977
000140 2b c6 35 3d ef b8 40 3f a3 3a 2e 3f fc 5f 1a bf
       0.04437844 0.75282186 0.6805822 -0.6030271
000150 7f a7 20 bf 14 ce e5 3d b2 7e 3f bd fb 00 be bd
       -0.6275558 0.11220947 -0.046751685 -0.09277531
000160 13 35 0d 3e 7e c4 d9 3d 9e 20 36 bd 7e 78 b6 be
       0.13789777 0.10633181 -0.0444647 -0.35638803
000170 a5 b9 49 bf d9 1a 08 3f 9e be 07 3f 05 02 5b 3c
       -0.78798896 0.53165966 0.53025234 0.013367181
000180 1d dc 4d be 7f 18 c6 be 7b 29 f4 3e a3 61 0a 3d
       -0.20103498 -0.38690564 0.47687897 0.03378452
000190 26 30 6d be ca 63 00 3f 4c a1 49 3f 67 04 14 bf
       -0.23162898 0.50152266 0.78761744 -0.5781922
0001a0 09 37 1e bf c8 a4 82 3e 14 9c 6b 3e 55 f3 1d 3f
       -0.61802727 0.25516343 0.23008758 0.6169942
0001b0 3d 6d 02 bf 03 11 45 bf 70 6f d8 3c f2 0b fd bd
       -0.50947934 -0.7697908 0.026420325 -0.12355794
0001c0 90 13 11 bf e4 6b be bd 05 da f1 3e ca ba bb 3d
       -0.56670475 -0.09297922 0.47236648 0.091664866
0001d0 89 09 32 bf 89 bc 41 bf 51 33 07 3f 46 03 70 3f
       -0.695458 -0.75678307 0.5281268 0.93754995
0001e0 90 c6 d6 bd 08 5d e0 be ee a4 b7 be 71 1b 1f 3f
       -0.104870915 -0.43820977 -0.3586802 0.6215125
0001f0 48 55 e4 3e 7b c7 05 bd 0d 9c e3 3e 9e bf 48 3f
       0.44596314 -0.032660943 0.44454995 0.78417385
000200 f3 fd 08 bf 2c 8a ff be 53 c2 cb 3a d1 39 2c 3f
       -0.53512496 -0.49910104 0.0015545584 0.6727572
000210 6c d5 27 3f ea c6 1b bf 05 ab 42 bf 8b b8 59 3d
       0.6556003 -0.60850394 -0.76042205 0.05315451
000220 b8 54 95 bd 63 d3 89 be 66 a8 e0 bc 9e 60 b0 3e
       -0.072915494 -0.26919088 -0.027424049 0.34448713
000230 3d 84 49 bd 68 12 0d bf 0b fd 4f bf d5 c8 ee 3e
       -0.049198378 -0.5510621 -0.8124549 0.46637598
000240 66 0d 16 3f 23 5e 45 3e 0a 62 02 bf d1 b2 df be
       0.58614194 0.19274192 -0.50930846 -0.43691114
000250 bc c4 4d 3f f1 65 84 3e 7f 77 df 3e f7 fa aa 3e
       0.8037832 0.25859025 0.43645856 0.33394596
000260 95 8a 81 3e 67 4f af 3e 6d 82 33 3e 51 f0 63 bd
       0.25301042 0.34240267 0.17530222 -0.055649105
000270 37 3b 8a bc 7a 42 ad 3d 60 1b 92 bd 3a f5 07 be
       -0.016873939 0.08459945 -0.071341276 -0.1327714
000280 a2 13 b4 be 2a ea 52 be 88 7f 86 be d6 83 c1 be
       -0.3517123 -0.20597139 -0.26269174 -0.37795895
000290 68 be 9d be 00 af e1 bd 45 dc 85 be ef 12 0a be
       -0.3080933 -0.11019707 -0.26144615 -0.13483785
0002a0 d7 ed a2 bc e5 aa 59 be cc e2 39 3d 24 f7 dc 3d
       -0.019888802 -0.21256597 0.045382306 0.10789326
0002b0 c5 2e 64 3e 14 53 74 bd 7e ea 49 3e 77 1c d1 3d
       0.22283466 -0.059649542 0.19718358 0.10210507
0002c0 58 e4 a9 3e 9a 3e 68 3d 8f 8b 38 3e 29 c7 2d be
       0.33182025 0.056700327 0.18021987 -0.16970505
0002d0 ff 41 cd bd 02 d7 b6 bd 2c 6e 5c bd 34 0c 47 3d
       -0.100223534 -0.08927728 -0.053816006 0.048595622
0002e0 37 eb e3 bd 6e 4d 99 be 6e 4d 08 be 08 71 a0 be
       -0.11128848 -0.29941887 -0.13310787 -0.31336236
0002f0 b9 10 8d be 09 69 61 be 6e 42 fa bd 73 05 51 bd
       -0.2755182 -0.22012724 -0.12219702 -0.051030587
000300 75 4f c1 bd 7b 7e 04 be 07 af 5d be e2 7e 51 bd
       -0.09438983 -0.12938873 -0.21648799 -0.051146396
000310 5c 0d 83 3e a6 48 ed 3d 11 b1 9a bd f9 24 f2 3c
       0.2559613 0.11586122 -0.07553304 0.029558646
000320 c6 61 10 3e 19 73 6f 3e 87 75 fe 3e c2 ae 83 3e
       0.14099798 0.2338375 0.4969904 0.25719267
000330 c0 da b7 3d d4 05 1e 3d cf ff 39 3e 07 5a 81 3e
       0.0897727 0.038579777 0.1816399 0.25263998
000340 3b d8 76 bd 7c 1e 2a be 82 a2 82 be 44 bc 90 be
       -0.060264807 -0.16613191 -0.2551461 -0.28268635
000350 1d cc 7c be 94 83 5c be 0b 3b c1 be 8c 88 7e 3d
       -0.24687238 -0.21534568 -0.3774036 0.06214194
000360 4d 35 fe 3d e4 4c f2 3c d8 7c 0a 3e 63 45 6e bd
       0.1241251 0.02957768 0.13524187 -0.05817164
000370 70 96 71 3e 74 48 08 3f be 0c 85 3e 7b ac a6 3e
       0.23592544 0.53235555 0.25986284 0.32553467
000380 64 3e f5 3d 3c 96 a2 bd 5b 4e 8d be 0b 0c 2f bf
       0.11974791 -0.07938811 -0.27598843 -0.6837775
000390 9d 42 4c be ea 22 0b 3f 7f 5f a6 3d 7a 99 72 be
       -0.19947286 0.5435015 0.08123683 -0.23691359
0003a0 20 9d 8e be 87 65 f4 bc 54 7e b0 3e 58 80 6e 3e
       -0.27854252 -0.029833568 0.3447138 0.23291147
0003b0 55 b7 13 be 44 c8 dc be 4c 1a 56 3d 9a b6 03 3f
       -0.14425404 -0.4312154 0.052271172 0.514505
0003c0 61 a2 1f 3e a4 c8 45 be 84 7b b7 be 81 47 fe 3d
       0.15589286 -0.1931482 -0.35836422 0.12415982
0003d0 d7 a0 21 3f 7a b7 7c 3d 48 fe 2c be 7c f1 59 be
       0.6313605 0.061698414 -0.16893876 -0.21283525
0003e0 78 d2 26 3e eb c0 08 3f 8e 95 c8 3d 09 de bd bd
       0.16291225 0.5341937 0.0979415 -0.092708655
0003f0 4d 85 09 bf 66 ce 45 bd ad 7c 8e 3e 0c c9 b5 3e
       -0.53719026 -0.04829254 0.27829495 0.3550495

features.3.weight f4 [16, 6, 5, 5]
000000 22 6c 83 be 60 2c 1d bd 75 d0 1a 3c d9 e8 56 bc
       -0.25668436 -0.038372397 0.009449114 -0.013117039
000010 27 82 ce 3b a1 38 8d bd 16 e1 c4 bd 1a 6a 5f bc
       0.0063021365 -0.06895567 -0.09613244 -0.013636136
000020 91 e8 02 bc 90 ef 36 3e 93 74 3c bc b3 6a c6 bc
       -0.007990018 0.17864823 -0.011502403 -0.0242208
000030 97 a3 1b bd 90 48 d5 bc ff 61 37 3e 45 70 1f 3e
       -0.03799781 -0.026035577 0.17908476 0.15570171
000040 75 82 a9 3d 90 82 26 3e d9 2c 22 3e f5 69 30 bd
       0.08276836 0.16260743 0.1583742 -0.0430698
000050 c4 9b a7 3a a0 21 c7 3d 12 31 9c bd 9f f9 44 be
       0.0012787511 0.0972321 -0.07626547 -0.19235848
000060 d6 d1 90 bd 47 8e ef 3c 0c ac 03 bd 50 d5 8f 3c
       -0.07071273 0.029242648 -0.0321465 0.01755777
000070 4e ac e8 3d ee 58 a8 3e 49 85 34 3e 3f 09 39 3d
       0.113609895 0.32880348 0.17628969 0.045174833
000080 eb cc 3f 3c 18 1f 2c 3e 3c a6 ff 3d 84 98 80 3a
       0.011706571 0.16808736 0.124828786 0.0009811078
000090 91 09 02 bd db dd 4e 3e 98 99 47 3d f6 52 39 3e
       -0.031747404 0.20201819 0.048730463 0.18098053
0000a0 90 4f 33 bd 91 4c 70 bd 80 9b 61 be c4 2c d2 3d
       -0.04377705 -0.05866677 -0.22031975 0.102624446
0000b0 69 54 e8 3d 17 f4 20 3d 15 a5 23 bc 81 0d c0 3d
       0.11344225 0.039295282 -0.009988089 0.09377576
0000c0 25 54 2c 3e 9c a7 12 3d 2d c9 fd bd 43 17 fc bd
       0.16828974 0.035804376 -0.12391887 -0.12309124
0000d0 20 c8 24 be 04 1f 35 be 31 1c 6e be 7c 9d 39 be
       -0.16091967 -0.17687613 -0.23252942 -0.18126482
0000e0 31 b4 c6 bd 5e f7 d3 bd e0 e9 fb bd 0b dc 6d be
       -0.097023375 -0.10349916 -0.123004675 -0.23228471
0000f0 cf db c6 bd 9a c7 c6 bd 92 36 d1 bc ab 18 0c be
       -0.09709894 -0.0970604 -0.025538716 -0.13681285
000100 34 6d bb bd b3 38 fd bc e0 ee ef 3c 4b 76 97 bd
       -0.09151688 -0.030910825 0.02928871 -0.073956095
000110 12 da 70 3c 4f 1d b4 bb bd 0d 84 3c 61 cb 9c bc
       0.0147004295 -0.005496658 0.016119832 -0.019139947
000120 e8 43 f6 3d 0f 87 06 bd e4 be 23 be 1a a9 90 3d
       0.12024671 -0.032843646 -0.15990788 0.070635036
000130 97 ca 3a 3e 5d 96 83 bc 4c 41 4b be 1e 58 92 bd
       0.18241344 -0.01606291 -0.19849128 -0.07145713
000140 64 89 a9 bc 54 c9 3f 3d e1 36 19 3d 66 0c dc bd
       -0.020695396 0.04682286 0.037405852 -0.10744552
000150 ff dd 87 3d 41 ff 53 3c 8c 65 31 bd 5d 56 e4 bd
       0.06634139 0.012939275 -0.043309733 -0.11149285
000160 94 b7 be bd c0 cd 25 be 48 64 32 bc 37 41 3f 3c
       -0.093123585 -0.16191769 -0.010888167 0.011673263
000170 55 fd 29 3d 0e 67 53 be a3 80 08 be 67 21 bf 3c
       0.041501362 -0.20644781 -0.13330321 0.023331357
000180 1e 28 86 bd 1c 4b ef bd 8c 88 5f be 01 40 42 be
       -0.065506205 -0.11684248 -0.21829432 -0.18969728
000190 4d af d4 3d e2 d6 13 3e 5f 10 0d 3e 58 37 09 be
       0.103849985 0.1443744 0.13775776 -0.13400018
0001a0 18 b8 5f be 52 89 3a 3e 17 71 50 3e 5b 94 ef 3d
       -0.2184757 0.18216446 0.2035564 0.116982184
0001b0 59 78 8d 3d 23 c0 42 be 67 33 c6 3d cf d7 1b 3e
       0.0690772 -0.19018607 0.09677773 0.15219043
0001c0 de 37 1b 3e 61 c4 1a 3e bf f2 00 bd 9e 4c ad 3d
       0.1515803 0.15113975 -0.0314815 0.08461879
0001d0 bb c5 96 3e 43 b2 1b 3d 68 6f 09 3e 37 5a 27 3b
       0.2944773 0.0380118 0.13421404 0.002553595
0001e0 39 f9 0d 3e 66 ad 90 3d a4 03 90 3d 8e 21 7f bd
       0.13864602 0.07064323 0.070319444 -0.06228786
0001f0 02 5a c5 bd ac ff dd 39 6d 60 a7 bc 11 cc b2 3d
       -0.09636308 0.00042342895 -0.020431722 0.08730329
000200 6f 18 20 3d b6 26 73 bc e6 88 2b 3d 44 c2 92 bc
       0.0390858 -0.014840772 0.041878603 -0.017914899
000210 d7 79 8b 3c 88 d1 a5 bc 1b fc d8 bd 29 54 0c 3d
       0.017025871 -0.020241514 -0.1059496 0.03425995
000220 cf 86 d7 3b 72 f4 eb 3b 43 1d 85 3d 1f 1d ad bd
       0.0065773497 0.007200771 0.06499722 -0.0845282
000230 53 d4 26 bc 0b d2 92 bd ff de e2 bd 51 5a b2 bd
       -0.010182458 -0.07168969 -0.110776894 -0.08708633
000240 59 5f bf bc ab 24 95 3c 8f 43 0d 3e 82 8b 0d 3e
       -0.023360895 0.018205961 0.13795303 0.1382275
000250 39 fc 94 3c f5 31 48 bc c2 80 9b bc 59 86 b6 bd
       0.018186675 -0.012218942 -0.018982295 -0.089123435
000260 3c 69 1c 3d 68 37 2c 3d 5e fb 1d bc 3f cb 3e 3e
       0.038186297 0.042045027 -0.00964245 0.1863222
000270 14 c9 5a bd 57 c8 d2 3c ec db 17 bd 2b 59 14 be
       -0.05341442 0.025730295 -0.03707497 -0.1448714
000280 03 09 4a 3d fe 59 7c 3d 85 04 0e be 01 37 d3 bc
       0.049325 0.06160926 -0.13868912 -0.025783064
000290 43 9d 55 bd 39 5d c9 3d 47 8f ef 3d c8 7f 93 bd
       -0.05215193 0.09832234 0.1169725 -0.07202107
0002a0 8b df 47 be 4a ef 46 be c3 fe 59 bc f3 e9 cf 3d
       -0.19518869 -0.19427219 -0.013305369 0.10152044
0002b0 4a b2 13 bd 85 e8 23 be 35 c9 ca bd 4a d3 cb 3e
       -0.0360587 -0.16006668 -0.099016584 0.39809638
0002c0 8c cb d8 3e d5 55 ab bd 8c e8 51 3e c9 d3 61 bd
       0.42342794 -0.083659805 0.20498866 -0.055133615
0002d0 00 be ad 3e 3c 2f 12 3e ee 64 f9 3d 55 45 2f bb
       0.3393402 0.14275831 0.12177454 -0.0026744206
0002e0 8a b7 b3 bd 79 4e 91 3e da c7 8d 3e 19 91 0a 3e
       -0.08775242 0.28380182 0.27691537 0.13531913
0002f0 3d ad 20 bd c5 26 09 3e fc b4 96 3e 6e 4d 60 bc
       -0.039227713 0.13393696 0.29434955 -0.013690336
000300 69 81 bf 3d f6 a5 92 bd 8e c4 12 3e c8 ca 69 3c
       0.09350855 -0.07160561 0.14332792 0.014269538
000310 48 5f 38 3d c1 92 84 3d c9 61 c9 bc ff 90 de 3d
       0.045012742 0.064733036 -0.02458276 0.108674996
000320 93 26 df 3d ec 4b dd bd 0a 1b 2c 3b 01 8b 23 bc
       0.10896029 -0.108054966 0.0026261234 -0.009981872
000330 f6 9c 64 3d 86 75 32 3d f4 9a a8 bd bf 4b 6d 3d
       0.055813752 0.04356911 -0.0823268 0.057933565
000340 d0 f1 0c bc 8e 00 08 bc 72 30 df 3d 28 f2 18 be
       -0.0086025745 -0.0083009135 0.10897912 -0.14936125
000350 a6 b3 18 be 09 70 84 3c c1 8c f6 3d 49 4e 2f be
       -0.1491228 0.016166704 0.120385654 -0.17119707
000360 42 81 53 be 00 ee f8 bd d8 40 f9 bc fa 0c 77 3c
       -0.20654777 -0.1215477 -0.030426428 0.015078777
000370 d2 9b 59 be 78 4a 5c be 75 77 66 be 30 62 b0 3d
       -0.21250847 -0.21512783 -0.22506507 0.08612478
000380 89 a7 a0 bd 1d 6d 10 be fb df b4 bd 35 02 3c be
       -0.07844455 -0.14104123 -0.088317834 -0.18360217
000390 8a 11 16 bc 0d bf 44 be 0d 36 ed bd 46 f8 30 be
       -0.009159455 -0.19213505 -0.11582575 -0.17282209
0003a0 90 32 74 be 7c a1 c6 3c ec 43 8c be 07 76 3a 3e
       -0.23847413 0.024246924 -0.2739557 0.18209086
0003b0 a2 a7 49 3d d3 31 a0 be 93 fd b8 bc bc 2f b8 bd
       0.049232133 -0.31288013 -0.022581851 -0.089934796
0003c0 df d7 0f 3e 4c b7 3d 3e 9e dd 40 3d 41 43 11 be
       0.14047192 0.18526953 0.04708635 -0.14185812
0003d0 36 12 cd 3c da 8f 9b 3e b0 28 95 3e 2c dc 83 3d
       0.025033098 0.30383188 0.29132605 0.06438479
0003e0 9a d0 0d be f4 1f 44 3e 6a 97 48 3e f5 e2 a1 3d
       -0.13849106 0.19152814 0.1958901 0.07904617
0003f0 28 d6 1c 3e d1 9f 37 3d b9 72 91 3d 86 bb da 3d
       0.15316069 0.044830147 0.0710196 0.106802985

features.7.weight f4 [120, 400]
000000 e5 7f dc b8 c7 1c 26 bc 1b 68 bb 3c 7d 16 1c 3c
       -0.0001051424 -0.010138697 0.02287679 0.009526846
000010 94 8a cf 3b 50 fe 0d 3c 17 61 8d 3c bc a7 8f 3c
       0.0063336585 0.00866659 0.01725821 0.017536037
000020 06 c7 8a 3b 45 e3 7a b9 2c a5 21 3d 8d a0 f0 3a
       0.004235151 -0.00023926522 0.03946416 0.0018358395
000030 7e 65 9b 3c 8a 28 3b 3b 90 ed 6c 3c 13 4e c7 3c
       0.018969294 0.0028558099 0.014460936 0.02432922
000040 44 01 8a 3c d3 c9 33 3d 9d de 4b 3d 72 36 b4 3c
       0.016846307 0.043893646 0.049772847 0.021998618
000050 31 00 82 3c 68 fe 9e 3c 55 dd e5 3c 61 35 f3 3c
       0.015869232 0.01940842 0.02805964 0.029688539
000060 b8 f8 e4 3c d6 1b da bc ae c6 70 3c a2 0a 83 3c
       0.02795063 -0.026624601 0.014695806 0.015996281
000070 bd e3 37 bd 83 90 b5 bc 54 50 ce 3b f1 45 1f 3d
       -0.044894923 -0.022163635 0.006296197 0.03888506
000080 18 ad f9 3c 2f a1 9f bc 88 2c 34 bd 29 13 7e 3d
       0.030478045 -0.019486038 -0.04398778 0.06202999
000090 76 57 31 3d 0c c4 3c 3d 8d d4 26 bc 04 4b 14 bd
       0.0432963 0.046085402 -0.010182512 -0.036204353
0000a0 74 20 80 3d da 64 af 3c be c0 33 3d 1b 55 03 3d
       0.0625619 0.021410394 0.043884985 0.032063585
0000b0 ef 29 12 3c b4 46 3d 3c bb 7a 18 3c f9 49 7e ba
       0.008921131 0.0115525015 0.009306605 -0.0009700354
0000c0 c9 31 42 3d 6b cf 37 3d c8 f3 2d bc 6a 2d 5e 3c
       0.04741076 0.044875544 -0.010617204 0.013560632
0000d0 83 06 bd bc f5 07 96 bc f0 31 4b 3b 05 54 77 bd
       -0.023074394 -0.018314341 0.0031005107 -0.06038286
0000e0 1c c8 1c bd 7b 42 dd bc e3 21 c1 bc f1 8b 01 bd
       -0.038276777 -0.02700924 -0.023575729 -0.0316276
0000f0 1b d8 56 bd df 4f 21 bd 7b 75 59 bc 31 f8 38 bd
       -0.052452188 -0.03938281 -0.013272638 -0.04515857
000100 50 7e 2a bd 84 33 e8 bc 58 70 01 bc 1f a8 a2 ba
       -0.041624367 -0.028344877 -0.00790032 -0.0012409723
000110 18 4b 87 bc 26 f1 9b bc 65 17 a6 bc 59 33 0f bd
       -0.0165153 -0.019035887 -0.020274827 -0.03496108
000120 5e c9 ae bc d4 55 8d bc e8 12 f1 3a 83 16 b9 3c
       -0.021336254 -0.01725284 0.0018392475 0.022593742
000130 cc 3c 54 bc aa 76 d9 bc 24 6e 10 bd 29 ac cd 3b
       -0.012953948 -0.026545841 -0.03526129 0.0062766266
000140 14 3a 0b bc f1 61 c3 3a a5 18 10 bd 37 7d 02 bd
       -0.008497734 0.0014906508 -0.035179753 -0.031857695
000150 65 18 ee 3c bd 10 c4 3c ca d5 6f bb 38 9c 5b bc
       0.029064367 0.023933763 -0.0036595934 -0.013403945
000160 b0 51 24 bc 08 50 7f 3c d0 f6 94 bc 6c 1f 3c bd
       -0.010029241 0.015583046 -0.018184096 -0.045928404
000170 86 79 cd bc 98 74 ef bc 43 01 16 3d 4e d6 b6 bc
       -0.025082361 -0.0292304 0.036622297 -0.022318985
000180 1d a8 d1 bd 57 40 83 bd 61 c1 10 bd b7 ea 55 3d
       -0.10237143 -0.06408756 -0.03534067 0.052225795
000190 46 3e d1 bc 5a 47 59 3b 03 67 f1 bc 45 49 67 bd
       -0.02554239 0.00331541 -0.029468065 -0.05646636
0001a0 68 e4 a7 3a cc df a8 bb 95 ac ab bc 30 27 37 bc
       0.0012809159 -0.005153632 -0.020956317 -0.011178777
0001b0 27 4a ae bc f2 d7 14 bd 98 19 2c 3c 13 07 d5 bb
       -0.021275593 -0.036338754 0.010504149 -0.0065010875
0001c0 22 36 33 bc 51 3f b2 bc 00 c2 dd bb 2e 7c d5 3a
       -0.010938199 -0.021758707 -0.0067675114 0.0016287619
0001d0 52 dd 43 bc ff 2a 74 3b cf 74 d5 bc 99 97 45 3a
       -0.011954622 0.0037257073 -0.026056675 0.00075375434
0001e0 c1 10 28 3c 2a d1 72 bc e8 db 93 bc 93 85 3e bd
       0.010257901 -0.014820376 -0.018049195 -0.046514105
0001f0 b3 b8 05 3a 71 94 84 bc 8e 2e 71 3c de a6 bf bc
       0.00051010697 -0.016184064 0.014720572 -0.023394998
000200 ef bd e6 bc 63 82 00 bd 4c bf 07 3d 51 74 fb 3c
       -0.02816674 -0.031374346 0.03314142 0.030695112
000210 65 92 b6 3c 62 bb 9c bc b3 88 f8 bb 8a 7e ab 3d
       0.022286603 -0.01913232 -0.007584655 0.08373745
000220 fe a5 23 3d 21 10 08 3d b5 03 fe 3c 95 0e 47 3d
       0.039953224 0.033218507 0.031007627 0.04859789
000230 6f 7f 77 3d 82 ce 8b 3d 21 f8 0b 3c f7 9c 0c 3c
       0.060424265 0.068264976 0.008543045 0.008582345
000240 86 1c 35 3d d9 0f 0f 3d 9c 8f 88 bd 4e 12 e7 bc
       0.044216655 0.034927223 -0.06668016 -0.02820697
000250 4e 44 e7 bb c4 58 05 3d c4 df f7 3c 88 03 6b bc
       -0.007057703 0.032555357 0.030258067 -0.014344104
000260 21 18 85 bc bf 7e cf 3c aa 71 21 3d fa da 86 3b
       -0.016246857 0.025328992 0.03941504 0.0041154595
000270 9b 5b 19 3c 99 a0 00 bd 8c df 72 3c 0a ab f1 3b
       0.009360219 -0.031403158 0.014823806 0.007375126
000280 8a 03 53 bb c7 3f 60 bc b2 b6 b6 bb 33 91 5b bb
       -0.0032198154 -0.013687081 -0.005575978 -0.0033503294
000290 23 81 71 3b 9e c1 5e bb 7e ed 31 bc 27 fb d6 3c
       0.0036850653 -0.0033989917 -0.010859845 0.026242806
0002a0 82 e5 da 3b 12 6d 10 bc ba e6 eb 3b 20 48 a1 3c
       0.0066801915 -0.008815067 0.0071991356 0.019687712
0002b0 9e 2d ad 3c 32 0e e6 3b bc 4a c8 3b d4 9b 3d bc
       0.021139916 0.007020735 0.0061124247 -0.011572797
0002c0 ef c8 c1 bc a4 3f 01 39 6a c4 e7 bc b4 6c 86 3c
       -0.023655383 0.00012326107 -0.0282919 0.016409256
0002d0 d8 68 2b bc 9b 84 72 3b 34 2b a4 3c b9 c1 b0 bc
       -0.010462008 0.0037005309 0.020040132 -0.02157675
0002e0 91 c0 03 bc e2 4a 29 3c 63 57 cf 3c 27 ed 3c 3c
       -0.008041517 0.010332795 0.025310224 0.011531151
0002f0 35 e1 c7 bb e1 89 9b 3c c7 e9 34 3c 01 77 8f 3c
       -0.006099845 0.018986644 0.011042065 0.0175128
000300 be 89 c7 3c bc 42 79 3c 25 e0 b0 3b 76 1a 33 bd
       0.024357673 0.015213665 0.005397814 -0.043726407
000310 d3 ff 23 bd 4d 54 8a bb 1c 1b db 38 7e 8c a2 bc
       -0.040038895 -0.004221475 0.00010447783 -0.019842383
000320 0b 5c 0d bd 29 5d a3 bb 9e c0 50 3c b3 22 ed 3b
       -0.034511607 -0.004985471 0.012741236 0.0072368025
000330 b0 1d 1a 3b cf 1f 06 bd 96 a4 50 bd 04 1d 0d bd
       0.002351623 -0.03274518 -0.05093821 -0.0344515
000340 30 43 5e bd 94 83 3b bd 6a 0a 9e 3c e9 ba c4 bc
       -0.054263294 -0.04577978 0.019292075 -0.024014907
000350 88 05 2e 3c c6 03 8c bc 9c f5 31 3b de 5d 29 3d
       0.010621436 -0.017091643 0.0027154451 0.041349284
000360 8b 89 cd b9 34 92 b4 bb 59 f1 e9 bc bc 4b 43 bb
       -0.00039203124 -0.005510593 -0.028557466 -0.002979978
000370 36 dc 0e 3c e6 5f b4 3c dd 21 81 3c e3 f9 95 bb
       0.008719495 0.022018384 0.015763218 -0.004576908
000380 5a 1e 99 bc 2b 44 f7 37 c0 fd 70 bb b2 d2 3c bc
       -0.01869123 2.9476438e-05 -0.003677234 -0.011524843
000390 95 d5 50 bb 67 d9 cc 3c 72 ed 43 bc 8a 76 99 bc
       -0.0031865586 0.02500601 -0.011958467 -0.018733282
0003a0 13 a8 28 bc bd 1e 68 bb c7 5d ff 3c 86 65 f1 3a
       -0.010293978 -0.0035418712 0.031172646 0.0018417097
0003b0 4f 51 f9 3b 70 91 ce 3a 42 66 55 3c d0 81 5f 3c
       0.0076085697 0.0015759896 0.013024868 0.01364179
0003c0 62 c3 49 bc c7 67 8f 3b 77 87 09 3d 62 b6 e8 3c
       -0.012314649 0.004376385 0.033576455 0.02840728
0003d0 fa d4 ee 3a fd 41 76 3c c1 81 a8 3c d4 0f a4 bb
       0.0018221431 0.015030381 0.020569684 -0.0050067697
0003e0 22 f3 34 3b 58 14 ac b9 b0 10 84 3d 51 b7 f7 3d
       0.0027610739 -0.00032821554 0.064484954 0.12095512
0003f0 82 48 f3 3d 4d b2 41 3d ea 04 d1 bb 02 fb 7e 3b
       0.11879064 0.04728918 -0.0063787596 0.0038906937

features.7.bias f4 [120]
000000 99 79 4e 3c 6b 40 de 3c 59 19 03 ba b0 6e 31 3d
       0.012602233 0.027130326 -0.00050010305 0.04331845
000010 11 69 a4 3b d7 f0 21 bb 82 33 c4 3b 5f 38 b7 3d
       0.0050174077 -0.0024710202 0.0059875855 0.08946299
000020 ce e0 f7 bb 98 fc 71 bd c1 84 3f 3e a4 c1 61 3d
       -0.0075646406 -0.059078783 0.18702985 0.05511631
000030 0b 96 b4 3c 71 67 ed 3c 41 55 64 3d 24 46 9f bd
       0.022044202 0.028979989 0.055745367 -0.0777705
000040 b0 f5 f0 3c 7d 76 55 bc cc 6e a7 bc 21 80 47 bd
       0.029414028 -0.013028738 -0.020438574 -0.048706178
000050 2e 7d f2 3c 4f 35 32 3d 9d f3 98 3d e9 ee 4c 3b
       0.029600706 0.04350787 0.074683405 0.0031270331
000060 8f 12 69 3d 31 dc 83 3d 55 9f 81 bc 38 ed 7d 3d
       0.056902464 0.064384826 -0.015823046 0.061993808
000070 5b 65 cf bc 84 36 d4 bc 2e 56 3e b9 9b 1a 90 bc
       -0.025316885 -0.025904901 -0.00018151916 -0.017590811
000080 2e 67 37 bd 0d 2d cf 3c e6 ea 88 bc bc 10 8a 3c
       -0.044776134 0.025290037 -0.01671357 0.016853683
000090 16 90 8d bd 51 90 16 3a d4 b4 6b 3d 92 5c e6 bc
       -0.06912248 0.0005743551 0.057545498 -0.028120313
0000a0 b6 a7 19 3d 08 3e 21 bd 7f 09 cf 3b 43 92 55 3d
       0.037513457 -0.0393658 0.0063182707 0.05214144
0000b0 cc 05 e6 3a d6 80 8b bc bc 21 c9 b9 d6 ba d0 bc
       0.0017549335 -0.017029207 -0.00038362842 -0.025479715
0000c0 c4 9c a4 3b 53 fc 96 3d f1 c6 c1 3d 20 4f 4b 3e
       0.0050235707 0.07372346 0.09461773 0.19854403
0000d0 29 38 ee bb 6f dd 67 3d a9 b2 47 3d 81 24 b1 3d
       -0.0072698784 0.05660766 0.048754368 0.08649541
0000e0 45 cb b5 3c b9 70 73 bc 76 73 3e bc d5 94 c3 bb
       0.022191653 -0.014858418 -0.011624208 -0.00596867
0000f0 a4 48 54 bb b9 87 9e ba b4 80 09 3c ff 21 c9 3a
       -0.003239193 -0.0012094892 0.008392502 0.0015345215
000100 bb ee 32 3d 24 81 fd 3d 5e 13 c9 3b fe b2 e0 bb
       0.043684702 0.12378147 0.006136342 -0.006857275
000110 0c c8 17 3d 0f d0 ff 3d 9a 4e 68 bc f3 c5 2d bd
       0.037056014 0.12490856 -0.014178896 -0.042425107
000120 53 53 c2 bc 98 37 87 bd dc 8b 6e 3b 48 b1 e5 3b
       -0.023721373 -0.066024005 0.003639928 0.007009659
000130 96 c6 87 bd 6c 6d 50 3d df b9 cb 3c 30 de 00 3d
       -0.06629674 0.050885603 0.024868904 0.031461895
000140 95 41 81 3d 18 70 94 3d 39 84 0a 3d fc 37 7c 3b
       0.06311337 0.07247943 0.033817504 0.0038485518
000150 1d 6e 29 3b 84 c6 83 3a a6 cd bd 3b 03 37 8d 3c
       0.0025852986 0.0010053669 0.0057923375 0.017238146
000160 6d 9b 4a 3e d5 bd a5 ba 8c f3 df 3b 49 ed 1f 3d
       0.19785853 -0.0012645075 0.006834453 0.039044652
000170 2f 56 ae bd 28 42 9c bb 0f c0 39 3a 43 49 3d 3d
       -0.08512532 -0.0047686286 0.0007085809 0.046212446
000180 b0 b8 0e 3d 5f dd f7 bd 46 23 2c 3b 63 8b 4c 3d
       0.0348441 -0.1210277 0.0026266142 0.049937617
000190 80 69 aa 3d 0d 0d e4 3d ab d0 c0 3b c7 29 ae 39
       0.08320904 0.11135302 0.00588425 0.00033218993
0001a0 17 d9 02 bd d2 58 b1 bc 7f 68 62 3d 2c 1c 13 3c
       -0.031945314 -0.021648798 0.055275436 0.008978885
0001b0 27 a1 b7 3b ab b0 d0 bb 2b 5a 75 3d 09 da 34 3c
       0.0056039277 -0.0063687167 0.059900444 0.011038312
0001c0 e4 de aa bb 79 21 1e 3b 42 d1 c7 bb c1 e2 fa 3d
       -0.005214559 0.0024128838 -0.0060979435 0.12250281
0001d0 90 02 87 3c bb cf 52 bd 65 75 0c bd c1 6b 5b bb
       0.016480714 -0.05146764 -0.034291644 -0.0033480974

features.9.weight f4 [84, 120]
000000 08 37 e7 bc 09 18 0d 3c d3 98 5b 3c bb ae 93 bc
       -0.028224483 0.008611687 0.013403135 -0.018027654
000010 c1 7d 8c bc d7 e3 b6 3c 81 16 32 bc 9f 64 ad bc
       -0.017149808 0.02232544 -0.010869623 -0.021166144
000020 d9 32 0e 3d 09 f4 8b 3b a7 8e 9f bc 5f b4 1b bc
       0.03471646 0.0042710346 -0.019477202 -0.009503453
000030 e5 3a d4 3c 55 db ca 3b b3 d0 46 bb e0 fe 1d 3d
       0.02590699 0.006190697 -0.0030336797 0.038573146
000040 6d d8 d0 bb e3 51 6b bb f4 19 13 3c e4 3d 8c 3b
       -0.006373456 -0.0035906963 0.008978356 0.004279839
000050 45 da 62 bc 0c 8b 12 3c fb 11 9b ba 8c 64 53 bc
       -0.013845985 0.008944284 -0.001183092 -0.01290239
000060 6c 82 07 3d c7 54 33 bc f6 c8 73 3c 99 42 36 bc
       0.033083364 -0.010945505 0.014879456 -0.011124277
000070 a6 1f f4 b9 a3 e4 81 38 69 12 c2 bc 15 a9 35 3c
       -0.00046562887 6.193786e-05 -0.02369042 0.011087676
000080 26 d4 53 bc c9 8f 1f 3c 5f 05 5b 3c 38 18 6a bb
       -0.012928998 0.009738871 0.01336798 -0.0035720002
000090 bf 83 9f 3c 48 ef 32 3c ac fb 81 bb a0 ec 38 bc
       0.019472001 0.010921307 -0.003966769 -0.011286885
0000a0 52 45 1f 3c 66 c1 e0 bb a4 b3 20 bb 6c a6 95 3c
       0.009721117 -0.0068589924 -0.0024521137 0.018267833
0000b0 46 2a 6a 3c 87 7b 1c 3c f4 bc 0e 3b 1f d1 f7 3b
       0.014292305 0.009550936 0.0021780105 0.007562771
0000c0 6a 18 9d bc 39 c1 eb ba ae b4 63 bc b2 32 ef ba
       -0.01917668 -0.0017986662 -0.013898058 -0.0018249361
0000d0 1b 7d 09 3b b9 c6 02 bc a7 5d 88 3c 5a b2 30 3c
       0.002097911 -0.0079819495 0.01664622 0.01078471
0000e0 92 52 97 3a 03 35 df ba 63 18 87 3c e9 40 3b 3c
       0.0011544994 -0.0017029349 0.01649112 0.01142905
0000f0 2f 43 95 3b 1a c1 8f bb f6 7e f8 3b c3 d2 d3 bb
       0.004555128 -0.004387033 0.0075834943 -0.0064643337
000100 3a d0 76 3b 9f e5 49 bb 99 c4 bc 3a e1 b6 de 3b
       0.0037660734 -0.003080703 0.0014401852 0.006796703
000110 6a 8e 56 ba 2d 13 e6 3b 9c cd 5d bb 74 7e 91 bc
       -0.00081846735 0.007021329 -0.0033844477 -0.017760493
000120 83 cf 32 3b 6a a8 9d bc 7f ad f2 bb ac cd a0 3a
       0.002728433 -0.019245345 -0.0074059363 0.0012268326
000130 63 42 4b 3c 97 96 b4 bc 12 b6 d8 b8 94 dd 80 bb
       0.012405965 -0.022044463 -0.00010333596 -0.003932664
000140 1f d8 92 ba 85 79 80 bc 3d 0a b7 bc 0a e4 af 3c
       -0.0011203325 -0.015682945 -0.02234375 0.021471042
000150 34 ef c0 3c fb 8b 69 bb 15 b0 22 bc 39 d2 c6 3c
       0.023551561 -0.0035636413 -0.009929677 0.024270164
000160 e3 a3 73 3b 4a 9e b2 bb 69 25 ad 3b c0 a1 3e bc
       0.0037176542 -0.0054509984 0.0052840007 -0.011635244
000170 ea 78 26 3c 6b fe 99 3c 4b f2 13 3b 19 20 ac 3b
       0.010160664 0.018798074 0.0022574838 0.00525285
000180 3c 21 1f 3d e3 45 c6 39 23 b2 4b 3c 6e 7f 68 bc
       0.038850054 0.00037817573 0.012432608 -0.014190538
000190 ba 2c a0 3c ea ff 46 bc 03 73 d4 bc c3 81 d0 bb
       0.019552577 -0.012145976 -0.025933748 -0.006363125
0001a0 32 d5 10 bb 8a e7 01 3c 6f 53 af bc dd 7a 9f bc
       -0.002209973 0.007928738 -0.021402089 -0.019467765
0001b0 be f8 e3 3b d5 11 0e 3c 95 73 48 bc 36 5f 15 bc
       0.0069571426 0.008671244 -0.012234588 -0.009116938
0001c0 57 5f 58 bc c1 62 83 3b 25 cb 28 3c 71 d1 9c bc
       -0.013206325 0.004009575 0.01030234 -0.019142838
0001d0 83 ed 26 bc 4e 34 d5 3b 50 b6 4c 3c ff 7e 15 3c
       -0.010188463 0.0065064793 0.012494639 0.0091245165
0001e0 85 03 ee ba 11 05 d4 bc 67 8b c0 bb 62 7f 03 3c
       -0.0018159008 -0.025881322 -0.005875993 0.008025976
0001f0 20 e2 2b bb 0f f5 b8 bb 64 ba aa bb 3e cf f8 3b
       -0.002622731 -0.0056444476 -0.005210208 0.0075930646
000200 fb 39 c6 3b e8 11 b0 3b 4e 82 9b bc b5 32 a2 3b
       0.0060493923 0.0053732283 -0.018983033 0.0049498924
000210 0e 8b 49 bb 22 b3 f6 bb 98 41 95 bc 01 38 69 bb
       -0.003075305 -0.0075286785 -0.018219754 -0.003558636
000220 17 03 15 3b 3b 2c b0 3c 79 a8 7a 3b fe d4 b8 3b
       0.0022737437 0.021505466 0.003824739 0.005640625
000230 5e c5 f2 bb 18 58 7d bc 5d dc bc bb 52 22 8f 3c
       -0.007408782 -0.015462898 -0.005763574 0.01747242
000240 b9 f5 15 3c 79 1a 2e ba 06 02 cd 3b a4 a5 57 bb
       0.009152823 -0.0006641518 0.0062563447 -0.0032905126
000250 ad f6 2a 3c 98 61 f5 3a 71 ec 48 3a ef a2 46 3b
       0.010434789 0.0018721102 0.0007664627 0.0030309518
000260 6e 83 ee bb ad 24 8f bc c8 4a 20 3a 85 a3 93 39
       -0.0072788512 -0.017473543 0.0006114659 0.00028159856
000270 91 39 07 3c 82 40 03 bc a9 49 53 bc cb b2 7d bb
       0.008253471 -0.008010985 -0.01289598 -0.0038711305
000280 99 a9 0f 3c 80 b7 42 bc d8 b0 6f bc 5a dd dd bb
       0.008768463 -0.01188457 -0.014629565 -0.006770772
000290 fc 67 3e 3a d6 5d c5 3b 53 3b a6 bc 05 e6 5b b9
       0.00072634197 0.006023149 -0.02029196 -0.00020971156
0002a0 fb d5 a6 bb 23 73 8f 3c e7 60 21 3c 42 45 63 3b
       -0.0050914264 0.017510956 0.0098497635 0.0034678732
0002b0 aa e0 51 3b 58 a0 c6 bb d5 ea 15 bc 72 89 2d 3c
       0.003202478 -0.006061595 -0.009150227 0.010591852
0002c0 b9 9f 46 3b b5 91 d6 3b a0 3b c1 3c 24 49 58 bb
       0.0030307604 0.0065481314 0.023588002 -0.003300258
0002d0 14 db b0 bb ca c9 9e bc e0 ff a4 3b d5 9b 1a bc
       -0.00539721 -0.01938333 0.0050353855 -0.009436567
0002e0 0b 45 69 bb 1f fb 1a 3c 4c 6d 82 39 ee 68 e4 bb
       -0.0035594131 0.009459286 0.00024876965 -0.0069705164
0002f0 cc 5d 51 bc f7 75 38 bb c7 6d a0 3a e3 ba 57 3a
       -0.012778711 -0.0028146484 0.0012239747 0.00082294474
000300 ff 78 df bb 62 e7 cd bb 6d c1 60 3b 15 87 56 bc
       -0.006819844 -0.0062836865 0.0034294978 -0.0130937295
000310 d2 bf c9 bc 26 2c 6b 3c 62 33 d0 bb 1a ec b8 bc
       -0.0246276 0.0143537875 -0.0063537816 -0.02257352
000320 83 13 c6 3b d6 be 8e 3a 44 5a ae bb 3e 50 77 3b
       0.0060448064 0.0010890614 -0.005320819 0.0037737037
000330 c8 97 b6 3b d0 80 4e bc 93 fc ec 3b 77 0a 99 bb
       0.005572293 -0.0126039535 0.0072322576 -0.004670437
000340 82 b3 00 3a 53 df 00 bb 52 58 df bc 1b 77 82 3c
       0.0004909561 -0.0019664362 -0.027263794 0.015925935
000350 b3 98 fd bb 1f a6 c0 ba 3e 5d 1b 3c 48 2f 90 3c
       -0.0077391504 -0.0014697945 0.00948268 0.01760067
000360 e8 df cc bb 7d f5 f0 bb 08 e3 f5 3b de a5 3a 3c
       -0.0062522776 -0.0073534832 0.007503871 0.011392085
000370 45 7e 87 3b 6a 91 1c bb a3 d0 18 3c 17 50 d1 bb
       0.0041349255 -0.0023890384 0.009327087 -0.0063877213
000380 a4 52 7e bc e2 39 9c 3b 09 a2 60 3c 5c 74 a5 3b
       -0.015522633 0.0047676424 0.013710507 0.0050492715
000390 25 70 ca bb ee 50 0c bc b1 45 59 bc 0d 7c 88 3a
       -0.0061779195 -0.008564217 -0.013261245 0.0010412947
0003a0 73 6a a2 3b db 99 d0 bb a6 bf 97 bc 75 ae 75 3c
       0.0049565374 -0.0063659973 -0.018524002 0.014995207
0003b0 15 5c ae bb 84 b7 93 bb eb 5c 29 3a 75 bd 3c bc
       -0.0053210356 -0.0045079608 0.0006460684 -0.011519779
0003c0 19 45 e5 3b 85 d2 7d bc 9a dd 9d bc 78 3d 17 bc
       0.0069967625 -0.015492086 -0.019270707 -0.009230964
0003d0 7c 8c 6a 3d e1 82 94 bb ff a6 e1 bb 27 41 43 3d
       0.057262883 -0.0045322035 -0.0068863626 0.047669556
0003e0 c4 f9 9d bd 6b 6e c9 bd 40 23 99 3d 55 87 24 bd
       -0.07713655 -0.09835514 0.074774265 -0.040168125
0003f0 2b a3 34 bd 0d fb fc 3b 12 d5 83 3d 18 99 72 3d
       -0.04410092 0.0077203573 0.06437124 0.059228033

features.9.bias f4 [84]
000000 c8 21 e4 3c 84 5d f8 bb 7c 6e 86 3e 29 7b ab 3b
       0.02784814 -0.0075795073 0.26256168 0.0052331877
000010 17 01 1c 3c d0 ea 0e bc d7 9b 4b 3d ac b6 92 bd
       0.009521744 -0.008722976 0.049709167 -0.07163748
000020 92 8a 87 3c 65 89 27 3e 67 c0 de 3d 4a af 2c bc
       0.016545568 0.16361006 0.108765416 -0.010539839
000030 be 34 4f 3d 6f f4 98 3e 99 8c b1 bb a3 07 c7 3d
       0.05058741 0.29873988 -0.005418372 0.097182535
000040 8a 50 04 bd f4 a0 09 3d 5e c7 1a 3d a1 d1 16 bd
       -0.03230337 0.033600762 0.037787788 -0.03682101
000050 63 c7 a3 bc 3d aa fc 3d ac 52 0a 3c 8b d2 1c 3c
       -0.019992536 0.12337158 0.008442562 0.009571682
000060 b1 6b ec bb ca 7d 27 bc ae 6c 07 bb 9c 7b 89 bd
       -0.0072149863 -0.010222862 -0.0020664143 -0.0671303
000070 d9 ca 9e 3d eb 8d b3 3e 57 32 f8 3d f1 62 92 3b
       0.07753534 0.35069212 0.121189766 0.004467361
000080 5e 1c e6 3d 07 49 8b bb b0 22 4d 3b 24 43 9e 3c
       0.11235879 -0.004250649 0.0031301193 0.019319125
000090 50 c0 07 3d 52 af de 3b ef 77 34 bc 79 9a cc 3d
       0.033142388 0.006795802 -0.0110149225 0.09990401
0000a0 47 ed cf bc ec 38 7b 3e 76 04 83 3e f3 86 17 bc
       -0.025381697 0.24533433 0.2558934 -0.009248483
0000b0 bc 46 34 3d 2c 1a fd 3d 22 cb d6 3a 46 43 f4 3d
       0.04401277 0.123585075 0.0016387443 0.11926894
0000c0 7e 2e fa 3d ea 81 b0 bb 20 c2 65 3d 0b 2f fd 3c
       0.12215899 -0.0053865807 0.056093335 0.03090622
0000d0 11 cd 48 bb d8 5f 55 3d 40 48 0c 3e dc f9 25 3c
       -0.0030639807 0.052093357 0.13699436 0.010130372
0000e0 3b bd f2 3b 44 19 37 3e d3 aa c6 3a 51 34 0d 3e
       0.007407812 0.17880732 0.0015157111 0.13789488
0000f0 6c 73 2e 3d 45 80 08 3e db 42 46 3c b6 7d 27 3b
       0.042590544 0.13330181 0.0121009005 0.0025557107
000100 18 e7 65 3c 58 d0 de 3d 87 ac ef 3b 10 bc e9 3d
       0.014032148 0.10879582 0.007314268 0.11412823
000110 a6 78 e3 3c 56 90 19 bd 0e 51 ee 3b 5c 84 15 3e
       0.02776749 -0.037491165 0.007272846 0.14601272
000120 82 15 26 bb 60 b7 b5 3d b0 85 47 3d 1a 01 d7 3b
       -0.002534241 0.08872867 0.04871148 0.0065614106
000130 e0 71 4e 3d 71 19 48 3d 80 eb 30 3c 1e c6 a0 bc
       0.05040157 0.048852388 0.010798335 -0.01962572
000140 91 f6 92 3e 39 f6 33 3e 17 d2 54 3b f6 a3 6d 3e
       0.2870374 0.17574395 0.0032473856 0.23207077

classifiers.0.weight f4 [5, 84]
000000 b2 29 28 bd a2 cc ad 3a 49 15 f0 3d b4 df 24 bc
       -0.04105539 0.0013259838 0.1172281 -0.010063101
000010 1d ec 78 3e cb 2e 42 bd 45 36 e2 bc 1b 58 c5 bd
       0.2430882 -0.047407907 -0.027613768 -0.096359454
000020 b1 e4 78 bc 4a a4 3e 3d e2 b8 f9 bd 79 74 b8 ba
       -0.015191243 0.046543397 -0.12193467 -0.0014072797
000030 15 b0 15 3e 96 ea 84 be b2 a5 8a be 2d 8a e4 3d
       0.14617951 -0.25960225 -0.2707954 0.111591674
000040 14 de 2a be 39 6e ba 3d bd 46 b3 bd c8 49 76 bd
       -0.16686279 0.091030546 -0.08753727 -0.060128957
000050 c9 1d ec 3d 3b aa a4 bd 76 00 b2 bc 71 ef ab bd
       0.115291186 -0.080402814 -0.021728735 -0.08395279
000060 39 c6 b0 3a 80 f2 0f 3e b8 6f a4 ba ae 7f 62 bc
       0.0013486809 0.1405735 -0.0012545502 -0.0138243865
000070 b2 91 21 be 77 77 ea 3e d8 da 0f 3e e3 50 25 bd
       -0.15778235 0.4579427 0.14048326 -0.040360343
000080 00 1a 17 bc 92 67 03 bc 3e 8e 30 3c 01 9f c0 bc
       -0.0092225075 -0.008020299 0.010776101 -0.023513319
000090 8f 2a 82 3a c2 65 6f 3c 14 3f c5 bc ce b5 b4 bc
       0.0009930896 0.014611663 -0.02407793 -0.022059347
0000a0 c7 23 5c 3e 3f f0 c0 bc 95 73 cf bd c2 4b 95 bc
       0.21498023 -0.023552058 -0.101294674 -0.0182246
0000b0 c8 ba 49 3d 47 de 90 3e 86 f4 c0 3c b4 09 84 bd
       0.049250394 0.28294584 0.023554098 -0.06447163
0000c0 d1 a1 a4 3d db 30 00 3d f8 16 5a be 6e 15 93 3d
       0.080386765 0.031296592 -0.21297824 0.07181822
0000d0 23 cb e4 ba 6f 6f 73 3e 32 34 0d be c2 10 98 ba
       -0.0017455559 0.23772977 -0.13789442 -0.0011601674
0000e0 52 d6 55 bc 08 a5 2b 3e 57 46 5a 3c d5 fa b9 3b
       -0.013051586 0.16762173 0.013322434 0.0056756535
0000f0 fe 75 bb bd 19 59 92 3c 22 56 79 bd cd bc 40 3c
       -0.091533646 0.01786475 -0.06087316 0.011763764
000100 2b f3 5a bc b2 e3 be 3d ca cb e9 3c 1a 19 be bc
       -0.01336364 0.09320773 0.028539557 -0.023205329
000110 b6 09 e4 3d 2b b4 5c 3d d1 e2 01 3c b9 7d 4e bd
       0.11134665 0.05388276 0.007927612 -0.050412867
000120 3c 99 36 bc 5f c2 aa bb 1e 15 d6 bc 87 45 0f 3e
       -0.011144932 -0.005211159 -0.026133116 0.13991366
000130 ef aa e2 3d ce 7f b7 bd 35 61 5f 3d 41 3c 9d bd
       0.11067759 -0.08959924 0.054536063 -0.07677508
000140 9b a4 40 3e fa f2 4b 3e 28 49 06 3d 32 75 25 3d
       0.18812792 0.19916907 0.03278461 0.04039497
000150 07 0d bc 3c 57 8f 38 3b c2 55 e5 3e 94 30 ba 3c
       0.02295543 0.002816161 0.4479199 0.022728242
000160 7f ab 35 be be 70 85 3c 24 36 05 bc 9e 58 28 bd
       -0.17741202 0.016289111 -0.008130584 -0.041100137
000170 4e 5f 6a 3c 01 af 8d be a3 41 52 be 34 6f ee 3b
       0.014304949 -0.2767258 -0.20532851 0.00727644
000180 d6 6d 8b be 82 ca 5e 3e 91 46 6b 3e 75 db 14 be
       -0.27232236 0.21756938 0.22976138 -0.14536841
000190 64 0c 44 3e fa 0f 20 bd 42 11 8d 3d 28 fb c8 bd
       0.19145352 -0.039077736 0.06888057 -0.09813529
0001a0 e8 0e 07 be 68 ab 14 3e 34 49 17 3d 22 00 19 3e
       -0.1318928 0.14518511 0.036935046 0.14941457
0001b0 0e 78 4e bc 66 44 fd bd d3 ab 93 bb 3b 7c 84 bd
       -0.012601865 -0.123665616 -0.004506567 -0.064690076
0001c0 8d 1d 76 3e 83 d9 f5 3d 78 82 62 be 94 37 82 3c
       0.2403471 0.12004378 -0.22120082 0.015895642
0001d0 ed 08 01 be 24 11 9d bb 2d 67 4c 3c c4 e9 86 bc
       -0.12601061 -0.004793303 0.012475771 -0.01646889
0001e0 af 03 61 be 08 85 08 be 27 7c ca bc da 9d 52 be
       -0.21974061 -0.13331997 -0.024717404 -0.20568028
0001f0 80 c9 1f be 6b a5 9b 3e 3e 6e 95 3d 8c e8 e5 3a
       -0.1560421 0.3039964 0.07296418 0.0017540618
000200 1d 4c 9f be e8 af 2f bd b9 87 ca bc e4 87 ce 3c
       -0.31112757 -0.042892367 -0.02472292 0.025211282
000210 6a bf 18 3e 5a 3b 31 be 4a 7c 61 bd a4 90 49 bd
       0.14916769 -0.17307797 -0.055050172 -0.049210206
000220 1b 26 d6 3c 0c 7b 30 be ef 84 bc be b9 d8 cb 3c
       0.026141217 -0.17234439 -0.3682017 0.024883615
000230 42 08 93 bd 18 db ce 3d c9 90 4a 3c 1f 00 29 bd
       -0.071793094 0.101003826 0.012363621 -0.04125988
000240 57 d6 82 bd 85 15 8f 3e f4 a4 02 be 93 56 05 bd
       -0.06388538 0.27946106 -0.12758237 -0.032553267
000250 76 b8 34 3d cd 31 12 3e 0c bd 16 bc 7f 66 a9 be
       0.04412123 0.1427681 -0.009200346 -0.3308601
000260 0b cf 38 be 17 3e 04 be d0 8c 20 bd c5 20 c3 bc
       -0.1804773 -0.1291431 -0.03919679 -0.023819337
000270 3a 3c 30 bd c0 43 3e 3d ee 10 6e 3c ba c8 b3 be
       -0.043026187 0.04645133 0.014530404 -0.3511408
000280 69 a6 cc 3c 5c 00 06 3e 4a fe f7 bb 53 19 3e bd
       0.024981694 0.13086075 -0.0075681554 -0.04641087
000290 f3 ec 7c 3e b4 ac fa be 4d a7 90 3a bc 02 1f be
       0.24699764 -0.48959887 0.0011036188 -0.15528387
0002a0 10 ff 00 3d 66 ef ba bb 24 a7 20 be 71 45 22 3a
       0.031493247 -0.005704808 -0.15688759 0.0006190157
0002b0 f6 76 be bd 4e 33 a9 bb e7 72 db 3d 8a 73 26 3e
       -0.09300034 -0.0051635867 0.10715275 0.16255012
0002c0 ed 25 fb 3c 9b f9 8c be db 2a 68 3e bf 75 a1 3c
       0.030657733 -0.27534184 0.22672598 0.019709466
0002d0 03 7e 80 bc 34 1e 5c b9 33 73 e6 3c 33 b2 0b be
       -0.015685087 -0.00020992087 0.028131103 -0.13642196
0002e0 58 ae 35 bd 56 d3 8c bd a1 cf ec 3d 6a bd 55 3e
       -0.04435572 -0.06876247 0.115630396 0.20873037
0002f0 08 88 f8 3d 28 a6 5a be 74 e4 12 3d 56 fd e8 3d
       0.12135321 -0.21352446 0.0358624 0.11376445
000300 fb 06 93 3b 8a e5 23 3e 65 a1 87 3c 9e 48 3f bd
       0.004486916 0.16005531 0.016556451 -0.046700113
000310 db e6 0e be b8 c9 ae be 3c cd 1a be e2 5f 7a 3c
       -0.13955252 -0.34138274 -0.15117353 0.015281649
000320 87 8f 93 3e 94 1f 2b bb 09 c0 ca 3c 7e 67 78 bd
       0.2882044 -0.0026111351 0.024749773 -0.060645573
000330 47 bf 91 3d f0 1e bc 3d da 97 1d 3d 3c 22 69 3d
       0.071165614 0.09185588 0.038474895 0.056917414
000340 6e b2 16 3e ff 5b ec 3d 82 0b 1f 3e 13 7a 8e 3b
       0.14716503 0.11540984 0.15531734 0.0043480485
000350 a3 ed b5 3e 33 ba 34 bd 61 d9 9c bb 6d 4b 5f 3e
       0.35532865 -0.044122886 -0.004786656 0.21806116
000360 63 cc 6c bc 52 93 5c 3d 61 df 1f be e7 03 a3 bd
       -0.0144530265 0.053851433 -0.15612556 -0.07959729
000370 23 25 1b 3b 44 c4 82 bd 7c 7e 90 3e 6e ab ce 3c
       0.0023673258 -0.06385091 0.282215 0.025228228
000380 30 cb 84 3c e6 34 67 be 49 3b 93 39 53 91 46 be
       0.016210169 -0.22578773 0.00028082196 -0.19391374
000390 23 ed 43 3e dd df 23 bd a3 43 b0 3e 9b 72 17 3c
       0.19133429 -0.040008415 0.34426603 0.009243633
0003a0 2a b1 a8 3c 22 bc 5f be 44 a4 90 bc c2 9e 86 3e
       0.02059229 -0.2184911 -0.017656453 0.26292998
0003b0 95 7e 98 3d 0d e5 b5 3b d7 d1 28 3b 2d 39 d6 bc
       0.074460186 0.0055509866 0.002575984 -0.02615031
0003c0 44 b9 a5 bd 17 0f 75 bd ed 17 a4 3d 69 44 d3 3d
       -0.08091977 -0.059828844 0.08012376 0.103157826
0003d0 ea 24 25 3c 49 7d 0e 3d 4d 2b ff bc ce 7b 8f 3d
       0.010079602 0.03478745 -0.031148577 0.07006036
0003e0 32 90 b8 bb eb 0d 01 3a 0b f5 76 bc 94 e0 88 3e
       -0.005632424 0.00049230334 -0.015073071 0.2673384
0003f0 e1 9c a6 bc 27 83 99 bc 66 57 1d be 2a d2 30 3b
       -0.020338478 -0.018739296 -0.15365371 0.0026980736

classifiers.0.bias f4 [5]
000000 eb 7a 23 be 1a 7f 61 3f 90 38 e4 be 09 89 31 bf
       -0.15964858 0.88084567 -0.44574404 -0.69349724
000010 d2 09 d6 3e
       0.41804367

classifier.weight f4 [5, 84]
000000 b2 29 28 bd a2 cc ad 3a 49 15 f0 3d b4 df 24 bc
       -0.04105539 0.0013259838 0.1172281 -0.010063101
000010 1d ec 78 3e cb 2e 42 bd 45 36 e2 bc 1b 58 c5 bd
       0.2430882 -0.047407907 -0.027613768 -0.096359454
000020 b1 e4 78 bc 4a a4 3e 3d e2 b8 f9 bd 79 74 b8 ba
       -0.015191243 0.046543397 -0.12193467 -0.0014072797
000030 15 b0 15 3e 96 ea 84 be b2 a5 8a be 2d 8a e4 3d
       0.14617951 -0.25960225 -0.2707954 0.111591674
000040 14 de 2a be 39 6e ba 3d bd 46 b3 bd c8 49 76 bd
       -0.16686279 0.091030546 -0.08753727 -0.060128957
000050 c9 1d ec 3d 3b aa a4 bd 76 00 b2 bc 71 ef ab bd
       0.115291186 -0.080402814 -0.021728735 -0.08395279
000060 39 c6 b0 3a 80 f2 0f 3e b8 6f a4 ba ae 7f 62 bc
       0.0013486809 0.1405735 -0.0012545502 -0.0138243865
000070 b2 91 21 be 77 77 ea 3e d8 da 0f 3e e3 50 25 bd
       -0.15778235 0.4579427 0.14048326 -0.040360343
000080 00 1a 17 bc 92 67 03 bc 3e 8e 30 3c 01 9f c0 bc
       -0.0092225075 -0.008020299 0.010776101 -0.023513319
000090 8f 2a 82 3a c2 65 6f 3c 14 3f c5 bc ce b5 b4 bc
       0.0009930896 0.014611663 -0.02407793 -0.022059347
0000a0 c7 23 5c 3e 3f f0 c0 bc 95 73 cf bd c2 4b 95 bc
       0.21498023 -0.023552058 -0.101294674 -0.0182246
0000b0 c8 ba 49 3d 47 de 90 3e 86 f4 c0 3c b4 09 84 bd
       0.049250394 0.28294584 0.023554098 -0.06447163
0000c0 d1 a1 a4 3d db 30 00 3d f8 16 5a be 6e 15 93 3d
       0.080386765 0.031296592 -0.21297824 0.07181822
0000d0 23 cb e4 ba 6f 6f 73 3e 32 34 0d be c2 10 98 ba
       -0.0017455559 0.23772977 -0.13789442 -0.0011601674
0000e0 52 d6 55 bc 08 a5 2b 3e 57 46 5a 3c d5 fa b9 3b
       -0.013051586 0.16762173 0.013322434 0.0056756535
0000f0 fe 75 bb bd 19 59 92 3c 22 56 79 bd cd bc 40 3c
       -0.091533646 0.01786475 -0.06087316 0.011763764
000100 2b f3 5a bc b2 e3 be 3d ca cb e9 3c 1a 19 be bc
       -0.01336364 0.09320773 0.028539557 -0.023205329
000110 b6 09 e4 3d 2b b4 5c 3d d1 e2 01 3c b9 7d 4e bd
       0.11134665 0.05388276 0.007927612 -0.050412867
000120 3c 99 36 bc 5f c2 aa bb 1e 15 d6 bc 87 45 0f 3e
       -0.011144932 -0.005211159 -0.026133116 0.13991366
000130 ef aa e2 3d ce 7f b7 bd 35 61 5f 3d 41 3c 9d bd
       0.11067759 -0.08959924 0.054536063 -0.07677508
000140 9b a4 40 3e fa f2 4b 3e 28 49 06 3d 32 75 25 3d
       0.18812792 0.19916907 0.03278461 0.04039497
000150 07 0d bc 3c 57 8f 38 3b c2 55 e5 3e 94 30 ba 3c
       0.02295543 0.002816161 0.4479199 0.022728242
000160 7f ab 35 be be 70 85 3c 24 36 05 bc 9e 58 28 bd
       -0.17741202 0.016289111 -0.008130584 -0.041100137
000170 4e 5f 6a 3c 01 af 8d be a3 41 52 be 34 6f ee 3b
       0.014304949 -0.2767258 -0.20532851 0.00727644
000180 d6 6d 8b be 82 ca 5e 3e 91 46 6b 3e 75 db 14 be
       -0.27232236 0.21756938 0.22976138 -0.14536841
000190 64 0c 44 3e fa 0f 20 bd 42 11 8d 3d 28 fb c8 bd
       0.19145352 -0.039077736 0.06888057 -0.09813529
0001a0 e8 0e 07 be 68 ab 14 3e 34 49 17 3d 22 00 19 3e
       -0.1318928 0.14518511 0.036935046 0.14941457
0001b0 0e 78 4e bc 66 44 fd bd d3 ab 93 bb 3b 7c 84 bd
       -0.012601865 -0.123665616 -0.004506567 -0.064690076
0001c0 8d 1d 76 3e 83 d9 f5 3d 78 82 62 be 94 37 82 3c
       0.2403471 0.12004378 -0.22120082 0.015895642
0001d0 ed 08 01 be 24 11 9d bb 2d 67 4c 3c c4 e9 86 bc
       -0.12601061 -0.004793303 0.012475771 -0.01646889
0001e0 af 03 61 be 08 85 08 be 27 7c ca bc da 9d 52 be
       -0.21974061 -0.13331997 -0.024717404 -0.20568028
0001f0 80 c9 1f be 6b a5 9b 3e 3e 6e 95 3d 8c e8 e5 3a
       -0.1560421 0.3039964 0.07296418 0.0017540618
000200 1d 4c 9f be e8 af 2f bd b9 87 ca bc e4 87 ce 3c
       -0.31112757 -0.042892367 -0.02472292 0.025211282
000210 6a bf 18 3e 5a 3b 31 be 4a 7c 61 bd a4 90 49 bd
       0.14916769 -0.17307797 -0.055050172 -0.049210206
000220 1b 26 d6 3c 0c 7b 30 be ef 84 bc be b9 d8 cb 3c
       0.026141217 -0.17234439 -0.3682017 0.024883615
000230 42 08 93 bd 18 db ce 3d c9 90 4a 3c 1f 00 29 bd
       -0.071793094 0.101003826 0.012363621 -0.04125988
000240 57 d6 82 bd 85 15 8f 3e f4 a4 02 be 93 56 05 bd
       -0.06388538 0.27946106 -0.12758237 -0.032553267
000250 76 b8 34 3d cd 31 12 3e 0c bd 16 bc 7f 66 a9 be
       0.04412123 0.1427681 -0.009200346 -0.3308601
000260 0b cf 38 be 17 3e 04 be d0 8c 20 bd c5 20 c3 bc
       -0.1804773 -0.1291431 -0.03919679 -0.023819337
000270 3a 3c 30 bd c0 43 3e 3d ee 10 6e 3c ba c8 b3 be
       -0.043026187 0.04645133 0.014530404 -0.3511408
000280 69 a6 cc 3c 5c 00 06 3e 4a fe f7 bb 53 19 3e bd
       0.024981694 0.13086075 -0.0075681554 -0.04641087
000290 f3 ec 7c 3e b4 ac fa be 4d a7 90 3a bc 02 1f be
       0.24699764 -0.48959887 0.0011036188 -0.15528387
0002a0 10 ff 00 3d 66 ef ba bb 24 a7 20 be 71 45 22 3a
       0.031493247 -0.005704808 -0.15688759 0.0006190157
0002b0 f6 76 be bd 4e 33 a9 bb e7 72 db 3d 8a 73 26 3e
       -0.09300034 -0.0051635867 0.10715275 0.16255012
0002c0 ed 25 fb 3c 9b f9 8c be db 2a 68 3e bf 75 a1 3c
       0.030657733 -0.27534184 0.22672598 0.019709466
0002d0 03 7e 80 bc 34 1e 5c b9 33 73 e6 3c 33 b2 0b be
       -0.015685087 -0.00020992087 0.028131103 -0.13642196
0002e0 58 ae 35 bd 56 d3 8c bd a1 cf ec 3d 6a bd 55 3e
       -0.04435572 -0.06876247 0.115630396 0.20873037
0002f0 08 88 f8 3d 28 a6 5a be 74 e4 12 3d 56 fd e8 3d
       0.12135321 -0.21352446 0.0358624 0.11376445
000300 fb 06 93 3b 8a e5 23 3e 65 a1 87 3c 9e 48 3f bd
       0.004486916 0.16005531 0.016556451 -0.046700113
000310 db e6 0e be b8 c9 ae be 3c cd 1a be e2 5f 7a 3c
       -0.13955252 -0.34138274 -0.15117353 0.015281649
000320 87 8f 93 3e 94 1f 2b bb 09 c0 ca 3c 7e 67 78 bd
       0.2882044 -0.0026111351 0.024749773 -0.060645573
000330 47 bf 91 3d f0 1e bc 3d da 97 1d 3d 3c 22 69 3d
       0.071165614 0.09185588 0.038474895 0.056917414
000340 6e b2 16 3e ff 5b ec 3d 82 0b 1f 3e 13 7a 8e 3b
       0.14716503 0.11540984 0.15531734 0.0043480485
000350 a3 ed b5 3e 33 ba 34 bd 61 d9 9c bb 6d 4b 5f 3e
       0.35532865 -0.044122886 -0.004786656 0.21806116
000360 63 cc 6c bc 52 93 5c 3d 61 df 1f be e7 03 a3 bd
       -0.0144530265 0.053851433 -0.15612556 -0.07959729
000370 23 25 1b 3b 44 c4 82 bd 7c 7e 90 3e 6e ab ce 3c
       0.0023673258 -0.06385091 0.282215 0.025228228
000380 30 cb 84 3c e6 34 67 be 49 3b 93 39 53 91 46 be
       0.016210169 -0.22578773 0.00028082196 -0.19391374
000390 23 ed 43 3e dd df 23 bd a3 43 b0 3e 9b 72 17 3c
       0.19133429 -0.040008415 0.34426603 0.009243633
0003a0 2a b1 a8 3c 22 bc 5f be 44 a4 90 bc c2 9e 86 3e
       0.02059229 -0.2184911 -0.017656453 0.26292998
0003b0 95 7e 98 3d 0d e5 b5 3b d7 d1 28 3b 2d 39 d6 bc
       0.074460186 0.0055509866 0.002575984 -0.02615031
0003c0 44 b9 a5 bd 17 0f 75 bd ed 17 a4 3d 69 44 d3 3d
       -0.08091977 -0.059828844 0.08012376 0.103157826
0003d0 ea 24 25 3c 49 7d 0e 3d 4d 2b ff bc ce 7b 8f 3d
       0.010079602 0.03478745 -0.031148577 0.07006036
0003e0 32 90 b8 bb eb 0d 01 3a 0b f5 76 bc 94 e0 88 3e
       -0.005632424 0.00049230334 -0.015073071 0.2673384
0003f0 e1 9c a6 bc 27 83 99 bc 66 57 1d be 2a d2 30 3b
       -0.020338478 -0.018739296 -0.15365371 0.0026980736

classifier.bias f4 [5]
000000 eb 7a 23 be 1a 7f 61 3f 90 38 e4 be 09 89 31 bf
       -0.15964858 0.88084567 -0.44574404 -0.69349724
000010 d2 09 d6 3e
       0.41804367
