checkpoints_lenet5/baseline_scratch/lenet5/flowers/checkpoint-100.pth.tar (torch, 312213 bytes, 12 tensors)

features.0.weight f4 [6, 3, 5, 5]
-0.3456076 -0.017827919 0.13439351 0.3718872 0.43146023 -0.19821425 -0.053175006 0.03352787
0.34697267 0.51219577 0.007863043 -0.3074179 0.13279541 -0.031304136 0.2647989 0.005621818
-0.006996255 -0.28796795 0.13768253 0.12557039 0.08853898 0.060315263 0.018639108 -0.11248229
-0.021043537 -0.19466998 -0.18198934 -0.39091298 -0.22182009 0.1405643 -0.3466948 -0.3263046
-0.23461422 -0.32428324 0.031978905 -0.01847639 -0.19166198 -0.57493484 -0.3478667 0.106317654
0.14898284 -0.043142095 -0.20134233 -0.2225261 0.18494801 -0.0109975785 0.2247387 0.15964927
0.1229156 0.30411887 0.03263742 -0.078789525 -0.06270698 -0.045685876 -0.15816213 0.08310638
-0.08506137 -0.1648298 -0.14966835 -0.08170871 0.15972434 0.019169228 -0.14667962 -0.06282928
-0.38904 -0.071657315 0.04687383 0.05007582 -0.31660393 -0.21405308 0.18778513 0.2559392
0.21887794 0.09190712 -0.28646016 0.03239379 0.29029605 0.26464123 0.19915964 0.16000633
0.2350561 0.6298406 0.5388211 0.09552877 0.02417516 0.26696366 0.4319008 0.54923666
0.29666698 -0.13919325 0.11318101 0.41851187 0.07538741 0.10127631 -0.27076823 0.0071446407
0.123181574 -0.121204816 -0.17885822 -0.5856133 -0.17221981 -0.10715919 0.013249794 -0.21608837
-0.060667288 0.023691108 -0.52131265 -0.15879825 -0.2182032 -0.2275764 -0.15412429 -0.17456605
-0.49023983 -0.35086915 0.09913352 0.07448412 -0.20117213 -0.17960368 -0.105466224 0.16928719
-0.18687841 -0.17489702 -0.06892257 0.06184904 0.089995705 0.041408423 0.094890215 0.35893956
-0.049883813 0.001666331 0.022009403 0.35155976 0.31187028 -0.14745557 -0.26242948 0.15883335
0.21728694 0.090298 -0.13515429 -0.008151646 0.16817941 0.1679112 -0.09931558 -0.09404725
-0.18223341 0.35528845 -0.010928346 0.0014405863 0.3026434 -0.14188032 0.03086714 -0.07152089
-0.10341598 0.07493955 0.08803439 -0.16867352 -0.1292559 0.030539233 -0.0845051 -0.0051099034
-0.1255796 -0.0017131831 -0.040810846 -0.13909471 0.033478692 0.08853764 -0.10901067 -0.0036288372
0.11819806 -0.010584524 0.039555546 0.06743435 0.12277024 -0.16797717 0.1940745 -0.01329572
0.13277636 -0.19559206 -0.097019255 -0.30315387 -0.09264815 -0.17708267 -0.17508726 -0.13083689
-0.16031966 -0.12971216 -0.093270466 -0.35533828 -0.38576156 -0.19659777 0.004597432 -0.06457478
-0.22913666 -0.3414217 -0.32493502 -0.048786044 0.16063905 -0.12110741 -0.40404585 -0.17755793
0.00059888104 0.1056336 0.4305984 0.23593022 0.23787038 0.06031454 0.23244064 0.4037068
0.118277855 0.16401753 -0.13047346 -0.12838344 -0.0038473678 0.06443865 0.05847873 0.027115224
0.11675723 0.086720064 0.24656327 0.20234914 -0.083830245 0.2729877 0.04201927 0.15512715
0.1351489 -0.17555977 0.09948052 0.037430882 0.13069065 0.29557618 -0.030830238 0.17060986
0.5717543 0.50161123 0.28009385 0.03557331 0.15880129 0.32770294 0.5540881 0.4518739
-0.21516493 -0.16753635 0.0731321 0.37679225 0.4449223 -0.4320034 -0.34730706 -0.055838387
0.13806282 0.09704538 -0.1843885 -0.120627634 -0.24462372 0.07431425 0.11295761 0.029823983
00000000: 7bf3 b0be db0b 92bc 749e 093e 0068 be3e
00000010: 5be8 dc3e adf8 4abe 09ce 59bd 8554 093d
00000020: 67a6 b13e 431f 033f fed3 003c e165 9dbe
00000030: 85fb 073e c438 00bd b993 873e 3a37 b83b
00000040: d740 e5bb 8970 93be a6fc 0c3e 8695 003e
00000050: ed53 b53d 230d 773d 0bb1 983c 1d5d e6bd
00000060: 7f63 acbc 9157 47be 6a5b 3abe bf25 c8be
00000070: ce24 63be 16f0 0f3e fb81 b1be 6611 a7be
00000080: b63e 70be 7408 a6be 50fc 023d cc5b 97bc
00000090: 0a43 44be ee2e 13bf 961b b2be 12bd d93d
000000a0: f58e 183e c4b5 30bd af2c 4ebe e2dd 63be
000000b0: 0363 3d3e 302f 34bc e721 663e 197b 233e
000000c0: 2dbb fb3d 78b5 9b3e d1ae 053d 675c a1bd
000000d0: 846c 80bd 1d21 3bbd 41f5 21be ae33 aa3d
000000e0: a834 aebd 25c9 28be a942 19be e556 a7bd
000000f0: c78e 233e c908 9d3c 2f33 16be a3ac 80bd
00000100: 4030 c7be 12c1 92bd c6fe 3f3d 4e1c 4d3d
00000110: e919 a2be bb30 5bbe bf4a 403e 760a 833e
00000120: 8a21 603e cd39 bc3d e8aa 92be 5aaf 043d
00000130: afa1 943e 0e7f 873e 81f0 4b3e b3d8 233e
00000140: 8cb2 703e 3c3d 213f 2ef0 093f 96a4 c33d
00000150: fc0a c63c 76af 883e 1a22 dd3e c69a 0c3f
00000160: bce4 973e ad88 0ebe 72cb e73d 3047 d63e
00000170: b764 9a3d f469 cf3d 22a2 8abe 971d ea3b
00000180: 9f46 fc3d 3b3a f8bd 9c26 37be c1ea 15bf
00000190: 645a 30be 4776 dbbd aa15 593c 4546 5dbe
000001a0: 437e 78bd db13 c23c bf74 05bf 029c 22be
000001b0: a970 5fbe ca09 69be c2d2 1dbe 71c1 32be
000001c0: b700 fbbe 1fa5 b3be 8406 cb3d 218b 983d
000001d0: 1100 4ebe 07ea 37be adfe d7bd 9f59 2d3e
000001e0: 0e5d 3fbe 3418 33be 4727 8dbd 6b55 7d3d
000001f0: ab4f b83d e19b 293d cd55 c23d edc6 b73e
00000200: f852 4cbd ca68 da3a 104d b43c a4ff b33e
00000210: 76ad 9f3e 98fe 16be 285d 86be 36a5 223e
00000220: 7880 5e3e 28ee b83d e365 0abe 7b8e 05bc
00000230: 3937 2c3e eaf0 2b3e f865 cbbd d89b c0bd
00000240: 659b 3abe 5ee8 b53e ce0c 33bc 0ed2 bc3a
00000250: 13f4 9a3e 1349 11be 16dd fc3c 8b79 92bd
00000260: c2cb d3bd e879 993d 604b b43d c0b8 2cbe
00000270: a95b 04be 6a2d fa3c 0311 adbd fa70 a7bb
00000280: f097 00be e38c e0ba 4629 27bd d86e 0ebe
00000290: f420 093d 3953 b53d fc40 dfbd c9d1 6dbb
000002a0: d311 f23d b66a 2dbc ff04 223d 051b 8a3d
000002b0: f76e fb3d 3502 2cbe 77bb 463e 4bd6 59bc
000002c0: 87f6 073e 4949 48be 08b2 c6bd fc36 9bbe
000002d0: 50be bdbd 2955 35be 134a 33be 1bfa 05be
000002e0: d62a 24be 44d3 04be 9604 bfbd e6ee b5be
000002f0: 8a82 c5be ed50 49be 0ea6 963b c83f 84bd
00000300: cda2 6abe d3ce aebe e25d a6be e0d3 47bd
00000310: 907e 243e 2907 f8bd 19df cebe bfd1 35be
00000320: 3afe 1c3a 6e56 d83d 6577 dc3e b197 713e
00000330: 4b94 733e 610c 773d eb04 6e3e a8b2 ce3e
00000340: a93b f23d 36f4 273e d69a 05be f376 03be
00000350: 1f24 7cbb 69f8 833d 6587 6f3d bf20 de3c
00000360: 6a1e ef3d 4a9a b13d 157b 7c3e 9d34 4f3e
00000370: 31af abbd 0bc5 8b3e 661c 2c3d a7d9 1e3e
00000380: 7964 0a3e f1c5 33be 71bc cb3d 2051 193d
00000390: c5d3 053e c355 973e b28f fcbc 5ab4 2e3e
000003a0: 7d5e 123f 9869 003f 7668 8f3e 52b5 113d
000003b0: ce9c 223e aec8 a73e b8d8 0d3f 045c e73e
000003c0: 3254 5cbe a68e 2bbe 48c6 953d eaea c03e
000003d0: dbcc e33e 8d2f ddbe 3bd2 b1be cbb6 64bd
000003e0: 5760 0d3e babf c63d 57d0 3cbe 9f0b f7bd
000003f0: a47e 7abe 1232 983d 5256 e73d 6d51 f43c

features.3.weight f4 [16, 6, 5, 5]
-0.026686953 0.19272006 0.19434594 0.12529647 0.13129319 0.08791628 0.050250515 0.07933641
0.010302211 0.17974153 0.024480563 -0.019881528 -0.012747608 -0.027830323 0.113201916 0.08820978
-0.006190585 0.11073137 0.13483272 -0.106906116 -0.053775594 0.041209698 -0.05781822 -0.13885887
-0.069967724 -0.10299657 -0.071573295 0.07873545 0.07090068 0.14214659 0.105016045 0.115563035
0.11166484 0.080277555 0.02595779 -0.0024281433 0.07153594 0.17888397 0.03529942 0.031822026
-0.020074992 0.0060001602 -0.1502868 -0.011613147 -0.15211396 0.04688458 0.017046705 0.0038691573
0.06406324 -0.13531156 -0.1077396 -0.12337086 -0.17518875 -0.14114259 -0.11083583 -0.188818
-0.11083505 -0.12788522 -0.10872981 -0.14337794 -0.2095632 -0.225342 -0.13702172 -0.17314206
-0.09492154 -0.15098488 -0.06392694 -0.13868093 -0.04604221 -0.052608483 -0.10721569 -0.12131968
0.009226779 -0.1502441 -0.22852929 -0.10418792 0.024355773 0.025013374 -0.1517489 -0.093386225
-0.024889518 0.0075815753 0.108081385 -0.04619211 0.052613784 0.11810797 -0.039908115 -0.036626354
-0.020069337 -0.16798687 0.12261759 0.020711286 0.10590678 -0.07869591 -0.067682214 0.118388586
-0.081397645 -0.051607285 -0.06686033 -0.064216726 0.21155757 0.18692848 0.2130726 0.029339742
0.045987535 0.1929698 0.102469765 0.029478561 0.067305915 -0.06936852 0.085550405 0.0010927493
0.02106068 0.14651091 0.0648671 0.07204732 0.13560307 -0.1060924 0.07712712 0.00089589343
0.1427879 -0.028588174 -0.034405753 -0.11882239 -0.09879457 -0.16785519 -0.21278356 -0.15113391
-0.14646177 -0.15564053 -0.20683481 -0.26721358 -0.27724424 -0.24126774 -0.25170714 -0.15699214
-0.16397053 -0.21756244 -0.12383151 -0.18871467 -0.19491565 -0.24719779 -0.31176943 -0.2526007
-0.16059126 -0.14952707 -0.06878457 -0.1645903 -0.21084191 -0.14220628 0.07524172 0.021193447
0.02442498 0.047300763 0.08602638 0.15897544 -0.07000993 -0.034631923 -0.091505855 -0.12893873
-0.075313605 -0.05280723 -0.15647554 -0.030658158 -0.009683993 -0.050924994 -0.03609821 -0.09579883
-0.14255038 -0.12703183 -0.28219122 -0.15979213 -0.20542324 -0.22401616 -0.15063329 0.14902052
0.15796275 -0.13918154 -0.050251998 -0.21086724 0.23054235 0.026145434 0.105663784 -0.04014798
-0.128142 0.2956767 0.29408476 0.18509595 0.14237863 0.12303392 0.335629 0.18161307
0.22623013 0.16248758 0.15986772 -0.01141253 0.09502629 0.14188582 0.093543 0.1062695
0.0050691688 -0.124595985 -0.0035060092 0.007839519 0.020697912 -0.06966446 -0.052621726 0.096366465
-0.0091623245 -0.13906194 -0.04020213 -0.13259411 -0.119322814 -0.019525884 -0.012898717 -0.28170142
-0.18912949 -0.09539357 -0.079759255 -0.09170563 -0.32723966 -0.2099239 -0.22452895 -0.004666838
-0.16255468 0.0016117718 0.08482614 -0.10671151 -0.08765495 -0.16108504 0.13219231 0.060420215
0.027449623 0.013133599 -0.25045684 0.4005874 0.22907147 -0.026390743 0.047754157 -0.15244831
0.250806 0.25139812 0.17898619 -0.04514067 -0.13981299 0.15123856 0.112268604 -0.08210758
-0.045554493 -0.023947736 0.07387757 -0.1657733 -0.11907705 -0.24199626 -0.11827373 0.07062612
00000000: 999e dabc 6858 453e 9f02 473e b84d 003e
00000010: b971 063e 730d b43d 7cd3 4d3d 217b a23d
00000020: 9bca 283c 2a0e 383e 768b c83c 96de a2bc
00000030: 58db 50bc 6bfc e3bc 68d6 e73d 54a7 b43d
00000040: 64da cabb 21c7 e23d 9711 0a3e 98f1 dabd
00000050: cc43 5cbd 80cb 283d ccd2 6cbd 0531 0ebe
00000060: 3d4b 8fbd deef d2bd 0595 92bd 0d40 a13d
00000070: 6034 913d e08e 113e a712 d73d 50ac ec3d
00000080: 89b0 e43d 8f68 a43d 6ea5 d43c 7c21 1fbb
00000090: 6f81 923d 5c2d 373e 2096 103d d057 023d
000000a0: 4f74 a4bc fe9c c43b c8e4 19be 1245 3ebc
000000b0: c3c3 1bbe 0c0a 403d 88a5 8b3c b091 7d3b
000000c0: 9733 833d 1d8f 0abe 94a6 dcbd dda9 fcbd
000000d0: ae64 33be af87 10be e5fd e2bd 8159 41be
000000e0: 7dfd e2bd 58f4 02be bcad debd abd1 12be
000000f0: bc97 56be 0ec0 66be 6c4f 0cbe 274c 31be
00000100: 3966 c2bd c89b 1abe 21ec 82bd 6002 0ebe
00000110: c296 3cbd fe7b 57bd e693 dbbd 7476 f8bd
00000120: eb2b 173c 97d9 19be 9503 6abe 7a60 d5bd
00000130: c285 c73c d9e8 cc3c 1064 1bbe 4741 bfbd
00000140: 1ae5 cbbc dd6e f83b c659 dd3d f033 3dbd
00000150: 8d81 573d 97e2 f13d b176 23bd 8405 16bd
00000160: 7368 a4bc c004 2cbe ee1e fb3d b7aa a93c
00000170: a7e5 d83d 522b a1bd f99c 8abd b775 f23d
00000180: cfb3 a6bd 2962 53bd 12ee 88bd 0f84 83bd
00000190: 8ca2 583e 2e6a 3f3e b42f 5a3e e659 f03c
000001a0: 6d5d 3c3d e099 453e abdb d13d 067d f13c
000001b0: afd7 893d 1511 8ebd 0d35 af3d 953a 8f3a
000001c0: 7287 ac3c f506 163e 0bd9 843d 8c8d 933d
000001d0: 88db 0a3e f946 d9bd d3f4 9d3d 64da 6a3a
000001e0: fe36 123e bf31 eabc 0ced 0cbd 2759 f3bd
000001f0: cf54 cabd 3be2 2bbe efe3 59be d9c2 1abe
00000200: 13fa 15be 3b60 1fbe 81cc 53be 38d0 88be
00000210: f5f2 8dbe e40e 77be c2df 80be 8cc2 20be
00000220: e4e7 27be b0c8 5ebe 609b fdbd 6b3e 41be
00000230: f897 47be 6b21 7dbe 3ea0 9fbe e154 81be
00000240: 0972 24be a01d 19be edde 8cbd 5c8a 28be
00000250: f1e6 57be 869e 11be 5518 9a3d e19d ad3c
00000260: e516 c83c 72be 413d 992e b03d 75ca 223e
00000270: 5e61 8fbd 34da 0dbd 6c67 bbbd 8408 04be
00000280: 053e 9abd 654c 58bd 203b 20be d126 fbbc
00000290: 9ca9 1ebc ba96 50bd b7db 13bd 2d32 c4bd
000002a0: baf8 11be a214 02be 5e7b 90be 8ca0 23be
000002b0: 785a 52be 7e64 65be 9d3f 1abe d698 183e
000002c0: fdc0 213e 9b85 0ebe 0ad5 4dbd 95ed 57be
000002d0: 4b13 6c3e f32e d63c 4166 d83d 3572 24bd
000002e0: a837 03be f062 973e 4792 963e cb89 3d3e
000002f0: b4cb 113e 35f9 fb3d 90d7 ab3e c7f8 393e
00000300: dfa8 673e 2563 263e 5db4 233e 9ffb 3abc
00000310: 259d c23d 844a 113e 7993 bf3d d3a3 d93d
00000320: 451b a63b 2e2c ffbd 13c5 65bb 5371 003c
00000330: ab8e a93c 3eac 8ebd e189 57bd c85b c53d
00000340: 931d 16bc 4166 0ebe fdaa 24bd c0c6 07be
00000350: 855f f4bd bff4 9fbc 2455 53bc 2b3b 90be
00000360: 29ab 41be b45d c3bd d258 a3bd 29d0 bbbd
00000370: f58b a7be 4af6 56be ebea 65be 46ec 98bb
00000380: bc74 26be 1642 d33a 54b9 ad3d 908b dabd
00000390: 7084 b3bd 7af3 24be 6c5d 073e 307b 773d
000003a0: 08de e03c 4f2e 573c e13b 80be cb19 cd3e
000003b0: b691 6a3e 6631 d8bc dd99 433d 691b 1cbe
000003c0: a569 803e 41b7 803e 2848 373e 6ce5 38bd
000003d0: 232b 0fbe 48de 1a3e 15ed e53d 0528 a8bd
000003e0: 5997 3abd 0b2e c4bc 204d 973d 7ac0 29be
000003f0: abde f3bd decd 77be 7f39 f2bd 6da4 903d

features.7.weight f4 [120, 400]
0.015678344 -0.03569123 0.0066840225 0.016225347 0.037642073 0.010512142 -0.002451083 0.035944574
0.042290617 0.015253205 0.021590466 0.020106884 -0.009083535 0.004024463 0.018864825 -0.010821503
-0.0054124384 -0.023531137 -0.009593889 -0.0007885867 -0.005980681 -0.0021123402 -0.038993854 -0.024920834
-0.00040872997 -0.012795998 0.00026601442 -0.0095468145 -0.021957165 -0.041286033 -0.0010810794 0.00096409104
0.019549226 -0.0363433 -0.055591382 0.01764671 -0.0010442703 0.014525821 0.008110492 -0.039710794
-0.008658503 0.00021648809 0.0104287565 0.038217675 0.017239356 -0.00995133 -0.011709164 0.031478833
0.05923127 0.02909812 0.0010528931 0.059769783 0.032053463 -0.002052837 0.012313107 -0.0049261576
0.017670443 0.018067755 0.025286237 -0.010652432 0.0059229936 0.011304205 0.021435473 0.014902772
-0.0015607487 -0.013396513 0.018580656 0.029626336 0.021469679 0.011929834 -0.010975197 0.011033501
0.028780812 0.03330387 0.045328066 0.021453094 -0.0015385782 0.010322059 0.031320408 0.006022327
0.035319593 0.03243153 0.01907029 0.042379916 0.05036135 0.023315065 0.056670118 0.035203543
0.016406221 0.03355448 0.0057164 0.027439648 0.044297565 -0.008287781 0.01085294 0.014722984
0.00505944 0.036682613 0.0008055799 0.002636999 -0.056788914 -0.025247788 -0.0041112783 -0.00530791
0.030264808 -0.027685763 -0.046432406 -0.03702518 0.004059793 0.016914953 0.044044413 0.015376995
0.016499288 0.0240776 0.02916156 0.05892719 0.079649 0.02346416 0.03293516 0.006403923
0.10573328 0.07064606 0.03838225 0.04465142 0.0011911022 0.023713958 0.00761512 0.027950661
0.007947698 0.047362804 0.017113738 0.025222769 -0.00021648454 -0.0032457754 0.016728062 0.04577136
0.018854694 0.018411838 0.006296276 0.01601213 0.03007421 0.020155985 0.011985394 0.007908697
0.012469939 0.039669137 -0.0040867086 0.023432707 0.013240531 -0.02359354 -0.0001466095 -0.036109954
-0.047812004 -0.029700475 -0.019558461 -0.014478182 0.0135455765 -0.025039531 -0.029236056 -0.054240454
-0.015304338 -0.015801225 -0.017156875 -0.043066204 -0.034785308 -0.025745727 -0.043193802 -0.0059529226
-0.022874609 -0.018179141 0.0025734114 0.0018144089 -0.02517686 -0.025956659 -0.01447646 -0.004381539
0.0057371994 0.04174491 0.015859896 0.020974044 -0.0071044876 0.014479243 0.043236796 -0.001701183
0.008077789 0.014103327 0.034708727 0.017393932 0.00895135 0.012794138 0.031645406 0.04085043
0.0046754 -0.01862553 0.009470727 0.011987016 0.012872966 0.003345028 -0.009448411 -0.0034213166
-0.044734504 -0.071515486 -0.032131594 0.00068917393 -0.009241269 -0.04950433 -0.049199015 -0.05248174
0.0048505585 0.027001536 -0.04933503 -0.015310071 -0.027825203 0.00041792568 0.02149762 -0.051009417
-0.061658677 -0.07083901 -0.0001856484 -0.01437939 -0.06019086 -0.09993685 -0.10451417 -0.00428467
-0.03384626 0.09414707 0.09594244 0.033199113 0.0053114193 0.04011152 0.052541185 0.032220814
0.01869836 -0.014332592 -0.004752042 0.024314445 -0.0035490515 -0.019254545 0.0034617854 0.009596658
-0.0229065 -0.018708237 -0.012703474 -0.008086197 0.009384873 0.025014956 -0.004118162 -0.012037703
0.004009804 0.016030785 -0.015649669 -0.003310982 -0.018757267 -0.030089004 -0.012682362 -0.028629826
00000000: df6f 803c f830 12bd a505 db3b 05eb 843c
00000010: 932e 1a3d 1f3b 2c3c 59a2 20bb 9e3a 133d
00000020: ed38 2d3d 94e8 793c 7dde b03c 31b7 a43c
00000030: 1bd3 14bc a4df 833b 688a 9a3c ac4c 31bc
00000040: d35a b1bb 5fc4 c0bc b02f 1dbc 28b9 4eba
00000050: 97f9 c3bb 306f 0abb 05b8 1fbd c726 ccbc
00000060: cf4a d6b9 4ea6 51bc da77 8b39 3e6a 1cbc
00000070: 83df b3bc 8b1b 29bd 01b3 8dba 0ebb 7c3a
00000080: b325 a03c b6dc 14bd cab3 63bd d58f 903c
00000090: e6df 88ba b6fd 6d3c dee1 043c c9a7 22bd
000000a0: 65dc 0dbc 1401 6339 60dd 2a3c 238a 1c3d
000000b0: 8d39 8d3c e70a 23bc cbd7 3fbc f3ef 003d
000000c0: 7d9c 723d 2e5f ee3c 3b01 8a3a 29d1 743d
000000d0: 7e4a 033d e488 06bb eabc 493c 9b6b a1bb
000000e0: 9bc1 903c d402 943c 1525 cf3c 8a87 2ebc
000000f0: ac15 c23b 4635 393c 7299 af3c c22a 743c
00000100: 0992 ccba 0c7d 5bbc 7636 983c eeb2 f23c
00000110: 2ee1 af3c 5a75 433c 50d1 33bc dbc5 343c
00000120: bdc5 eb3c a469 083d eca9 393d 66be af3c
00000130: 1eaa c9ba da1d 293c d449 003d f156 c53b
00000140: 47ab 103d edd6 043d 4c39 9c3c 9096 2d3d
00000150: b447 4e3d 3cff be3c ed1e 683d 9731 103d
00000160: 5766 863c 6c70 093d a450 bb3b 1dc9 e03c
00000170: 5d71 353d 79c9 07bc 88d0 313c ac38 713c
00000180: a9c9 a53b 8240 163d 8d2d 533a 80d1 2c3b
00000190: 7e9b 68bd 73d4 cebc e7b7 86bb faed adbb
000001a0: e7ed f73c 41cd e2bc e82f 3ebd b7a7 17bd
000001b0: 0308 853b 3a91 8a3c ea67 343d cbef 7b3c
000001c0: 8429 873c 633e c53c 39e4 ee3c a35d 713d
000001d0: 041f a33d e937 c03c 05e7 063d 00d8 d13b
000001e0: b18a d83d e2ae 903d b536 1d3d 68e4 363d
000001f0: c21e 9c3a c643 c23c 4288 f93b c9f8 e43c
00000200: 1037 023c 80ff 413d 1c32 8c3c fb9f ce3c
00000210: 2000 63b9 13b7 54bb 4a09 893c c07a 3b3d
00000220: 2975 9a3c 6cd4 963c fe50 ce3b df2b 833c
00000230: 315e f63c 2a1e a53c 635e 443c 7b93 013c
00000240: b74e 4c3c 1b7c 223d cce9 85bb f3f5 bf3c
00000250: d0ee 583c 3d47 c1bc 30bb 19b9 08e8 13bd
00000260: 85d6 43bd 694e f3bc 1139 a0bc e635 6dbc
00000270: 44ee 5d3c b41f cdbc 7480 efbc 3d2b 5ebd
00000280: 0cbf 7abc 9271 81bc 938c 8cbc 3066 30bd
00000290: 0a7b 0ebd b4e8 d2bc fceb 30bd bc10 c3bb
000002a0: 8863 bbbc 6cec 94bc aea6 283b 76d1 ed3a
000002b0: b43f cebc 0fa3 d4bc ad2e 6dbc 0393 8fbb
000002c0: 1eff bb3b b6fc 2a3d 9dec 813c c2d1 ab3c
000002d0: c3cc e8bb 593a 6d3c 1119 313d 3bfa deba
000002e0: b458 043c a411 673c bd2a 0e3d b87d 8e3c
000002f0: afa8 123c 819e 513c 9d9e 013d c852 273d
00000300: 1934 993b 9194 98bc 1c2b 1b3c 3065 443c
00000310: 22e9 523c 4238 5b3b 82cd 1abc 2b38 60bb
00000320: 873b 37bd b676 92bd 6b9c 03bd aea9 343a
00000330: b168 17bc 0dc5 4abd e884 49bd 18f7 56bd
00000340: 6ff1 9e3b 5332 dd3c 8713 4abd 18d7 7abc
00000350: aef1 e3bc 091d db39 c71b b03c 40ef 50bd
00000360: cf8d 7cbd 0b14 91bd 9daa 42b9 8897 6bbc
00000370: b18a 76bd b1ab ccbd 860b d6bd 6b66 8cbb
00000380: 60a2 0abd 2ed0 c03d 787d c43d cbfb 073d
00000390: 6a0b ae3b fa4b 243d 6d35 573d f9f9 033d
000003a0: 4e2d 993c 3fd3 6abc 04b7 9bbb 162f c73c
000003b0: 3497 68bb b5bb 9dbc 1fdf 623b 4d3b 1d3c
000003c0: 6aa6 bbbc 0442 99bc 3b22 50bc f87b 04bc
000003d0: 03c3 193c 2aec cc3c a6f1 86bb c939 45bc
000003e0: ad64 833b fe52 833c bc33 80bc 0ffd 58bb
000003f0: d7a8 99bc 377d f6bc afc9 4fbc 1989 eabc

features.7.bias f4 [120]
-0.026779514 -0.04213224 0.09017688 0.009221337 0.0055664172 0.0073926086 0.016353605 0.06248935
0.087682135 0.006171972 0.024382915 0.026674248 -0.021880819 0.09546901 0.005788283 -0.10607827
0.006531685 -0.00521596 -0.029868165 0.04885954 0.0927977 0.055039145 0.081695154 0.000811771
0.045672722 0.064664625 -0.0021594663 -0.04072399 0.079813525 0.028701086 -0.022031242 0.035655964
-0.019122148 0.06324894 -0.032089673 0.041057937 -0.053843405 -0.0007191888 -0.0006347494 0.0077460506
0.03936549 0.11482645 -0.05652352 0.026790218 0.007409434 0.0059207873 -0.0039899936 -0.03867463
-0.054506525 0.028474003 -0.007732722 0.017642075 -0.060555115 -0.018386196 0.013513415 -0.08026916
0.057852965 -0.014783269 -0.027004728 -0.00673315 0.0016886492 -3.0857293e-05 0.0071973735 0.065126605
-0.0064712325 -0.0108686825 -0.18119127 -0.002316754 0.105889164 0.05041228 -0.07065408 0.04487935
0.031135717 0.0617368 0.043618016 -0.08599636 0.053964872 0.0054255 0.08345643 -0.11039958
0.04012416 0.12284928 -0.06900516 0.04841253 0.028692422 -0.018516365 0.048413448 0.033402283
0.02273946 0.093229875 -0.061002124 0.05202237 0.09759148 0.0068475693 0.01394867 0.017610183
0.007362788 -0.04724178 0.060803607 0.18346468 0.003961653 0.009384191 0.020867024 -0.10298071
0.025417455 0.16124688 0.07247805 0.03308994 -0.06176193 0.05181201 -0.02077177 0.02523923
-0.00074573036 0.0578389 0.00088636234 -0.07033408 -0.07185813 -0.025697527 0.1317422 -0.009737468
00000000: b660 dbbc db92 2cbd a8ae b83d 1715 173c
00000010: 7e66 b63b b23d f23b fff7 853c d5f4 7f3d
00000020: b192 b33d 413e ca3b aebe c73c f483 da3c
00000030: 673f b3bc 4285 c33d a3ab bd3b 903f d9bd
00000040: bf07 d63b a5ea aabb 15ae f4bc f120 483d
00000050: b80c be3d ba70 613d ca4f a73d 08cd 543a
00000060: 5213 3b3d e36e 843d d585 0dbb 33ce 26bd
00000070: 4675 a33d 8a1e eb3c dd7a b4bc fd0b 123d
00000080: 0da6 9cbc a988 813d 7670 03bd 5e2c 283d
00000090: e78a 5cbd f287 3cba 5065 26ba 95d2 fd3b
000000a0: b53d 213d 212a eb3d 3585 67bd 2977 db3c
000000b0: d6ca f23b 2a03 c23b 7ebe 82bb 4a69 1ebd
000000c0: 3c42 5fbd 5042 e93c c662 fdbb 1d86 903c
000000d0: a408 78bd a69e 96bc 5f67 5d3c 2864 a4bd
000000e0: 3bf7 6c3d 8635 72bc 0539 ddbc c2a1 dcbb
000000f0: aa55 dd3a c46c 01b8 f2d7 eb3b 1961 853d
00000100: a20c d4bb 8f12 32bc 348a 39be afd4 17bb
00000110: 6bdc d83d 1b7d 4e3d 16b3 90bd 69d3 373d
00000120: 5510 ff3c badf 7c3d cea8 323d dc1e b0bd
00000130: 450a 5d3d 65c8 b13b 34eb aa3d 2d19 e2bd
00000140: 3b59 243d 6798 fb3d 9452 8dbd 384c 463d
00000150: 5f0c eb3c a2af 97bc 2e4d 463d d5d0 083d
00000160: 1b48 ba3c 4eef be3d 5ddd 79bd 6915 553d
00000170: 0bde c73d 9361 e03b f688 643c 3b43 903c
00000180: 8b43 f13b 9980 41bd 340d 793d 2ade 3b3e
00000190: c1d0 813b 26c0 193c 52f1 aa3c 8de7 d2bd
000001a0: 4438 d03c e71d 253e 5f6f 943d 5189 073d
000001b0: 14fa 7cbd d538 543d 8f29 aabc 80c2 ce3c
000001c0: 1e7d 43ba 7be8 6c3d c55a 683a 500b 90bd
000001d0: 5b2a 93bd 9f83 d2bc 6de7 063e e789 1fbc

features.9.weight f4 [84, 120]
-0.017384969 -0.012556904 0.011804217 -0.021683663 -0.033488754 0.018671213 -0.007596402 -0.03207706
0.07129124 0.03128515 -0.008077049 -0.022470161 0.0036579578 -0.0015577385 -9.878211e-05 0.032020994
-0.0046702833 -0.02003652 0.012593704 -0.009471877 -0.0024373473 0.014263748 0.0021804867 -0.01277815
0.015301975 -0.03556405 0.013956807 -0.00080385356 0.0046085883 -0.0013808889 -0.00700656 0.06649373
0.0015737369 0.031496134 0.017699031 0.0049822964 -0.0015157281 0.010129936 -0.0013037568 -0.03310198
-0.012170465 0.018708548 -0.043409195 0.023599902 0.014382069 0.025760764 0.025395803 0.04259346
-0.052086167 0.0003795179 -0.014690122 -0.002803699 0.010542574 -0.013923779 0.030775111 0.020111863
0.0054204296 -0.0025758026 0.016490376 0.01559125 0.009242907 -0.04849777 -0.011354759 0.023514405
0.002339125 -0.0020717646 -0.01874062 -0.008690584 -0.005297485 0.013689411 -0.050172657 -0.012870606
-0.0021644947 -0.008430056 0.00260086 -0.070298575 0.046035256 -0.0029120625 -0.041153107 -0.00935568
-0.05058979 -0.0074962797 -0.06000428 0.057791423 0.026822383 0.0055541396 -0.024517253 0.0071004583
0.00038871745 -0.008459604 -0.009968741 -0.0045870976 -0.0048051975 0.029006332 0.04313165 0.0043348745
0.015116885 0.031257093 0.09058824 -0.023360636 -0.0043142885 -0.032171044 -0.02535022 0.004998972
0.0030024243 -0.0015407759 -0.0019396347 -0.011761411 -0.046336457 0.049477074 -0.0271202 0.0007738737
-0.005255733 0.03717191 0.0019123956 -0.03428232 -0.033746436 -0.00022052684 0.028022503 0.011420267
-0.0032980405 -0.02308157 -0.023596244 -0.03460552 0.016058136 -0.0071979556 0.004262666 0.036466073
0.00586006 0.011347985 0.0005017408 -0.0015958976 0.0013406383 0.007127132 -0.008297025 8.471355e-05
0.004620208 0.104248814 0.028952962 0.037003655 0.0064965948 -0.0014962701 -0.016068002 0.017849335
0.004256161 0.007193995 0.00094599504 -0.012551637 0.019474797 -0.00020141582 0.0039550895 0.035864145
0.0056154756 0.019886915 0.004902109 -0.0033226153 0.008860183 -0.0009258416 -0.011667126 -0.036833905
0.006442994 -0.013310132 -0.02488804 0.036342822 0.0046512326 0.015765885 -0.04516555 -0.030041985
-0.03166213 0.02971296 0.003200103 -0.014551747 0.013323017 -0.036478627 0.0018866553 -0.014840267
-0.009301811 0.0064585963 0.03281898 0.0047685253 -0.0058703898 -0.069234446 0.03438756 0.011531934
-0.0045218356 -0.003800888 0.0028859137 -0.019645894 0.03240449 0.02165213 -0.034327865 0.0056409664
-0.0058924085 0.014049737 0.000117650896 -0.047160655 0.078883976 0.027453981 -0.04240327 -0.0071155503
-0.016898641 0.022154368 -0.04439546 0.03190835 0.0043074978 -0.054257743 0.016209602 0.045453638
0.030799257 0.021151057 -0.06715752 0.036057252 -0.020958645 0.01621277 -0.0019671908 0.030576095
-0.011392948 -0.0078020743 0.0458532 0.016001603 0.008010569 0.01994239 0.011983723 -0.023903405
-0.019600231 0.048241314 -0.017377373 0.018465977 0.01796741 -0.03682701 -0.013366721 0.019323712
0.008489825 0.007974733 -0.0115659945 0.007762428 -0.015402522 0.0041034124 0.07331346 0.0018215621
-0.0049540624 -0.0015561099 -0.016857468 -0.0046474873 0.0011081329 -0.006922785 0.012512659 0.006579155
-0.01919901 -0.034227043 0.005577409 -0.0010860952 -0.038178604 0.016723797 0.006236971 -0.004428667
00000000: ec6a 8ebc 79bb 4dbc 7966 413c f0a1 b1bc
00000010: 812b 09bd 5ff4 983c 3deb f8bb 3c63 03bd
00000020: 2401 923d dc24 003d 9955 04bc 5813 b8bc
00000030: 59ba 6f3b 082d ccba 3e29 cfb8 7228 033d
00000040: 2d09 99bb a123 a4bc d355 4e3c ee2f 1bbc
00000050: e7bb 1fbb 7fb2 693c 7fe6 0e3b 725b 51bc
00000060: 23b5 7a3c 9cab 11bd 17ab 643c b3b9 52ba
00000070: a403 973b f1fe b4ba 4997 e5bb dd2d 883d
00000080: d945 ce3a 1702 013d 8ffd 903c 8842 a33b
00000090: 65ab c6ba 08f8 253c d2e2 aaba f195 07bd
000000a0: a166 47bc ab42 993c d7cd 31bd 9554 c13c
000000b0: c5a2 6b3c 3d08 d33c dc0a d03c 7b76 2e3d
000000c0: 4e58 55bd 08fa c639 d6ae 70bc 44be 37bb
000000d0: c3ba 2c3c 9020 64bc 161c fc3c a2c1 a43c
000000e0: dc9d b13b ccce 28bb d316 873c 7172 7f3c
000000f0: 906f 173c 99a5 46bd 5009 3abc 48a1 c03c
00000100: 014c 193b 71c6 07bb ee85 99bc f462 0ebc
00000110: 8696 adbb 8d49 603c d881 4dbd 3cdf 52bc
00000120: 32da 0dbb 381e 0abc 3173 2a3b b3f8 8fbd
00000130: 778f 3c3d 4dd8 3ebb 2990 28bd 9148 19bc
00000140: 3d37 4fbd 5aa3 f5bb 0cc7 75bd b3b6 6c3d
00000150: 9dba db3c 80ff b53b 68d8 c8bc f6aa e83b
00000160: c6cc cb39 279a 0abc ee53 23bc 5d4f 96bb
00000170: eb74 9dbb b09e ed3c d0aa 303d 900b 8e3b
00000180: d0ac 773c 7007 003d 5486 b93d ce5e bfbc
00000190: e05e 8dbb c9c5 03bd 44ab cfbc 6bce a33b
000001a0: 52c4 443b dcf3 c9ba 573b feba efb2 40bc
000001b0: 4ccb 3dbd 79a8 4a3d 2f2b debc c9dd 4a3a
000001c0: 4938 acbb 9341 183d 59a9 fa3a 9e6b 0cbd
000001d0: b439 0abd 393d 67b9 738f e53c 121c 3b3c
000001e0: f023 58bb 9015 bdbc e94c c1bc 85be 0dbd
000001f0: 5a8c 833c d4dc ebbb d6ad 8b3b 735d 153d
00000200: bf05 c03b e6ec 393c 4187 033a 702d d1ba
00000210: 5bb8 af3a b78a e93b 3ff0 07bc 3ea8 b138
00000220: 1d65 973b 6780 d53d c32e ed3c 2591 173d
00000230: 63e1 d43b 7e1e c4ba 0ba1 83bc c538 923c
00000240: 4477 8b3b 9bbb eb3b a7fc 773a 62a5 4dbc
00000250: 9c89 9f3c 2633 53b9 b299 813b 48e6 123d
00000260: 0602 b83b e2e9 a23c dfa1 a03b 3cc0 59bb
00000270: 4d2a 113c 2eb4 72ba 7927 3fbc 26df 16bd
00000280: c01f d33b bd12 5abc 01e2 cbbc 36dc 143d
00000290: 5e69 983b 7527 813c 83ff 38bd 9c1a f6bc
000002a0: 26b0 01bd 9868 f33c d2b8 513b 736a 6ebc
000002b0: c948 5a3c 9d6a 15bd a649 f73a 9724 73bc
000002c0: a066 18bc a2a2 d33b 326d 063d 4a41 9c3b
000002d0: 665c c0bb caca 8dbd f8d9 0c3d 70f0 3c3c
000002e0: e82b 94bb 5218 79bb 9921 3d3b 6df0 a0bc
000002f0: 92ba 043d cf5f b13c 609b 0cbd dbd7 b83b
00000300: 1b15 c1bb de30 663c 58bb f638 882b 41bd
00000310: ec8d a13d 2ce7 e03c 0daf 2dbd 9029 e9bb
00000320: 056f 8abc 147d b53c 04d8 35bd 54b2 023d
00000330: e925 8d3b 5e3d 5ebd 00ca 843c 982d 3a3d
00000340: b94e fc3c fb44 ad3c e289 89bd c5b0 133d
00000350: 77b1 abbc a5d0 843c fceb 00bb b87a fa3c
00000360: 7da9 3abc 8ba8 ffbb 91d0 3b3d cb15 833c
00000370: c33e 033c 395e a33c 6157 443c 13d1 c3bc
00000380: aa90 a0bc af98 453d fe5a 8ebc f645 973c
00000390: 6430 933c ebd7 16bd 1700 5bbc c34c 9e3c
000003a0: e818 0b3c 74a8 023c 4c7f 3dbc f75b fe3b
000003b0: dc5a 7cbc eb75 863b 5e25 963d 7bc1 ee3a
000003c0: b055 a2bb 62f6 cbba ac18 8abc f349 98bb
000003d0: c53e 913a 88d8 e2bb e501 4d3c f495 d73b
000003e0: 3e47 9dbc a831 0cbd b3c2 b63b 4f5b 8eba
000003f0: 2b61 1cbd 5800 893c 815f cc3b 5a1e 91bb

features.9.bias f4 [84]
0.03941561 0.2063492 0.08566708 -0.0037513834 -0.00019023204 0.19917686 0.002711819 -0.039556485
-0.002498896 0.057906985 -0.057958864 -0.03293077 0.005737279 -0.07882763 -0.0012921209 0.0046163304
0.104211085 0.12954578 0.18924265 -0.01761823 0.11130175 0.0010921998 0.18823537 0.066290796
0.11037526 0.23754525 0.0016057827 0.15113838 -0.0002085103 0.1510715 -0.008245425 0.043168467
0.31768796 0.040550705 0.17171565 0.011267196 0.01828566 0.009377069 0.017246664 0.025979353
0.33312634 -0.0035704882 0.12454821 -0.034678787 -0.012257337 0.48187634 -0.0025645841 -0.014656869
0.058094587 0.25326905 0.025923021 0.18649554 -0.00377983 0.290826 0.022737266 0.007947428
0.023042653 0.30141118 0.09248321 0.19642685 -0.070516184 0.026176479 -0.048681572 0.0017073752
-0.012788822 0.2979303 0.002358826 0.47135988 0.24653934 0.0757108 0.04062348 0.04054861
0.3014185 -0.0064842007 0.046583664 -0.0058036917 -0.066985995 0.0017469054 -0.023061909 0.014242516
0.16207404 0.00076813594 0.060167175 0.016216362
00000000: 4372 213d 344d 533e 3972 af3d c5d9 75bb
00000010: 0679 47b9 05f5 4b3e c6b8 313b fb05 22bd
00000020: 85c4 23bb e02f 6d3d 4666 6dbd 6ae2 06bd
00000030: c9ff bb3b 6170 a1bd 625c a9ba 9644 973b
00000040: 9f6c d53d a6a7 043e d3c8 413e 1b54 90bc
00000050: 2cf2 e33d 2528 8f3a c6c0 403e 78c3 873d
00000060: 6d0c e23d 103f 733e 2079 d23a 05c4 1a3e
00000070: 8fa3 5ab9 7db2 1a3e d217 07bc 6bd1 303d
00000080: ffa7 a23e 7f18 263d 3ad6 2f3e 0c9a 383c
00000090: cfcb 953c 47a2 193c e048 8d3c a7d2 d43c
000000a0: 898f aa3e dafe 69bb 2213 ff3d 580b 0ebd
000000b0: ffd2 48bc 7fb8 f63e 9512 28bb 5d23 70bc
000000c0: 97f4 6d3d 7bac 813e 845c d43c b0f8 3e3e
000000d0: 06b7 77bb 25e7 943e 8143 ba3c ee35 023c
000000e0: f2c3 bc3c 9152 9a3e d667 bd3d 1f24 493e
000000f0: ca6a 90bd 0e70 d63c 5466 47bd 01ca df3a
00000100: 3588 51bc 528a 983e 8996 1a3b 1556 f13e
00000110: cf74 7c3e 440e 9b3d ce64 263d 4d16 263d
00000120: 8753 9a3e 6b79 d4bb 83ce 3e3d e52c bebb
00000130: f42f 89bd 6bf8 e43a 54ec bcbc 7159 693c
00000140: bdf6 253e bb5c 493a db71 763d 2dd8 843c

classifiers.0.weight f4 [5, 84]
-0.05908246 0.14517784 0.11788709 0.004600024 0.015867708 -0.0104335565 -0.17753857 0.053832997
-0.019424617 0.07622672 -0.35406664 -0.2091461 -0.13492431 -0.18354742 -0.010606495 -0.051883873
0.07940911 0.122279756 -0.17271219 -0.04898134 0.0047795484 -0.10067239 -0.181843 -0.0397024
0.0024018835 0.31118554 -0.008574724 -0.050482266 0.005032779 0.22129804 0.033679117 -0.10034672
0.053046774 0.010524416 -0.006581525 -0.0018825153 -0.26914236 -0.19283958 0.018089231 0.02183796
0.027867157 0.012424976 -0.16051146 -0.22962499 -0.076141246 0.5417684 0.008445674 -0.004027167
0.08446853 0.0071393424 0.024744444 0.2430766 0.0018228618 0.17274499 -0.09675045 -0.0120167
-0.033014607 0.053332463 0.045138087 -0.0060887537 -0.1570139 -0.017483646 -0.26982376 0.010774373
-0.020463435 0.11874969 0.020970738 0.14077526 0.05589435 0.112108774 0.022757065 -0.09739478
0.031418476 -0.021558397 -0.10198347 0.004581975 -0.26538408 -0.42989114 -0.11146998 0.0014999977
-0.00436932 -0.1975103 0.03615227 -0.064501025 -0.09758084 -0.15979491 -0.02577774 0.011334829
-0.011702895 -0.263236 0.049893092 0.1974504 -0.020811964 -0.054198295 0.17495255 0.1535701
0.03604507 0.22844534 0.0260394 0.08105058 -0.047684588 -0.07429059 -0.038611434 0.09916722
0.01403445 -0.007660046 0.2592659 -0.0016547475 -0.10193465 -0.07328166 -0.00015758534 0.01485447
-0.00036596393 -0.030928472 0.053484775 0.033888213 0.0015650453 -0.0710688 0.084008195 -0.02770091
0.033761762 0.08210609 0.09116519 -0.052082043 0.036756646 0.14949724 0.13054872 0.19719888
-0.04779903 -0.00012550958 -0.017149232 0.0013294106 -0.015910927 -0.26433915 0.25608286 0.0021878004
0.028249126 -0.13683432 0.012957844 0.017988801 0.023316735 0.1066036 -0.13197474 -0.10848739
0.24769922 0.00025227413 0.15433411 -0.009357641 0.1796832 -0.29858515 -0.004491319 -0.2303006
-0.24617702 -0.029670607 -0.0413764 0.0677758 -0.3455906 0.21374941 0.02312005 0.006251163
0.09851798 0.16315028 0.17098017 0.14575824 0.0073442566 0.18834935 0.13665305 0.112112336
0.060757525 0.009332575 -0.011976213 -0.0029106403 -0.007544768 -0.015380329 0.07946535 -0.23445712
0.015868114 -0.17571099 -0.00075038814 -0.009337528 -0.23518296 -0.019702414 0.02302414 -0.11092044
0.03763134 -0.20648 0.27316403 -0.17720686 0.08822069 0.021865241 0.31595248 0.035891596
0.019144166 -0.15356568 0.013019896 0.072031066 -0.025383882 -0.17762747 -0.04763018 0.058647506
0.3038525 -0.03356374 0.14246857 -0.11367132 0.022067364 0.04310559 -0.044667076 -0.034551363
0.38997918 -0.059954967 0.17828047 -0.07969845 0.0024633012 -0.14604038 0.0032052796 -0.035596956
-0.083152324 0.0412864 -0.32355374 -0.1010708 0.004590606 0.19940072 -0.07111578 0.026579197
0.045461856 0.29553747 -0.019097313 0.08356621 -0.025382422 0.050440058 -0.11550467 0.012997688
0.03110271 0.03019557 -0.013932339 0.4549088 -0.12472081 -0.014698838 0.029680794 0.07037021
-0.19907753 0.045260977 0.094226666 0.00896019 -0.033380736 0.09530004 -0.0601053 -0.2618607
0.20785245 -0.057086267 -0.21630834 0.092022985 -0.0011576018 -0.13862972 0.07293458 0.0029824246
00000000: 7300 72bd 80a9 143e c96e f13d ccbb 963b
00000010: fffc 813c 82f1 2abc accc 35be fd7f 5c3d
00000020: 6020 9fbc c11c 9c3d 3948 b5be 652a 56be
00000030: 9929 0abe dbf3 3bbe ddc6 2dbc 2f84 54bd
00000040: 3ea1 a23d cf6d fa3d 77db 30be a8a0 48bd
00000050: c29d 9c3b 532d cebd 0d35 3abe fc9e 22bd
00000060: eb68 1d3b b653 9f3e 007d 0cbc 7ec6 4ebd
00000070: 03ea a43b f49b 623e 1df3 093d 9582 cdbd
00000080: 9347 593d 9a6e 2c3c d5a9 d7bb bbbe f6ba
00000090: 07cd 89be bd77 45be de2f 943c 86e5 b23c
000000a0: aa49 e43c 2092 4b3c 1e5d 24be d022 6bbe
000000b0: f1ef 9bbd 55b1 0a3f b95f 0a3c 53f6 83bb
000000c0: d6fd ac3d 25f1 e93b dcb4 ca3c 12e9 783e
000000d0: 18ed ee3a 10e4 303e 1a25 c6bd b1e1 44bc
000000e0: 533a 07bd 2473 5a3d b7e2 383d 2b84 c7bb
000000f0: 40c8 20be dd39 8fbc 5726 8abe ff86 303c
00000100: efa2 a7bc 0a33 f33d d3ca ab3c 6427 103e
00000110: 79f1 643d 4999 e53d 066d ba3c ea76 c7bd
00000120: a9b0 003d 3c9b b0bc b6dc d0bd 6424 963b
00000130: 6ce0 87be b11a dcbe 5f4a e4bd 929b c43a
00000140: 832c 8fbb 2440 4abe 6714 143d 1d19 84bd
00000150: 77d8 c7bd 47a1 23be d72b d3bc b8b5 393c
00000160: 80bd 3fbc dec6 86be b35c 4c3d 7030 4a3e
00000170: da7d aabc 08ff 5dbd c326 333e 7b41 1d3e
00000180: ffa3 133d 93ed 693e 9450 d53c d9fd a53d
00000190: ea50 43bd aa25 98bd 0627 1ebd 2f18 cb3d
000001a0: c0f0 653c 2001 fbbb 80be 843e 1de4 d8ba
000001b0: 1dc3 d0bd b214 96bd 7e3d 25b9 2a60 733c
000001c0: d9de bfb9 b55d fdbc da12 5b3d 5ece 0a3d
000001d0: 3522 cd3a 858c 91bd 7d0c ac3d 05ed e2bc
000001e0: c649 0a3d 3d27 a83d d1b4 ba3d fb53 55bd
000001f0: 238e 163d ce15 193e 90ae 053e 81ee 493e
00000200: eac8 43bd 399b 03b9 8c7c 8cbc 9e3f ae3a
00000210: a257 82bc 7657 87be 4b1d 833e 3361 0f3b
00000220: b66a e73c 4c1e 0cbe 234d 543c 405d 933c
00000230: bd02 bf3c fd52 da3d 6324 07be a32e debd
00000240: dda4 7d3e a943 8439 c309 1e3e cb50 19bc
00000250: dffe 373e 27e0 98be ea2b 93bb ecd3 6bbe
00000260: d415 7cbe c60f f3bc 4d7a 29bd 0ace 8a3d
00000270: 40f1 b0be 20e1 5a3e 4266 bd3c 8ed6 cc3b
00000280: cbc3 c93d de10 273e 6d15 2f3e a641 153e
00000290: 17a8 f03b a7de 403e c7ee 0b3e 279b e53d
000002a0: e2dc 783d a8e7 183c e137 44bc 71c0 3ebb
000002b0: 1a3a f7bb c7fd 7bbc bbbe a23d 8715 70be
000002c0: d9fd 813c 95ed 33be b2b5 44ba 6efc 18bc
000002d0: cdd3 70be f566 a1bc 1f9d bc3c 412a e3bd
000002e0: 5223 1a3d 7e6f 53be 28dc 8b3e b775 35be
000002f0: 0dad b43d bc1e b33c 86c4 a13e 1103 133d
00000300: 3ad4 9c3c 5240 1dbe 6751 553c 0685 933d
00000310: dcf1 cfbc fae3 35be dd17 43bd 5e38 703d
00000320: 8e92 9b3e 227a 09bd 48e3 113e 82cc e8bd
00000330: 9ec6 b43c 7d8f 303d d3f4 36bd bb85 0dbd
00000340: 5aab c73e 5793 75bd 288f 363e f138 a3bd
00000350: 566f 213b 9c8b 15be ab0f 523b 1dce 11bd
00000360: c44b aabd ee1b 293d d6a8 a5be 35fe cebd
00000370: cb6c 963b b42f 4c3e 26a5 91bd 9ebc d93c
00000380: 3636 3a3d b050 973e f871 9cbc c324 ab3d
00000390: ccee cfbc 3c9a 4e3d b68d ecbd 41f4 543c
000003a0: 1ccb fe3c b35c f73c 7744 64bc cee9 e83e
000003b0: a06d ffbd 65d3 70bc 2325 f33c 421e 903d
000003c0: fbda 4bbe 9363 393d e9f9 c03d c3cd 123c
000003d0: 3dba 08bd ab2c c33d fa30 76bd 9b12 86be
000003e0: 46d7 543e 4ad3 69bd ef7f 5dbe 8c76 bc3d
000003f0: acba 97ba f3f4 0dbe ba5e 953d c874 433b

classifiers.0.bias f4 [5]
0.8226982 -0.67145646 0.40452117 -0.5435378 -0.012226677
00000000: 599c 523f 92e4 2bbf 661d cf3e 4b25 0bbf
00000010: 6652 48bc

classifier.weight f4 [5, 84]
-0.05908246 0.14517784 0.11788709 0.004600024 0.015867708 -0.0104335565 -0.17753857 0.053832997
-0.019424617 0.07622672 -0.35406664 -0.2091461 -0.13492431 -0.18354742 -0.010606495 -0.051883873
0.07940911 0.122279756 -0.17271219 -0.04898134 0.0047795484 -0.10067239 -0.181843 -0.0397024
0.0024018835 0.31118554 -0.008574724 -0.050482266 0.005032779 0.22129804 0.033679117 -0.10034672
0.053046774 0.010524416 -0.006581525 -0.0018825153 -0.26914236 -0.19283958 0.018089231 0.02183796
0.027867157 0.012424976 -0.16051146 -0.22962499 -0.076141246 0.5417684 0.008445674 -0.004027167
0.08446853 0.0071393424 0.024744444 0.2430766 0.0018228618 0.17274499 -0.09675045 -0.0120167
-0.033014607 0.053332463 0.045138087 -0.0060887537 -0.1570139 -0.017483646 -0.26982376 0.010774373
-0.020463435 0.11874969 0.020970738 0.14077526 0.05589435 0.112108774 0.022757065 -0.09739478
0.031418476 -0.021558397 -0.10198347 0.004581975 -0.26538408 -0.42989114 -0.11146998 0.0014999977
-0.00436932 -0.1975103 0.03615227 -0.064501025 -0.09758084 -0.15979491 -0.02577774 0.011334829
-0.011702895 -0.263236 0.049893092 0.1974504 -0.020811964 -0.054198295 0.17495255 0.1535701
0.03604507 0.22844534 0.0260394 0.08105058 -0.047684588 -0.07429059 -0.038611434 0.09916722
0.01403445 -0.007660046 0.2592659 -0.0016547475 -0.10193465 -0.07328166 -0.00015758534 0.01485447
-0.00036596393 -0.030928472 0.053484775 0.033888213 0.0015650453 -0.0710688 0.084008195 -0.02770091
0.033761762 0.08210609 0.09116519 -0.052082043 0.036756646 0.14949724 0.13054872 0.19719888
-0.04779903 -0.00012550958 -0.017149232 0.0013294106 -0.015910927 -0.26433915 0.25608286 0.0021878004
0.028249126 -0.13683432 0.012957844 0.017988801 0.023316735 0.1066036 -0.13197474 -0.10848739
0.24769922 0.00025227413 0.15433411 -0.009357641 0.1796832 -0.29858515 -0.004491319 -0.2303006
-0.24617702 -0.029670607 -0.0413764 0.0677758 -0.3455906 0.21374941 0.02312005 0.006251163
0.09851798 0.16315028 0.17098017 0.14575824 0.0073442566 0.18834935 0.13665305 0.112112336
0.060757525 0.009332575 -0.011976213 -0.0029106403 -0.007544768 -0.015380329 0.07946535 -0.23445712
0.015868114 -0.17571099 -0.00075038814 -0.009337528 -0.23518296 -0.019702414 0.02302414 -0.11092044
0.03763134 -0.20648 0.27316403 -0.17720686 0.08822069 0.021865241 0.31595248 0.035891596
0.019144166 -0.15356568 0.013019896 0.072031066 -0.025383882 -0.17762747 -0.04763018 0.058647506
0.3038525 -0.03356374 0.14246857 -0.11367132 0.022067364 0.04310559 -0.044667076 -0.034551363
0.38997918 -0.059954967 0.17828047 -0.07969845 0.0024633012 -0.14604038 0.0032052796 -0.035596956
-0.083152324 0.0412864 -0.32355374 -0.1010708 0.004590606 0.19940072 -0.07111578 0.026579197
0.045461856 0.29553747 -0.019097313 0.08356621 -0.025382422 0.050440058 -0.11550467 0.012997688
0.03110271 0.03019557 -0.013932339 0.4549088 -0.12472081 -0.014698838 0.029680794 0.07037021
-0.19907753 0.045260977 0.094226666 0.00896019 -0.033380736 0.09530004 -0.0601053 -0.2618607
0.20785245 -0.057086267 -0.21630834 0.092022985 -0.0011576018 -0.13862972 0.07293458 0.0029824246
00000000: 7300 72bd 80a9 143e c96e f13d ccbb 963b
00000010: fffc 813c 82f1 2abc accc 35be fd7f 5c3d
00000020: 6020 9fbc c11c 9c3d 3948 b5be 652a 56be
00000030: 9929 0abe dbf3 3bbe ddc6 2dbc 2f84 54bd
00000040: 3ea1 a23d cf6d fa3d 77db 30be a8a0 48bd
00000050: c29d 9c3b 532d cebd 0d35 3abe fc9e 22bd
00000060: eb68 1d3b b653 9f3e 007d 0cbc 7ec6 4ebd
00000070: 03ea a43b f49b 623e 1df3 093d 9582 cdbd
00000080: 9347 593d 9a6e 2c3c d5a9 d7bb bbbe f6ba
00000090: 07cd 89be bd77 45be de2f 943c 86e5 b23c
000000a0: aa49 e43c 2092 4b3c 1e5d 24be d022 6bbe
000000b0: f1ef 9bbd 55b1 0a3f b95f 0a3c 53f6 83bb
000000c0: d6fd ac3d 25f1 e93b dcb4 ca3c 12e9 783e
000000d0: 18ed ee3a 10e4 303e 1a25 c6bd b1e1 44bc
000000e0: 533a 07bd 2473 5a3d b7e2 383d 2b84 c7bb
000000f0: 40c8 20be dd39 8fbc 5726 8abe ff86 303c
00000100: efa2 a7bc 0a33 f33d d3ca ab3c 6427 103e
00000110: 79f1 643d 4999 e53d 066d ba3c ea76 c7bd
00000120: a9b0 003d 3c9b b0bc b6dc d0bd 6424 963b
00000130: 6ce0 87be b11a dcbe 5f4a e4bd 929b c43a
00000140: 832c 8fbb 2440 4abe 6714 143d 1d19 84bd
00000150: 77d8 c7bd 47a1 23be d72b d3bc b8b5 393c
00000160: 80bd 3fbc dec6 86be b35c 4c3d 7030 4a3e
00000170: da7d aabc 08ff 5dbd c326 333e 7b41 1d3e
00000180: ffa3 133d 93ed 693e 9450 d53c d9fd a53d
00000190: ea50 43bd aa25 98bd 0627 1ebd 2f18 cb3d
000001a0: c0f0 653c 2001 fbbb 80be 843e 1de4 d8ba
000001b0: 1dc3 d0bd b214 96bd 7e3d 25b9 2a60 733c
000001c0: d9de bfb9 b55d fdbc da12 5b3d 5ece 0a3d
000001d0: 3522 cd3a 858c 91bd 7d0c ac3d 05ed e2bc
000001e0: c649 0a3d 3d27 a83d d1b4 ba3d fb53 55bd
000001f0: 238e 163d ce15 193e 90ae 053e 81ee 493e
00000200: eac8 43bd 399b 03b9 8c7c 8cbc 9e3f ae3a
00000210: a257 82bc 7657 87be 4b1d 833e 3361 0f3b
00000220: b66a e73c 4c1e 0cbe 234d 543c 405d 933c
00000230: bd02 bf3c fd52 da3d 6324 07be a32e debd
00000240: dda4 7d3e a943 8439 c309 1e3e cb50 19bc
00000250: dffe 373e 27e0 98be ea2b 93bb ecd3 6bbe
00000260: d415 7cbe c60f f3bc 4d7a 29bd 0ace 8a3d
00000270: 40f1 b0be 20e1 5a3e 4266 bd3c 8ed6 cc3b
00000280: cbc3 c93d de10 273e 6d15 2f3e a641 153e
00000290: 17a8 f03b a7de 403e c7ee 0b3e 279b e53d
000002a0: e2dc 783d a8e7 183c e137 44bc 71c0 3ebb
000002b0: 1a3a f7bb c7fd 7bbc bbbe a23d 8715 70be
000002c0: d9fd 813c 95ed 33be b2b5 44ba 6efc 18bc
000002d0: cdd3 70be f566 a1bc 1f9d bc3c 412a e3bd
000002e0: 5223 1a3d 7e6f 53be 28dc 8b3e b775 35be
000002f0: 0dad b43d bc1e b33c 86c4 a13e 1103 133d
00000300: 3ad4 9c3c 5240 1dbe 6751 553c 0685 933d
00000310: dcf1 cfbc fae3 35be dd17 43bd 5e38 703d
00000320: 8e92 9b3e 227a 09bd 48e3 113e 82cc e8bd
00000330: 9ec6 b43c 7d8f 303d d3f4 36bd bb85 0dbd
00000340: 5aab c73e 5793 75bd 288f 363e f138 a3bd
00000350: 566f 213b 9c8b 15be ab0f 523b 1dce 11bd
00000360: c44b aabd ee1b 293d d6a8 a5be 35fe cebd
00000370: cb6c 963b b42f 4c3e 26a5 91bd 9ebc d93c
00000380: 3636 3a3d b050 973e f871 9cbc c324 ab3d
00000390: ccee cfbc 3c9a 4e3d b68d ecbd 41f4 543c
000003a0: 1ccb fe3c b35c f73c 7744 64bc cee9 e83e
000003b0: a06d ffbd 65d3 70bc 2325 f33c 421e 903d
000003c0: fbda 4bbe 9363 393d e9f9 c03d c3cd 123c
000003d0: 3dba 08bd ab2c c33d fa30 76bd 9b12 86be
000003e0: 46d7 543e 4ad3 69bd ef7f 5dbe 8c76 bc3d
000003f0: acba 97ba f3f4 0dbe ba5e 953d c874 433b

classifier.bias f4 [5]
0.8226982 -0.67145646 0.40452117 -0.5435378 -0.012226677
00000000: 599c 523f 92e4 2bbf 661d cf3e 4b25 0bbf
00000010: 6652 48bc

features.7 f4 [120]
-0.026779514 -0.04213224 0.09017688 0.009221337 0.0055664172 0.0073926086 0.016353605 0.06248935
0.087682135 0.006171972 0.024382915 0.026674248 -0.021880819 0.09546901 0.005788283 -0.10607827
0.006531685 -0.00521596 -0.029868165 0.04885954 0.0927977 0.055039145 0.081695154 0.000811771
0.045672722 0.064664625 -0.0021594663 -0.04072399 0.079813525 0.028701086 -0.022031242 0.035655964
-0.019122148 0.06324894 -0.032089673 0.041057937 -0.053843405 -0.0007191888 -0.0006347494 0.0077460506
0.03936549 0.11482645 -0.05652352 0.026790218 0.007409434 0.0059207873 -0.0039899936 -0.03867463
-0.054506525 0.028474003 -0.007732722 0.017642075 -0.060555115 -0.018386196 0.013513415 -0.08026916
0.057852965 -0.014783269 -0.027004728 -0.00673315 0.0016886492 -3.0857293e-05 0.0071973735 0.065126605
-0.0064712325 -0.0108686825 -0.18119127 -0.002316754 0.105889164 0.05041228 -0.07065408 0.04487935
0.031135717 0.0617368 0.043618016 -0.08599636 0.053964872 0.0054255 0.08345643 -0.11039958
0.04012416 0.12284928 -0.06900516 0.04841253 0.028692422 -0.018516365 0.048413448 0.033402283
0.02273946 0.093229875 -0.061002124 0.05202237 0.09759148 0.0068475693 0.01394867 0.017610183
0.007362788 -0.04724178 0.060803607 0.18346468 0.003961653 0.009384191 0.020867024 -0.10298071
0.025417455 0.16124688 0.07247805 0.03308994 -0.06176193 0.05181201 -0.02077177 0.02523923
-0.00074573036 0.0578389 0.00088636234 -0.07033408 -0.07185813 -0.025697527 0.1317422 -0.009737468
00000000: b660 dbbc db92 2cbd a8ae b83d 1715 173c
00000010: 7e66 b63b b23d f23b fff7 853c d5f4 7f3d
00000020: b192 b33d 413e ca3b aebe c73c f483 da3c
00000030: 673f b3bc 4285 c33d a3ab bd3b 903f d9bd
00000040: bf07 d63b a5ea aabb 15ae f4bc f120 483d
00000050: b80c be3d ba70 613d ca4f a73d 08cd 543a
00000060: 5213 3b3d e36e 843d d585 0dbb 33ce 26bd
00000070: 4675 a33d 8a1e eb3c dd7a b4bc fd0b 123d
00000080: 0da6 9cbc a988 813d 7670 03bd 5e2c 283d
00000090: e78a 5cbd f287 3cba 5065 26ba 95d2 fd3b
000000a0: b53d 213d 212a eb3d 3585 67bd 2977 db3c
000000b0: d6ca f23b 2a03 c23b 7ebe 82bb 4a69 1ebd
000000c0: 3c42 5fbd 5042 e93c c662 fdbb 1d86 903c
000000d0: a408 78bd a69e 96bc 5f67 5d3c 2864 a4bd
000000e0: 3bf7 6c3d 8635 72bc 0539 ddbc c2a1 dcbb
000000f0: aa55 dd3a c46c 01b8 f2d7 eb3b 1961 853d
00000100: a20c d4bb 8f12 32bc 348a 39be afd4 17bb
00000110: 6bdc d83d 1b7d 4e3d 16b3 90bd 69d3 373d
00000120: 5510 ff3c badf 7c3d cea8 323d dc1e b0bd
00000130: 450a 5d3d 65c8 b13b 34eb aa3d 2d19 e2bd
00000140: 3b59 243d 6798 fb3d 9452 8dbd 384c 463d
00000150: 5f0c eb3c a2af 97bc 2e4d 463d d5d0 083d
00000160: 1b48 ba3c 4eef be3d 5ddd 79bd 6915 553d
00000170: 0bde c73d 9361 e03b f688 643c 3b43 903c
00000180: 8b43 f13b 9980 41bd 340d 793d 2ade 3b3e
00000190: c1d0 813b 26c0 193c 52f1 aa3c 8de7 d2bd
000001a0: 4438 d03c e71d 253e 5f6f 943d 5189 073d
000001b0: 14fa 7cbd d538 543d 8f29 aabc 80c2 ce3c
000001c0: 1e7d 43ba 7be8 6c3d c55a 683a 500b 90bd
000001d0: 5b2a 93bd 9f83 d2bc 6de7 063e e789 1fbc

features.9 f4 [84]
0.03941561 0.2063492 0.08566708 -0.0037513834 -0.00019023204 0.19917686 0.002711819 -0.039556485
-0.002498896 0.057906985 -0.057958864 -0.03293077 0.005737279 -0.07882763 -0.0012921209 0.0046163304
0.104211085 0.12954578 0.18924265 -0.01761823 0.11130175 0.0010921998 0.18823537 0.066290796
0.11037526 0.23754525 0.0016057827 0.15113838 -0.0002085103 0.1510715 -0.008245425 0.043168467
0.31768796 0.040550705 0.17171565 0.011267196 0.01828566 0.009377069 0.017246664 0.025979353
0.33312634 -0.0035704882 0.12454821 -0.034678787 -0.012257337 0.48187634 -0.0025645841 -0.014656869
0.058094587 0.25326905 0.025923021 0.18649554 -0.00377983 0.290826 0.022737266 0.007947428
0.023042653 0.30141118 0.09248321 0.19642685 -0.070516184 0.026176479 -0.048681572 0.0017073752
-0.012788822 0.2979303 0.002358826 0.47135988 0.24653934 0.0757108 0.04062348 0.04054861
0.3014185 -0.0064842007 0.046583664 -0.0058036917 -0.066985995 0.0017469054 -0.023061909 0.014242516
0.16207404 0.00076813594 0.060167175 0.016216362
00000000: 4372 213d 344d 533e 3972 af3d c5d9 75bb
00000010: 0679 47b9 05f5 4b3e c6b8 313b fb05 22bd
00000020: 85c4 23bb e02f 6d3d 4666 6dbd 6ae2 06bd
00000030: c9ff bb3b 6170 a1bd 625c a9ba 9644 973b
00000040: 9f6c d53d a6a7 043e d3c8 413e 1b54 90bc
00000050: 2cf2 e33d 2528 8f3a c6c0 403e 78c3 873d
00000060: 6d0c e23d 103f 733e 2079 d23a 05c4 1a3e
00000070: 8fa3 5ab9 7db2 1a3e d217 07bc 6bd1 303d
00000080: ffa7 a23e 7f18 263d 3ad6 2f3e 0c9a 383c
00000090: cfcb 953c 47a2 193c e048 8d3c a7d2 d43c
000000a0: 898f aa3e dafe 69bb 2213 ff3d 580b 0ebd
000000b0: ffd2 48bc 7fb8 f63e 9512 28bb 5d23 70bc
000000c0: 97f4 6d3d 7bac 813e 845c d43c b0f8 3e3e
000000d0: 06b7 77bb 25e7 943e 8143 ba3c ee35 023c
000000e0: f2c3 bc3c 9152 9a3e d667 bd3d 1f24 493e
000000f0: ca6a 90bd 0e70 d63c 5466 47bd 01ca df3a
00000100: 3588 51bc 528a 983e 8996 1a3b 1556 f13e
00000110: cf74 7c3e 440e 9b3d ce64 263d 4d16 263d
00000120: 8753 9a3e 6b79 d4bb 83ce 3e3d e52c bebb
00000130: f42f 89bd 6bf8 e43a 54ec bcbc 7159 693c
00000140: bdf6 253e bb5c 493a db71 763d 2dd8 843c
