checkpoints_lenet5/CPG_single_scratch_woexp/lenet5/food_containers/scratch/checkpoint-100.pth.tar (torch, 316543 bytes, 28 tensors)

features.0.weight f4 [6, 3, 5, 5]
00000000: 1c2f bf3d 6ebe 403e a848 65be f590 b3be
00000010: 8ec4 e2be 39dc 903e 8fa5 d4bd e6d7 d7bd
00000020: c1c9 80be 7368 d0bd 1cdd 493c 5cf9 9fbd
00000030: 1a80 da3c cf05 14be 3f8a 40bd 0079 cfbc
00000040: 6d48 3bbe 5249 05bd 6189 3bbc 3e5c 2c3e
00000050: 83d6 51bd a777 77bc 7a0d 523e 4afd 983e
00000060: 27fa 903e ace1 253e 0c8f d73d 6c47 8e3e
00000070: f7a7 c1bd 899b 593d ffad d93d fabd 1a3e
00000080: bcaf 5dbe 8236 a93d 2e0a 56bd 5fc4 bbbd
00000090: b22d a2be 6db0 45be cc9d 18be 48b0 9bbd
000000a0: cc93 783d d2d9 33bd 67dc 34be 165d cabc
000000b0: 12bd 8b3d b9d3 5ebe 30c0 1cbe 58a2 b03d
000000c0: af6f 103e a29f c93e 260a bbbe 01c2 8dbd
000000d0: 5376 a4be 69b5 b0bd e734 17be a2eb 9ebd
000000e0: 3e2e 4fbe 9eed e1be dffc 86be f2f2 c0bc
000000f0: 89b4 cebe 8a63 25be 9687 99be 3e72 93bd
00000100: 3ff8 983e 3fa3 e3bd 2bd2 4dbe 303f 003d
00000110: 5888 043e f1f3 193f 0d15 123d e23a 813e
00000120: 98e2 093f 410f ca3e 4517 2e3f 5c70 03be
00000130: c699 43bd 29a0 d53d 505a fe3d 01df 813e
00000140: 0094 35bd e3be dbbb 5bbd 9a3d e37a 423e
00000150: 1c6a 243d d9cd 39be 6ddb 853d a859 e23d
00000160: be0b 913e 92e5 103d 5d37 cebc 4cb3 4a3e
00000170: 3940 a1bd 1898 b1bc dd09 7ebe ee54 26be
00000180: 20f9 b43d ee0f 0d3d b084 f43b 17cc 8dbd
00000190: 1b4a 8cbc fa47 efbd 2ddb bf3d 6018 7c3e
000001a0: fad0 f63c 6793 13be ec92 b6bc c070 613d
000001b0: 1387 1e3e 11da 1f3c cc73 fbbc d462 563e
000001c0: 522d 333e 0888 613d 5000 293d 4139 063e
000001d0: bf1b 2e3e d08e 8a3e 1cc8 27bd 1530 853c
000001e0: 1eae 4e3d f22f 3c3c a254 f83d b245 b8bd
000001f0: 6569 57be 983d 26bd 3523 213d 549c cdbd
00000200: b6cf 243e 1fb5 483e 2acc 13be 92ef 3dbe
00000210: ae24 553e c926 173e b793 523e 986a 44be
00000220: 53b7 9ebc 99fb e13d 21a7 cf3d d98a 993d
00000230: ca3b e5bd 032e d73c 255a cebd 9aa8 23be
00000240: a3bb a03d 6b31 a5be af78 abbc de8d 5c3e
00000250: fc93 6a3e 8e46 23be da5e c03e 3f09 933e
00000260: a748 c43e eff1 933e d1fd 2a3e 1107 373e
00000270: 87d7 e63e 0783 1e3e d242 b13d 3e79 cfbd
00000280: 256f 84bd 6cc6 273e 8720 87bc 662c e6bd
00000290: a443 c5bd 3fa7 84be b54c f73c 47d7 9bbe
000002a0: 4c12 1abe 3d10 7dbd 7c05 1fbd 5365 06be
000002b0: e23c d6be 2e38 41be f330 18be 7d19 8c3e
000002c0: 738e d73e 4d33 d53e ccd0 8a3e c1b2 2b3e
000002d0: f151 453e fda6 3c3e 0687 163e 79ef ae3e
000002e0: 7e08 c53d f389 e73d a4c7 743e 7b51 0fbe
000002f0: 139b 28bc 0b4e 20be ab26 6abe 9ad5 383d
00000300: 9a0a 11bc 4332 edbc ee23 b2bd 9eec bfbd
00000310: 7df9 93be 818e 63be a8d9 84be 0ca2 21be
00000320: 8d3a be3e 9c5c e63e c1db b83e f068 583e
00000330: 4dde 273c 2916 14bd 4cb0 2bbd e7b4 923e
00000340: 96ed 08be 4a75 94be dd21 e0bd a677 aa3d
00000350: 9e90 5fbe 5179 21be a2d1 a9be 463b 1c3d
00000360: 7a4a c8bd 2920 d0bd 5f02 a4be 5fc4 cfbe
00000370: 2a46 efbd 8727 9abc 94e8 90be d07f eabe
00000380: eceb c8be f92f 5bbe 78dc 1fbe cd3a a9be
00000390: d6e3 103d 8164 db3c 8016 763d 7f66 0dbd
000003a0: fc34 8bbd 5cc1 883e 4594 b03e 2d8a 2f3d
000003b0: 4ae2 3abd a192 fcbd d1e6 6a3e fba9 aa3e
000003c0: 220e 8abd 10e8 86be 67b2 afbe 49bb d4bd
000003d0: 6c40 fcbd 7b41 a73e 63b4 c73c e4a5 47be
000003e0: 4ebe 223d 5683 843e 81a1 033d 4680 a9bc
000003f0: fbe4 a3bd 3e4e ad3e beae b13e a748 6c3d
0.09335157 0.18822643 -0.22390997 -0.3507153 -0.44290584 0.28293017 -0.1038314 -0.10539226
-0.25153926 -0.10176172 0.012320783 -0.078112334 0.026672412 -0.14455341 -0.04700684 -0.025326252
-0.18289347 -0.032540627 -0.011446328 0.16832063 -0.051229965 -0.015104211 0.20512953 0.29880744
0.2831585 0.16199368 0.10525331 0.27788866 -0.09455865 0.053126846 0.1062889 0.15111533
-0.21649069 0.0826235 -0.0522558 -0.09168314 -0.31675488 -0.19305582 -0.14903945 -0.07601982
0.060687825 -0.0439089 -0.17662202 -0.02470259 0.06823172 -0.21760453 -0.15307689 0.086247146
0.14105104 0.39379603 -0.3653118 -0.06921769 -0.32121524 -0.08628351 -0.14766274 -0.07759787
-0.20232484 -0.441266 -0.263648 -0.023553345 -0.40372112 -0.16151252 -0.29986256 -0.07199524
0.29876897 -0.11115121 -0.20099704 0.03131026 0.12942636 0.6013785 0.035664607 0.25240237
0.5386138 0.39464763 0.68004256 -0.1283583 -0.04775407 0.10430939 0.124195695 0.2536545
-0.044330597 -0.006706105 0.07555648 0.1899219 0.040140256 -0.18144931 0.06535993 0.11052257
0.2832927 0.035375185 -0.025172884 0.19794959 -0.078735776 -0.02167897 -0.2480845 -0.16243336
0.08836579 0.03443902 0.0074621066 -0.06923693 -0.01712518 -0.1168365 0.09367976 0.24618673
0.030128945 -0.14411698 -0.022286855 0.055039167 0.15481214 0.009756581 -0.030694865 0.20936137
0.17497757 0.05506137 0.041260064 0.13107778 0.17002772 0.27062082 -0.040962324 0.016258279
0.05045902 0.01148604 0.121255174 -0.08997668 -0.21036299 -0.040586084 0.039340217 -0.10039583
0.1609486 0.19600342 -0.14433351 -0.1854842 0.20814773 0.14760889 0.20564161 -0.19181287
-0.019374525 0.110343166 0.10139299 0.07497186 -0.111930445 0.026267057 -0.100757875 -0.15982285
0.07848289 -0.32264265 -0.02093157 0.21538493 0.22908014 -0.15944883 0.37572366 0.28717992
0.3833668 0.28895518 0.16698386 0.1787379 0.4508631 0.1547967 0.08655323 -0.10130547
-0.06466512 0.16384286 -0.016495002 -0.11238937 -0.09632042 -0.2590885 0.030187944 -0.3043768
-0.15046042 -0.061783064 -0.03882359 -0.1312459 -0.41843325 -0.18869087 -0.14862423 0.27363196
0.42100868 0.41640702 0.27112424 0.16767408 0.1926954 0.18423076 0.14699945 0.34167078
0.096207604 0.113056086 0.23904282 -0.13995926 -0.010290879 -0.15654771 -0.22866313 0.04512558
-0.008852625 -0.02895463 -0.08698259 -0.09371303 -0.28901282 -0.2222233 -0.2594731 -0.15784472
0.37154046 0.4499253 0.3610516 0.2113378 0.010245872 -0.036153946 -0.041916177 0.28653643
-0.13371882 -0.28995734 -0.10943959 0.083236024 -0.21832511 -0.15768935 -0.3316775 0.038142465
-0.0977983 -0.10162384 -0.3203306 -0.40579507 -0.116833046 -0.018817676 -0.28302443 -0.45800638
-0.39242494 -0.21405019 -0.15611446 -0.33052674 0.03537353 0.026781322 0.06008005 -0.034521576
-0.06797215 0.26710021 0.3448812 0.042856384 -0.045625962 -0.12332655 0.22939612 0.3333281
-0.06740977 -0.26348925 -0.34315798 -0.10387284 -0.12316975 0.32667145 0.024378007 -0.19496876
0.03973227 0.2588145 0.032136444 -0.020691048 -0.08002659 0.33848757 0.3470363 0.057686474

features.1.weight f4 [6]
00000000: 107a 813f 682f 193f ea22 803f 4c80 963f
00000010: 703f bb3f 4c55 bb3f
1.0115376 0.5983796 1.0010655 1.1757903 1.4628735 1.4635406

features.1.bias f4 [6]
00000000: ae25 543c 8d09 eb3d 0ae9 863e e94d d93b
00000010: 06b7 61bd 3157 813d
0.012948437 0.11476431 0.2634967 0.006631602 -0.055106185 0.063154586

features.1.running_mean f4 [6]
00000000: f914 1dbc dd05 dbbd 306f 11bd 1a99 67bc
00000010: f116 913d 0215 893e
-0.00958752 -0.10694478 -0.035506427 -0.014135623 0.07084454 0.2677384

features.1.running_var f4 [6]
00000000: d8c9 fc40 cc91 a440 ff3a a041 bb32 9541
00000010: d9db e940 01a3 3941
7.899639 5.1427975 20.028807 18.64977 7.308087 11.602296

features.4.weight f4 [16, 6, 5, 5]
00000000: 6e0d 43be 55d7 d5bd ebd3 78bc 95b7 fbbd
00000010: 097d 40bb 525f 0bbe 0e61 14be 9db8 a5bc
00000020: 05c2 3ebd 9226 2cbc 3a67 8bba f814 0d3d
00000030: 382b b8bd 7f3e d2bd 4772 64bc 127e 783c
00000040: 8f8a 55bc 8f89 3ebd 68ac 8e3d e2a7 1b3d
00000050: efbc ff3d 25ef d83d 1d05 963d a535 3e3e
00000060: 01c7 5b3c d57e 0cbe a6b4 323c f156 e13d
00000070: 2f7e 203d 9c8a 8b3d 2304 4b3d c81f 903d
00000080: 7dc5 c43c 477a d13c 98b4 38bd 7b2f 273e
00000090: 5c26 e23d 1225 423d 11b4 a43c f86c 5bbb
000000a0: f9d0 023d ad41 da3c 0c34 983d 09ee 9bbd
000000b0: 79cf 9abd 3ea3 c93c c457 09bd 584b 873d
000000c0: c66f 96bd 6b09 263c f86e cfbc 1043 d9bd
000000d0: 14f8 413d 17d9 673d d44b 6d3b 142c 0c3e
000000e0: 814b fb3b 4c21 f6bc 8ac6 263e e91d 51be
000000f0: 22f5 db3d af44 1e3d 1d6d 363d 81ad e93d
00000100: 8278 9fbd 207a 8b3d 27d2 46bd 328c a73d
00000110: 21c1 be3d 6db8 4bbe 2ee7 04be a668 13bc
00000120: 0264 023c 279e 0f3d 490b f4bd d79f 45be
00000130: 1ab0 963c 6918 e43b 4afd 41be b4e5 8fbe
00000140: 00ef 74bd 1908 04be 5575 d7bd a70d 63be
00000150: ffad 3bbe dc1e 24be 6bad cbbd 3633 b4bd
00000160: 2fe3 c33b c2c0 bcbd f66e 41be cd2b 31be
00000170: 4c7e 3ebd 48d3 c2bc e72d 64be c429 fc3c
00000180: 2c56 333d 7ad7 24bd a4a7 3bbd f298 f2bd
00000190: eed4 d4bd 4480 97bd 666d 24be 1d67 febd
000001a0: cb79 ba3b fc80 56bd 6a0e 02be 934f 80bd
000001b0: 750d cbbd 7fca 49bd b3d3 ed3b db6c 44be
000001c0: 1937 6fbe a301 eebd e343 483c 1148 893d
000001d0: c4fd f93c 3628 d7bd d448 53bc 757d 73bc
000001e0: 95c0 9e3c 62d1 693e a580 0a3e 07b0 0d3d
000001f0: 4afe ddbc 4483 12be 55ec 8cbd 4aa8 0dbd
00000200: 6e46 9c3d 605d 803e 0a87 1abe 45d6 c4bd
00000210: 8a92 44bd 06fe 7a3e 9893 003e 884e 1dbe
00000220: b267 443d 0595 ce3c 20c1 1c3d dd9a f73d
00000230: 02ac 193d 5ccb 113e cee2 e23d 49c1 70bd
00000240: a315 3dbd 5da1 053e c37c ca3d ab97 1ebe
00000250: 749d f5bd 170c 0ebe 6a59 3d3e a2c1 be3b
00000260: da87 e1bd 6b65 91be 46bf a83b 806e 83bd
00000270: 2ad7 49be 6c5d 8fbe 3684 3ebe 991d 783e
00000280: 709d 39be cc80 1cbe a429 8fbe 1df8 533e
00000290: 07ba ac3e b48d 53be 70c2 3abd 034d 833c
000002a0: 88b7 123e a253 853e f7cd 92bb acbf ce3d
000002b0: f901 f63c 95b7 253e df7f 04be 059b b9bd
000002c0: 3259 abbd 5abc 0dbd a98b ac3d 7665 06be
000002d0: c5e5 3a3d 0a3c 26bd b72d 80bd 0f69 96b9
000002e0: ce44 8fbd 6c5b f0bc ee87 e5bc 7d96 a53a
000002f0: 1844 ad3c c35f ecbd b58b c3bc 4f0d 82bd
00000300: 8cd3 c43c 8c6c 17bc 90a9 7d3e efe9 3f3e
00000310: dbfa b3bc f02f 2dbd 8b47 2c3e f272 a23e
00000320: 9261 273e fdc4 fdbc 9e03 51be d00d e03d
00000330: 80cc 373e e9fc 973d ae6a 41bd 0344 d0bd
00000340: 021e 5b3e 7b8e 2dbd f8e8 fd3d 7d55 b2bd
00000350: 7e90 333e 6159 2a3e 5fa7 97be 4101 1c3e
00000360: 1bee 1d3e cada 033e f302 87bd c5cb a7be
00000370: 9e41 44bd e926 c43d 31cb 533d 2d55 30be
00000380: 6fc8 81be 5022 563d 9504 4a3e 6184 c73c
00000390: 1386 17bd 6aed 08be 778d 333e be16 7abe
000003a0: 942e 923d 1ddd 04be fa0b 0bbe 9041 a4bc
000003b0: 7406 3ebc 51f5 47bd eeea 13bd 3269 06be
000003c0: 69f5 acbc 8f38 23bd b556 1f3d 947d c73c
000003d0: 50f1 bbba c4ce b93c f060 e43b 6296 5b3d
000003e0: 49df fd3c ce92 883c 347b 433d beb2 693b
000003f0: 74f0 c93d c1ff dd3c d9cf 22be e625 c93d
-0.19048092 -0.10441462 -0.015187244 -0.12290875 -0.0029371402 -0.1361058 -0.14490148 -0.020229632
-0.04657175 -0.010507243 -0.0010635622 0.034443825 -0.08992618 -0.102658264 -0.0139432615 0.015166776
-0.013033523 -0.046517905 0.06966478 0.038001902 0.12487208 0.10592488 0.07325194 0.18575151
0.013414145 -0.13720258 0.010907328 0.11002911 0.039182838 0.06813547 0.049564492 0.07037312
0.024019951 0.025571002 -0.045094103 0.16326706 0.11042473 0.047398634 0.020105394 -0.0033481698
0.031937573 0.026642645 0.07431802 -0.07613761 -0.075591035 0.024613973 -0.033530965 0.066061676
-0.07345538 0.010134081 -0.025321469 -0.10608494 0.047355726 0.056603517 0.0036208527 0.1368869
0.007668913 -0.030045174 0.16286674 -0.20421566 0.10740115 0.03863972 0.044537652 0.11410046
-0.07786657 0.06810403 -0.04854026 0.08181037 0.0931418 -0.19894572 -0.12978813 -0.008997118
0.007958414 0.035062935 -0.11916215 -0.19299255 0.018394519 0.0069609177 -0.18944278 -0.28104937
-0.05979824 -0.12893714 -0.10520426 -0.22173177 -0.18328093 -0.16027397 -0.09945186 -0.0879883
0.00597801 -0.09216453 -0.18889984 -0.17301865 -0.046507165 -0.023782387 -0.22283135 0.030781634
0.04378335 -0.040244557 -0.04581417 -0.11845578 -0.103921756 -0.073975116 -0.16057357 -0.12422011
0.0056907884 -0.052369103 -0.12700811 -0.062651776 -0.09914676 -0.04926538 0.0072579025 -0.1918215
-0.23360862 -0.11621406 0.012223217 0.06703199 0.030516513 -0.105057165 -0.012895782 -0.014861454
0.01937894 0.2283378 0.13525636 0.0345917 -0.027098794 -0.14307886 -0.06881014 -0.03458432
0.07630621 0.2507124 -0.15090576 -0.09611181 -0.047991313 0.24510965 0.12556303 -0.15361989
0.047950454 0.025217542 0.038270116 0.12090085 0.037517555 0.14237732 0.11078416 -0.05877808
-0.046163213 0.13049836 0.09887078 -0.15487544 -0.119929224 -0.138718 0.1849114 0.0058214227
-0.1101224 -0.28397688 0.0051497547 -0.064175606 -0.19710985 -0.28000963 -0.18605122 0.2423004
-0.18126464 -0.15283507 -0.27961457 0.20700116 0.33735678 -0.20659524 -0.045595586 0.016027933
0.14327824 0.2604037 -0.0044801193 0.10095152 0.030030238 0.16183312 -0.12939404 -0.09062771
-0.08366622 -0.034603454 0.084250756 -0.13124642 0.04562928 -0.0405846 -0.062587194 -0.00028688504
-0.06995545 -0.029340468 -0.028018918 0.001263335 0.021150634 -0.115417026 -0.023870328 -0.06350195
0.024026655 -0.009242188 0.24771714 0.18741582 -0.021970203 -0.042282045 0.16824166 0.3172832
0.16345814 -0.03097772 -0.20411536 0.109401345 0.17949104 0.07421286 -0.04722088 -0.10169222
0.21398166 -0.042372208 0.12397951 -0.08707712 0.17535588 0.16635658 -0.29619882 0.15234853
0.15422861 0.1287643 -0.065923594 -0.3277265 -0.04791414 0.09577734 0.05170745 -0.17219992
-0.2534823 0.052278817 0.1972831 0.024355115 -0.036993098 -0.13371816 0.17534433 -0.24422738
0.0713779 -0.12974973 -0.13578787 -0.020050794 -0.011598218 -0.048817936 -0.03611272 -0.13126066
-0.021113114 -0.03984886 0.03890105 0.024351873 -0.0014338885 0.022681601 0.0069695637 0.053610213
0.03099026 0.016671564 0.047724918 0.0035659517 0.09860316 0.027099492 -0.158996 0.09821682

features.5.weight f4 [16]
00000000: 4d82 733f a59e ba3f 045c cb3f 87f5 b63f
00000010: c2c4 ab3f 645e a93f 82be 813f b9e2 813f
00000020: eb2d a53f f603 933f 40f8 803f 08b5 a53f
00000030: 96e5 9f3f e359 8d3f e031 983f c58e 9b3f
0.951207 1.4579664 1.5887456 1.4293679 1.3419421 1.3231931 1.0136263 1.0147315
1.2904638 1.1485584 1.007576 1.2945871 1.2491939 1.1043056 1.1890221 1.2152945

features.5.bias f4 [16]
00000000: f50b 45be d098 3fbf a861 0cbf 1ca0 8abe
00000010: 03f6 06bf 779d f0be c362 6ebe f5c9 8fbe
00000020: 5e33 8ebe 1e2f 4abe d5a5 92bd 5507 e7be
00000030: 185c dfbe 5026 c2be 051c c3be e51f 25be
-0.19242842 -0.7484255 -0.5483651 -0.2707528 -0.52719134 -0.46995136 -0.23279862 -0.28083768
-0.27773565 -0.19744536 -0.07160536 -0.4512278 -0.4362495 -0.37919855 -0.38107315 -0.16125448

features.5.running_mean f4 [16]
00000000: 3507 98bf 477b 30bf f86e 18bf 2944 e0bf
00000010: 3585 3abf 610a 57bf 5063 c73f 35b1 023f
00000020: 3cdc 9cbf 0bc6 33be e871 33bf d97e 4abf
00000030: 4ce8 21bf 5d81 a93f 52a4 d3be c614 0ac0
-1.18772 -0.68938106 -0.59544325 -1.7520801 -0.7285951 -0.8400021 1.5577183 0.51051646
-1.225471 -0.17556016 -0.7009568 -0.79099804 -0.6324508 1.3242604 -0.41336304 -2.157518

features.5.running_var f4 [16]
00000000: 35b2 a53f c446 963f c89a 933f fce1 1740
00000010: 9130 1640 b774 0940 8c28 8e3f 0889 9e3f
00000020: 5af1 9a3f 6292 ab3f 5574 ae3f 115d e53f
00000030: 9f5f 933f 577f 8f3f c329 603f 92d8 0140
1.294501 1.1740346 1.153161 2.373168 2.3467143 2.1477487 1.1106124 1.2385569
1.2104905 1.3404047 1.3629252 1.7919027 1.1513556 1.1210736 0.87563723 2.0288434

features.9.weight f4 [120, 400]
00000000: bfe8 813d 345f c93d 6c7f 2fbc 9e2f 71bd
00000010: 3400 b23b 9c09 1abc e2da 763d fb0b ee3b
00000020: aa8b 56bd 3ff5 663c 3382 93bc 8def be3c
00000030: 54e0 e13c 9b25 5dbc fc7e 963b a243 6bbd
00000040: a917 b23b 9239 aa3c b028 323d 4a07 373d
00000050: 5a9e 4fbd 8b17 adbc 240a e83b aee1 993d
00000060: 0b1c 923d a403 ca3c 708c e93d 9fd9 2a3d
00000070: 68b3 85bd 3e60 9ebd 2f00 22bb 6ffb 523d
00000080: 312a d03c 4686 92bc f67f 1cbd 1916 1abb
00000090: f9ff bbbb 3c73 693c 2c74 1bbd d521 38bd
000000a0: 484c 43bc 8287 08bd 21d2 75bc 8fb8 ac3c
000000b0: 301f d23c 7d88 f1bc e9c9 8fbd c563 04bd
000000c0: fbe1 923d 0e2c a83c 6c8f 14bd 0697 1d3d
000000d0: 78d6 203d ea06 2a3c c0c1 f5bb 154c a4bd
000000e0: c125 eb3c c3db a33d 02ca 59bc 543f 29bd
000000f0: 0dd3 a4bd f4b2 27bd fae9 8f3d 9d09 103c
00000100: bf62 87bd ca08 a4bd a90f 97bd 34b5 8c3a
00000110: e994 b03c 3475 37bd d391 02bd 5072 97bd
00000120: f0ed 62bd b9d9 eb3b 478f 71bc 815b 8c3d
00000130: b476 9fbd 782c b8bd 01a6 7c3d 470e 273e
00000140: dc6f 513d 9ac0 d6bc 9681 60bd bc97 3b3c
00000150: 7fc5 0b3e 10ea 203d 0a9f 0c3c 7957 a23c
00000160: 14ce f2bc 28d9 1f3d 7c5e 00bc 8320 d23c
00000170: 5c71 253d ead7 863b 0029 e9bc f60c 1fbd
00000180: 50fa 1d3c 38ff 1f3d fcc6 88bc bfa5 3fbd
00000190: 8308 24bd 1ae5 8d3c 4f22 d33c 0810 8a3d
000001a0: 9237 c4bc 3856 46bc d744 24bd 6e7b 29bc
000001b0: fa18 023d 45e4 8d3c 9ac4 823c 6cac c9bc
000001c0: ab88 5fbc 93f8 5a3b a67a 713a 2831 133c
000001d0: e9aa 3bbd 6c33 59bd 059f 64bd c87f 86bc
000001e0: 0996 803c 78a6 9cbc d9f6 a7bc 5ddf b9bc
000001f0: f46a 693a dcbc 7a3c f63e 1b3c 4dba bd3d
00000200: 39ee 4ebc 2078 c3bd 4185 f63b 8b68 adbb
00000210: d263 d23c c4f2 003c 8e64 71bd c0fd 2abc
00000220: c64c 3bbc 9dab 803b d884 14bb 1bdb e1bc
00000230: 5f2f 963c 30f4 ee3a 9715 81bc 9501 a2bc
00000240: f2a5 d33c 5606 053d c522 f63b 4742 8ebc
00000250: baf6 febb 6937 a2ba ed8a 22bd 9603 44bb
00000260: 0b9a 003d 139f 8fbc 21dc 63bd 36fe 18bd
00000270: adbc bebc b52c 143c 22b5 e6bb ef32 19bd
00000280: 7ca4 8fbc 48c4 8abc a359 e1bb de30 8abc
00000290: 9407 6ebc a2cc 1cbd 9eac 3f3c 8f1c 123c
000002a0: 4b81 963a 98f6 d8bc cea0 6dbd 4b9e 2ebc
000002b0: 492e 5f3c bcae 47bd a869 483c f27f b4bc
000002c0: 8d48 3a3d 4602 153c 016c 46bc 3b9c c8bd
000002d0: 8c31 e9bc 3a88 6d3c 1c5f 1abd 0943 7cbb
000002e0: f374 81bd 0c05 8bbc 5d5b 673a bc67 a6bc
000002f0: 0068 4a3a de92 abbc 6871 bcbc 90f1 b6bc
00000300: 4a2b 04bd 9b84 54bc 6889 6abc a580 0dbd
00000310: 076a 1dbd 5247 4bbd 8425 bdbc cf13 6bbc
00000320: 7256 daba 5a2c d2bb 7453 2abc 890a 363d
00000330: 1553 943d 3de9 27bd 2812 9dbc 2e5a a4bd
00000340: 477c 87bc 598b 583d 8fc9 6dbd 9db0 bbbc
00000350: 2eeb a2bc e51d a7bb 6881 72bb e876 94bc
00000360: 55c6 02bd 9c4c b1bc 7d26 62bd 2a1f 1ebd
00000370: 0d9e ec3c ec05 81bb 354f 10bd 5731 66bd
00000380: e07b 7abc 4ba2 b73d 8b8c aa3d b229 1d3d
00000390: 342d bcbd 7f19 8abd bc8e 8a3d 1c89 473d
000003a0: 47f0 783c 33ae 35bd 4349 87bd 57c6 903c
000003b0: d006 963b d94f 6e3b d173 86bc 0373 28bc
000003c0: e6cc a8bc 15c3 efbc 5df4 26bd b841 77bb
000003d0: 187f 223d 7128 14bd 644d 82bc 46eb 55bd
000003e0: fae3 09bc 87f2 653d 15f2 5abd 89d1 0f3c
000003f0: 29dc b0bc 7c68 1e3d f66c 443d d09a 05bd
0.06343221 0.09832612 -0.010711532 -0.058883302 0.005432153 -0.009401705 0.060267337 0.007264612
-0.052379288 0.014096557 -0.01800642 0.023307586 0.027572788 -0.013497735 0.0045927744 -0.057437547
0.0054349494 0.020779405 0.043495834 0.044684686 -0.050688125 -0.02112939 0.007081287 0.07513748
0.07134255 0.02465994 0.114037395 0.041711446 -0.0652836 -0.077332005 -0.0024719348 0.051509317
0.025410743 -0.017886292 -0.03820797 -0.0023511706 -0.0057373014 0.014248665 -0.037952587 -0.04495414
-0.011920042 -0.033332355 -0.015003712 0.021084098 0.025649637 -0.029484028 -0.07020933 -0.03232171
0.071720086 0.02052882 -0.03626959 0.038474105 0.039267033 0.010377625 -0.0074999034 -0.08022324
0.028704526 0.080009006 -0.013292791 -0.04132016 -0.08048067 -0.040942147 0.07027049 0.0087913545
-0.06610631 -0.08009489 -0.07376034 0.0010735155 0.02155538 -0.044789508 -0.03187735 -0.0739485
-0.055402696 0.0071975854 -0.014743633 0.068533905 -0.07786313 -0.08992857 0.06168175 0.1631404
0.051132068 -0.026214886 -0.054811083 0.0114497505 0.13649558 0.03928572 0.00858284 0.0198171
-0.029639281 0.039025456 -0.007835027 0.025650268 0.04039131 0.0041150944 -0.028461933 -0.03883072
0.009642199 0.039061755 -0.016696446 -0.046788927 -0.04004718 0.017321158 0.025773196 0.06741339
-0.02395228 -0.012105517 -0.040104713 -0.010344369 0.0317621 0.017320761 0.015962888 -0.02461835
-0.013643424 0.0033412322 0.00092116965 0.008983888 -0.04581729 -0.053027555 -0.055815715 -0.016418353
0.015696542 -0.019122347 -0.020503448 -0.022689516 0.0008904182 0.015303817 0.00947546 0.0926405
-0.012630039 -0.095443964 0.0075232093 -0.0052920035 0.025682364 0.00787038 -0.058933787 -0.010436475
-0.011431878 0.003926708 -0.002266219 -0.027570298 0.018333135 0.0018230733 -0.015757365 -0.019776145
0.025835965 0.032476746 0.007511469 -0.017365588 -0.007780877 -0.0012376133 -0.03968327 -0.0029909364
0.031396907 -0.017531907 -0.055629853 -0.03735181 -0.023283327 0.009043862 -0.0070406357 -0.03740209
-0.017534487 -0.016939297 -0.0068771406 -0.016869005 -0.014528174 -0.03828109 0.01169887 0.008917942
0.0011482624 -0.026484773 -0.058014683 -0.010657857 0.013621875 -0.048750624 0.012232222 -0.022033665
0.045479346 0.00909478 -0.012110711 -0.097954236 -0.028466009 0.014497811 -0.03768836 -0.0038492105
-0.063211344 -0.01697018 0.0008825565 -0.020313136 0.00077211857 -0.020944055 -0.023003295 -0.022331983
-0.032267846 -0.012971069 -0.014314987 -0.034546513 -0.038431194 -0.049628563 -0.023089178 -0.014347984
-0.0016657843 -0.0064139785 -0.010395873 0.04444364 0.07242409 -0.040993918 -0.019173697 -0.08025013
-0.016538752 0.052867267 -0.05805355 -0.022911364 -0.019887533 -0.0050999993 -0.0037003402 -0.018123105
-0.031927425 -0.021642976 -0.055212487 -0.03860394 0.028883958 -0.0039374735 -0.035231788 -0.056199398
-0.015288323 0.08966502 0.08327588 0.038369842 -0.09188309 -0.06743144 0.06765506 0.048714742
0.015194005 -0.044355582 -0.066057704 0.0176727 0.004578449 0.003636351 -0.016412647 -0.010281327
-0.020605516 -0.029267827 -0.040760387 -0.003772838 0.039671987 -0.03617138 -0.015906043 -0.052226327
-0.00841617 0.056139495 -0.053453524 0.008777984 -0.021589356 0.038673863 0.047955476 -0.032618344

features.9.bias f4 [120]
00000000: d305 fabb 7405 b3bb d99d 543e 7b60 333e
00000010: ee73 fcbc e44c 96bb e3fc 61bb 3978 723d
00000020: 2424 8f3b eb50 32b9 0613 f1bb be9f a2bd
00000030: 9257 b33c 4e3d 3d3c 5315 a03d d285 293c
00000040: 1aaa a13d faa5 3abc 7a89 66bd 7394 f63c
00000050: 6e57 8e3c 8025 833d 2963 f7bc 4e16 eebc
00000060: 0247 203d 4715 e5bc 41a9 653d 0b82 94bc
00000070: 83e5 d93d fdfa f33c 6d5a 1c3d cace 3c3c
00000080: 674d b93b 03f3 85bb ad3c 023c 469d f13b
00000090: bf05 a6bc 0fb0 80bc 8889 eaba 04de 683c
000000a0: b18b 4d3c 0710 71bb b92a 073d 5f93 9fbc
000000b0: 8610 8a3d 53f3 073d 4eb0 803c 7c73 503d
000000c0: c533 5a3c 8314 d63d a407 aa3a b74d 68bc
000000d0: eabe 933d 0f10 c93c b9c8 bf3b d03a 5ebc
000000e0: 8d2a 5a3c eab7 933b a4fb ee3c b62f c53c
000000f0: ddee c9bc ed7e ffbb 15cc d83c 1bd9 2f3c
00000100: 4cf4 d5bb b16a e4bb cdf5 71bb 2244 c33c
00000110: 22df a6bd 739e 823d de2b c43c 6cdd 0cbd
00000120: 6339 e63c 7b4f 30ba ee3b ab3b 87fa ab3d
00000130: 669e 8f3d 9fdf b43c a0dc 083c 69d7 e7bc
00000140: 9032 71bc cfde 8bbb 897a 733d 6ae2 a0bc
00000150: dae0 a5bc 6833 a3bc 4bb0 ca3d f849 783c
00000160: 4ee9 84bd c30f c03d bc5b cfbb 94ac f13c
00000170: 840d 67bd cea4 b0bc 0b6c 733d c693 fb3d
00000180: 07c9 be3c 19e6 e63d a557 413c 2e95 8b3b
00000190: 5eef bbbb cec4 45bd 252c b03c 2b2c 713c
000001a0: c566 943d 9743 4f3c baf3 2e3c 0695 2d3e
000001b0: caa7 a83c a831 853d 1935 123c 5ebc e93c
000001c0: 8507 333d faa6 bdbc 42e8 21bd a9f3 8bbb
000001d0: cd71 b6bc d5eb 403c d181 62bc 1b72 7fbd
-0.007630089 -0.0054632965 0.20763339 0.17517273 -0.030816998 -0.004586803 -0.0034483008 0.059196685
0.004368322 -0.00017005547 -0.007357004 -0.07940625 0.021892343 0.011550261 0.07816567 0.010346847
0.078937724 -0.011392111 -0.05628345 0.030100083 0.017375674 0.06403637 -0.03019865 -0.02906337
0.03913022 -0.027964247 0.056069616 -0.018128416 0.10639479 0.029782766 0.038172174 0.011523912
0.005654979 -0.004087807 0.007949037 0.007373485 -0.020266412 -0.015708951 -0.0017893771 0.014213089
0.012545512 -0.0036783235 0.032999728 -0.019479452 0.06741433 0.033191036 0.015709069 0.050891384
0.013318007 0.10453131 0.0012972248 -0.014178685 0.07214148 0.02454379 0.0058527854 -0.013563827
0.013315809 0.0045080082 0.029172726 0.024070602 -0.024650032 -0.007797113 0.026464501 0.010732914
-0.0065293666 -0.0069707264 -0.003692019 0.0238362 -0.08148028 0.06377878 0.023946699 -0.03439085
0.028103536 -0.00067257107 0.00522565 0.08397394 0.07012634 0.022079287 0.008353382 -0.028300958
-0.014721528 -0.004268504 0.05944303 -0.019639213 -0.02024882 -0.019921973 0.098969065 0.015154354
-0.06489812 0.09378006 -0.0063280743 0.029501237 -0.056409374 -0.02156296 0.05942921 0.12284045
0.023289217 0.112743564 0.011800681 0.004259727 -0.005735322 -0.04828339 0.021505425 0.014720003
0.07246164 0.012650392 0.010678226 0.16951379 0.02058782 0.06503612 0.008923792 0.028532203
0.043708343 -0.02315091 -0.03952814 -0.00427099 -0.022271061 0.011774977 -0.013824896 -0.06236468

features.11.weight f4 [84, 120]
00000000: 5fc9 d13d f5ad 053e ce69 743d b6cb e23d
00000010: ec6f 993c ca69 dc3c 4621 963d c91a b1bd
00000020: 2272 8bbc 59ed d7bd 204e 49bd 76ee 713e
00000030: ce4b b53d 31c1 343d a834 5a3b f12b 083d
00000040: ee19 893d 4045 39bd 50aa bf3d 761a 883d
00000050: 1a70 a83d a87f 0bbd 85f7 253d 9a58 0f3d
00000060: 4292 24be 67bc 29bc ee26 133c c611 f3bb
00000070: babc 423e add0 d13b 7e11 843c df1b 483d
00000080: 9aee 1eba c1b9 babc 168c a13d 2cef 553d
00000090: 4bb2 dbbc 05c9 ffbc 0aa9 143c c8b1 1ebd
000000a0: c670 d1bb ec42 d7bc 7c93 103c 8712 94bb
000000b0: 87b7 e8bb b9c9 313d 45e0 9c3c 9771 133e
000000c0: 496b 333e 8ac6 b6bd 205f 40bd 43f4 5a3d
000000d0: 3ba9 94bd 614f b43c 6151 433d 4bb6 163b
000000e0: f086 953d aff3 d93c 20f9 913c 2ef8 75bc
000000f0: a7e0 ae3d d204 a1bb d595 3b3d 97cb 593a
00000100: 95e8 d53c ae12 f1bd e4e0 4a3d 794f 4fbd
00000110: 7160 c7bd b867 aa3b 61da 5dbd 305e f33c
00000120: e90e 4e3c 0194 783b 5605 8b3c 0b4d ee3d
00000130: f0fc 3539 6c03 fa3d 6b7f b1bd ee96 cdbc
00000140: cd0b e0bd a3b9 803c 2c0d 6b3d 4bc0 f23d
00000150: 72b5 233e 4125 b8bd c23a fd3d 5fe8 d5bd
00000160: 1a07 a63c bef0 62bd 4bdb e63c 9649 933d
00000170: 1d5a febd dd07 dc3c 915c f53c e0a5 83bc
00000180: 0a27 813d 7a03 30be 3c83 6e3c d6ba 2a3d
00000190: 1e86 183d c227 243e 49b8 edbd 396e 95bd
000001a0: cbb7 f63b b104 5a3d 4422 abbc 498a 6a3d
000001b0: 665e aebc c33c 30be fff5 6bbd 1a8c db3d
000001c0: b56b 06be c105 f33d 369e a3bc 98b5 0b3c
000001d0: 31fe 073d 0a20 cbbc a4e3 dabc 6b24 afbd
000001e0: e7ad a9bc a2b0 69bd e18b e73c ac23 b93c
000001f0: 1d81 10bd 156d e6bb 8d56 9cbc 7595 bf3c
00000200: 330f a83b 84f7 abbc 3dbb 153c 42ec a1bc
00000210: 36af 4a3c f6a6 bc3b 40e4 3f3d 3781 0ebd
00000220: 0149 a93a 5e8b 77bc 9891 6f3b 9f37 f43b
00000230: c054 c13c ea18 853d 4658 e3bb 0f4d ad3a
00000240: edd1 733b f9ca e6bc 1682 cebb ff3b d9bc
00000250: f464 36bd 4814 003d e83a d83c 2344 acbc
00000260: 52af 4b3c e791 49bb 4dd0 dcbc d2f0 523c
00000270: 8295 f9bb 6c82 3d3a 5b8f eebb caee 5e3b
00000280: ba5f 8e3c d3ed f83b 5374 9f3c 6453 52bb
00000290: 22c5 5ebc 8e6c 3fbd 14f7 8fbc c29d 703b
000002a0: 4cdc 7a3c 55d9 9b3c 339c 53bc c522 c33a
000002b0: e63e 1f3d 5f3e adbb 2125 573c e345 9a3c
000002c0: ab6a 3dbd 419b 9dbb d776 5abc e49f f2bc
000002d0: 7a8f ccbc a506 b23b dab3 223b 8efb 103c
000002e0: 3353 9638 6edc 753c fba7 41bc 4c9e b139
000002f0: 3dec 16bc 8168 e0bc 4345 da3b ed0a 4f3c
00000300: 87c1 5bbc 8d62 223c 7f32 7b3b 776c 4c3d
00000310: fde2 3b3c 6a2a 81ba 4104 0abd a584 163b
00000320: 98d1 d1bc c0fe 5538 133f b63c 9efc 64bc
00000330: 5a98 eabc 508c 09bc ebe5 8c3c 7b24 1e3c
00000340: e837 02bc 73cb 7c3d b6bc 7dbb d079 ecb9
00000350: e534 07bd f9f6 89bc 9888 7c3c 4d20 0a3d
00000360: 8de9 083b 0481 68bc b777 9c3b 0551 29bc
00000370: 109a 723b 96b6 21bd 4f95 66bb bdbb 2b3d
00000380: 04bc 50bc 8adb 04bc ea77 fbbb 196f de3c
00000390: 5d57 773b 7f92 a83b 16b2 11bc 50a4 a3bc
000003a0: 1261 253b 0a02 01bd 404c 3fbd c1be 16bc
000003b0: 6246 8ebc f7c0 853c 855a 92bb 7393 0abb
000003c0: a4df cd3b 308f 7a3d f203 c03c d4de b43d
000003d0: d09c 6bbd 6bb2 293b 55a4 1bbd aaab 5fbc
000003e0: a4f1 6fbb 1c98 1ebd 3e50 0dbd 29ac 4f3d
000003f0: 48d6 223b c44e a9ba 207a ae3d 0f55 e8bc
0.102434866 0.1305464 0.059671216 0.11074011 0.018730126 0.026905913 0.07330565 -0.08647687
-0.017022196 -0.10543317 -0.04914677 0.23626122 0.08852349 0.044129554 0.0033295546 0.03324503
0.06694399 -0.045232058 0.093586564 0.06645672 0.08224507 -0.03405729 0.040519256 0.034996606
-0.16071418 -0.01035986 0.0089814495 -0.0074178902 0.19017306 0.00640305 0.016121622 0.048854705
-0.0006062776 -0.022793652 0.078880474 0.052230045 -0.026818415 -0.031223783 0.009073505 -0.038743764
-0.0063916175 -0.026277028 0.0088242255 -0.00451881 -0.0071019563 0.04340527 0.019149909 0.143988
0.17521395 -0.08924587 -0.04696572 0.053455602 -0.07258841 0.022010507 0.04768503 0.0022996839
0.07301128 0.026605455 0.017818987 -0.015012784 0.08538943 -0.0049139047 0.045797188 0.00083082303
0.02611188 -0.11771141 0.04953088 -0.0506129 -0.097351916 0.0052003525 -0.05416334 0.029707998
0.012576797 0.0037930014 0.016970318 0.116357885 0.00017355732 0.12207684 -0.08666881 -0.025096383
-0.10939751 0.015713518 0.05738561 0.11853083 0.15987185 -0.089914806 0.12364723 -0.10444712
0.020267058 -0.05540537 0.028180739 0.0719177 -0.124195315 0.026859218 0.029951366 -0.016070306
0.06306274 -0.17188826 0.014557656 0.041682087 0.03723728 0.16030791 -0.11607415 -0.07296414
0.007529234 0.05322713 -0.020890363 0.057260785 -0.021285247 -0.17210679 -0.057607647 0.107200816
-0.13127024 0.11866332 -0.019972902 0.008527182 0.0332014 -0.02479555 -0.026719876 -0.08551868
-0.020712806 -0.057053216 0.028264942 0.022600017 -0.035279382 -0.0070320466 -0.01908424 0.023386696
0.005128765 -0.020992048 0.009138879 -0.019765977 0.012370875 0.005757208 0.046848536 -0.034791198
0.0012915434 -0.015108911 0.0036555286 0.0074529196 0.023599982 0.064988926 -0.0069380132 0.0013221818
0.0037203983 -0.028172957 -0.0063021285 -0.026517866 -0.04452987 0.03126934 0.026395276 -0.021028584
0.012431936 -0.003075713 -0.026954794 0.012874799 -0.0076166997 0.0007229212 -0.007280273 0.003401684
0.01737963 0.00759671 0.019464647 -0.0032093162 -0.013596805 -0.046734385 -0.01757387 0.0036715125
0.015311312 0.01902453 -0.012915659 0.0014887681 0.038878344 -0.005286976 0.013131411 0.018832153
-0.046244305 -0.0048097675 -0.013333998 -0.029617257 -0.024970759 0.005432921 0.0024826438 0.008849038
7.1680544e-05 0.015006168 -0.011819835 0.0003387801 -0.009211597 -0.027393581 0.0066610887 0.012636882
-0.01341284 0.009911192 0.0038329659 0.049908128 0.011467692 -0.0009854559 -0.033695463 0.0022967246
-0.025612637 5.102041e-05 0.022246873 -0.013976244 -0.0286371 -0.0083952695 0.017199477 0.009652252
-0.007947899 0.06171746 -0.0038717217 -0.00045104185 -0.03300943 -0.016841399 0.015413426 0.03372221
0.002089116 -0.014190916 0.0047750133 -0.010334258 0.0037018098 -0.03948077 -0.003518421 0.041927088
-0.012740139 -0.008108983 -0.007674207 0.027152585 0.0037741282 0.005144417 -0.008892557 -0.019975811
0.002523486 -0.031496085 -0.046703577 -0.009200753 -0.017367546 0.016327364 -0.004466357 -0.0021145015
0.0062827636 0.06117171 0.023439381 0.088315636 -0.057522595 0.00258937 -0.037998516 -0.013651768
-0.0036612535 -0.03871928 -0.034500353 0.050701294 0.002484696 -0.0012917151 0.08519387 -0.028360872

features.11.bias f4 [84]
00000000: b237 733e dcfc 6f3d bbbf 313e 637b 893e
00000010: 24fc d5bd 9a4a 8f3d 817d c93d 1b2b 9b3b
00000020: fc13 2b3d ed31 ea3d 7a36 513d a46b a8ba
00000030: b494 3b3d a902 233e 8573 413c e180 313c
00000040: 18da bfbb dfb2 0e3e a773 cdba 86bc 463e
00000050: f47e ee3c c6ed 703d 15c7 d63d 3ed9 933d
00000060: f1de d6bb ada6 88bd ab33 333e 7612 5b3e
00000070: 75e5 353e ae18 d939 72eb 3ebd 4db0 4e3c
00000080: 2070 c43b 6528 053d c6d8 c1bc ea1e 62bb
00000090: 2096 a93d 4851 61bb aef6 45b9 fc81 d73d
000000a0: e796 913b ca37 88bb d8f5 d93d 737e 183d
000000b0: 1567 2abd 152e 033e a411 9b3d 8d89 703c
000000c0: 99ec 7f3d 30b7 5ebd 6294 1d3b c6cf bdbb
000000d0: 5ac9 333e fc85 083e c8e6 7d3e 6901 4a3e
000000e0: ea7f 473e 3511 69bc 148a d93b 5f89 5b3c
000000f0: c215 0fbb f9c8 b53b 2af2 1d3e 7100 563e
00000100: fc51 803d 6d2c 463e 5638 873e bb3c 8d3d
00000110: d8c6 903e 6c56 0b3a 23da 083b 9171 cdbb
00000120: d8f0 57bb 0135 bc3c b99d 2fbb 8658 0b3e
00000130: 88d7 abbc b6f0 db3c 3ad5 923d 2b7f 1d3e
00000140: 74b6 7fbb 1765 553d d30d 2a3e d705 333c
0.23751715 0.058590755 0.17358296 0.2685195 -0.10448483 0.06996651 0.09838391 0.004735363
0.041767105 0.11435304 0.051077344 -0.0012849462 0.04579611 0.15918984 0.011807327 0.01083395
-0.005854856 0.13935421 -0.0015674726 0.19407853 0.02911327 0.05882051 0.10487191 0.0721917
-0.0065573384 -0.06672416 0.17500179 0.21393761 0.17763312 0.00041407853 -0.046611257 0.012615276
0.0059948117 0.032509226 -0.023662936 -0.003450329 0.08280587 -0.0034380723 -0.0001887928 0.105228394
0.004443038 -0.004157041 0.10642594 0.037229966 -0.041602213 0.12810548 0.07571724 0.014681232
0.062481496 -0.05437392 0.0024044742 -0.005792591 0.17557278 0.13332361 0.24795067 0.197271
0.19482389 -0.014225294 0.0066387746 0.013399451 -0.0021833037 0.0055476394 0.1542441 0.20898606
0.06265637 0.19352885 0.26410168 0.06896349 0.28276706 0.0005315307 0.0020881973 -0.0062696417
-0.003294995 0.022974493 -0.002679689 0.13607988 -0.020976797 0.026848178 0.07169576 0.15380542
-0.0039018663 0.05209836 0.16606836 0.010926685

classifiers.0.weight f4 [5, 84]
00000000: 51ed 1d3f dc92 a5bd ef54 ec3d bc4b 383e
00000010: b807 f3bd 21ca 28be 5d7c 8abe f0e9 693e
00000020: e188 82be 4cef b83e 2e2d 8cbc ef6d 273c
00000030: 10e9 c53d 61e8 c0be 4791 a2bd 66b5 d5bc
00000040: a080 833d 8f51 293d 4191 f83d bc3c 03bf
00000050: fb2f 74bd 356f 72bd bc61 c1bd c0ee 2dbe
00000060: b31e 02bb 7012 c3be 648f debe 0c60 08bd
00000070: 0731 783e d37f 703c eb4a 5c3e 5bfe eebd
00000080: c4cb 2fbc 451e 13be b12e f43d ad6d fa39
00000090: bee3 58be 96c6 313a 2c92 f63a 0070 6ebc
000000a0: 1c03 2d3e 6f02 86bc b462 c3be 33bc 8cbe
000000b0: 6434 95bd c08b c4bd 0757 9fbe 3fbc fcba
000000c0: 75a6 b63e ab55 a4bc c26e cdbc d6f9 cbb9
000000d0: b752 3abe bd82 953c 1aa0 923d 81d7 1e3d
000000e0: 8807 de3d a519 ac3e 6e45 c43a 6aa2 063c
000000f0: a2d1 353e 41bb ba3e 37f7 fe3c a36f 233e
00000100: 3a49 8e3c a065 393e f00b 173e 1a17 2ebe
00000110: c843 77be 6606 f8bb 80a8 3ebc 4f8e 3c3e
00000120: f764 a13c 3bdc 023c 6600 bb3a 18be d8be
00000130: 10dd 9bbe c5c0 213e f66a 8cbd ffbc 253f
00000140: dd82 1abb 442c 28be b31e 58be 7113 d63c
00000150: 9180 a2be ccee d9bc def7 d5be 632a abbe
00000160: a910 963c c124 0d3c 4c3f c13c e3de 1ebd
00000170: 1d23 143e c283 7f3d 4a08 f63d f5e3 27bc
00000180: d0f6 8dbe a23e 923e 0eae e53d fb5b a93c
00000190: ded1 8dbe e7ea 90be 6e0a 54bd 7606 373e
000001a0: c211 fdbc 0426 b9bc 39e0 ab3e dee5 bb3e
000001b0: d4bd 8e3a 33f5 d43d 7ee6 9f3e 187e 07be
000001c0: e0c8 89bd b7d7 5c3c 351b 69be ebda f23c
000001d0: f738 94bc 5be8 89be 3291 bcbd 99e9 cabc
000001e0: de8a 9e3c 841a 11bc 81b2 a83c 4024 98bd
000001f0: 8d89 15be d7a1 56bb ae60 3abe dcc2 c6bc
00000200: cfb5 8cbd aefa 803d ba9a ea3e d040 eb3c
00000210: ffcd d2bd 050f a33c efe6 813c 7a5d 72bc
00000220: f4d7 52bd 01a4 8abe 5e3a 4fbe 3d35 b5bd
00000230: a0f3 91bb 2406 1f3d e1e7 023e c8d0 773d
00000240: 679a 17be ed08 e8bd 77df 2cbe 9530 dbbd
00000250: f544 15be 9135 3bbd b703 7cbe bed2 0f3e
00000260: 7702 cc3e c5eb 81bc db3d 0a3d 2502 4fbe
00000270: 3873 833b 2368 623d b4b7 1c3c 551e a53d
00000280: 4691 2d3d dea6 323d 8591 f83d e846 c1bb
00000290: d887 5fbc ca48 6f3c 1bfd 7c3d 5ad8 d03d
000002a0: 251e c83d aa6a 1b3e bec1 793e 9c3e a83e
000002b0: 5b6e 67be 84b7 663d 337f d63c 2527 3abe
000002c0: 4c7c afbe b900 8abc b498 113d cbff aa3b
000002d0: 33d6 edb9 e612 103e b70e d9bd dbf8 47bc
000002e0: a10d a2bc 7e13 4f3e 4f6d 18be 4862 943d
000002f0: be0f c53c 09a5 f03d 5aff 9a3c 7511 91be
00000300: 21bb d1bb 6855 89bd bc6b 623d 1d39 963e
00000310: 5e73 323e 7fd4 23bc aa08 73be 0ac0 71be
00000320: 7200 9d3c 600d 083e a75d 5bbe da44 a9bb
00000330: 5996 27be 3f5c 8f3a 72d5 5abc 4794 493e
00000340: f669 7dbd a8db 223b eb0f 3a3d 73e7 5bbe
00000350: c4a2 41be 4667 d93d f2cc a2be f0f3 2c3c
00000360: cefb 13bc a27d 3cbe dee3 86bc 8aca 99bb
00000370: 8adf 873e 1f13 523e a761 c13e d40c 9e3e
00000380: 417b 683e f278 00bf 9fe8 66be bfdb c5bc
00000390: cf36 c2be 8f4b cbbe 8330 773e 0680 863e
000003a0: 505a e83d 504f 643e dbe1 bd3e e45f 113e
000003b0: 33c1 663e 5af8 1fbc 1a8b bc3c b9e9 fcbd
000003c0: 21ed b2bc 3368 183c 5931 5b3c a939 813d
000003d0: b9b8 64b9 d762 77bd 6ac1 b03d 06a9 b7bc
000003e0: 28ee b0bc 91c8 bc3d fb81 9d3e 0943 0bbe
000003f0: 7961 e83b fea4 0bbd ed08 223d a4c5 37bc
0.6169024 -0.08084652 0.11539637 0.1799764 -0.118667066 -0.16483356 -0.27048007 0.22843146
-0.25495055 0.3612007 -0.017111387 0.010219081 0.09663594 -0.3767729 -0.07937866 -0.026087474
0.06421018 0.041337546 0.1213708 -0.5126455 -0.05961607 -0.059188087 -0.094424695 -0.16985607
-0.0019854724 -0.38100004 -0.43468773 -0.033294722 0.24237452 0.014678913 0.21512954 -0.11669608
-0.010729734 -0.14367016 0.11922968 0.0004776543 -0.21180627 0.0006781606 0.0018811873 -0.01455307
0.16895717 -0.016358582 -0.38161242 -0.27487335 -0.07285383 -0.09596968 -0.31121084 -0.0019282176
0.35673872 -0.02006038 -0.025077228 -0.0003890532 -0.18195616 0.018250817 0.07159443 0.03877974
0.1084128 0.33613315 0.0014974305 0.0082174335 0.1775575 0.36470988 0.03112374 0.15960555
0.017368902 0.18105173 0.14750648 -0.17001 -0.2414695 -0.007569122 -0.011636853 0.18413661
0.019701464 0.007987077 0.0014267087 -0.4233253 -0.30442095 0.15796192 -0.06856339 0.6474151
-0.0023576536 -0.16423136 -0.21105461 0.026132317 -0.31738713 -0.026603125 -0.4179067 -0.33430776
0.018318491 0.00861472 0.023589753 -0.03878678 0.1446652 0.062381513 0.120133 -0.01024722
-0.27727365 0.2856341 0.11214839 0.020673743 -0.27699178 -0.28304216 -0.05176776 0.17873558
-0.030892257 -0.022601135 0.33569506 0.36698812 0.0010890313 0.103983305 0.3123054 -0.13231695
-0.06727767 0.013479165 -0.22764285 0.029645404 -0.01809357 -0.26935086 -0.09207381 -0.024769591
0.019353326 -0.0088564195 0.02059293 -0.07428789 -0.14603253 -0.0032750273 -0.18200943 -0.024262838
-0.06870615 0.06297813 0.45821172 0.028717428 -0.10293197 0.019904623 0.015857188 -0.014792794
-0.05147548 -0.2707825 -0.20237109 -0.08848045 -0.004454091 0.038824216 0.12783767 0.060501844
-0.14804994 -0.113298275 -0.1688212 -0.10702626 -0.14577086 -0.04570538 -0.24610792 0.14045236
0.3984563 -0.015859494 0.033750396 -0.20215662 0.004011538 0.055275094 0.009565283 0.08062426
0.04237487 0.04361617 0.12137131 -0.0058983453 -0.0136432275 0.014604757 0.061764818 0.10197516
0.097713746 0.15177408 0.24390313 0.32860267 -0.22600691 0.056327358 0.0261837 -0.18178995
-0.34274518 -0.016846048 0.03554602 0.005218481 -0.00045363753 0.14069709 -0.1059851 -0.012205328
-0.01978189 0.2022228 -0.14885448 0.07245308 0.024055358 0.11750228 0.01892059 -0.2833363
-0.0064004813 -0.06705743 0.055278525 0.2934045 0.17426822 -0.0099993935 -0.23733774 -0.23608413
0.019165251 0.13286352 -0.21422444 -0.0051656784 -0.16365947 0.0010937526 -0.013356553 0.1968547
-0.06186863 0.0024850164 0.045425337 -0.2147501 -0.18909746 0.10615401 -0.31796986 0.010556206
-0.009032203 -0.184073 -0.016466077 -0.004693334 0.26537734 0.20515107 0.37769815 0.30869162
0.22703268 -0.5018455 -0.22549675 -0.024152635 -0.3793244 -0.39706084 0.241396 0.2626955
0.11345351 0.2229588 0.37086377 0.14196736 0.22534637 -0.0097638015 0.023015548 -0.123492666
-0.021841587 0.009302187 0.013378465 0.06309826 -0.00021812589 -0.060396995 0.08630641 -0.022419464
-0.021597937 0.092179425 0.3076323 -0.1359979 0.007091698 -0.034092896 0.039559294 -0.011216555

classifiers.0.bias f4 [5]
00000000: 18e7 ebbe 44db 6e3f 6a76 513f 1a06 58bf
00000010: f9af e4be
-0.46074748 0.9330332 0.8182131 -0.8438431 -0.44665506

classifier.weight f4 [5, 84]
00000000: 51ed 1d3f dc92 a5bd ef54 ec3d bc4b 383e
00000010: b807 f3bd 21ca 28be 5d7c 8abe f0e9 693e
00000020: e188 82be 4cef b83e 2e2d 8cbc ef6d 273c
00000030: 10e9 c53d 61e8 c0be 4791 a2bd 66b5 d5bc
00000040: a080 833d 8f51 293d 4191 f83d bc3c 03bf
00000050: fb2f 74bd 356f 72bd bc61 c1bd c0ee 2dbe
00000060: b31e 02bb 7012 c3be 648f debe 0c60 08bd
00000070: 0731 783e d37f 703c eb4a 5c3e 5bfe eebd
00000080: c4cb 2fbc 451e 13be b12e f43d ad6d fa39
00000090: bee3 58be 96c6 313a 2c92 f63a 0070 6ebc
000000a0: 1c03 2d3e 6f02 86bc b462 c3be 33bc 8cbe
000000b0: 6434 95bd c08b c4bd 0757 9fbe 3fbc fcba
000000c0: 75a6 b63e ab55 a4bc c26e cdbc d6f9 cbb9
000000d0: b752 3abe bd82 953c 1aa0 923d 81d7 1e3d
000000e0: 8807 de3d a519 ac3e 6e45 c43a 6aa2 063c
000000f0: a2d1 353e 41bb ba3e 37f7 fe3c a36f 233e
00000100: 3a49 8e3c a065 393e f00b 173e 1a17 2ebe
00000110: c843 77be 6606 f8bb 80a8 3ebc 4f8e 3c3e
00000120: f764 a13c 3bdc 023c 6600 bb3a 18be d8be
00000130: 10dd 9bbe c5c0 213e f66a 8cbd ffbc 253f
00000140: dd82 1abb 442c 28be b31e 58be 7113 d63c
00000150: 9180 a2be ccee d9bc def7 d5be 632a abbe
00000160: a910 963c c124 0d3c 4c3f c13c e3de 1ebd
00000170: 1d23 143e c283 7f3d 4a08 f63d f5e3 27bc
00000180: d0f6 8dbe a23e 923e 0eae e53d fb5b a93c
00000190: ded1 8dbe e7ea 90be 6e0a 54bd 7606 373e
000001a0: c211 fdbc 0426 b9bc 39e0 ab3e dee5 bb3e
000001b0: d4bd 8e3a 33f5 d43d 7ee6 9f3e 187e 07be
000001c0: e0c8 89bd b7d7 5c3c 351b 69be ebda f23c
000001d0: f738 94bc 5be8 89be 3291 bcbd 99e9 cabc
000001e0: de8a 9e3c 841a 11bc 81b2 a83c 4024 98bd
000001f0: 8d89 15be d7a1 56bb ae60 3abe dcc2 c6bc
00000200: cfb5 8cbd aefa 803d ba9a ea3e d040 eb3c
00000210: ffcd d2bd 050f a33c efe6 813c 7a5d 72bc
00000220: f4d7 52bd 01a4 8abe 5e3a 4fbe 3d35 b5bd
00000230: a0f3 91bb 2406 1f3d e1e7 023e c8d0 773d
00000240: 679a 17be ed08 e8bd 77df 2cbe 9530 dbbd
00000250: f544 15be 9135 3bbd b703 7cbe bed2 0f3e
00000260: 7702 cc3e c5eb 81bc db3d 0a3d 2502 4fbe
00000270: 3873 833b 2368 623d b4b7 1c3c 551e a53d
00000280: 4691 2d3d dea6 323d 8591 f83d e846 c1bb
00000290: d887 5fbc ca48 6f3c 1bfd 7c3d 5ad8 d03d
000002a0: 251e c83d aa6a 1b3e bec1 793e 9c3e a83e
000002b0: 5b6e 67be 84b7 663d 337f d63c 2527 3abe
000002c0: 4c7c afbe b900 8abc b498 113d cbff aa3b
000002d0: 33d6 edb9 e612 103e b70e d9bd dbf8 47bc
000002e0: a10d a2bc 7e13 4f3e 4f6d 18be 4862 943d
000002f0: be0f c53c 09a5 f03d 5aff 9a3c 7511 91be
00000300: 21bb d1bb 6855 89bd bc6b 623d 1d39 963e
00000310: 5e73 323e 7fd4 23bc aa08 73be 0ac0 71be
00000320: 7200 9d3c 600d 083e a75d 5bbe da44 a9bb
00000330: 5996 27be 3f5c 8f3a 72d5 5abc 4794 493e
00000340: f669 7dbd a8db 223b eb0f 3a3d 73e7 5bbe
00000350: c4a2 41be 4667 d93d f2cc a2be f0f3 2c3c
00000360: cefb 13bc a27d 3cbe dee3 86bc 8aca 99bb
00000370: 8adf 873e 1f13 523e a761 c13e d40c 9e3e
00000380: 417b 683e f278 00bf 9fe8 66be bfdb c5bc
00000390: cf36 c2be 8f4b cbbe 8330 773e 0680 863e
000003a0: 505a e83d 504f 643e dbe1 bd3e e45f 113e
000003b0: 33c1 663e 5af8 1fbc 1a8b bc3c b9e9 fcbd
000003c0: 21ed b2bc 3368 183c 5931 5b3c a939 813d
000003d0: b9b8 64b9 d762 77bd 6ac1 b03d 06a9 b7bc
000003e0: 28ee b0bc 91c8 bc3d fb81 9d3e 0943 0bbe
000003f0: 7961 e83b fea4 0bbd ed08 223d a4c5 37bc
0.6169024 -0.08084652 0.11539637 0.1799764 -0.118667066 -0.16483356 -0.27048007 0.22843146
-0.25495055 0.3612007 -0.017111387 0.010219081 0.09663594 -0.3767729 -0.07937866 -0.026087474
0.06421018 0.041337546 0.1213708 -0.5126455 -0.05961607 -0.059188087 -0.094424695 -0.16985607
-0.0019854724 -0.38100004 -0.43468773 -0.033294722 0.24237452 0.014678913 0.21512954 -0.11669608
-0.010729734 -0.14367016 0.11922968 0.0004776543 -0.21180627 0.0006781606 0.0018811873 -0.01455307
0.16895717 -0.016358582 -0.38161242 -0.27487335 -0.07285383 -0.09596968 -0.31121084 -0.0019282176
0.35673872 -0.02006038 -0.025077228 -0.0003890532 -0.18195616 0.018250817 0.07159443 0.03877974
0.1084128 0.33613315 0.0014974305 0.0082174335 0.1775575 0.36470988 0.03112374 0.15960555
0.017368902 0.18105173 0.14750648 -0.17001 -0.2414695 -0.007569122 -0.011636853 0.18413661
0.019701464 0.007987077 0.0014267087 -0.4233253 -0.30442095 0.15796192 -0.06856339 0.6474151
-0.0023576536 -0.16423136 -0.21105461 0.026132317 -0.31738713 -0.026603125 -0.4179067 -0.33430776
0.018318491 0.00861472 0.023589753 -0.03878678 0.1446652 0.062381513 0.120133 -0.01024722
-0.27727365 0.2856341 0.11214839 0.020673743 -0.27699178 -0.28304216 -0.05176776 0.17873558
-0.030892257 -0.022601135 0.33569506 0.36698812 0.0010890313 0.103983305 0.3123054 -0.13231695
-0.06727767 0.013479165 -0.22764285 0.029645404 -0.01809357 -0.26935086 -0.09207381 -0.024769591
0.019353326 -0.0088564195 0.02059293 -0.07428789 -0.14603253 -0.0032750273 -0.18200943 -0.024262838
-0.06870615 0.06297813 0.45821172 0.028717428 -0.10293197 0.019904623 0.015857188 -0.014792794
-0.05147548 -0.2707825 -0.20237109 -0.08848045 -0.004454091 0.038824216 0.12783767 0.060501844
-0.14804994 -0.113298275 -0.1688212 -0.10702626 -0.14577086 -0.04570538 -0.24610792 0.14045236
0.3984563 -0.015859494 0.033750396 -0.20215662 0.004011538 0.055275094 0.009565283 0.08062426
0.04237487 0.04361617 0.12137131 -0.0058983453 -0.0136432275 0.014604757 0.061764818 0.10197516
0.097713746 0.15177408 0.24390313 0.32860267 -0.22600691 0.056327358 0.0261837 -0.18178995
-0.34274518 -0.016846048 0.03554602 0.005218481 -0.00045363753 0.14069709 -0.1059851 -0.012205328
-0.01978189 0.2022228 -0.14885448 0.07245308 0.024055358 0.11750228 0.01892059 -0.2833363
-0.0064004813 -0.06705743 0.055278525 0.2934045 0.17426822 -0.0099993935 -0.23733774 -0.23608413
0.019165251 0.13286352 -0.21422444 -0.0051656784 -0.16365947 0.0010937526 -0.013356553 0.1968547
-0.06186863 0.0024850164 0.045425337 -0.2147501 -0.18909746 0.10615401 -0.31796986 0.010556206
-0.009032203 -0.184073 -0.016466077 -0.004693334 0.26537734 0.20515107 0.37769815 0.30869162
0.22703268 -0.5018455 -0.22549675 -0.024152635 -0.3793244 -0.39706084 0.241396 0.2626955
0.11345351 0.2229588 0.37086377 0.14196736 0.22534637 -0.0097638015 0.023015548 -0.123492666
-0.021841587 0.009302187 0.013378465 0.06309826 -0.00021812589 -0.060396995 0.08630641 -0.022419464
-0.021597937 0.092179425 0.3076323 -0.1359979 0.007091698 -0.034092896 0.039559294 -0.011216555

classifier.bias f4 [5]
00000000: 18e7 ebbe 44db 6e3f 6a76 513f 1a06 58bf
00000010: f9af e4be
-0.46074748 0.9330332 0.8182131 -0.8438431 -0.44665506

features.9 f4 [120]
00000000: d305 fabb 7405 b3bb d99d 543e 7b60 333e
00000010: ee73 fcbc e44c 96bb e3fc 61bb 3978 723d
00000020: 2424 8f3b eb50 32b9 0613 f1bb be9f a2bd
00000030: 9257 b33c 4e3d 3d3c 5315 a03d d285 293c
00000040: 1aaa a13d faa5 3abc 7a89 66bd 7394 f63c
00000050: 6e57 8e3c 8025 833d 2963 f7bc 4e16 eebc
00000060: 0247 203d 4715 e5bc 41a9 653d 0b82 94bc
00000070: 83e5 d93d fdfa f33c 6d5a 1c3d cace 3c3c
00000080: 674d b93b 03f3 85bb ad3c 023c 469d f13b
00000090: bf05 a6bc 0fb0 80bc 8889 eaba 04de 683c
000000a0: b18b 4d3c 0710 71bb b92a 073d 5f93 9fbc
000000b0: 8610 8a3d 53f3 073d 4eb0 803c 7c73 503d
000000c0: c533 5a3c 8314 d63d a407 aa3a b74d 68bc
000000d0: eabe 933d 0f10 c93c b9c8 bf3b d03a 5ebc
000000e0: 8d2a 5a3c eab7 933b a4fb ee3c b62f c53c
000000f0: ddee c9bc ed7e ffbb 15cc d83c 1bd9 2f3c
00000100: 4cf4 d5bb b16a e4bb cdf5 71bb 2244 c33c
00000110: 22df a6bd 739e 823d de2b c43c 6cdd 0cbd
00000120: 6339 e63c 7b4f 30ba ee3b ab3b 87fa ab3d
00000130: 669e 8f3d 9fdf b43c a0dc 083c 69d7 e7bc
00000140: 9032 71bc cfde 8bbb 897a 733d 6ae2 a0bc
00000150: dae0 a5bc 6833 a3bc 4bb0 ca3d f849 783c
00000160: 4ee9 84bd c30f c03d bc5b cfbb 94ac f13c
00000170: 840d 67bd cea4 b0bc 0b6c 733d c693 fb3d
00000180: 07c9 be3c 19e6 e63d a557 413c 2e95 8b3b
00000190: 5eef bbbb cec4 45bd 252c b03c 2b2c 713c
000001a0: c566 943d 9743 4f3c baf3 2e3c 0695 2d3e
000001b0: caa7 a83c a831 853d 1935 123c 5ebc e93c
000001c0: 8507 333d faa6 bdbc 42e8 21bd a9f3 8bbb
000001d0: cd71 b6bc d5eb 403c d181 62bc 1b72 7fbd
-0.007630089 -0.0054632965 0.20763339 0.17517273 -0.030816998 -0.004586803 -0.0034483008 0.059196685
0.004368322 -0.00017005547 -0.007357004 -0.07940625 0.021892343 0.011550261 0.07816567 0.010346847
0.078937724 -0.011392111 -0.05628345 0.030100083 0.017375674 0.06403637 -0.03019865 -0.02906337
0.03913022 -0.027964247 0.056069616 -0.018128416 0.10639479 0.029782766 0.038172174 0.011523912
0.005654979 -0.004087807 0.007949037 0.007373485 -0.020266412 -0.015708951 -0.0017893771 0.014213089
0.012545512 -0.0036783235 0.032999728 -0.019479452 0.06741433 0.033191036 0.015709069 0.050891384
0.013318007 0.10453131 0.0012972248 -0.014178685 0.07214148 0.02454379 0.0058527854 -0.013563827
0.013315809 0.0045080082 0.029172726 0.024070602 -0.024650032 -0.007797113 0.026464501 0.010732914
-0.0065293666 -0.0069707264 -0.003692019 0.0238362 -0.08148028 0.06377878 0.023946699 -0.03439085
0.028103536 -0.00067257107 0.00522565 0.08397394 0.07012634 0.022079287 0.008353382 -0.028300958
-0.014721528 -0.004268504 0.05944303 -0.019639213 -0.02024882 -0.019921973 0.098969065 0.015154354
-0.06489812 0.09378006 -0.0063280743 0.029501237 -0.056409374 -0.02156296 0.05942921 0.12284045
0.023289217 0.112743564 0.011800681 0.004259727 -0.005735322 -0.04828339 0.021505425 0.014720003
0.07246164 0.012650392 0.010678226 0.16951379 0.02058782 0.06503612 0.008923792 0.028532203
0.043708343 -0.02315091 -0.03952814 -0.00427099 -0.022271061 0.011774977 -0.013824896 -0.06236468

features.11 f4 [84]
00000000: b237 733e dcfc 6f3d bbbf 313e 637b 893e
00000010: 24fc d5bd 9a4a 8f3d 817d c93d 1b2b 9b3b
00000020: fc13 2b3d ed31 ea3d 7a36 513d a46b a8ba
00000030: b494 3b3d a902 233e 8573 413c e180 313c
00000040: 18da bfbb dfb2 0e3e a773 cdba 86bc 463e
00000050: f47e ee3c c6ed 703d 15c7 d63d 3ed9 933d
00000060: f1de d6bb ada6 88bd ab33 333e 7612 5b3e
00000070: 75e5 353e ae18 d939 72eb 3ebd 4db0 4e3c
00000080: 2070 c43b 6528 053d c6d8 c1bc ea1e 62bb
00000090: 2096 a93d 4851 61bb aef6 45b9 fc81 d73d
000000a0: e796 913b ca37 88bb d8f5 d93d 737e 183d
000000b0: 1567 2abd 152e 033e a411 9b3d 8d89 703c
000000c0: 99ec 7f3d 30b7 5ebd 6294 1d3b c6cf bdbb
000000d0: 5ac9 333e fc85 083e c8e6 7d3e 6901 4a3e
000000e0: ea7f 473e 3511 69bc 148a d93b 5f89 5b3c
000000f0: c215 0fbb f9c8 b53b 2af2 1d3e 7100 563e
00000100: fc51 803d 6d2c 463e 5638 873e bb3c 8d3d
00000110: d8c6 903e 6c56 0b3a 23da 083b 9171 cdbb
00000120: d8f0 57bb 0135 bc3c b99d 2fbb 8658 0b3e
00000130: 88d7 abbc b6f0 db3c 3ad5 923d 2b7f 1d3e
00000140: 74b6 7fbb 1765 553d d30d 2a3e d705 333c
0.23751715 0.058590755 0.17358296 0.2685195 -0.10448483 0.06996651 0.09838391 0.004735363
0.041767105 0.11435304 0.051077344 -0.0012849462 0.04579611 0.15918984 0.011807327 0.01083395
-0.005854856 0.13935421 -0.0015674726 0.19407853 0.02911327 0.05882051 0.10487191 0.0721917
-0.0065573384 -0.06672416 0.17500179 0.21393761 0.17763312 0.00041407853 -0.046611257 0.012615276
0.0059948117 0.032509226 -0.023662936 -0.003450329 0.08280587 -0.0034380723 -0.0001887928 0.105228394
0.004443038 -0.004157041 0.10642594 0.037229966 -0.041602213 0.12810548 0.07571724 0.014681232
0.062481496 -0.05437392 0.0024044742 -0.005792591 0.17557278 0.13332361 0.24795067 0.197271
0.19482389 -0.014225294 0.0066387746 0.013399451 -0.0021833037 0.0055476394 0.1542441 0.20898606
0.06265637 0.19352885 0.26410168 0.06896349 0.28276706 0.0005315307 0.0020881973 -0.0062696417
-0.003294995 0.022974493 -0.002679689 0.13607988 -0.020976797 0.026848178 0.07169576 0.15380542
-0.0039018663 0.05209836 0.16606836 0.010926685
